Ablation Experiments/Remove resistance level-去掉阻力位/Transformer-DoubleDQN-QT-Final/64network-TransformerNoguiadance.pth (torch, 851590 bytes, 18 tensors)

encoder.self_attn.in_proj_weight f4 [30, 10]
0.09110502 -0.28107545 -0.39520538 -0.14510652 0.07877203 -0.7627905 -0.4608676 -0.018803716
0.4698488 -0.37664804 -0.28044212 -0.15054932 0.4394775 -0.40805936 -0.17116712 -0.88779163
-0.9905713 0.4436278 0.033529848 -0.059610873 0.16038747 -0.4031988 -1.4139421 -1.7707438
-1.482759 -1.1391379 -1.8179191 -0.4816681 0.23795037 0.34239817 -0.27292308 0.6134234
1.0134668 1.5241033 1.4176334 1.8297024 1.8482646 -0.48639882 -0.6773609 -0.066908
-0.3161289 0.16222422 -0.48649064 -0.5396212 -0.3212098 0.0837655 0.08984256 0.007156062
-0.3099671 -0.32745096 0.014017863 -0.31488037 0.23907445 0.05008743 -0.18679829 -0.7806793
-0.23192213 0.08300824 0.24334721 -0.37064508 0.3534976 -0.29122087 -0.9120634 -0.80945086
-1.1400578 -1.5171348 -1.4087292 2.1377165 0.22845137 0.10825881 0.65670365 0.3224971
0.55973417 0.43478477 0.45959267 0.26363376 0.23114778 -3.440805 0.5610876 0.2923323
-0.4772796 0.5088987 1.0076602 1.4036208 1.202371 0.6453095 0.56530684 -0.6932502
-0.49517512 0.09500328 -0.25349474 -0.23033702 -0.4581516 -0.14877659 -0.27816638 0.19227271
0.23590373 -0.34918243 0.1977584 0.16801542 0.32882679 -0.036164146 0.012772114 0.34843627
0.5802691 -0.43299106 0.25069487 -2.2503905 -0.91942817 0.08916077 -0.64187384 0.6920632
-0.33990794 0.9439146 0.78670514 0.07352723 -0.6560552 -0.4536522 -0.15489462 0.15137541
-0.4186915 1.4472036 -0.6365038 -0.12555937 -0.82600045 -0.57903594 -0.45460242 -0.7061952
-0.608602 0.38278836 0.58520836 -1.2729726 1.0492724 0.56583375 0.5161193 0.6320141
0.95586413 6.0371156 0.54000777 -0.3827536 0.14551751 0.4029913 0.7310038 -0.51603836
0.20083967 0.2180707 -0.12492032 2.3975475 0.74175686 0.17511064 -0.06089356 -0.039030988
-0.15548998 0.18894003 0.14777224 -0.014469566 -0.45349848 -2.4739292 -0.74545175 0.35201657
-0.14750665 -0.22233877 -0.21733262 -0.73046196 -0.16032311 0.40815333 0.29816163 1.0339298
-0.37463114 0.30139327 0.21075879 -0.34336472 -0.027204368 0.58919513 0.5332702 0.051165413
0.2792276 -1.5402303 -0.7099187 -0.11592549 -0.63431484 -0.5066539 -0.18027812 -0.6674973
-0.6100057 -0.6926667 -0.31625912 3.342696 0.7298622 -0.03635475 -0.019468307 -0.1797974
-0.36455378 0.082235895 0.43177822 -0.21727464 -0.06133403 -2.2706778 -0.54649585 0.28128386
0.33053747 0.17015804 0.36550075 0.44502982 1.1184487 0.2779788 0.15456809 -0.84299165
0.3554066 0.34512138 0.9857384 -1.0092534 0.023521805 0.67460334 -0.5211722 0.87873966
0.44208643 -0.187645 1.2361108 -0.11318427 0.34551856 -0.7595317 -0.11643703 0.980193
0.752809 0.012232127 0.56526244 -1.5232979 0.53372985 -0.35002315 -0.6104216 0.94801986
0.90459126 -0.5182416 0.1860651 -0.28140536 -0.6004695 0.1224759 -1.6529764 0.30788022
-0.2146784 0.07427073 1.3378799 0.42775175 -0.28529513 -0.17368782 -0.7614009 2.3502378
0.14535257 -0.03241843 0.32865238 0.07087232 -0.7061913 -0.059753515 0.56793755 0.17394854
00000000: 4595 ba3d 1fe9 8fbe 5c58 cabe ce96 14be
00000010: 3b53 a13d 3d46 43bf d7f6 ebbe 400a 9abc
00000020: 0690 f03e 03d8 c0be 1c96 8fbe 9a29 1abe
00000030: 3203 e13e 28ed d0be 6f46 2fbe 5046 63bf
00000040: 1596 7dbf 2f23 e33e 9856 093d 882a 74bd
00000050: 9d3c 243e 1370 cebe 0efc b4bf bca7 e2bf
00000060: 0ccb bdbf 45cf 91bf 93b1 e8bf 349d f6be
00000070: 43a9 733e d04e af3e 93bc 8bbe 5109 1d3f
00000080: 48b9 813f d115 c33f 0375 b53f b033 ea3f
00000090: ef93 ec3f 4409 f9be 8667 2dbf 1007 89bd
000000a0: a6db a1be 1b1e 263e 4d15 f9be 9d24 0abf
000000b0: 9c75 a4be 3f8d ab3d 60ff b73d 667d ea3b
000000c0: 02b4 9ebe a7a7 a7be 2eab 653c 0038 a1be
000000d0: efcf 743e 7a28 4d3d 0d48 3fbe 99da 47bf
000000e0: ff7c 6dbe 3900 aa3d 0330 793e 31c5 bdbe
000000f0: a3fd b43e e71a 95be fd7c 69bf 2c38 4fbf
00000100: 6aed 91bf 7931 c2bf 3d51 b4bf 59d0 0840
00000110: 28ef 693e ccb6 dd3d bb1d 283f 571e a53e
00000120: bd4a 0f3f 1c9c de3e bb4f eb3e 01fb 863e
00000130: 01b2 6c3e 2636 5cc0 70a3 0f3f 94ac 953e
00000140: fe5d f4be 2f47 023f 02fb 803f d9a9 b33f
00000150: 4be7 993f 0133 253f f3b7 103f d878 31bf
00000160: 9887 fdbe 1491 c23d 10ca 81be 78dd 6bbe
00000170: d992 eabe e458 18be d36b 8ebe 23e3 443e
00000180: bf90 713e 0ac8 b2be 2e81 4a3e 3c0c 2c3e
00000190: fc5b a83e db20 14bd 2142 513c 3d66 b23e
000001a0: 848c 143f 01b1 ddbe 145b 803e 6606 10c0
000001b0: a55f 6bbf ec99 b63d d851 24bf 0e2b 313f
000001c0: 6a08 aebe 63a4 713f 8265 493f 7295 963d
000001d0: 3cf3 27bf 1a45 e8be b29c 1ebe 2802 1b3e
000001e0: bb5e d6be f83d b93f eaf1 22bf a392 00be
000001f0: c474 53bf b33b 14bf a6c1 e8be 35c9 34bf
00000200: 57cd 1bbf d6fc c33e 37d0 153f c4f0 a2bf
00000210: 8f4e 863f 7bda 103f 6520 043f adcb 213f
00000220: 83b3 743f 0d30 c140 f33d 0a3f 48f8 c3be
00000230: 8b02 153e e054 ce3e 1123 3b3f 171b 04bf
00000240: eaa8 4d3e ed4d 5f3e 3ad6 ffbd 6b71 1940
00000250: c7e3 3d3f 3450 333e 876b 79bd f5de 1fbd
00000260: c438 1fbe 7f79 413e 9b51 173e c211 6dbc
00000270: f430 e8be db54 1ec0 edd5 3ebf 843b b43e
00000280: fc0b 17be c6ac 63be 718c 5ebe 8eff 3abf
00000290: be2b 24be 79f9 d03e a4a8 983e d057 843f
000002a0: a7cf bfbe 3850 9a3e 27d1 573e 80cd afbe
000002b0: b2db debc 7ed5 163f 6584 083f d392 513d
000002c0: ecf6 8e3e 4426 c5bf 3bbd 35bf 586a edbd
000002d0: 7562 22bf 12b4 01bf d49a 38be 1ae1 2abf
000002e0: 5529 1cbf 9b52 31bf b7ec a1be bbee 5540
000002f0: 40d8 3a3f b8e8 14bd 007c 9fbc cf1c 38be
00000300: cba6 babe 4b6b a83d 0912 dd3e 3e7d 5ebe
00000310: 6439 7bbd c952 11c0 27e7 0bbf 7004 903e
00000320: 353c a93e e93d 2e3e ea22 bb3e f3da e33e
00000330: 5429 8f3f 3d53 8e3e 1947 1e3e 4dce 57bf
00000340: dbf7 b53e c0b3 b03e 5a59 7c3f 372f 81bf
00000350: cdb0 c03c ceb2 2c3f 8b6b 05bf 15f5 603f
00000360: 2759 e23e 0326 40be e138 9e3f 28cd e7bd
00000370: cfe7 b03e ab70 42bf 8a76 eebd eeed 7a3f
00000380: 17b8 403f 4269 483c 0ab5 103f 6dfb c2bf
00000390: 85a2 083f 3c36 b3be 9744 1cbf 6eb1 723f
000003a0: 4b93 673f 7bab 04bf d987 3e3e 5d14 90be
000003b0: 5fb8 19bf a5d4 fa3d bb94 d3bf 7aa2 9d3e
000003c0: a8d4 5bbe 411b 983d a63f ab3f 4702 db3e
000003d0: 3412 92be 38db 31be 2beb 42bf 4c6a 1640
000003e0: 4ed7 143e 30c9 04bd 2045 a83e 8225 913d
000003f0: f4c8 34bf 1ac0 74bd 5b64 113f 911f 323e

encoder.self_attn.in_proj_bias f4 [30]
0.12258137 0.053801216 0.45745185 -0.38569346 -0.05025733 0.074404545 0.50216496 0.28002384
-0.28180012 -0.11614821 -0.38984516 0.34156582 0.14926347 0.24413405 0.10979776 -0.3606368
0.23106134 -0.16694714 -0.34341094 0.2497404 0.13485104 1.060501 0.28312194 -1.5226786
-0.11077406 0.315827 -0.09859809 0.56369466 0.28190586 0.5576617
00000000: f10b fb3d aa5e 5c3d 2137 ea3e 9d79 c5be
00000010: a1da 4dbd 6961 983d e28d 003f 495f 8f3e
00000020: 1b48 90be 1ddf edbd c999 c7be b7e1 ae3e
00000030: 86d8 183e 47fe 793e a6dd e03d 63a5 b8be
00000040: 589b 6c3e 31f4 2abe 8fd3 afbe f3bb 7f3e
00000050: 6416 0a3e 7fbe 873f 5cf5 903e 22e7 c2bf
00000060: 83dd e2bd 14b4 a13e cced c9bd 4b4e 103f
00000070: f755 903e ebc2 0e3f

encoder.self_attn.out_proj.weight f4 [10, 10]
-0.5524891 0.62179875 -0.3755335 -0.25037536 0.7067652 -0.4602153 0.21365485 0.24244185
-0.2900303 0.8309053 0.81606966 -0.12796046 0.21166888 0.27442378 -0.5376812 0.5688999
-0.23439151 -0.5980699 0.057526354 -0.1966327 0.5565642 -0.43308803 -0.1173788 0.43039772
-0.28012025 0.6161211 0.03664321 -0.62368786 0.03407107 -0.1486496 -0.32415923 1.1025126
0.30932668 -0.8709934 0.6467456 -0.019989569 0.76569986 -0.10709101 -0.37946945 0.7564574
-0.56194776 0.89618266 -0.07947939 -0.8689261 0.6345076 -0.077903666 0.29330698 0.015452507
-0.13989396 0.88692707 0.27939224 -0.92928064 -0.0009810617 1.0071532 -0.6642457 0.37018457
0.2157406 -0.44565526 -0.32909834 -0.7845556 -0.07969314 -0.48350325 -0.3152456 0.6453503
-0.4603793 -0.3494163 0.16010351 0.40690035 -0.14416273 -0.20738499 -0.20916829 -0.64198416
-0.97426826 0.476961 -0.2923693 -0.18032695 -0.9584032 0.17183338 1.1423632 -0.19389606
0.5473223 1.229762 0.64760906 -0.94512033 0.55370766 0.6141712 -0.051009174 -0.74330366
-0.6114683 0.2457783 0.03186596 -0.083167665 0.16260181 0.31803757 -0.21526217 -0.08801884
0.7227702 0.38581863 -0.17732461 0.23369418
00000000: ed6f 0dbf 342e 1f3f ed45 c0be 3331 80be
00000010: 90ee 343f 57a1 ebbe 56c8 5a3e ad42 783e
00000020: da7e 94be 36b6 543f f1e9 503f 1108 03be
00000030: babf 583e 4681 8c3e 7aa5 09bf 6da3 113f
00000040: 5404 70be 1c1b 19bf c1a0 6b3d 155a 49be
00000050: fe7a 0e3f b7bd ddbe 4c64 f0bd 175d dc3e
00000060: ec6b 8fbe 1dba 1d3f 3117 163d 02aa 1fbf
00000070: 1b8e 0b3d 9a37 18be 33f8 a5be 221f 8d3f
00000080: 1160 9e3e 6cf9 5ebf 1f91 253f 2ac1 a3bc
00000090: e804 443f 8852 dbbd d249 c2be 31a7 413f
000000a0: cfdb 0fbf 3a6c 653f 17c6 a2bd f171 5ebf
000000b0: 176f 223f f58b 9fbd 552c 963e 832c 7d3c
000000c0: 5d40 0fbe a70d 633f 800c 8f3e 56e5 6dbf
000000d0: f896 80ba 65ea 803f 020c 2abf d588 bd3e
000000e0: 1beb 5c3e ed2c e4be 947f a8be a3d8 48bf
000000f0: 2836 a3bd bd8d f7be df67 a1be ad35 253f
00000100: d6b6 ebbe b1e6 b2be 2df2 233e 3e55 d03e
00000110: 659f 13be bb5c 54be 3630 56be 1359 24bf
00000120: a569 79bf 3b34 f43e 6eb1 95be a1a7 38be
00000130: ea59 75bf 17f5 2f3e f538 923f b08c 46be
00000140: 501d 0c3f d768 9d3f b5c9 253f 68f3 71bf
00000150: c9bf 0d3f 533a 1d3f ffee 50bd 2649 3ebf
00000160: 3089 1cbf 4fad 7b3e e285 023d cf53 aabd
00000170: 1781 263e d2d5 a23e b06d 5cbe 3943 b4bd
00000180: 7807 393f 058a c53e 9594 35be 874d 6f3e

encoder.self_attn.out_proj.bias f4 [10]
0.66421884 -0.27981868 -0.2036809 0.987699 0.74137294 -0.7270326 -0.46438962 -0.58335567
0.8779663 -0.26774037
00000000: 3f0a 2a3f 6544 8fbe ba91 50be d7d9 7c3f
00000010: 9eca 3d3f cf1e 3abf 7ac4 edbe cc56 15bf
00000020: 66c2 603f 4415 89be

encoder.linear1.weight f4 [64, 10]
0.33602977 0.2525147 0.019764267 -0.18224965 0.118388854 0.15086743 -0.15565705 0.5425918
-0.4020807 -0.133109 -0.029570516 0.3578684 -0.030059054 -0.49207434 0.09729571 0.5885802
0.5095853 -0.11912965 0.13225242 0.5708483 -1.3055934 -0.37456456 -1.0041717 -0.78334045
-0.41104907 1.5967134 0.098405644 -0.9789274 0.20840508 2.4417715 0.03718716 -0.6316138
-0.6433305 0.065990135 0.22887939 0.5298258 1.1985635 -0.0028945166 -0.64454657 -0.05711328
-0.5148258 0.704013 1.4665716 0.5467738 -0.31006658 0.5595472 -0.07368952 -0.9356614
0.62540275 0.28708088 -0.32630482 0.4242848 0.32811052 -0.13062662 -0.48133805 0.3386195
0.6193886 -0.31921336 -0.01566909 1.05779 -0.04576468 -0.36000618 -0.14157814 0.38389087
0.025764698 0.2998642 0.31382552 1.5456756 -1.0128015 0.4669933 -1.8696358 0.2627807
-0.679606 0.20219351 -0.613587 1.252856 -0.8381605 -0.92406934 0.8761855 0.40444365
-0.7787153 0.15261276 0.64708734 -0.53866625 -0.13701305 0.31825235 0.34285063 0.12024742
0.014482014 1.1137027 0.32838377 0.05527383 0.31155354 -0.86133915 -0.33350047 0.67792577
0.33641374 -0.30722663 -0.11125404 0.18889433 -0.42824194 0.9684234 1.9280282 0.12460326
-0.28508615 0.8891781 -0.2911615 -0.6111102 0.78915846 0.7380549 -1.7815514 0.6166014
0.5674055 -0.28479683 -1.27591 2.0647628 -0.9172628 -0.17470369 1.2165812 -0.7922475
0.24813898 -0.8631523 0.16551039 0.4249698 0.9713671 -0.63906246 -0.40242586 0.5476725
0.112694256 -0.39022753 -0.434908 0.7585484 0.8120492 0.27584532 -0.14164418 0.02856099
0.7010222 0.38554138 -1.0203247 0.5055889 -0.39895004 0.88524514 1.4667932 0.32279417
-0.51463556 1.0388855 -0.15201893 -0.55008507 0.8805773 0.6206384 -0.6760941 -0.055079505
0.62340695 1.724822 0.41780016 0.52433026 -1.8220029 -2.004583 2.1621332 -0.78372914
0.25292706 0.7193712 0.26608595 -0.25607488 -0.031104837 0.16104627 0.38254073 0.66786486
-0.71091276 0.2860006 -1.0085979 0.62750417 0.6556177 -0.13457732 -0.9467052 1.1163392
0.093601346 -0.7637939 -0.041603286 1.05014 0.06631137 0.53526133 0.9303066 0.6141002
0.42994455 -1.0892146 -1.0206922 -0.52901965 0.19002205 0.17841548 0.47829676 -0.6349131
-0.7627295 -0.17182073 -0.3324397 0.41379026 0.1724604 1.5220649 -0.43535888 0.2598866
0.11511716 0.1076579 0.35348532 0.19655338 -0.10900327 0.36661962 0.14849645 0.24572356
-0.32875165 0.3031939 0.2364797 -0.120094985 -0.22662638 -0.13385335 0.13192523 0.12935576
0.005634789 0.2311012 -0.55016357 0.55471635 -0.646578 0.3965342 0.8414023 -0.57251716
-0.4987043 0.9626189 -0.15807897 -0.65191317 0.86037624 -0.30298 0.25985575 0.0763515
0.17062138 -0.012703979 0.010164653 0.088161446 0.10687265 0.22425033 -0.31015193 0.060407266
-0.3253848 -0.24790137 -0.56123275 -0.19530746 -0.7853513 1.7739015 2.1852646 -1.5593699
-1.0295655 0.873611 -0.90008193 -0.008080067 1.1873287 -0.49347407 -0.2678545 0.541399
00000000: 180c ac3e 9b49 813e ace8 a13c a79f 3abe
00000010: db75 f23d fe7c 1a3e 9064 1fbe 4ce7 0a3f
00000020: 86dd cdbe ba4d 08be de3d f2bc 873a b73e
00000030: 683e f6bc 2bf1 fbbe f942 c73d 31ad 163f
00000040: 2f74 023f 3ffa f3bd 2e6d 073e 1d23 123f
00000050: af1d a7bf edc6 bfbe b388 80bf 0089 48bf
00000060: 0675 d2be 1b61 cc3f e688 c93d fc9a 7abf
00000070: 2468 553e fc45 1c40 9051 183d 71b1 21bf
00000080: 4fb1 24bf d625 873d 5c5f 6a3e aaa2 073f
00000090: 876a 993f eeb1 3dbb 0101 25bf 9def 69bd
000000a0: a0cb 03bf 323a 343f 9eb8 bb3f 5ef9 0b3f
000000b0: 0cc1 9ebe 7c3e 0f3f 88ea 96bd 8187 6fbf
000000c0: 651a 203f 44fc 923e 6d11 a7be db3b d93e
000000d0: 1afe a73e fcc2 05be f171 f6be 895f ad3e
000000e0: 4090 1e3f ef6f a3be 775c 80bc aa65 873f
000000f0: bf73 3bbd bb52 b8be dcf9 10be 588d c43e
00000100: 7d10 d33c cd87 993e bdad a03e b3d8 c53f
00000110: 7ba3 81bf bf19 ef3e 3a50 efbf 318b 863e
00000120: a9fa 2dbf d10b 4f3e 0a14 1dbf 965d a03f
00000130: b091 56bf cf8f 6cbf b14d 603f 3d13 cf3e
00000140: e359 47bf 8546 1c3e 84a7 253f 08e6 09bf
00000150: 264d 0cbe f9f1 a23e 1e8a af3e 4844 f63d
00000160: f845 6d3c cf8d 8e3f eb21 a83e d066 623d
00000170: f283 9f3e b980 5cbf 93c0 aabe 8b8c 2d3f
00000180: 6c3e ac3e cf4c 9dbe 28d9 e3bd 846d 413e
00000190: 8742 dbbe 99ea 773f a1c9 f63f fe2f ff3d
000001a0: d0f6 91be 2da1 633f 1f13 95be b871 1cbf
000001b0: 4a06 4a3f 2af1 3c3f e009 e4bf 97d9 1d3f
000001c0: 7d41 113f e4d0 91be 0551 a3bf 1325 0440
000001d0: bcd1 6abf 86e5 32be efb8 9b3f bbd0 4abf
000001e0: 2518 7e3e 8df7 5cbf 8e7b 293e a495 d93e
000001f0: 84ab 783f 9999 23bf c30a cebe 4434 0c3f
00000200: 3fcc e63d e7cb c7be 43ac debe 3a30 423f
00000210: 75e2 4f3f 993b 8d3e 2c0b 11be bdf8 e93c
00000220: 3176 333f ae65 c53e 009a 82bf 466e 013f
00000230: 2e43 ccbe 6d9f 623f e1bf bb3f 4745 a53e
00000240: 28bf 03bf 33fa 843f daaa 1bbe 60d2 0cbf
00000250: 846d 613f 28e2 1e3f 8114 2dbf 0c9b 61bd
00000260: 9997 1f3f f8c6 dc3f e7e9 d53e 823a 063f
00000270: 6437 e9bf 164b 00c0 6460 0a40 79a2 48bf
00000280: a87f 813e b628 383f 6b3c 883e 3f1c 83be
00000290: 92cf febc 50e9 243e 61dc c33e 31f9 2a3f
000002a0: 61fe 35bf ac6e 923e bc19 81bf 1da4 203f
000002b0: 90d6 273f a3ce 09be 465b 72bf 34e4 8e3f
000002c0: 10b2 bf3d ff87 43bf 3568 2abd fd6a 863f
000002d0: 41ce 873d e306 093f 9328 6e3f ac35 1d3f
000002e0: b121 dc3e 626b 8bbf 0ba6 82bf d56d 07bf
000002f0: 2495 423e 8cb2 363e 50e3 f43e aa89 22bf
00000300: 3e42 43bf c6f1 2fbe 8935 aabe 51dc d33e
00000310: 7699 303e 06d3 c23f 5ce7 debe db0f 853e
00000320: 8cc2 eb3d bf7b dc3d 07fc b43e 4a45 493e
00000330: 1b3d dfbd 91b5 bb3e 740f 183e f59e 7b3e
00000340: 2352 a8be 3b3c 9b3e bc27 723e 5cf4 f5bd
00000350: bf10 68be da10 09be 6817 073e d675 043e
00000360: 09a4 b83b cba5 6c3e 85d7 0cbf e401 0e3f
00000370: 2386 25bf 8806 cb3e 2466 573f 7c90 12bf
00000380: 2c56 ffbe 316e 763f 74df 21be c8e3 26bf
00000390: 9e41 5c3f 3220 9bbe d00b 853e 2d5e 9c3d
000003a0: 5fb7 2e3e 5a24 50bc a589 263c fd8d b43d
000003b0: 0ce0 da3d e1a1 653e 3ccc 9ebe 9c6d 773d
000003c0: d698 a6be dbd9 7dbe f3ac 0fbf aefe 47be
000003d0: c80c 49bf 340f e33f 60db 0b40 6f99 c7bf
000003e0: cdc8 83bf f8a4 5f3f c56b 66bf 4262 04bc
000003f0: 63fa 973f a2a8 fcbe 3a24 89be 2099 0a3f

encoder.linear1.bias f4 [64]
-0.5868886 -0.09565778 0.4425732 -0.5948249 0.7630757 -0.034235753 -0.8946006 0.85554904
-0.35771742 -0.18399763 0.71361536 0.5156004 0.30751145 -1.0458968 0.69560766 1.9915984
-0.98489684 0.61748165 0.13590327 -0.48890632 -0.51443124 -0.583941 0.6439048 -0.36646712
-0.5373821 -0.34561032 0.3754166 1.5802937 -0.2752781 -0.095870145 0.9026027 -0.10600007
1.2452903 -0.19358736 -0.23513679 1.868011 -0.257364 1.651093 -0.77430516 2.2763152
1.3092247 0.89241344 0.71191496 -0.86832196 -0.11059892 -0.5264777 0.9101044 1.720788
-0.61477876 -0.35607705 -0.19094181 -0.13403308 -1.0301541 -0.6121654 1.50928 0.15375814
-0.38990447 1.9769746 0.76892465 0.17658678 -0.8484554 0.8540851 -0.35352984 -0.71277905
00000000: 553e 16bf 3ae8 c3bd f498 e23e 7246 18bf
00000010: ee58 433f ca3a 0cbd 8b04 65bf 4305 5b3f
00000020: bd26 b7be e069 3cbe 7faf 363f 63fe 033f
00000030: 2472 9d3e f2df 85bf 5813 323f b2ec fe3f
00000040: 3322 7cbf 4713 1e3f 3a2a 0b3e ee51 fabe
00000050: c4b1 03bf 287d 15bf f2d6 243f 94a1 bbbe
00000060: e091 09bf d6f3 b0be 9b36 c03e 1047 ca3f
00000070: 40f1 8cbe 9157 c4bd f810 673f 9116 d9bd
00000080: ac65 9f3f c43b 46be b3c7 70be fc1a ef3f
00000090: 37c5 83be 0457 d33f dd38 46bf 26af 1140
000000a0: ad94 a73f 3575 643f 0f40 363f 594a 5ebf
000000b0: b081 e2bd 3ec7 06bf 9afc 683f c842 dc3f
000000c0: 2462 1dbf bb4f b6be 4086 43be f83f 09be
000000d0: 17dc 83bf dfb6 1cbf 1630 c13f c672 1d3e
000000e0: 8fa1 c7be 810d fd3f 3fd8 443f 2ad3 343e
000000f0: 6034 59bf 52a5 5a3f dd01 b5be b078 36bf

encoder.linear2.weight f4 [10, 64]
0.43163195 1.0387619 -1.7276962 -1.4490513 0.35618827 1.0040964 -0.416322 0.016025523
0.89387804 0.88190436 0.013831679 2.3775506 -0.310102 -0.3114168 0.09408723 -0.0039041725
0.39144182 0.3544066 -0.3062026 -0.22284068 -0.1402477 0.32341242 0.08931266 -0.00040566348
-0.1279956 1.2355843 0.36925584 -0.19234294 0.13421689 -0.16430625 0.13686514 0.5080675
-0.055054285 0.043782078 1.4591459 -0.303359 -0.10308268 0.012743722 0.37760854 0.031951286
-0.29417318 0.21242034 0.055239864 -0.33782586 -0.20702636 0.12066911 0.010750995 0.29195306
-0.12444244 0.23035896 0.38147017 1.2776737 -0.08960389 -0.14474651 0.057453327 0.7931008
0.10788406 0.022436215 0.09017459 0.32154143 -0.8299173 0.12272273 -0.35343096 -0.04470832
-0.38462955 0.09471301 0.4910568 0.13883892 -0.31745273 -0.053752955 0.06273368 -1.5862305
-0.013326185 0.04963613 -0.48983642 -0.10105334 -0.33860886 -0.35639662 -0.5387311 -1.0214064
0.38236254 0.1154072 -0.12008791 0.08113079 0.13438906 -0.19009496 -0.5576214 -0.01337734
-0.32404107 0.5468236 -0.4569532 -0.51236236 -0.51015204 -0.25026476 -0.50050753 -0.29565626
-0.33776444 -0.81482184 -0.17216527 -1.2837516 -0.19706401 -0.38936332 0.33934462 -1.3144151
-0.6560241 -0.31383005 -0.47248363 0.2570224 0.07656779 -0.0008076189 -0.31368524 -0.86742646
0.9792532 0.042460315 -0.93031776 0.18595393 -0.62507814 0.32074726 -0.6852283 -0.0077664983
-0.40440908 -0.90490097 -1.4763745 -0.35474157 0.11746686 -0.41716924 0.051336646 0.12594764
-0.22906807 -0.70585763 -1.012294 -1.0327526 -0.5296568 -0.4731669 -0.49704105 -1.9669605
-0.3337222 -0.33249035 -0.5743307 -0.26134208 -0.89653116 -0.6189733 -0.7049721 -1.2167475
-0.060669493 0.025485167 -0.41511145 -0.15191138 0.2017923 -0.2921824 -0.7723536 0.023798544
0.105018206 -0.13433363 -0.6121611 -0.8269174 0.08461101 -0.2114667 -0.7090518 -0.85253644
-0.6695944 -0.097659595 -0.35579127 -1.8234617 -0.10353901 -0.9901959 -0.057731215 -1.8125036
-1.1585326 -0.44141087 -0.795063 -0.38962257 0.1044609 0.053680632 -0.38508666 -1.2364467
0.08639187 0.05770227 -0.22653425 -0.21903513 -0.5010858 -0.5700923 -1.0420027 -0.7103647
-0.41925985 -1.123613 -1.9690051 -0.64897096 -1.2899028 -0.589431 -0.28522205 -0.0057652616
-0.24753816 1.82833 2.0229535 0.12606859 0.83474153 1.0318354 -0.46093926 0.9786262
1.8423729 1.8678069 0.5825914 3.2835684 0.29977348 0.19545513 0.8728036 1.1801875
-0.051854935 0.95880437 0.34394962 0.5248213 0.03757288 0.40689206 0.73923457 -0.14058895
0.18437178 1.4967171 0.74176025 0.83234686 0.4769595 0.8585467 0.69392097 0.9118882
0.735056 -0.18045083 1.1291282 1.0032415 0.756809 0.95983046 1.1570842 1.0833573
1.6755446 0.97932124 0.68781173 0.5975451 0.09098436 0.05367867 0.5943577 1.2123563
0.7399423 -0.26181683 0.92501426 1.640034 0.10947523 -0.23733772 1.3322009 1.016238
0.044229604 1.1408298 0.87935907 0.8900357 0.24853179 0.6450438 -0.09713116 0.6304484
00000000: ddfe dc3e 26f6 843f 2625 ddbf 837a b9bf
00000010: 4f5e b63e 3b86 803f 2828 d5be f547 833c
00000020: 31d5 643f 7cc4 613f 449e 623c ca29 1840
00000030: b0c5 9ebe 0672 9fbe ceb0 c03d 25dd 7fbb
00000040: 106b c83e c874 b53e 96c6 9cbe 5930 64be
00000050: 189d 0fbe 5096 a53e 8ee9 b63d 3baf d4b9
00000060: 4711 03be a027 9e3f 1a0f bd3e 8cf5 44be
00000070: 2770 093e e63f 28be 6026 0c3e b610 023f
00000080: 9a80 61bd d654 333d 4bc5 ba3f df51 9bbe
00000090: 031d d3bd 0bcb 503c e855 c13e 5adf 023d
000000a0: de9d 96be b884 593e 3243 623d 83f7 acbe
000000b0: b8fe 53be 5e21 f73d f124 303c df7a 953e
000000c0: aedb febd 38e3 6b3e 0f50 c33e d08a a33f
000000d0: 3f82 b7bd 6e38 14be 2e54 6b3d a708 4b3f
000000e0: 51f2 dc3d 27cc b73c 75ad b83d 14a1 a43e
000000f0: 7675 54bf 0e56 fb3d e7f4 b4be 1220 37bd
00000100: 2aee c4be e5f8 c13d cc6b fb3e ca2b 0e3e
00000110: 2a89 a2be 0f2c 5cbd 847a 803d 9a09 cbbf
00000120: 1256 5abc 414f 4b3d d7cb fabe 0ef5 cebd
00000130: 245e adbe 9e79 b6be 48ea 09bf 72bd 82bf
00000140: 06c5 c33e 9c5a ec3d a6f0 f5bd e627 a63d
00000150: 499d 093e 41a8 42be 47c0 0ebf a12c 5bbc
00000160: b6e8 a5be a2fc 0b3f c5f5 e9be 2e2a 03bf
00000170: 5399 02bf b422 80be 4321 00bf 4260 97be
00000180: 76ef acbe 2a98 50bf 184c 30be f951 a4bf
00000190: 26cb 49be a15a c7be 94be ad3e c13e a8bf
000001a0: 32f1 27bf 55ae a0be 60e9 f1be 7198 833e
000001b0: 93cf 9c3d 63b6 53ba 5a9b a0be a90f 5ebf
000001c0: 56b0 7a3f deea 2d3d 4e29 6ebf b56a 3e3e
000001d0: 1f05 20bf fc38 a43e 1f6b 2fbf 1c7e febb
000001e0: b50e cfbe 97a7 67bf d7f9 bcbf b0a0 b5be
000001f0: 7792 f03d 3597 d5be 6046 523d 6bf8 003e
00000200: d290 6abe 16b3 34bf da92 81bf 3d31 84bf
00000210: 9797 07bf ef42 f2be 2a7c febe 5dc5 fbbf
00000220: a3dd aabe 2d3c aabe 5607 13bf a1ce 85be
00000230: 1183 65bf 0975 1ebf 0d79 34bf 62be 9bbf
00000240: 9380 78bd 45c6 d03c 7d89 d4be a88e 1bbe
00000250: a4a2 4e3e ee98 95be f7b8 45bf 2af5 c23c
00000260: c913 d73d c18e 09be 97b6 1cbf dcb0 53bf
00000270: 8a48 ad3d ba8a 58be 6b84 35bf d43f 5abf
00000280: 8a6a 2bbf c101 c8bd 462a b6be 3167 e9bf
00000290: 430c d4bd 7a7d 7dbf 9177 6cbd 1e00 e8bf
000002a0: cc4a 94bf 9b00 e2be 4089 4bbf 9c7c c7be
000002b0: 99ef d53d 39e0 5b3d 142a c5be e343 9ebf
000002c0: 39ee b03d 3759 6c3d 98f8 67be bf4a 60be
000002d0: 2947 00bf 92f1 11bf 5860 85bf 76da 35bf
000002e0: 3aa9 d6be 8dd2 8fbf 5c08 fcbf f622 26bf
000002f0: 891b a5bf f3e4 16bf a008 92be 85ea bcbb
00000300: a57a 7dbe b806 ea3f 1278 0140 2018 013e
00000310: 9fb1 553f 2f13 843f 3b00 ecbe 3f87 7a3f
00000320: e0d2 eb3f 4c14 ef3f b624 153f fc25 5240
00000330: e97b 993e 6425 483e 0f70 5f3f 6210 973f
00000340: d765 54bd 3474 753f 2a1a b03e b05a 063f
00000350: 05e6 193d 2854 d03e 7a3e 3d3f 8df6 0fbe
00000360: f5cb 3c3e 6d94 bf3f 00e4 3d3f af14 553f
00000370: 0934 f43e b7c9 5b3f cea4 313f 8171 693f
00000380: a12c 3c3f 1ac8 38be 4687 903f 386a 803f
00000390: 3cbe 413f 73b7 753f 561b 943f 74ab 8a3f
000003a0: 3f78 d63f ccb4 7a3f 6e14 303f b7f8 183f
000003b0: 0256 ba3d 2ade 5b3d d427 183f 7e2e 9b3f
000003c0: dc6c 3d3f db0c 86be bccd 6c3f a2ec d13f
000003d0: 8d34 e03d a908 73be 8f85 aa3f 1614 823f
000003e0: 1a2a 353d b606 923f ad1d 613f 61d9 633f
000003f0: 1e7f 7e3e 9721 253f b4ec c6bd 1165 213f

encoder.linear2.bias f4 [10]
-0.26740476 -0.42021915 -0.7479226 -0.012226492 0.8780893 -0.0062310407 -0.1326644 -0.37740636
1.3311186 -0.7492036
00000000: 47e9 88be f726 d7be db77 3fbf a051 48bc
00000010: 76ca 603f c22d ccbb 2dd9 07be 683b c1be
00000020: 1862 aa3f cfcb 3fbf

encoder.norm1.weight f4 [10]
0.75222254 0.5125705 0.64674383 1.0461087 0.36059412 1.5824913 1.3968753 1.4745462
1.8691686 0.7128134
00000000: a891 403f d237 033f 0191 253f e4e6 853f
00000010: cb9f b83e 138f ca3f cfcc b23f eebd bc3f
00000020: eb40 ef3f f07a 363f

encoder.norm1.bias f4 [10]
0.5178575 -0.34017757 -0.23995765 0.7493447 0.5914114 -0.752339 -0.35739902 -0.32963505
0.8758288 0.0382544
00000000: 4f92 043f c12b aebe 75b7 75be 0ed5 3f3f
00000010: bd66 173f 4a99 40bf 01fd b6be edc5 a8be
00000020: 5136 603f a5b0 1c3d

encoder.norm2.weight f4 [10]
-0.014067433 0.35540125 0.36019877 0.15595289 0.4581283 0.15698373 -0.06678748 0.8087132
0.87793505 0.97245866
00000000: 177b 66bc 27f7 b53e f96b b83e 1db2 1f3e
00000010: cb8f ea3e 58c0 203e e0c7 88bd d407 4f3f
00000020: 5ac0 603f 0df3 783f

encoder.norm2.bias f4 [10]
-0.40111735 -0.061770074 -0.7047784 -0.72575724 0.339846 -0.21870273 -0.12509885 -0.2791845
1.1553823 -0.592322
00000000: 415f cdbe 9e02 7dbd 5b6c 34bf 3acb 39bf
00000010: 4b00 ae3e 9cf3 5fbe ea19 00be 45f1 8ebe
00000020: 91e3 933f 6aa2 17bf

l2.weight f4 [64, 3200]
-0.20713834 -0.56653625 0.31010008 -0.31952652 0.05058723 -0.64243287 -0.25358048 -0.20977947
-0.34549615 -0.014468167 -0.19815701 -0.56022906 0.545157 -0.30851552 0.2988836 -0.7115567
-0.45736775 0.02694454 -0.36206013 -0.0029087309 -0.19394216 -0.60709435 0.27099246 -0.30515093
0.18106131 -0.7539601 -0.4175936 0.081598595 -0.3341491 -0.061663374 -0.1488348 -0.6242335
0.32898462 -0.34592518 0.0074178656 -0.7604459 -0.35198545 -0.024866616 -0.36178294 -0.13770996
-0.12701459 -0.6114578 0.27862114 -0.32680526 0.09088408 -0.65170586 -0.23120432 -0.05145908
-0.35291976 -0.024714453 -0.13481082 -0.65255815 0.108960986 -0.25679854 -0.099910796 -0.60025245
-0.22797582 0.06577253 -0.3229345 0.019542001 -0.21408974 -0.5914621 -0.20817932 -0.5142837
-0.24825403 -0.7539389 -0.2364597 -0.024979498 -0.32634208 -0.32926142 -0.23000267 -0.60223323
-0.097381964 -0.31736588 0.07704257 -0.6032736 -0.23510975 -0.0076324404 -0.35440493 -0.017918902
-0.19208184 -0.62681973 -0.0064719403 -0.39451098 -0.057321645 -0.6232625 -0.321568 -0.007548817
-0.32362986 -0.12356254 -0.27705967 -0.5653782 -0.2925209 -0.24049924 -0.3481486 -0.6042344
-0.13420326 -0.05469204 -0.3413907 -0.21505117 -0.20234382 -0.58143014 -0.17608954 -0.2816792
0.13083178 -0.6624591 -0.18699887 -0.07338745 -0.37066445 -0.11045879 -0.25070697 -0.5355929
-0.25829172 -0.20934448 -0.09913083 -0.54154694 -0.22458506 -0.03166339 -0.34317788 -0.0013982041
-0.25266993 -0.58996344 -0.10253874 -0.2683022 0.08597641 -0.54762536 -0.1953948 -0.02887062
-0.31530425 0.038198475 -0.24958546 -0.620372 -0.082514405 -0.3234357 -0.106437944 -0.67096853
-0.25833783 -0.0365744 -0.31997195 -0.11957246 -0.16651587 -0.59623677 -0.15505505 -0.29576376
0.003419205 -0.6863226 -0.24157952 -0.25820243 -0.34356025 -0.0190642 -0.19075906 -0.60603124
-0.20960708 -0.34748125 -0.02511358 -0.6974373 -0.22044195 -0.1401198 -0.32142335 -0.18589984
-0.20005684 -0.60240924 -0.18236354 -0.27742928 0.22221503 -0.7702824 -0.3815737 0.032790665
-0.363575 -0.10681505 -0.3283651 -0.5742062 -0.20597723 -0.22335514 -0.1948235 -0.4758594
-0.09986705 -0.24886155 -0.3428814 -0.0897102 -0.27413526 -0.62051916 -0.4342716 -0.27645996
0.048730463 -0.5837083 -0.15619165 -0.27727473 -0.36030892 -0.35670948 -0.2284515 -0.7024196
-0.52435625 -0.30928662 -0.10435711 -0.61894727 -0.15144424 -0.09174048 -0.34364548 -0.1011822
-0.1926287 -0.583803 -0.62794703 -0.38309675 0.051085595 -0.66585743 -0.24704058 0.06629062
-0.376098 0.046806745 -0.18726467 -0.58423936 -0.32790682 -0.28943518 -0.3322886 -0.7137201
-0.25905168 -0.0520401 -0.32216504 -0.15403444 -0.2196324 -0.6629502 -0.3778994 -0.39031938
-0.031423084 -0.7434646 -0.36924088 -0.05915283 -0.32023317 -0.10054184 -0.2183506 -0.58604145
-0.2783149 -0.25756264 -0.1128516 -0.6795491 -0.3468251 -0.008348566 -0.34839678 -0.13192709
-0.22792639 -0.6051272 -0.09685203 -0.23802151 -0.21990201 -0.5582261 -0.3231479 0.037634287
-0.3560837 -0.065926686 -0.22546655 -0.62425137 0.08765435 -0.30390352 -0.2729804 -0.57698196
00000000: 131c 54be 8508 11bf 70c5 9e3e fb98 a3be
00000010: 8e34 4f3d 7b76 24bf 4dd5 81be 6ed0 56be
00000020: dfe4 b0be e40b 6dbc ace9 4abe 2c6b 0fbf
00000030: 698f 0b3f bff5 9dbe 4507 993e 9428 36bf
00000040: 1b2c eabe ccba dc3c f25f b9be 68a0 3ebb
00000050: c698 46be 896a 1bbf 86bf 8a3e be3c 9cbe
00000060: 2368 393e 8703 41bf d4ce d5be 2a1d a73d
00000070: 9715 abbe bc92 7cbd 2668 18be c4cd 1fbf
00000080: ac70 a83e 1b1d b1be 9111 f33b 95ac 42bf
00000090: 7037 b4be 13b5 cbbc 9d3b b9be d703 0dbe
000000a0: 1d10 02be 8088 1cbf 6ea7 8e3e 0553 a7be
000000b0: 6f21 ba3d 32d6 26bf d3c0 6cbe c2c6 52bd
000000c0: e6b1 b4be f775 cabc d90b 0abe 0d0e 27bf
000000d0: f026 df3d 197b 83be 089e ccbd 25aa 19bf
000000e0: 7e72 69be c0b3 863d ac57 a5be 8c16 a03c
000000f0: 573a 5bbe 0f6a 17bf f62c 55be 19a8 03bf
00000100: 4e36 7ebe 2402 41bf 7e22 72be cea1 ccbc
00000110: 4f16 a7be f494 a8be d285 6bbe f52b 1abf
00000120: 3270 c7bd c87d a2be 7fc8 9d3d 2370 1abf
00000130: 9cc0 70be 8d19 fabb 9074 b5be a9ca 92bc
00000140: 1ab1 44be 4277 20bf 9212 d4bb 58fd c9be
00000150: 1aca 6abd 228e 1fbf 90a4 a4be 115c f7bb
00000160: d0b2 a5be 5b0e fdbd c4da 8dbe a0bc 10bf
00000170: 4dc5 95be 6f45 76be 8940 b2be 1baf 1abf
00000180: 946c 09be c304 60bd c3ca aebe 6036 5cbe
00000190: 3833 4fbe 9bd8 14bf d150 34be 4238 90be
000001a0: c4f8 053e eb96 29bf a27c 3fbe 294c 96bd
000001b0: bbc7 bdbe 3838 e2bd aa5c 80be 9e1c 09bf
000001c0: d03e 84be 665e 56be 1b05 cbbd d2a2 0abf
000001d0: a0f9 65be 79b1 01bd 03b5 afbe f243 b7ba
000001e0: f45d 81be d807 17bf d5ff d1bd e85e 89be
000001f0: 6614 b03d 2d31 0cbf 9315 48be 1482 ecbc
00000200: 8f6f a1be 0176 1c3d 5593 7fbe b3d0 1ebf
00000210: 50fd a8bd 5d99 a5be 23fc d9bd 98c4 2bbf
00000220: db44 84be 0acf 15bd 5dd3 a3be 68e2 f4bd
00000230: 2383 2abe f9a2 18bf c0c6 1ebe 596e 97be
00000240: be14 603b d7b2 2fbf 9f60 77be 1c33 84be
00000250: 21e7 afbe 862c 9cbc 5856 43be dd24 1bbf
00000260: 3da3 56be 10e9 b1be ffba cdbc 408b 32bf
00000270: 89bb 61be 917b 0fbe 9a91 a4be 875c 3ebe
00000280: b3db 4cbe 7e37 1abf 82bd 3abe 360b 8ebe
00000290: 568c 633e 3a31 45bf a15d c3be 814f 063d
000002a0: 8126 babe d9c1 dabd 781f a8be 2dff 12bf
000002b0: b2eb 52be 36b7 64be d07f 47be d8a3 f3be
000002c0: 1987 ccbd 90d5 7ebe 278e afbe fbb9 b7bd
000002d0: 755b 8cbe 58da 1ebf d958 debe 298c 8dbe
000002e0: 9899 473d e86d 15bf b4f0 1fbe f4f6 8dbe
000002f0: 697a b8be a0a2 b6be 31ef 69be c5d1 33bf
00000300: 363c 06bf d15a 9ebe 2eb9 d5bd 5473 1ebf
00000310: 3314 1bbe 6fe2 bbbd 4df2 afbe 9d38 cfbd
00000320: 7540 45be 1d74 15bf 23c1 20bf 4225 c4be
00000330: 213f 513d a275 2abf 35f8 7cbe 60c3 873d
00000340: eb8f c0be 6eb8 3f3d 4fc2 3fbe b690 15bf
00000350: 67e3 a7be d930 94be bb21 aabe 5cb6 36bf
00000360: 6ca2 84be 0028 55bd d1f2 a4be 34bb 1dbe
00000370: 51e7 60be 1bb7 29bf 087c c1be f1d7 c7be
00000380: 7eb5 00bd b253 3ebf 240d bdbe 3d4a 72bd
00000390: 9af5 a3be e1e8 cdbd 4d97 5fbe d006 16bf
000003a0: 4a7f 8ebe 40df 83be bd1e e7bd eef6 2dbf
000003b0: 0f93 b1be 6cc8 08bc 1061 b2be e517 07be
000003c0: 8965 69be 9ee9 1abf 5b5a c6bd e9bb 73be
000003d0: fe2d 61be e8e7 0ebf a473 a5be 6926 1a3d
000003e0: 9a50 b6be 9204 87bd b4e0 66be f0ce 1fbf
000003f0: 2084 b33d 3e99 9bbe 16c4 8bbe 17b5 13bf

l2.bias f4 [64]
-0.43088102 -0.37172616 -0.7839152 0.062756516 -1.0994805 -0.22471853 -1.3815808 -1.2402586
-1.5562967 -0.23184174 -0.70157313 0.094614804 -0.5458668 -0.42792612 -0.80606216 -1.3880883
1.485333 -1.321151 -1.0135852 -0.90498245 -1.4245127 -0.8769264 -0.5282947 -1.0428629
-0.61828417 -0.8381403 -0.15498039 -0.6745185 -0.33606032 -1.2710822 -1.2838196 -0.47545844
-1.4188236 -0.6425665 -0.0018974968 -0.44483304 0.28141874 -0.7654489 -0.42997718 -0.287088
-0.15527306 0.28392082 -1.0258552 -0.6026863 -0.58438236 -0.3970698 -1.2423822 -0.9708417
-0.3608599 -0.3675273 -0.977818 0.35997233 -1.5875612 -0.55592597 -1.3240956 -1.6737243
-1.1973661 -1.1454861 0.035649125 -0.7876133 -1.3653843 -0.45797637 -0.5338368 0.86942494
00000000: 709c dcbe e452 bebe abae 48bf 7d86 803d
00000010: c7bb 8cbf 9d1c 66be a4d7 b0bf cbc0 9ebf
00000020: bb34 c7bf ec67 6dbe 4c9a 33bf 68c5 c13d
00000030: edbd 0bbf 2219 dbbe 175a 4ebf e1ac b1bf
00000040: 641f be3f 7a1b a9bf 29bd 81bf eeac 67bf
00000050: 6f56 b6bf 407e 60bf 523e 07bf 887c 85bf
00000060: df47 1ebf 5d90 56bf 2eb3 1ebe 3fad 2cbf
00000070: 1910 acbe d2b2 a2bf 3354 a4bf 4a6f f3be
00000080: 039c b5bf 3d7f 24bf 6db5 f8ba 28c1 e3be
00000090: 1e16 903e 76f4 43bf f825 dcbe 33fd 92be
000000a0: e7ff 1ebe 125e 913e 394f 83bf a649 1abf
000000b0: 159a 15bf bc4c cbbe 6106 9fbf 1589 78bf
000000c0: a1c2 b8be 8a2c bcbe 4852 7abf 4b4e b83e
000000d0: 3535 cbbf 2a51 0ebf f77b a9bf 993c d6bf
000000e0: 4b43 99bf 4a9f 92bf d104 123d 06a1 49bf
000000f0: eac4 aebf e17b eabe 87a9 08bf a292 5e3f

l3.weight f4 [64, 66]
0.021864664 -0.18001425 0.41547516 0.06702428 0.400327 0.18204187 0.40134394 0.5259994
0.39366758 0.35625947 0.40286815 -0.23727581 0.042603597 0.04417394 0.31512594 0.5131833
-0.37947616 0.2905932 0.4027812 0.30197963 0.03875704 0.1988999 0.21499881 0.067923926
0.32596967 0.5494011 -0.16202381 0.08572993 -0.00075807876 0.33407125 0.17720352 -0.5423905
0.40011454 0.44597888 -0.58963686 0.15578943 0.1174747 0.035803914 0.53676367 0.016593268
0.12371665 0.049164716 0.22687659 0.46354052 0.39561516 0.80543107 0.6522194 0.14363691
0.7781523 -0.21029143 1.0177873 0.060167465 0.2749131 -0.6389282 -0.15677536 0.48036355
0.7382847 0.17288467 -0.6282073 0.1488995 0.12254096 0.20994152 0.33637995 -0.79833263
0.098205954 -0.5566541 0.25059816 -0.26684314 0.46297342 -0.8969507 0.26881394 -0.08560646
0.52128816 0.29437232 0.6006958 0.4223339 0.084882066 -0.35809103 0.07528446 -0.0038615214
0.3968623 0.42061138 -0.4211962 0.21771276 0.7132204 0.47421217 0.5443694 0.36882374
0.18397553 0.39873055 0.15760021 0.590383 -0.17918327 0.5271511 -0.43560234 0.4035743
0.4443778 0.7281135 0.4217453 0.22324136 -0.1082135 -0.0029867436 -0.001937167 0.3032834
-0.33269912 0.047324643 -0.2480698 -0.23251814 0.28256607 0.23383218 0.54219407 0.082799725
0.3871606 0.39275613 0.13254188 0.04262073 0.13562782 -0.13075425 0.5218052 0.99315655
-0.31846792 0.6360112 0.07361746 0.1641179 0.54031783 0.39469972 0.35084373 0.43570742
0.01765038 -0.3394901 -0.060105763 -0.34050566 -0.19670916 -0.1605712 -0.08711732 -0.0379859
0.4301795 0.008625597 0.29046693 0.3545432 0.43306375 0.53669524 0.20234968 -0.13968475
-0.15127754 -0.21942656 0.26733395 0.12287562 -0.18559675 0.3125385 0.046770584 -0.27876964
0.7602788 0.3412966 -0.010854437 0.30697146 -0.15013868 0.0924639 -0.14959273 0.11017236
-0.25248477 0.33640325 0.5235884 0.24562588 0.23129101 0.22863673 0.39184046 0.03665968
0.108316444 -0.114782214 0.26447326 -0.02969359 -0.2261251 0.033535045 0.12347176 0.21551993
0.3358064 0.43214136 -0.12659338 0.34572598 0.5679832 -0.26777396 0.2222516 0.075504325
0.2857216 0.3443969 0.28874496 0.34672126 -0.017247882 0.4541571 0.9835217 0.16152981
0.21434727 0.9041995 1.173298 0.019920772 0.062133566 0.34563443 0.6740284 0.43701804
0.6083489 0.46655533 0.75064105 0.8706864 0.24648815 0.89534944 0.3846682 0.2978081
0.16216913 0.5407616 0.47852978 0.42129785 0.07267888 0.57066655 -0.57878226 0.57444793
0.4626243 0.59780324 0.17571025 0.9381453 0.20698112 0.6596325 0.6522426 0.14752778
0.5151176 0.8189421 0.7713277 0.5616106 0.32292023 -0.528885 0.46476328 0.03132534
-0.6613254 1.1008729 0.0006432645 0.6116492 0.64268494 0.9965269 0.6366513 0.13865839
0.20116118 0.535381 0.3734415 0.30848813 0.70209235 0.8900119 0.69288266 0.5372108
0.78631 0.010340365 0.29203308 -0.13810644 0.5043473 0.46850774 1.124752 0.96898884
00000000: 861d b33c a855 38be 29b9 d43e 0744 893d
00000010: a9f7 cc3e 2f69 3a3e f47c cd3e e6a7 063f
00000020: cc8e c93e a467 b63e bc44 ce3e 6ef8 72be
00000030: 1c81 2e3d bcef 343d 3058 a13e fb5f 033f
00000040: b34a c2be a2c8 943e 5639 ce3e 139d 9a3e
00000050: b4bf 1e3d 6aac 4b3e a628 5c3e b31b 8b3d
00000060: 7fe5 a63e 8da5 0c3f 92e9 25be 2c93 af3d
00000070: ceb9 46ba 630b ab3e d774 353e 1bda 0abf
00000080: d0db cc3e 5857 e43e 71f2 16bf 4487 1f3e
00000090: 9396 f03d 20a7 123d 5869 093f 9bee 873c
000000a0: 285f fd3d f160 493d 5652 683e 2f55 ed3e
000000b0: 128e ca3e bb30 4e3f daf7 263f 8e15 133e
000000c0: fd34 473f a356 57be db46 823f 2972 763d
000000d0: 69c1 8c3e cc90 23bf b889 20be 36f2 f53e
000000e0: 3a00 3d3f ae08 313e 32d2 20bf 1c79 183e
000000f0: c1f6 fa3d e9fa 563e fe39 ac3e 875f 4cbf
00000100: 3420 c93d e280 0ebf 674e 803e aa9f 88be
00000110: da0a ed3e 909e 65bf fba1 893e 7152 afbd
00000120: 2473 053f f8b7 963e 33c7 193f 263c d83e
00000130: a6d6 ad3d b557 b7be bd2e 9a3d 9411 7dbb
00000140: 8931 cb3e 605a d73e 07a7 d7be 18f0 5e3e
00000150: 9d95 363f f0cb f23e cb5b 0b3f 77d6 bc3e
00000160: 1564 3c3e 6926 cc3e f361 213e 5723 173f
00000170: d27b 37be 60f3 063f 4507 dfbe 4aa1 ce3e
00000180: 7d85 e33e a565 3a3f 00ef d73e 6299 643e
00000190: 0a9f ddbd 3ebd 43bb 8ae8 fdba f647 9b3e
000001a0: 8a57 aabe 7cd7 413d 0206 7ebe 3c19 6ebe
000001b0: 80ac 903e b471 6f3e 3bcd 0a3f e792 a93d
000001c0: ea39 c63e 5517 c93e 0fb9 073e 1393 2e3d
000001d0: 05e2 0a3e 71e4 05be 0795 053f 823f 7e3f
000001e0: 3a0e a3be a1d1 223f c0c4 963d 860e 283e
000001f0: 4552 0a3f 1516 ca3e caa1 b33e 0b15 df3e
00000200: 8897 903c a5d1 adbe 7631 76bd c256 aebe
00000210: 206e 49be c76c 24be 916a b2bd 1a97 1bbd
00000220: 7d40 dc3e 6052 0d3c 15b8 943e b086 b53e
00000230: 88ba dd3e dc64 093f c134 4f3e 8509 0fbe
00000240: 80e8 1abe 5bb1 60be ffdf 883e 37a6 fb3d
00000250: 130d 3ebe 0c05 a03e 8392 3f3d e5ba 8ebe
00000260: a2a1 423f 6ebe ae3e cfd6 31bc 5d2b 9d3e
00000270: f4bd 19be b75d bd3d d62e 19be 0ca2 e13d
00000280: af45 81be 0c3d ac3e e409 063f 5a85 7b3e
00000290: 8dd7 6c3e bf1f 6a3e 509f c83e 7628 163d
000002a0: 03d5 dd3d f012 ebbd 0a69 873e f93f f3bc
000002b0: 578d 67be 0b5c 093d c3de fc3d 42b1 5c3e
000002c0: d1ee ab3e a241 dd3e b2a1 01be ff02 b13e
000002d0: 5967 113f ab19 89be ec95 633e 03a2 9a3d
000002e0: 1a4a 923e ca54 b03e 61d6 933e 7385 b13e
000002f0: 6e4b 8dbc 4887 e83e 14c8 7b3f 1268 253e
00000300: da7d 5b3e 9e79 673f a12e 963f e330 a33c
00000310: c47f 7e3d fff6 b03e 208d 2c3f d4c0 df3e
00000320: c1bc 1b3f 57e0 ee3e 032a 403f 4ee5 5e3f
00000330: 6467 7c3e 9f35 653f 3bf3 c43e 4e7a 983e
00000340: aa0f 263e 5a6f 0a3f db01 f53e 5ab4 d73e
00000350: aad8 943d 3417 123f 132b 14bf 050f 133f
00000360: 18dd ec3e a209 193f 63ed 333e 4a2a 703f
00000370: dcf2 533e addd 283f 5ff9 263f 8611 173e
00000380: bfde 033f 31a6 513f bb75 453f b6c5 0f3f
00000390: cd55 a53e 0265 07bf 74f5 ed3e 004f 003d
000003a0: 9f4c 29bf 67e9 8c3f c0a0 283a 0b95 1c3f
000003b0: 0087 243f 631c 7f3f 94fb 223f 77fc 0d3e
000003c0: 32fd 4d3e bb0e 093f b933 bf3e 28f2 9d3e
000003d0: 53bc 333f d2d7 633f c260 313f a686 093f
000003e0: 9d4b 493f a26a 293c 5c85 953e c66b 0dbe
000003f0: e81c 013f 3fe0 ef3e e0f7 8f3f a70f 783f

l3.bias f4 [64]
-0.27457485 -0.5278293 -0.60303664 -0.47632277 -0.20634669 -0.8292372 -0.8950537 -0.71581244
-0.97925305 -1.089883 -0.75730836 0.07932661 -0.964835 0.2370952 -0.9692933 -0.9350604
-0.87364244 -0.5337752 0.2944264 -0.1504857 -0.9290418 -0.55842274 -0.55584216 -0.5132166
-0.8912347 -0.56436956 -0.41304785 -0.83539224 -0.25577503 -1.1706356 -0.30018097 -0.75080657
0.15438546 -1.3058894 0.24009308 -0.53281116 -0.8071487 -1.0419574 -0.6781629 -0.01866761
-0.43064907 -0.6073873 -0.19715203 0.48286954 -0.34905854 -0.6298679 -0.47871467 -0.50962526
-0.3519083 -0.4769836 -0.81880635 0.5441326 -0.7845767 -0.79435223 -0.50584847 -0.060567405
-0.15446787 -0.49296772 -0.3590943 -0.9038131 -0.4556661 0.16841583 -0.81593317 -0.80779743
00000000: 1395 8cbe d21f 07bf 9c60 1abf 94e0 f3be
00000010: 8c4c 53be e448 54bf 3d22 65bf 7c3f 37bf
00000020: 54b0 7abf 4981 8bbf f6de 41bf fd75 a23d
00000030: 6dff 76bf 16c9 723e 9b23 78bf 1e60 6fbf
00000040: 08a7 5fbf 7ea5 08bf 0fbf 963e ec18 1abe
00000050: afd5 6dbf cbf4 0ebf ac4b 0ebf 2a62 03bf
00000060: f527 64bf 867a 10bf 027b d3be 44dc 55bf
00000070: f2f4 82be 63d7 95bf 52b1 99be dc34 40bf
00000080: 3917 1e3e 6227 a7bf f6da 753e 5066 08bf
00000090: 4ca1 4ebf dc5e 85bf 159c 2dbf d1ec 98bc
000000a0: 097e dcbe bc7d 1bbf 39e2 49be ad3a f73e
000000b0: cdb7 b2be 063f 21bf 171a f5be cd76 02bf
000000c0: 532d b4be 3237 f4be 4b9d 51bf 464c 0b3f
000000d0: 05da 48bf ab5a 4bbf 497f 01bf 8715 78bd
000000e0: d32c 1ebe 4466 fcbe 35db b7be 4c60 67bf
000000f0: 114d e9be 3375 2c3e ffe0 50bf d0cb 4ebf

l4.weight f4 [2, 64]
0.3065399 -0.5008648 0.114184 0.21657032 -0.15615642 -0.20573053 -0.21325652 -0.16860436
0.18126158 0.50048375 -0.15797438 0.3742821 0.36175528 -0.12578264 -0.15619273 0.2027838
-0.3467248 0.021485735 -0.0025101113 -0.22868456 -0.16521043 -0.17533088 -0.11860179 -0.20081013
0.31094968 -0.17468683 0.26503736 -0.18165527 0.1934885 -0.07408949 0.17364404 -0.24969389
-0.22828041 -0.124739505 -0.34073848 0.13253523 -0.34931666 0.40902886 -0.19148017 0.2390372
-0.17215459 0.25784647 -0.21582435 0.25933805 0.28822294 -0.33214334 -0.26681426 -0.032978784
-0.04170319 -0.18555889 0.42495278 -0.36412254 0.24807842 -0.102429084 -0.1270478 -0.28415525
0.12661204 0.17461269 -0.17037973 0.18671486 -0.34060523 -0.18267766 0.19450445 -0.17576747
0.21168083 -0.12918442 0.4015709 0.18217663 -0.22460389 -0.13258164 -0.31906652 -0.21309969
0.1070248 0.021388756 -0.33030418 0.529572 0.21708871 0.10257595 -0.16605419 0.13804176
-0.29269814 -0.017933443 0.11302714 -0.13856159 -0.09028095 -0.24369313 -0.2849666 -0.1927627
0.29614034 -0.18071452 0.37468705 -0.092917725 0.380616 0.18177147 0.047138873 -0.2581337
-0.17983773 -0.17808127 0.19101262 0.18592213 -0.28563797 0.057127886 -0.60276324 0.45160082
-0.18344049 0.53922266 -0.21648018 0.5080262 0.2385909 -0.31282133 -0.13188113 -0.12683912
-0.2916109 -0.3145259 -0.017562466 0.25622404 0.0140562365 -0.18487945 -0.39948556 -0.27168664
0.058449455 0.30077156 -0.34068105 0.16399167 -0.25800115 -0.18936135 0.23725112 -0.20583053
00000000: ccf2 9c3e ad38 00bf 4dd9 e93d 9cc4 5d3e
00000010: 78e7 1fbe 06ab 52be eb5f 5abe 9fa6 2cbe
00000020: a39c 393e b41f 003f 09c4 21be e7a1 bf3e
00000030: fd37 b93e 2acd 00be fdf0 1fbe 8ea6 4f3e
00000040: ea85 b1be da02 b03c ae80 24bb 492c 6abe
00000050: ec2c 29be f089 33be 7fe5 f2bd 2ca1 4dbe
00000060: cc34 9f3e 1be1 32be fab2 873e d703 3abe
00000070: d921 463e 3bbc 97bd becf 313e c1af 7fbe
00000080: 57c2 69be 6d77 ffbd 4675 aebe 51b7 073e
00000090: a2d9 b2be 3b6c d13e 6113 44be 2bc6 743e
000000a0: 4b49 30be 7404 843e 0f01 5dbe f5c7 843e
000000b0: f591 933e b10e aabe e19b 88be c314 07bd
000000c0: f7d0 2abd 2603 3ebe 6993 d93e 456e babe
000000d0: 4508 7e3e 57c6 d1bd d218 02be cc7c 91be
000000e0: 96a6 013e abcd 323e 0678 2ebe 2e32 3f3e
000000f0: cf63 aebe da0f 3bbe 2d2c 473e 63fc 33be
00000100: dcc2 583e ec48 04be b39a cd3e 838c 3a3e
00000110: 90fe 65be 7bc3 07be b05c a3be ce36 5abe
00000120: d12f db3d 7937 af3c a11d a9be 0892 073f
00000130: 814c 5e3e 5713 d23d 1c0a 2abe d25a 0d3e
00000140: 88dc 95be 28e9 92bc c67a e73d 17e3 0dbe
00000150: 38e5 b8bd b18a 79be 24e7 91be 9663 45be
00000160: b59f 973e 3a0d 39be fbd6 bf3e a64b bebd
00000170: 1ae0 c23e 4d22 3a3e b114 413d 1a2a 84be
00000180: 6227 38be f05a 36be d098 433e 5f62 3e3e
00000190: 243f 92be eefe 693d b14e 1abf 3938 e73e
000001a0: d3d7 3bbe 7f0a 0a3f fbac 5dbe 010e 023f
000001b0: 2c51 743e 1e2a a0be d90b 07be 1de2 01be
000001c0: 064e 95be 8a09 a1be 29df 8fbc cc2f 833e
000001d0: 214c 663c 0a51 3dbe 5f89 ccbe 831a 8bbe
000001e0: b268 6f3d bbfe 993e bf6d aebe 6fed 273e
000001f0: ba18 84be f1e7 41be f5f1 723e 3dc5 52be

l4.bias f4 [2]
0.34506223 0.053255066
00000000: ffab b03e fc21 5a3d
