Ablation Experiments/Remove resistance level-去掉阻力位/Transformer-DoubleDQN-QT-Final/64target-network-TransformerNoguiadance.pth (torch, 851744 bytes, 18 tensors)

encoder.self_attn.in_proj_weight f4 [30, 10]
0.091067344 -0.2810873 -0.39566365 -0.14628905 0.07712618 -0.7628332 -0.46090767 -0.024326393
0.46983105 -0.37664804 -0.28043666 -0.15055497 0.43947676 -0.40809104 -0.1711793 -0.8877905
-0.9905648 0.44337967 0.03353335 -0.059610873 0.16040368 -0.40322977 -1.4140233 -1.7709578
-1.4829038 -1.1391418 -1.8179102 -0.48313412 0.2379661 0.34239817 -0.27291882 0.61343443
1.0135235 1.5243809 1.4177829 1.8296945 1.8482426 -0.4817077 -0.67735213 -0.066908
-0.31609654 0.16222909 -0.48620394 -0.53735524 -0.32046086 0.08384958 0.0899143 0.012043627
-0.30994955 -0.32745096 0.01396206 -0.3149133 0.23761003 0.04939786 -0.18813077 -0.7806967
-0.23193322 0.07395278 0.24331352 -0.37064508 0.3531847 -0.2911569 -0.91313255 -0.8101937
-1.1410223 -1.5172497 -1.4089165 2.1366236 0.22838753 0.10825881 0.656681 0.32249802
0.55958813 0.4341405 0.4593217 0.2635953 0.23108262 -3.4433875 0.5610768 0.2923323
-0.4762282 0.50867516 1.0089952 1.4047649 1.2036779 0.64536256 0.56539464 -0.67659765
-0.49475265 0.09500328 -0.25352645 -0.23034635 -0.45848468 -0.15031484 -0.27927545 0.19224033
0.23588309 -0.35508224 0.19773862 0.16801542 0.32881734 -0.036218535 0.012771827 0.34842315
0.5802575 -0.4329962 0.25068974 -2.2299194 -0.9194392 0.08916077 -0.64187 0.6921007
-0.33989808 0.94391733 0.7867106 0.07352716 -0.6560555 -0.4203029 -0.15492027 0.15137541
-0.41877973 1.4471799 -0.6364125 -0.12575658 -0.82628983 -0.5790673 -0.4546339 -0.67889535
-0.60864145 0.38278836 0.5852394 -1.2729481 1.0492662 0.56588227 0.5161616 0.63203025
0.9558802 6.008686 0.54005885 -0.3827536 0.1455259 0.40305588 0.7310056 -0.51602715
0.20084998 0.21807493 -0.12491611 2.3790805 0.7417536 0.17511064 -0.06089932 -0.039053906
-0.15548903 0.1889318 0.14776532 -0.014472974 -0.45350194 -2.4575636 -0.74546605 0.35201657
-0.1475613 -0.22236873 -0.21733224 -0.7305397 -0.16037399 0.40803084 0.2980359 1.0683376
-0.37465844 0.30139327 0.21074535 -0.34352833 -0.027210744 0.5891769 0.5332531 0.051158573
0.2792209 -1.5185591 -0.7099032 -0.11592549 -0.6338916 -0.5064423 -0.18021162 -0.6669579
-0.6095949 -0.6922153 -0.31580335 3.301202 0.72987914 -0.03635475 -0.019473355 -0.17979956
-0.36455432 0.0822301 0.4317724 -0.21727659 -0.06133589 -2.25808 -0.5464894 0.28128386
0.33050936 0.17017202 0.36535913 0.44491768 1.1183009 0.2779444 0.15452905 -0.82539976
0.35539433 0.34512138 0.98573655 -1.0092545 0.023458706 0.6746067 -0.52119434 0.8787504
0.44209746 -0.2210236 1.2361102 -0.11318427 0.34485912 -0.7588201 -0.116974615 0.9797024
0.7522776 0.01214891 0.5651415 -1.5067048 0.5331041 -0.35002315 -0.6101247 0.9477969
0.90492076 -0.5181032 0.18630166 -0.28141734 -0.6004751 0.15234737 -1.6527007 0.30788022
-0.21463278 0.074237056 1.3380308 0.4279386 -0.28504953 -0.17362837 -0.7613317 2.316895
0.14538522 -0.03241843 0.3282708 0.07109436 -0.70679355 -0.060420558 0.56728315 0.17379466
00000000: 8481 ba3d adea 8fbe 6d94 cabe cccc 15be
00000010: 55f4 9d3d 0949 43bf 17fc ebbe 2548 c7bc
00000020: b28d f03e 03d8 c0be 6595 8fbe 152b 1abe
00000030: 1903 e13e 4ff1 d0be a049 2fbe 3d46 63bf
00000040: a895 7dbf a902 e33e 445a 093d 882a 74bd
00000050: dd40 243e 2274 cebe b7fe b4bf bfae e2bf
00000060: cbcf bdbf 66cf 91bf 48b1 e8bf 5b5d f7be
00000070: 63ad 733e d04e af3e 04bc 8bbe 0a0a 1d3f
00000080: 23bb 813f ea1e c33f e979 b53f 6e33 ea3f
00000090: 3793 ec3f 64a2 f6be f366 2dbf 1007 89bd
000000a0: 68d7 a1be 621f 263e b9ef f8be 1d90 09bf
000000b0: 7213 a4be 54b9 ab3d fd24 b83d a252 453c
000000c0: b5b1 9ebe a7a7 a7be 20c1 643c 513c a1be
000000d0: 0b50 733e 6955 4a3d 5aa5 40be bddb 47bf
000000e0: e77f 6dbe 8e74 973d 2e27 793e 31c5 bdbe
000000f0: a0d4 b43e 8412 95be 0ec3 69bf db68 4fbf
00000100: 050d 92bf 3d35 c2bf 6057 b4bf 71be 0840
00000110: 6cde 693e ccb6 dd3d 3f1c 283f 761e a53e
00000120: 2b41 0f3f aa47 de3e 372c eb3e f7f5 863e
00000130: eca0 6c3e 7660 5cc0 bba2 0f3f 94ac 953e
00000140: 2fd4 f3be 8938 023f c126 813f 56cf b33f
00000150: 1e12 9a3f 7b36 253f b4bd 103f 8135 2dbf
00000160: 3850 fdbe 1491 c23d 38ce 81be eadf 6bbe
00000170: 81be eabe 22ec 19be 31fd 8ebe a6da 443e
00000180: 568b 713e 57cd b5be fe7b 4a3e 3c0c 2c3e
00000190: bf5a a83e e359 14bd ed40 513c 8564 b23e
000001a0: c18b 143f aeb1 ddbe 685a 803e 00b7 0ec0
000001b0: 5e60 6bbf ec99 b63d 9851 24bf 832d 313f
000001c0: 1f07 aebe 91a4 713f de65 493f 6895 963d
000001d0: 41f3 27bf f131 d7be 6ba3 1ebe 2802 1b3e
000001e0: 4c6a d6be 313d b93f eeeb 22bf 55c6 00be
000001f0: bb87 53bf c13d 14bf c6c5 e8be 16cc 2dbf
00000200: edcf 1bbf d6fc c33e 40d2 153f f7ef a2bf
00000210: 5b4e 863f a9dd 103f 2b23 043f bccc 213f
00000220: 91b4 743f 2847 c040 4c41 0a3f 48f8 c3be
00000230: be04 153e 575d ce3e 2f23 3b3f 5b1a 04bf
00000240: 9eab 4d3e 094f 5f3e 04d4 ffbd db42 1840
00000250: 90e3 3d3f 3450 333e 9171 79bd fdf6 1fbd
00000260: 8438 1fbe 5677 413e cb4f 173e 0e20 6dbc
00000270: 6831 e8be b948 1dc0 ddd6 3ebf 843b b43e
00000280: 4f1a 17be a1b4 63be 588c 5ebe a604 3bbf
00000290: 1439 24be 6be9 d03e 2998 983e 49bf 883f
000002a0: 3bd3 bfbe 3850 9a3e a1cd 573e f2e2 afbe
000002b0: 11e9 debc 4cd4 163f 4683 083f a78b 513d
000002c0: 0bf6 8e3e 2560 c2bf 37bc 35bf 586a edbd
000002d0: b846 22bf 34a6 01bf 6589 38be c1bd 2abf
000002e0: 690e 1cbf 0635 31bf fab0 a1be e546 5340
000002f0: 5cd9 3a3f b8e8 14bd 9686 9fbc 601d 38be
00000300: dda6 babe 4168 a83d 4611 dd3e c17d 5ebe
00000310: 583b 7bbd 6284 10c0 bbe6 0bbf 7004 903e
00000320: 8638 a93e 9341 2e3e 5a10 bb3e 40cc e33e
00000330: 7c24 8f3f ba4e 8e3e dd3c 1e3e 664d 53bf
00000340: 3ff6 b53e c0b3 b03e 3b59 7c3f 402f 81bf
00000350: 792c c03c 06b3 2c3f fe6c 05bf c9f5 603f
00000360: 995a e23e 0354 62be dc38 9e3f 28cd e7bd
00000370: 6091 b03e 0942 42bf 6390 efbd c7cd 7a3f
00000380: 4495 403f 390c 473c 1dad 103f b4db c0bf
00000390: 8379 083f 3c36 b3be 2231 1cbf d1a2 723f
000003a0: e3a8 673f 69a2 04bf ddc5 3e3e ef15 90be
000003b0: bcb8 19bf f300 1c3e b28b d3bf 7aa2 9d3e
000003c0: b2c8 5bbe 9909 983d 9844 ab3f c51a db3e
000003d0: 03f2 91be a3cb 31be a2e6 42bf 0248 1440
000003e0: dddf 143e 30c9 04bd 1c13 a83e eb99 913d
000003f0: 6cf0 34bf 8c7b 77bd 7839 113f 3af7 313e

encoder.self_attn.in_proj_bias f4 [30]
0.12256609 0.053805787 0.45747152 -0.38569015 -0.050241716 0.07438176 0.5020552 0.28001285
-0.28131917 -0.1161639 -0.38984013 0.34154776 0.14936657 0.24441807 0.10978298 -0.36067966
0.23103966 -0.16698837 -0.3431625 0.24973129 0.1348401 1.0604998 0.28252718 -1.5224056
-0.11074458 0.31562674 -0.098595776 0.56373537 0.28191358 0.5576951
00000000: ee03 fb3d 7563 5c3d b539 ea3e 2e79 c5be
00000010: 42ca 4dbd 7755 983d b186 003f d85d 8f3e
00000020: 1109 90be 57e7 edbd 2099 c7be 59df ae3e
00000030: 8df3 183e bb48 7a3e e6d5 e03d 01ab b8be
00000040: a995 6c3e 00ff 2abe ffb2 afbe 8fb9 7f3e
00000050: 8613 0a3e 75be 873f 67a7 903e 30de c2bf
00000060: 0ece e2bd d499 a13e 95ec c9bd f650 103f
00000070: fa56 903e 1bc5 0e3f

encoder.self_attn.out_proj.weight f4 [10, 10]
-0.55237514 0.6218578 -0.37402177 -0.25044003 0.7067619 -0.4601024 0.21360852 0.24256052
-0.28999874 0.8309774 0.8169155 -0.12751566 0.21692862 0.27393746 -0.5377252 0.5697825
-0.23471819 -0.5971031 0.057718724 -0.19608814 0.5570781 -0.43281576 -0.10865232 0.43009695
-0.28012305 0.61663204 0.036430083 -0.6231032 0.034234945 -0.14831236 -0.32427835 1.1024479
0.30725738 -0.8709217 0.6467434 -0.020107279 0.76574993 -0.10724077 -0.37951127 0.7563755
-0.5619292 0.8961905 -0.07925885 -0.868934 0.6345028 -0.07788437 0.2933011 0.015457899
-0.139897 0.8869347 0.2793387 -0.92930824 -0.0018421126 1.0071838 -0.66424423 0.3701309
0.21576253 -0.44571137 -0.32911384 -0.7845894 -0.079651505 -0.48348153 -0.31468457 0.64532655
-0.4603803 -0.349375 0.16008648 0.40694466 -0.14415054 -0.20735851 -0.20919499 -0.6419975
-0.9748853 0.47697544 -0.29236722 -0.1803541 -0.9583931 0.17180908 1.1423585 -0.19391164
0.54722995 1.2297155 0.64685816 -0.9450697 0.5537118 0.6140825 -0.050971992 -0.74338925
-0.6114915 0.24572249 0.031900503 -0.083149604 0.16321424 0.31801763 -0.21526302 -0.08798423
0.7227563 0.38585666 -0.17731485 0.23371638
00000000: 7568 0dbf 1332 1f3f c87f bfbe ad39 80be
00000010: 59ee 343f 8b92 ebbe 31bc 5a3e c961 783e
00000020: b77a 94be efba 543f 6021 513f 7793 02be
00000030: 8922 5e3e 8841 8c3e 5ca8 09bf 44dd 113f
00000040: f759 70be c0db 18bf 786a 6c3d 54cb 48be
00000050: ac9c 0e3f 079a ddbe 1c85 debd ab35 dc3e
00000060: 4a6c 8fbe 99db 1d3f b637 153d b183 1fbf
00000070: f139 0c3d 32df 17be d007 a6be 031d 8d3f
00000080: d750 9d3e b9f4 5ebf fa90 253f 05b8 a4bc
00000090: 3008 443f 0ca1 dbbd 4d4f c2be d3a1 413f
000000a0: 98da 0fbf be6c 653f 7752 a2bd 7572 5ebf
000000b0: c76e 223f d781 9fbd 902b 963e 2143 7d3c
000000c0: 2941 0fbe 270e 633f 7b05 8f3e 25e7 6dbf
000000d0: 0b73 f1ba 66eb 803f e90b 2abf cc81 bd3e
000000e0: daf0 5c3e 4834 e4be 9c81 a8be dada 48bf
000000f0: 5420 a3bd e48a f7be 561e a1be 1f34 253f
00000100: f7b6 ebbe 48e1 b2be b6ed 233e 0d5b d03e
00000110: 339c 13be ca55 54be 3637 56be f359 24bf
00000120: 1592 79bf 2036 f43e 28b1 95be bfae 38be
00000130: 4059 75bf b8ee 2f3e ce38 923f c690 46be
00000140: 4317 0c3f 5167 9d3f 7f98 253f 16f0 71bf
00000150: 0ec0 0d3f 8334 1d3f 02c8 50bd c24e 3ebf
00000160: b58a 1cbf ad9e 7b3e 1aaa 023d 574a aabd
00000170: a221 273e 35d3 a23e e96d 5cbe 1331 b4bd
00000180: 8f06 393f 018f c53e 0692 35be 5953 6f3e

encoder.self_attn.out_proj.bias f4 [10]
0.66425955 -0.27950656 -0.20348883 0.98765284 0.7413769 -0.7270522 -0.4643744 -0.5833644
0.8779348 -0.2677277
00000000: ea0c 2a3f 7c1b 8fbe 605f 50be d1d6 7c3f
00000010: e0ca 3d3f 1820 3abf 7bc2 edbe 5f57 15bf
00000020: 56c0 603f 9b13 89be

encoder.linear1.weight f4 [64, 10]
0.33602977 0.2525147 0.019764267 -0.18224965 0.118388854 0.15086743 -0.15565705 0.5425918
-0.4020807 -0.133109 -0.029563904 0.3577841 -0.030443989 -0.4919478 0.09747443 0.58859575
0.5096035 -0.11920471 0.13227442 0.5708388 -1.3056912 -0.37312487 -1.0032842 -0.78362006
-0.4122141 1.5968558 0.09863432 -0.9787379 0.20828135 2.4418225 0.03718716 -0.6316138
-0.6433305 0.065989666 0.22887939 0.5298258 1.1985635 -0.0028945124 -0.64454657 -0.057113204
-0.5143698 0.7028466 1.463715 0.5471327 -0.30954415 0.5592184 -0.07379213 -0.9362181
0.6255241 0.28705424 -0.32630482 0.4242848 0.32811052 -0.13062662 -0.48133805 0.3386195
0.6193886 -0.31921336 -0.01566909 1.05779 -0.04576468 -0.36000618 -0.14157814 0.38389087
0.025764698 0.2998642 0.31382552 1.5456756 -1.0128015 0.4669933 -1.8701909 0.26487374
-0.670835 0.20175634 -0.6142687 1.2532662 -0.83802176 -0.9232864 0.8759881 0.40448108
-0.7787153 0.15261276 0.64708734 -0.53866625 -0.13701305 0.31825235 0.34285063 0.12024742
0.014482014 1.1137027 0.32838377 0.05527383 0.31155354 -0.86133915 -0.33350047 0.67792577
0.33641374 -0.30722663 -0.11125404 0.18889433 -0.42752868 0.96665025 1.9190313 0.1251595
-0.28433257 0.888608 -0.29130346 -0.61185974 0.78933364 0.73801273 -1.781564 0.61666435
0.5678203 -0.28480783 -1.2759286 2.064767 -0.9172581 -0.17467867 1.2165763 -0.7922458
0.24818519 -0.8633431 0.16485323 0.42500722 0.9714235 -0.63909644 -0.40243652 0.54760474
0.11270939 -0.39023072 -0.434908 0.7585484 0.8120492 0.27584532 -0.14164418 0.02856099
0.7010222 0.38554138 -1.0203247 0.5055889 -0.39855114 0.8842895 1.4621965 0.32310662
-0.51421374 1.0385255 -0.15209758 -0.5504762 0.8806727 0.6206162 -0.67616224 -0.05484918
0.62504613 1.7247698 0.41772214 0.5243822 -1.8219883 -2.0045016 2.1621141 -0.78372544
0.25292706 0.7193712 0.26608595 -0.25607488 -0.031104837 0.16104627 0.38254073 0.66786486
-0.71091276 0.2860006 -1.008592 0.6274614 0.65557337 -0.13457377 -0.9466883 1.1163417
0.09360177 -0.76380336 -0.041601032 1.0501407 0.066674665 0.53404766 0.9253152 0.61438584
0.4303799 -1.0894806 -1.0207762 -0.52950376 0.19012897 0.17839423 0.47855875 -0.63556355
-0.7634375 -0.17175624 -0.3321905 0.41377902 0.172459 1.5221642 -0.4353052 0.25986266
0.11511716 0.1076579 0.35348532 0.19655338 -0.10900327 0.36661962 0.14849645 0.24572356
-0.32875165 0.3031939 0.2364797 -0.120094985 -0.22662638 -0.13385335 0.13192523 0.12935576
0.005634789 0.2311012 -0.55016357 0.55471635 -0.64638656 0.39588353 0.8382764 -0.5723388
-0.4984521 0.96250427 -0.1581325 -0.6521907 0.86043704 -0.30300027 0.25985575 0.0763515
0.17062138 -0.012703979 0.010164653 0.088161446 0.10687265 0.22425033 -0.31015193 0.060407266
-0.323962 -0.25008187 -0.5657291 -0.18931553 -0.7837217 1.773684 2.1852942 -1.5612682
-1.0290881 0.8732279 -0.90008193 -0.008080067 1.1873287 -0.49347407 -0.2678545 0.541399
00000000: 180c ac3e 9b49 813e ace8 a13c a79f 3abe
00000010: db75 f23d fe7c 1a3e 9064 1fbe 4ce7 0a3f
00000020: 86dd cdbe ba4d 08be 0030 f2bc 7a2f b73e
00000030: ac65 f9bc 95e0 fbbe ada0 c73d 36ae 163f
00000040: 6075 023f 9921 f4bd f272 073e 7e22 123f
00000050: e420 a7bf 390a bfbe 9e6b 80bf 539b 48bf
00000060: ba0d d3be c565 cc3f ca00 ca3d 918e 7abf
00000070: b547 553e d246 1c40 9051 183d 71b1 21bf
00000080: 4fb1 24bf 9725 873d 5c5f 6a3e aaa2 073f
00000090: 876a 993f dcb1 3dbb 0101 25bf 89ef 69bd
000000a0: bdad 03bf c1ed 333f 035b bb3f e310 0c3f
000000b0: 927c 9ebe f028 0f3f 5420 97bd fdab 6fbf
000000c0: 5922 203f c6f8 923e 6d11 a7be db3b d93e
000000d0: 1afe a73e fcc2 05be f171 f6be 895f ad3e
000000e0: 4090 1e3f ef6f a3be 775c 80bc aa65 873f
000000f0: bf73 3bbd bb52 b8be dcf9 10be 588d c43e
00000100: 7d10 d33c cd87 993e bdad a03e b3d8 c53f
00000110: 7ba3 81bf bf19 ef3e 6a62 efbf 889d 873e
00000120: d8bb 2bbf 3799 4e3e b740 1dbf 076b a03f
00000130: 9888 56bf 7f5c 6cbf c240 603f 2518 cf3e
00000140: e359 47bf 8546 1c3e 84a7 253f 08e6 09bf
00000150: 264d 0cbe f9f1 a23e 1e8a af3e 4844 f63d
00000160: f845 6d3c cf8d 8e3f eb21 a83e d066 623d
00000170: f283 9f3e b980 5cbf 93c0 aabe 8b8c 2d3f
00000180: 6c3e ac3e cf4c 9dbe 28d9 e3bd 846d 413e
00000190: 0ae5 dabe 6476 773f d1a2 f53f d029 003e
000001a0: 0a94 91be d07b 633f ba25 95be d7a2 1cbf
000001b0: c511 4a3f 67ee 3c3f 4a0a e4bf b7dd 1d3f
000001c0: ac5c 113f 55d2 91be a151 a3bf 2425 0440
000001d0: 6dd1 6abf f7de 32be c6b8 9b3f 9fd0 4abf
000001e0: 4224 7e3e 0e04 5dbf 49cf 283e 8c9a d93e
000001f0: 36af 783f d39b 23bf 290c cebe d32f 0c3f
00000200: 2ed4 e63d 52cc c7be 43ac debe 3a30 423f
00000210: 75e2 4f3f 993b 8d3e 2c0b 11be bdf8 e93c
00000220: 3176 333f ae65 c53e 009a 82bf 466e 013f
00000230: e50e ccbe cc60 623f 4129 bb3f 3b6e a53e
00000240: 83a3 03bf 67ee 843f 78bf 1bbe 02ec 0cbf
00000250: c473 613f b4e0 1e3f f818 2dbf 89a9 60bd
00000260: 0603 203f 42c5 dc3f addf d53e e93d 063f
00000270: ea36 e9bf c149 00c0 1460 0a40 3ba2 48bf
00000280: a87f 813e b628 383f 6b3c 883e 3f1c 83be
00000290: 92cf febc 50e9 243e 61dc c33e 31f9 2a3f
000002a0: 61fe 35bf ac6e 923e 8b19 81bf 4fa1 203f
000002b0: a8d3 273f b5cd 09be 2a5a 72bf 49e4 8e3f
000002c0: 49b2 bf3d 9e88 43bf d865 2abd 036b 863f
000002d0: ba8c 883d 59b7 083f 75e1 6c3f 6448 1d3f
000002e0: c15a dc3e 1a74 8bbf cba8 82bf 8f8d 07bf
000002f0: 2bb1 423e faac 363e a705 f53e 4bb4 22bf
00000300: a470 43bf dee0 2fbe e014 aabe d8da d33e
00000310: 1899 303e 47d6 c23f 53e0 debe b80c 853e
00000320: 8cc2 eb3d bf7b dc3d 07fc b43e 4a45 493e
00000330: 1b3d dfbd 91b5 bb3e 740f 183e f59e 7b3e
00000340: 2352 a8be 3b3c 9b3e bc27 723e 5cf4 f5bd
00000350: bf10 68be da10 09be 6817 073e d675 043e
00000360: 09a4 b83b cba5 6c3e 85d7 0cbf e401 0e3f
00000370: 9779 25bf 3fb1 ca3e 4899 563f cc84 12bf
00000380: 1d35 ffbe ae66 763f 7ced 21be f8f5 26bf
00000390: 9a45 5c3f da22 9bbe d00b 853e 2d5e 9c3d
000003a0: 5fb7 2e3e 5a24 50bc a589 263c fd8d b43d
000003b0: 0ce0 da3d e1a1 653e 3ccc 9ebe 9c6d 773d
000003c0: 59de a5be bb0a 80be 9fd3 10bf eedb 41be
000003d0: fca1 48bf 1408 e33f dcdb 0b40 a3d7 c7bf
000003e0: 29b9 83bf dd8b 5f3f c56b 66bf 4262 04bc
000003f0: 63fa 973f a2a8 fcbe 3a24 89be 2099 0a3f

encoder.linear1.bias f4 [64]
-0.5868886 -0.095626384 0.44242242 -0.5948249 0.76326597 -0.034235753 -0.8946006 0.8552947
-0.35771742 -0.18399763 0.7138826 0.51559395 0.3075325 -1.0458968 0.695756 1.9915701
-0.98489684 0.61748517 0.13606085 -0.48883936 -0.51443124 -0.583941 0.64399225 -0.36646712
-0.53629416 -0.34561032 0.37547708 1.5803577 -0.2752781 -0.09587152 0.90269893 -0.10600007
1.2453772 -0.19358736 -0.23513679 1.867951 -0.257364 1.651118 -0.77430516 2.2759995
1.3092077 0.892327 0.71205264 -0.8684159 -0.11059892 -0.5264777 0.9102048 1.7205728
-0.61477876 -0.35647812 -0.19094181 -0.13403308 -1.0301541 -0.6121654 1.5091665 0.15375814
-0.38990447 1.976967 0.7684772 0.17658678 -0.8484554 0.8542479 -0.35352984 -0.71277905
00000000: 553e 16bf c4d7 c3bd 3185 e23e 7246 18bf
00000010: 6665 433f ca3a 0cbd 8b04 65bf 98f4 5a3f
00000020: bd26 b7be e069 3cbe 03c1 363f f7fd 033f
00000030: e674 9d3e f2df 85bf 111d 323f c5eb fe3f
00000040: 3322 7cbf 8213 1e3f 8953 0b3e 2749 fabe
00000050: c4b1 03bf 287d 15bf addc 243f 94a1 bbbe
00000060: 934a 09bf d6f3 b0be 883e c03e 2949 ca3f
00000070: 40f1 8cbe 4a58 c4bd 4717 673f 9116 d9bd
00000080: 8568 9f3f c43b 46be b3c7 70be 0519 ef3f
00000090: 37c5 83be d657 d33f dd38 46bf faa9 1140
000000a0: 1e94 a73f 8b6f 643f 1549 363f 8150 5ebf
000000b0: b081 e2bd 3ec7 06bf 2f03 693f bb3b dc3f
000000c0: 2462 1dbf 4d84 b6be 4086 43be f83f 09be
000000d0: 17dc 83bf dfb6 1cbf 5e2c c13f c672 1d3e
000000e0: 8fa1 c7be 410d fd3f ecba 443f 2ad3 343e
000000f0: 6034 59bf feaf 5a3f dd01 b5be b078 36bf

encoder.linear2.weight f4 [10, 64]
0.43163195 1.038762 -1.7277373 -1.4490513 0.35604236 1.0040964 -0.416322 0.016019536
0.89387804 0.88190436 0.013667661 2.3775506 -0.31073993 -0.3114168 0.09384589 -0.0039403243
0.39144182 0.35440683 -0.30629238 -0.22283374 -0.1402477 0.32341242 0.08923098 -0.00040566348
-0.12799989 1.2355843 0.36918238 -0.1923861 0.13421689 -0.16430716 0.13629176 0.5080675
-0.05510207 0.043782078 1.4591459 -0.3033926 -0.10308268 0.012704239 0.37760854 0.03191354
-0.29421213 0.21145242 0.054678272 -0.3378274 -0.20702636 0.12066911 0.010671445 0.2919098
-0.12444244 0.23025005 0.38147017 1.2776737 -0.08960389 -0.14474651 0.057412505 0.7931008
0.10788406 0.022395942 0.090155035 0.32154143 -0.8299173 0.12259464 -0.35343096 -0.04470832
-0.38462955 0.09471305 0.49106446 0.13883892 -0.3172679 -0.053752955 0.06273368 -1.5862228
-0.013326185 0.04963613 -0.4896367 -0.10105279 -0.33775598 -0.35639662 -0.53843296 -1.0213592
0.38236254 0.115410134 -0.11997166 0.08114742 0.13438906 -0.19009496 -0.5575263 -0.01337734
-0.3240373 0.5468236 -0.45687908 -0.5123048 -0.51015204 -0.25026387 -0.49982196 -0.29565626
-0.33770174 -0.81482184 -0.17216527 -1.2837094 -0.19706401 -0.38931432 0.33934462 -1.3143681
-0.65597343 -0.31253952 -0.47181877 0.25703037 0.07656779 -0.0008076189 -0.31358477 -0.86737067
0.9792532 0.04281005 -0.93031776 0.18595393 -0.62507814 0.32074726 -0.68517506 -0.0077664983
-0.40440908 -0.9048481 -1.4763496 -0.35474157 0.11746686 -0.41701013 0.051336646 0.12594764
-0.22906807 -0.70585775 -1.012253 -1.0327526 -0.5292867 -0.4731669 -0.49704105 -1.9669459
-0.3337222 -0.33249035 -0.5739444 -0.261341 -0.8949708 -0.6189733 -0.7044042 -1.2166555
-0.060669493 0.025485577 -0.4148868 -0.15191653 0.2017923 -0.2921824 -0.772182 0.023798544
0.1050269 -0.13433363 -0.61200845 -0.8268082 0.08461101 -0.21146388 -0.7078401 -0.85253644
-0.66947293 -0.097659595 -0.35579127 -1.8233777 -0.10353901 -0.9900983 -0.057731215 -1.8124118
-1.1584343 -0.43928286 -0.7937903 -0.38961524 0.1044609 0.053680632 -0.38488725 -1.2363387
0.08639187 0.057654634 -0.22653425 -0.21903513 -0.5010858 -0.5700923 -1.0418997 -0.7103647
-0.41925985 -1.1235119 -1.9689556 -0.64897096 -1.2899028 -0.5891456 -0.28522205 -0.0057652616
-0.24753816 1.828332 2.0228086 0.12606859 0.83409584 1.0318354 -0.46093926 0.9786002
1.8423729 1.8678069 0.5818657 3.2835667 0.29765898 0.19545513 0.87171984 1.1800277
-0.051854935 0.9588039 0.34356266 0.5248368 0.03757288 0.40689206 0.7388966 -0.14058895
0.18424587 1.4967171 0.7414765 0.8321574 0.4769595 0.858545 0.69178104 0.9118882
0.73484516 -0.18045083 1.1291282 1.003095 0.756809 0.95965666 1.1570842 1.0831934
1.6753739 0.97651595 0.685667 0.59754205 0.09098436 0.05367867 0.5940041 1.2121679
0.7399423 -0.26219526 0.92501426 1.640034 0.10947523 -0.23733772 1.332019 1.016238
0.044229604 1.1406537 0.8792738 0.8900357 0.24853179 0.6445007 -0.09713116 0.6304484
00000000: ddfe dc3e 27f6 843f 7f26 ddbf 837a b9bf
00000010: 2f4b b63e 3b86 803f 2828 d5be 673b 833c
00000020: 31d5 643f 7cc4 613f 53ee 5f3c ca29 1840
00000030: 4e19 9fbe 0672 9fbe 4632 c03d d61d 81bb
00000040: 106b c83e d074 b53e 5bd2 9cbe 872e 64be
00000050: 189d 0fbe 5096 a53e bbbe b63d 3baf d4b9
00000060: 6712 03be a027 9e3f 7905 bd3e dd00 45be
00000070: 2770 093e 2340 28be 1190 0b3e b610 023f
00000080: b5b2 61bd d654 333d 4bc5 ba3f 4656 9bbe
00000090: 031d d3bd 7125 503c e855 c13e c6b7 023d
000000a0: f9a2 96be fc86 583e 53f6 5f3d b7f7 acbe
000000b0: b8fe 53be 5e21 f73d 49d7 2e3c 3475 953e
000000c0: aedb febd abc6 6b3e 0f50 c33e d08a a33f
000000d0: 3f82 b7bd 6e38 14be 6029 6b3d a708 4b3f
000000e0: 51f2 dc3d b277 b73c 34a3 b83d 14a1 a43e
000000f0: 7675 54bf e612 fb3d e7f4 b4be 1220 37bd
00000100: 2aee c4be eaf8 c13d cd6c fb3e ca2b 0e3e
00000110: f070 a2be 0f2c 5cbd 847a 803d 5909 cbbf
00000120: 1256 5abc 414f 4b3d a9b1 fabe c4f4 cebd
00000130: 5aee acbe 9e79 b6be bed6 09bf e6bb 82bf
00000140: 06c5 c33e 265c ec3d b4b3 f5bd 9e30 a63d
00000150: 499d 093e 41a8 42be 0bba 0ebf a12c 5bbc
00000160: 38e8 a5be a2fc 0b3f 0eec e9be 6826 03bf
00000170: 5399 02bf 9622 80be aae8 ffbe 4260 97be
00000180: 3ee7 acbe 2a98 50bf 184c 30be 9750 a4bf
00000190: 26cb 49be 3554 c7be 94be ad3e 373d a8bf
000001a0: e0ed 27bf 2e05 a0be 3b92 f1be 7c99 833e
000001b0: 93cf 9c3d 63b6 53ba 2f8e a0be 010c 5ebf
000001c0: 56b0 7a3f 9759 2f3d 4e29 6ebf b56a 3e3e
000001d0: 1f05 20bf fc38 a43e a267 2fbf 1c7e febb
000001e0: b50e cfbe 20a4 67bf 06f9 bcbf b0a0 b5be
000001f0: 7792 f03d 5a82 d5be 6046 523d 6bf8 003e
00000200: d290 6abe 18b3 34bf 8291 81bf 3d31 84bf
00000210: 557f 07bf ef42 f2be 2a7c febe e2c4 fbbf
00000220: a3dd aabe 2d3c aabe 05ee 12bf 7dce 85be
00000230: ce1c 65bf 0975 1ebf d553 34bf 5ebb 9bbf
00000240: 9380 78bd 21c7 d03c 0b6c d4be 0290 1bbe
00000250: a4a2 4e3e ee98 95be b8ad 45bf 2af5 c23c
00000260: 5818 d73d c18e 09be 96ac 1cbf b4a9 53bf
00000270: 8a48 ad3d fd89 58be 0235 35bf d43f 5abf
00000280: 9462 2bbf c101 c8bd 462a b6be 7164 e9bf
00000290: 430c d4bd 1577 7dbf 9177 6cbd 1cfd e7bf
000002a0: 9347 94bf afe9 e0be d735 4bbf a67b c7be
000002b0: 99ef d53d 39e0 5b3d f10f c5be 5940 9ebf
000002c0: 39ee b03d 4427 6c3d 98f8 67be bf4a 60be
000002d0: 2947 00bf 92f1 11bf f85c 85bf 76da 35bf
000002e0: 3aa9 d6be 3dcf 8fbf bd06 fcbf f622 26bf
000002f0: 891b a5bf 3fd2 16bf a008 92be 85ea bcbb
00000300: a57a 7dbe c806 ea3f b275 0140 2018 013e
00000310: 4e87 553f 2f13 843f 3b00 ecbe 8b85 7a3f
00000320: e0d2 eb3f 4c14 ef3f 27f5 143f f525 5240
00000330: c266 983e 6425 483e 0829 5f3f 260b 973f
00000340: d765 54bd 2c74 753f 72e7 af3e b45b 063f
00000350: 05e6 193d 2854 d03e 5428 3d3f 8df6 0fbe
00000360: f3aa 3c3e 6d94 bf3f 67d1 3d3f 4408 553f
00000370: 0934 f43e 9bc9 5b3f 9018 313f 8171 693f
00000380: d01e 3c3f 1ac8 38be 4687 903f 6b65 803f
00000390: 3cbe 413f 0fac 753f 561b 943f 15a6 8a3f
000003a0: a772 d63f f3fc 793f df87 2f3f 84f8 183f
000003b0: 0256 ba3d 2ade 5b3d a710 183f 5128 9b3f
000003c0: dc6c 3d3f 753e 86be bccd 6c3f a2ec d13f
000003d0: 8d34 e03d a908 73be 997f aa3f 1614 823f
000003e0: 1a2a 353d f100 923f 1618 613f 61d9 633f
000003f0: 1e7f 7e3e fffd 243f b4ec c6bd 1165 213f

encoder.linear2.bias f4 [10]
-0.2674407 -0.42017293 -0.74783266 -0.012383948 0.8781627 -0.0062394966 -0.13280311 -0.37753236
1.3311857 -0.7490536
00000000: fded 88be e820 d7be f671 3fbf 0be6 4abc
00000010: 45cf 603f b174 ccbb 8afd 07be ec4b c1be
00000020: 4b64 aa3f fac1 3fbf

encoder.norm1.weight f4 [10]
0.7523067 0.5121566 0.64625657 1.0460274 0.36062148 1.582519 1.3968459 1.4745247
1.8691521 0.71280026
00000000: 2c97 403f b21c 033f 1271 253f 3ae4 853f
00000010: 61a3 b83e fc8f ca3f d9cb b23f 3abd bc3f
00000020: 6040 ef3f 147a 363f

encoder.norm1.bias f4 [10]
0.51791596 -0.34008777 -0.23982254 0.7492867 0.5914304 -0.7523663 -0.35735756 -0.32962137
0.8758115 0.038292702
00000000: 2496 043f fc1f aebe 0a94 75be 41d1 3f3f
00000010: fc67 173f 149b 40bf 92f7 b6be 22c4 a8be
00000020: 2f35 603f cfd8 1c3d

encoder.norm2.weight f4 [10]
-0.014067703 0.355401 0.36023363 0.15594743 0.45892137 0.15698361 -0.0667916 0.80890894
0.8781709 0.97226906
00000000: 397c 66bc 1ff7 b53e 8b70 b83e afb0 1f3e
00000010: bef7 ea3e 50c0 203e 09ca 88bd a814 4f3f
00000020: cfcf 603f a0e6 783f

encoder.norm2.bias f4 [10]
-0.40111828 -0.061770003 -0.70480984 -0.72576493 0.34001347 -0.2187027 -0.1251052 -0.27927956
1.1555105 -0.59216756
00000000: 605f cdbe 8b02 7dbd 6b6e 34bf bbcb 39bf
00000010: 3f16 ae3e 9af3 5fbe 941b 00be bbfd 8ebe
00000020: c5e7 933f 4b98 17bf

l2.weight f4 [64, 3200]
-0.2071248 -0.5665191 0.3102357 -0.3195372 0.050799668 -0.64242554 -0.2535794 -0.21012425
-0.34552002 -0.014474996 -0.19814561 -0.5603094 0.5451881 -0.3084874 0.29868355 -0.71155286
-0.4573676 0.026832798 -0.36223778 -0.0024289165 -0.19392534 -0.6069364 0.27086082 -0.30514994
0.18078312 -0.75395423 -0.41758308 0.08153473 -0.33401328 -0.061383694 -0.14881983 -0.6241351
0.329095 -0.34594497 0.007450405 -0.7604362 -0.35198584 -0.024930608 -0.36180854 -0.1379201
-0.12699862 -0.6114674 0.27868474 -0.32676893 0.09088235 -0.65171665 -0.23120497 -0.051599078
-0.35314447 -0.024621785 -0.13479741 -0.65261596 0.10897479 -0.25678572 -0.099733695 -0.60023445
-0.2279707 0.065749876 -0.32297787 0.019396786 -0.21407712 -0.59151775 -0.20830795 -0.5142422
-0.2484488 -0.75393635 -0.23645972 -0.024721382 -0.32653117 -0.3290189 -0.22998841 -0.6022009
-0.097283445 -0.3173667 0.076726995 -0.60326564 -0.23510934 -0.0075644553 -0.35437563 -0.0181306
-0.1920712 -0.6268177 -0.00648648 -0.39450264 -0.05742995 -0.6232446 -0.32156792 -0.007961086
-0.32371986 -0.1231571 -0.27704492 -0.56525034 -0.29244632 -0.24052778 -0.34816042 -0.6042375
-0.13419914 -0.054688796 -0.34124118 -0.21517661 -0.20233354 -0.58141935 -0.17630197 -0.2816782
0.13080817 -0.66244566 -0.1870005 -0.0730785 -0.37069294 -0.11041486 -0.2506956 -0.53554934
-0.25856262 -0.20935905 -0.09910018 -0.54153126 -0.22458674 -0.0315626 -0.34316614 -0.0011006596
-0.25265887 -0.589959 -0.10261097 -0.26829094 0.085838914 -0.5476122 -0.19539954 -0.028909545
-0.31546518 0.0384122 -0.24957515 -0.62036633 -0.08264145 -0.3234475 -0.10613585 -0.6709638
-0.2583349 -0.036738142 -0.3199512 -0.119174495 -0.16649927 -0.5963154 -0.15511335 -0.29578066
0.0033989712 -0.68629616 -0.24157852 -0.25802884 -0.34344032 -0.018917141 -0.19074786 -0.60599184
-0.20974761 -0.3474527 -0.025204165 -0.6974393 -0.2204406 -0.1401406 -0.321507 -0.18573688
-0.20004568 -0.6024248 -0.18230408 -0.27740344 0.22228393 -0.770287 -0.3815726 0.03250293
-0.36374074 -0.106691875 -0.32835114 -0.5741701 -0.20573252 -0.22333682 -0.19483672 -0.4758836
-0.099866495 -0.24879102 -0.34295613 -0.09027526 -0.2741221 -0.62055725 -0.4343068 -0.2764434
0.048845332 -0.58370954 -0.15618885 -0.27697772 -0.36038986 -0.35653254 -0.22843494 -0.70239526
-0.5243908 -0.30930886 -0.10451515 -0.6189401 -0.15144578 -0.091757804 -0.34351328 -0.100980856
-0.19261254 -0.58381766 -0.62775534 -0.38310325 0.051235978 -0.6658741 -0.24704337 0.06636322
-0.3761636 0.04674054 -0.18724594 -0.5842765 -0.32768545 -0.28940934 -0.33238304 -0.7137341
-0.2590499 -0.05184487 -0.32226697 -0.15420862 -0.21962205 -0.66290635 -0.37784547 -0.39031798
-0.031447873 -0.74346507 -0.36924556 -0.05907376 -0.32045016 -0.10052557 -0.21833213 -0.58616704
-0.2781161 -0.25755447 -0.11302829 -0.67955744 -0.34682167 -0.007902128 -0.3483595 -0.13186142
-0.22791043 -0.60511476 -0.09684661 -0.23801492 -0.22000733 -0.55821794 -0.3231482 0.037654743
-0.35609305 -0.06607283 -0.22545096 -0.62424237 0.08775279 -0.30388322 -0.2728291 -0.576982
00000000: 8618 54be 6507 11bf 37d7 9e3e 619a a3be
00000010: 5013 503d 0076 24bf 29d5 81be d02a 57be
00000020: 00e8 b0be 8928 6dbc afe6 4abe 7070 0fbf
00000030: 7391 0b3f 0ff2 9dbe 0ded 983e 5428 36bf
00000040: 162c eabe 75d0 db3c 3b77 b9be 752e 1fbb
00000050: 5d94 46be 2f60 1bbf 45ae 8a3e 9d3c 9cbe
00000060: 361f 393e 2503 41bf 73cd d5be aefb a63d
00000070: ca03 abbe 786d 7bbd 3a64 18be 51c7 1fbf
00000080: 247f a83e b31f b1be 8722 f43b f2ab 42bf
00000090: 7d37 b4be 463b ccbc f83e b9be ed3a 0dbe
000000a0: ed0b 02be 2189 1cbf c4af 8e3e 424e a7be
000000b0: 8720 ba3d e7d6 26bf ffc0 6cbe 8e59 53bd
000000c0: 5acf b4be a0b3 c9bc 5508 0abe d711 27bf
000000d0: 2d2e df3d 6b79 83be 2e41 ccbd f7a8 19bf
000000e0: 2771 69be dfa7 863d 5b5d a5be 02e6 9e3c
000000f0: 0837 5bbe b56d 17bf ae4e 55be 60a5 03bf
00000100: 5d69 7ebe f901 41bf 7f22 72be 7f84 cabc
00000110: 182f a7be 2a75 a8be 1582 6bbe d729 1abf
00000120: 8b3c c7bd e37d a2be 0b23 9d3d 9e6f 1abf
00000130: 81c0 70be 40df f7bb b970 b5be a086 94bc
00000140: 50ae 44be 2077 20bf 8a8c d4bb 40fc c9be
00000150: ab3b 6bbd f58c 1fbf 8da4 a4be 376f 02bc
00000160: 9cbe a5be ca39 fcbd d5d8 8dbe 3fb4 10bf
00000170: 86bb 95be ea4c 76be 1542 b2be 4faf 1abf
00000180: 806b 09be 5c01 60bd 2ab7 aebe 4257 5cbe
00000190: 8630 4fbe e6d7 14bf 8188 34be 2038 90be
000001a0: 94f2 053e 0a96 29bf 0f7d 3fbe 2eaa 95bd
000001b0: 77cb bdbe 3021 e2bd 2c5b 80be c319 09bf
000001c0: 5262 84be 3862 56be 09f5 cabd cba1 0abf
000001d0: 11fa 65be c947 01bd 79b3 afbe 0244 90ba
000001e0: 815c 81be 8e07 17bf b325 d2bd 6e5d 89be
000001f0: 50cc af3d 5030 0cbf d116 48be b6d3 ecbc
00000200: a784 a1be 1c56 1d3d a190 7fbe 54d0 1ebf
00000210: ec3f a9bd e99a a5be c15d d9bd 49c4 2bbf
00000220: 7944 84be bc7a 16bd a5d0 a3be c211 f4bd
00000230: c97e 2abe 20a8 18bf 09d6 1ebe 9070 97be
00000240: 46c1 5e3b 1bb1 2fbf 5c60 77be 5b1c 84be
00000250: 69d7 afbe 1ff8 9abc 6853 43be 4822 1bbf
00000260: 14c8 56be 52e5 b1be f778 cebc 628b 32bf
00000270: 2ebb 61be 0481 0fbe 919c a4be cf31 3ebe
00000280: c6d8 4cbe 8338 1abf ecad 3abe d307 8ebe
00000290: 669e 633e 8731 45bf 7c5d c3be cb21 053d
000002a0: 3a3c babe 4581 dabd a41d a8be d0fc 12bf
000002b0: 8cab 52be 68b2 64be 4783 47be 04a7 f3be
000002c0: ce86 ccbd 13c3 7ebe f297 afbe 3ce2 b8bd
000002d0: bb59 8cbe d7dc 1ebf 765d debe fd89 8dbe
000002e0: 0b12 483d fd6d 15bf f8ef 1fbe 06d0 8dbe
000002f0: 0585 b8be 6f8b b6be d9ea 69be 2dd0 33bf
00000300: 7a3e 06bf bb5d 9ebe 0a0c d6bd dc72 1ebf
00000310: 9a14 1bbe 84eb bbbd f9e0 afbe 0dcf cebd
00000320: 393c 45be 1375 15bf 93b4 20bf 1c26 c4be
00000330: d1dc 513d ba76 2abf f0f8 7cbe 71e9 873d
00000340: 8498 c0be 0273 3f3d 66bd 3fbe 2593 15bf
00000350: 63c6 a7be 762d 94be 1c2e aabe 47b7 36bf
00000360: 30a2 84be 495b 54bd 2d00 a5be dde8 1dbe
00000370: 9ae4 60be 3bb4 29bf f674 c1be c2d7 c7be
00000380: 7ccf 00bd ba53 3ebf c10d bdbe 54f7 71bd
00000390: 0b12 a4be 5ae0 cdbd 7592 5fbe 0b0f 16bf
000003a0: 3c65 8ebe 2ede 83be 607b e7bd 7af7 2dbf
000003b0: 9c92 b1be ed77 01bc 2d5c b2be ae06 07be
000003c0: 5a61 69be cde8 1abf 8457 c6bd 2fba 73be
000003d0: 9a49 61be 5fe7 0ebf ae73 a5be dc3b 1a3d
000003e0: d451 b6be 3151 87bd 9edc 66be 59ce 1fbf
000003f0: bcb7 b33d 9596 9bbe 41b0 8bbe 18b5 13bf

l2.bias f4 [64]
-0.43089333 -0.37172523 -0.78397244 0.06329024 -1.0995498 -0.22469278 -1.3816473 -1.2403432
-1.5563623 -0.23187885 -0.70159966 0.09512389 -0.54588425 -0.42794034 -0.8061084 -1.3881627
1.4854281 -1.3212589 -1.0136826 -0.9050407 -1.4247032 -0.877004 -0.52827805 -1.0429673
-0.61829656 -0.83817446 -0.15489963 -0.6747161 -0.3360588 -1.2711532 -1.2839024 -0.47545877
-1.4188888 -0.64258885 -0.0018956099 -0.44486555 0.28224865 -0.7655592 -0.429984 -0.28704843
-0.15527906 0.28470317 -1.0260044 -0.6027642 -0.58438325 -0.39709505 -1.2424189 -0.9709259
-0.36091784 -0.3675308 -0.9778896 0.36080495 -1.5876365 -0.55592614 -1.3241577 -1.6737868
-1.1974115 -1.145545 0.03567915 -0.7877015 -1.3654636 -0.45797658 -0.53383726 0.86957675
00000000: 0d9e dcbe c552 bebe 6bb2 48bf 509e 813d
00000010: 0cbe 8cbf dd15 66be d2d9 b0bf 91c3 9ebf
00000020: e136 c7bf a671 6dbe 099c 33bf 50d0 c23d
00000030: 12bf 0bbf ff1a dbbe 1f5d 4ebf 51af b1bf
00000040: 8222 be3f 031f a9bf 5ac0 81bf bfb0 67bf
00000050: ad5c b6bf 5683 60bf 3b3d 07bf f47f 85bf
00000060: af48 1ebf 9a92 56bf 029e 1ebe 32ba 2cbf
00000070: e60f acbe 26b5 a2bf ea56 a4bf 556f f3be
00000080: 269e b5bf b480 24bf 1d76 f8ba 6bc5 e3be
00000090: e582 903e b0fb 43bf dd26 dcbe 03f8 92be
000000a0: 7901 1fbe 9dc4 913e 1d54 83bf c14e 1abf
000000b0: 249a 15bf 0b50 cbbe 9507 9fbf 9a8e 78bf
000000c0: 39ca b8be ff2c bcbe f956 7abf 6dbb b83e
000000d0: ac37 cbbf 2d51 0ebf 007e a9bf a53e d6bf
000000e0: c844 99bf 38a1 92bf 4d24 123d cea6 49bf
000000f0: 83c7 aebf e87b eabe 8fa9 08bf 959c 5e3f

l3.weight f4 [64, 66]
0.021891668 -0.17996213 0.41561076 0.06579122 0.40054592 0.18204361 0.4013873 0.5261528
0.39371625 0.35645303 0.40292472 -0.23915596 0.04264622 0.044228673 0.3151509 0.51322156
-0.37952295 0.29064655 0.402853 0.30203217 0.03886835 0.19894877 0.21500833 0.067968205
0.32601184 0.54947865 -0.16200691 0.08577673 -0.00071743736 0.33411586 0.17730571 -0.5423896
0.40016258 0.44602883 -0.58962727 0.155818 0.116630584 0.036102038 0.53677535 0.016602503
0.12373161 0.04833457 0.2269123 0.46358997 0.39561576 0.805466 0.6522656 0.14368138
0.77822256 -0.21026708 1.0178642 0.05909406 0.27495408 -0.63892734 -0.15670955 0.48042023
0.73832536 0.17300695 -0.62821996 0.1489421 0.12260072 0.20994219 0.33638033 -0.7985669
0.098205954 -0.5566122 0.25061038 -0.26673612 0.46299565 -0.8970778 0.2688309 -0.085607134
0.5213086 0.29438883 0.6007156 0.4223407 0.08491975 -0.35811502 0.07529948 -0.0038466835
0.39687887 0.42063195 -0.4212146 0.21773049 0.7132416 0.47422823 0.544385 0.3688395
0.1839861 0.39874676 0.15761924 0.59040064 -0.17918219 0.5271579 -0.43551856 0.40359354
0.44439813 0.7281179 0.42176437 0.22326472 -0.10821267 -0.002979324 -0.001966253 0.30329618
-0.33269915 0.04732008 -0.24805255 -0.23255377 0.28258753 0.23383889 0.5421974 0.082819134
0.38718265 0.39277285 0.13255766 0.04262958 0.13564557 -0.13078062 0.5218231 0.99316
-0.3184479 0.63603216 0.073640205 0.16414167 0.540129 0.39471495 0.3508629 0.43571085
0.017652504 -0.33951637 -0.060105763 -0.34056827 -0.19654725 -0.16026111 -0.08633365 -0.04164714
0.43140313 0.008633878 0.29072994 0.3554212 0.43335557 0.53773457 0.20268425 -0.14336136
-0.15102579 -0.21910731 0.26748177 0.12310965 -0.1858748 0.31285396 0.04719916 -0.27846506
0.7609192 0.34158036 -0.010794406 0.3072318 -0.14988458 0.09292223 -0.14950243 0.11043049
-0.25224417 0.33667016 0.52419263 0.24563162 0.23157738 0.22893858 0.39189312 0.036820177
0.10606937 -0.11322857 0.26451704 -0.029649816 -0.22603564 0.030995945 0.123696685 0.21579008
0.3358098 0.4323435 -0.12631318 0.34598708 0.5683899 -0.26763165 0.22269714 0.073138244
0.2859656 0.34440145 0.28913918 0.34706375 -0.017002331 0.45488653 0.9834373 0.16177694
0.21470255 0.90420353 1.1733004 0.01859735 0.062133566 0.34573567 0.6740446 0.43704894
0.60842854 0.46546483 0.7507696 0.8706874 0.24651402 0.8954397 0.38469702 0.2979195
0.16220309 0.5385809 0.47855487 0.42133012 0.072693616 0.5706894 -0.57880986 0.5744794
0.46266687 0.597834 0.17577568 0.9381739 0.20698681 0.65965873 0.65226746 0.14757349
0.51512736 0.8189693 0.7713518 0.56163687 0.3229807 -0.5288846 0.46479172 0.031354986
-0.6613197 1.1008896 -0.0002680613 0.611824 0.6426928 0.99653196 0.6366604 0.1379437
0.20118257 0.5354096 0.37344187 0.30850863 0.70212 0.8900382 0.6929238 0.53722525
0.7863553 0.009016684 0.29205728 -0.13810599 0.5043863 0.46854135 1.1247764 0.9690613
00000000: 2856 b33c fe47 38be efca d43e 8cbd 863d
00000010: 5b14 cd3e a469 3a3e a382 cd3e f3b1 063f
00000020: 2d95 c93e 0381 b63e 264c ce3e 4de5 74be
00000030: cead 2e3d 2029 353d 755b a13e 7d62 033f
00000040: d550 c2be a0cf 943e c042 ce3e f6a3 9a3e
00000050: 6b34 1f3d 3ab9 4b3e 252b 5c3e ea32 8b3d
00000060: 06eb a63e a2aa 0c3f 24e5 25be b6ab af3d
00000070: 6812 3cba 3c11 ab3e a18f 353e 0bda 0abf
00000080: 1ce2 cc3e e45d e43e d0f1 16bf c18e 1f3e
00000090: 04dc ee3d bbdf 133d 1c6a 093f f901 883c
000000a0: 0067 fd3d 78fa 453d b35b 683e aa5b ed3e
000000b0: 268e ca3e 0533 4e3f e1fa 263f 3621 133e
000000c0: 9839 473f 4150 57be 6049 823f 9d0c 723d
000000d0: c8c6 8c3e be90 23bf 7878 20be a4f9 f53e
000000e0: e402 3d3f bc28 313e 06d3 20bf 4784 183e
000000f0: 1616 fb3d 16fb 563e 0b3a ac3e e16e 4cbf
00000100: 3420 c93d 237e 0ebf 0150 803e a391 88be
00000110: c40d ed3e e4a6 65bf 34a4 893e cb52 afbd
00000120: 7b74 053f 22ba 963e 7fc8 193f 0a3d d83e
00000130: 68ea ad3d da5a b7be 9d36 9a3d a418 7cbb
00000140: b533 cb3e 125d d73e 71a9 d7be bef4 5e3e
00000150: 0097 363f 0bce f23e d15c 0b3f 88d8 bc3e
00000160: da66 3c3e 8928 cc3e f066 213e 7f24 173f
00000170: 897b 37be d2f3 063f 4afc debe d0a3 ce3e
00000180: 2788 e33e ef65 3a3f 80f1 d73e 829f 643e
00000190: 9b9e ddbd c340 43bb 40dc 00bb a349 9b3e
000001a0: 8b57 aabe b3d2 413d 7d01 7ebe 9322 6ebe
000001b0: 50af 903e 7673 6f3e 73cd 0a3f 149d a93d
000001c0: ce3c c63e 8619 c93e 32bd 073e 5b9c 2e3d
000001d0: ace6 0a3e 5beb 05be 3396 053f bc3f 7e3f
000001e0: 9a0b a3be 01d3 223f add0 963d c114 283e
000001f0: e545 0a3f 1418 ca3e 4da4 b33e 7e15 df3e
00000200: fc9b 903c 17d5 adbe 7631 76bd f75e aebe
00000210: af43 49be 7d1b 24be b2cf b0bd 3196 2abd
00000220: dfe0 dc3e 1c75 0d3c 8eda 943e c4f9 b53e
00000230: c8e0 dd3e f9a8 093f 768c 4f3e 52cd 12be
00000240: 81a6 1abe ab5d 60be 5ff3 883e ea20 fc3d
00000250: f755 3ebe 652e a03e e853 413d f992 8ebe
00000260: 9acb 423f 9fe3 ae3e 05db 30bc 7d4d 9d3e
00000270: 587b 19be 034e be3d 2a17 19be 6129 e23d
00000280: 2626 81be 0860 ac3e 7d31 063f db86 7b3e
00000290: 9f22 6d3e e06e 6a3e 37a6 c83e c1d0 163d
000002a0: e63a d93d 61e4 e7bd c76e 873e 2ce4 f2bc
000002b0: e375 67be 35eb fd3c b054 fd3d 13f8 5c3e
000002c0: 43ef ab3e 215c dd3e 3e58 01be 3825 b13e
000002d0: 0082 113f 0407 89be b80a 643e 81c9 953d
000002e0: 156a 923e 6355 b03e 0d0a 943e 57b2 b13e
000002f0: 7948 8bbc e3e6 e83e 8cc2 7b3f dba8 253e
00000300: fcda 5b3e e279 673f b52e 963f 7859 983c
00000310: c47f 7e3d 4404 b13e 308e 2c3f e1c4 df3e
00000320: f9c1 1b3f 6851 ee3e 7032 403f 5fe5 5e3f
00000330: 2c6e 7c3e 893b 653f 02f7 c43e e888 983e
00000340: 9118 263e 70e0 093f 2505 f53e 95b8 d73e
00000350: 64e0 943d b318 123f e22c 14bf 1511 133f
00000360: ace2 ec3e a60b 193f 8afe 333e 2a2c 703f
00000370: 5af4 533e 65df 283f 00fb 263f 811d 173e
00000380: 63df 033f f9a7 513f 5077 453f 6fc7 0f3f
00000390: ba5d a53e fb64 07bf 2ef9 ed3e 166e 003d
000003a0: 3f4c 29bf f3e9 8c3f 948a 8cb9 7fa0 1c3f
000003b0: 8487 243f b81c 7f3f 2dfc 223f 1d41 0d3e
000003c0: ce02 4e3e 9b10 093f c633 bf3e d8f4 9d3e
000003d0: 23be 333f 8bd9 633f 7463 313f 9887 093f
000003e0: 954e 493f b7ba 133c 8888 953e a86b 0dbe
000003f0: 761f 013f a7e4 ef3e acf8 8f3f 6714 783f

l3.bias f4 [64]
-0.274591 -0.52783775 -0.60313207 -0.47633234 -0.20600821 -0.8299134 -0.89514005 -0.7161196
-0.9792569 -1.0898836 -0.75732684 0.07930849 -0.9648537 0.23631348 -0.9697563 -0.93506587
-0.87378824 -0.533774 0.2943352 -0.15140407 -0.9298362 -0.55853224 -0.555562 -0.51363
-0.89133966 -0.5647935 -0.4131113 -0.83636844 -0.25586557 -1.1706581 -0.30116358 -0.7509268
0.15347768 -1.3064094 0.23879357 -0.5328197 -0.8073256 -1.0419592 -0.67783254 -0.018697506
-0.43088025 -0.6074069 -0.19745672 0.48284757 -0.3490814 -0.6300486 -0.4801168 -0.5099199
-0.35316476 -0.47694817 -0.8188062 0.5424198 -0.7845773 -0.7934132 -0.5049093 -0.060921084
-0.15448986 -0.4930118 -0.35901076 -0.9038229 -0.45586327 0.16792704 -0.8159557 -0.80826485
00000000: 3197 8cbe 6020 07bf dd66 1abf d5e1 f3be
00000010: d1f3 52be 3475 54bf e627 65bf 9d53 37bf
00000020: 95b0 7abf 4e81 8bbf 2ce0 41bf 7d6c a23d
00000030: a700 77bf 29fc 713e f341 78bf 7a60 6fbf
00000040: 96b0 5fbf 6aa5 08bf 1ab3 963e ab09 1bbe
00000050: bf09 6ebf f8fb 0ebf 5039 0ebf 417d 03bf
00000060: d62e 64bf 4f96 10bf 5383 d3be 3e1c 56bf
00000070: d000 83be 20d8 95bf 1d32 9abe bd3c 40bf
00000080: 4129 1d3e 6c38 a7bf 4d86 743e df66 08bf
00000090: e4ac 4ebf eb5e 85bf 6f86 2dbf 832b 99bc
000000a0: 569c dcbe 057f 1bbf 1832 4abe cc37 f73e
000000b0: ccba b2be dd4a 21bf dfd1 f5be 1c8a 02bf
000000c0: 03d2 b4be 8d32 f4be 489d 51bf 06dc 0a3f
000000d0: 0fda 48bf 211d 4bbf bc41 01bf 6388 79bd
000000e0: 9732 1ebe 0b6c fcbe 42d0 b7be f060 67bf
000000f0: e966 e9be 11f5 2b3e 79e2 50bf 72ea 4ebf

l4.weight f4 [2, 64]
0.30659115 -0.5010635 0.11436165 0.2166288 -0.16078544 -0.20840642 -0.21468407 -0.17180814
0.18127836 0.50050664 -0.15961854 0.37429798 0.36178938 -0.12867586 -0.15906121 0.20281227
-0.35020632 0.021504505 -0.0025180865 -0.2337579 -0.1681245 -0.17926146 -0.12117483 -0.20535578
0.31099963 -0.17844987 0.26506364 -0.18438877 0.19362462 -0.074169524 0.17392555 -0.25115097
-0.23322807 -0.12632169 -0.34255645 0.13264628 -0.35365608 0.40905252 -0.19339159 0.23906496
-0.17661439 0.25786078 -0.21968375 0.25936753 0.28838158 -0.33447492 -0.27021763 -0.033429436
-0.044205494 -0.18803525 0.42497572 -0.36596373 0.2481034 -0.10614082 -0.13160615 -0.2874679
0.1265621 0.17466097 -0.1727634 0.18692023 -0.3445313 -0.18836139 0.19476108 -0.17827062
0.21174332 -0.12878537 0.40165845 0.1822451 -0.22519955 -0.13158078 -0.317464 -0.21300164
0.10707798 0.021405077 -0.3291949 0.5296471 0.21711282 0.103094876 -0.16564256 0.13806705
-0.2920065 -0.01792692 0.11312071 -0.13860478 -0.089734584 -0.24394387 -0.28494436 -0.19305708
0.29618353 -0.18083897 0.3746976 -0.09219683 0.38070428 0.18328251 0.051182218 -0.25620276
-0.17990357 -0.17696406 0.1929887 0.18598416 -0.28528365 0.057153344 -0.601989 0.45161456
-0.18387908 0.539234 -0.21646287 0.5080566 0.23865798 -0.31148216 -0.1311803 -0.124363035
-0.29074326 -0.31396407 -0.017526764 0.25769266 0.014105266 -0.18560137 -0.4002561 -0.2711321
0.058765925 0.30080515 -0.3400913 0.1641952 -0.2574492 -0.18979326 0.23747487 -0.20518306
00000000: 84f9 9c3e b345 00bf 7136 ea3d f1d3 5d3e
00000010: f0a4 24be 7e68 55be 24d6 5bbe 79ee 2fbe
00000020: 09a1 393e 3421 003f 0b73 23be fca3 bf3e
00000030: 753c b93e 9bc3 03be f1e0 22be 05ae 4f3e
00000040: 3e4e b3be 372a b03c 7b06 25bb 3b5e 6fbe
00000050: d428 2cbe 5190 37be 822a f8bd c948 52be
00000060: 583b 9f3e 90bb 36be 6cb6 873e 69d0 3cbe
00000070: 8845 463e 31e6 97bd 8a19 323e dc96 80be
00000080: 57d3 6ebe 795a 01be 8f63 afbe 6dd4 073e
00000090: 6912 b5be 556f d13e 7208 46be 72cd 743e
000000a0: 67da 34be 5406 843e c7f4 60be d2cb 843e
000000b0: c0a6 933e 4c40 abbe f759 8abe 4eed 08bd
000000c0: d210 35bd 508c 40be 6b96 d93e 995f bbbe
000000d0: d10e 7e3e 5c60 d9bd c3c3 06be fe2e 93be
000000e0: 7f99 013e 53da 323e e4e8 30be 0468 3f3e
000000f0: 6866 b0be cfe1 40be 736f 473e 938c 36be
00000100: 3ed3 583e 50e0 03be 2da6 cd3e 769e 3a3e
00000110: b69a 66be 1dbd 06be a48a a2be 1a1d 5abe
00000120: b34b db3d b359 af3c 3c8c a8be f496 073f
00000130: d352 5e3e 6823 d33d 349e 29be 7361 0d3e
00000140: e081 95be 7adb 92bc d5ab e73d 69ee 0dbe
00000150: c4c6 b7bd 6ccc 79be 3ae4 91be c1b0 45be
00000160: 5ea5 973e da2d 39be 5dd8 bf3e b1d1 bcbd
00000170: aceb c23e 69ae 3b3e 72a4 513d 022d 83be
00000180: a438 38be 1136 35be d49e 453e a272 3e3e
00000190: b310 92be a019 6a3d f31b 1abf 063a e73e
000001a0: cc4a 3cbe 3d0b 0a3f 71a8 5dbe ff0f 023f
000001b0: c262 743e 977a 9fbe 2154 06be 0cb2 febd
000001c0: 4ddc 94be e6bf a0be 4a94 8fbc 4bf0 833e
000001d0: c619 673c 490e 3ebe 5eee ccbe d4d1 8abe
000001e0: 8ab4 703d 2203 9a3e 7220 aebe c922 283e
000001f0: 62d0 83be 2a59 42be 9d2c 733e 821b 52be

l4.bias f4 [2]
0.34509835 0.052540462
00000000: bbb0 b03e ab34 573d
