Ablation Experiments/LSTM/DoubleDQN-QT-Reward-Delay-IR-Final/ModelParam/2024-02-01-1054/network-lstm.pth (torch, 24321 bytes, 12 tensors)

lstm.weight_ih_l0 f4 [72, 9]
8.137283 4.382044 17.997044 6.156563 7.2754087 -6.041778 -5.272428 -1.6917893
-0.7996284 2.3239498 6.479351 13.135513 0.18293703 10.909188 1.8541479 4.0041776
-1.6948763 1.2162122 -1.9946444 -1.6520665 0.73211414 -2.6698205 -0.95754683 -2.0135415
-0.39449403 -0.5011197 -0.17324421 1.4519284 0.99289984 0.96582425 1.2766999 2.4790428
1.6638637 2.6581693 -0.80159795 -0.092656456 -1.4304678 6.181838 1.3016076 7.6481705
2.0353823 0.01849167 1.0065498 2.2182376 -0.86694664 4.877388 1.0769465 -4.218238
8.416806 6.855471 1.5228419 3.7969766 -4.1371756 -0.7455718 3.611025 -1.3427919
2.8883123 -0.3931999 2.5207508 1.5124006 -0.9185045 -2.1506844 1.5513409 -5.1784153
7.2881627 1.9472042 1.117168 1.0922251 4.2428083 3.1017098 2.5602436 -1.4893103
-0.52930105 -2.4308221 -10.404069 -0.7044864 -0.48371446 -1.5093151 -7.22162 -2.9590743
1.05096 -0.00022163354 -0.3305073 -0.030419905 0.13441455 -0.24892661 0.5452424 0.55154896
0.57116824 0.8470599 -1.9763807 -6.6389613 -18.553644 -0.6375329 -8.053001 -0.5682063
-3.6007407 -0.7009842 -0.9373655 -4.756971 -2.0358014 4.0381103 -1.8463931 -6.5760536
-2.9376116 -0.40433043 5.5355306 -0.14503115 -1.1398921 1.0134132 -2.4297566 4.772277
-2.1606991 0.62752897 -1.5221335 6.1523166 -0.5107808 -4.5638514 -2.7308142 -16.779364
0.030975144 2.9503598 -0.75566 -3.300568 -6.246438 -0.5191901 3.1068254 -5.882636
1.9729073 -2.1769698 -5.148281 -2.877278 -0.5455539 3.707393 -0.8774591 1.6174439
-0.70515627 1.3373431 1.1656729 0.6606192 0.30346444 0.63684565 0.25208235 0.226874
-10.477203 -0.60506094 -5.896084 -4.3664765 -7.4070735 0.7575797 0.3457402 -3.3875155
0.60737896 -0.4937104 7.906182 9.515968 3.8635688 6.3317537 1.056301 -0.5526734
-0.22540584 -0.06766099 2.5493934 5.607154 8.828769 1.9576284 4.618059 0.8367081
0.93584526 -0.63785046 0.42074785 -8.787478 3.1222763 3.053282 -1.4231943 -2.0657885
-0.7554636 2.0331302 -7.5601974 -1.3859488 1.0851945 -0.58067834 4.7914405 1.0384027
0.9550508 1.4044791 5.1629167 -4.192905 -0.9238766 -0.80249333 0.8061531 -0.29528677
-3.1252832 -0.1279929 -0.49125752 -1.946937 -0.31303376 0.60467935 -0.8241587 3.003508
0.044487998 1.1451962 -0.2761899 -1.6470984 -1.7028915 0.72077054 -1.3437057 -5.3249145
0.1172442 -11.081036 -6.8520637 0.78921646 -4.383903 -1.8736081 -3.433529 0.2407946
5.163403 -1.5554961 6.912828 -0.67103535 3.8122807 2.424046 0.09417094 -2.279255
1.3718141 -5.2840056 1.4237382 0.13857543 -2.4137986 -2.7231088 -0.6432679 0.14841975
-2.7117934 -1.7333124 -7.700688 -5.7639737 -16.294788 -10.082283 -14.020659 -0.99844956
-7.0578914 -1.8407753 -0.38329703 0.21004671 0.15622635 -0.095185004 -0.29011092 -0.33927462
0.4036258 0.48753348 0.3071753 0.9303635 -7.140988 -3.1064556 -9.515243 -2.116338
00000000: 5032 0241 b439 8c40 f2f9 8f41 9002 c540
00000010: 26d0 e840 3f56 c1c0 bbb7 a8c0 8d8c d8bf
00000020: 72b4 4cbf 98bb 1440 d856 cf40 102b 5241
00000030: d853 3b3e 098c 2e41 b854 ed3f 3922 8040
00000040: b5f1 d8bf d7ac 9b3f 8250 ffbf ea76 d3bf
00000050: d56b 3b3f 57de 2ac0 ca21 75bf dddd 00c0
00000060: 1ffb c9be 6149 00bf ee66 31be cad8 b93f
00000070: af2e 7e3f 4240 773f e76a a33f a3a8 1e40
00000080: 7cf9 d43f 721f 2a40 8635 4dbf abc2 bdbd
00000090: 9219 b7bf 9ed1 c540 149b a63f d0bd f440
000000a0: b443 0240 d87b 973c a0d6 803f 9bf7 0d40
000000b0: 37f0 5dbf 9013 9c40 62d9 893f cefb 86c0
000000c0: 3dab 0641 0560 db40 7cec c23f aa01 7340
000000d0: be63 84c0 cbdd 3ebf 091b 6740 9be0 abbf
000000e0: 1cda 3840 7f51 c9be fb53 2140 5896 c13f
000000f0: 1c23 6bbf d0a4 09c0 5792 c63f 94b5 a5c0
00000100: a138 e940 fd3d f93f 5cff 8e3f 08ce 8b3f
00000110: 16c5 8740 6a82 4640 08db 2340 b8a1 bebf
00000120: 4680 07bf 9792 1bc0 1177 26c1 3959 34bf
00000130: 6ca9 f7be 3d31 c1bf 8317 e7c0 7961 3dc0
00000140: db85 863f 4d66 68b9 4138 a9be 2a33 f9bc
00000150: f8a3 093e 9ee6 7ebe 0295 0b3f 5032 0d3f
00000160: 1538 123f ebd8 583f 0bfa fcbf 5f72 d4c0
00000170: dd6d 94c1 5b35 23bf 18d9 00c1 f875 11bf
00000180: 8972 66c0 b373 33bf 2ff7 6fbf 1b39 98c0
00000190: 924a 02c0 3338 8140 9c56 ecbf 086f d2c0
000001a0: d401 3cc0 6604 cfbe 1123 b140 0c83 14be
000001b0: fce7 91bf 86b7 813f 2281 1bc0 7eb6 9840
000001c0: e548 0ac0 bda5 203f 45d5 c2bf c7df c440
000001d0: 88c2 02bf 120b 92c0 a9c5 2ec0 233c 86c1
000001e0: 96bf fd3c b2d2 3c40 ef72 41bf 823c 53c0
000001f0: d2e2 c7c0 a4e9 04bf 3ad6 4640 8e3e bcc0
00000200: 3a88 fc3f 7953 0bc0 b8be a4c0 5325 38c0
00000210: 6ca9 0bbf ed45 6d40 29a1 60bf 6708 cf3f
00000220: 1f85 34bf 0f2e ab3f c534 953f 571e 293f
00000230: b15f 9b3e 5108 233f f010 813e a851 683e
00000240: a0a2 27c1 46e5 1abf b8ac bcc0 2dba 8bc0
00000250: bf06 edc0 bef0 413f dc04 b13e 0ecd 58c0
00000260: 307d 1b3f 9cc7 fcbe 71ff fc40 6841 1841
00000270: b644 7740 ba9d ca40 df34 873f 017c 0dbf
00000280: cad0 66be d891 8abd 4329 2340 ce6d b340
00000290: a342 0d41 9193 fa3f 24c7 9340 8132 563f
000002a0: 8e93 6f3f 2b4a 23bf 436c d73e 8399 0cc1
000002b0: 60d3 4740 f968 4340 3b2b b6bf e135 04c0
000002c0: 1066 41bf ce1e 0240 23ed f1c0 c566 b1bf
000002d0: a7e7 8a3f 56a7 14bf 7b53 9940 61ea 843f
000002e0: 367e 743f f9c5 b33f 9d36 a540 472c 86c0
000002f0: 2d83 6cbf 3470 4dbf 0d60 4e3f d42f 97be
00000300: a404 48c0 9210 03be 1b86 fbbe 3b35 f9bf
00000310: f645 a0be 44cc 1a3f 11fc 52bf 7a39 4040
00000320: 0c39 363d ca95 923f c368 8dbe 1fd4 d2bf
00000330: 59f8 d9bf 6b84 383f 8cfe abbf b365 aac0
00000340: ba1d f03d ec4b 31c1 1b44 dbc0 170a 4a3f
00000350: ef48 8cc0 64d2 efbf f0be 5bc0 dc92 763e
00000360: 993a a540 7f1a c7bf e335 dd40 f9c8 2bbf
00000370: 68fc 7340 9223 1b40 b2dc c03d 50df 11c0
00000380: 9b97 af3f 9316 a9c0 0e3d b63f b8e6 0d3e
00000390: ad7b 1ac0 6a47 2ec0 35ad 24bf 59fb 173e
000003a0: 068e 2dc0 2edd ddbf 096c f6c0 7972 b8c0
000003b0: ba5b 82c1 0851 21c1 9f54 60c1 649a 7fbf
000003c0: 3fda e1c0 869e ebbf 823f c4be 7c16 573e
000003d0: cdf9 1f3e 5bf0 c2bd 6b89 94be 67b5 adbe
000003e0: 0aa8 ce3e fd9d f93e 1546 9d3e 4d2c 6e3f
000003f0: f982 e4c0 2bd0 46c0 6f3e 18c1 1572 07c0

lstm.weight_hh_l0 f4 [72, 18]
-0.35658568 -0.40191022 -0.7202656 -1.2301246 1.7744215 -3.6680732 -0.8186595 0.5461083
-0.023385039 -3.9160874 -0.8870674 -4.0773783 3.9678462 -0.76816213 1.2924097 -1.0040743
-1.5921913 1.4326768 1.2011566 1.0019008 1.1710223 -0.98312753 -2.7070446 -1.5634239
1.9821808 -0.48814595 0.5150858 4.8801417 0.9246885 -1.908933 -0.6371115 0.88834345
-0.94175714 -2.2918923 2.14415 1.4624577 -3.6048462 -2.5944083 -1.4286726 1.8381951
-0.01997391 2.859144 -2.2772872 -3.0010953 0.9650373 -1.122242 -2.1714153 2.3073997
-0.7865014 3.6637123 2.3610108 -2.0246143 -3.0543175 0.00873077 1.8410916 3.2314963
-0.21561803 -1.0573266 -1.1884103 -3.6819682 2.3426428 -2.236517 -2.5957513 1.6959575
2.7978396 -2.3464494 0.6029514 -4.6546087 0.5168331 -1.7346212 0.7451292 -0.010121095
-0.38921458 1.2373923 1.8426391 -0.42621616 1.0177681 -0.71352774 -3.4906235 -1.5133822
-2.8933716 -1.6167879 0.6104472 -0.48964953 2.567148 1.369923 2.2427099 2.2038684
-3.306908 -1.9917367 0.51015943 1.4798828 0.017752172 -0.4216226 4.282038 -0.016767208
2.369588 3.2823353 -0.6653377 0.1597145 3.285513 0.5394668 5.2552752 -2.0454347
1.0578537 1.517018 0.69847095 -1.2046491 0.3864655 1.7856756 -0.21528088 -1.6510515
-1.6985672 0.23031631 2.7808833 -0.4244646 1.3797069 0.36513096 -0.7541447 -0.28767684
-0.69078636 -1.7279714 0.784892 -0.96177095 -0.844958 -0.3410705 -0.52445495 -0.9265248
0.6396598 0.42884693 -0.7208428 -1.455078 -1.5512861 -0.82085776 2.2409039 1.6300471
-2.8202243 1.50721 0.43367863 -2.4375875 1.2799231 0.18208638 1.1455107 3.559662
0.5492549 0.6717154 -2.1526122 -0.12514587 0.62774533 -2.1267838 1.6379272 0.5234358
-1.4257659 1.4604063 0.6746253 -0.3170337 0.37154114 0.8775894 1.5602114 -0.46149006
-0.22374496 -0.74056375 0.42891055 1.0446663 -0.122754976 -0.7168056 0.4880456 -0.10649219
0.8241915 -0.41291812 1.1324284 0.53154284 -0.15780517 -0.3098034 -0.24560001 -0.5212713
-0.0810622 -1.1556779 0.15495616 0.1233891 2.3874698 0.7416214 -1.53765 -1.1653149
-0.5016169 1.6170402 -2.1482482 2.5875716 -0.22066611 -0.960751 -0.5334087 -1.3661875
-1.1262151 0.6917971 -1.5385194 -2.3718917 2.9063835 2.0083733 2.7987182 -0.042707235
-6.201281 -0.8110367 -1.3747027 4.224642 -2.2645588 2.6201296 4.5032344 0.100590095
3.6805978 -1.5538661 -1.1911018 1.2201201 -2.9136581 1.9577272 0.07204494 1.2725441
0.59361464 -2.750309 -1.9205704 3.0561967 1.199992 -1.1314108 -7.5204077 2.5774033
0.47113845 -0.77794504 0.72337687 1.0038165 1.2813118 -2.2007167 -0.22823739 -0.62404495
-0.8301014 -0.3373101 2.203282 0.1406847 -1.7444535 0.5254373 0.6752421 -0.19899939
0.776858 -1.095802 0.739072 -1.8946751 0.79449284 -1.990523 -1.3355882 1.5534079
0.5899821 -0.9585349 0.0111658415 -0.74022335 2.0905015 0.3191323 0.27233377 0.9582626
00000000: 6692 b6be 2dc7 cdbe 5463 38bf b974 9dbf
00000010: 3e20 e33f b6c1 6ac0 ab93 51bf c1cd 0b3f
00000020: fb91 bfbc 2da1 7ac0 d916 63bf e279 82c0
00000030: 31f1 7d40 46a6 44bf ae6d a53f 8285 80bf
00000040: edcc cbbf f461 b73f 80bf 993f 493e 803f
00000050: 0fe4 953f 3fae 7bbf 3840 2dc0 461e c8bf
00000060: 1ab8 fd3f 44ee f9be aadc 033f 1f2a 9c40
00000070: 63b8 6c3f eb57 f4bf bd19 23bf 7a6a 633f
00000080: ff16 71bf 5dae 12c0 c139 0940 d031 bb3f
00000090: cdb5 66c0 c90a 26c0 bede b6bf fa49 eb3f
000000a0: 53a0 a3bc 37fc 3640 13bf 11c0 f211 40c0
000000b0: af0c 773f a0a5 8fbf 78f8 0ac0 70ac 1340
000000c0: 2858 49bf 437a 6a40 cd1a 1740 4893 01c0
000000d0: f079 43c0 810b 0f3c e4a8 eb3f d6d0 4e40
000000e0: f9ca 5cbe 7a56 87bf d41d 98bf 5ea5 6bc0
000000f0: dced 1540 1823 0fc0 ca20 26c0 2315 d93f
00000100: ce0f 3340 3a2c 16c0 065b 1a3f 8ef2 94c0
00000110: 2d4f 043f 1108 debf cac0 3e3f f3d2 25bc
00000120: 2247 c7be df62 9e3f 99db eb3f 0139 dabe
00000130: 3a46 823f c1a9 36bf 6066 5fc0 82b6 c1bf
00000140: 002d 39c0 e8f2 cebf 4546 1c3f 58b3 fabe
00000150: 274c 2440 a359 af3f 8f88 0f40 2e0c 0d40
00000160: 61a4 53c0 3af1 febf cf99 023f cd6c bd3f
00000170: 016d 913c ebde d7be 7506 8940 625b 89bc
00000180: 54a7 1740 c811 5240 9253 2abf 338c 233e
00000190: d845 5240 7f1a 0a3f 372b a840 67e8 02c0
000001a0: c067 873f a52d c23f fece 323f f131 9abf
000001b0: cede c53e 0591 e43f 9772 5cbe a855 d3bf
000001c0: a66a d9bf 0ad8 6b3e fef9 3140 6d53 d9be
000001d0: 3c9a b03f 72f2 ba3e a10f 41bf 614a 93be
000001e0: 60d7 30bf 2b2e ddbf afee 483f 9f36 76bf
000001f0: 2b4f 58bf cba0 aebe ae42 06bf bb30 6dbf
00000200: bfc0 233f d391 db3e 2789 38bf ff3f babf
00000210: 8b90 c6bf bc23 52bf f86a 0f40 62a5 d03f
00000220: 8e7e 34c0 42ec c03f 200b de3e 6f01 1cc0
00000230: 85d4 a33f da74 3a3e 18a0 923f 81d1 6340
00000240: f89b 0c3f 8af5 2b3f 66c4 09c0 3d26 00be
00000250: ebb3 203f 3a1d 08c0 99a7 d13f e3ff 053f
00000260: 7f7f b6bf 98ee ba3f 3eb4 2c3f 3e52 a2be
00000270: a43a be3e b3a9 603f 02b5 c73f 6d48 ecbe
00000280: 661d 65be 9695 3dbf 2a9a db3e a0b7 853f
00000290: f666 fbbd 9280 37bf 1de1 f93e 9418 dabd
000002a0: 37fe 523f 016a d3be 6af3 903f 3113 083f
000002b0: ae97 21be 8d9e 9ebe 927e 7bbe 0972 05bf
000002c0: f003 a6bd 41ed 93bf d4ac 1e3e 6db3 fc3d
000002d0: 4ecc 1840 e6da 3d3f b7d1 c4bf 0a29 95bf
000002e0: f769 00bf 2cfb ce3f e67c 09c0 c69a 2540
000002f0: 4cf6 61be c7f3 75bf 798d 08bf 3bdf aebf
00000300: d127 90bf 9d19 313f 34ee c4bf 13cd 17c0
00000310: 3002 3a40 3089 0040 331e 3340 c8ed 2ebd
00000320: e570 c6c0 1aa0 4fbf 42f6 afbf 4430 8740
00000330: 88ee 10c0 34b0 2740 7f1a 9040 2e02 ce3d
00000340: ea8e 6b40 16e5 c6bf 0676 98bf e52c 9c3f
00000350: 6079 3ac0 ce96 fa3f 4c8c 933d bae2 a23f
00000360: 21f7 173f 1005 30c0 40d5 f5bf ba98 4340
00000370: 5699 993f 12d2 90bf 2ea7 f0c0 2df4 2440
00000380: 0f39 f13e 6827 47bf 3a2f 393f 0f7d 803f
00000390: 0602 a43f 8bd8 0cc0 10b7 69be 69c1 1fbf
000003a0: 8681 54bf e9b3 acbe 9302 0d40 a60f 103e
000003b0: 414a dfbf 0f83 063f abdc 2c3f 7fc6 4bbe
000003c0: 2ae0 463f 3d43 8cbf d333 3d3f b784 f2bf
000003d0: e263 4b3f 75c9 febf 8ef4 aabf 12d6 c63f
000003e0: 1109 173f 8b62 75bf eff0 363c 477f 3dbf
000003f0: c7ca 0540 4f65 a33e 556f 8b3e b350 753f

lstm.bias_ih_l0 f4 [72]
-0.8771868 0.8826992 0.52383524 1.6226772 0.16943274 -0.09811862 1.3264786 0.0133861415
-0.43440717 0.8185557 -0.9648581 -0.6682419 -0.49097338 -0.57980096 -0.41631696 0.60464615
-1.3321456 1.254905 -1.0871029 -0.32650173 -0.44582862 0.79017013 -1.1096493 0.20081864
0.5570851 -1.3985008 0.76360554 0.93036944 -0.40032804 -0.7874515 -1.3797677 -0.6349692
-0.045774635 0.93806463 -0.14928937 0.053022563 1.0947934 0.72234756 0.8126812 -1.0312182
-0.3227069 0.2561384 1.4265971 -0.42691207 1.1237347 0.4805324 -0.15191948 1.3666894
-0.044086695 0.1563096 0.55877054 -0.99222237 -0.4201044 -0.9538159 -0.06542046 -0.098830946
0.018651329 -0.5593023 -1.2209679 -0.23668747 0.096847445 0.13631842 -1.1008439 -0.2913117
-1.043091 0.4844037 0.46279824 1.1694977 -0.7448606 -1.4307575 1.3508297 1.0533
00000000: 508f 60bf 93f8 613f 111a 063f e3b3 cf3f
00000010: c77f 2d3e 6af2 c8bd 0dca a93f 8c51 5b3c
00000020: 9e6a debe de8c 513f f100 77bf e711 2bbf
00000030: dd60 fbbe d66d 14bf 7f27 d5be 17ca 1a3f
00000040: bf83 aabf baa0 a03f 3026 8bbf 3c2b a7be
00000050: a643 e4be 9748 4a3f fd08 8ebf 67a3 4d3e
00000060: 219d 0e3f 1302 b3bf a77b 433f b12c 6e3f
00000070: ccf7 ccbe 6c96 49bf 3a9c b0bf 578d 22bf
00000080: 2f7e 3bbd 0125 703f 50df 18be 302e 593d
00000090: 3122 8c3f c5eb 383f e00b 503f f5fe 83bf
000000a0: d739 a5be 9324 833e bc9a b63f 3894 dabe
000000b0: 8ad6 8f3f 5808 f63e c890 1bbe aeef ae3f
000000c0: 4094 34bd a00f 203e 960b 0f3f 4902 7ebf
000000d0: ed17 d7be 472d 74bf 2afb 85bd e167 cabd
000000e0: acca 983c 6f2e 0fbf ad48 9cbf 335e 72be
000000f0: f457 c63d 0e97 0b3e 74e8 8cbf cf26 95be
00000100: 0284 85bf c303 f83e e4f3 ec3e 1ab2 953f
00000110: 2faf 3ebf 1023 b7bf fde7 ac3f 89d2 863f

lstm.bias_hh_l0 f4 [72]
-0.9249285 1.2699821 0.30695 1.3002536 0.021352544 -0.114661895 1.109504 0.010116424
-0.09215854 0.92341113 -1.020868 -0.72454345 -0.19085029 -0.5689214 -0.25502706 0.43854108
-1.0516257 1.6690648 -1.431306 -0.37310907 -0.4249721 0.4417687 -1.3283675 0.3336373
0.5697763 -1.5332075 1.0065081 1.085881 -0.6576537 -0.7976219 -1.676669 -0.45860392
0.0058181267 0.833519 -0.12937772 -0.006310232 1.0561299 0.52323425 0.6587349 -1.0997084
-0.34055486 -0.04669582 1.4830008 -0.55394083 0.97258943 0.74751157 -0.2255455 1.618479
0.2928899 0.41582718 0.59608257 -0.9843876 -0.4823846 -0.98017925 -0.1504761 -0.004260154
0.10130776 -0.5642974 -1.4289329 -0.53945464 0.037321404 0.23388545 -1.2423726 -0.20694943
-0.71095985 0.15487108 0.6426212 1.0723248 -0.44690508 -1.2537136 1.5819129 0.6245512
00000000: 1dc8 6cbf c68e a23f 8d28 9d3e b66e a63f
00000010: 88eb ae3c dbd3 eabd 3a04 8e3f 5cbf 253c
00000020: 9ebd bcbd ac64 6c3f cdab 82bf ae7b 39bf
00000030: 426e 43be d5a4 11bf e892 82be 7588 e03e
00000040: ac9b 86bf eaa3 d53f 0935 b7bf 2708 bfbe
00000050: f195 d9be 822f e23e f207 aabf 82d2 aa3e
00000060: dcdc 113f 2540 c4bf 42d5 803f 26fe 8a3f
00000070: fe5b 28bf f330 4cbf 179d d6bf 22ce eabe
00000080: fca5 be3b 8061 553f 987b 04be 10c6 cebb
00000090: 442f 873f aef2 053f daa2 283f 3fc3 8cbf
000000a0: 355d aebe 1e44 3fbd f8d2 bd3f 11cf 0dbf
000000b0: 9ffb 783f eb5c 3f3f 66f5 66be 522a cf3f
000000c0: aaf5 953e 4de7 d43e de98 183f d300 7cbf
000000d0: 1dfb f6be 07ed 7abf 6816 1abe c398 8bbb
000000e0: 717a cf3d cb75 10bf 46e7 b6bf b319 0abf
000000f0: 54de 183d ab7f 6f3e 1106 9fbf 8dea 53be
00000100: 7701 36bf 8696 1e3e d382 243f f041 893f
00000110: bed0 e4be b079 a0bf 1f7c ca3f 96e2 1f3f

lstm.weight_ih_l1 f4 [72, 18]
1.2528235 -6.9744754 -4.1488895 4.5868373 2.6571293 0.06088611 -4.8550463 -1.5010375
0.83046985 -2.1726658 1.1456754 0.5646974 -0.93853605 1.4891615 -2.3326147 -1.9259475
-1.5492152 -5.1734405 -0.7265028 -1.1596607 -2.1409128 1.7820941 2.523304 3.4652884
-0.5795826 1.6877637 -3.3840852 0.11997415 5.071178 2.906687 0.988941 1.4210931
3.8060632 3.3208497 4.1223917 -0.56608045 3.037704 -1.3382707 -3.6220071 2.0098217
-1.0663413 -2.070914 -1.6347142 0.5233794 0.73491645 -1.9014218 -1.8362937 -0.5783439
0.15405086 0.76226354 0.0039321473 1.3937511 -1.3775111 -1.9897771 0.29448757 1.4884835
-0.107805595 -0.64994824 -1.4342445 -0.51307607 2.49018 0.9032678 1.3919619 -1.7245224
3.79365 0.17919478 0.8236145 -2.5245016 0.6570473 1.0534852 1.5146416 0.86160654
0.59513605 -0.037639353 -1.4495902 0.086203285 -1.3537723 -0.9883757 4.28122 0.8902249
-0.4154205 0.027988663 0.50213844 -1.0573825 -6.6033635 -1.8439742 -0.805183 -0.37330806
-0.4220527 1.8888501 -1.0267621 -1.4392502 1.5916442 3.5605757 -0.15864232 2.2999997
-3.444197 2.010267 0.06461438 1.0351487 -2.1139417 -2.2621105 0.50676394 -0.32791904
2.6186218 4.0313697 0.48517781 -2.658935 0.28991967 0.1136996 -2.3198342 -1.5242043
1.9950135 -1.2141513 4.5598598 -1.7055237 -1.2091762 -1.2635458 0.14383715 0.27179518
-1.0588661 -1.2114469 0.054870304 1.1779515 -0.43964592 -1.5307646 1.90107 1.1039517
0.006482195 -0.729576 -1.4946856 0.11166489 0.2452781 -0.10712801 0.9706794 0.17971712
-0.4706385 -0.07202477 -0.21946202 -0.51855814 1.0013888 0.6424403 -0.53784657 -0.63148165
1.8820738 -2.7675257 -2.0217376 1.8224403 1.2914455 0.89506847 -7.5955386 2.469921
-1.9270942 -3.4778485 -2.4031057 0.29533783 -2.4390829 2.453015 -0.8708663 0.21345894
1.2309021 0.8004259 -1.977231 -0.7938058 -0.4352325 0.04266846 4.9173374 -1.6427432
-3.7591772 -0.6703443 0.7924186 -3.5686653 -0.86313474 -4.1033845 0.056537475 2.3453407
-4.9837074 1.656375 -0.933195 -1.8264116 0.108638264 -1.4565922 -0.79295486 -0.060154267
0.5671453 2.6192462 -2.2473433 1.2255981 0.704433 -0.552981 -0.68645006 -0.103445634
4.256547 3.9102988 0.10766427 -1.3154956 2.8515213 1.6519432 1.2730023 -0.7982456
3.8059108 -0.18251549 -0.69946486 1.5560223 -1.0000278 4.943107 2.0863385 -0.28517258
3.8603656 1.5926843 2.8842628 1.1596533 2.002965 -1.5128902 3.1049476 -0.6810768
-5.399545 -0.7892678 2.3053162 -4.2118397 4.2921095 0.7963284 4.9126225 4.3204584
1.1144649 -2.6379378 -0.13845803 -0.08528291 3.7903135 -3.7308757 0.4963599 -2.2252371
1.0989808 0.7952987 -1.1938947 -2.2971306 2.2664497 2.9329748 -3.4932353 0.19511147
-6.0895095 3.0667615 -4.69234 0.65062886 3.0491219 -0.31303138 -0.88755596 -0.2456728
-2.4601934 4.1895776 5.3922324 0.20745221 1.027986 0.8042047 -0.08742704 -1.1195079
00000000: 855c a03f e72e dfc0 b4c3 84c0 5fc7 9240
00000010: 680e 2a40 b763 793d 8a5c 9bc0 ff21 c0bf
00000020: ac99 543f f50c 0bc0 7ea5 923f 0290 103f
00000030: e643 70bf d89c be3f 8f49 15c0 7385 f6bf
00000040: af4c c6bf d38c a5c0 16fc 39bf c36f 94bf
00000050: b704 09c0 a91b e43f d07d 2140 49c7 5d40
00000060: 865f 14bf a408 d83f da94 58c0 02b5 f53d
00000070: 1747 a240 2907 3a40 3d2b 7d3f 61e6 b53f
00000080: 8a96 7340 cd88 5440 a2ea 8340 a6ea 10bf
00000090: be69 4240 744c abbf f7ce 67c0 eba0 0040
000000a0: df7d 88bf db89 04c0 513e d1bf 31fc 053f
000000b0: 7c23 3c3f ca61 f3bf ac0b ebbf 590e 14bf
000000c0: 82bf 1d3e b423 433f 3ed9 803b 7066 b23f
000000d0: 4952 b0bf 04b1 febf 13c7 963e a186 be3f
000000e0: 2ec9 dcbd 0263 26bf 5395 b7bf f458 03bf
000000f0: 1c5f 1f40 8f3c 673f cf2b b23f 26bd dcbf
00000100: 29cb 7240 d67e 373e 66d8 523f 6f91 21c0
00000110: 4034 283f 9ad8 863f c7df c13f 3f92 5c3f
00000120: d65a 183f b92b 1abd 2c8c b9bf 598b b03d
00000130: 6948 adbf 3106 7dbf c1ff 8840 c7e5 633f
00000140: ffb1 d4be 7b48 e53c 258c 003f 4f58 87bf
00000150: c14e d3c0 5907 ecbf 7920 4ebf 3c22 bfbe
00000160: 4b17 d8be d7c5 f13f f16c 83bf 5a39 b8bf
00000170: ffba cb3f 79e0 6340 2273 22be 3233 1340
00000180: b96d 5cc0 37a8 0040 8b54 843d c17f 843f
00000190: d24a 07c0 6bc6 10c0 48bb 013f 01e5 a7be
000001a0: 8097 2740 fb00 8140 3a69 f83e fe2b 2ac0
000001b0: 5a70 943e 56db e83d 2a78 14c0 2019 c3bf
000001c0: 9a5c ff3f 4f69 9bbf 5fea 9140 9a4e dabf
000001d0: 49c6 9abf debb a1bf 0c4a 133e bd28 8b3e
000001e0: ed88 87bf b110 9bbf afbf 603d 1dc7 963f
000001f0: 4519 e1be 18f0 c3bf 4356 f33f 4a4e 8d3f
00000200: 9868 d43b 7ec5 3abf dc51 bfbf 90b0 e43d
00000210: 2f2a 7b3e ee65 dbbd 727e 783f c407 383e
00000220: 88f7 f0be b981 93bd a7ba 60be 3ac0 04bf
00000230: 822d 803f f876 243f 50b0 09bf c8a8 21bf
00000240: cbe7 f03f 241f 31c0 2664 01c0 b945 e93f
00000250: 164e a53f 3523 653f a70e f3c0 3013 1e40
00000260: 06ab f6bf 1295 5ec0 7ccc 19c0 8536 973e
00000270: ef19 1cc0 33fe 1c40 18f1 5ebf fb94 5a3e
00000280: 338e 9d3f b6e8 4c3f e815 fdbf db36 4bbf
00000290: cbd6 debe 20c5 2e3d d45a 9d40 6945 d2bf
000002a0: 5c96 70c0 af9b 2bbf f2db 4a3f 0365 64c0
000002b0: 66f6 5cbf ed4e 83c0 d793 673d 101a 1640
000002c0: 887a 9fc0 1904 d43f dee5 6ebf dbc7 e9bf
000002d0: bd7d de3d 9d71 babf 17ff 4abf 5264 76bd
000002e0: 6f30 113f bba1 2740 79d4 0fc0 66e0 9c3f
000002f0: b955 343f 2a90 0dbf 31bb 2fbf 4edb d3bd
00000300: a235 8840 5642 7a40 167f dc3d 2962 a8bf
00000310: 537f 3640 e072 d33f bdf1 a23f d359 4cbf
00000320: 0b94 7340 57e5 3abe 2110 33bf bd2b c73f
00000330: e900 80bf ef2d 9e40 9286 0540 2402 92be
00000340: 3b10 7740 14dd cb3f c397 3840 856f 943f
00000350: 9430 0040 63a6 c1bf 76b7 4640 0d5b 2ebf
00000360: 13c9 acc0 740d 4abf 4d8a 1340 64c7 86c0
00000370: f658 8940 2edc 4b3f 3434 9d40 3241 8a40
00000380: c9a6 8e3f f9d3 28c0 f1c7 0dbe cea8 aebd
00000390: 7f94 7240 abc6 6ec0 e322 fe3e 496a 0ec0
000003a0: 67ab 8c3f b298 4b3f 8bd1 98bf 3004 13c0
000003b0: 830d 1140 dcb5 3b40 2b91 5fc0 4dcb 473e
000003c0: 43dd c2c0 d245 4440 a627 96c0 9d8f 263f
000003d0: d024 4340 a645 a0be de36 63bf a791 7bbe
000003e0: cf73 1dc0 0511 8640 2b8d ac40 5a6e 543e
000003f0: 0c95 833f 5ce0 4d3f f30c b3bd 094c 8fbf

lstm.weight_hh_l1 f4 [72, 18]
3.5802646 1.1520269 2.338747 -0.30630216 0.97709966 2.7964292 -0.32675412 0.21980812
0.2463342 -1.5973005 -1.0470994 -2.1373208 -3.0759332 0.015462535 -1.0720831 3.0681643
0.9552598 0.16811422 0.79079044 -2.736641 -4.0862985 -1.5669771 3.1977713 0.71635824
-0.6187624 1.4209307 -3.1807113 1.8917534 0.3391127 0.38411954 1.5822115 0.45721355
-0.17972854 1.5206575 4.3120914 -0.77226084 1.2904824 -3.0553834 4.5679193 2.8140202
1.4314194 1.3961582 3.8479507 0.012726687 -0.56808186 -2.4086995 -2.3522186 -0.92676646
-2.5291543 -2.098546 -0.85709196 0.24743533 0.62948495 -1.677264 0.9873324 -1.4141405
1.455394 1.969591 -0.578316 0.284875 -2.674646 1.1741115 -1.1015124 2.2933037
4.5894732 -1.0589774 -2.2499197 1.0039812 -0.4495348 -3.4968517 -1.0582887 2.880933
-0.54655075 -2.5935001 2.0898838 1.8304181 1.0973698 -1.1894109 0.7164945 0.083231434
1.3491945 -5.6843796 -2.3549345 -2.561798 -1.4965992 0.22252747 -0.68246365 -2.828411
-1.2063143 1.1262484 2.2341506 -0.911245 -0.6888402 -1.551886 -0.13316002 -1.0774012
0.7077082 0.35414913 -2.0832222 -0.6010145 2.3226216 -1.6933972 2.9630241 -2.3450377
-0.40467158 -1.8263155 -1.8713955 4.9202423 1.1822621 1.9582098 1.7054461 1.902976
0.25955108 1.9866042 1.5738288 0.110923454 -1.6966904 1.63925 1.061773 0.29396898
2.5519068 0.18554276 0.66876936 0.5047855 1.6257185 -0.26473284 -0.3795311 -0.01730619
-1.375052 1.357786 -0.45555094 -0.08462566 0.43274954 -0.40501285 0.8930435 -0.5761581
-0.67511404 0.21892321 0.6569129 0.25412637 0.08991216 0.33931533 -0.22969846 0.06322568
1.6786823 2.0337613 0.31998682 1.1082704 1.0746443 -0.3930308 -1.0979013 -0.8588261
-0.3612511 0.7862489 3.9746704 -0.051175125 3.3133612 1.2095562 0.48512846 0.49703208
0.2629379 2.2162726 1.5613655 0.7103116 1.1951936 -3.8048084 2.7177868 -3.5476632
4.0110517 0.13285655 0.50153816 1.216668 1.4609681 1.2824192 -3.7198575 -1.8403591
-1.6760352 -0.31380516 -0.97888803 2.7987058 -2.131483 -2.0501678 0.76785344 -0.51466894
-1.613051 3.112135 2.3703938 -0.5345618 3.4554899 -0.3429712 2.1896524 -2.150404
-2.936709 -3.3736024 -0.29494393 0.14427592 -1.0826085 -0.3049935 -3.1164348 -3.8906033
-2.117819 -1.2238457 1.8699877 2.6280875 0.9137272 2.203629 -1.6473373 0.25565967
0.5100572 -1.1495372 0.07724494 0.7086781 -0.47605816 1.8047242 2.3997216 -0.28212926
-1.5192238 -0.82332414 -3.8601005 -1.3029329 -1.8735613 -1.4281826 0.9637316 1.8182857
-6.6826305 -2.274719 1.5894165 3.2166033 1.5636834 -1.8516712 -1.7477379 -2.4517176
-1.0818578 -1.0742035 -3.9105308 -0.9046194 -0.65373707 1.9678211 1.4483501 1.0007232
0.2680054 -0.05249621 -0.9732746 -0.3204159 0.6073335 -0.09057027 0.981697 1.44567
0.32036 2.5864763 0.5573446 1.4141175 0.6792924 0.5865865 -0.19710627 0.21777302
00000000: 0e23 6540 9e75 933f 08ae 1540 a3d3 9cbe
00000010: 3423 7a3f b2f8 3240 514c a7be 6115 613e
00000020: 083f 7c3e 5874 ccbf 5a07 86bf ddc9 08c0
00000030: 17dc 44c0 9356 7d3c 053a 89bf ce5c 4440
00000040: e88b 743f 2226 2c3e 3e71 4a3f 2025 2fc0
00000050: f5c2 82c0 b592 c8bf 49a8 4c40 4163 373f
00000060: 3667 1ebf 0fe1 b53f c690 4bc0 fa24 f23f
00000070: 2ea0 ad3e 51ab c43e e885 ca3f e517 ea3e
00000080: c20a 38be e8a4 c23f a7fc 8940 e3b2 45bf
00000090: 872e a53f 678b 43c0 652c 9240 e818 3440
000000a0: c038 b73f 50b5 b23f d344 7640 9883 503c
000000b0: d06d 11bf 2228 1ac0 c08a 16c0 9140 6dbf
000000c0: aadd 21c0 944e 06c0 616a 5bbf b05f 7d3e
000000d0: ed25 213f 96b0 d6bf d1c1 7c3f 8e02 b5bf
000000e0: 5a4a ba3f 8f1b fc3f 840c 14bf 23db 913e
000000f0: 662d 2bc0 4949 963f 5cfe 8cbf 7dc5 1240
00000100: f7dc 9240 928c 87bf affe 0fc0 7582 803f
00000110: 6d29 e6be 6bcc 5fc0 0176 87bf 3561 3840
00000120: c0ea 0bbf e8fb 25c0 a8c0 0540 244b ea3f
00000130: 9d76 8c3f 9e3e 98bf 2f6c 373f 3e75 aa3d
00000140: 68b2 ac3f 70e6 b5c0 3fb7 16c0 80f4 23c0
00000150: 9090 bfbf 3ede 633e f0b5 2ebf b004 35c0
00000160: 8268 9abf e828 903f 53fc 0e40 5a47 69bf
00000170: d557 30bf 33a4 c6bf 1a5b 08be 48e8 89bf
00000180: 5d2c 353f 0953 b53e 8353 05c0 16dc 19bf
00000190: d5a5 1440 3dc1 d8bf 30a2 3d40 1915 16c0
000001a0: 1d31 cfbe b5c4 e9bf e389 efbf a072 9d40
000001b0: 5d54 973f 9ea6 fa3f 0f4c da3f b894 f33f
000001c0: e1e3 843e 0c49 fe3f 3973 c93f d62b e33d
000001d0: 272d d9bf f2d2 d13f 2de8 873f 1a83 963e
000001e0: 7152 2340 ecfe 3d3e 7834 2b3f 9f39 013f
000001f0: 8b17 d03f 108b 87be e651 c2be b6c5 8dbc
00000200: b401 b0bf efcb ad3f f93d e9be 3850 adbd
00000210: 5991 dd3e d85d cfbe 809e 643f 197f 13bf
00000220: 46d4 2cbf 682d 603e 722b 283f da1c 823e
00000230: de23 b83d bdba ad3e 1336 6bbe 777c 813d
00000240: 10df d63f 2529 0240 50d5 a33e cedb 8d3f
00000250: f28d 893f 553b c9be 0888 8cbf 07dc 5bbf
00000260: e7f5 b8be 9c47 493f 0061 7e40 029d 51bd
00000270: 1c0e 5440 bdd2 9a3f c262 f83e fd7a fe3e
00000280: cc9f 863e 69d7 0d40 d3da c73f fbd6 353f
00000290: 1bfc 983f fb81 73c0 38f0 2d40 ea0c 63c0
000002a0: 895a 8040 8c0b 083e ce64 003f c7bb 9b3f
000002b0: 0101 bb3f 5026 a43f 2512 6ec0 e390 ebbf
000002c0: 5288 d6bf 12ab a0be 6898 7abf ff1d 3340
000002d0: 386a 08c0 f335 03c0 0b92 443f 58c1 03bf
000002e0: 7578 cebf 382d 4740 88b4 1740 0bd9 08bf
000002f0: bf26 5d40 ec99 afbe 4423 0c40 38a0 09c0
00000300: 0af3 3bc0 1ae9 57c0 e402 97be 11bd 133e
00000310: ea92 8abf 1c28 9cbe ab73 47c0 a5ff 78c0
00000320: 598a 07c0 faa6 9cbf c25b ef3f 9632 2840
00000330: 07ea 693f 4208 0d40 f3db d2bf d3e5 823e
00000340: 1c93 023f 0924 93bf 9832 9e3d ee6b 353f
00000350: e5bd f3be 3401 e73f 0a95 1940 3f73 90be
00000360: ed75 c2bf 5fc5 52bf e30b 77c0 81c6 a6bf
00000370: dbd0 efbf b0ce b6bf 1db7 763f 96bd e83f
00000380: 1cd8 d5c0 ff94 11c0 0072 cb3f d4dc 4d40
00000390: c726 c83f 9003 edbf e0b5 dfbf f1e8 1cc0
000003a0: 517a 8abf 807f 89bf 2346 7ac0 2395 67bf
000003b0: 505b 27bf 90e1 fb3f 8963 b93f b317 803f
000003c0: 0138 893e 4406 57bd 8628 79bf 8e0d a4be
000003d0: 357a 1b3f e87c b9bd 7f50 7b3f b70b b93f
000003e0: 3a06 a43e d488 2540 23ae 0e3f cd01 b53f
000003f0: 1be6 2d3f 882a 163f 3ad6 49be e4ff 5e3e

lstm.bias_ih_l1 f4 [72]
-0.3880977 -0.0933216 1.1065005 -0.60296017 -0.59813946 -1.6113 -1.0021683 0.77327955
-0.20732406 -1.3279843 -0.13173087 0.6017602 -1.6757864 -0.13366926 0.124851435 -0.4922661
1.0439467 -0.9299396 -1.2598491 -0.6514569 -0.24930166 0.0091645 -0.23142438 -2.1636882
-1.426414 1.1289248 -0.722209 0.9502249 -0.5847361 -0.56229526 0.67812115 0.07939594
0.5958417 -0.7667577 -1.0264478 0.53552425 0.104118 -0.9702166 -0.80371845 -0.7683322
-0.87431943 -0.09482132 -0.33735177 -0.7112923 1.0330391 -0.9491525 -1.1884944 0.84728473
0.628267 0.93665504 0.63064766 0.5611078 0.4327231 -0.7318471 -0.1485399 0.10304673
1.2070901 -0.034468256 -0.46936002 -0.6471306 -1.1224433 0.35426143 0.7495055 2.248117
1.0166342 0.9848512 0.9257128 -0.7203304 -0.697345 -0.33127624 0.7332965 -0.25271934
00000000: beb4 c6be 651f bfbd cfa1 8d3f 995b 1abf
00000010: ab1f 19bf 143f cebf 0d47 80bf a6f5 453f
00000020: c24c 54be 64fb a9bf 75e4 06be f50c 1a3f
00000030: 2b80 d6bf 98e0 08be 1cb2 ff3d 4d0a fcbe
00000040: 0ca0 853f 8610 6ebf bc42 a1bf e1c5 26bf
00000050: ef48 7fbe b326 163c 83fa 6cbe de79 0ac0
00000060: bc94 b6bf 9c80 903f b0e2 38bf f041 733f
00000070: 44b1 15bf 95f2 0fbf 5999 2d3f 579a a23d
00000080: 1589 183f 3c4a 44bf a462 83bf 1e18 093f
00000090: d13b d53d 1d60 78bf 7ec0 4dbf 6bb1 44bf
000000a0: 66d3 5fbf ae31 c2bd 5fb9 acbe 4117 36bf
000000b0: a03a 843f a9fb 72bf 9620 98bf a7e7 583f
000000c0: 1bd6 203f a0c8 6f3f 2072 213f c3a4 0f3f
000000d0: e28d dd3e 555a 3bbf d81a 18be 2a0a d33d
000000e0: ee81 9a3f 962e 0dbd f54f f0be 5aaa 25bf
000000f0: 39ac 8fbf c161 b53e 98df 3f3f 26e1 0f40
00000100: 1221 823f 351f 7c3f 84fb 6c3f 9367 38bf
00000110: 3485 32bf 0a9d a9be 52b9 3b3f 6e64 81be

lstm.bias_hh_l1 f4 [72]
-0.4233561 -0.23086151 1.0552188 -0.8619485 -0.26921058 -1.7812434 -0.72318494 0.6268227
0.018767616 -1.2291424 0.252386 0.9480038 -1.8293169 -0.010789973 0.25671595 -0.21360692
0.6485164 -0.9133112 -1.6345239 -0.48858505 -0.021768063 -0.1021716 -0.024102831 -2.0746267
-1.3353989 1.1981099 -1.040989 1.1655815 -0.8924891 -0.281627 0.99308103 0.02131375
0.46500555 -0.97828925 -1.1120374 0.6342308 0.031044135 -0.63360155 -0.74943876 -0.50729585
-0.6522101 0.0029353895 -0.2747347 -1.0303737 1.4626913 -1.0696124 -0.9645018 0.5338677
0.60816324 0.8558461 0.22673853 0.68628925 0.48116058 -0.9801422 -0.38479084 0.20378946
1.1702578 0.03216742 -0.34266695 -0.39554846 -1.2860087 0.5342392 0.42274427 2.1731963
0.8930119 0.8861808 0.8259699 -1.0681207 -0.590874 -0.2862971 0.61131066 -0.46838903
00000000: 21c2 d8be f666 6cbe 6911 873f a8a8 5cbf
00000010: f8d5 89be c9ff e3bf a622 39bf 7477 203f
00000020: 8bbe 993c 8a54 9dbf bd38 813e 61b0 723f
00000030: 0e27 eabf 6dc8 30bc 4670 833e c6bb 5abe
00000040: 2c05 263f c3ce 69bf 1438 d1bf d227 fabe
00000050: f052 b2bc 583f d1bd 4d73 c5bc afc6 04c0
00000060: 5aee aabf aa5b 993f 213f 85bf c631 953f
00000070: 2a7a 64bf 6a31 90be 8f3a 7e3f 2c9a ae3c
00000080: 3515 ee3e 2a71 7abf 3e57 8ebf f35c 223f
00000090: 4550 fe3c b633 22bf 38db 3fbf 24de 01bf
000000a0: 3ef7 26bf aa5f 403b 07aa 8cbe 49e3 83bf
000000b0: 7839 bb3f 0fe9 88bf 97e9 76bf 8eab 083f
000000c0: 96b0 1b3f bb18 5b3f 252e 683e a7b0 2f3f
000000d0: ae5a f63e 99ea 7abf 4e03 c5be 2fae 503e
000000e0: 02cb 953f fcc1 033d 0b72 afbe 5485 cabe
000000f0: ef9b a4bf e6c3 083f f071 d83e a615 0b40
00000100: 6e9c 643f bfdc 623f c372 533f 2eb8 88bf
00000110: 8543 17bf 8995 92be db7e 1c3f b0d0 efbe

l2.weight f4 [18, 20]
-0.3963157 -0.5331663 -0.3224351 0.27836028 0.17633691 1.756376 1.1094906 -1.5842327
-0.47733018 -0.14707679 0.3845596 0.9522947 -0.0035235146 2.741272 1.0561604 -0.3275788
-0.015055736 -0.09884218 0.074121416 -0.1312836 -0.30847797 2.3401432 -0.21467257 -0.13015687
1.2253803 2.011991 -1.2914318 0.9909706 1.0783037 1.435112 -1.8492336 0.69561666
0.42894128 -0.4341038 -1.5389296 -0.21553566 0.20316175 -0.10973264 0.05065599 -0.37543818
-2.287305 -1.8817917 1.5589908 -0.2332712 0.79248714 4.114758 -0.41672912 1.7178059
0.93079543 -0.61719 0.62580955 -1.9582033 -2.0320163 2.6831338 -0.7145156 1.245288
1.0145652 0.5335865 -0.027231857 -0.120763406 -1.478475 -0.3705705 -1.3162777 0.52259547
-0.12862442 0.33210963 -0.101216905 0.598567 1.5598077 0.56878614 2.4242818 1.732899
0.29915464 1.9408014 -0.12364202 1.3047612 -1.3386046 1.7707555 0.13917881 -0.27346948
0.5476402 -0.84106964 -1.4960598 0.54128563 -0.31927288 2.7208807 -0.4877598 0.6511673
1.7576698 0.028570455 1.6938795 2.5541847 0.044752173 -4.410157 0.56604445 -0.19451664
0.69076544 0.96954244 0.08043951 -0.5203221 -3.8592062 -2.9824762 2.002709 1.9173033
-1.8235289 -3.864335 -0.37749916 1.3900467 -4.2144103 7.785446 3.5407166 2.6648135
1.4210871 -2.583115 0.4275847 3.7226353 -1.7061139 -1.1149586 0.20513749 -0.6653004
-0.84259564 2.0837903 1.1870105 -4.5480375 2.255032 -2.909746 7.04121 2.9112248
-2.602192 0.32169545 0.96549416 -2.4632583 -3.4509573 0.04643606 -3.3706777 -2.0323176
-1.3225236 1.9409267 -0.21154419 0.21792635 -1.4448596 1.8916619 0.82695884 0.42887238
-0.43978953 -0.27495039 -0.1229762 0.69063914 -0.40813613 -0.8678595 -0.818265 -0.48848858
1.2631024 -1.4742062 -0.51562303 0.65434515 1.5001491 0.07877038 -0.007544711 -0.045258697
-4.9699016 -3.6289554 1.4538699 2.8958287 1.3137147 -3.7455008 -0.22268446 0.0064010182
-3.4994059 5.7720494 3.0098183 2.4125257 -1.3486443 -2.7659466 0.30759695 3.3681066
-0.789796 1.5752285 0.12743163 -0.40544018 -2.549237 0.20293505 0.81909007 1.9509577
-0.10554777 -0.036746867 0.4124458 -0.73519576 0.35760793 2.6223493 0.2704323 0.41149336
-2.6991744 -5.430684 0.58636945 -0.0832476 -0.46588287 -0.7968036 0.10530144 -0.20469558
0.79231656 -2.1647396 -0.59087896 0.1521596 -2.107612 -0.60591686 -1.9439659 1.0625348
-0.028897626 0.08015286 1.7364123 1.3936359 1.354196 -2.9524693 -0.69542456 -0.60662204
0.83936596 -0.585959 -0.0928144 -0.5239371 -6.424984 -3.609853 4.846215 1.7987056
0.3870124 -6.077522 -0.843223 0.67636 -1.404734 4.5329957 1.9347668 0.41073832
-0.129412 -3.0298402 -0.34806597 3.0320373 0.76527804 0.13397035 -0.20631795 -0.0046207546
-0.29377624 0.32711855 2.3960812 0.28106412 0.030843178 -0.32816073 0.1002603 0.43247882
0.33549613 0.83278394 0.14334084 2.5591028 0.4617617 -1.0172758 -0.23011035 1.5861945
00000000: e4e9 cabe 967d 08bf 3716 a5be 3d85 8e3e
00000010: aa91 343e eed0 e03f ca03 8e3f 23c8 cabf
00000020: 9f64 f4be 4c9b 16be ffe4 c43e 96c9 733f
00000030: c4ea 66bb 0071 2f40 4430 873f 69b8 a7be
00000040: 55ac 76bc c56d cabd f8cc 973d 356f 06be
00000050: d3f0 9dbe e8c4 1540 20d3 5bbe d847 05be
00000060: 43d9 9c3f 76c4 0040 a34d a5bf 40b0 7d3f
00000070: db05 8a3f c0b1 b73f b0b3 ecbf ef13 323f
00000080: 319e db3e da42 debe a5fb c4bf 61b5 5cbe
00000090: a209 503e 82bb e0bd a87c 4f3d 6f39 c0be
000000a0: 3563 12c0 8dde f0bf 038d c73f a5de 6ebe
000000b0: 70e0 4a3f 19ac 8340 855d d5be 10e1 db3f
000000c0: 9c48 6e3f 2a00 1ebf 0e35 203f 68a6 fabf
000000d0: 8e0c 02c0 77b8 2b40 7fea 36bf 9965 9f3f
000000e0: 46dd 813f 2099 083f 5815 dfbc ce52 f7bd
000000f0: ab3e bdbf 6bbb bdbe ca7b a8bf d1c8 053f
00000100: 1fb6 03be 460a aa3e cf4a cfbd b03b 193f
00000110: c7a7 c73f f89b 113f 6f27 1b40 a2cf dd3f
00000120: cc2a 993e 2e6c f83f 0738 fdbd 6a02 a73f
00000130: 6557 abbf 1ea8 e23f e484 0e3e 3104 8cbe
00000140: 2632 0c3f 5750 57bf e37e bfbf b291 0a3f
00000150: bc77 a3be e922 2e40 a7bb f9be e6b2 263f
00000160: 53fb e03f 960c ea3c 0bd1 d83f c377 2340
00000170: 0e4e 373d 0220 8dc0 4ae8 103f 5f2f 47be
00000180: 01d6 303f ef33 783f 78bd a43d d433 05bf
00000190: 3cfd 76c0 e4e0 3ec0 622c 0040 326a f53f
000001a0: 6569 e9bf 4451 77c0 9247 c1be 0ded b13f
000001b0: 73dc 86c0 6022 f940 1a9b 6240 4e8c 2a40
000001c0: 2fe6 b53f c251 25c0 62ec da3e a83f 6e40
000001d0: f161 dabf f7b6 8ebf 900f 523e 2151 2abf
000001e0: 59b4 57bf d25c 0540 f6ef 973f 8689 91c0
000001f0: 7252 1040 4739 3ac0 9851 e140 8251 3a40
00000200: 508a 26c0 44b5 a43e a02a 773f 06a6 1dc0
00000210: 7cdc 5cc0 bd33 3e3d 2fb9 57c0 7e11 02c0
00000220: 7448 a9bf 4970 f83f 0a9f 58be 1628 5f3e
00000230: 29f1 b8bf fa21 f23f 93b3 533f 2995 db3e
00000240: 182c e1be 4cc6 8cbe f2da fbbd bacd 303f
00000250: 38f7 d0be 0a2c 5ebf d179 51bf 2d1b fabe
00000260: 57ad a13f cab2 bcbf dfff 03bf 2a83 273f
00000270: e304 c03f 5d52 a13d a039 f7bb 2f61 39bd
00000280: 6f09 9fc0 ce40 68c0 6918 ba3f 4255 3940
00000290: ce27 a83f 49b6 6fc0 6507 64be a2bf d13b
000002a0: 44f6 5fc0 a1b4 b840 dda0 4040 d266 1a40
000002b0: 60a0 acbf 4505 31c0 597d 9d3e 0f8f 5740
000002c0: 1230 4abf 16a1 c93f 707d 023e db95 cfbe
000002d0: b326 23c0 35ce 4f3e e3af 513f fbb8 f93f
000002e0: 6e29 d8bd e283 16bd 192c d33e ca35 3cbf
000002f0: 6318 b73e 92d4 2740 1a76 8a3e 42af d23e
00000300: 46bf 2cc0 2ac8 adc0 4f1c 163f b87d aabd
00000310: 3388 eebe 52fb 4bbf 48a8 d73d b89b 51be
00000320: 42d5 4a3f 188b 0ac0 d843 17bf bacf 1b3e
00000330: 1de3 06c0 5e1d 1bbf e0d3 f8bf 2401 883f
00000340: b7ba ecbc 2f27 a43d c242 de3f a962 b23f
00000350: 4b56 ad3f 42f5 3cc0 5807 32bf 954b 1bbf
00000360: b0e0 563f 6901 16bf 7a15 bebd be20 06bf
00000370: 7899 cdc0 d507 67c0 3114 9b40 fc3b e63f
00000380: 7d26 c63e 0f7b c2c0 76dd 57bf ee25 2d3f
00000390: 53ce b3bf 4d0e 9140 70a6 f73f 4b4c d23e
000003a0: 9484 04be e7e8 41c0 b435 b2be e60c 4240
000003b0: 43e9 433f 862f 093e 0345 53be b369 97bb
000003c0: d769 96be 157c a73e 6559 1940 a3e7 8f3e
000003d0: d5aa fc3c af04 a8be 4655 cd3d dd6d dd3e
000003e0: 26c6 ab3e 5431 553f f1c7 123e 57c8 2340
000003f0: 086c ec3e 1836 82bf 0ca2 6bbe 6c08 cb3f

l2.bias f4 [18]
0.934949 0.04930427 0.12963249 -1.1922734 -1.5519857 -1.5244952 -2.9539201 -0.688989
-2.0051997 -0.59725934 -0.7703888 -1.0564011 -0.5890844 -0.08615465 -0.4388528 -1.2561972
-0.9488224 -0.5158899
00000000: d158 6f3f 46f3 493d 61be 043e 6a9c 98bf
00000010: 78a7 c6bf a922 c3bf 070d 3dc0 9561 30bf
00000020: 3155 00c0 fde5 18bf 3338 45bf 2738 87bf
00000030: 3cce 16bf d971 b0bd 50b1 e0be 12cb a0bf
00000040: 06e6 72bf 5c11 04bf

l3.weight f4 [2, 18]
0.024362847 0.04854827 0.7080933 0.6793278 -0.06516822 -0.08466446 0.55948013 0.23603462
-0.080100514 -0.026442079 -0.4997285 0.00020199327 0.0007375963 0.02215238 -0.5882501 -0.320486
0.18929078 0.15126449 0.1190631 -0.25759244 -0.08056212 -0.23851283 -0.4944297 -0.588067
0.6717492 -0.03929935 -0.2926447 -0.06892769 -0.49305138 0.07107322 -0.55325437 0.04990751
-0.073726684 -0.3258039 -0.025605856 -0.008184077
00000000: 9894 c73c 8dda 463d 9a45 353f 6de8 2d3f
00000010: ea76 85bd 8f64 adbd 173a 0f3f 0fb3 713e
00000020: bd0b a4bd 0f9d d8bc 6adc ffbe 28ce 5339
00000030: 405b 413a e878 b53c 8f97 16bf be16 a4be
00000040: 71d5 413e 14e5 1a3e 5bd7 f33d 28e3 83be
00000050: c1fd a4bd b53c 74be e425 fdbe 8f8b 16bf
00000060: c1f7 2b3f 5bf8 20bd 87d5 95be f629 8dbd
00000070: 3b71 fcbe d68e 913d 14a2 0dbf d16b 4c3d
00000080: 04fe 96bd c5cf a6be 5fc3 d1bc 8216 06bc

l3.bias f4 [2]
0.69187206 0.282921
00000000: 871e 313f 05db 903e
