Ablation Experiments/LSTM/DoubleDQN-QT-Reward-Delay-IR-Final/ModelParam/2024-02-01-1054/target-network-transfromer.pth (torch, 220719 bytes, 18 tensors)

encoder.self_attn.in_proj_weight f4 [27, 9]
000000 7e 0a b3 3f de 2a 00 3f 73 e8 e5 bd 8f f2 1c 3f
       1.3987577 0.5006541 -0.11225977 0.61307615
000010 65 cf 2b 40 dc fd 1a bf b4 0e 8b be 0a 0c 24 3f
       2.6845334 -0.6054361 -0.27159655 0.6408087
000020 f4 73 b6 3f fb 02 5f 3f 88 4f 10 40 bb 58 07 40
       1.4254136 0.8711392 2.2548542 2.1147907
000030 3f 91 34 40 a5 f5 ac 40 db 93 54 bf 63 f3 44 be
       2.821365 5.404986 -0.8303811 -0.1923347
000040 19 43 52 c0 fb 16 5f 3e 62 f9 ab bf 19 9f f7 bc
       -3.2853453 0.2178611 -1.343548 -0.03022723
000050 7f ea 81 3f dc 51 a7 3f 3b c5 59 3d f3 77 fa 3f
       1.0149688 1.3071856 0.05316661 1.9567856
000060 5e 21 97 3f c0 06 c5 bf 73 26 a1 bf 0e d0 ec be
       1.1807058 -1.5392685 -1.2589859 -0.46252483
000070 22 67 e2 3f bf 7d 37 40 5c ef b2 40 6a 8a ab 40
       1.7687724 2.86705 5.5917187 5.3606462
000080 32 25 97 3f 47 e2 15 40 11 30 d4 be 67 04 3c bf
       1.1808226 2.3419359 -0.41442922 -0.7344422
000090 85 1c 9d 3f d7 ac ad bf 73 38 91 bf 26 90 fb be
       1.2274328 -1.3568372 -1.1345352 -0.49133414
0000a0 3c a8 12 3e 3c 72 68 bf 7e 88 0f bf a0 f6 73 3e
       0.14321989 -0.9079931 -0.56067646 0.23824549
0000b0 b2 ce 8b 3f 86 fc f5 be 5d 1b 0c 40 d1 63 71 40
       1.0922453 -0.48044223 2.1891701 3.7717173
0000c0 fb 2f 8a 40 5c c4 b5 40 a1 86 4a 3d b1 8d 9a 3f
       4.318357 5.6802197 0.0494448 1.2074491
0000d0 17 5a a9 bf 75 83 30 bf 42 91 b9 3e 54 42 f2 3f
       -1.3230618 -0.6895059 0.36243635 1.8926492
0000e0 79 89 d8 3f d0 56 47 40 b9 1e a7 40 4f d0 50 3f
       1.6916953 3.1146736 5.2225003 0.81567854
0000f0 6c a2 6c 3f 43 b4 03 3e 4e 5d bb 3c 4f ec f3 bd
       0.92435336 0.12861733 0.02287164 -0.11910307
000100 ff 8b 35 c0 fe a7 66 c0 92 3a 90 c0 38 34 e3 c0
       -2.8366697 -3.6040034 -4.5071497 -7.1001244
000110 4e 16 d7 bd 08 c5 82 be 46 d7 07 3d 28 19 dd 3e
       -0.10502301 -0.25540948 0.033164285 0.43183255
000120 3e 3a 51 bf 5e 68 aa 3e f2 56 83 bd 07 3b a6 be
       -0.81729496 0.3328275 -0.06413068 -0.3246691
000130 a3 fb db bf 3e f5 6c 3d 62 eb 62 bd 55 82 13 40
       -1.7186168 0.05785107 -0.05540026 2.3048298
000140 0c 2c ac be 5f ff 99 bf 3f 95 39 c0 43 bf 81 bf
       -0.33627355 -1.2031058 -2.8997343 -1.0136493
000150 0f 44 3b c0 91 d4 2c c0 37 1e b2 be 29 68 7d be
       -2.926029 -2.700474 -0.34788677 -0.24746765
000160 f0 8a ae 40 ca af fb bd 44 1e bc bf 46 73 b6 bf
       5.45446 -0.122893885 -1.4696736 -1.4253929
000170 03 a3 56 3f 60 74 77 c0 7d b1 74 c0 89 44 dd bd
       0.83842486 -3.866478 -3.823333 -0.10804088
000180 1b 60 26 bf c6 80 0b 40 37 d8 53 bf 07 ff ac 3e
       -0.64990395 2.1797347 -0.8275179 0.3378832
000190 b2 e0 f3 be 43 be e9 3f e6 57 cd bf 07 01 cd bf
       -0.47632366 1.8261188 -1.604245 -1.6015939
0001a0 4c a1 de be f4 e4 d1 be c8 eb 8c c0 29 3c ff 3e
       -0.43482435 -0.4099499 -4.403782 0.49850586
0001b0 ae bb bd be 46 03 c7 3d 8f 44 f7 3f 7c 65 cd bf
       -0.3705725 0.09717421 1.9317797 -1.6046596
0001c0 11 ec d5 bf a7 e0 a3 3d 14 26 a8 3e 13 71 1e c0
       -1.6712667 0.080018334 0.3284155 -2.4756515
0001d0 e6 99 cf be 3e ad c1 bf 05 4d 5b be 7a 8b 6e bf
       -0.40547103 -1.5130994 -0.214161 -0.93181574
0001e0 01 8c 84 bf 72 a7 83 bf 43 49 16 bf 2a 6b ee 3c
       -1.0355226 -1.0285475 -0.5870554 0.029103834
0001f0 a5 7e ab 40 06 dd 18 be d0 dd 84 3f 42 0a 76 3f
       5.3592095 -0.14928064 1.0380192 0.961094
000200 10 0e 9f bf 6c 25 5a 3f dc af d1 3e 95 d8 a1 bf
       -1.2426167 0.8521335 0.40954483 -1.264422
000210 c1 ed 9c bf 5b 11 8f c0 f9 72 0a 3f ab c4 7d bf
       -1.2260057 -4.4708686 0.54081684 -0.99128217
000220 eb 91 05 c0 fb 22 26 c0 3e b6 41 c0 f4 2d 30 c0
       -2.0870311 -2.595885 -3.0267482 -2.7528048
000230 0a 34 6c 3b 40 c0 09 3f 30 76 96 3f 5a 3f fa 3c
       0.003604176 0.53808975 1.1754818 0.030547787
000240 a0 38 08 3f 71 3b c4 3f 1a 3e 9d 3e 6c 55 44 40
       0.532114 1.533064 0.30711442 3.0677137
000250 bc dc 41 40 6b 02 20 3e a0 b7 6f 3e f9 1b d1 3f
       3.0290976 0.15625922 0.23409891 1.6336662
000260 1a 97 8e be 3a aa 2c 3f 12 b2 21 3f 55 48 10 c0
       -0.27849656 0.67447245 0.6316234 -2.2544148
000270 56 1b 15 40 ac b3 16 40 26 7a 3b 3f 0c 16 88 3d
       2.3297935 2.3547163 0.7323326 0.0664483
000280 f0 42 25 c0 fc 2a 18 be 57 85 68 bf e3 10 46 3f
       -2.5822105 -0.14860147 -0.9082846 0.7736952
000290 7e f0 de 3f 95 29 0c c0 77 58 a0 bf 2c d5 43 bf
       1.7417142 -2.190038 -1.2526997 -0.7649715
0002a0 d8 03 01 c0 13 c4 f5 bc 54 a0 f6 3d ca ce 0b be
       -2.0158596 -0.030000722 0.12042299 -0.13653103
0002b0 ea 17 35 bf 78 81 1a c0 d4 22 aa 3f 5f 9c 2a 3f
       -0.70739615 -2.4141521 1.3291879 0.66644853
0002c0 10 ec 2a bf 6f cb b3 be 8d d6 bd bf 68 a4 e7 be
       -0.6676645 -0.35116145 -1.4831101 -0.4524262
0002d0 64 13 1b 3f df 31 88 bf b9 24 a1 be 7f 7a b4 bf
       0.6057646 -1.064022 -0.3147333 -1.4099883
0002e0 cd 8a ea bf 23 16 df bc 3c aa a9 bd a7 8f 8c bf
       -1.8323609 -0.027232235 -0.08284423 -1.0981339
0002f0 4e 6f 05 3f b7 97 22 bf 33 39 c9 3f 40 63 bb 3f
       0.5212296 -0.6351275 1.5720581 1.4639664
000300 f7 05 1b 3f 1e 78 a6 3f a5 34 11 3f d0 87 7d 3f
       0.60555977 1.3005407 0.56720954 0.9903536
000310 dd c9 0a 40 ee 37 c0 be d5 f8 c5 3e 21 08 dd be
       2.1685708 -0.3754267 0.38666406 -0.43170264
000320 ff 9f ea 3f c7 11 14 c0 41 db b6 bf fd 8e 43 be
       1.8330077 -2.313585 -1.4285661 -0.19097514
000330 9a d9 f4 be e5 22 d3 3e fb 8a fd bd 8d 0a 84 3e
       -0.47822267 0.4123756 -0.12380024 0.257893
000340 46 ad 9b bf 5f 0d 04 3f a0 65 9e bf 4f 31 79 bf
       -1.2162254 0.515829 -1.2374763 -0.97340864
000350 93 d3 e4 3e 3c 0f b0 be 8a 40 83 3e b9 e7 8e 3f
       0.44692668 -0.34386623 0.25635177 1.1164466
000360 6c 62 a0 3f f2 fc f9 bf f7 82 9f 3e e0 9c 80 3f
       1.2530036 -1.9530318 0.31154606 1.0047874
000370 46 70 8b 3e a3 19 89 bd ff d5 da 3d cc 05 23 c0
       0.27234095 -0.06694343 0.10685348 -2.5472288
000380 81 d4 c4 3e 67 42 c0 3e 01 a3 10 bf 05 a2 ee bf
       0.38443378 0.3755066 -0.56498724 -1.8643194
000390 f1 82 b7 3f f5 ce a2 3e 3d f5 dc be a9 5a 8f be
       1.4336835 0.3179852 -0.43155852 -0.27998856
0003a0 e6 b0 00 c0 44 b6 f2 be b1 29 82 3e 8b 36 49 bf
       -2.010797 -0.47404683 0.25422433 -0.7859885
0003b0 9b bb 21 c0 a5 69 1a 3d b0 72 0a bf 75 fb ce bc
       -2.5270755 0.037698407 -0.5408125 -0.025266388
0003c0 a0 fb bb bd 81 d3 b3 bf a8 fa 30 be
       -0.09178853 -1.4048921 -0.17283118

encoder.self_attn.in_proj_bias f4 [27]
000000 b6 f3 04 40 6b 0f 9b 3f bc 9f 96 bf 68 25 c7 be
       2.077375 1.211408 -1.1767497 -0.38895726
000010 92 5f c5 3f fa ea 40 bf c7 da eb 3e 7e 06 9a 3d
       1.5419791 -0.75358546 0.4606535 0.075207695
000020 bd 37 9d bf 1f ca 88 3e 14 0e 26 bd 14 fe 1d be
       -1.2282635 0.26716706 -0.04054077 -0.15428954
000030 99 6f 95 3d 3a ef 3c 3e a6 c4 e0 3c 42 54 18 3c
       0.07296676 0.18450633 0.02743752 0.009297432
000040 ea 02 a3 3d 53 87 c8 3c 26 86 6e be ff 1a 9e 3d
       0.0795954 0.02447859 -0.23293361 0.07719993
000050 69 7d bc 3e 00 38 5c bf fd b6 8a 3e 19 78 34 3f
       0.3681443 -0.8602295 0.27092734 0.70495754
000060 2c 7d 2b 3f ed 94 c0 3d cb eb 95 3d
       0.6698787 0.09403405 0.073203646

encoder.self_attn.out_proj.weight f4 [9, 9]
000000 84 5c 55 3e b0 be 3f be 58 e8 a5 be 0c f7 6a 3f
       0.20836073 -0.18725085 -0.32403827 0.91783214
000010 0b 20 84 be 33 9a e4 bd 3b 73 25 bf 34 74 bb bd
       -0.25805697 -0.11162224 -0.6462895 -0.09153023
000020 d5 0b 00 3d d7 a9 b0 bd 24 8e cb 3d 54 6f 49 3e
       0.031261284 -0.086261444 0.099392205 0.19671375
000030 b6 36 33 bf 48 5a c0 be 63 8d b1 be 12 0d 20 3f
       -0.7000536 -0.3756888 -0.34678182 0.62519944
000040 53 73 9c 3e e0 a3 02 3f d0 99 cf 3e 1a 2b 86 be
       0.30556735 0.51031303 0.40547037 -0.2620476
000050 2e 8d 17 3f 47 aa dc bf df e6 60 3f 8c cc 16 3f
       0.591998 -1.7239465 0.8785228 0.58905864
000060 5c 47 96 3f 93 eb 58 be 5f d1 c8 be 8a 12 2d be
       1.1740527 -0.21183614 -0.39222237 -0.16901603
000070 26 58 00 3f ed 2f 65 3f 53 e6 9e bf 4f 20 0e bf
       0.50134504 0.89526254 -1.2414039 -0.5551805
000080 a8 5b 0d be db d7 9f 3f 9f 86 1a 3f ea 6d 6a 3f
       -0.13804495 1.2487749 0.60361665 0.91573966
000090 48 55 c3 3c 78 3b 0f bf 56 c7 10 3f 0f e3 1c be
       0.023844376 -0.5595012 0.5655416 -0.15320991
0000a0 69 fd 43 3f d8 3e e5 3e 5b 69 7a 3e 78 3c 48 bf
       0.7655855 0.44774508 0.24454252 -0.7821727
0000b0 1d c6 7a bf 4c ca e9 bd 20 6c 98 be 15 9e a2 be
       -0.97958547 -0.11415538 -0.29769993 -0.31761232
0000c0 3b 6a e1 3e 59 35 48 bd a7 9a ea be 8d c7 b4 be
       0.4402636 -0.048879 -0.45821115 -0.35308495
0000d0 47 24 10 be c5 c0 a3 3c 06 61 3b 3e 5f 24 15 be
       -0.14076339 0.01998938 0.1829873 -0.14564656
0000e0 5e a5 3b be 00 2f 95 3f 34 56 7d be 7a 0d 47 3e
       -0.18324801 1.1654968 -0.24739915 0.19438735
0000f0 17 6d 52 bf ee 66 c2 be ec 92 65 3d 13 0e 40 bf
       -0.8219771 -0.37969154 0.05604832 -0.75021476
000100 0d 36 1e 3f 9d 41 45 bf 90 ed 85 3f 70 c6 40 bf
       0.61801225 -0.7705324 1.0463123 -0.7530279
000110 6e ab 41 bf 03 f2 14 bf 85 8a 2b 3f 69 9d 13 3f
       -0.75652206 -0.5818178 0.6700824 0.57662064
000120 62 d6 84 3f 7d 96 b8 bf a5 9d 17 3f 42 9f a1 be
       1.0377924 -1.4420925 0.5922492 -0.31566817
000130 f4 a6 2a 3f 99 44 ab 3f e2 4c 0c 3e 6c d4 b0 bf
       0.66661 1.3380309 0.13701203 -1.3814826
000140 5e 34 8a bf
       -1.0797231

encoder.self_attn.out_proj.bias f4 [9]
000000 62 04 00 3e b9 df b2 3e fd 46 34 3f 03 6f 26 3d
       0.12501672 0.34936312 0.7042082 0.040633213
000010 29 6a 76 3e 85 bf dc be 8c 49 09 3e 89 42 93 bf
       0.24063934 -0.43114868 0.13406962 -1.150468
000020 97 5b 76 3f
       0.96233505

encoder.linear1.weight f4 [64, 9]
000000 16 2e 07 bf ea 7a 82 3e 07 2c a2 3e 58 16 16 be
       -0.52804697 0.254844 0.31674215 -0.14656961
000010 a5 fb 93 3e 2f d4 6f 3f c7 1e bd 3e 22 e8 df 3e
       0.28902927 0.9368314 0.36937544 0.4373179
000020 27 9f 19 bf e9 41 1a bd c4 e2 2b 3f df 21 82 3e
       -0.6000847 -0.037660513 0.6714289 0.25416467
000030 08 96 bb 3d 5f 7e a1 3e af d2 9d 3e b1 0d 8d 3e
       0.091594756 0.31541726 0.308248 0.27549508
000040 81 e7 ac 3e 26 f8 62 be 64 6e 20 be a1 8b 0f be
       0.33770373 -0.22164974 -0.1566711 -0.14018108
000050 49 6d c4 bd 57 81 52 3e 2e 06 a6 3c 42 01 9c 3e
       -0.09591157 0.20557152 0.020266619 0.3046971
000060 59 48 0f 3e f6 5c 31 3e 6b 7d 0e be ef fb 99 3e
       0.13992442 0.17320618 -0.1391503 0.30075023
000070 14 26 17 bd 73 97 21 3f e1 92 fb 3e 0f 4d 28 be
       -0.03690155 0.6312172 0.49135497 -0.16435646
000080 f4 6c 21 3e e0 e7 a1 3e 77 09 25 3f 8a 07 19 bf
       0.15764219 0.3162222 0.6446757 -0.5977713
000090 fb 9b 88 3e 0c d4 2e bf 16 95 2b bf 5a 7a 90 3e
       0.26681504 -0.6829231 -0.6702436 0.28218347
0000a0 87 d2 07 bf 86 fb 65 be d1 a6 be bd 54 24 23 bf
       -0.53055614 -0.2245923 -0.093091615 -0.6372731
0000b0 03 7f 80 3f ce 16 7d be 08 47 ec be 4e cd 13 40
       1.0038761 -0.2471573 -0.46147943 2.3094058
0000c0 ca 6b d6 3f a4 2d 1c 3e 93 5d 94 bf 20 ab e1 bf
       1.6751645 0.15251786 -1.1591057 -1.7630348
0000d0 34 a8 74 bf e2 07 e6 3e 74 4e 11 3e d8 74 0c 3d
       -0.9556916 0.4492789 0.14190084 0.03429112
0000e0 8d 61 93 3e 80 b0 9b 3d e4 2d 67 be 4b 3c c9 3e
       0.28785363 0.07602024 -0.225761 0.39303812
0000f0 56 cd f3 3e 2f b6 ec 3e 99 5e 1b bf 6d 33 0a 3e
       0.47617596 0.46232745 -0.6069122 0.1349618
000100 2f 70 da bd df d9 78 3e 4b 96 99 3a 2d 17 b0 be
       -0.106659286 0.24301861 0.0011717764 -0.34392682
000110 f1 85 da 3d f7 e8 f7 3e 9f 15 ba 3e 5e dd 1a bf
       0.106700785 0.48419926 0.3634462 -0.6049403
000120 f8 61 90 bd aa 3d 2e 3f 2f d0 b5 3e 46 56 f7 3e
       -0.07049936 0.6806284 0.35510394 0.4830801
000130 fd d9 14 be 0e 6f 3b 3e 82 e6 79 3e 0f 0f 8f 3e
       -0.14536281 0.18304083 0.24404338 0.27941176
000140 fb f3 86 be 51 d6 12 be d4 d3 73 bf 2d af 77 bf
       -0.26358017 -0.14339568 -0.952451 -0.9675167
000150 f8 cc 80 bf 2e fb 8e bf c5 7d 23 be 30 3f 11 be
       -1.0062551 -1.1170404 -0.15965946 -0.1418426
000160 d6 91 8d bf 2d 0f b8 3f 07 38 e0 be 66 58 29 3f
       -1.1060131 1.4379631 -0.43792745 0.6615051
000170 71 6b a1 3e 9a 92 37 3e 07 2b 1f bc 72 c3 1a 3f
       0.31527284 0.17927018 -0.009714848 0.60454476
000180 5a 64 16 3e c8 54 98 3e 77 e7 cf be 89 d3 b8 3d
       0.14686719 0.29752183 -0.4060628 0.09024722
000190 62 52 03 3f eb 7b 96 3f f6 ad d8 3f 08 b0 47 3c
       0.5129758 1.1756567 1.6928089 0.012187965
0001a0 47 7b ac bf ee 33 ff bf 6a 9f 55 bf e1 39 1c 3f
       -1.3475121 -1.9937723 -0.8344637 0.61025816
0001b0 c6 39 db 3e ea b8 3d 3f d0 6e 0c bd 76 d1 29 3f
       0.42817515 0.7411028 -0.034285367 0.6633524
0001c0 74 aa b5 3e 6f f3 bc be b3 b2 ad 3e a4 06 0f 3f
       0.35481608 -0.36904475 0.339254 0.5586951
0001d0 8e fb 66 be 4b 82 80 3e 19 36 c2 3e 98 87 c0 3e
       -0.22556898 0.25099406 0.37931898 0.3760345
0001e0 24 ff 78 3e 90 93 12 3f aa 01 88 3f 65 5d 6f be
       0.24316078 0.5725641 1.0625508 -0.23375471
0001f0 63 3f 19 3f 31 de 81 bf 66 e4 82 3d d8 d7 18 be
       0.59862345 -1.0145932 0.0639122 -0.14926088
000200 85 71 4a 3d 55 92 9b 3f 7a 3a 13 bf ff 2f de 3f
       0.049424667 1.2154032 -0.57511103 1.7358397
000210 d9 83 60 3e 8c d8 a7 3e a8 9e b4 bf df 9b 75 3e
       0.21925296 0.327824 -1.4110918 0.23985241
000220 fd 5a a3 bf d5 80 6a bf f5 22 c9 bf cb 13 b2 bf
       -1.2762142 -0.9160283 -1.5713793 -1.391229
000230 0f 64 5a be fc cf 08 3f fb 31 c3 3e 09 93 2b 3f
       -0.21327232 0.5344236 0.3812407 0.6702123
000240 65 e0 28 bf 4b 09 0d 3f df 8d c6 be 65 00 4c 3f
       -0.659674 0.55092305 -0.38780114 0.796881
000250 3f 83 7d 3f d6 27 30 3f d4 f9 d7 bd ec 4e 8f 3e
       0.9902839 0.68810785 -0.10545698 0.279899
000260 1e 1f 94 be 33 c9 de bf a5 25 57 c0 16 27 29 c0
       -0.2892999 -1.7405151 -3.3616726 -2.6430106
000270 a2 a3 8e c0 bd 16 47 bf e5 fc d3 bd 3b 78 ab 40
       -4.4574747 -0.7776907 -0.1035097 5.3584266
000280 f7 55 97 bf a9 a4 eb 3f a5 5e 41 bf 3f 64 8a 3e
       -1.1823109 1.8409625 -0.7553504 0.27029607
000290 12 5c 07 3f e4 4b 03 3f d0 f8 bc 3e 91 fa 9f 3d
       0.52874863 0.51287675 0.3690858 0.078114636
0002a0 1d a8 23 3f 64 f3 e0 3d 90 b4 5c bf 50 8c 1f be
       0.63928396 0.10983923 -0.86213017 -0.15580869
0002b0 dc ba 2c 3e 2b 68 3d 3e dc ee ee 3d 82 5b f9 3c
       0.16868156 0.18496768 0.116666526 0.030439142
0002c0 0a 1b 8f 3e 50 67 ab 3d 41 c4 7e 3e 79 63 d6 be
       0.27950317 0.08369315 0.24879552 -0.41872767
0002d0 4f 2e 38 be bb 3c 1c ba 1e 7b 47 3e cd 37 25 3e
       -0.17986415 -0.0005959977 0.19480559 0.16134568
0002e0 34 0c d7 3e e8 69 dd 3d 28 03 22 be 7b 19 95 3e
       0.42001498 0.10811216 -0.15821517 0.29121003
0002f0 f6 0f 82 be 77 42 30 bf 30 aa ee be ed eb 7d bf
       -0.25402802 -0.6885142 -0.46614218 -0.9918812
000300 eb 75 a5 3e e3 db 0a be 4e 89 31 bd 06 13 d6 3d
       0.32316527 -0.13560443 -0.043343835 0.10452847
000310 92 23 91 be 31 80 6b 3f 54 00 be 3e 59 ab e8 3e
       -0.2834745 0.9199248 0.37109625 0.45443228
000320 e6 c5 c4 3d dd e7 9a 3e 7b 7d 14 3f a1 55 19 be
       0.09608059 0.30255023 0.5800397 -0.14974071
000330 6c a4 12 3f 92 99 ff 3e 66 5c 1a be 3a 20 28 3f
       0.5728214 0.49921852 -0.1507431 0.65674174
000340 de 2f aa bf c6 82 3d bf bb 6c 5f be ec 48 bf bf
       -1.3295858 -0.7402767 -0.21818821 -1.4944129
000350 4c a6 59 3f 34 d7 9b be ed e1 5a bf b0 0f 70 3f
       0.85019374 -0.30437624 -0.85500985 0.9377394
000360 7d 0b 2a bf 79 40 b5 bf f8 c6 90 bf 84 86 ec 3d
       -0.6642378 -1.41603 -1.131072 0.11549094
000370 fe 88 8d bf 25 66 96 be 96 9f d1 bd ab 30 5c bf
       -1.1057432 -0.29374805 -0.10235517 -0.8601176
000380 7b 86 83 3f e9 3a ee 3e 05 f8 a4 3e c3 7b 21 3f
       1.0275415 0.4652932 0.32220474 0.6307947
000390 39 0c 4f bd 5a f4 6b 3f f8 bd 9a 3e 12 fd ee 3e
       -0.050548766 0.92169726 0.3022306 0.46677452
0003a0 46 2b 45 3f 55 69 d1 be 4e fa 8c 3d 1e e2 12 3f
       0.77019155 -0.40900674 0.06883679 0.5737628
0003b0 cc b8 93 3e ce 4f fc 3e 24 b6 38 3e 36 f4 80 3f
       0.28851926 0.49279636 0.18038231 1.0074527
0003c0 cf d9 2c be d3 28 27 3f 9d 42 81 bf 9d e1 41 bf
       -0.16879962 0.6529667 -1.0098454 -0.75734884
0003d0 1b 12 39 3f 9f 06 7e 3b 2a 10 87 3f 9b c4 3a 3f
       0.7229325 0.003876127 1.0551808 0.72956246
0003e0 0a a4 4d be 8b 4e 0d 3f 41 97 45 3e 43 db b3 3a
       -0.20082107 0.5519797 0.1929598 0.0013721961
0003f0 e6 06 ee bd dd 71 15 3e 02 fd f8 3e 8f 5e 6d 3e
       -0.116224095 0.14594217 0.4863053 0.23180602

encoder.linear1.bias f4 [64]
000000 3a d5 b8 be 20 08 77 be f3 d5 02 bf 49 e2 e3 be
       -0.3610018 -0.24124193 -0.5110771 -0.4450858
000010 18 55 68 3f 99 65 2b 3f 7b a2 12 bf 29 e1 f7 be
       0.9075484 0.669519 -0.57279176 -0.4841397
000020 e8 81 fe be 4f 6d 98 3f 2d e3 a0 be 03 85 3f 3f
       -0.49708486 1.1908358 -0.3142332 0.74812335
000030 ea 6e c7 be bb 13 3c bf 06 4f 28 bf a9 c7 1c 3f
       -0.38951808 -0.73467606 -0.6574558 0.6124216
000040 14 c5 23 bf 70 a3 f7 3e 46 80 2f bf 49 27 0d be
       -0.6397259 0.4836688 -0.68555105 -0.13784517
000050 fd ca ff be ae f3 8b 3f 28 5c 82 be 48 f6 53 3f
       -0.49959555 1.093374 -0.25460935 0.8279767
000060 37 03 5e 3f 34 5b 29 be eb 52 34 bf cf 0c a8 3d
       0.86723655 -0.16538697 -0.7043902 0.08205568
000070 b0 21 32 bf 04 bc d0 bd 4b 54 ff 3e c2 35 b2 3e
       -0.69582653 -0.10192111 0.49868998 0.3480664
000080 ae 04 b6 3e d9 cb bc 3f dc 29 de 3e 8b 18 f6 3e
       0.35550445 1.4749709 0.4339131 0.480656
000090 45 01 09 bf a7 ab 28 be 18 55 11 3f 30 0b 29 bf
       -0.5351756 -0.1647173 0.5677047 -0.66032696
0000a0 54 b8 cd be c1 47 29 be f1 15 79 3f bb e7 38 be
       -0.40179694 -0.16531278 0.97299105 -0.18057148
0000b0 b3 87 94 3d 02 de fa 3e e6 91 7a 3e 36 4c c0 be
       0.07252445 0.48997504 0.24469718 -0.37558144
0000c0 7b 39 6b 3f 98 d8 c5 be df d4 ca be de 9d 3f be
       0.91884583 -0.3864181 -0.39615533 -0.18712565
0000d0 15 e0 c9 bd fe be 1b be 3a d3 f2 be d8 f4 35 3d
       -0.098571934 -0.15209576 -0.47426778 0.044422954
0000e0 1f 05 5b 3f 1e 74 a3 be 01 37 08 3f 0b 68 af 3d
       0.8555469 -0.31924528 0.5320893 0.085647665
0000f0 8d 20 10 bf 6c c4 e3 be 97 ab 2f bf cb c1 50 3c
       -0.5629967 -0.44485795 -0.686212 0.012741516

encoder.linear2.weight f4 [9, 64]
000000 bc c9 bd bd a7 ee c3 bc 28 9c 61 3e 0f 53 e7 3e
       -0.092669934 -0.02391751 0.22032225 0.45180556
000010 93 16 33 3f ca ef 5e bf d6 56 8b 3e b4 4f 4b 3e
       0.6995632 -0.8708464 0.27214688 0.19854623
000020 df 5f a5 3e 85 fa 3a 3f 41 16 5f be 86 2e 5d bf
       0.32299706 0.7303851 -0.21785833 -0.86399114
000030 31 3d c7 3e a9 8e 07 3e c7 20 b2 bf 19 77 31 be
       0.38913873 0.13238014 -1.3916253 -0.17330588
000040 f3 2e 8d bd 7e e1 36 bf 70 a4 70 be be f1 b2 bd
       -0.068937205 -0.71437824 -0.23500228 -0.08737515
000050 88 24 41 3e 81 7c 33 3f d3 2a 9f 3e c0 b0 bd 3e
       0.18861592 0.7011185 0.3108736 0.37048912
000060 32 50 52 3f ee 56 0b bc b7 ba 3e 3b ea e1 e0 3e
       0.8215362 -0.008504612 0.002910299 0.4392236
000070 b7 59 9f 3e 75 94 c5 3e a2 c0 15 be 6f 76 5c 3e
       0.31123134 0.38589826 -0.14624265 0.21529554
000080 03 15 a1 3e a1 26 1b 3f a4 e2 a6 3f 4f b2 c5 3e
       0.31461343 0.6060582 1.3037915 0.386126
000090 f2 65 14 3f 67 b6 2a 3f ea 1e 9a 3e a8 25 8b 3e
       0.57968056 0.66684574 0.3010171 0.27177167
0000a0 16 25 5d be 05 aa 2b 3d 3d 3e 5a 3f cd e8 40 3d
       -0.21596178 0.04191019 0.8525122 0.047097016
0000b0 e6 b4 56 bf ca 49 da be 45 c6 c3 3d 93 40 b0 be
       -0.8386978 -0.42634422 0.09559301 -0.34424266
0000c0 ef cc 6c bf 7f b2 bb 3d 1d 90 06 3e 82 ed cb 3d
       -0.92500204 0.09164905 0.13140912 0.099574104
0000d0 6a 06 8a 3e e8 89 ee bb 2b 03 94 3d b4 d0 8b 3f
       0.2695802 -0.0072796233 0.07227167 1.0923066
0000e0 c7 ad 3d bf e7 55 4a bc 61 6e 21 40 83 06 03 3f
       -0.7409329 -0.012349582 2.522362 0.5118181
0000f0 59 0d f6 3c ff 7d 92 bc a7 40 aa 3e e8 60 8f 3b
       0.030035662 -0.017882345 0.3325245 0.004375566
000100 88 6d 94 be 89 c1 f5 3d dc 12 ad be d6 72 12 3e
       -0.28989816 0.119998045 -0.3380345 0.14301619
000110 96 c5 69 bf df 53 b5 bf 46 6d eb 3e a6 e8 ac be
       -0.9131712 -1.416622 0.45981807 -0.33771247
000120 27 20 81 be 2a 31 97 bf 83 cf ad be 82 51 bf bf
       -0.25219843 -1.1811879 -0.3394738 -1.4946749
000130 da 5b de bd a2 fe 3c bf 6d 9c 8a bf 18 3a ea bf
       -0.10857363 -0.7382604 -1.0828987 -1.8298979
000140 38 f9 31 bf 32 2e 8b bf bf 68 aa bd a0 56 b9 bd
       -0.695209 -1.0873473 -0.0832076 -0.090497255
000150 2f 13 8c bc b0 a5 02 bf fa e1 09 3e 8d 3b ea bf
       -0.017098991 -0.5103407 0.1346511 -1.8299423
000160 04 9e 46 be 29 b5 95 be 48 ba 7d 3e c3 d4 04 bf
       -0.19396216 -0.29239777 0.24778092 -0.5188715
000170 50 b8 32 be 9b 74 82 bf c5 8c f7 bf 7e 2b fa be
       -0.17453122 -1.0191835 -1.9339834 -0.48861307
000180 e7 a7 a6 be 1f ad 9f bf 97 57 02 c0 3f 20 96 be
       -0.32549974 -1.2474707 -2.036596 -0.29321477
000190 05 75 33 be ae cd 24 bf 18 8e f7 bf ba d9 7d be
       -0.17525108 -0.6437634 -1.9340239 -0.24790087
0001a0 2c 68 2b be b1 0b 12 bf 58 fe 8c bf be 70 38 3d
       -0.16738957 -0.5704909 -1.101512 0.045029394
0001b0 b2 ef 95 bf ad 08 64 bf 9c 29 c6 be b6 c0 d2 be
       -1.1713774 -0.8907574 -0.3870362 -0.41162652
0001c0 79 22 c8 bf c7 05 e7 be ff 6e 95 be 21 2b 99 bd
       -1.563552 -0.45121595 -0.29186246 -0.07478929
0001d0 70 f8 19 be ec 00 64 bd 94 a9 40 bd 7c 9b 31 c0
       -0.15036178 -0.05566494 -0.047036722 -2.775115
0001e0 30 1e 09 c0 28 50 c9 3c 46 07 4b c0 4d 39 ff be
       -2.1424675 0.024574354 -3.172319 -0.49848405
0001f0 ad 85 4a be 48 60 62 3e 1d 4e 62 be a6 6e 21 bd
       -0.19777556 0.22107041 -0.2210011 -0.039412163
000200 19 ef f6 3d 47 0b 1c bd 22 be aa be d2 85 dd 3e
       0.12057323 -0.038096692 -0.33348185 0.4326616
000210 f2 73 08 be 3d f5 15 bf e2 33 8c 3e 3c e0 a9 3e
       -0.1332548 -0.5857733 0.27383333 0.3317889
000220 93 a9 9b be 58 99 19 bd 8b d4 d7 3d ce e3 53 bf
       -0.30402812 -0.037499756 0.10538586 -0.8276948
000230 62 76 a6 3e 27 e3 d7 be 25 17 91 bf 29 05 7d 3f
       0.32512194 -0.4216549 -1.1335188 0.98836
000240 5a f1 b0 3e b1 71 19 40 1c 88 12 bd c8 22 04 3e
       0.34559137 2.3975642 -0.035774335 0.12903893
000250 49 19 42 3e 31 0e ff 3e af ae 18 3e c9 7b 18 3f
       0.18954958 0.49815515 0.14910387 0.5956388
000260 94 cc 4b 3f 66 a3 07 3f 61 6d 24 bf 08 a0 22 3f
       0.79609036 0.529837 -0.642294 0.6352544
000270 89 a8 b1 be 2e 1c 5a 3e 00 35 85 3f 66 3f 2e 3e
       -0.34698895 0.21299812 1.0406799 0.17016372
000280 ea 7a 5d 3d c8 62 6b 3e cc d8 87 3d 21 0c a5 3f
       0.054072298 0.22986901 0.066331476 1.2894326
000290 35 0f b5 3c 31 1b 11 3f 43 77 06 be 01 b9 5c be
       0.022101978 0.56682116 -0.13131432 -0.21554948
0002a0 d7 2f 7b 3e 0e f1 13 3e 91 c6 68 be ee 68 c5 bd
       0.24529968 0.14447424 -0.22731997 -0.096391544
0002b0 f6 0b 43 40 2f 1e 0f 3f c1 f1 78 3e 59 28 2c bf
       3.047605 0.5590543 0.24310972 -0.67249066
0002c0 de 3e eb be e4 88 ce 3e 35 f1 92 3e 8c 89 aa 3d
       -0.459464 0.40338814 0.2869965 0.08327016
0002d0 75 e6 6a be db 41 3a 3e 63 e8 f3 3d 51 28 00 40
       -0.22939475 0.18189184 0.119095586 2.0024607
0002e0 4d 34 dd bf c9 5f 1c be 2d 6c 23 bf 4a e7 73 3e
       -1.7281586 -0.15270914 -0.6383694 0.23818699
0002f0 f2 46 60 3d 01 09 58 be c2 14 5a 3d f6 97 3f 3c
       0.05475516 -0.21097185 0.053242452 0.011693945
000300 0d 79 bb be 99 3c 29 be 0a 82 67 be fb 97 bd be
       -0.36615792 -0.16527022 -0.226082 -0.37030014
000310 ec 98 70 bf 19 e6 49 c0 d1 1b a3 be 0d af c0 be
       -0.9398334 -3.154669 -0.3185716 -0.37633553
000320 07 e7 ab be 4c 39 d6 bf 34 5c 2e be ba 43 4b c0
       -0.33574697 -1.6736236 -0.1702736 -3.1760087
000330 a4 d8 c5 be 2b a6 f6 be ae 78 24 bf 6e 7b 4e c0
       -0.38641846 -0.4817365 -0.6424664 -3.2262836
000340 0b 7d 49 bf 99 ea 44 bf 8d da 0c 3e 30 f4 c9 3e
       -0.78706425 -0.7692047 0.13755246 0.39444113
000350 53 93 09 be 52 8c aa bf 3c f9 bb 3c 36 4c 05 c0
       -0.13435106 -1.3324072 0.022945993 -2.0827765
000360 cc 0c f4 bf ef 1c 97 bf fd e6 11 bf 00 87 21 bf
       -1.9066405 -1.1805705 -0.56993085 -0.6309662
000370 b2 ed ca be f0 e7 bd bf 51 08 c4 be 7e a5 06 bf
       -0.39634472 -1.4836407 -0.38287595 -0.5259627
000380 34 0d 1e bf b9 d1 0a c0 27 89 17 3d 8e 47 1b c0
       -0.61738896 -2.1690505 0.036996033 -2.4262424
000390 78 7d 1e bf 44 0d 5e bf 8e b8 b8 bf af a6 5c bd
       -0.619102 -0.8673899 -1.4431322 -0.0538699
0003a0 2f c5 64 bd 9c 68 36 bf 6b a0 db bf d1 03 15 3e
       -0.05585211 -0.7125337 -1.7158331 0.14552237
0003b0 3e 7b 88 bf 10 3b be bf 64 f9 30 be 83 ba 81 bf
       -1.066261 -1.4861774 -0.17282635 -1.0135044
0003c0 3e b1 45 c0 8a 2a 1b bf e5 63 0b bf 2d 41 15 3c
       -3.088943 -0.60611784 -0.544493 0.009109777
0003d0 3b 61 01 bf 9b 40 35 be 1e 28 c8 bb 6a ba 5e c0
       -0.50538987 -0.17700426 -0.006108298 -3.4801278
0003e0 dd e7 6a c0 c5 df 4e 3e c1 18 96 bd 16 e4 ee be
       -3.6704018 0.20202549 -0.0732894 -0.4665839
0003f0 be a7 8c bd 95 49 9d bd e0 25 c0 be 1f 34 4c be
       -0.06867932 -0.0768005 -0.37528896 -0.19941758

encoder.linear2.bias f4 [9]
000000 d3 6b 3c 3f 9b 48 4c bf 49 bd 8f be 63 1a 8c bf
       0.73602027 -0.7979829 -0.280741 -1.0945553
000010 48 5d 86 bf 72 c0 8c bf 79 bf 34 3e 90 48 b2 be
       -1.0497217 -1.099623 0.17651166 -0.34820986
000020 78 8c 17 3f
       0.59198713

encoder.norm1.weight f4 [9]
000000 b6 57 22 be 7f da 0e 3f d6 6e 97 3f 95 99 95 3f
       -0.15853772 0.5580215 1.18307 1.1687495
000010 14 35 80 be c2 9d 41 3e 58 96 d0 3e 0c 4c f6 3f
       -0.25040495 0.18907836 0.40739703 1.9241958
000020 6a 2a 03 40
       2.0494637

encoder.norm1.bias f4 [9]
000000 e1 f6 27 be 30 40 96 be 89 87 9f 3e 0a 35 e3 be
       -0.1640277 -0.29345846 0.31158093 -0.44376403
000010 f2 b4 61 3d 0e be bd be 37 50 e1 bd e4 37 8b bf
       0.055104204 -0.37059063 -0.11001628 -1.0876431
000020 49 b1 88 3f
       1.0679103

encoder.norm2.weight f4 [9]
000000 fe d3 84 3f 2f 25 76 3f e9 2c 9f 3e ac 14 14 3f
       1.0377195 0.9615049 0.3108895 0.5784404
000010 ac 31 71 3f a7 fe d0 3d a6 08 ee 3e f3 85 c8 3d
       0.9421642 0.10204821 0.46490973 0.09791174
000020 3f 16 88 3f
       1.0631789

encoder.norm2.bias f4 [9]
000000 8a e2 03 3f 7d 37 87 bf ed 2b 06 bf a7 39 20 bf
       0.51517546 -1.0563809 -0.52410775 -0.6258797
000010 ac 58 83 bf 4d 85 df be fc e9 21 bf 7a 56 01 bf
       -1.0261436 -0.43656388 -0.63247657 -0.5052258
000020 b6 35 01 3f
       0.5047258

l2.weight f4 [18, 2880]
000000 f4 a3 9d 3d ca 6b a1 be d4 ef 17 bf 22 cb 80 3e
       0.07697287 -0.3152755 -0.59350324 0.25154978
000010 51 21 8e 3e df 26 86 be 6d 74 17 bf 0e 4c c9 3e
       0.27759793 -0.2620153 -0.59162027 0.39315838
000020 8d fe 01 bd ad 64 1b 3d 77 fa e0 be bc 5e 21 bf
       -0.0317369 0.03793781 -0.4394109 -0.6303518
000030 2f 28 c8 3d 29 ae 66 3e a0 0c 2c 3e f4 54 a8 bf
       0.097732894 0.22527374 0.16801691 -1.3150926
000040 e0 25 c1 3e 62 8d 1f be e1 70 f2 bd 2f 63 2c bf
       0.3772421 -0.15581277 -0.11837936 -0.6733884
000050 23 87 06 bf 9f a1 84 3e 2c d4 c2 bd 9f 0d ba 3c
       -0.5254995 0.25904557 -0.09513125 0.022711573
000060 64 9a d0 3d b6 c0 be bc 4e 43 63 be 00 2d b5 be
       0.10185698 -0.023285251 -0.22193643 -0.35385895
000070 ff 63 11 bf ce 92 03 3e c7 ff 6e 3e 05 dc 4d 3e
       -0.56793207 0.1284897 0.23339759 0.20103462
000080 2a 02 b9 3e ab 25 44 bf fa 5f ee bd 80 16 d5 bd
       0.36134464 -0.76619977 -0.116394 -0.10404682
000090 2a 9c 03 3d d7 d7 a7 be d3 ad 25 bf 9d b8 51 3e
       0.03213135 -0.3278186 -0.6471836 0.2048058
0000a0 6b 6a 88 3e ed a1 4a 3f 32 3b 7f bf 12 ed a7 3e
       0.2664369 0.7915333 -0.996997 0.32798058
0000b0 30 ee d3 bd 7a 5b 04 be 6b 0b ec be a8 6a 44 3d
       -0.10348165 -0.1292552 -0.4610246 0.047953278
0000c0 d2 41 2d 3e 15 9f b1 3e ef 3b a2 bd 41 af 81 3e
       0.1691964 0.34691682 -0.07921588 0.2532902
0000d0 ec 70 bc 3d 90 6a 66 be 57 5c 6a 3d 29 6a d9 3d
       0.09201226 -0.22501588 0.05721697 0.106159516
0000e0 5d 57 17 bf 00 47 59 3e cc 2f 7a 3e 78 5c 0d be
       -0.5911768 0.2121849 0.24432296 -0.13804805
0000f0 91 fb 10 bf 16 2b 13 3f 56 e7 af bc 64 21 59 3d
       -0.5663386 0.5748762 -0.021472614 0.05301036
000100 5c 65 13 bc b7 ca 07 bf 75 d5 44 3e a9 95 35 3e
       -0.008996334 -0.53043693 0.19222052 0.17732872
000110 8b 93 a4 bd a1 57 21 bf 39 ca 1d 3f f4 1a 16 3e
       -0.08035954 -0.63024336 0.6163669 0.1465872
000120 23 2a 75 3d 07 a4 f2 3d 8a 7c 16 bf f5 41 ce 3d
       0.059854638 0.11847692 -0.5878378 0.10071174
000130 13 b3 a9 3e 1e 69 ea bd de 1a 03 c0 f3 93 0f 3f
       0.33144435 -0.11445831 -2.0485148 0.5608513
000140 99 f0 ab be ba 0a 77 bd 82 28 9c be 88 26 9f 3d
       -0.33582 -0.060312964 -0.30499655 0.07771021
000150 47 af 37 3d 5a a9 6f 3e d6 4d 38 3f b7 c3 da bf
       0.044844892 0.23404446 0.7199377 -1.7090977
000160 50 60 8f 3d e7 f0 3d be 74 b7 ce 3d 1d d3 a9 bc
       0.07000792 -0.18548928 0.10093585 -0.02073055
000170 48 fc 10 bf 64 c4 3b 3e 2a 2b 41 3e 1f 24 83 3e
       -0.5663495 0.18336636 0.18864122 0.25613496
000180 0f 00 58 bf 9f a3 f6 bd 50 f0 03 3d 62 8f 88 be
       -0.8437509 -0.12042927 0.0322116 -0.26671892
000190 c3 42 7f 3e ee d1 a5 3d 2e 74 ca 3e b7 dc d5 3e
       0.24927811 0.080966815 0.39541763 0.41769955
0001a0 60 66 ce 3c 53 81 81 bf 7d 2f ea be 77 91 94 bd
       0.0251953 -1.0117592 -0.45739356 -0.07254308
0001b0 71 c1 cd 3d 84 24 36 3f 20 9a 14 bf df 99 f0 3e
       0.10046662 0.7114947 -0.58047676 0.46992394
0001c0 9a 07 82 3e 43 28 78 be 72 8e ec bd c9 84 a0 be
       0.25396425 -0.24234109 -0.11550607 -0.31351307
0001d0 43 bd 38 3e 5c 23 5d 3d f8 d8 df 3e 51 74 22 bf
       0.18040948 0.0539888 0.43720222 -0.63458735
0001e0 bf 58 cc 3e 03 7c 2b 3e 7a f2 fb 3e ea 78 60 bf
       0.39911458 0.16746525 0.49208432 -0.876845
0001f0 22 37 5e b9 f2 66 1a be 90 db 8e bc d6 db 32 be
       -0.00021192108 -0.15078333 -0.01743868 -0.17466673
000200 7e 5d 12 bf a9 c8 0d 3e 71 e3 0b bd 67 58 78 be
       -0.5717391 0.13846077 -0.034152452 -0.24252473
000210 a3 19 e9 3e c7 12 4d be 3f d2 81 bd 34 5b 7d bc
       0.45527372 -0.20026694 -0.063389294 -0.015463639
000220 48 6f bd be d0 17 a4 3e b5 5c 95 3e 75 72 5b 3e
       -0.36998963 0.32049417 0.29172292 0.2143038
000230 07 44 64 be 7b 0b 54 be 59 3b 0a 3d a6 82 59 be
       -0.22291575 -0.20707504 0.033748005 -0.21241245
000240 03 a1 f8 3d 59 c4 d8 3d 35 30 fc be 8f 66 7c 3e
       0.121400855 0.10584325 -0.4925553 0.24648498
000250 b4 9f 8b 3e 77 64 b0 3d 74 24 8a 3e 07 1c 6e 3d
       0.2727028 0.08612912 0.26980937 0.058132198
000260 12 14 e4 3c 1e 9f 66 be b5 0e aa 3e 31 04 10 bf
       0.027841602 -0.22521636 0.33214346 -0.56256396
000270 a1 ed a4 3e f3 d7 9b 3e 50 e9 88 be 9e 0f 0f 3d
       0.32212546 0.30438194 -0.26740503 0.034927003
000280 69 12 6a 3e a1 77 63 be de 13 b3 3d 0e ab 69 3e
       0.22858585 -0.22213604 0.08744024 0.22819158
000290 7f 59 25 bf d6 4e 67 3e bb 3c 9e 3e ad 5b 9c be
       -0.64589685 0.22588667 0.3090571 -0.30538693
0002a0 8f 90 90 3e 6b 89 d0 3e d1 fe 95 bd dc 0d 13 bf
       0.2823529 0.40729842 -0.07323993 -0.5744302
0002b0 5f 30 a3 3e 9d 2c 6b 3e 8c 6d ae 3e 61 bf 32 3d
       0.31872842 0.22966237 0.34067953 0.043639544
0002c0 f0 d4 f5 3e e8 1f 46 3f 23 cd 74 3e 9a d0 e5 be
       0.4801402 0.77392435 0.23906378 -0.44885713
0002d0 fa c5 01 3d 83 a2 73 bb 8a 7a fd be 42 27 8d 3e
       0.031682946 -0.0037175722 -0.49507552 0.27569014
0002e0 c8 6e c9 3d d9 83 c6 3e 63 8b 5a 3e 05 b7 18 3e
       0.09835583 0.38772467 0.21342234 0.14913566
0002f0 f2 c6 4e be 85 70 47 3d e9 5b ef 3d 8b fc 26 bf
       -0.20193079 0.04869129 0.11687452 -0.652291
000300 d3 72 1c 3d 00 c0 91 3d da 04 a3 3e 22 3d 5a 3f
       0.038195442 0.07116699 0.3183964 0.8524953
000310 1e 2e 44 be cb 06 f8 bd 6f 62 84 3c ce 14 8a 3e
       -0.19158217 -0.12110671 0.016160218 0.26968998
000320 16 12 0d bf b9 94 9c 3e b1 f6 93 3e 75 69 09 3e
       -0.5510572 0.30582216 0.28899148 0.13419135
000330 c8 81 13 3f f1 88 46 3e c0 97 04 be ab 67 b5 3d
       0.57619905 0.19388177 -0.12948513 0.08857664
000340 6e 84 fb bd 28 91 2c bf 97 3f 7b 3e 2c f5 75 3e
       -0.12281118 -0.6740899 0.24535976 0.24019307
000350 f2 f7 85 3d 7f b4 08 bc a7 10 dd 3e 4e 91 2b be
       0.065414324 -0.008343815 0.43176767 -0.16754648
000360 33 bd 15 3e d7 6e e8 be 7a 54 10 bf 49 34 81 3c
       0.14622955 -0.45397064 -0.563789 0.015772002
000370 c6 07 d1 3d 56 87 16 ba 28 58 6f be 4a 3a 92 bc
       0.10206561 -0.00057422125 -0.23373473 -0.01785006
000380 dc f5 2a 3d 66 be c1 be 7e 1e 07 bf 7e 77 28 bf
       0.041738376 -0.37840575 -0.527809 -0.6580733
000390 65 98 5d 3d db 0e a3 3e b2 2e 01 3e 65 80 f6 be
       0.054100413 0.3184727 0.12615469 -0.48144832
0003a0 1f 01 8d 3c 4d 29 bd bd b3 32 ff 3c 30 36 40 bc
       0.017212449 -0.09236393 0.031152105 -0.011731669
0003b0 a6 9c 1b bf e0 6b a4 3d 68 34 8d 3e 10 04 97 bd
       -0.607859 0.08028388 0.27579045 -0.07373822
0003c0 87 23 6a 3e fd 19 20 3e 89 23 fe bd 47 7c e8 be
       0.22865115 0.15634914 -0.124091215 -0.45407316
0003d0 18 d2 4b 3e 34 f2 8d 3d d1 83 85 3e fd e5 a1 3e
       0.19904363 0.06930962 0.2607713 0.3162078
0003e0 9b f2 18 be 86 6a 32 3e 7d d7 60 3e d2 58 87 be
       -0.14936297 0.17423448 0.21957202 -0.26434952
0003f0 58 0b 1e 3e c7 5c 9d 3d 00 bb 14 bf 45 68 80 3c
       0.15434015 0.076837115 -0.5809784 0.01567472

l2.bias f4 [18]
000000 f9 39 c3 be 7f f4 3d bf 5a 7e a6 bf b5 2c 47 bf
       -0.38130167 -0.74201196 -1.300731 -0.7780259
000010 61 e7 45 bf d0 c1 40 bf a5 eb 17 bf 1a 2d 41 3e
       -0.7730618 -0.75295734 -0.5934394 0.18864861
000020 92 73 2a bf 94 9b 3c bf fe ba 1d bf ac d0 d9 be
       -0.66582596 -0.73674893 -0.6161345 -0.42542017
000030 26 3f 17 bf de 50 2a bf 31 40 28 bf b6 2d 2e bf
       -0.5908073 -0.66529644 -0.6572295 -0.680385
000040 45 33 c9 be 7a c1 23 bf
       -0.39296928 -0.63967097

l3.weight f4 [18, 20]
000000 f7 3c 20 be 25 e8 94 3f 2a 40 d5 3b aa 44 98 3e
       -0.15648256 1.1633345 0.006507893 0.29739887
000010 34 41 54 3f dd 51 b4 3e 6b 00 16 3d fa 3c 95 3d
       0.8291199 0.35218707 0.036621492 0.07287021
000020 a6 d0 01 bd 8b 9c e6 3e 4c 7d de 3d 59 d6 16 3f
       -0.031693123 0.45041308 0.10863742 0.5892082
000030 c9 ce 87 3d 8a d4 ad bd 36 b1 cc 3d 16 37 31 3e
       0.06631238 -0.08487804 0.09994738 0.1730617
000040 44 da 35 3e eb f4 9a be 9c db fd 3d a9 97 03 bf
       0.17759043 -0.30264983 0.12395403 -0.5140329
000050 a1 c5 d1 3e 66 ed 6c 3f ae d6 76 3f be 61 33 3f
       0.4097109 0.9254974 0.96421325 0.7007102
000060 c5 c3 10 3f e6 fe 93 3f f6 71 6e 3d a2 95 0c bc
       0.5654872 1.1562164 0.05821415 -0.008580597
000070 77 c7 28 3e 94 b0 fd 3d 70 56 0a bd 2f cc af 3e
       0.1648234 0.12387195 -0.03377384 0.34335467
000080 c3 db cb bd 46 b2 11 3d 69 03 9f be be b3 dc be
       -0.099540256 0.035570405 -0.3105729 -0.43105882
000090 43 7e 1d 3e 60 3e 93 be d0 ad 24 be 9c 18 fd be
       0.15380196 -0.28758526 -0.16081929 -0.49432838
0000a0 81 8c fc 3d 95 6d 68 be 65 d3 3f 3e 2a fd 25 bc
       0.123314865 -0.22698052 0.18732984 -0.01013116
0000b0 ee 5b 02 3f 10 9f ef 3e 25 dd b3 be c1 72 ae be
       0.50921524 0.46801043 -0.35129657 -0.34071925
0000c0 e8 5b 3d bf 0f 41 4f bf 4a 37 18 bf 77 c9 0b bf
       -0.7396836 -0.80958647 -0.59459364 -0.54604286
0000d0 e2 e9 ef be 4e 2f 32 bf 97 f9 ec be 7b 6a 69 3f
       -0.46858126 -0.6960343 -0.46284172 0.911781
0000e0 c3 cc 7f 3d bf dc 3a bf 5e 46 46 be 33 10 e8 be
       0.062451135 -0.7299308 -0.1936278 -0.4532486
0000f0 ba 09 90 bd 18 71 61 3f f0 69 86 3e 8f b5 32 3e
       -0.07033105 0.8806319 0.262527 0.17452072
000100 4b b7 97 3e b8 25 1e 3f d0 c7 fa bd 7a 67 a4 3a
       0.2963203 0.61776304 -0.122451425 0.0012543045
000110 f0 17 2b be 92 9a 27 3f 36 66 54 be 1e a2 bc bd
       -0.1670835 0.6547023 -0.20742115 -0.09210609
000120 6b a3 6a be 50 fe 6a be 17 57 58 be 11 fa f1 3e
       -0.22913902 -0.22948575 -0.21126972 0.47261098
000130 39 18 02 3f 3d 09 52 3d 20 5f 64 3c 74 e9 c3 bc
       0.5081821 0.05127834 0.013938695 -0.02391503
000140 20 9e 85 3e 27 a4 24 bf 0f 96 27 3e f2 61 b1 3d
       0.26097202 -0.64312977 0.16365837 0.0866126
000150 61 99 fa 3e 6f 52 80 3e 52 86 96 3e 3b fa 4a bc
       0.48945144 0.25062892 0.29399353 -0.012388761
000160 23 93 cf be 8f ec 9b 3e 5c 4b 8d 3e 1c f1 62 be
       -0.40541944 0.30453917 0.27596557 -0.22162288
000170 f3 84 a3 3e bf 6a 53 3e 88 08 25 3e f9 02 07 3f
       0.3193737 0.20646189 0.16116536 0.5273891
000180 38 68 17 3e 7f 9f ba 3e d2 30 39 be 52 db 21 bd
       0.1478585 0.3644981 -0.1808503 -0.0395158
000190 84 dd e4 be d4 c1 a4 bd 01 51 21 bf a4 52 83 be
       -0.44700253 -0.08044782 -0.6301423 -0.25648987
0001a0 87 93 97 be bd f6 11 bf 3e f8 5e 3f 12 c1 d8 be
       -0.29604742 -0.5701712 0.8709754 -0.423348
0001b0 ec f5 d8 3e e2 d5 4e 3f 14 27 1f 3f b4 6a 68 be
       0.42375124 0.8079511 0.62169003 -0.22696954
0001c0 aa d8 32 3f dd bb 1c 3f 07 88 48 3f af 58 11 3f
       0.69861853 0.61224157 0.7833256 0.56775945
0001d0 d7 d1 0c bf 03 7f 2d 3f 72 58 54 3e e7 bf 90 bd
       -0.5500769 0.6777193 0.20736864 -0.070678525
0001e0 fa e5 ac be 60 88 2b 3f 1b f9 63 3f 03 4d 8e 3f
       -0.33769208 0.67004967 0.8905198 1.1117252
0001f0 65 04 0d 3f 04 d6 ac 3f a8 7f 95 be 7e 7a c4 3c
       0.5508483 1.3502812 -0.29198956 0.02398419
000200 7d af 63 bd cd 44 8e bd c0 09 b7 be 67 1a 03 be
       -0.05558728 -0.069467165 -0.35749626 -0.1280304
000210 a9 7b 05 bf 1d ca 99 be 11 e8 8c be 61 39 0d 3e
       -0.52141815 -0.30037013 -0.27520803 0.1379142
000220 17 07 8d 3e 2b cb ec be fe 78 01 be 55 a0 76 3c
       0.27544472 -0.46248755 -0.12643811 0.015052875
000230 d1 67 c3 be 52 45 72 3f d1 84 1b 3f f5 3d 41 3f
       -0.38165143 0.94637024 0.60749537 0.75485164
000240 8d 3e 03 3e 14 5d 84 3f 06 25 04 be 00 39 90 bd
       0.1281683 1.0340905 -0.12904748 -0.07042122
000250 9b d7 3a 3e 52 22 25 3f 6c 59 93 bc b8 c0 60 3f
       0.1824631 0.64505494 -0.017986976 0.87794065
000260 6e 73 82 3e eb 81 4a 3e 5e 04 31 3e 2b 56 0a be
       0.2547869 0.19776122 0.17286822 -0.13509433
000270 5b 41 81 3e 01 31 0b 3f 90 6d 05 3d 8c dd 13 bf
       0.25245175 0.5437165 0.03257519 -0.5775993
000280 56 bc dc bd 8f 08 52 3f fd a0 45 3f 6b ce 85 3f
       -0.1077811 0.8204431 0.77198774 1.0453619
000290 5f 0a 30 3f 36 33 89 3f 50 0b 8a be 13 ea 8d bd
       0.68765825 1.0718753 -0.26961756 -0.06929412
0002a0 60 ef cf 3d 39 11 04 bf 21 4e ef be c0 cb 7b be
       0.10153079 -0.5158878 -0.46739295 -0.24589443
0002b0 5f 57 cf be 61 a8 c7 be 62 bc 1e bf 17 4a d0 3e
       -0.40496346 -0.3899565 -0.620062 0.40681526
0002c0 7e 4e 91 3e e0 d7 19 bf 82 29 51 3e 7e 27 81 bc
       0.28380197 -0.60095024 0.2042599 -0.015765902
0002d0 c1 5e df 3e fe c3 a4 3e 14 a3 c4 3e b2 29 2b 3f
       0.4362698 0.3218078 0.3840567 0.66860497
0002e0 ee 62 0c 3f 78 62 00 3f 4f 4e 9c be 4a 6e d1 bc
       0.54838455 0.5015025 -0.30528495 -0.025565285
0002f0 d1 89 bc bd ed 60 8d be f0 9f 0e be a1 7a ee bd
       -0.09205974 -0.2761301 -0.13928199 -0.11644483
000300 11 21 9a be 47 a0 78 be ca 02 99 be 41 3e d1 3d
       -0.30103353 -0.24279891 -0.2988494 0.10216952
000310 0b 21 1c be 8b f4 a8 be 58 41 55 3d 9e 13 5a bd
       -0.1524698 -0.3299907 0.05206427 -0.053241365
000320 97 be cd 3e ff ba ca be 07 0b 69 3f b1 60 f7 3e
       0.4018447 -0.39595792 0.9103245 0.48315957
000330 6c 34 75 3d 1f 2e fc 3e 2a 8d 18 3e d1 69 02 3d
       0.059864447 0.49253938 0.148976 0.031839196
000340 5c 80 e9 be 93 92 90 bb de 83 1d 3e 21 11 91 be
       -0.45605743 -0.0044120043 0.15382335 -0.2833338
000350 8c 9c 02 3d 7e b3 33 3e 61 79 dd bd 40 cd 41 3f
       0.031887576 0.1754894 -0.10814167 0.7570381
000360 f4 a6 77 3e b3 d8 ad bd 90 0c 5b bd f1 7b f3 bd
       0.24184781 -0.08488598 -0.053478777 -0.11888874
000370 8e 86 97 3e bc 19 2e 3f 8c 63 7b 3f f7 6d 5b 3f
       0.29594845 0.6800802 0.9819877 0.8571467
000380 29 a3 f9 3e eb 11 77 3f a0 7e 3b be c0 c1 1b be
       0.48757294 0.96511716 -0.18310022 -0.15210629
000390 b7 30 5f bd 61 61 43 be d1 63 96 be df a5 4d be
       -0.054489817 -0.19080116 -0.2937303 -0.20082806
0003a0 49 26 52 be b2 eb 67 be 0c c2 b6 be e8 4e 16 3f
       -0.20522417 -0.22648504 -0.3569492 0.5871415
0003b0 b4 48 03 3f e9 c1 f5 be 08 b9 25 bd 20 ac 2e bc
       0.5128281 -0.47999504 -0.040459663 -0.010661155
0003c0 d4 90 dd 3e 12 8e 89 be fc 88 b1 3e a9 ee ba 3e
       0.43274558 -0.26866204 0.34674823 0.36510208
0003d0 ff 32 20 3e 73 41 c7 3e e8 e9 92 bd a4 db e1 be
       0.15644453 0.3891712 -0.0717352 -0.44112885
0003e0 19 53 08 bd 4b ea 9b 3e d1 06 21 3e c0 86 d6 be
       -0.033282373 0.3045219 0.15725257 -0.4189968
0003f0 30 74 37 3d f9 43 a8 3e 4b 2c c9 3c a3 a8 d7 3f
       0.04478854 0.3286436 0.024557253 1.6848339

l3.bias f4 [18]
000000 2d 51 98 be 26 5d ab bf 2e 32 03 bf 15 2c bb 3e
       -0.29749432 -1.3387802 -0.51248443 0.3655707
000010 5a 3a 1c bf e5 32 54 3e 2b 22 e7 bf 69 87 6b bf
       -0.6102654 0.2072254 -1.8057302 -0.92003495
000020 5e 9c 8f bf c2 d2 b0 bf 05 32 5e be 95 f4 c5 bf
       -1.1219594 -1.3814318 -0.21698768 -1.5465266
000030 53 de ed be 52 4f 84 bf c3 6a 0e bf f8 81 5e bf
       -0.46458682 -1.0336707 -0.55631655 -0.86917067
000040 1d ef 54 bf c7 78 df bf
       -0.8317736 -1.7458733

l4.weight f4 [2, 18]
000000 42 32 a2 bc 0a 90 b6 3d cf fc 70 3e 30 55 8a 3c
       -0.019799355 0.08914192 0.23533939 0.016886324
000010 1b 23 9c bd 06 e7 1c 3f f1 13 f0 bd bc f6 b0 3c
       -0.07623883 0.61290014 -0.117225535 0.021602027
000020 14 e1 b7 bd 3e 5a 3a 3b c0 ea cf ba dd 0d 6e bd
       -0.08978477 0.0028435136 -0.0015862808 -0.05811869
000030 8f 52 0d 3f d2 f9 cf bb b0 8d ad bd eb 9a 81 3d
       0.552041 -0.0063469196 -0.0847429 0.063283764
000040 0e a3 ba 3b c1 c3 09 be ca 79 a9 3d d3 16 02 bd
       0.005695707 -0.1345358 0.082751825 -0.031760048
000050 66 62 48 3d 07 7c d5 3c 90 24 b0 3b 8b 30 41 3f
       0.048921965 0.026060117 0.0053754523 0.75464696
000060 ee 23 23 3b 07 1d d0 bc bb 39 47 3b 1d c4 be bb
       0.0024893242 -0.025404466 0.00303994 -0.0058217184
000070 b8 0a 2a 3c 88 87 7d bb f8 29 d8 3e 40 08 46 3b
       0.010378532 -0.003868552 0.4221952 0.003021732
000080 6f d2 8e bb 80 97 52 b9 54 23 c2 bb 04 2c 82 be
       -0.0043585817 -0.00020083599 -0.0059246216 -0.25424206

l4.bias f4 [2]
000000 a9 c8 c9 3f 5b a5 b2 3f
       1.5764362 1.3956712
