Ablation Experiments/LSTM/DoubleDQN-QT-Reward-Delay-IR-Final/ModelParam/2024-02-01-1054/target-network-lstm.pth (torch, 24321 bytes, 12 tensors)

lstm.weight_ih_l0 f4 [72, 9]
0	0x4102fc4d	8.186597
1	0x408d973b	4.4247108
2	0x41902931	18.020113
3	0x40c6907c	6.2051373
4	0x40ea9300	7.3304443
5	0xc0c1f54e	-6.0611944
6	0xc0a92be5	-5.286608
7	0xbfd91584	-1.6959691
8	0xbf4e4625	-0.8057578
9	0x4015adea	2.3387399
10	0x40cf7e7f	6.4841914
11	0x4151f676	13.122671
12	0x3e4a3dbd	0.19750114
13	0x412ec298	10.922508
14	0x3febb304	1.8414006
15	0x407fb7aa	3.995585
16	0xbfd894ba	-1.6920388
17	0x3f9c8a50	1.222971
18	0xc000b9a1	-2.01133
19	0xbfd7888b	-1.6838545
20	0x3f3348de	0.7003306
21	0xc02ce103	-2.7012336
22	0xbf7d2d84	-0.98897576
23	0xc001ed7b	-2.0301197
24	0xbec93912	-0.39301354
25	0xbeffb4e7	-0.49942705
26	0xbe2aa718	-0.16665304
27	0x3fbaa721	1.4582254
28	0x3f80ae76	1.0053241
29	0x3f7a0bb0	0.97674084
30	0x3fa55348	1.291604
31	0x401f7442	2.4914708
32	0x3fd64596	1.6739986
33	0x402b20d6	2.6738791
34	0xbf501f5a	-0.8129784
35	0xbdc83127	-0.09775
36	0xbfec481f	-1.845951
37	0x40bff219	5.998303
38	0x3f85d480	1.0455475
39	0x40ea4206	7.3205595
40	0x3fd7e074	1.6865373
41	0xbe52bd49	-0.20580019
42	0x3f3815d4	0.7190831
43	0x400f6ac3	2.2408912
44	0xbf7fb216	-0.9988111
45	0x409df9df	4.936752
46	0x3f9133f2	1.1343977
47	0xc083c986	-4.11835
48	0x4107972a	8.474405
49	0x40dda0ed	6.9258943
50	0x3fbe7733	1.4880127
51	0x4070522d	3.7550156
52	0xc083a423	-4.113786
53	0xbf48c416	-0.78424203
54	0x406719d0	3.6109505
55	0xbfabde24	-1.3427167
56	0x4038da5a	2.8883271
57	0xbec950cf	-0.39319465
58	0x40215424	2.5207605
59	0x3fc1cccd	1.5140625
60	0xbf6ae640	-0.91757584
61	0xc009a4ff	-2.1506956
62	0x3fc643a4	1.5489392
63	0xc0a70419	-5.21925
64	0x40e8017f	7.2501826
65	0x3ff1d999	1.889453
66	0x3f8ad378	1.0845785
67	0x3f83bc5a	1.0291855
68	0x4087ceef	4.2440104
69	0x40464ec7	3.0985582
70	0x4025b83c	2.5893698
71	0xbfb95ce9	-1.4481479
72	0xbf1145aa	-0.56746924
73	0xc01adc19	-2.4196837
74	0xc126990f	-10.412368
75	0xbf34e47f	-0.7066116
76	0xbf000ad0	-0.500165
77	0xbfc5a594	-1.5441155
78	0xc0e8a344	-7.26993
79	0xc03e3320	-2.9718704
80	0x3f836d67	1.0267762
81	0xb9693d57	-0.00022243462
82	0xbea93b8c	-0.33053243
83	0xbcf93e18	-0.030425116
84	0x3e099fee	0.13439915
85	0xbe7ee990	-0.24893785
86	0x3f0b81cf	0.5449495
87	0x3f0cff8f	0.5507745
88	0x3f123815	0.57116824
89	0x3f5b4b4e	0.8566178
90	0xbffb7589	-1.9645244
91	0xc0d460d1	-6.6368184
92	0xc1946a05	-18.551767
93	0xbf20c84c	-0.6280563
94	0xc100c0ba	-8.047052
95	0xbf128e4f	-0.57248396
96	0xc066ae96	-3.6044059
97	0xbf311d44	-0.6918528
98	0xbf6e93fc	-0.93194556
99	0xc0976fdd	-4.732405
100	0xc000e97a	-2.0142503
101	0x4082585e	4.073287
102	0xbfe69fed	-1.8017555
103	0xc0d10602	-6.5319834
104	0xc03dc22a	-2.9649758
105	0xbee48202	-0.44630438
106	0x40b09502	5.5181894
107	0xbe1d2535	-0.15346225
108	0xbf98319a	-1.1890137
109	0x3f863f87	1.0488137
110	0xc01b167f	-2.423248
111	0x4098cdf5	4.7751412
112	0xc00af679	-2.1712935
113	0x3f29d40f	0.663392
114	0xbfc1a219	-1.5127593
115	0x40c443b4	6.1332645
116	0xbf09070f	-0.53526396
117	0xc0917e9f	-4.5467067
118	0xc02cecb2	-2.7019467
119	0xc185c642	-16.721806
120	0x3d3e1caa	0.046414055
121	0x403f119a	2.9854493
122	0xbf4604b4	-0.77350926
123	0xc0540713	-3.3129318
124	0xc0c7f89e	-6.249099
125	0xbf0607d6	-0.52355707
126	0x404789d6	3.1177878
127	0xc0bc3cc1	-5.8824162
128	0x3ffb5e9d	1.9638249
129	0xc00946ec	-2.1449537
130	0xc0a46e6b	-5.1384788
131	0xc035b6b7	-2.839277
132	0xbf048ace	-0.517743
133	0x406b7493	3.6789901
134	0xbf66fb60	-0.9022732
135	0x3fcf1a42	1.6179888
136	0xbf3496d0	-0.7054262
137	0x3fab2e27	1.337346
138	0x3f953a33	1.1658386
139	0x3f292837	0.6607699
140	0x3ea3e990	0.32014132
141	0x3f250bb4	0.6447098
142	0x3e8110f0	0.25208235
143	0x3f0d4365	0.5518096
144	0xc1266a6c	-10.400982
145	0xbf1b28ee	-0.6060933
146	0xc0ba8aab	-5.8294272
147	0xc08aea80	-4.3411255
148	0xc0ebd624	-7.36989
149	0x3f480308	0.78129625
150	0x3ebf6ff9	0.37390116
151	0xc0582fa1	-3.377907
152	0x3f2356e3	0.63804454
153	0xbed97777	-0.42473957
154	0x40fcb48e	7.8970404
155	0x41190957	9.56478
156	0x40789e58	3.8846645
157	0x40cbb3cb	6.3656974
158	0x3f7d3150	0.9890337
159	0xbf0e612a	-0.5561701
160	0xbe606af8	-0.21915805
161	0xbd165ce5	-0.036709685
162	0x40242146	2.5645308
163	0x40b37eb6	5.6092176
164	0x410d6ba9	8.838784
165	0x3ffc9a07	1.9734505
166	0x40943139	4.6310086
167	0x3f58de9e	0.84714687
168	0x3f7192ab	0.9436442
169	0xbf2052ac	-0.6262615
170	0x3edae379	0.42751673
171	0xc10d458d	-8.82948
172	0x4045dd06	3.0916152
173	0x403b9cac	2.9314375
174	0xbfb91496	-1.4459407
175	0xc0066397	-2.0998285
176	0xbf3d2bc5	-0.7389491
177	0x4004f199	2.077246
178	0xc0f1cb3b	-7.5560584
179	0xbfb23680	-1.3922882
180	0x3f84b0ca	1.0366452
181	0xbf1f62f1	-0.6226035
182	0x409743dc	4.7270336
183	0x3f7b3e62	0.98142064
184	0x3f661365	0.89873344
185	0x3fb3e209	1.4053355
186	0x40a50f32	5.158105
187	0xc086d473	-4.2134337
188	0xbf71a59a	-0.9439331
189	0xbf4e3578	-0.80550337
190	0x3f4f11dc	0.80886626
191	0xbe981e23	-0.29710492
192	0xc047e561	-3.1233752
193	0xbe0237ad	-0.12716551
194	0xbef80e1d	-0.48448268
195	0xbff7a046	-1.9345787
196	0xbea73533	-0.32657775
197	0x3f199b1b	0.600023
198	0xbf6097e7	-0.87731785
199	0x403aa43b	2.9162738
200	0x3d04afc5	0.03239419
201	0x3f80f597	1.0074948
202	0xbec80a74	-0.39070475
203	0xbfd732cc	-1.6812377
204	0xbfdb3632	-1.7125914
205	0x3f3ecc19	0.7453018
206	0xbfac4d01	-1.3461
207	0xc0a9259d	-5.2858415
208	0x3e20663a	0.15663996
209	0xc12f65dd	-10.962369
210	0xc0d92aec	-6.7864895
211	0x3f5e5da0	0.8686161
212	0xc08cea62	-4.403611
213	0xbff24e07	-1.8930062
214	0xc05b8c16	-3.4304252
215	0x3e7aedcc	0.24504775
216	0x40a53ab6	5.163417
217	0xbfc7197e	-1.5554655
218	0x40dd35e3	6.912828
219	0xbf2bc7ee	-0.67101943
220	0x4073fcc7	3.8123033
221	0x401b2ab4	2.4244814
222	0x3dc1c7fd	0.09461973
223	0xc011e2e3	-2.279473
224	0x3faf84af	1.3712367
225	0xc0a99c0f	-5.3003
226	0x3fb61287	1.4224404
227	0x3db247ae	0.08705078
228	0xc01b65f1	-2.428097
229	0xc02efdcc	-2.7342405
230	0xbf243f0f	-0.6415872
231	0x3e17ee96	0.14837107
232	0xc02d915a	-2.7119966
233	0xbfde5d3d	-1.7372204
234	0xc0f78850	-7.7353897
235	0xc0b93468	-5.7876472
236	0xc182bcf2	-16.342258
237	0xc122024a	-10.125559
238	0xc16118cb	-14.068553
239	0xbf8018f0	-1.000761
240	0xc0e2201b	-7.066419
241	0xbfec5a23	-1.8465008
242	0xbec66993	-0.38752422
243	0x3e57167b	0.2100467
244	0x3e1ff9bb	0.15622608
245	0xbdc2f060	-0.09518504
246	0xbe948977	-0.29011127
247	0xbeadb567	-0.33927462
248	0x3ecea772	0.40362126
249	0x3ef99d6e	0.48752922
250	0x3e9d4615	0.3071753
251	0x3f6e2cc5	0.9303706
252	0xc0e474ea	-7.1392717
253	0xc046c5ab	-3.1058147
254	0xc1183b55	-9.514485
255	0xc00733b1	-2.11253

lstm.weight_hh_l0 f4 [72, 18]
0	0xbeaaccba	-0.3335932
1	0xbece0fb9	-0.4024637
2	0xbf34e071	-0.7065497
3	0xbf9a5d37	-1.2059697
4	0x3fe35f1f	1.7763404
5	0xc068d497	-3.6379755
6	0xbf57641c	-0.8413713
7	0x3efb9a26	0.49141043
8	0xbbbee20d	-0.005825287
9	0xc07ace6f	-3.9188497
10	0xbf62cbc3	-0.88592166
11	0xc0826236	-4.0744886
12	0x407c9675	3.9466832
13	0xbf44be6b	-0.76853055
14	0x3fa4a9af	1.2864283
15	0xbf7ac81f	-0.9796161
16	0xbfca4323	-1.5801739
17	0x3fba188c	1.4538741
18	0x3f9982f3	1.1993088
19	0x3f7c39a0	0.9852543
20	0x3f93a5e2	1.1534998
21	0xbf7c5a28	-0.9857507
22	0xc02d81b7	-2.7110422
23	0xbfc99098	-1.5747252
24	0x3ffe8b17	1.9886197
25	0xbef8a8cd	-0.48566285
26	0x3f056018	0.5209975
27	0x409c4f60	4.8846893
28	0x3f6cb9a8	0.9247079
29	0xbff17836	-1.886481
30	0xbf21c50a	-0.6319128
31	0x3f66e057	0.90186065
32	0xbf6fe467	-0.9370789
33	0xc0144d24	-2.3172083
34	0x4009374a	2.1439996
35	0x3fb9694f	1.4485263
36	0xc066d6ce	-3.6068606
37	0xc0255507	-2.5833147
38	0xbfb8a9b8	-1.4426794
39	0x3fe960bc	1.8232646
40	0xbd4770d3	-0.048691582
41	0x40331de2	2.798699
42	0xc0103489	-2.2532065
43	0xc03aac80	-2.9167786
44	0x3f7729ec	0.9654834
45	0xbf905bd3	-1.1278023
46	0xc00af6a0	-2.1713028
47	0x4013f050	2.3115425
48	0xbf4779af	-0.7792005
49	0x406bbbe2	3.6833425
50	0x4016c10d	2.355533
51	0xc002cf5b	-2.043906
52	0xc043c52b	-3.0589092
53	0xbc8ef39b	-0.017450145
54	0x3feb9119	1.8403655
55	0x404e9fb7	3.2284982
56	0xbe507cf2	-0.20360163
57	0xbf8659b1	-1.0496122
58	0xbf982fc8	-1.1889582
59	0xc06acf25	-3.668893
60	0x401654e2	2.3489308
61	0xc010d9d0	-2.2632942
62	0xc0263a12	-2.5972943
63	0x3fda1704	1.7038274
64	0x40339f2a	2.8065896
65	0xc01697c8	-2.353014
66	0x3f1dc0e7	0.6162247
67	0xc094ecde	-4.6539145
68	0x3f0a1a75	0.5394662
69	0xbfde9b70	-1.7391186
70	0x3f3c15b7	0.73470634
71	0x3c8b52f4	0.017007329
72	0xbeaeb47a	-0.34122068
73	0x3f7e4319	0.9932113
74	0x3fed5b2b	1.8543447
75	0xbe7befb7	-0.24603163
76	0x3f4a0496	0.7891325
77	0xbf0ff016	-0.5622572
78	0xc066e14e	-3.6075015
79	0xbfb94668	-1.4474611
80	0xc036e3ce	-2.857654
81	0xbfced206	-1.6157844
82	0x3f1c242b	0.6099269
83	0xbf00c6ab	-0.50303143
84	0x40247826	2.5698333
85	0x3faf3add	1.3689839
86	0x400fb6ed	2.24554
87	0x400e828c	2.226718
88	0xc05a22be	-3.4083705
89	0xbfebe15e	-1.8428152
90	0x3eff238c	0.49831808
91	0x3fbb5ea8	1.4638262
92	0x3a3c0c2f	0.00071734464
93	0xbecd1223	-0.400529
94	0x40886e0c	4.2634335
95	0x3d1fa46d	0.038975168
96	0x4016b51c	2.354804
97	0x40540e9b	3.3133914
98	0xbf25f96d	-0.6483372
99	0x3e3b0591	0.18263842
100	0x40523fe2	3.285149
101	0x3f129640	0.57260513
102	0x40a649f0	5.1965256
103	0xc0035139	-2.0518324
104	0x3f87d6e4	1.0612454
105	0x3fc4ba84	1.536942
106	0x3f3f7d27	0.7480034
107	0xbf99eee6	-1.2026031
108	0x3ec5db58	0.38643909
109	0x3fe48f5b	1.7856249
110	0xbe5c62e7	-0.21522103
111	0xbfd353d4	-1.6509957
112	0xbfd96aa6	-1.6985672
113	0x3e6bdb49	0.2303287
114	0x4031f705	2.7807019
115	0xbed94fa5	-0.42443576
116	0x3fb096d7	1.3796033
117	0x3ebaea64	0.3650695
118	0xbf410f60	-0.75414085
119	0xbe935139	-0.28772905
120	0xbf30d6e0	-0.69077873
121	0xbfdd31c8	-1.7280817
122	0x3f48efd1	0.7849093
123	0xbf7635df	-0.9617595
124	0xbf584e83	-0.844948
125	0xbeae7b1c	-0.340783
126	0xbf0294e1	-0.5100842
127	0xbf652f56	-0.89525354
128	0x3f1a72f5	0.6033166
129	0x3eca040f	0.3945622
130	0xbf250921	-0.64467055
131	0xbfc16abc	-1.5110698
132	0xbfc103ee	-1.5079324
133	0xbf508967	-0.8145966
134	0x400ff5a6	2.2493682
135	0x3fcc914a	1.5981839
136	0xc0347428	-2.8195896
137	0x3fbf608c	1.4951339
138	0x3ece3c92	0.40280586
139	0xc01ee310	-2.4826088
140	0x3f9e2041	1.2353593
141	0x3dffc993	0.12489619
142	0x3f8ed721	1.1159402
143	0x40635845	3.5522625
144	0x3f0b567c	0.5442884
145	0x3f2a3928	0.66493464
146	0xc00b3f5b	-2.175742
147	0xbdee9448	-0.11649376
148	0x3f492d92	0.7858516
149	0xc0077fbb	-2.117171
150	0x3fd16a67	1.6360596
151	0x3f102842	0.5631143
152	0xbfb9911c	-1.4497409
153	0x3fb8e818	1.4445829
154	0x3f2cc2b4	0.67484593
155	0xbea50592	-0.32230812
156	0x3ec1f580	0.37882614
157	0x3f5aa647	0.8540997
158	0x3fc732a4	1.5562329
159	0xbed14f7f	-0.40880963
160	0xbe27b0c1	-0.1637602
161	0xbf3a55a9	-0.7278696
162	0x3edb9acf	0.42891547
163	0x3f85b764	1.0446591
164	0xbdfb727a	-0.12277694
165	0xbf3780ca	-0.7168089
166	0x3ef9e11d	0.4880456
167	0xbdda1a44	-0.10649541
168	0x3f530024	0.8242209
169	0xbed36a5b	-0.4129208
170	0x3f90f47e	1.1324613
171	0x3f0813be	0.53155124
172	0xbe2197e4	-0.15780598
173	0xbe9e9e67	-0.30980226
174	0xbe7b7e1f	-0.2455983
175	0xbf057096	-0.5212492
176	0xbda603ed	-0.081062175
177	0xbf93ed6e	-1.1556833
178	0x3e1eab12	0.15494946
179	0x3dfc9342	0.12332775
180	0x40190309	2.3908103
181	0x3f3d88c4	0.7403681
182	0xbfc4c7d1	-1.5373479
183	0xbf950149	-1.1641017
184	0xbefcb564	-0.4935714
185	0x3fce3d97	1.6112546
186	0xc0099459	-2.1496794
187	0x40257d78	2.585783
188	0xbe5d3282	-0.21601298
189	0xbf75f773	-0.960807
190	0xbf088b5e	-0.5333766
191	0xbfae9ed7	-1.3642224
192	0xbf90bf01	-1.130829
193	0x3f309912	0.68983567
194	0xbfc526bd	-1.5402447
195	0xc0176d82	-2.3660588
196	0x4039ed90	2.9051247
197	0x3fffece8	1.9994173
198	0x40350872	2.8286405
199	0xbabde89e	-0.0014488881
200	0xc0c778b7	-6.2334857
201	0xbf5d4a27	-0.8644127
202	0xbfa0aee5	-1.2553374
203	0x40862ffe	4.1933584
204	0xc00d91d5	-2.212026
205	0x402bb7df	2.6830976
206	0x408f7d04	4.4840107
207	0x3dd14098	0.102173984
208	0x406b3ca2	3.6755757
209	0xbfc70591	-1.5548574
210	0xbf96b427	-1.1773728
211	0x3f97ce7d	1.185989
212	0xc03a463c	-2.9105368
213	0x40000a19	2.0006163
214	0x3dc6afbc	0.097014874
215	0x3fa53a82	1.290848
216	0x3f124404	0.57135034
217	0xc0328da1	-2.7898943
218	0xbff62a7a	-1.9231713
219	0x4045a591	3.0882304
220	0x3fae3e91	1.3612844
221	0xbf8a2d1b	-1.0795015
222	0xc0f0dd04	-7.5269794
223	0x4026c110	2.6055336
224	0x3ee88dd9	0.4542072
225	0xbf475712	-0.77867234
226	0x3f390dbd	0.7228659
227	0x3f7ef8fb	0.99598664
228	0x3fa6c1cc	1.3027892
229	0xc00cfa18	-2.2027645
230	0xbe77693c	-0.24161237
231	0xbf1a3d83	-0.6025011
232	0xbf4c9b7a	-0.7992474
233	0xbe9b636b	-0.30349287
234	0x400f6f46	2.2411666
235	0x3e40498e	0.18778059
236	0xbfd2e70c	-1.647676
237	0x3f00c640	0.50302505
238	0x3f3f2e08	0.74679613
239	0xbe248ade	-0.16068599
240	0x3f480042	0.78125393
241	0xbf9529db	-1.1653398
242	0x3f37d6ee	0.7181233
243	0xbff1769d	-1.8864323
244	0x3f48e0c4	0.78467965
245	0xbfffe70b	-1.9992384
246	0xbfb3a36f	-1.4034251
247	0x3fc93635	1.5719668
248	0x3f1d2282	0.6138078
249	0xbf6586a1	-0.8965855
250	0x3d414cde	0.047192447
251	0xbf3e5601	-0.7434998
252	0x40049a91	2.071934
253	0x3e91be85	0.28465667
254	0x3e9a5e56	0.30150098
255	0x3f7cf701	0.988144

lstm.bias_ih_l0 f4 [72]
0	0xbf6212e0	-0.8831005
1	0x3f643116	0.891374
2	0x3f0797a1	0.5296574
3	0x3fceda46	1.6160362
4	0x3d220f86	0.039565586
5	0xbdedb37c	-0.116064996
6	0x3fa9600b	1.3232435
7	0x3cd94637	0.026522739
8	0xbee80c88	-0.4532206
9	0x3f5238d0	0.8211794
10	0xbf757495	-0.95881015
11	0xbf2c6424	-0.673403
12	0xbf04f9b4	-0.51943517
13	0xbf11a9ae	-0.56899536
14	0xbedc3cb9	-0.43015078
15	0x3f3815f8	0.7190852
16	0xbfa7271b	-1.3058809
17	0x3fa7d112	1.3110678
18	0xbf8a437d	-1.0801846
19	0xbeac16f5	-0.33611265
20	0xbeeece01	-0.46641544
21	0x3f48bb23	0.7841055
22	0xbf8e55c5	-1.1119925
23	0x3e3e2bc5	0.18571384
24	0x3f0e69e6	0.5563034
25	0xbfb3815b	-1.4023851
26	0x3f4138fe	0.7547759
27	0x3f6e2d12	0.9303752
28	0xbeccbca0	-0.3998766
29	0xbf4b6bca	-0.7946135
30	0xbfb01eb9	-1.3759376
31	0xbf271a44	-0.65274453
32	0xbd15a10e	-0.036530547
33	0x3f703f52	0.9384662
34	0xbe1bdde9	-0.15221371
35	0x3d75fbf5	0.060054738
36	0x3f8b1366	1.0865295
37	0x3f3345da	0.7002846
38	0x3f4b2b2d	0.79362756
39	0xbf860ae9	-1.047208
40	0xbe8f9dd0	-0.2805009
41	0x3e80d9ff	0.25166318
42	0x3fb66d2b	1.4252065
43	0xbed865f6	-0.4226529
44	0x3f8dc9b5	1.1077181
45	0x3ef5d81f	0.4801645
46	0xbe1b509c	-0.15167469
47	0x3faf1698	1.367877
48	0xbd8ab08f	-0.06771957
49	0x3e3c2bb8	0.18376052
50	0x3f0d3e17	0.55172867
51	0xbf7deae6	-0.9918655
52	0xbedd2e0d	-0.43199196
53	0xbf6d086b	-0.9259097
54	0xbd1a39e8	-0.03765288
55	0xbdc17ed7	-0.09448021
56	0x3c3e41cd	0.011612368
57	0xbf12765f	-0.5721187
58	0xbf96ab1d	-1.177097
59	0xbe8df4e3	-0.27725896
60	0x3dce8f18	0.10085887
61	0x3dfa54b2	0.122231856
62	0xbf8e8b86	-1.1136329
63	0xbe947b42	-0.29000288
64	0xbf852cf0	-1.0404339
65	0x3ef61bcb	0.4806808
66	0x3ee80d77	0.45322773
67	0x3f93cd4f	1.154703
68	0xbf3fd18e	-0.7492913
69	0xbfb9420d	-1.4473282
70	0x3fad786c	1.3552375
71	0x3f86ed50	1.0541172

lstm.bias_hh_l0 f4 [72]
0	0xbf6e4bad	-0.9308422
1	0x3fa3ab07	1.2786568
2	0x3ea023ac	0.31277215
3	0x3fa59519	1.2936126
4	0xbdde3d06	-0.10851483
5	0xbe07ca78	-0.1326083
6	0x3f8d9a38	1.1062689
7	0x3cbe7d2c	0.023253046
8	0xbde34542	-0.11097194
9	0x3f6d109e	0.9260348
10	0xbf81e5a2	-1.0148203
11	0xbf3acdeb	-0.72970456
12	0xbe609356	-0.21931204
13	0xbf0ee0ad	-0.5581158
14	0xbe89a822	-0.26886088
15	0x3f0d901a	0.55298007
16	0xbf833f08	-1.0253611
17	0x3fdcd442	1.7252276
18	0xbfb65256	-1.4243877
19	0xbec3f3e0	-0.38272
20	0xbee4204d	-0.44555894
21	0x3edf149e	0.43570417
22	0xbfaa54bb	-1.3307108
23	0x3ea316af	0.31853244
24	0x3f11a9a1	0.5689946
25	0xbfc4bf6d	-1.5370919
26	0x3f7f67db	0.99767846
27	0x3f8afe5a	1.0858872
28	0xbf283e65	-0.65720206
29	0xbf4e0652	-0.80478394
30	0xbfd61f96	-1.6728389
31	0xbef3e7f8	-0.47637916
32	0x3c76c762	0.015062185
33	0x3f557bd1	0.83392054
34	0xbe077a31	-0.13230206
35	0x3a3d3fe0	0.0007219296
36	0x3f862079	1.047866
37	0x3f004cc4	0.50117135
38	0x3f23c227	0.6396813
39	0xbf8ecf33	-1.1156982
40	0xbe98c12a	-0.29834872
41	0xbd5198ba	-0.051171042
42	0x3fbda567	1.4816102
43	0xbf0cb7f1	-0.5496817
44	0x3f74e1f8	0.956573
45	0x3f3f44d0	0.74714375
46	0xbe66b53a	-0.2253007
47	0x3fcf513c	1.6196666
48	0x3e89dc0e	0.269257
49	0x3ee2f559	0.4432781
50	0x3f16cb5f	0.5890407
51	0xbf7be970	-0.9840307
52	0xbefd113e	-0.49427217
53	0xbf73c82b	-0.9522731
54	0xbdfb4e96	-0.122708485
55	0x38bde438	9.054731e-05
56	0x3dc10fff	0.09426879
57	0xbf13bdbb	-0.5771138
58	0xbfb149b7	-1.3850621
59	0xbf147c99	-0.5800262
60	0x3d294c97	0.041332807
61	0x3e6112f8	0.21979892
62	0xbfa0a923	-1.2551616
63	0xbe52937a	-0.2056407
64	0xbf355354	-0.70830274
65	0x3e1ac68d	0.15114804
66	0x3f220f9d	0.63305074
67	0x3f875d25	1.05753
68	0xbee7157a	-0.45133573
69	0xbfa298ae	-1.2702844
70	0x3fcb0c8e	1.5863206
71	0x3f201828	0.6253686

lstm.weight_ih_l1 f4 [72, 18]
0	0x3fa05e94	1.2528863
1	0xc0dcdb51	-6.901772
2	0xc084187f	-4.1279902
3	0x4090b81f	4.5224757
4	0x402f022f	2.7345083
5	0xbd1fa8ba	-0.03897927
6	0xc09b9036	-4.861354
7	0xbfb75806	-1.4323738
8	0x3f5676bb	0.8377492
9	0xc00bfab2	-2.1871762
10	0x3f928f1e	1.1449926
11	0x3f09c739	0.53819615
12	0xbf6e9bae	-0.932063
13	0x3fbd293a	1.4778206
14	0xc0166921	-2.3501666
15	0xbffb20ac	-1.9619346
16	0xbfcd125f	-1.6021231
17	0xc0a65733	-5.1981444
18	0xbf52e025	-0.8237327
19	0xbf8c3dc7	-1.0956353
20	0xc0031b2b	-2.0485332
21	0x3fe70fba	1.8051674
22	0x4017cee5	2.3720028
23	0x405bc161	3.433678
24	0xbf18638f	-0.59526914
25	0x3fc78be7	1.558957
26	0xc05acfd3	-3.4189346
27	0x3e4c4de7	0.19951592
28	0x40a28896	5.079173
29	0x403cd85a	2.950705
30	0x3f63f042	0.8903848
31	0x3faf84a7	1.3712357
32	0x4074f668	3.8275394
33	0x4051fce5	3.2810605
34	0x40832fdf	4.0995936
35	0xbf1c5174	-0.6106179
36	0x40417390	3.0226784
37	0xbfabd718	-1.3425016
38	0xc06724c0	-3.611618
39	0x4001ee01	2.0301516
40	0xbf897447	-1.073861
41	0xc00184b0	-2.0237236
42	0xbfcb55ce	-1.588556
43	0x3ef7fd66	0.48435515
44	0x3f38ebb8	0.7223468
45	0xbfeef862	-1.866955
46	0xbfe907e9	-1.8205539
47	0xbf11a380	-0.56890106
48	0x3e03bc5b	0.1286482
49	0x3f491a1f	0.7855548
50	0xbaa90431	-0.0012894926
51	0x3fb77d06	1.4335029
52	0xbfa8fba1	-1.3201791
53	0xbffe703a	-1.9877999
54	0x3e7ff782	0.2499676
55	0x3fc11b7c	1.5086513
56	0xbdd96a65	-0.10615996
57	0xbf27acfa	-0.65498316
58	0xbfb4d3e6	-1.4127166
59	0xbf0714ea	-0.5276629
60	0x40200169	2.500086
61	0x3f5d8556	0.8653158
62	0x3fb56467	1.4171265
63	0xbfe0ed4c	-1.7572417
64	0x4072e63d	3.7953026
65	0x3e1d7f2d	0.15380545
66	0x3f4c5bb0	0.79827404
67	0xc02297c5	-2.5405133
68	0x3f24f2bb	0.6443288
69	0x3f8472f0	1.0347576
70	0x3fc10ea9	1.5082599
71	0x3f642a7a	0.89127314
72	0x3f18dd7e	0.5971297
73	0x3c4ce220	0.012505084
74	0xbfb1db5b	-1.3895067
75	0x3d742580	0.059606075
76	0xbfa36c1d	-1.2767369
77	0xbf80510a	-1.0024731
78	0x408a3a60	4.319626
79	0x3f5cba0f	0.862214
80	0xbedee618	-0.43534923
81	0x3d800bf3	0.06252279
82	0x3f001780	0.5003586
83	0xbf89d89a	-1.0769227
84	0xc0d2dd34	-6.5895023
85	0xbfe989bb	-1.8245157
86	0xbf507239	-0.8142429
87	0xbeb0c907	-0.34528372
88	0xbecebed6	-0.4037997
89	0x3ff01ba1	1.8758432
90	0xbf8e7b1b	-1.1131319
91	0xbfb837d3	-1.4392036
92	0x3fce62e2	1.6123927
93	0x4066ecc2	3.6082006
94	0xbe37eaae	-0.17960617
95	0x40133178	2.2998943
96	0xc05ee0ba	-3.4824662
97	0x40023b9e	2.0348887
98	0x3d0f5dc2	0.035001524
99	0x3f86a41a	1.051883
100	0xc0029ca6	-2.040811
101	0xc0113468	-2.2688236
102	0x3ef771d9	0.48329046
103	0xbed4431b	-0.41457447
104	0x4027922c	2.6182966
105	0x408110bd	4.0332932
106	0x3f01d9aa	0.50722754
107	0xc02a5c00	-2.6618652
108	0x3e9a58f3	0.30145988
109	0x3dec8726	0.11549215
110	0xc015f847	-2.3432786
111	0xbfc3f9c4	-1.5310597
112	0x3ff44e7d	1.9086453
113	0xbf9d0616	-1.2267482
114	0x4092513b	4.572416
115	0xbfd452bd	-1.658775
116	0xbf98ba98	-1.1931944
117	0xbfa1d7a4	-1.2643933
118	0x3e05d9ae	0.1307132
119	0x3e924e0a	0.28575164
120	0xbf8816cb	-1.0631956
121	0xbf9a3742	-1.2048113
122	0x3cfad9ea	0.030621488
123	0x3f9471f6	1.1597278
124	0xbeeb5cbb	-0.45969185
125	0xbfc58127	-1.5430039
126	0x3ff354a4	1.9010205
127	0x3f8ce176	1.1006305
128	0x3a9fdd56	0.00121967
129	0xbf3b5b4a	-0.7318617
130	0xbfbf50f2	-1.4946578
131	0x3dc5e075	0.096619524
132	0x3e7fd273	0.24982624
133	0xbddc4185	-0.10754684
134	0x3f7cbcf7	0.9872584
135	0x3e3e44b8	0.18580902
136	0xbef0f51c	-0.47062004
137	0xbd8f88e9	-0.070085354
138	0xbe63aa71	-0.22232987
139	0xbf04e87f	-0.5191726
140	0x3f8015cb	1.0006651
141	0x3f18af86	0.5964283
142	0xbf12e87b	-0.5738599
143	0xbf231465	-0.63702995
144	0x3ff21be7	1.8914765
145	0xc032e677	-2.7953165
146	0xc0013ac6	-2.0192122
147	0x3fea3a4f	1.8299044
148	0x3f9647ab	1.1740621
149	0x3f694113	0.9111492
150	0xc0f30cae	-7.595298
151	0x40214607	2.5198991
152	0xbffbd472	-1.9674208
153	0xc05d4bcd	-3.4577515
154	0xc01a9b6a	-2.4157357
155	0x3e9b149c	0.3028916
156	0xc01b6568	-2.4280643
157	0x401d44d5	2.4573262
158	0xbf628f92	-0.8850032
159	0x3e6cbd39	0.23119058
160	0x3f98a625	1.1925703
161	0x3f4bd17f	0.7961654
162	0xc0015e2c	-2.0213728
163	0xbf4fbe2a	-0.8114954
164	0xbeadbc19	-0.3393257
165	0x3d9161ef	0.070987575
166	0x409cc364	4.8988514
167	0xbfd2310d	-1.6421219
168	0xc071031d	-3.765815
169	0xbf2d47b3	-0.6768753
170	0x3f46f341	0.77714926
171	0xc064080f	-3.5629919
172	0xbf592b05	-0.8483127
173	0xc0831f0d	-4.0975404
174	0x3d37012b	0.04467885
175	0x4011eff3	2.2802703
176	0xc09ef7cb	-4.967748
177	0x3fd26a2d	1.6438652
178	0xbf72938e	-0.947564
179	0xbfe9d235	-1.8267275
180	0x3df35e93	0.11883273
181	0xbfb5fa9f	-1.4217108
182	0xbf68d674	-0.9095223
183	0xbdb8d1f4	-0.090244204
184	0x3f328608	0.69735765
185	0x40219a82	2.5250554
186	0xc00cc19f	-2.1993177
187	0x3f8d5291	1.1040822
188	0x3f358770	0.70909786
189	0xbf1d1e9b	-0.61374825
190	0xbf319558	-0.69368505
191	0xbda36be0	-0.0797956
192	0x4087ad13	4.239877
193	0x407ace8a	3.9188561
194	0x3da8e95e	0.08247636
195	0xbfa59b09	-1.2937938
196	0x40395847	2.896013
197	0x3fd516e5	1.6647612
198	0x3fa1328a	1.2593548
199	0xbf50fb47	-0.8163342
200	0x406fe092	3.7480817
201	0xbe209c7c	-0.15684694
202	0xbf456fe7	-0.77123874
203	0x3fc53741	1.5407487
204	0xbf7db392	-0.9910213
205	0x409f52d3	4.9788604
206	0x40055d28	2.0838108
207	0xbe9d1e85	-0.30687347
208	0x4077a2db	3.869315
209	0x3fc8fc00	1.5701904
210	0x403956fd	2.8959343
211	0x3f91f01f	1.1401404
212	0x3ffafb8d	1.9608017
213	0xbfbcfa49	-1.4763881
214	0x4049184a	3.1421075
215	0xbf1fa46b	-0.62360257
216	0xc0abe9c2	-5.372285
217	0xbf3c1fb9	-0.73485905
218	0x4010424b	2.2540462
219	0xc087d51d	-4.244765
220	0x408993a6	4.2992735
221	0x3f4ba6dc	0.7955148
222	0x409de59d	4.934279
223	0x40898ac3	4.2981887
224	0x3f915475	1.1353899
225	0xc029db06	-2.6539931
226	0xbe0bda2e	-0.13657448
227	0xbd8fe873	-0.07026758
228	0x40719b12	3.7750897
229	0xc06e7e02	-3.726441
230	0x3ee820a9	0.45337418
231	0xc00ca239	-2.1974013
232	0x3f9415dc	1.1569171
233	0x3f5000d8	0.8125129
234	0xbf9569eb	-1.1672949
235	0xc01283eb	-2.2893016
236	0x40116b04	2.2721567
237	0x403a1904	2.9077768
238	0xc05f595a	-3.4898286
239	0x3e43fd93	0.191397
240	0xc0c23f25	-6.070208
241	0x40434986	3.0513625
242	0xc095ec4c	-4.685095
243	0x3f275d54	0.6537678
244	0x40431f53	3.0487869
245	0xbea3a55c	-0.31962097
246	0xbf5ea1db	-0.8696572
247	0xbe5f2615	-0.21791871
248	0xc01d41a7	-2.457132
249	0x4088071e	4.250869
250	0x40abd8c1	5.370209
251	0x3e6708ce	0.22561952
252	0x3f839133	1.0278686
253	0x3f4d8631	0.80282885
254	0xbdb981da	-0.0905797
255	0xbf8f53c5	-1.119744

lstm.weight_hh_l1 f4 [72, 18]
0	0x40642266	3.5645995
1	0x3faaaa0e	1.3333147
2	0x401546ae	2.332439
3	0xbeab2ed0	-0.33434153
4	0x3f7a9e23	0.9789755
5	0x40316f91	2.7724345
6	0xbeb432e5	-0.3519508
7	0x3e42144e	0.18953058
8	0x3e78f9b2	0.24314001
9	0xbfcc7aa3	-1.5974926
10	0xbf82eff4	-1.0229478
11	0xc00a0810	-2.156742
12	0xc0423af7	-3.034849
13	0x3d53f77d	0.051749695
14	0xbf7f8247	-0.9980816
15	0x4044b3b8	3.0734692
16	0x3f7dc2fb	0.9912564
17	0x3e207f85	0.15673645
18	0x3f5040f9	0.8134914
19	0xc02e9cd7	-2.7283227
20	0xc083afb6	-4.115199
21	0xbfc83b21	-1.5643045
22	0x40482950	3.1275215
23	0x3f2fb5c8	0.6863675
24	0xbf279e9d	-0.654764
25	0x3fb09bae	1.379751
26	0xc04c24d7	-3.1897485
27	0x3feb720b	1.8394178
28	0x3eac7b6a	0.33687907
29	0x3ec7226a	0.38893443
30	0x3fce620d	1.6123673
31	0x3ee6b3e2	0.45059115
32	0xbdaf51a4	-0.085604936
33	0x3fc29133	1.5200561
34	0x40893ab0	4.288414
35	0xbf4bb87b	-0.7957837
36	0x3fa6954d	1.3014313
37	0xc046a363	-3.1037223
38	0x40926b94	4.575632
39	0x40304d59	2.754721
40	0x3fbbbee9	1.4667636
41	0x3faf09da	1.3674881
42	0x4078abfc	3.885497
43	0x3cbc5abf	0.02299249
44	0xbf115372	-0.5676795
45	0xc018f005	-2.3896496
46	0xc016fdae	-2.3592334
47	0xbf7310d1	-0.94947535
48	0xc022c8e0	-2.5435104
49	0xc0030c4d	-2.0476258
50	0xbf5d5ec1	-0.8647271
51	0x3e8635cf	0.26212928
52	0x3f1bb3c8	0.608212
53	0xbfd56fcc	-1.6674743
54	0x3f820288	1.0157022
55	0xbfa9246a	-1.3214238
56	0x3fcd86a2	1.6056712
57	0x3fff6c75	1.9954973
58	0xbf1bfab1	-0.609294
59	0x3eaebf97	0.34130546
60	0xc02cbb7c	-2.6989431
61	0x3f96677b	1.175033
62	0xbf8b61bb	-1.08892
63	0x40162357	2.345907
64	0x4093555c	4.60417
65	0xbf89482b	-1.0725149
66	0xc00e6ed4	-2.2255144
67	0x3f80546f	1.0025767
68	0xbee70ea6	-0.45128363
69	0xc05ebcca	-3.4802728
70	0xbf95b18b	-1.1694807
71	0x4037fe80	2.8749084
72	0xbf0316c4	-0.5120661
73	0xc02aa6fa	-2.6664414
74	0x4004a1be	2.072372
75	0x3fe6ac61	1.8021356
76	0x3f8fbb27	1.1228989
77	0xbf93232b	-1.1495107
78	0x3f362de9	0.71163803
79	0x3d95be00	0.0731163
80	0x3fa87e48	1.3163538
81	0xc0b433a4	-5.631304
82	0xc0185743	-2.380326
83	0xc0244a91	-2.5670512
84	0xbfc1f595	-1.5153071
85	0x3e49c0e2	0.19702485
86	0xbf28af58	-0.65892553
87	0xc036d6ee	-2.8568683
88	0xbf9b6e5d	-1.2143055
89	0x3f9156f1	1.1354657
90	0x400fea6f	2.2486837
91	0xbf7da3cf	-0.9907808
92	0xbf30a388	-0.6899953
93	0xbfc528e7	-1.5403107
94	0xbe1a3023	-0.15057425
95	0xbf8866d7	-1.0656384
96	0x3f2c5f18	0.673326
97	0x3eb18a46	0.34675807
98	0xc004fee2	-2.0780568
99	0xbf1a9a03	-0.60391253
100	0x40164471	2.3479273
101	0xbfcf56c4	-1.6198354
102	0x403e7317	2.9757745
103	0xc0105002	-2.2548833
104	0xbeca73bf	-0.39541432
105	0xbfe6f2f9	-1.8042899
106	0xbff0a5d5	-1.8800608
107	0x409d18a3	4.9092574
108	0x3f9bd4c6	1.2174308
109	0x3ff3e8ae	1.9055383
110	0x3fd50f36	1.6645267
111	0x3fff7416	1.9957302
112	0x3e84f6e8	0.25969625
113	0x4005a745	2.0883343
114	0x3fc95c4d	1.5731293
115	0x3dcadd32	0.09905471
116	0xbfd7f084	-1.6870275
117	0x3fd00bcb	1.6253599
118	0x3f881929	1.0632678
119	0x3ea908c0	0.33014488
120	0x4023109e	2.5478892
121	0x3e5e95d6	0.21736845
122	0x3f292489	0.66071373
123	0x3f0515a6	0.5198616
124	0x3fd480bc	1.6601787
125	0xbe8d4c08	-0.2759707
126	0xbec222e2	-0.37917238
127	0xbc8dd299	-0.017312335
128	0xbfb01cfc	-1.3758845
129	0x3fadca8c	1.3577437
130	0xbee948cb	-0.4556335
131	0xbdad5117	-0.08462732
132	0x3edddd1e	0.43332762
133	0xbecd6be1	-0.40121368
134	0x3f649e1a	0.89303744
135	0xbf13837f	-0.5762252
136	0xbf2cd080	-0.67505646
137	0x3e5e9d37	0.2173966
138	0x3f273e2e	0.65329254
139	0x3e821cda	0.25412637
140	0x3db13070	0.08651817
141	0x3eadbab0	0.33931494
142	0xbe6b2131	-0.2296188
143	0x3d84aa6d	0.06477819
144	0x3fd65c8b	1.6746992
145	0x4003d557	2.0598962
146	0x3ea6871c	0.32524955
147	0x3f86b92a	1.0525258
148	0x3f8f4f25	1.1196028
149	0xbe6f0ffb	-0.2334594
150	0xbf8552bd	-1.0415875
151	0xbf587774	-0.8455727
152	0xbebd5b9d	-0.36983958
153	0x3f47d4aa	0.78058875
154	0x407ed2b0	3.9816093
155	0xbc9c4d58	-0.01907985
156	0x40515895	3.2710316
157	0x3f9edf21	1.2411844
158	0x3ee1ce6f	0.4410281
159	0x3efdfedb	0.49608502
160	0x3e9a3477	0.30118152
161	0x40106daf	2.2566946
162	0x3fc43cab	1.5331014
163	0x3f1a77de	0.6033915
164	0x3f9ac41e	1.20911
165	0xc073738c	-3.8039274
166	0x402d3694	2.7064562
167	0xc061278d	-3.518039
168	0x4080e088	4.0274086
169	0x3e09e569	0.1346642
170	0x3f00c6c9	0.5030332
171	0x3f9c14bd	1.2193829
172	0x3fbb318e	1.4624498
173	0x3fa4320d	1.2827774
174	0xc06e11b2	-3.71983
175	0xbfed02a4	-1.8516431
176	0xbfd67e56	-1.6757305
177	0xbe9e7404	-0.30947888
178	0xbf7d57bb	-0.9896199
179	0x40345928	2.8179417
180	0xc00843bf	-2.129135
181	0xc00f6d5e	-2.2410502
182	0x3f47ab18	0.77995443
183	0xbf0f0b98	-0.55877066
184	0xbfcf7a8b	-1.6209272
185	0x4047ec4f	3.1237981
186	0x4017921c	2.3682928
187	0xbf066e41	-0.52511984
188	0x405d3cfa	3.4568467
189	0xbeb1e7cf	-0.34747168
190	0x400c29b9	2.1900465
191	0xc0093876	-2.144071
192	0xc03b665b	-2.9281223
193	0xc056a7f0	-3.354
194	0xbea692ab	-0.32533774
195	0x3e1c36fc	0.1525535
196	0xbf87fca1	-1.0623971
197	0xbe9ab828	-0.30218625
198	0xc047ca59	-3.1217253
199	0xc07cfb50	-3.952839
200	0xc004de11	-2.0760539
201	0xbf9d2f9d	-1.2280155
202	0x3ff4297c	1.907516
203	0x40284a39	2.6295302
204	0x3f6c5b2b	0.9232661
205	0x400f79b3	2.241803
206	0xbfd6b3b4	-1.6773591
207	0x3e96f2ed	0.29482213
208	0x3f08ee84	0.53488946
209	0xbf936b0e	-1.1517045
210	0x3d5d055d	0.053960193
211	0x3f3f46b3	0.74717253
212	0xbefe1f51	-0.49633268
213	0x3fe92919	1.8215667
214	0x401856ec	2.3803053
215	0xbe83b07f	-0.25720593
216	0xbfbd883f	-1.4807204
217	0xbf659633	-0.8968231
218	0xc076d0e3	-3.8564994
219	0xbfa6f302	-1.304291
220	0xbff1ca8b	-1.8889936
221	0xbfc3069d	-1.5236393
222	0x3f7533c9	0.9578214
223	0x3fe86594	1.8155999
224	0xc0d5c64e	-6.680457
225	0xc011c257	-2.2774866
226	0x3fc97943	1.5740131
227	0x404cc00c	3.1992216
228	0x3fc96002	1.5732424
229	0xbff701e0	-1.9297447
230	0xbfdcd558	-1.7252607
231	0xc01d9e5c	-2.4627905
232	0xbf8e185a	-1.1101182
233	0xbf85e522	-1.0460551
234	0xc07a294f	-3.9087713
235	0xbf6ce61c	-0.9253862
236	0xbf23b647	-0.6395001
237	0x3ffdcc3e	1.9827955
238	0x3fbeb780	1.489975
239	0x3f7dca30	0.9913664
240	0x3e8b05af	0.27152774
241	0xbd2e7b8c	-0.042598292
242	0xbf7d38d5	-0.98914844
243	0xbe9abff8	-0.30224586
244	0x3f1b9509	0.60774285
245	0xbd9b0981	-0.07570172
246	0x3f66bf10	0.9013529
247	0x3fb4ab3e	1.4114759
248	0x3ebc0098	0.36719203
249	0x4024b392	2.57346
250	0x3f0e8c20	0.55682564
251	0x3fc387d1	1.5275823
252	0x3f2e4470	0.6807318
253	0x3f162aad	0.5865887
254	0xbe4d27e5	-0.2003475
255	0x3e5efb23	0.21775489

lstm.bias_ih_l1 f4 [72]
0	0xbebb0c6b	-0.36532912
1	0xbd66f16b	-0.056382578
2	0x3f8c42a0	1.0957832
3	0xbf1a928c	-0.6037986
4	0xbf172dfb	-0.59054536
5	0xbfcd541c	-1.6041293
6	0xbf7df016	-0.9919447
7	0x3f48f06f	0.7849187
8	0xbe628875	-0.22122367
9	0xbfaa34a3	-1.3297313
10	0xbe0e300c	-0.13885516
11	0x3f11d1f0	0.56960964
12	0xbfd63d87	-1.6737527
13	0xbe1275a9	-0.14302696
14	0x3e03b316	0.12861285
15	0xbef4c3f5	-0.47805753
16	0x3f8618d6	1.0476329
17	0xbf6ce19f	-0.9253177
18	0xbfa197b0	-1.2624416
19	0xbf257ec7	-0.6464657
20	0xbe778834	-0.24173051
21	0x3d0e5c68	0.034756094
22	0xbe73f21b	-0.23822825
23	0xc00a2f9b	-2.1591556
24	0xbfb87af0	-1.4412518
25	0x3f906643	1.1281208
26	0xbf33b2af	-0.70194525
27	0x3f829864	1.0202756
28	0xbf1423f7	-0.5786738
29	0xbf126e66	-0.57199705
30	0x3f2f40e3	0.68458384
31	0x3da4e42e	0.08051334
32	0x3f188a4b	0.5958602
33	0xbf4044bd	-0.75104886
34	0xbf82062c	-1.0158134
35	0x3f104a08	0.5636296
36	0x3e23f0ef	0.16009878
37	0xbf70a008	-0.9399419
38	0xbf52b45c	-0.82306457
39	0xbf422cd6	-0.75849664
40	0xbf5fe746	-0.8746227
41	0xbe043d0b	-0.12913911
42	0xbeb03bb5	-0.34420553
43	0xbf3687cf	-0.7130098
44	0x3f843008	1.0327158
45	0xbf73e6e1	-0.9527417
46	0xbf98436f	-1.1895579
47	0x3f4f09e4	0.80874467
48	0x3f179135	0.59205943
49	0x3f6d3864	0.9266417
50	0x3f217366	0.6306671
51	0x3f06e2c8	0.5268979
52	0x3ee002f0	0.4375224
53	0xbf39eccd	-0.72626954
54	0xbe0b08e9	-0.13577618
55	0x3e14242e	0.14466926
56	0x3f9c1b83	1.2195896
57	0xbd80ba1b	-0.06285497
58	0xbef01478	-0.46890616
59	0xbf2b288a	-0.6685873
60	0xbf8ec226	-1.1152999
61	0x3eb172cc	0.34657896
62	0x3f3bc7ac	0.7335155
63	0x400fd21b	2.2471988
64	0x3f83afdd	1.0288044
65	0x3f753832	0.9578887
66	0x3f6bd5d6	0.9212316
67	0xbf39fd37	-0.72652
68	0xbf390bce	-0.7228364
69	0xbe9ec7ea	-0.31011897
70	0x3f413b6e	0.7548131
71	0xbe8ce76a	-0.27520305

lstm.bias_hh_l1 f4 [72]
0	0xbecd19d0	-0.40058756
1	0xbe4693a0	-0.19392252
2	0x3f85b23a	1.0445015
3	0xbf5cdf99	-0.8627868
4	0xbe85f29f	-0.26161668
5	0xbfe314d1	-1.7740728
6	0xbf3684a2	-0.7129613
7	0x3f23723d	0.6384619
8	0x3b9f8364	0.004867958
9	0xbf9d8dc9	-1.2308894
10	0x3e7b25e5	0.24526174
11	0x3f6a755c	0.91585326
12	0xbfe9e46b	-1.8272833
13	0xbca50cc7	-0.020147694
14	0x3e855d47	0.26047727
15	0xbe4c2f10	-0.19939828
16	0x3f26f6c4	0.65220284
17	0xbf689fdc	-0.90868926
18	0xbfd18d08	-1.6371164
19	0xbef7999e	-0.48359388
20	0xbc689a18	-0.014196895
21	0xbd9cd604	-0.07658008
22	0xbcfd2ff1	-0.03090665
23	0xc0047c6c	-2.070094
24	0xbfacd48e	-1.3502367
25	0x3f994151	1.1973058
26	0xbf82a721	-1.0207254
27	0x3f9e2933	1.2356323
28	0xbf62ecdd	-0.88642675
29	0xbe952908	-0.29132867
30	0x3f7fe216	0.99954355
31	0x3cb7c17f	0.022431133
32	0x3eee1798	0.46502376
33	0xbf766bab	-0.9625804
34	0xbf8cfac6	-1.101403
35	0x3f298ede	0.66233623
36	0x3db23a1c	0.0870249
37	0xbf1a73a2	-0.6033269
38	0xbf44cf16	-0.7687849
39	0xbefeb31b	-0.49746022
40	0xbf270b1e	-0.6525134
41	0xbd008ad6	-0.031382404
42	0xbe902c5d	-0.28158846
43	0xbf841b8e	-1.0320909
44	0x3fbb2ee0	1.462368
45	0xbf895ea8	-1.0732012
46	0xbf772f46	-0.9655651
47	0x3efd9b96	0.49532765
48	0x3f126bb0	0.5719557
49	0x3f58887f	0.84583277
50	0x3e68333c	0.22675794
51	0x3f26eeac	0.65207934
52	0x3ef8cfbc	0.4859599
53	0xbf797d11	-0.9745646
54	0xbebe7a53	-0.372027
55	0x3e7b4d4a	0.24541202
56	0x3f976498	1.1827574
57	0x3b77c588	0.0037806947
58	0xbeaf368e	-0.3422131
59	0xbed581b1	-0.4170051
60	0xbfa3b1dc	-1.2788653
61	0x3f06cc6b	0.5265567
62	0x3ed0421d	0.4067544
63	0x400b069b	2.1722782
64	0x3f67ba07	0.9051823
65	0x3f5bf5bc	0.85921836
66	0x3f524d15	0.8214887
67	0xbf898300	-1.0743103
68	0xbf1dca1e	-0.6163653
69	0xbe87c069	-0.26513985
70	0x3f2200f7	0.6328272
71	0xbefb53ad	-0.49087277

l2.weight f4 [18, 20]
0	0xbedacdc7	-0.4273512
1	0xbf0929d1	-0.5357943
2	0xbeb19bae	-0.34689087
3	0x3e94c511	0.290566
4	0x3e352ed9	0.17693652
5	0x3fdb273b	1.7121347
6	0x3f903431	1.1265928
7	0xbfcb05d0	-1.5861149
8	0xbefaf730	-0.49016714
9	0xbe1736e7	-0.14767037
10	0x3eca07a8	0.39458966
11	0x3f70a2ed	0.93998605
12	0xbbf45981	-0.0074569588
13	0x402fc68a	2.7464929
14	0x3f87f715	1.0622278
15	0xbeaf3a65	-0.3422424
16	0xbd119f31	-0.035552207
17	0xbdd49d43	-0.10381558
18	0x3d97ccf8	0.074121416
19	0xbe01cf14	-0.1267665
20	0xbe995045	-0.29944053
21	0x40156cdb	2.334769
22	0xbe36dace	-0.17856905
23	0xbdb5e522	-0.08881594
24	0x3f9c1ebb	1.2196878
25	0x4001bf5c	2.0273046
26	0xbfabbfbb	-1.3417886
27	0x3f7e73f0	0.99395657
28	0x3f89cde5	1.0765959
29	0x3fb9adf2	1.4506209
30	0xbfebfc2c	-1.8436332
31	0x3f2ed6d9	0.6829658
32	0x3ed17c94	0.40915358
33	0xbedb4f34	-0.42833865
34	0xbfc32715	-1.5246302
35	0xbe4e9dce	-0.20177385
36	0x3e378d62	0.17925027
37	0xbdc87b14	-0.097891
38	0x3d4f7ca8	0.05065599
39	0xbebe65fe	-0.3718719
40	0xc012a550	-2.2913399
41	0xbff1e33c	-1.8897471
42	0x3fc87660	1.5661125
43	0xbe669ddd	-0.22521158
44	0x3f46a1f1	0.7759085
45	0x4083e1fa	4.121335
46	0xbecab3c7	-0.39590284
47	0x3fdbc1a0	1.7168465
48	0x3f6d8e31	0.9279509
49	0xbf239781	-0.6390305
50	0x3f20638f	0.62651914
51	0xbffa9591	-1.9576894
52	0xc0023562	-2.0345082
53	0x402c9bc5	2.6970074
54	0xbf37bb94	-0.71770597
55	0x3f9fb87a	1.2478173
56	0x3f7fb3bf	0.99883646
57	0x3f0a2e40	0.5397682
58	0xbcdf1558	-0.027231857
59	0xbdf5b819	-0.119980045
60	0xbfbe037e	-1.4844816
61	0xbec7d652	-0.390307
62	0xbfa3e70a	-1.2804883
63	0x3f09d575	0.53841335
64	0xbe1c58e6	-0.15268287
65	0x3eb0698b	0.34455523
66	0xbd9f6852	-0.077835694
67	0x3f191db7	0.59810966
68	0x3fc703a7	1.554799
69	0x3f0a8c2b	0.5412013
70	0x401ba97e	2.43222
71	0x3fdcd4ca	1.7252438
72	0x3e916746	0.28399104
73	0x3ffadc7d	1.9598538
74	0xbdff590f	-0.124681585
75	0x3fa77b0e	1.3084428
76	0xbfb03d14	-1.376864
77	0x3fe70431	1.8048154
78	0x3e0e84e4	0.13917881
79	0xbe8a6447	-0.2702963
80	0x3f118a3b	0.5685155
81	0xbf5b8393	-0.8574764
82	0xbfbb33ad	-1.4625145
83	0x3f0d077b	0.5508954
84	0xbea51ca7	-0.32248423
85	0x402f2363	2.7365348
86	0xbf000946	-0.5001415
87	0x3f26f1aa	0.652125
88	0x3fe0c8a9	1.7561237
89	0x3d2f6df5	0.042829473
90	0x3fdad4b7	1.7096165
91	0x4022980e	2.5405307
92	0x3cfbc783	0.030734783
93	0xc08cf3b3	-4.4047484
94	0x3f12317f	0.57106775
95	0xbe3a787c	-0.18210024
96	0x3f2a3e9b	0.6650178
97	0x3f7e9acf	0.9945497
98	0x3da4bd78	0.08043951
99	0xbf044e85	-0.5168231
100	0xc075c74f	-3.8402898
101	0xc03fdd29	-2.9978735
102	0x4002c2d1	2.0431406
103	0x3ff5c0a7	1.9199418
104	0xbfe9bb7a	-1.8260338
105	0xc0765550	-3.848957
106	0xbec5ea43	-0.3865529
107	0x3fb23f94	1.3925653
108	0xc086eb20	-4.216202
109	0x40f98cd0	7.798439
110	0x40638d6e	3.5555072
111	0x402a1533	2.657544
112	0x3fb5a3ad	1.4190575
113	0xc02504b2	-2.5784116
114	0x3edb53a2	0.42837244
115	0x406ef278	3.733549
116	0xbfdd5fba	-1.7294838
117	0xbf8e5045	-1.1118246
118	0x3e520f90	0.20513749
119	0xbf297837	-0.6619906
120	0xbf5c7edf	-0.8613109
121	0x4006682e	2.1001086
122	0x3f967e33	1.1757263
123	0xc0932ba1	-4.599076
124	0x40102d0f	2.2527502
125	0xc03b287d	-2.9243462
126	0x40e1c931	7.0558095
127	0x403a1532	2.9075437
128	0xc026a846	-2.6040206
129	0x3e9f8687	0.31157324
130	0x3f7495b2	0.95540917
131	0xc01d03dd	-2.4533608
132	0xc05aaaea	-3.4166818
133	0x3d2c77b4	0.042106345
134	0xc058131e	-3.3761668
135	0xc002bbdc	-2.042716
136	0xbfa79c9c	-1.3094668
137	0x3ff5a1d4	1.9190011
138	0xbe589f0a	-0.21154419
139	0x3e6002b3	0.2187603
140	0xbfb85b23	-1.4402813
141	0x3ff132db	1.8843645
142	0x3f555aeb	0.83341855
143	0x3edc120e	0.42982525
144	0xbee119a1	-0.43964866
145	0xbe894c6d	-0.2681612
146	0xbdfbd533	-0.12296524
147	0x3f313d0b	0.6923377
148	0xbed1ce21	-0.40977576
149	0xbf5dc76f	-0.86632437
150	0xbf515856	-0.81775415
151	0xbefa640a	-0.4890445
152	0x3fa15299	1.2603332
153	0xbfbc4a19	-1.4710113
154	0xbf0468c4	-0.5172236
155	0x3f27b7ca	0.65514815
156	0x3fbe9b18	1.4891081
157	0x3da5aa89	0.080891676
158	0xbbf739a0	-0.007544711
159	0xbd374b62	-0.044749625
160	0xc09e7af4	-4.952509
161	0xc0692351	-3.6427805
162	0x3fbe4cae	1.4867151
163	0x40398a8f	2.899082
164	0x3fa7f5f5	1.3121935
165	0xc06ebafc	-3.7301626
166	0xbe689455	-0.22712834
167	0x3bdb16ed	0.0066860826
168	0xc0601045	-3.500993
169	0x40b92214	5.78541
170	0x40419337	3.0246103
171	0x4019b858	2.4018764
172	0xbfad396d	-1.353315
173	0xc030b9db	-2.7613437
174	0x3e9e7762	0.30950457
175	0x40584a3d	3.3795311
176	0xbf501b90	-0.8129206
177	0x3fcc6e9a	1.5971253
178	0x3e027d70	0.12743163
179	0xbecdfffd	-0.40234366
180	0xc0231c90	-2.5486183
181	0x3e4cd53f	0.20003222
182	0x3f503169	0.81325394
183	0x3ff8cf56	1.9438274
184	0xbdc38a26	-0.09547834
185	0xbcb29646	-0.021800172
186	0x3ed3ba20	0.4135294
187	0xbf3b18b9	-0.730846
188	0x3eb6daba	0.3571375
189	0x4027ed20	2.623848
190	0x3e8ab534	0.27091372
191	0x3ed267bf	0.41094777
192	0xc02d956f	-2.7122457
193	0xc0adb386	-5.4281645
194	0x3f1510ca	0.58228743
195	0xbd9a81ae	-0.07544266
196	0xbef13640	-0.47111702
197	0xbf4b84a2	-0.79499257
198	0x3dd7a848	0.10530144
199	0xbe521588	-0.20516026
200	0x3f4e0fc7	0.80492824
201	0xc00b74c1	-2.179001
202	0xbf09d0ac	-0.53834033
203	0x3e03e7e3	0.12881427
204	0xc006169c	-2.09513
205	0xbf16e9fa	-0.5895077
206	0xbff97e96	-1.9491756
207	0x3f89892b	1.0744985
208	0xbcf4ade9	-0.029868083
209	0x3dc1562e	0.094402656
210	0x3fe00e3e	1.7504346
211	0x3fb2b739	1.3962165
212	0x3fab36c4	1.3376088
213	0xc03cb277	-2.9483926
214	0xbf34b77b	-0.7059247
215	0xbf1801bd	-0.5937765
216	0x3f51ddc0	0.8197899
217	0xbf1ea788	-0.6197438
218	0xbdbe157a	-0.0928144
219	0xbf053466	-0.5203308
220	0xc0cda58f	-6.42646
221	0xc0668d8b	-3.602389
222	0x409a73fd	4.8266587
223	0x3fe38715	1.7775599
224	0x3ec77899	0.38959196
225	0xc0c32042	-6.0976877
226	0xbf51b61e	-0.81918514
227	0x3f2cea3d	0.6754492
228	0xbfb3a149	-1.4033595
229	0x4090cc1a	4.5249147
230	0x3ff7450b	1.9317945
231	0x3ed7ae5c	0.42125213
232	0xbdf6ef10	-0.12057316
233	0xc042336c	-3.0343885
234	0xbeb3b44c	-0.35098493
235	0x4041499c	3.0201178
236	0x3f494c4a	0.7863203
237	0x3e0460ac	0.12927502
238	0xbe534503	-0.20631795
239	0xbbf10202	-0.0073549757
240	0xbe8a6b13	-0.27034816
241	0x3e9efa2b	0.31050238
242	0x401ba102	2.4317021
243	0x3e98bb35	0.29830328
244	0x3ccdd811	0.025127443
245	0xbea01376	-0.31264848
246	0x3d9e8890	0.07740891
247	0x3ede0b01	0.4336777
248	0x3eabb10d	0.33533517
249	0x3f58b2f0	0.84648037
250	0x3e23b52c	0.1598708
251	0x40232660	2.5492172
252	0x3ee5910d	0.44837227
253	0xbf81563d	-1.0104443
254	0xbe645255	-0.22297032
255	0x3fcce51d	1.600742

l2.bias f4 [18]
0	0x3f6f8b67	0.93572086
1	0x3d40caa3	0.04706825
2	0x3e05c306	0.13062677
3	0xbf988a68	-1.1917238
4	0xbfc6c580	-1.5529022
5	0xbfc37180	-1.5269012
6	0xc03cd334	-2.9503908
7	0xbf30cd39	-0.69063145
8	0xc0005a00	-2.0054932
9	0xbf19da41	-0.60098654
10	0xbf4833e7	-0.78204197
11	0xbf8724a3	-1.0558056
12	0xbf171498	-0.590158
13	0xbdb33026	-0.08749418
14	0xbefb8328	-0.49123502
15	0xbfa0eac9	-1.2571651
16	0xbf72cefd	-0.9484709
17	0xbf04209b	-0.5161225

l3.weight f4 [2, 18]
0	0x3cbd5f94	0.023116864
1	0x3d486e18	0.04893312
2	0x3f375025	0.71606666
3	0x3f327922	0.69716084
4	0xbd875b32	-0.06609191
5	0xbdae6b18	-0.0851652
6	0x3f1167ac	0.56798816
7	0x3e71f759	0.23629512
8	0xbda68dec	-0.08132538
9	0xbcc196c5	-0.023631463
10	0xbf036203	-0.5132143
11	0xbbafc760	-0.0053643435
12	0xbc19d9e8	-0.009390332
13	0x3cbad71d	0.022807652
14	0xbf102018	-0.5629897
15	0xbea4f481	-0.32217792
16	0x3e417989	0.18894018
17	0x3e1c328d	0.15253659
18	0x3e00d061	0.1257949
19	0xbe8254f0	-0.25455427
20	0xbda33026	-0.07968168
21	0xbe71b712	-0.23604992
22	0xbefb7947	-0.49115965
23	0xbf1622ae	-0.58646667
24	0x3f2bf8d2	0.67176545
25	0xbd1be21f	-0.038057443
26	0xbe9576da	-0.2919224
27	0xbd8cfa04	-0.06883624
28	0xbefacbf2	-0.48983723
29	0x3d882313	0.06647315
30	0xbf0cdb2e	-0.5502194
31	0x3d532e8f	0.051558074
32	0xbd8f94ee	-0.07010828
33	0xbea56cf4	-0.32309687
34	0xbccdf201	-0.02513981
35	0xbbbc0d0d	-0.0057388605

l3.bias f4 [2]
0	0x3f30a1df	0.68996996
1	0x3e91947e	0.28433603
