Ablation Experiments/LSTM/DoubleDQN-QT-Reward-Delay-IR-Final/ModelParam/2024年1月31日20点42分/network-lstm.pth (torch, 12495 bytes, 8 tensors)

lstm.weight_ih_l0 f4 [72, 9]
0	0x3d8d8b6d	0.06911359
1	0xbf03ddeb	-0.51510495
2	0xbeff8190	-0.49903536
3	0xbe96edf9	-0.29478434
4	0xbecbc09f	-0.39795396
5	0x3e9e5ac5	0.30928627
6	0x3efa4a8a	0.48884994
7	0x3e2dfc86	0.16990861
8	0x3d0b8112	0.034058638
9	0x3ed5693b	0.41681847
10	0x3deaa1f4	0.11456671
11	0x3e743705	0.23849113
12	0xbd4b07fe	-0.04956817
13	0x3de5f779	0.11228842
14	0xbe095f12	-0.13415173
15	0xbec42dac	-0.38316095
16	0xbf68fa0a	-0.9100653
17	0x3eb93305	0.36171737
18	0xbdb224b6	-0.08698408
19	0x3e799af7	0.2437552
20	0xbd82516d	-0.06363187
21	0xbe0a1eba	-0.13488284
22	0xbe975336	-0.29555672
23	0x3ce65d55	0.028120676
24	0xbc99f6e9	-0.018794494
25	0x3e28330a	0.1642572
26	0xbdd78e32	-0.105251685
27	0x3e4a7744	0.19772059
28	0x3d48d078	0.049026936
29	0x3d1bec84	0.038067356
30	0xbdc353cf	-0.095374696
31	0x3e4e810c	0.20166415
32	0xbe4d64ff	-0.20058058
33	0xbe1e47bd	-0.15457053
34	0xbe9016ed	-0.2814249
35	0x3f2a2d69	0.6647554
36	0xbbf09da2	-0.00734301
37	0x3dd7d685	0.10538963
38	0x3e313698	0.17305982
39	0xbe1c80d1	-0.15283515
40	0xbca8f090	-0.020622522
41	0xbe91e39a	-0.2849396
42	0xbe697d71	-0.22801758
43	0xbde2c4bb	-0.110726796
44	0xbe21d201	-0.15802766
45	0x3ea509b1	0.32233956
46	0x3db6cc1d	0.0892565
47	0x3f4e8f69	0.80687577
48	0x3f16b69c	0.5887239
49	0x3f015769	0.50524
50	0xbdae7464	-0.085182935
51	0xbdd4aee3	-0.103849195
52	0x3c911965	0.017712304
53	0x3e8faa75	0.28059736
54	0xbd20e285	-0.039278526
55	0x3e6c6857	0.23086677
56	0x3d607b25	0.05480494
57	0xbe6770a3	-0.22601561
58	0x3ec58f85	0.3858606
59	0x3d2a4834	0.041572765
60	0x3d698c70	0.057018697
61	0xbf963a26	-1.1736495
62	0x3e5a709e	0.21332023
63	0x3e97b448	0.2962973
64	0x3eb77efc	0.3583907
65	0x3dcb40ea	0.09924491
66	0x3d5f5acb	0.054529946
67	0x3f106696	0.56406534
68	0xbe13a491	-0.14418246
69	0xbd65acad	-0.05607288
70	0xbf024579	-0.50887257
71	0xbe29e4b9	-0.16591157
72	0x3d863a6d	0.065541126
73	0x3e9dfb15	0.30855623
74	0x3e96db10	0.29464006
75	0xbdee9b0c	-0.116506666
76	0x3ee5ec32	0.44906765
77	0xbe7a2cf4	-0.24431211
78	0xbdc9be0b	-0.09850701
79	0x3c21a68e	0.00986637
80	0xbcf677a1	-0.03008634
81	0xbeb83123	-0.35974988
82	0xbd33f61b	-0.043935876
83	0xbdf1e662	-0.1181152
84	0xbe536ac8	-0.20646203
85	0xbeba7df6	-0.36424226
86	0x3cea79ad	0.028622473
87	0x3e1d016a	0.1533257
88	0x3e6d34ab	0.23164622
89	0x3e352b68	0.1769234
90	0xbe363ee0	-0.17797422
91	0x3eff6dfa	0.49888593
92	0x3e8af926	0.2714321
93	0x3e5e171d	0.21688505
94	0x3f0eb3e8	0.55743265
95	0xbd51a7a0	-0.05118525
96	0xbe9808e4	-0.29694283
97	0xbeb704e8	-0.3574593
98	0xbe94f138	-0.29090285
99	0x3e4573c5	0.19282444
100	0x3e235949	0.15952028
101	0x3dc6d821	0.09709192
102	0x3e486679	0.1957034
103	0x3e29c5e7	0.165794
104	0xbe41c7b5	-0.18923838
105	0xbd96c70f	-0.07362186
106	0x3d55c823	0.05219282
107	0x3ef7971f	0.48357484
108	0xbf27f753	-0.6561176
109	0x3ed8d2fd	0.4234847
110	0x3d07a2e3	0.033114325
111	0x3de9b15d	0.114107825
112	0x3ee1f669	0.4413331
113	0xbdc1ffa7	-0.0947259
114	0xbd0f5fa9	-0.035003338
115	0x3e4de519	0.20106925
116	0xbe26b4a4	-0.16279846
117	0xbda6953b	-0.08133932
118	0x3e3c7c28	0.18406737
119	0x3e80cafc	0.25154865
120	0xbe082cd6	-0.13298354
121	0x3e9ebc46	0.31003016
122	0xbeb0a2ba	-0.3449915
123	0xbf01401a	-0.50488436
124	0xbeb7f338	-0.3592775
125	0xbe2fe8cd	-0.1717865
126	0x3e4d4742	0.20046714
127	0x3e55eb57	0.20890556
128	0x3eba0451	0.36331418
129	0xbdd41be7	-0.103568844
130	0x3e8230b3	0.2542778
131	0xbd93fc4c	-0.07225856
132	0x3df5d165	0.120028295
133	0xbdf02486	-0.11725716
134	0xbb95a7b5	-0.0045671114
135	0x3e8bedd8	0.27329898
136	0xbe8dfda6	-0.2773258
137	0x3e1f937f	0.15583609
138	0xbed5e155	-0.41773477
139	0xbe3850ec	-0.17999619
140	0xbee8c7d6	-0.45464963
141	0xbf27482d	-0.65344507
142	0xbe67e199	-0.22644652
143	0x3e1e8b7b	0.15482895
144	0x3dcf60c5	0.10125879
145	0x3d84b5f8	0.0648002
146	0x3d7ffc9f	0.062496778
147	0xbe0fd681	-0.1404667
148	0x3d998687	0.07496362
149	0x3dcb0550	0.09913123
150	0x3a8759ab	0.0010326406
151	0x3d51bb12	0.051203795
152	0x3e2f1380	0.17097282
153	0xbc659b25	-0.01401404
154	0x3ea26f0b	0.31725344
155	0x3da3360e	0.079692945
156	0xbe56255e	-0.20912692
157	0xbd395a38	-0.045252055
158	0xbcbb8f3a	-0.022895444
159	0xbe918f92	-0.28429848
160	0x3cc734c3	0.024317151
161	0xbded6bc1	-0.11592818
162	0x3e8d192d	0.2755827
163	0xbe988080	-0.29785538
164	0xbdc2e7ef	-0.09516894
165	0xbed1d09c	-0.4097947
166	0xbeef0bb5	-0.4668862
167	0x3e8cb1ad	0.27479306
168	0x3efa07b0	0.4883399
169	0x3e65b177	0.22430979
170	0x3e660117	0.22461353
171	0xbed455a2	-0.41471583
172	0x3e1435d1	0.14473654
173	0x3ea6bdda	0.3256672
174	0xbdff1b3b	-0.12456366
175	0xbd646e17	-0.055769052
176	0x3e5cdf4a	0.21569553
177	0xbb9be431	-0.004757427
178	0xbf5c5ad8	-0.86076117
179	0xbe23a7ce	-0.15981981
180	0xbe9a4692	-0.30131966
181	0x3e804d11	0.25058797
182	0xbc7b5f89	-0.015342602
183	0xbe5781b4	-0.21045572
184	0xbe078dff	-0.13237761
185	0xbd199ccb	-0.037503045
186	0x3ca20c7f	0.01978135
187	0x3d1cb511	0.038258616
188	0xbe6d0719	-0.23147239
189	0xbe84de52	-0.25950867
190	0x3f32fcf1	0.6991721
191	0x3f0caf32	0.54954827
192	0xbd7c8345	-0.061648626
193	0x3f3fb593	0.74886435
194	0xbebe0b35	-0.37117925
195	0xbdbf358d	-0.09336386
196	0xbe548cb1	-0.20756795
197	0x3e83743a	0.2567461
198	0xbdd90e8b	-0.10598477
199	0x3deac510	0.11463368
200	0x3eae3c6f	0.34030482
201	0xbec5d35c	-0.38637817
202	0xbc1b46a7	-0.009477294
203	0xbcac67aa	-0.021045525
204	0xbed15cfb	-0.4089125
205	0xbdda44b8	-0.10657638
206	0x3d842a6c	0.06453404
207	0x3ea5042b	0.32229742
208	0x3edc0d7c	0.42979038
209	0x3f0301b3	0.5117447
210	0x3f29a391	0.6626521
211	0x3f70a12d	0.93995935
212	0xbd728848	-0.059212
213	0xbecb5517	-0.39713356
214	0xbe9ee963	-0.31037435
215	0x3d4a0b59	0.04932723
216	0xbec48446	-0.38382167
217	0x3c7aeee6	0.015315747
218	0x3dc6e09e	0.09710811
219	0xbe947d11	-0.29001668
220	0x3e45c067	0.19311677
221	0xbd363c5d	-0.04449116
222	0xbec2c3cf	-0.38040015
223	0xbfb8d3ed	-1.4439675
224	0xbe1fb98f	-0.15598129
225	0x3bd8cf93	0.0066165417
226	0x3ef5bc1f	0.47995088
227	0x3e61d82e	0.22055122
228	0x3ca2ac98	0.01985769
229	0x3ea38ac9	0.31941822
230	0xbb7757f8	-0.0037741642
231	0xbea5daac	-0.32393396
232	0xbeca4700	-0.39507294
233	0xbda2a2e5	-0.07941226
234	0xbe3c2100	-0.18371964
235	0x3eddc924	0.4331752
236	0x3e8edce5	0.27902904
237	0xbea9711f	-0.33094117
238	0x3dbdd0ee	0.09268366
239	0xbe251cdf	-0.16124295
240	0xbee6c386	-0.45071048
241	0xbde47e25	-0.11156873
242	0x3da1e9ea	0.07905944
243	0xbe486fdd	-0.19573922
244	0xbd0f58cb	-0.03499679
245	0x3d4062e6	0.046969317
246	0x3b880007	0.004150394
247	0xbdd00ff1	-0.101592906
248	0x3eca561b	0.39518818
249	0x3de9a0fa	0.11407657
250	0x3dbb8b11	0.09157384
251	0xbe03e653	-0.1288083
252	0xbd8bdfe7	-0.06829815
253	0x3eb43ec8	0.35204148
254	0x3efa5be4	0.48898232
255	0x3de14927	0.11000281

lstm.weight_hh_l0 f4 [72, 18]
0	0x3dcd2ba6	0.10018091
1	0xbc912194	-0.017716207
2	0xbc025870	-0.007955655
3	0x3e6eb6be	0.23311898
4	0xbe898c9b	-0.26865086
5	0xbd7ba8db	-0.06144033
6	0xbdcb7b7f	-0.099356644
7	0xbd213e76	-0.039366208
8	0xbdb42a46	-0.087971255
9	0xbe842062	-0.25805956
10	0x3ca61748	0.020274773
11	0xbda311f4	-0.07962409
12	0x3e87f3de	0.26553243
13	0xbec7f626	-0.39054984
14	0x3ddc6d01	0.10762978
15	0x3d17da39	0.037073348
16	0xbe2023c6	-0.15638646
17	0xbdc7c3d6	-0.097541496
18	0x3d16b976	0.036797963
19	0x3e1c461f	0.15261124
20	0x3e9a5137	0.30140087
21	0xbee09835	-0.43866125
22	0x3e889ab0	0.26680517
23	0x3cb16aff	0.021657465
24	0x3eae6a3c	0.34065425
25	0x3d8b28e2	0.06794907
26	0xbe5ee81f	-0.21768235
27	0x3d9741b8	0.07385582
28	0xbd63e888	-0.05564168
29	0xbc9f2d44	-0.019430764
30	0x3d930acf	0.07179796
31	0x3e360fd5	0.17779477
32	0x3db2fbbc	0.08739421
33	0xbe2905c2	-0.16506103
34	0x3e4c2994	0.19937736
35	0x3e89ed9a	0.26939088
36	0xbecd4c93	-0.40097484
37	0x3f2dc5a0	0.67879677
38	0x3d85c692	0.06532015
39	0xbeaab68e	-0.33342403
40	0x3e5c4ead	0.21514387
41	0xbe6c70b7	-0.23089872
42	0x3e8c4424	0.27395737
43	0x3dcc4209	0.09973533
44	0xbed204fd	-0.4101943
45	0x3e2e41c8	0.17017281
46	0xbf14033b	-0.5781743
47	0x3eb3708e	0.3504681
48	0xbe5d69ac	-0.21622342
49	0x3ec69eef	0.38793132
50	0xbe55c586	-0.2087613
51	0xbdd07550	-0.101786256
52	0xbe186f86	-0.14886293
53	0xbe691117	-0.22760426
54	0x3e3bf217	0.18354069
55	0x3f250ad2	0.64469635
56	0x3e5b6145	0.21423824
57	0xbe4f101c	-0.20220989
58	0x3f24b24e	0.6433457
59	0xbf27e69a	-0.65586245
60	0x3f1b5f9d	0.6069277
61	0x3efc4815	0.49273744
62	0xbe310d09	-0.17290129
63	0x3f469d4f	0.77583784
64	0x3e2cc287	0.16871081
65	0x3f424157	0.7588095
66	0xbeabe08d	-0.33569756
67	0x3f08b293	0.5339748
68	0xbf2535ce	-0.64535224
69	0xbf428ac5	-0.75992996
70	0x3d168c93	0.036755156
71	0x3da801fa	0.08203502
72	0xbe84d996	-0.25947255
73	0xbe90e3e6	-0.28298873
74	0x3da2cd2f	0.07949292
75	0xbdfc2a0b	-0.123127066
76	0xbe5acd63	-0.21367411
77	0x3e24fdc3	0.16112427
78	0xbd6fba8d	-0.058527518
79	0x3d6ce29f	0.05783331
80	0xbe56ce7a	-0.20977202
81	0x3e1d3e1f	0.15355729
82	0x3ddae66f	0.10688483
83	0xbda59f1c	-0.08086988
84	0x3e449b55	0.1919988
85	0xbd847cfd	-0.06469152
86	0x3e41952a	0.18904558
87	0x3ce2138e	0.027597215
88	0x3e0d4e60	0.13799429
89	0xbd34be2f	-0.044126686
90	0xbe06b1e3	-0.13153796
91	0x3dc9572d	0.098310806
92	0x3ee09e23	0.4387065
93	0x3b5dd600	0.0033849478
94	0x3e0af024	0.13568169
95	0xbd7ff9bf	-0.062494036
96	0x3e8b092b	0.27155432
97	0x3e4050b4	0.18780786
98	0x3de8c334	0.11365357
99	0xbd8ce905	-0.068803824
100	0xbde623e0	-0.11237311
101	0x3e747940	0.23874378
102	0x3bcdc298	0.006279301
103	0x3ea56497	0.32303306
104	0xbd6924b3	-0.056919765
105	0xbde2b48e	-0.11069594
106	0x3cedf38b	0.029046794
107	0x3d1f3081	0.038864616
108	0xbe0857a6	-0.13314685
109	0xbcc8334f	-0.024438528
110	0xbcfc0a2a	-0.030766565
111	0xbea721e7	-0.32643053
112	0x3d8d8293	0.06909671
113	0xbe9ef4f4	-0.3104626
114	0x3e14251f	0.14467286
115	0xbcbac464	-0.022798724
116	0xbe94aa0f	-0.29035994
117	0x3d3304b8	0.043705672
118	0x3e108f19	0.14117087
119	0x3e8dae93	0.27672252
120	0xbe50385f	-0.20334004
121	0x3c7726ab	0.015084903
122	0x3c46fa54	0.012144644
123	0xbebe4578	-0.37162375
124	0x3c942509	0.018084066
125	0x3eccb4d5	0.39981714
126	0xbee10294	-0.4394728
127	0x3d0900b6	0.033447944
128	0x3afedccc	0.0019444465
129	0xbeb57c8a	-0.35446578
130	0x3db3bff8	0.087768495
131	0xbd8e214b	-0.06939944
132	0xbe3554b3	-0.17708091
133	0xbde45821	-0.11149622
134	0x3e1800a6	0.14843997
135	0x3eb95f35	0.3620545
136	0x3e04fccc	0.1298706
137	0x3ea29eaf	0.3176169
138	0x3e213640	0.15743351
139	0x3d904919	0.07045192
140	0x3de1cddd	0.110255934
141	0x3ccd898f	0.025090007
142	0xbe1df708	-0.15426266
143	0xbe4e2d9d	-0.20134588
144	0x3d4c630c	0.049899146
145	0xbe232296	-0.15931162
146	0x3cc44238	0.023957357
147	0xbe62b8f5	-0.22140868
148	0x3e6a7740	0.22897053
149	0xbda366e4	-0.07978609
150	0xbdf6a5c0	-0.12043333
151	0xbce25ec4	-0.027633078
152	0x3e29b3e2	0.16572526
153	0x3e6cc458	0.23121774
154	0x3dc3c58e	0.09559165
155	0x3d142569	0.03616849
156	0x3df445b0	0.11927354
157	0xbe288263	-0.16455989
158	0x3ddb2d7e	0.10702036
159	0xbe66b27a	-0.22529021
160	0x3cbbe096	0.02293424
161	0xbd5b1c3b	-0.05349372
162	0x3e0980a7	0.13427983
163	0x3e89c395	0.2690703
164	0x3e176085	0.14782913
165	0x3deb4a10	0.11488736
166	0x3d586c3d	0.0528376
167	0xbe59f09f	-0.21283196
168	0x3e49a6e2	0.19692567
169	0x3e3a3a98	0.18186414
170	0xbd8c9c88	-0.068657935
171	0x3baf2708	0.005345229
172	0x3e41c3d8	0.18922365
173	0xbe16124d	-0.14655419
174	0xbe2c1496	-0.16804728
175	0x3da51231	0.0806011
176	0xbeaf5afa	-0.34249097
177	0xbe432321	-0.1905637
178	0xbd82d8cf	-0.06389009
179	0x3d8421c7	0.06451755
180	0x3e457ebd	0.19286628
181	0x3e8208ba	0.25397283
182	0xbea2a377	-0.3176534
183	0x3dda7b0d	0.10668001
184	0xbe6dec43	-0.23234658
185	0x3e721c51	0.23643614
186	0xbd36390c	-0.044487998
187	0x3df5d7f0	0.120040774
188	0xbe689018	-0.22711217
189	0xbd528c26	-0.051403187
190	0xbeaf0bd8	-0.34188724
191	0x3cd08484	0.025453813
192	0x3d16dc4d	0.03683119
193	0x3dca29ad	0.0987123
194	0xbeaef456	-0.3417079
195	0xbdd6d81b	-0.104904376
196	0xbd88b8ab	-0.066758476
197	0x3dc7b769	0.097517796
198	0xbbdd04c3	-0.0067449524
199	0x3e403d6e	0.18773434
200	0x3e98e57f	0.29862592
201	0xbe1fac9c	-0.15593189
202	0x3f25a24b	0.64700764
203	0xbf0174c7	-0.50568813
204	0x3f34a19c	0.70559096
205	0x3e0b105d	0.13580461
206	0xbe5e1178	-0.21686351
207	0x3ecfa02b	0.40551886
208	0x3c4e8ef1	0.012607322
209	0x3e20800a	0.15673843
210	0xbe2f1cbe	-0.17100808
211	0x3ed13ba3	0.40865812
212	0xbe64503b	-0.2229623
213	0xbf09053d	-0.5352362
214	0x3e9f6bcd	0.31136933
215	0x3d4ddf19	0.05026159
216	0xbe79799d	-0.24362798
217	0xbd8659a8	-0.06560069
218	0x3e896385	0.2683374
219	0xbecfb25b	-0.40565762
220	0xbe7c8099	-0.24658431
221	0xbe27d38e	-0.16389295
222	0x3d4b90bf	0.049698588
223	0xbe34f849	-0.17672838
224	0x3e01933e	0.12653825
225	0xbdcfc3f6	-0.101447985
226	0xbe457839	-0.19284143
227	0x3e985029	0.29748657
228	0xbe0b77bd	-0.13619895
229	0xbd979845	-0.0740209
230	0x3e437b3e	0.19089982
231	0xbebf6a9e	-0.3738603
232	0xbe55c36f	-0.20875333
233	0xbe129b05	-0.14316948
234	0xbde98027	-0.11401396
235	0xbe25f85f	-0.16208027
236	0x3e756f1f	0.2396817
237	0x3e09589e	0.13412711
238	0xbdc43128	-0.09579688
239	0x3cbb8052	0.022888336
240	0x3d2eea29	0.04270378
241	0xbd3832f2	-0.04497046
242	0x3e1c1e0c	0.15245837
243	0xbd92c607	-0.07166677
244	0x3b190cdd	0.0023353614
245	0x3d222e92	0.039595194
246	0x3e10584e	0.14096186
247	0x3d177c2a	0.036983646
248	0x3e120109	0.14258207
249	0x3df07b27	0.117422394
250	0xbdaa3bd5	-0.08312193
251	0xbea2a6e0	-0.3176794
252	0xbd69aaa9	-0.05704752
253	0xbe90700e	-0.2821049
254	0x3e5b23ce	0.21400377
255	0xbe55e057	-0.2088636

lstm.bias_ih_l0 f4 [72]
0	0xbe0724ff	-0.13197707
1	0x3e2c4b84	0.16825682
2	0x3e5fd3f3	0.21858196
3	0x3f389323	0.7209951
4	0x3d96edeb	0.07369598
5	0x3dd54fb9	0.104155965
6	0xbb9e1aff	-0.0048249955
7	0x3bc100de	0.005889996
8	0x3eb31686	0.34978122
9	0xbdd6efd0	-0.10494959
10	0xbe19ffa8	-0.15038931
11	0x3eddfe42	0.43358046
12	0xbc89a768	-0.016803458
13	0x3e2135e3	0.15743212
14	0x3e15347a	0.145708
15	0x3df085b9	0.117442556
16	0x3ea6669e	0.32500166
17	0x3c631ce8	0.013861872
18	0x3de686e5	0.11256198
19	0xbd23960f	-0.03993803
20	0x3e12c4d2	0.14332893
21	0x3e9a5560	0.3014326
22	0xbe5d5156	-0.21613058
23	0x3e93ac97	0.28842613
24	0x3d8efe73	0.06982126
25	0xbdb4e9a4	-0.08833626
26	0x3e66a9e4	0.22525746
27	0xbe817b92	-0.2528959
28	0xbe8849bd	-0.26618758
29	0xbe4c79fb	-0.19968407
30	0x3e444b11	0.1916926
31	0x3dd96f57	0.106169395
32	0x3eb23d8e	0.34812587
33	0xbd28acee	-0.041180544
34	0x3e2bed1a	0.16789666
35	0x3e6d0f91	0.2315047
36	0x3e382f32	0.17986754
37	0xbde9108a	-0.11380108
38	0x3c7d0958	0.015444122
39	0xbe673976	-0.22580513
40	0x3d9becfc	0.076135606
41	0xbe3c8394	-0.18409568
42	0xbc0822bd	-0.0083090635
43	0x3d000617	0.031255808
44	0x3d6126cc	0.05496864
45	0x3d6b12dd	0.057391036
46	0x3da4da2f	0.08049428
47	0x3d86e6c7	0.06586986
48	0x3bc4cb62	0.0060056904
49	0xbdbcedd7	-0.09225052
50	0x3e4edc2d	0.20201178
51	0xbdfc3fdd	-0.123168685
52	0x3c8fd9f8	0.01755999
53	0xbde8bc14	-0.11363998
54	0xbdb6943e	-0.08914994
55	0x3dc495df	0.09598898
56	0x3e9f9036	0.31164712
57	0x3eb3da75	0.35127607
58	0xbc4cc145	-0.012497251
59	0xbdab2f52	-0.08358635
60	0xbc2bf1d5	-0.010494669
61	0x3e9f7daa	0.31150562
62	0x3e0417de	0.1289973
63	0x3c80a47e	0.015703436
64	0xbe90c337	-0.28273937
65	0x3eb48293	0.3525587
66	0x3c8f65ed	0.017504657
67	0xbd1d86d6	-0.038458668
68	0x3e92cc69	0.28671578
69	0xbcc4ca3b	-0.024022212
70	0x3e4db4d2	0.20088509
71	0xbe094821	-0.13406421

lstm.bias_hh_l0 f4 [72]
0	0x3ddfb909	0.109239645
1	0x3ed6279d	0.41827098
2	0x3e850f2a	0.25988132
3	0x3f2f67bd	0.6851767
4	0x3db95be8	0.09050733
5	0x3e734c6e	0.23759624
6	0x3e69b1ad	0.22821684
7	0x3ea28e02	0.31748968
8	0xbd852855	-0.06501833
9	0x3e01f89d	0.12692495
10	0x3d65363b	0.05595992
11	0x3e2c7612	0.16841915
12	0xbd149d71	-0.03628296
13	0xbdd15539	-0.10221333
14	0x3e76f73c	0.2411775
15	0x3e41972a	0.18905321
16	0xba707105	-0.00091721147
17	0x3dfef40e	0.124488935
18	0x3e400edd	0.1875567
19	0xbdaf3a86	-0.08556084
20	0xbe6c9110	-0.23102212
21	0xbe06d67b	-0.13167755
22	0x3e2bafa9	0.16766228
23	0x3d11f54b	0.03563432
24	0xbe0ad122	-0.1355634
25	0x3e807399	0.25088194
26	0x3d7312da	0.05934415
27	0xbe5d3792	-0.2160323
28	0x3d4dbdc6	0.05022981
29	0xbe149e61	-0.14513542
30	0xbe1547f7	-0.14578234
31	0x3d47ea40	0.048807383
32	0xbc7403f2	-0.014893519
33	0x3e71030f	0.23536323
34	0x3d6479dc	0.055780277
35	0x3e01e159	0.1268362
36	0xbe28013c	-0.16406721
37	0xbde475f7	-0.111553125
38	0x3e10320e	0.14081594
39	0x3e4e326b	0.2013642
40	0xbdb8f424	-0.09030941
41	0xbe5eae6a	-0.21746221
42	0x3e6390c8	0.22223198
43	0xbd6865b2	-0.05673761
44	0xbdf6a4de	-0.12043165
45	0x3e116fb8	0.14202774
46	0x3e614dde	0.2200236
47	0x3e512919	0.20425834
48	0x3ce81092	0.028328214
49	0x3dd44c50	0.10366118
50	0xbe65bf32	-0.22436216
51	0xbd76be57	-0.060240116
52	0xbc5fc536	-0.013657859
53	0x3e0d8b22	0.13822606
54	0x3dde6a26	0.1086009
55	0x3ea8588e	0.32880062
56	0x3f00df37	0.503406
57	0x3f2ac6cc	0.6670959
58	0x3c0a6a41	0.0084481845
59	0x3ca984b3	0.020693159
60	0xbdd627ce	-0.10456811
61	0x3d38f14a	0.045151986
62	0x3ed1fc66	0.41012877
63	0xbe257b17	-0.16160236
64	0xbe597187	-0.21234713
65	0x3e949cbd	0.29025832
66	0x3e202078	0.15637386
67	0x3d4d29a1	0.05008853
68	0x3de4c2f2	0.11169995
69	0x3dd64eb8	0.10464233
70	0x3dd1fc12	0.10253157
71	0x3d9970f5	0.07492248

l2.weight f4 [18, 20]
0	0x3d67dbbe	0.056606047
1	0xbe5901b0	-0.2119205
2	0x3e9fd020	0.31213474
3	0xbf67820a	-0.904328
4	0x3e13003d	0.1435556
5	0x3db32624	0.08747509
6	0xbeca30ea	-0.39490443
7	0xbde76842	-0.112991825
8	0x3ed78c12	0.42099053
9	0x3e02170b	0.12704103
10	0xbe224f2c	-0.15850514
11	0x3eb94de5	0.3619224
12	0x3d98d10b	0.07461747
13	0xbe50ede9	-0.20403256
14	0x3eb5dd6a	0.35520488
15	0xbe16c1fa	-0.14722434
16	0x3d086fa0	0.03330958
17	0xbe2bc04e	-0.16772577
18	0xbcda1948	-0.026623383
19	0xbdffdc86	-0.124932334
20	0xbd9a77e0	-0.075423956
21	0xbea862cf	-0.32887885
22	0x3d0b15b3	0.03395624
23	0xbefb396e	-0.49067253
24	0x3da441c6	0.08020358
25	0xbe0b5f00	-0.13610458
26	0xbed9be61	-0.4252806
27	0xbea8b316	-0.32949132
28	0x3ec71c56	0.38888806
29	0x3d912a8d	0.07088194
30	0x3dfb3389	0.12265689
31	0x3e16ee9e	0.14739463
32	0x3e71d614	0.2361682
33	0xbdfbfbc8	-0.12303883
34	0x3ed0f708	0.4081347
35	0x3cc0ce08	0.023535743
36	0x3d05e4a0	0.032688737
37	0x3c2cbbde	0.010542838
38	0x3d0e75b0	0.034780204
39	0x3d493b59	0.049128864
40	0xbd82eac9	-0.06392438
41	0xbe1e2b9d	-0.15446325
42	0x3e53e25b	0.20691817
43	0xbf2561a6	-0.64602125
44	0xbb44d4f2	-0.0030034152
45	0xbe2f8e15	-0.17144044
46	0xbea0162f	-0.31266925
47	0xbeaebf48	-0.3413031
48	0x3ed7bfd8	0.42138553
49	0xbcbbc5c3	-0.022921449
50	0xbe4836ec	-0.19552201
51	0xbccb7359	-0.024835275
52	0x3e5f661e	0.21816298
53	0xbbc4748a	-0.005995338
54	0x3ec2c8a1	0.38043693
55	0xbd114ab5	-0.035471637
56	0xbd122525	-0.035679955
57	0x3d1b38ad	0.037895847
58	0x3d7db388	0.061938792
59	0x3c4d080a	0.012514124
60	0xbb5348e7	-0.0032239498
61	0x3e919981	0.28437427
62	0xbe5281ac	-0.20557278
63	0x3f6a467f	0.9151382
64	0x3e199cf6	0.15001282
65	0x3e11d0e8	0.14239848
66	0x3d6d70f9	0.057969067
67	0x3e00a0cd	0.1256134
68	0xbeb28224	-0.34864914
69	0xbeae73c6	-0.34072703
70	0x3e9ea99c	0.30988777
71	0xbd58bae5	-0.05291261
72	0xbeb1fd3b	-0.34763512
73	0xbe1a5dec	-0.15074891
74	0xbed7cb0c	-0.421471
75	0xbcf08258	-0.029359028
76	0x3e415c9b	0.18882982
77	0xbdc173d3	-0.0944592
78	0x3dca3960	0.09874225
79	0x3df0340b	0.117286764
80	0x3dbebf3c	0.09313819
81	0x3c52d44f	0.012868001
82	0x3e83514c	0.25647962
83	0xbeff3976	-0.49848527
84	0xbe22da63	-0.1590362
85	0x3e08799a	0.13327637
86	0xbec30a43	-0.38093767
87	0xbe6db70d	-0.2321436
88	0x3d45d7cc	0.048301503
89	0xbd6d5ffb	-0.057952862
90	0xbe465daf	-0.19371675
91	0x3dd92ca5	0.106042184
92	0x3ec3e8ed	0.38263646
93	0x3d48a79c	0.04898797
94	0x3e8157d0	0.25262308
95	0x3ca7e09f	0.02049285
96	0xbd7a6b11	-0.061137263
97	0xbe8aba95	-0.27095476
98	0xbd1ba940	-0.038003206
99	0x3e03306f	0.12811445
100	0xbcfac687	-0.030612243
101	0xbe0c23fc	-0.13685602
102	0x3e350176	0.17676339
103	0xbf63a0d7	-0.889173
104	0x3dc68e70	0.096951365
105	0x3ca912ad	0.020638788
106	0xbeece789	-0.46270397
107	0xbe98accc	-0.29819334
108	0x3ed720c2	0.4201718
109	0x3d877f29	0.06616051
110	0xbda1b535	-0.078958906
111	0x3e3d9c9b	0.18516771
112	0x3e8d1402	0.27554327
113	0xbddf2a22	-0.10896708
114	0x3e8b1b5e	0.27169317
115	0x3c94ad26	0.01814897
116	0xbce7ff1b	-0.028319886
117	0x3c48beb1	0.012252496
118	0xbdeaddbb	-0.11468073
119	0xbc980a81	-0.018559696
120	0xbcae5f25	-0.021285603
121	0xbc4a95b8	-0.012364797
122	0xbea78c51	-0.3272424
123	0x3f6aecc6	0.9176754
124	0x3e61ae5b	0.22039168
125	0xbcab499c	-0.020909123
126	0x3ea094d3	0.31363544
127	0x3e652c03	0.2238007
128	0xbe2a879e	-0.16653296
129	0xbe398bc6	-0.18119726
130	0x3eaaec4e	0.3338341
131	0xbe51d0cd	-0.20489807
132	0xbe8fb4ea	-0.28067714
133	0x3e681b66	0.22666702
134	0xbeaaa084	-0.3332559
135	0xbdd8a50d	-0.10578356
136	0x3e80aea1	0.2513323
137	0x3d2ba722	0.041907437
138	0xbe488318	-0.19581258
139	0x3b6edcef	0.0036447605
140	0x3df24279	0.11829085
141	0xbe2f45df	-0.17116497
142	0x3dc1899e	0.094500765
143	0xbf230a85	-0.63687927
144	0x3da3baf2	0.07994641
145	0x3e5c631d	0.21522184
146	0xbe6d80e7	-0.23193704
147	0x3d625732	0.055258937
148	0x3e4c2a5b	0.19938032
149	0xbcd8fc15	-0.02648739
150	0xbc6dafe2	-0.014507266
151	0x3ea9ec96	0.33188313
152	0x3e54e5ef	0.20790838
153	0xbe7b5146	-0.24542722
154	0x3e688911	0.22708537
155	0x3d9c826f	0.07642066
156	0xbd37d3db	-0.044879775
157	0x3dcf925d	0.101353385
158	0x3e141eee	0.14464924
159	0xbd119192	-0.035539217
160	0x3e365a62	0.17807916
161	0x3d007e21	0.031370286
162	0x3eba6c28	0.36410642
163	0xbefdcf3a	-0.49572164
164	0xbe15658b	-0.14589517
165	0x3e12381c	0.14279217
166	0xbd8e6fd0	-0.0695492
167	0x3d1e09b0	0.038583457
168	0x3eaef5c1	0.3417187
169	0x3e40a14f	0.18811534
170	0xbd32fc4c	-0.04369764
171	0x3e94fada	0.29097635
172	0x3eb2db05	0.34932724
173	0xbdf33404	-0.118751556
174	0x3e9fc68f	0.31206176
175	0x3d206548	0.03915909
176	0xbd9c8132	-0.076418296
177	0xbe2cbcbf	-0.16868876
178	0xbd6078b4	-0.05480261
179	0xbdc6a908	-0.09700209
180	0xbe0f8c5f	-0.14018391
181	0x3d92d82c	0.07170138
182	0xbeb7b117	-0.35877296
183	0x3f4bd1d9	0.7961708
184	0x3e57bf62	0.210691
185	0xbe311c74	-0.1729601
186	0x3e49bc1f	0.19700669
187	0x3e859806	0.26092547
188	0xbe86508e	-0.26233333
189	0xbe49bd40	-0.197011
190	0x3e92ed30	0.28696585
191	0xbebc1c12	-0.36740166
192	0xbeab16fc	-0.33415973
193	0x3e65c36a	0.22437826
194	0xbe037db6	-0.12840924
195	0xbe057a5f	-0.13034962
196	0x3c8de9ae	0.017323341
197	0x3daab741	0.08335734
198	0x3d8c41c8	0.06848484
199	0xbe6cc7c1	-0.23123075
200	0xbe256d6a	-0.1615502
201	0x3eb1f438	0.34756637
202	0xbdfd102e	-0.12356602
203	0x3f3f4607	0.7471623
204	0x3c772fae	0.015087051
205	0xbd3032d4	-0.043017223
206	0x3e51b763	0.20480113
207	0x3dbca3fe	0.092109665
208	0xbec51cc1	-0.384985
209	0xbe7b9954	-0.24570209
210	0x3e2fd241	0.17170049
211	0xbe31ca2d	-0.1736228
212	0xbd4cca07	-0.049997356
213	0xbd844cb2	-0.06459941
214	0xbecb9ac2	-0.39766508
215	0xbe7808d1	-0.24222113
216	0x3e73478e	0.23757765
217	0xbdab2f3c	-0.083586186
218	0x3b020940	0.001984194
219	0x3da88ed1	0.08230365
220	0x3c6cf9ed	0.014463884
221	0x3eb0b091	0.3450971
222	0xbe8a1edc	-0.2697667
223	0x3f56e039	0.83935887
224	0xbe4d12e4	-0.20026737
225	0xbd433017	-0.047653284
226	0x3ec09f0e	0.3762135
227	0x3e6f3904	0.23361593
228	0xbec3a7cb	-0.38213953
229	0xbd7ac5d0	-0.061223805
230	0x3e4c2b23	0.1993833
231	0xbed463f8	-0.4148252
232	0xbe8fab09	-0.28060177
233	0xbd40aa17	-0.04703721
234	0xbee47393	-0.44619426
235	0xbd97bc1b	-0.07408925
236	0xbcec70ce	-0.028862383
237	0xbda1c883	-0.07899573
238	0x3dd6456c	0.1046246
239	0x3d0dba69	0.034601603
240	0x3e1c8243	0.15284066
241	0xbc54f354	-0.012997467
242	0xbed3d3c8	-0.41372514
243	0x3f0b4ae2	0.5441114
244	0x3d794c33	0.060863685
245	0xbdc01d3e	-0.093805775
246	0x3da6a0f0	0.08136165
247	0x3e1e214c	0.15442389
248	0xbe945929	-0.28974274
249	0xbded328b	-0.11581906
250	0x3e20a164	0.15686566
251	0xbe261f7e	-0.16222951
252	0xbe9e2414	-0.308869
253	0x3d4d684e	0.0501483
254	0xbe6075e7	-0.21919976
255	0xbd4be7a7	-0.049781468

l2.bias f4 [18]
0	0x3d733b42	0.059382685
1	0xbe27ca20	-0.16385698
2	0x3e13aa30	0.1442039
3	0x3e3f114b	0.1865894
4	0xbe215469	-0.15754856
5	0x3e77aa5e	0.24186084
6	0xbe072c61	-0.13200523
7	0xbe281128	-0.16412795
8	0x3e4ccca5	0.1999994
9	0xbda63532	-0.08115615
10	0x3d952be6	0.072837636
11	0x3d3fec5a	0.04685626
12	0xbe6fc8fa	-0.2341651
13	0x3e62a992	0.22134998
14	0x3dd3421e	0.10315345
15	0x3e3c22a5	0.18372591
16	0xbe3216b9	-0.1739148
17	0xbdd84df6	-0.10561745

l3.weight f4 [2, 18]
0	0x3db2cb89	0.087302275
1	0x3e8216d7	0.2540805
2	0x3ea7fe57	0.32811233
3	0xbe6c6969	-0.23087086
4	0x3e375c8c	0.17906398
5	0x3ea4d771	0.3219562
6	0xbe8f07da	-0.27935678
7	0x3da392ca	0.07986982
8	0x3e02d5e1	0.12776901
9	0xbe2e5377	-0.17024027
10	0xbe04993d	-0.12949081
11	0xbe69f807	-0.22848521
12	0x3bb3e7b4	0.0054902676
13	0x3e1b59bb	0.15170948
14	0xbe418134	-0.18896943
15	0xbd549701	-0.05190182
16	0x3d73f428	0.059559017
17	0xbc92a1e0	-0.017899454
18	0xbe419a94	-0.18906623
19	0xbe54b835	-0.20773394
20	0xbe9137f0	-0.2836299
21	0x3e8322b3	0.2561241
22	0x3d820196	0.06347959
23	0xbebfb1da	-0.37440377
24	0x3ec3d406	0.382477
25	0xbe3ecfbc	-0.18633932
26	0xbe1bd82a	-0.15219179
27	0x3e8f67f5	0.28009
28	0x3e551b07	0.20811091
29	0x3e62bd3b	0.22142498
30	0x3e51fb96	0.20506129
31	0xbd88dfad	-0.06683288
32	0x3ddf4e05	0.10903553
33	0x3e770678	0.24123561
34	0xbcc61d95	-0.024184028
35	0x3e4bfb43	0.19920067

l3.bias f4 [2]
0	0x3e842b6a	0.25814372
1	0x3c432e64	0.011912916
