Ablation Experiments/LSTM/DoubleDQN-QT-Reward-Delay-IR-Final/ModelParam/2024年1月31日20点42分/target-network-lstm.pth (torch, 12495 bytes, 8 tensors)

lstm.weight_ih_l0 f4 [72, 9]
0.068661615 -0.5188049 -0.5058325 -0.30197242 -0.40307587 0.30845514 0.48792523 0.17253797
0.033707086 0.40988705 0.1145479 0.23784637 -0.057707366 0.10639909 -0.13811892 -0.3864519
-0.9151227 0.36042565 -0.081945516 0.23945571 -0.065918446 -0.13046627 -0.29420462 0.032244124
-0.01340122 0.17018093 -0.105607994 0.19190165 0.05344569 0.03951816 -0.097532295 0.20160186
-0.20110989 -0.15375455 -0.27950913 0.6590769 -0.008978794 0.10584961 0.17437136 -0.1544247
-0.021745924 -0.2844406 -0.22832765 -0.11003519 -0.15797727 0.32591778 0.085227095 0.8032424
0.5913389 0.5082202 -0.07520978 -0.09741589 0.020450413 0.28175688 -0.042748258 0.23029782
0.054740753 -0.23382759 0.38127902 0.04538135 0.059361104 -1.1699098 0.21266557 0.29640168
0.35767302 0.10191865 0.050924614 0.5623555 -0.13962404 -0.055094402 -0.5108355 -0.16511947
0.0707416 0.30832312 0.30520412 -0.11541832 0.45190048 -0.24321815 -0.09719044 0.012164522
-0.029407758 -0.35862723 -0.05112272 -0.12337552 -0.21458961 -0.36978886 0.025687763 0.15499948
0.23859136 0.17758292 -0.17675282 0.50336605 0.27750638 0.21687666 0.56140137 -0.05295035
-0.3006798 -0.36023745 -0.29027298 0.18699764 0.15608686 0.089127064 0.19269212 0.16070616
-0.19491562 -0.07319719 0.05614635 0.48120794 -0.65356016 0.420007 0.041322898 0.10958884
0.43659738 -0.09033537 -0.03144905 0.2061381 -0.15971568 -0.08656807 0.18702261 0.24528006
-0.13076627 0.30733564 -0.34493685 -0.50596255 -0.3609507 -0.1721214 0.20203973 0.21058369
0.37001455 -0.100682035 0.25724724 -0.073622875 0.1199778 -0.11843723 -0.005421978 0.27678424
-0.27551332 0.1594419 -0.4075237 -0.1733156 -0.44626114 -0.6445522 -0.22286975 0.15375078
0.101505645 0.06426004 0.06473357 -0.1439202 0.07307834 0.099510446 6.615682e-05 0.053413752
0.17277871 -0.008782579 0.31691316 0.08612744 -0.20400983 -0.039831527 -0.016834017 -0.28105506
0.025569947 -0.11435369 0.27581203 -0.298412 -0.09504279 -0.41066688 -0.46686152 0.27468067
0.48814255 0.22486617 0.22371382 -0.41585824 0.14511429 0.33048162 -0.12932126 -0.058172744
0.21330255 -0.006680408 -0.86244595 -0.15632518 -0.29901055 0.24527898 -0.01955324 -0.21151122
-0.1350023 -0.03857371 0.020119155 0.043689318 -0.23073053 -0.2730955 0.68831587 0.53690755
-0.07889152 0.73176515 -0.3771673 -0.09465964 -0.20018831 0.26051933 -0.107971795 0.11526387
0.3433358 -0.38946763 -0.010512088 -0.02179428 -0.40971497 -0.10584283 0.06467807 0.3250052
0.42684314 0.5077841 0.6652339 0.94270736 -0.05030478 -0.39158905 -0.30882835 0.049690172
-0.38446513 0.0139717 0.09740654 -0.29510137 0.19058642 -0.044735547 -0.38080144 -1.4391743
-0.15435305 0.0062797577 0.48091075 0.22437501 0.018593485 0.31935173 0.0003373833 -0.32351843
-0.3987328 -0.079523 -0.17870173 0.43328205 0.2889402 -0.32902288 0.096094616 -0.16049343
-0.4490132 -0.10953392 0.079106435 -0.19342943 -0.04034731 0.045561407 0.0005111676 -0.10466276
0.3946128 0.11703152 0.09663745 -0.12880817 -0.06959114 0.3532474 0.49115944 0.10793924
00000000: 769e 8c3d 66d0 04bf 3d7e 01bf 219c 9abe
00000010: f65f cebe d5ed 9d3e 56d1 f93e cbad 303e
00000020: 7110 0a3d b7dc d13e 1798 ea3d 008e 733e
00000030: 8f5e 6cbd c4e7 d93d 0c6f 0dbe 06dd c5be
00000040: 7b45 6abf b689 b83e 0dd3 a7bd e133 753e
00000050: 4000 87bd f398 05be fda1 96be 6a12 043d
00000060: ca90 5bbc e943 2e3e 0149 d8bd de81 443e
00000070: dee9 5a3d cbdd 213d 03bf c7bd b870 4e3e
00000080: c0ef 4dbe d571 1dbe d21b 8fbe 44b9 283f
00000090: cb1b 13bc aec7 d83d 688e 323e 8221 1ebe
000000a0: 8224 b2bc 33a2 91be b9ce 69be 215a e1bd
000000b0: cbc4 21be b2de a63e 8b8b ae3d 4ba1 4d3f
000000c0: fc61 173f b81a 023f 9607 9abd fb81 c7bd
000000d0: a087 a73c 7042 903e cc18 2fbd 31d3 6b3e
000000e0: d737 603d 8070 6fbe 0137 c33e cbe1 393d
000000f0: a124 733d 9bbf 95bf 01c5 593e f6c1 973e
00000100: eb20 b73e baba d03d 5496 503d 88f6 0f3f
00000110: 9bf9 0ebe abaa 61bd 1ec6 02bf 1415 29be
00000120: f9e0 903d 87dc 9d3e b743 9c3e 7160 ecbd
00000130: 805f e73e 2e0e 79be c80b c7bd b44d 473c
00000140: 8ae8 f0bc fd9d b7be 0f66 51bd 4eac fcbd
00000150: 61bd 5bbe f754 bdbe 256f d23c 2fb8 1e3e
00000160: 4b51 743e 4cd8 353e b1fe 34be 99dc 003f
00000170: 5115 8e3e ea14 5e3e 00b8 0f3f 77e2 58bd
00000180: b4f2 99be 0b71 b8be a99e 94be 4f7c 3f3e
00000190: 3cd5 1f3e 4088 b63d 1551 453e 2890 243e
000001a0: f697 47be 69e8 95bd b7f9 653d e360 f63e
000001b0: b84f 27bf 280b d73e 3342 293d 1d70 e03d
000001c0: b189 df3e c001 b9bd b8d0 00bd de15 533e
000001d0: 828c 23be 9a4a b1bd db82 3f3e b22a 7b3e
000001e0: 98e7 05be 195b 9d3e 909b b0be c386 01bf
000001f0: 88ce b8be 9840 30be 81e3 4e3e 40a3 573e
00000200: 8c72 bd3e 6232 cebd e9b5 833e 97c7 96bd
00000210: ecb6 f53d 388f f2bd d9aa b1bb aab6 8d3e
00000220: 1510 8dbe bd44 233e f2a6 d0be a579 31be
00000230: 577c e4be 5f01 25bf f837 64be d870 1d3e
00000240: 31e2 cf3d c59a 833d 0993 843d d15f 13be
00000250: 19aa 953d 22cc cb3d acbd 8a38 61c8 5a3d
00000260: e7ec 303e cee4 0fbc 7142 a23e 9563 b03d
00000270: f4e7 50be 6226 23bd 7ee7 89bc 73e6 8fbe
00000280: 1178 d13c 4432 eabd 3c37 8d3e 75c9 98be
00000290: cba5 c2bd ee42 d2be 7908 efbe f2a2 8c3e
000002a0: d2ed f93e 5143 663e 3c15 653e 5feb d4be
000002b0: d798 143e e334 a93e cb6c 04be 8b46 6ebd
000002c0: fc6b 5a3e 53e7 dabb 42c9 5cbf b513 20be
000002d0: e917 99be 6a2a 7b3e 1e2e a0bc 6696 58be
000002e0: 0b3e 0abe 77ff 1dbd edd0 a43c 92f3 323d
000002f0: a044 6cbe 2cd3 8bbe 7835 303f c672 093f
00000300: e191 a1bd f654 3b3f 131c c1be eadc c1bd
00000310: 2afe 4cbe ca62 853e 5120 ddbd 770f ec3d
00000320: b6c9 af3e 4d68 c7be e53a 2cbc eb89 b2bc
00000330: 29c6 d1be 20c4 d8bd f075 843d 1567 a63e
00000340: 2f8b da3e 24fe 013f c54c 2a3f 4555 713f
00000350: 630c 4ebd 5c7e c8be c01e 9ebe ec87 4b3d
00000360: 9dd8 c4be 8fe9 643c 147d c73d 8717 97be
00000370: 1629 433e 9f3c 37bd 68f8 c2be dd36 b8bf
00000380: ba0e 1ebe 6dc6 cd3b ef39 f63e 90c2 653e
00000390: 5d51 983c 1282 a33e d2e2 b039 35a4 a5be
000003a0: b526 ccbe f4dc a2bd 96fd 36be 25d7 dd3e
000003b0: f8ef 933e b075 a8be 41cd c43d 6458 24be
000003c0: 0fe5 e5be 5253 e0bd 8e02 a23d 5d12 46be
000003d0: 3943 25bd 999e 3a3d e0ff 053a 6e59 d6bd
000003e0: b00a ca3e 39ae ef3d dbe9 c53d 4ae6 03be
000003f0: cd85 8ebd d8dc b43e 4079 fb3e 400f dd3d

lstm.weight_hh_l0 f4 [72, 18]
0.09954412 -0.017961966 -0.0073836823 0.23105171 -0.26723927 -0.062560454 -0.09986943 -0.03758361
-0.08885855 -0.2560473 0.020693377 -0.07776906 0.26521423 -0.38955253 0.10595405 0.036227003
-0.15586448 -0.0962886 0.041300904 0.15671962 0.29732168 -0.4341375 0.2652643 0.023665473
0.34217042 0.06705467 -0.22014186 0.0714118 -0.055780575 -0.022876497 0.06276182 0.17591642
0.083611384 -0.16338791 0.2071015 0.2700967 -0.40943563 0.6722143 0.069451086 -0.3388965
0.21711667 -0.23289499 0.27230322 0.1013177 -0.40923288 0.1740316 -0.5776814 0.35559192
-0.20966773 0.38970008 -0.2040728 -0.10445765 -0.15776914 -0.22819951 0.18118387 0.6375825
0.21070497 -0.20517558 0.63574696 -0.6485554 0.6037656 0.48607686 -0.165435 0.7679545
0.1649768 0.75331086 -0.33422568 0.52430886 -0.6382147 -0.75110066 0.031329043 0.078533895
-0.25998637 -0.28413323 0.080302626 -0.12384132 -0.21336013 0.16016658 -0.057576142 0.058322523
-0.20908335 0.15325701 0.10696607 -0.080113 0.1978963 -0.064373255 0.19140653 0.027487235
0.13483286 -0.044435117 -0.13370483 0.089020744 0.44219735 0.00075355393 0.13509096 -0.064619884
0.27162573 0.18905297 0.11653432 -0.069648765 -0.109732784 0.24063288 0.013795382 0.31926042
-0.047062673 -0.11009128 0.018424638 0.039739214 -0.13296455 -0.02573491 -0.031418428 -0.3265272
0.06708237 -0.30872148 0.14458643 -0.024209948 -0.28871208 0.041401103 0.1408927 0.27452108
-0.20307758 0.012322449 0.013880339 -0.36921427 0.01710638 0.3994786 -0.43484432 0.035437185
0.0015607468 -0.35247695 0.08661521 -0.06912553 -0.17606057 -0.11197864 0.14939047 0.35998216
0.13144098 0.31591868 0.15666948 0.068564765 0.11023938 0.026620839 -0.15325668 -0.20221348
0.04902547 -0.16114697 0.02590542 -0.22306632 0.22836402 -0.08012077 -0.12018321 -0.027833194
0.16683137 0.23080464 0.09693157 0.037518185 0.12233502 -0.16636452 0.10879182 -0.22509678
0.021322157 -0.05363138 0.12678757 0.2628464 0.15381901 0.107450165 0.05521597 -0.21591048
0.1962228 0.18506029 -0.068917885 0.00874504 0.1920964 -0.14028235 -0.16270739 0.08111601
-0.3385275 -0.19300422 -0.07314554 0.067224436 0.19585037 0.2572304 -0.3196791 0.10795422
-0.2328111 0.23575348 -0.043339886 0.120971024 -0.22773878 -0.052494187 -0.33922225 0.024999874
0.032153953 0.09816242 -0.34376085 -0.10379545 -0.063760996 0.09857335 -0.012615864 0.18171264
0.29853597 -0.16008274 0.6455625 -0.5035575 0.701613 0.13363056 -0.21383134 0.40604016
0.0099965865 0.15738022 -0.16903971 0.4066476 -0.22011437 -0.53471535 0.30800837 0.048622664
-0.24268472 -0.06422914 0.27316886 -0.4105501 -0.24314666 -0.16786125 0.051009394 -0.17136788
0.12220086 -0.09850777 -0.18837889 0.30343884 -0.13391209 -0.07305536 0.18836994 -0.37690118
-0.20828146 -0.1386996 -0.11392836 -0.16133223 0.23925927 0.13518056 -0.09601043 0.023396773
0.042952225 -0.04576035 0.15310843 -0.072707005 0.00021629973 0.038629923 0.1420275 0.03795351
0.14368618 0.11754252 -0.08394868 -0.3189331 -0.056285787 -0.28264955 0.21325894 -0.20609479
00000000: cadd cb3d f924 93bc d1f2 f1bb d298 6c3e
00000010: 96d3 88be b21f 80bd 5888 ccbd 45f1 19bd
00000020: 79fb b5bd a218 83be 2885 a93c 6345 9fbd
00000030: 29ca 873e 6e73 c7be 70fe d83d c462 143d
00000040: f09a 1fbe f532 c5bd 232b 293d 1c7b 203e
00000050: 8c3a 983e 4547 debe b9d0 873e 18de c13c
00000060: f630 af3e f553 893d de6c 61be 5a40 923d
00000070: 2c7a 64bd 7e67 bbbc 4589 803d 6f23 343e
00000080: 723c ab3d 294f 27be 6a12 543e 1d4a 8a3e
00000090: 8ca1 d1be 3d16 2c3f 5f3c 8e3d d883 adbe
000000a0: d553 5e3e 067c 6ebe 546b 8b3e a87f cf3d
000000b0: f986 d1be 5735 323e eee2 13bf 2510 b63e
000000c0: 23b3 56be c586 c73e 76f8 50be e4ed d5bd
000000d0: 3c8e 21be 22ad 69be 4488 393e 9b38 233f
000000e0: 0bc3 573e 8c19 52be 50c0 223f ba07 26bf
000000f0: 6290 1a3f 11df f83e cb67 29be ab98 443f
00000100: aeef 283e fbd8 403f a11f abbe 1b39 063f
00000110: 0a62 23bf 2248 40bf e252 003d 61d6 a03d
00000120: ef1c 85be e979 91be b475 a43d 85a0 fdbd
00000130: 147b 5abe b502 243e f6d4 6bbd 99e3 6e3d
00000140: f219 56be 68ef 1c3e 0711 db3d 4912 a4bd
00000150: 54a5 4a3e 20d6 83bd 1300 443e e92c e13c
00000160: a011 0a3e 9901 36bd ebe9 08be 8250 b63d
00000170: b167 e23e 268a 453a 4955 0a3e 6e57 84bd
00000180: 8712 8b3e 1a97 413e 8ca9 ee3d 03a4 8ebd
00000190: 95bb e0bd 7768 763e 0706 623c 1a76 a33e
000001a0: cac4 40bd 8977 e1bd 44ef 963c 96c5 223d
000001b0: dc27 08be 05d2 d2bc 9cb0 00bd 932e a7be
000001c0: 7b62 893d be10 9ebe 770e 143e f153 c6bc
000001d0: 12d2 93be 3494 293d 2d46 103e 078e 8c3e
000001e0: 92f3 4fbe 19e4 493c 5d6a 633c a709 bdbe
000001f0: ae22 8c3c 7688 cc3e eaa3 debe 9526 113d
00000200: f991 cc3a dc77 b4be 5163 b13d b091 8dbd
00000210: 3949 34be 0f55 e5bd d1f9 183e 954f b83e
00000220: 7798 063e 18c0 a13e f76d 203e af6b 8c3d
00000230: 2fc5 e13d f213 da3c 52ef 1cbe 0d11 4fbe
00000240: eece 483d b603 25be 9a37 d43c 7f6b 64be
00000250: 42d8 693e 5c16 a4bd 9d22 f6bd 7002 e4bc
00000260: d8d5 2a3e 0d58 6c3e 0f84 c63d abac 193d
00000270: c88a fa3d 765b 2abe 3fce de3d c57f 66be
00000280: ceab ae3c 94ac 5bbd 9ad4 013e ce93 863e
00000290: bb82 1d3e d50e dc3d 242a 623d a317 5dbe
000002a0: a1ee 483e 7280 3d3e d224 8dbd 5b47 0f3c
000002b0: ebb4 443e 2da6 0fbe c49c 26be 2720 a63d
000002c0: 7a53 adbe e6a2 45be 54cd 95bd f7ac 893d
000002d0: 008d 483e b4b3 833e fbac a3be 1a17 dd3d
000002e0: 0866 6ebe 5c69 713e 2a85 31bd a8bf f73d
000002f0: 5b34 69be 2504 57bd 8aae adbe 89cc cc3c
00000300: ddb3 033d 6109 c93d 6c01 b0be b592 d4bd
00000310: 2095 82bd d3e0 c93d c5b2 4ebc e112 3a3e
00000320: b5d9 983e bbec 23be 9643 253f 25e9 00bf
00000330: e99c 333f 73d6 083e 9af6 5abe 7fe4 cf3e
00000340: b9c8 233c 4828 213e bf18 2dbe 1d34 d03e
00000350: a965 61be 1be3 08bf 46b3 9d3e 8f28 473d
00000360: 5882 78be 918a 83bd cadc 8b3e 9f33 d2be
00000370: 70fb 78be d2e3 2bbe 3aef 503d 107b 2fbe
00000380: 7244 fa3d 71be c9bd 65e6 40be 565c 9b3e
00000390: 4020 09be 0c9e 95bd 0de4 403e 31f9 c0be
000003a0: bc47 55be 4507 0ebe 4653 e9bd 4734 25be
000003b0: 6200 753e c66c 0a3e 1ea1 c4bd 97aa bf3c
000003c0: acee 2f3d 346f 3bbd 75c8 1c3e 69e7 94bd
000003d0: 84ce 6239 693a 1e3d a86f 113e 2475 1b3d
000003e0: 7822 133e 22ba f03d 49ed abbd 334b a3be
000003f0: ed8b 66bd 71b7 90be 8d60 5a3e 830a 53be

lstm.bias_ih_l0 f4 [72]
-0.13053489 0.1659557 0.22109665 0.7151426 0.074727364 0.106891476 -0.006203959 0.0057946322
0.35077623 -0.100538 -0.14985983 0.4313295 -0.011574562 0.15654242 0.14381175 0.12045457
0.32605222 0.01430799 0.11256588 -0.037487324 0.14711143 0.3045779 -0.21511613 0.2902165
0.07107524 -0.089691885 0.22589211 -0.24937381 -0.2658788 -0.19980307 0.1945336 0.10486827
0.34295058 -0.04179319 0.16494587 0.22950885 0.17929271 -0.10752889 0.01562316 -0.22678259
0.080616474 -0.18773815 -0.008298222 0.030091694 0.057388302 0.058866102 0.08124759 0.064146005
0.008289717 -0.09034087 0.20099045 -0.12814005 0.017387375 -0.117867246 -0.08802524 0.0954287
0.31564516 0.34195396 -0.01124148 -0.08261683 -0.011520493 0.31041712 0.13074233 0.018867329
-0.28184777 0.35265207 0.023924777 -0.038819753 0.28582215 -0.025950268 0.202322 -0.13297923
00000000: f0aa 05be 4bf0 293e 2967 623e 9613 373f
00000010: a90a 993d ebe9 da3d 954a cbbb e6e0 bd3b
00000020: f198 b33e dee6 cdbd db74 19be 38d7 dc3e
00000030: 3ba3 3dbc a84c 203e 6343 133e e3b0 f63d
00000040: 51f0 a63e 0f6c 6a3c f188 e63d 4f8c 19bd
00000050: 61a4 163e a2f1 9b3e 6747 5cbe 4297 943e
00000060: e58f 913d 61b0 b7bd 4350 673e d95b 7fbe
00000070: 4421 88be 2d99 4cbe d133 473e 2dc5 d63d
00000080: 3897 af3e 562f 2bbd 92e7 283e 5e04 6b3e
00000090: 8298 373e 1b38 dcbd 48f8 7f3c b239 68be
000000a0: 401a a53d 6e3e 40be 44f5 07bc db82 f63c
000000b0: ff0f 6b3d 951d 713d 2365 a63d fb5e 833d
000000c0: 98d1 073c a204 b9bd 71d0 4d3e 2537 03be
000000d0: f86f 8e3c 6264 f1bd 9446 b4bd 1f70 c33d
000000e0: 3e9c a13e 9714 af3e 2f2e 38bc 0333 a9bd
000000f0: 73c0 3cbc feee 9e3e 51e1 053e a88f 9a3c
00000100: 5a4e 90be d08e b43e e5fd c33c 7601 1fbd
00000110: 4857 923e a895 d4bc 802d 4f3e b52b 08be

lstm.bias_hh_l0 f4 [72]
0.11068186 0.41596988 0.262396 0.67932415 0.09153871 0.24033175 0.22683792 0.31739435
-0.0640235 0.13133653 0.05648938 0.1661681 -0.031054072 -0.10310305 0.23928125 0.19206527
0.00013330365 0.12493502 0.18756057 -0.08311015 -0.22723962 -0.12853225 0.16867673 0.037424687
-0.1343094 0.24952635 0.05997878 -0.2125102 0.050538655 -0.14525442 -0.14294134 0.047506265
-0.020068802 0.23475057 0.052829515 0.12484034 -0.16464204 -0.105280936 0.14099498 0.20038675
-0.08582855 -0.22110468 0.22224285 -0.05790173 -0.11801199 0.1435028 0.22077693 0.2025345
0.030612245 0.10557083 -0.22538349 -0.065211475 -0.013830478 0.13399875 0.109725595 0.32824028
0.50740397 0.6577738 0.009703955 0.021662636 -0.10559395 0.044063512 0.41187394 -0.15843849
-0.2114555 0.2903517 0.16279396 0.049727447 0.1108063 0.102714285 0.10396849 0.07600743
00000000: 2cad e23d 01fa d43e c558 863e 30e8 2d3f
00000010: a678 bb3d 8719 763e 3348 683e 8381 a23e
00000020: c11e 83bd 157d 063e 6861 673d f827 2a3e
00000030: 1c65 febc b127 d3bd 2506 753e c2ac 443e
00000040: 6dc7 0b39 efdd ff3d e10f 403e a835 aabd
00000050: 81b1 68be f59d 03be 98b9 2c3e a14a 193d
00000060: 6788 09be d683 7f3e 4fac 753d 469c 59be
00000070: 9f01 4f3d 93bd 14be 375f 12be ee95 423d
00000080: 5467 a4bc 7462 703e c363 583d 4bac ff3d
00000090: ec97 28be 889d d7bd fd60 103e 2f32 4d3e
000000a0: e1c6 afbd 4469 62be a193 633e 5d2a 6dbd
000000b0: 45b0 f1bd 66f2 123e 5913 623e 3465 4f3e
000000c0: 88c6 fa3c 8535 d83d eeca 66be 988d 85bd
000000d0: 3b99 62bc f836 093e d0b7 e03d 1c0f a83e
000000e0: 3ae5 013f dd63 283f 56fd 1e3c d775 b13c
000000f0: a441 d8bd f17b 343d 24e1 d23e b33d 22be
00000100: ca87 58be faa8 943e 76b3 263e 02af 4b3d
00000110: 6aee e23d de5b d23d 6fed d43d c9a9 9b3d

l2.weight f4 [18, 20]
0.053776745 -0.21390265 0.3142219 -0.8920513 0.14414267 0.08747509 -0.39478722 -0.11283475
0.42319453 0.1278798 -0.15975152 0.36326462 0.07923262 -0.20347807 0.3597974 -0.14691935
0.03082493 -0.16769025 -0.026623383 -0.12503394 -0.07821054 -0.33081362 0.036036085 -0.47853085
0.080803305 -0.13610458 -0.42515486 -0.32931438 0.39105612 0.071733736 0.12144589 0.14875554
0.24075088 -0.122469805 0.4126116 0.02384988 0.030252352 0.010607138 0.034780204 0.04907611
-0.06674178 -0.1564197 0.20902106 -0.6337482 -0.0023989638 -0.17144044 -0.31254327 -0.34112573
0.42358008 -0.022061924 -0.19675086 -0.023461966 0.22280087 -0.005423152 0.38495564 -0.035153948
-0.03814487 0.037960883 0.061938792 0.012455431 -0.00042890746 0.28631553 -0.20762464 0.90306884
0.14943159 0.14239848 0.05785254 0.12545414 -0.3507745 -0.34155932 0.31110078 -0.05424863
-0.35220668 -0.15129992 -0.42585656 -0.029662373 0.19127978 -0.09450028 0.09874225 0.11737407
0.09037433 0.01096606 0.25858876 -0.48635525 -0.15841247 0.13327637 -0.38079965 -0.2319396
0.05051231 -0.05707298 -0.19490471 0.10744182 0.3872417 0.049581554 0.25717178 0.02082243
-0.06354453 -0.27085254 -0.038003206 0.1281145 -0.03353772 -0.13891779 0.17895573 -0.8762172
0.09758056 0.020638788 -0.46257252 -0.29801407 0.42246923 0.06704642 -0.08027756 0.1865733
0.2803438 -0.10837565 0.2764285 0.018480899 -0.030890493 0.012311761 -0.11468073 -0.018646711
-0.017987888 -0.009988689 -0.32980323 0.9022522 0.21964371 -0.020909123 0.31346872 0.22357891
-0.16927071 -0.18221974 0.33546486 -0.20648983 -0.28617015 0.2259817 -0.33872348 -0.106211744
0.25425684 0.041808918 -0.19581258 0.0037291525 0.115425736 -0.17316216 0.096595444 -0.6244695
0.08053548 0.21522184 -0.23182118 0.055414848 0.20154229 -0.02564384 -0.015761562 0.33323824
0.2125879 -0.24487166 0.23152809 0.076730944 -0.047397844 0.10138907 0.14464924 -0.035641868
0.17531528 0.029452698 0.36613077 -0.48387244 -0.14532803 0.14279217 -0.069437265 0.038736865
0.34382558 0.18893261 -0.04488934 0.2922934 0.35384414 -0.1182159 0.3164363 0.03944983
-0.07884268 -0.16864982 -0.05480261 -0.097101 -0.13741009 0.07362098 -0.36084414 0.78409106
0.2100917 -0.1729601 0.1968806 0.2607462 -0.2644822 -0.19786265 0.28816643 -0.36876217
-0.33873343 0.22380926 -0.13282935 -0.13066258 0.019748328 0.083288856 0.06848484 -0.231179
-0.15873568 0.3495314 -0.1256381 0.7349834 0.01450339 -0.043017223 0.20468466 0.091952555
-0.3871637 -0.2465373 0.17293173 -0.17496136 -0.054591864 -0.06515165 -0.40219393 -0.24252518
0.24004745 -0.08362303 0.001984194 0.082398914 0.017348055 0.34712994 -0.27191907 0.8266885
-0.20087846 -0.047653284 0.37608823 0.23344661 -0.38442045 -0.062089287 0.20067282 -0.41620326
-0.2853187 -0.04761204 -0.45094264 -0.07440833 -0.026328024 -0.079045124 0.1046246 0.034693457
0.15559709 -0.011094937 -0.41581264 0.53207195 0.060254548 -0.093805775 0.08122999 0.15423211
-0.2919392 -0.11668297 0.15805507 -0.1636058 -0.31344184 0.04957009 -0.22373469 -0.050098557
00000000: 0145 5c3d 4c09 5bbe b1e1 a03e 795d 64bf
00000010: 239a 133e 2426 b33d 8d21 cabe e815 e7bd
00000020: f4ac d83e ecf2 023e e795 23be d2fd b93e
00000030: b644 a23d 8e5c 50be 5d37 b83e 0772 16be
00000040: 9084 fc3c feb6 2bbe 4819 dabc e608 00be
00000050: d92c a0bd 6760 a9be 939a 133d ff01 f5be
00000060: 347c a53d 005f 0bbe e6ad d9be e59b a8be
00000070: 8238 c83e 23e9 923d 9fb8 f83d 5f53 183e
00000080: 6687 763e 73d1 fabd d441 d33e d360 c33c
00000090: c8d3 f73c 90c9 2d3c b075 0e3d 0804 493d
000000a0: eaaf 88bd 7c2c 20be 9e09 563e 523d 22bf
000000b0: ef37 1dbb 158e 2fbe ac05 a0be 08a8 aebe
000000c0: 7ddf d83e 35bb b4bc 0f79 49be 4f33 c0bc
000000d0: e925 643e b2b4 b1bb e818 c53e 96fd 0fbd
000000e0: cc3d 1cbd df7c 1b3d 88b3 7d3d dd11 4c3c
000000f0: fcde e0b9 f397 923e 8e9b 54be 852f 673f
00000100: 9804 193e e8d0 113e c9f6 6c3d 0d77 003e
00000110: b798 b3be dde0 aebe 9a48 9f3e d033 5ebd
00000120: 6f54 b4be 5eee 1abe df09 dabe 81fe f2bc
00000130: d9de 433e 5d89 c1bd 6039 ca3d d161 f03d
00000140: 2d16 b93d fdaa 333c bf65 843e 8e03 f9be
00000150: e136 22be 9a79 083e 2cf8 c2be 9381 6dbe
00000160: ffe5 4e3d 5bc5 69bd 1a95 47be 750a dc3d
00000170: 8b44 c63e 0716 4b3d 05ac 833e cd93 aa3c
00000180: a223 82bd 2fad 8abe 40a9 1bbd 7330 033e
00000190: d95e 09bd 7740 0ebe 2c40 373e c54f 60bf
000001a0: 51d8 c73d ad12 a93c 4ed6 ecbe 4d95 98be
000001b0: e34d d83e a24f 893d 9068 a4bd 120d 3f3e
000001c0: 3989 8f3e 0ef4 ddbd 0988 8d3e 4165 973c
000001d0: 0f0e fdbc 45b7 493c bbdd eabd fdc0 98bc
000001e0: 565b 93bc 99a7 23bc f8db a8be 00fa 663f
000001f0: 48ea 603e 9c49 abbc f97e a03e dff1 643e
00000200: 4d55 2dbe d097 3abe 0dc2 ab3e 1272 53be
00000210: e584 92be bf67 673e 2a6d adbe 8b85 d9bd
00000220: f42d 823e d43f 2b3d 1883 48be cc64 743b
00000230: 5464 ec3d 6c51 31be d5d3 c53d 3cdd 1fbf
00000240: c9ef a43d 1d63 5c3e 8862 6dbe aefa 623d
00000250: 1a61 4e3e 0813 d2bc 641e 81bc 349e aa3e
00000260: a4b0 593e a3bf 7abe b315 6d3e 1d25 9d3d
00000270: 3e24 42bd 13a5 cf3d ee1e 143e 35fd 11bd
00000280: d985 333e c946 f13c 7e75 bb3e 21be f7be
00000290: dfd0 14be 1c38 123e 2035 8ebd 8caa 1e3d
000002a0: e809 b03e 8d77 413e e2dd 37bd 7ba7 953e
000002b0: 0f2b b53e 2e1b f2bd f003 a23e 2596 213d
000002c0: 4578 a1bd 8ab2 2cbe b478 60bd e4dc c6bd
000002d0: 3bb5 0cbe 99c6 963d 90c0 b8be 31ba 483f
000002e0: 4722 573e 741c 31be 119b 493e 8780 853e
000002f0: 366a 87be 829c 4abe 8d8a 933e 65ce bcbe
00000300: 786e adbe 412e 653e 6b04 08be 69cc 05be
00000310: 3fc7 a13c 5993 aa3d c841 8c3d 30ba 6cbe
00000320: 9b8b 22be c8f5 b23e 46a7 00be df27 3c3f
00000330: a09f 6d3c d432 30bd db98 513e 9f51 bc3d
00000340: 523a c6be 4674 7cbe 0415 313e 1229 33be
00000350: b89b 5fbd 3a6e 85bd 5dec cdbe 8558 78be
00000360: 00cf 753e 8d42 abbd 4009 023b c3c0 a83d
00000370: 821d 8e3c 04bb b13e fa38 8bbe dca1 533f
00000380: 15b3 4dbe 1730 43bd a38e c03e a10c 6f3e
00000390: c2d2 c4be 5651 7ebd 2d7d 4d3e 9818 d5be
000003a0: 4b15 92be d804 43bd f4e1 e6be 6563 98bd
000003b0: dead d7bc 69e2 a1bd 6c45 d63d ba1a 0e3d
000003c0: d854 1f3e 8ac7 35bc 65e5 d4be de35 083f
000003d0: 79cd 763d 3e1d c0bd e95b a63d 06ef 1d3e
000003e0: 0e79 95be 7bf7 eebd 30d9 213e 4788 27be
000003f0: 737b a0be 020a 4b3d b51a 65be 2534 4dbd

l2.bias f4 [18]
0.059806544 -0.16341558 0.14464928 0.18616898 -0.1570779 0.24232094 -0.13256116 -0.16370477
0.20041035 -0.08159839 0.07241603 0.046411302 -0.23462167 0.22180745 0.10273494 0.18323031
-0.17352639 -0.10602457
00000000: b5f7 743d 6a56 27be f11e 143e 15a3 3e3e
00000010: 07d9 20be fb22 783e 1dbe 07be 39a2 27be
00000020: 5f38 4d3e 0f1d a7bd db4e 943d c719 3e3d
00000030: aa40 70be 7e21 633e b266 d23d baa0 3b3e
00000040: e7b0 31be 6923 d9bd

l3.weight f4 [2, 18]
0.087369755 0.25413018 0.32830632 -0.23094256 0.17901826 0.32205117 -0.27962673 0.079915345
0.12800768 -0.17018072 -0.1295741 -0.22880156 0.0054872413 0.15168482 -0.18908979 -0.05108627
0.059435207 -0.017993838 -0.18913369 -0.20778365 -0.28382388 0.2561958 0.0635253 -0.37449878
0.38274696 -0.18638486 -0.15243046 0.28003043 0.20819421 0.22174133 0.20506433 -0.066808246
0.10915588 0.24042013 -0.02406022 0.19929503
00000000: eaee b23d 5a1d 823e c417 a83e 357c 6cbe
00000010: 9050 373e e4e3 a43e 3c2b 8fbe a8aa a33d
00000020: 7214 033e db43 2ebe 13af 04be f54a 6abe
00000030: 51ce b33b 4453 1b3e c1a0 41be d63f 51bd
00000040: 5572 733d d067 93bc 43ac 41be 3dc5 54be
00000050: 5d51 91be 192c 833e 8d19 823d 4ebe bfbe
00000060: 69f7 c33e acdb 3ebe bb16 1cbe 2660 8f3e
00000070: dd30 553e 2910 633e 62fc 513e c3d2 88bd
00000080: 1e8d df3d b230 763e f019 c5bc ff13 4c3e

l3.bias f4 [2]
0.25856948 0.011487103
00000000: 3863 843e 6734 3c3c
