Ablation Experiments/LSTM/DoubleDQN-QT-Reward-Delay-IR-Final/ModelParam/2024年1月31日20点42分/target-network-transformer.pth (torch, 216431 bytes, 18 tensors)

encoder.self_attn.in_proj_weight f4 [27, 9]
000000 76 49 1f 3e f4 75 21 be 20 7c 80 bd 76 33 7c be
       0.15555367 -0.15767652 -0.06273675 -0.24629006
000010 33 1f cf 3e 83 17 03 be 48 37 65 3e a5 ba c4 3d
       0.4045349 -0.12801938 0.2238437 0.09605912
000020 6a e9 39 be 8c 80 47 be ad fd 39 3e a9 dd d5 bd
       -0.18155447 -0.1948263 0.18163176 -0.10442669
000030 78 26 17 3d b7 1b 03 3b 27 17 a6 3e 33 7c 18 be
       0.03690192 0.0020005533 0.3243954 -0.14891128
000040 83 0b 98 be 3f 2c 96 bd da bd 0d be 59 09 bb 3e
       -0.29696283 -0.07332658 -0.13841954 0.3653057
000050 3e d5 2c 3e d9 a4 02 be 8d 95 99 be 13 df 30 3e
       0.1687822 -0.12758197 -0.2999691 0.17272596
000060 e8 af 73 3e f3 83 87 be 29 5a 29 3e a1 b2 92 3e
       0.23797572 -0.26467857 0.165383 0.28651908
000070 9a ca c9 be a0 1e 82 3b 50 19 bb be 4d 46 cf be
       -0.39412385 0.003970936 -0.3654275 -0.40483323
000080 da 20 c2 3e a3 80 85 be ce e7 8f 3d 1a ae bd 3e
       0.3791569 -0.26074705 0.07026635 0.3704689
000090 17 02 2b be 34 1a 9c 3e 99 24 59 be fb 50 96 3e
       -0.16700016 0.3048874 -0.21205367 0.29358658
0000a0 dd 21 01 3e 15 c1 a3 be a8 78 76 3e 18 f0 91 bd
       0.12610574 -0.31983247 0.24069464 -0.071258724
0000b0 ce 36 b9 be 1a b7 96 3e 5b 96 90 be 95 ab 7e 3e
       -0.36174625 0.2943657 -0.28239712 0.24870141
0000c0 41 0d c6 be 18 dd 59 3e 02 df 24 3e 12 9c 0a 3e
       -0.38681987 0.21275747 0.16100696 0.13536099
0000d0 79 a0 59 3b 8e 28 a3 be a6 2d c4 be 14 55 03 3d
       0.0033207221 -0.31866878 -0.38316077 0.03206356
0000e0 d2 a3 3f 3e 5b ee b4 bd 4c b4 cb be 3d b5 a8 be
       0.18714836 -0.08834525 -0.39785993 -0.32950774
0000f0 09 8c cb 3e 61 40 41 bd 43 44 ef bc 87 46 2b 3e
       0.39755276 -0.047180537 -0.029207354 0.16726123
000100 4a 6d 47 be e2 66 38 3e 7a 02 99 bc 31 4e 1e be
       -0.19475284 0.18007997 -0.018677939 -0.15459515
000110 63 17 25 3e 64 1e 54 3e 99 50 55 bc d9 1a 46 3d
       0.16122203 0.20714718 -0.013019704 0.048365448
000120 5c 9a ba 3e 99 a8 55 3c 02 92 fa bd b2 f0 19 3d
       0.36445892 0.013040685 -0.1223488 0.03758306
000130 c4 0d b6 bd f6 06 a5 be 6f 8d 4d bd d4 d4 b6 3e
       -0.08889344 -0.32231873 -0.05018371 0.3570925
000140 e8 14 c9 bd 4c b2 b5 be 05 8a 85 be 96 5e 0b be
       -0.09818441 -0.35487592 -0.26081863 -0.136103
000150 51 42 b1 3e fa 7a 8c be b0 19 b7 be 8f 58 8f 3e
       0.34620908 -0.27437574 -0.35761786 0.27997252
000160 e3 8f c9 3e f2 b7 bd 3e 41 d6 a7 3e 9b bd 87 3e
       0.3936759 0.37054402 0.3278065 0.26511845
000170 e1 c7 3d be f9 59 a1 be 91 b9 72 be e8 3c 1e be
       -0.18533279 -0.31513956 -0.237036 -0.15452921
000180 5d a6 13 be 37 32 91 3e fb 8b 8b 3e 06 c7 21 3e
       -0.14418931 0.28358623 0.27255234 0.15798578
000190 f6 56 c2 3e 9c 71 92 3e b3 6e bd be 4b a8 08 be
       0.3795697 0.28602302 -0.3699852 -0.13345449
0001a0 e4 f9 53 ba 0d ff be 3d 5d a8 22 3e b2 91 e0 3d
       -0.0008086248 0.09325991 0.15884538 0.10965289
0001b0 c2 5c 77 be 02 ae 35 3e 13 db 23 be 99 94 bc 3e
       -0.24156478 0.1774216 -0.16001539 0.3683212
0001c0 c5 cb a1 bd 42 a7 80 3e be 9c 24 be 0b b3 f5 3d
       -0.07900194 0.25127608 -0.16075417 0.1199704
0001d0 4f 80 6d be 4d 79 c4 bd 1a 15 c6 bd f9 24 ba be
       -0.23193477 -0.09593449 -0.096719936 -0.36356333
0001e0 f2 fa ae 3e 9f 64 40 be 24 67 98 bd 74 69 74 be
       0.3417583 -0.18788384 -0.074415475 -0.23868352
0001f0 1e de 8c be 9b 70 2c be 44 69 8c 3e e7 26 44 be
       -0.27513212 -0.1683983 0.2742406 -0.19155465
000200 ca 7e bd be cb 90 28 3e d3 b7 ae 3e dd aa b6 bd
       -0.37010795 0.16461484 0.34124622 -0.08919308
000210 47 2c c7 3e 0d 7a 96 3e bf ab 29 be fb 64 c5 3e
       0.38900968 0.29389992 -0.16569422 0.38553604
000220 7b ec 85 3d 23 8d b6 3e cd 4b 34 be 13 3d b1 be
       0.06539246 0.35654554 -0.1760704 -0.34616908
000230 b2 98 6b 3e e0 f6 11 3c b5 4b 1a be 89 a7 5c 3e
       0.23007467 0.008908957 -0.15067942 0.21548285
000240 f6 01 a8 be e7 9b 98 3d 0b e7 68 3e 1f 75 93 3d
       -0.32813996 0.07451611 0.22744386 0.072000735
000250 e1 46 7d 3d 84 f5 28 be a2 35 93 3b 34 9d 46 3e
       0.061835174 -0.16499907 0.0044924775 0.19395906
000260 0f 69 83 be d6 9a 8c be e0 3f 14 3e af 21 bc 3e
       -0.2566609 -0.2746188 0.14477491 0.3674445
000270 a1 77 a7 be 9b 37 93 be d0 5f b2 be e8 38 58 3d
       -0.32708457 -0.2875336 -0.34838724 0.052788645
000280 b8 fe 7d be b2 0d ae be 39 79 90 bd 6f 4c f4 3d
       -0.24804199 -0.33994824 -0.070543714 0.11928641
000290 a1 d5 1e be 04 39 aa bd 84 19 24 be 77 26 2d bd
       -0.1551118 -0.08311656 -0.16025358 -0.04227301
0002a0 15 a7 ad 3e f8 57 8b 3e 38 64 93 be 90 bd b2 be
       0.33916536 0.27215552 -0.28787398 -0.3491025
0002b0 56 f4 a6 3e 2a 63 68 3e 39 95 4c 3e 5e f2 97 be
       0.3260829 0.22694078 0.19978799 -0.296771
0002c0 5f b9 7a 3e e8 98 25 3e ca b6 cc 3e 0e df b0 bc
       0.24484776 0.1617161 0.39983207 -0.021590736
0002d0 50 a3 c4 be bc 98 8a bd 1d db 5e bd 3f 65 11 3e
       -0.38405848 -0.06767413 -0.05440818 0.14198779
0002e0 f2 05 b6 3d a3 c4 7d be a3 ed a1 3a d6 66 30 3e
       0.08887853 -0.24782042 0.0012354146 0.17226729
0002f0 15 40 d4 3d 2b 77 c2 3e 6d cd aa 3d 69 8f 91 3e
       0.10363785 0.37981543 0.08339963 0.28429726
000300 52 1f e1 3d 41 68 a8 3e 65 0d a6 bd 1e 62 d5 3c
       0.10992302 0.3289204 -0.081080236 0.026047762
000310 a1 f9 8c 3d c9 84 b9 3c 8a 24 8d be c1 b1 d8 3d
       0.068835504 0.022646325 -0.2756694 0.10580779
000320 7e 0c 92 bd ec 97 93 be ba 38 01 be 51 e6 97 be
       -0.07131289 -0.28826845 -0.12619296 -0.29667905
000330 41 2e b0 be 72 52 46 3e 99 1e b2 bd 88 36 7c be
       -0.3441029 0.19367388 -0.08697242 -0.24630177
000340 00 44 b6 be 45 a0 00 be 36 9d 86 3e 35 52 a0 3e
       -0.35598755 -0.12561138 0.26291817 0.3131272
000350 3d c3 85 bd 08 af 31 3e 8a 3b 50 3d 4b 78 cd be
       -0.06531379 0.17351925 0.05083803 -0.4013084
000360 de 53 59 be f8 28 fb bd 50 f8 2b be ee 4d 36 be
       -0.21223399 -0.122636735 -0.16793942 -0.17803165
000370 00 db 2e be 5f cd 45 3e 67 0c 79 be f9 86 01 be
       -0.1707573 0.19316624 -0.24321137 -0.12649144
000380 51 af 29 3d 88 39 d6 3e a0 6f 7d 3e be 60 96 3e
       0.04142696 0.41840768 0.24749613 0.29370683
000390 60 88 c5 be d3 28 11 3d 76 7b ba 3e 79 91 d7 bd
       -0.38580608 0.035439324 0.36422318 -0.105257936
0003a0 15 fd b7 be 00 f6 4a be 79 21 b8 3e 8a e6 a6 be
       -0.35935274 -0.19820404 0.35963038 -0.32597762
0003b0 c3 38 10 3e 21 de 7a be 62 f9 a4 be f1 bb b0 3d
       0.14084153 -0.24498798 -0.32221514 0.08629597
0003c0 6c f0 1d be 2c 7e 9e 3b 5a 60 72 3e
       -0.15423745 0.004836818 0.23669568

encoder.self_attn.in_proj_bias f4 [27]
000000 62 b1 88 bb f5 78 8b bb a5 ed 84 bb 4f 75 89 3b
       -0.0041715363 -0.0042563626 -0.0040566497 0.0041948925
000010 f8 3f 80 3b d0 03 8e 3b 77 b3 80 bb 7c 50 83 3b
       0.0039138757 0.0043339506 -0.003927644 0.004007397
000020 51 b6 82 3b 4d 26 76 37 1b 3a 89 36 f3 6c 56 b7
       0.003989019 1.467166e-05 4.0896825e-06 -1.2780761e-05
000030 e0 5f 03 b8 95 6c f7 37 77 4b cf 37 c7 3e 85 36
       -3.1322124e-05 2.9495257e-05 2.4711464e-05 3.971017e-06
000040 bc 0c 85 b6 44 8a 1e 37 f7 e5 52 38 ad 63 79 3c
       -3.9651914e-06 9.449726e-06 5.0282073e-05 0.015221518
000050 42 ec 78 3b e2 7c ad bb e2 8a 36 bc db 23 be 3b
       0.0037982618 -0.005294428 -0.011141511 0.005802614
000060 0e dc a6 b9 87 4d 5b 3c b5 8b 49 3c
       -0.0003182594 0.013385183 0.012301375

encoder.self_attn.out_proj.weight f4 [9, 9]
000000 5f 0f b2 be b1 0a 8e be 70 c7 fe 3d 5d 43 21 3c
       -0.34777352 -0.27742532 0.124403834 0.009842721
000010 60 60 b2 bd 6b 37 51 3e de 84 a4 bd e9 5e c1 3d
       -0.08709788 0.20431297 -0.08033155 0.09441931
000020 11 db 92 be 97 71 3e 3e 42 63 4d 3e 15 ec 9e 3d
       -0.2868276 0.18598019 0.20057395 0.07759873
000030 5b 9e 10 be ef bb 91 3d ef 56 0b be 7c 28 33 3e
       -0.14122908 0.071159236 -0.13607381 0.17495912
000040 93 9b 56 3e a0 07 4a bd 22 07 8d 3e 56 25 0a be
       0.20957784 -0.049323678 0.27544504 -0.13490805
000050 78 6a 20 3e 7b 27 4a bc 03 b7 9e 3c 3e 70 0c bd
       0.15665615 -0.012338514 0.019374376 -0.03428673
000060 dc 3a f6 3d 40 4d 13 3e a4 f5 9d be 6d df ba 3d
       0.12022945 0.14384937 -0.3085147 0.09124646
000070 60 7d 1a be ef da 90 bc d7 79 c1 3d bb bc 85 3e
       -0.1508689 -0.01768252 0.09447067 0.26120552
000080 9d dc 4a 3e 88 03 da 3d d5 eb e9 bc f9 48 8b be
       0.1981072 0.10645205 -0.028554836 -0.2720411
000090 e0 15 fc bd eb f5 c0 3d 73 25 7d 3d 83 33 a3 3c
       -0.1230886 0.09421905 0.061803292 0.019922024
0000a0 c6 ce 83 3d 23 5d 9a be b8 cb 9e bd 10 b2 1f be
       0.06435923 -0.30149183 -0.077537 -0.15595269
0000b0 6a 64 d3 bd e5 67 64 bd 1e 6d 10 3d ee 88 90 bd
       -0.10321887 -0.055763144 0.035260312 -0.07057367
0000c0 81 f5 8a 3c b0 49 30 3e 56 7d d7 3d 96 e4 40 be
       0.016962769 0.1721561 0.10521953 -0.18837199
0000d0 c3 14 e7 3b d3 85 8a 3d e2 46 97 3e ad ef 59 3e
       0.0070520355 0.06763806 0.29546267 0.21282835
0000e0 57 a5 74 3d ff fa 36 3e a6 97 d3 bd b7 42 a5 3b
       0.059727993 0.17869185 -0.10331659 0.0050433534
0000f0 74 27 9f 3e 40 33 71 bd 70 40 8e 3d 83 d2 f8 bc
       0.31084788 -0.058886766 0.06945884 -0.030373817
000100 fb 2d 86 3e 1b d4 51 3e c0 9b 80 3d b3 51 15 be
       0.26206955 0.20491068 0.06279707 -0.14581947
000110 ac fc 29 3e 82 a2 1b be 26 97 32 3e 6a a8 c9 bd
       0.16600293 -0.1519871 0.17440471 -0.098465756
000120 f8 ac 4b 3e 88 ac 6d 3e b4 e5 9e 3e 96 4a 24 be
       0.19890201 0.23210347 0.31034625 -0.16044077
000130 a6 79 2b 3e b1 31 1b 3e 91 46 11 3e bf 46 e1 bd
       0.16745624 0.15155675 0.14187075 -0.10999822
000140 e1 c4 66 be
       -0.22536041

encoder.self_attn.out_proj.bias f4 [9]
000000 f5 d0 78 3c 60 a6 7a 3c 99 3a 65 bc f1 5d 59 bc
       0.015186538 0.015298456 -0.013991022 -0.013267026
000010 df 58 f5 bb b1 ef e3 ba d0 26 6e 3c 78 6f 89 3c
       -0.007487401 -0.0017390159 0.014535621 0.016776785
000020 84 93 f0 ba
       -0.001835451

encoder.linear1.weight f4 [6, 9]
000000 2c 00 47 be 00 96 1a 3e 7c 75 bb 3d a1 1b c2 3d
       -0.1943366 0.15096283 0.09153268 0.09477926
000010 0f 7f 9b be 1f 90 81 3e ee eb 12 be b1 2d a0 be
       -0.30370376 0.25305268 -0.14347813 -0.3128486
000020 76 cb 81 3e eb f0 88 3e 25 fd 03 bc 1d d5 74 be
       0.2535054 0.26746306 -0.00805596 -0.23909421
000030 f1 e0 9d bd e9 95 97 be 7c 6e 4d 3d ee 5c bf 3c
       -0.0770892 -0.2960656 0.050154194 0.023359742
000040 86 76 85 3d 53 17 79 3c fe 30 38 bd 0b 41 23 bc
       0.06516747 0.015203315 -0.044968598 -0.009964238
000050 7b 38 2f be 19 c5 81 3e bb 28 ee 3d 2f c8 b5 3c
       -0.1711139 0.25345686 0.116288625 0.022190182
000060 61 8a ad be c6 a4 a9 3d 85 b6 11 3e d1 71 95 be
       -0.33894637 0.08283381 0.14229782 -0.29188398
000070 fd 76 54 3e ce 4e 76 be d9 28 54 be 04 42 69 be
       0.20748515 -0.24053499 -0.20718707 -0.22779089
000080 01 00 ba 3d 97 fb 2f be 25 1c bf bd 5c c0 f0 3c
       0.09082032 -0.17185818 -0.0933154 0.0293886
000090 7b ba 55 3d b6 b7 a9 be 02 cf 47 3e 51 57 c9 bc
       0.052179795 -0.33147973 0.19512561 -0.024577769
0000a0 33 88 a8 3e 5b a9 91 3d 44 97 59 3e 46 05 9e be
       0.32916412 0.0711238 0.2124911 -0.30863398
0000b0 6e a4 a2 3e f2 e4 88 bb 9e 10 ca 3c dc ee c7 bc
       0.31766075 -0.004177683 0.024666127 -0.02440589
0000c0 65 91 4c 3c 83 2a c1 bd 82 74 eb 3d bb 80 08 3d
       0.012485837 -0.094319366 0.114968315 0.033325892
0000d0 47 3e 92 bd ce 9f 96 bd
       -0.07140785 -0.07354699

encoder.linear1.bias f4 [6]
000000 35 e4 09 be 5f 43 39 be 71 fa 87 3e 01 01 0b bd
       -0.1346596 -0.18092106 0.2655826 -0.033936504
000010 1d b8 b3 bd 07 be 09 bd
       -0.08775351 -0.03362849

encoder.linear2.weight f4 [9, 6]
000000 3c 22 c3 be 0b 2e bb 3d 0e e6 66 3e a1 8f d5 3e
       -0.38112056 0.091396414 0.22548696 0.41711143
000010 c7 67 99 be 27 b5 a4 be 70 8b a4 bc 56 a2 3e be
       -0.29961988 -0.32169458 -0.02008602 -0.18616614
000020 8a aa 56 3e c2 a7 77 be 56 77 d8 3e 8b 2c 46 be
       0.20963493 -0.24185088 0.42278546 -0.1935293
000030 74 36 a1 bc 29 f7 c6 3e bc d7 de 3d f0 a5 a3 3e
       -0.019679286 0.38860443 0.10880992 0.31962538
000040 c3 e8 ae 3c 75 3e fc 3c f3 20 53 3d c9 07 a8 bd
       0.021351224 0.0307915 0.051545095 -0.0820461
000050 f0 61 81 be 31 80 02 be 81 d5 b4 be 51 98 73 3e
       -0.25270033 -0.12744214 -0.3531914 0.23788573
000060 7a 65 60 3e 8c 63 d5 3d 1c 09 cb be f0 6b 8e be
       0.2191371 0.10419378 -0.39655387 -0.27816725
000070 50 e4 a5 bd 4f 16 a5 be 08 09 b0 3d 21 de 75 bc
       -0.08100188 -0.32243583 0.085954726 -0.015006573
000080 17 09 b6 be de 64 3d 3e a7 3c 82 bd bd 4c f2 3d
       -0.3555381 0.18495509 -0.06359225 0.11831043
000090 ea bb d3 bd 54 c7 b2 be 9c b0 68 3e 21 52 a4 3d
       -0.10338576 -0.349177 0.22723621 0.08023477
0000a0 91 f2 59 be b6 02 17 ba b5 7f a9 3e 97 69 8e 3e
       -0.21283938 -0.0005760597 0.33105245 0.27814934
0000b0 bd 49 91 3e b3 3c 59 3e 22 fe 87 3e 22 82 13 be
       0.2837657 0.21214561 0.26561075 -0.1440511
0000c0 10 d4 2c 3e da a3 dd 3d 7a 1b b5 bd 1c 85 0e 3e
       0.1687777 0.10822268 -0.08843131 0.13917965
0000d0 a6 25 06 3e a5 95 ad be
       0.13100299 -0.33903232

encoder.linear2.bias f4 [9]
000000 30 ba 08 be f1 7d c5 be 7d c4 b9 be b8 ae 7b bd
       -0.13352275 -0.38572648 -0.3628272 -0.06144592
000010 51 d3 8e 3e 81 4d b0 3d e7 23 6a bd 49 f2 a5 be
       0.27895597 0.08608533 -0.057163145 -0.3241141
000020 0e 3d 3b bd
       -0.045712523

encoder.norm1.weight f4 [9]
000000 5f 9c 7d 3f 91 fb 7b 3f ca d9 81 3f 75 08 82 3f
       0.9906673 0.98430735 1.0144589 1.0158831
000010 ea 83 7e 3f 9f 22 82 3f 58 e7 81 3f 31 b8 7c 3f
       0.99420035 1.0166816 1.0148726 0.98718554
000020 27 4e 80 3f
       1.002385

encoder.norm1.bias f4 [9]
000000 1a 5f 8a 3c 6d 65 58 3c 0f 02 5d bc c3 0f 44 bc
       0.016891051 0.013207776 -0.01348926 -0.0119666485
000010 ce d7 04 bc 30 87 12 bb aa e0 54 3c 52 53 51 3c
       -0.0081080925 -0.002235841 0.012993017 0.012776213
000020 a9 cf cb 3a
       0.0015549558

encoder.norm2.weight f4 [9]
000000 da 57 7c 3f fa 5f 7e 3f 93 1f 7c 3f 74 54 7c 3f
       0.9857155 0.993652 0.9848568 0.98566365
000010 df 14 7c 3f bc 77 80 3f 50 33 7d 3f 9c 60 80 3f
       0.98469347 1.003654 0.9890642 1.0029483
000020 d4 f1 7b 3f
       0.98415875

encoder.norm2.bias f4 [9]
000000 48 25 67 3c 70 0d a4 3b 66 c4 75 3c 44 9e 69 3c
       0.01410801 0.0050064847 0.015000438 0.014258925
000010 30 1c 82 bc d9 9b 07 bc 77 4c 57 3c 78 4b c0 3a
       -0.015882581 -0.008276903 0.013140789 0.0014670929
000020 a8 6d 81 bc
       -0.015799358

l2.weight f4 [18, 2880]
000000 69 45 b8 3c e7 9f 9b 3c d9 7b 9c 3c 8b d1 c7 3b
       0.022494035 0.018997146 0.019102024 0.0060979775
000010 d8 1a 0b 3c a6 b3 15 bc d0 84 9d 3c a8 a6 1b 3c
       0.008490287 -0.00913707 0.019228369 0.009500183
000020 34 eb 3e 3b b6 3f c3 3b be 30 7f 3c 34 91 16 bc
       0.0029131891 0.0059585227 0.015575586 -0.009189893
000030 b1 89 61 3c 60 a5 0b bc f6 be 64 3b 07 0c a8 3c
       0.013765738 -0.008523315 0.003490386 0.020513548
000040 92 da ea bb 63 6b 33 bc 37 3f 92 3b ac 4e c8 3b
       -0.007167169 -0.010950896 0.004463102 0.006112894
000050 c5 3c 44 3a f4 89 4a bc 70 03 c8 bc e6 bd 89 bb
       0.0007485862 -0.012361992 -0.024415702 -0.004203546
000060 e6 a7 85 ba 79 f6 dc 3b f3 2c a0 bb e2 b0 de 3b
       -0.0010197132 0.006743249 -0.004888171 0.0067959884
000070 20 66 ad 3c 05 64 40 3c 07 52 bf 3c 32 95 c0 bb
       0.021166861 0.0117425965 0.023354543 -0.0058771605
000080 8b 48 47 3c 51 c2 f8 ba 1a ee b1 bc 12 df e4 3b
       0.012163292 -0.0018978809 -0.021719981 0.0069846
000090 fc 06 10 3c 7e 23 b0 3b a5 41 d5 3b cb a0 4b bc
       0.008790728 0.0053753247 0.0065080696 -0.012428473
0000a0 3a 98 a4 3b e5 f4 50 ba 78 b8 f7 3b 1e 74 b9 3c
       0.0050230296 -0.00079710624 0.007559832 0.022638377
0000b0 0d 61 d7 3b 69 4e c9 bb 6b 91 48 bc e8 f8 4f 3c
       0.0065728487 -0.0061433804 -0.012241702 0.012693621
0000c0 25 de bd 3c 29 22 8f bc b2 ec 02 3c a1 94 d5 3a
       0.023177216 -0.017472344 0.007991003 0.0016294905
0000d0 0b b1 eb 3b b4 f4 a7 bc 00 2c af bb b3 ab 1b 3c
       0.007192736 -0.020502426 -0.0053458214 0.0095013855
0000e0 c2 56 4b bc 78 1b d4 3a 46 db 36 3c c1 98 07 bb
       -0.012410821 0.0016182503 0.011160677 -0.0020690414
0000f0 b2 f1 9f 3c ec 95 5f 3c 55 97 95 bc 57 56 6c 3c
       0.019524429 0.013646584 -0.018260637 0.014424882
000100 5c ab a7 bb 48 e2 0c 3b 95 66 68 3b b8 77 80 bc
       -0.005116863 0.0021497179 0.0035461534 -0.015682086
000110 96 52 d1 bb 9f 52 89 3b fc 62 a6 bc 39 82 20 bc
       -0.006388019 0.0041907574 -0.020310871 -0.0097966725
000120 01 e7 d6 bb 91 f5 9a bb 38 67 52 3c 73 4e 18 3c
       -0.0065582995 -0.004728981 0.012841992 0.0092960475
000130 09 44 98 bb 68 0d bf 3c ef dd 67 3c 3d d8 5b 3b
       -0.0046467823 0.023321822 0.014152034 0.0033545636
000140 8d 4d d7 3b 31 2e 45 bc 2c 7f e1 3b 1e b2 d8 bb
       0.006570524 -0.012034939 0.006881615 -0.00661303
000150 0f 93 88 3c 90 09 b4 bc 0a c2 3d 3c 95 3a bd 3a
       0.016671686 -0.021977216 0.011581907 0.0014437014
000160 95 a5 31 bc f7 f2 52 bb 16 9e f4 38 23 6c 38 3c
       -0.0108427005 -0.0032188275 0.000116642725 0.011256251
000170 eb 52 62 3b ac 40 86 3c e8 25 68 bc 78 25 94 bb
       0.0034534286 0.01638826 -0.014169194 -0.004521068
000180 db ad c9 3c d1 08 a5 3b 76 fb 89 bc 93 46 c1 bc
       0.024619034 0.0050364514 -0.016843539 -0.023593223
000190 a7 13 09 bc 52 7f a1 3b f2 d2 b1 bb c3 a5 3b 3c
       -0.008366502 0.004928508 -0.005426758 0.011453095
0001a0 ba 3c a7 3c 5b 5e b0 3c 37 43 ba 3c 20 53 2c b9
       0.020414699 0.021529367 0.022737129 -0.00016434165
0001b0 40 b8 ae 3a ae 3d 0e 3c 32 1c bb ba 24 71 88 3c
       0.0013330057 0.008681698 -0.0014275371 0.016655512
0001c0 55 7c b5 3b 09 66 41 bc 30 a8 02 bc 0e ff be 3c
       0.005538503 -0.011804112 -0.007974669 0.023314979
0001d0 44 90 8c bc 69 90 76 3a c4 19 38 3c 57 00 29 bc
       -0.017158635 0.0009405674 0.011236612 -0.010315022
0001e0 19 71 48 bc 6a 5f df 3b fc 0d a7 3c e7 3f 4f 3c
       -0.012233996 0.006816794 0.02039241 0.012649513
0001f0 2f dc 3b 3c 12 5b 31 bc d1 b2 ca b9 2d e5 b7 3a
       0.01146607 -0.0108249355 -0.0003866167 0.0014030092
000200 12 7b a5 3c 08 21 92 3c 00 26 b9 bc 0b 00 a4 3c
       0.020200286 0.017838016 -0.022601128 0.020019552
000210 6a 14 aa bb 28 2e 34 bb e9 61 a4 bb e7 47 2d bb
       -0.005190422 -0.0027493332 -0.0050165546 -0.0026440562
000220 80 34 0b bc 6d 61 3f 3b c2 ee a2 ba 44 d9 95 bc
       -0.008496404 0.0029202357 -0.0012430775 -0.018292077
000230 53 77 8a bb 2f 97 24 bc cd c1 85 bc bd a6 a8 3b
       -0.0042256503 -0.010045811 -0.016327763 0.00514683
000240 0f c9 20 3c 73 4e 1a bc 6b 3b f1 ba f2 64 0c bc
       0.009813561 -0.009418118 -0.0018404549 -0.008568989
000250 47 a4 bc bb 56 4c 96 3c 31 e0 b8 3c 1c f1 58 3c
       -0.005756888 0.018346947 0.02256784 0.013241079
000260 bd 68 c7 bc 14 fb 40 3c 40 ba 7c bb 86 a3 ae bb
       -0.024341935 0.011778612 -0.0038563162 -0.005329552
000270 9f 3a 07 3c ec 8f c0 bc df 0e 92 3c 27 16 ea 3b
       0.008253722 -0.023506127 0.017829357 0.007143754
000280 24 9d 17 bc 2f 78 b6 bc 4d 8c 3a 3c c4 45 4b bb
       -0.009253774 -0.022274105 0.011385989 -0.0031016925
000290 5d 8b 27 38 68 e0 63 3b 27 af 1d bb 54 fc f0 3a
       3.9945695e-05 0.0034771208 -0.0024060698 0.0018385747
0002a0 ad 23 c4 bb 5a 0e 8e bc 3a d2 91 bc a3 2f cf bb
       -0.005985698 -0.017340828 -0.01780044 -0.0063228174
0002b0 70 4a 27 bc be 3b 9e bb 39 a6 d1 bb 54 09 9f bc
       -0.010210618 -0.004828899 -0.006397989 -0.019413628
0002c0 c5 04 96 3c b1 41 51 3c 69 5b 97 3c 40 f8 96 bc
       0.018312821 0.01277201 0.018476205 -0.018428922
0002d0 3f e2 c4 bb 2c c0 7b 3b 3d db b4 3c 86 6f c7 3c
       -0.006008416 0.0038414104 0.022077197 0.02434517
0002e0 7e 34 6c bc 12 5a 6f bb 51 43 5d 3c ca 80 c6 3c
       -0.014416812 -0.0036522192 0.013504819 0.024231333
0002f0 9a 66 1e 3b b2 c2 32 bc 4b 23 a4 bb 04 ad 29 bc
       0.0024170042 -0.010910677 -0.00500909 -0.010356192
000300 48 f1 fe bb 50 04 01 3c 2c b4 42 3b 11 be a5 3c
       -0.007780228 0.007874563 0.0029709442 0.020232232
000310 1d 1d c4 bb 25 bd 9e 3b ee e7 1f bc 6c 6a a0 3c
       -0.005984916 0.004844325 -0.009759886 0.019581996
000320 08 4f a8 3c e1 8e e4 3b a9 1e 52 3b d3 23 20 bc
       0.020545498 0.0069750403 0.0032061732 -0.009774166
000330 8c 5e 2d 3c 84 14 8c bc d3 1a dd 3a 98 a2 b5 3c
       0.010581624 -0.017099626 0.0016868956 0.022172257
000340 0f da 95 bc 23 46 27 bc e3 95 9a 3c 56 3d 5e 3b
       -0.018292455 -0.010209593 0.0188703 0.003391107
000350 08 e3 98 3c b2 6e 8c 3c 18 79 b9 3b b1 e0 ae bc
       0.018662944 0.017142627 0.0056601875 -0.021347376
000360 42 be 30 bc f4 5a 2f bc 45 e2 56 3c 75 83 02 3c
       -0.0107875485 -0.010702837 0.01311547 0.007965912
000370 0b 77 8d bc 87 1a 41 bc 71 10 be 3c cf 98 bd bb
       -0.017268678 -0.01178611 0.0232012 -0.0057860385
000380 fa 92 02 3c 8c 5c 33 bc 1e 46 8d bc 63 5a 72 3b
       0.007969612 -0.010947358 -0.017245349 0.0036980144
000390 80 6c c3 3c 0e e2 fb 3b d7 26 37 3b 09 3b 79 39
       0.023855448 0.00768686 0.0027946734 0.00023768483
0003a0 e1 5c a9 3c de 76 6b 3a b4 36 a0 3c aa 9e 58 bc
       0.02067417 0.0008982251 0.019557334 -0.013221422
0003b0 20 c1 2a bb 32 ce 47 3c 30 8b 72 bb ad 38 ae ba
       -0.0026055053 0.012195157 -0.0037009232 -0.0013292037
0003c0 25 97 3f 3c 7e c9 08 3c 59 21 9e bb 2e 32 4c bc
       0.0116937505 0.008348821 -0.0048257527 -0.012463136
0003d0 d0 08 2a 3c f0 4d 24 bb e1 86 77 bb 74 ed ee bb
       0.010378078 -0.0025070868 -0.0037769603 -0.00729149
0003e0 88 f8 7f bb 90 88 a0 ba e1 db 83 3a 2c 34 8b bc
       -0.0039058048 -0.001224773 0.0010060036 -0.01699265
0003f0 cf 73 99 3b f9 aa 54 3c ec d9 94 3c f0 38 d2 bb
       0.004682995 0.012980216 0.01817032 -0.006415479

l2.bias f4 [18]
000000 60 70 0c bc 85 7a a8 bc 34 dd 60 3c e4 1a 49 bc
       -0.008571714 -0.020566234 0.013724614 -0.012274478
000010 32 45 61 3c e1 2b d8 3b fb 4e 7c bc cf 84 d1 3b
       0.013749408 0.0065970276 -0.01539969 0.006394006
000020 40 6b 3d 3c d3 0a 3e bc 09 71 27 3c eb 66 bf 3a
       0.011561215 -0.01159926 0.010219821 0.0014602815
000030 e9 64 13 3c 22 ed b3 bc bb 3a 2d bc 6f 36 9c 3b
       0.008996227 -0.02196366 -0.0105730845 0.004767231
000040 b0 cc 83 bc 1e c4 69 bc
       -0.016088814 -0.014267949

l3.weight f4 [18, 20]
000000 37 78 f9 3d 2d eb ae 3d bd cc 1d 3e 1b c0 9c 3b
       0.12181132 0.0854095 0.15410133 0.004783643
000010 59 67 69 3e f8 d1 51 bc 84 56 34 3e 08 50 5f 3c
       0.2279333 -0.012806408 0.17611128 0.013629921
000020 26 b5 df 3b bb 69 08 3c f1 5b 03 3e 56 95 3a be
       0.0068270145 0.008325989 0.12828042 -0.1822103
000030 57 68 f1 bd d1 20 7b 3d ac 52 c2 bd db d4 bb bd
       -0.11787479 0.061310593 -0.09488425 -0.09171458
000040 a5 db 95 3d e3 47 1d be 14 4e c1 3d 58 db 86 bd
       0.073172845 -0.15359454 0.0943872 -0.06584805
000050 7e ea 7d 3d 5e f3 a3 bd 4a 7b f7 bb c2 49 5b 3e
       0.061991207 -0.08005403 -0.007552539 0.21414855
000060 a0 98 23 be 8d 2a 2e 3e 5e cb 31 be 68 f2 a8 3d
       -0.1597619 0.1700842 -0.17362735 0.0824936
000070 59 61 ed bd 93 bf d4 bc 94 ca 2e 3d e3 f1 2d be
       -0.11590833 -0.025970256 0.042673662 -0.16986804
000080 19 a6 2c 3e af e0 35 3e 21 f1 9e bd bc 28 39 be
       0.16860236 0.17761491 -0.077608354 -0.18081945
000090 c4 82 0d 3e 53 f0 33 3e dc d9 1d be 40 4e ef 3b
       0.13819414 0.17572145 -0.15415138 0.0073030293
0000a0 e3 e3 1c 3e 13 8b e3 bc ad cd 96 bd 14 d9 3b bc
       0.15321307 -0.027776277 -0.07363448 -0.01146533
0000b0 37 7c 8c 3d fa 91 34 3e 35 da 5e be 4d 4f 81 bd
       0.068596296 0.1763381 -0.21762927 -0.063139535
0000c0 f2 95 5c be 09 0b 08 3e 82 0e 80 bd e0 f8 33 3e
       -0.21541575 0.1328546 -0.06252767 0.17575407
0000d0 ba d6 44 3e 22 8d d0 3c 29 1e be bd db 13 a9 3d
       0.19222537 0.025457922 -0.09283096 0.0825574
0000e0 75 93 27 be 6d ab 68 be da dc 32 be bd 44 40 3d
       -0.16364844 -0.22721644 -0.1746706 0.046940554
0000f0 21 8b 87 bd 63 cc 5b be c3 d8 5e 3d 30 13 89 bc
       -0.066183336 -0.21464686 0.05440594 -0.016732782
000100 6d 44 e5 bd eb 81 f5 bd 18 a9 f7 3d 1d 5c 9e 3d
       -0.11194692 -0.119876705 0.12092799 0.07732413
000110 e3 ec 08 3d be 65 d7 bd cb 2c d8 3d db b7 2e 3e
       0.033429038 -0.10517453 0.105554186 0.17062323
000120 60 4e 30 be b9 17 14 bd a0 c7 6d 3c 09 e0 27 bd
       -0.17217398 -0.036155436 0.014512926 -0.04098514
000130 79 53 33 3e 78 4f 0a 3e 28 ed a8 3d cc 49 0e bd
       0.17512311 0.13506877 0.08248359 -0.034738347
000140 7d 1e 9f 3d f4 84 32 bc ba b4 21 be 13 22 c1 3d
       0.07769487 -0.010895956 -0.15791598 0.09430327
000150 c3 ed aa bd b8 3e 1b 3d 8d a8 d1 bb d3 33 c2 bd
       -0.08346131 0.03790161 -0.0063982666 -0.09482541
000160 71 ed 76 bc 9d a0 0d 3e 83 e8 40 bd e4 c0 41 3e
       -0.015071259 0.138308 -0.04709674 0.18921238
000170 41 0c cc bb e4 a0 60 be 4b 47 57 3e 33 56 35 3e
       -0.0062270467 -0.21936375 0.2102329 0.17708664
000180 f7 f1 c0 3d 23 cf 42 be 0c cd 1c be d0 03 03 bd
       0.09421151 -0.19024329 -0.15312594 -0.031986058
000190 10 b0 a1 bd 9e d3 35 be 26 1f 24 3e c0 45 f1 bc
       -0.078949094 -0.17756507 0.16027507 -0.029452205
0001a0 2f 8a ca bd 32 a9 ae 3d 45 d0 88 3d ac da d4 3b
       -0.09889638 0.08528365 0.06680349 0.0064957943
0001b0 00 0d d4 bd ad 7f 94 bc 5d 84 7c 3d 7d d5 69 3e
       -0.10354042 -0.018127287 0.06164967 0.22835346
0001c0 53 c6 23 3e 1e 95 6a be 17 67 04 3d 71 f4 c4 bd
       0.15993623 -0.22908446 0.032324877 -0.09616936
0001d0 51 c1 32 3e 6f a8 b3 3d 08 a0 6f 3d c0 dc ca 3a
       0.17456557 0.087723605 0.058502227 0.0015477166
0001e0 6c 4d 08 be aa 74 00 be f6 a9 10 3c 24 4b 5b be
       -0.13310784 -0.12544504 0.008829584 -0.21415383
0001f0 c3 e5 0f 3e a6 cc b6 3d d7 bc d8 bd eb 97 0f 3e
       0.14052491 0.08925752 -0.10582893 0.14022796
000200 71 10 3c be 02 da 69 3d 60 6b 5e bd 23 76 f5 bd
       -0.18365647 0.057092674 -0.05430162 -0.119854234
000210 82 32 fa 3c b6 31 18 3e 46 ab 11 be 80 7e 1f be
       0.030541662 0.14862713 -0.14225492 -0.155756
000220 89 ae 1d 3e d6 4c 3c be 38 85 cc 3d 1c 34 df 3c
       0.15398611 -0.18388686 0.09986347 0.027246527
000230 7a b2 9a 3d 49 9f 0b be 78 a8 08 be 2c d5 1b bd
       0.07553573 -0.13634981 -0.13345516 -0.038045093
000240 9b 40 a8 3c 13 8b 50 3e a5 88 20 3b 87 78 0d 3d
       0.020538619 0.20365553 0.002449551 0.034538772
000250 f3 07 a1 bd bd f9 cc 3d ef b3 4e 3e ee 1c 33 3e
       -0.07862844 0.10008571 0.20185827 0.17491505
000260 86 7a 46 be b7 4e 2d be 9f 09 83 3d df 26 4f be
       -0.19382676 -0.16924559 0.063983195 -0.20229672
000270 2d c6 bf 3d 36 c2 47 3e f0 4a 34 3d 64 21 f9 bd
       0.09363971 0.1950768 0.04401678 -0.12164572
000280 ed 8d 83 bc ae 2b b8 3d 82 1f bf bd 2b b9 62 be
       -0.016058886 0.08992706 -0.093321815 -0.22140948
000290 88 33 f5 3c da 9f 19 be 06 73 e1 bb 6d ae 00 3e
       0.029931799 -0.15002385 -0.006880167 0.12566538
0002a0 45 8b fd 3d 72 b9 6a bc d4 72 b4 3d 78 5f 23 bd
       0.12380079 -0.01432644 0.08810964 -0.039885968
0002b0 66 23 11 be 98 be d4 bd d6 96 10 bc 1b 29 f8 bd
       -0.1417366 -0.103879154 -0.008825025 -0.12117215
0002c0 cd bb 47 be 2c fa 3e be 00 7b a2 3d 8d 26 bf bd
       -0.19505234 -0.1865012 0.07933617 -0.09333525
0002d0 f8 ea 51 be 01 36 50 be 81 fb e7 bd 6c 71 30 3e
       -0.2049979 -0.20333101 -0.113272674 0.17230767
0002e0 77 37 25 bd 7a 3e 16 3d 46 ee 92 bd e6 65 34 be
       -0.0403361 0.036680676 -0.07174353 -0.17616996
0002f0 f7 ce bf 3d 28 df fa bd 0b 05 51 bb cd f1 ec bd
       0.09365647 -0.12249595 -0.0031893875 -0.11569557
000300 f1 86 d7 bd dd b4 ad 3c 98 a8 9c 3d 76 ce 3c 3d
       -0.10523785 0.021204406 0.07649344 0.046095334
000310 8a 86 47 3d 77 b4 53 be ce e8 34 3e 53 e4 08 bd
       0.04871229 -0.2067431 0.17666933 -0.033420872
000320 84 eb 81 bc bb 4e 59 be a7 50 4d be a3 b2 07 bd
       -0.015859373 -0.2122144 -0.20050298 -0.033129346
000330 ad 2b 98 3d b4 20 10 be dc 7e 5b 3e c5 7f aa 3c
       0.074302055 -0.14074975 0.21435112 0.020812878
000340 ef 0e 01 3e fe 1a 47 3e bb f5 08 3c c2 4d 0e be
       0.12603353 0.1944389 0.008359368 -0.1389685
000350 47 5d 1c 3e d9 0a cb 3d d1 26 e7 3d 5d f5 64 be
       0.15269957 0.099141784 0.112867005 -0.22359224
000360 b2 1c 19 3b ae 45 20 3e b2 c9 d0 bd 64 b1 92 bd
       0.002336305 0.1565158 -0.1019472 -0.07162741
000370 ae 2b bd 3d f2 87 5b 3c 12 cd e7 bd b4 37 e8 3a
       0.09236847 0.013399111 -0.11318411 0.0017716796
000380 f4 50 18 3e 2c 1e 44 3e ba 27 a9 bc 6e 1f 48 3e
       0.14874631 0.19152135 -0.020648826 0.1954324
000390 f2 9c 24 be 67 bd 88 3c 79 63 83 bd 4e 22 1e 3e
       -0.16075495 0.016691877 -0.06415457 0.15442774
0003a0 ff 2e 5a be b1 16 27 be 4e 10 85 3d 51 b0 01 3e
       -0.2130699 -0.1631725 0.064972505 0.12664916
0003b0 a3 59 c5 bd 55 d6 58 bd a8 33 83 bc 06 fa 96 bd
       -0.096362375 -0.052938778 -0.016015843 -0.07371907
0003c0 22 e7 12 bc a7 77 00 bd 76 b1 c4 3d 13 a5 9d 3d
       -0.008966239 -0.03136411 0.096041605 0.07697501
0003d0 35 a4 cc bd f3 cb 32 3e 0f 64 1c 3e 33 74 2d 3e
       -0.099922575 0.17460613 0.15272544 0.16938858
0003e0 23 54 d4 3d d3 88 e1 bd 98 2f 31 be d9 bb 24 be
       0.1036761 -0.11012425 -0.17303312 -0.16087283
0003f0 5f 60 17 3e 96 5b bd 3b d1 a0 9c bc 5a 3a f1 bd
       0.14782856 0.00577874 -0.019119652 -0.11778708

l3.bias f4 [18]
000000 d1 d6 da ba 38 03 66 3b ca 3a 1e be d5 23 01 3b
       -0.00166961 0.0035097133 -0.15452114 0.0019705195
000010 59 9a 6d 3d 55 49 c9 3a a9 38 9b 3a 55 69 9b 3e
       0.058008526 0.0015356938 0.0011842448 0.303538
000020 26 18 ab bd 30 90 9a 3d ec 1e 7e be 68 ed ee 3c
       -0.08354215 0.07547033 -0.24816483 0.029165938
000030 75 0c 08 bd f7 59 4c 3d 83 90 8f bc c8 25 b1 3d
       -0.033215005 0.049890485 -0.017524963 0.08649784
000040 55 e2 78 be c5 9e 7a be
       -0.24305089 -0.24474628

l4.weight f4 [2, 18]
000000 70 1b ae b9 31 85 c1 3b f3 57 ec 3d 63 3e 01 bb
       -0.0003320831 0.00590577 0.115402125 -0.0019721023
000010 cb 6d 4e bd 41 0e ba 3a a0 a0 3f bb 8a 4c 36 be
       -0.050397675 0.0014194922 -0.0029240027 -0.17802635
000020 7f 3f db 3d 44 81 4e bd 6d 86 11 3e 98 16 3b 3d
       0.1070547 -0.050416246 0.14211436 0.045675844
000030 21 f9 1e 3e 2a c3 bb bd 71 7c 6f bd 71 28 11 be
       0.15524723 -0.09168084 -0.058468286 -0.14175583
000040 95 be 1b 3e 3f db 63 3e ad 37 09 bd 77 da ce 3b
       0.1520942 0.22251604 -0.033500362 0.006312664
000050 83 db 65 3c bd da 09 3d 6e b6 ab bd 6a 62 89 3a
       0.014029386 0.03365587 -0.08384405 0.00104816
000060 ee f3 4d 3d e1 05 64 bb d9 0c 20 3e 59 31 81 bc
       0.050281458 -0.0034793543 0.15629901 -0.015770601
000070 0c ca 02 be 98 b8 19 3e 6b 3e cc bc a9 7a 22 be
       -0.12772387 0.15011823 -0.024932107 -0.15867104
000080 88 c7 0e 3d 17 77 cf bd 7b b2 5b 3d 6b 23 a2 3d
       0.034858257 -0.101301365 0.05363701 0.07916912

l4.bias f4 [2]
000000 1f 96 f5 3d 44 31 9a bd
       0.11991524 -0.07528928
