DoubleDQN-QT-Reward-Delay-IR-Final/64network-lstmNoguiadance.pth (torch, 230875 bytes, 12 tensors)

lstm.weight_ih_l0 f4 [256, 10]
00000000: 9e0d 55be 2dd3 94bf b960 b5be 584b a4be
00000010: 33a0 1cbf 0b9f 6d40 b7ae 7440 e26f ecbf
00000020: 5a5c 32bf c0ea f4bd 4736 85bd b3d8 ba3c
00000030: cdfb 0cbe 3986 dbbd 745a 28be fdda 133e
00000040: 2d61 133e 3474 af3c 6666 b5bd ef16 c53d
00000050: b3be 86be 22dd 88be 7593 f7bd 5217 25be
00000060: 1199 54be d06b 8b3e 2ba2 133e 62de a13e
00000070: 79f0 4c3e 2a75 f23e 0e86 1b3c 0a35 a23d
00000080: 71ea 9d3c 1848 6fbd 0e23 013e 8900 0f3e
00000090: 8c24 4b3e 5637 13be 8af2 13bf c6de efbe
000000a0: 10f0 133e 9c19 6c3e 1cff a6bc 3d98 3a3e
000000b0: 53c3 a03b 504d 65be e845 33be 6a54 683d
000000c0: f120 53bf 20a4 43bf 85d3 9c3d 56ec db3d
000000d0: 42dd d33d f89c aa3d 94da cb3d 2f37 32bd
000000e0: d7e0 8ebb ffb4 00be 695f aa3e fb99 abbd
000000f0: db4f fcbf 27ce f5bf 99e8 81be 664b 34c0
00000100: 85f6 64c0 1e71 cfbf b1b8 a1bf eae9 0040
00000110: 4af7 84bc 3bdd 96bf 8642 403d 0c68 ab3e
00000120: 76a6 583e cd3c 643e fe3b 8f3e 8ff3 3d3e
00000130: 1113 633c 993d 11bf 811a 07bf 5c39 67bf
00000140: 2428 823e c52c a63e bc21 353e b56e 913e
00000150: dec6 793e 6095 2bbe 9a9e 3bbe d9b9 24bf
00000160: 0498 01bf 7bcf 07bf 401d 7a3f ef15 7cbe
00000170: 74ce 11bf 3c0d 843f 0efa 523f f8d6 5c40
00000180: 062d 1440 8161 77bf 5935 5ebf 573c 62bd
00000190: c443 e73c 75f4 84bd af99 d2bd 3fbe 03be
000001a0: 1d9f 23be a7fd d73c 192c 9cbd 43ce c73e
000001b0: 284a 5c3e 5c93 203e b8cc b0bd 6105 02bd
000001c0: 9f8f f5bd 3f83 01be 5b40 803d 6ad6 9ebe
000001d0: 4ccb abbe 0363 fc3e e7b8 34bf 6824 11bf
000001e0: 31e1 7ebb d2b2 bc3c 6d13 03be 31a0 93bd
000001f0: c59e aebc 4b30 1d3e 2ec2 753d 3a43 df3e
00000200: 2779 b43e 1d5c 6e3d 87b8 6ebe fe73 ce3c
00000210: 1d12 06be 41bf 4e3d 3273 033d e07e a4be
00000220: 2fad a6be 9aee 3c3c b8d0 03bf d511 f3be
00000230: 5464 86be e001 b8be 92a0 8abe 2db2 62be
00000240: 3f29 20be aaeb a13e a329 963e 87e3 053f
00000250: abf7 8a3e deac 3f3e a33f b23f eb4a 2f3f
00000260: ebb3 8d3f 5fb0 ae3f b3ff 7f3f ca72 853e
00000270: 32b0 493f eedd 52c0 9640 bf3e 2ad7 b1bc
00000280: f72b 08bf c449 bdbe de70 05bf ab1c 0bbf
00000290: 3c24 d0be 3ae1 ec3d 85d9 18be 7236 fd3e
000002a0: 147e 05bf 148c bcbe 6638 a03e 3116 033f
000002b0: e5bb 0f3f cdbd 3c3f f13d d13e c649 3ebe
000002c0: dfc2 efbd b67e 663f 6fa8 80bf e80d 42bf
000002d0: b9d5 dc3d e1da 843e 82c0 7e3d ee3e 843e
000002e0: aa8c 9c3d e3da f2bd 014b fdbd e618 063f
000002f0: 26ba 8abe 8d5b 2abf aaba 05bf 9660 25bf
00000300: aa43 00bf dbcb ddbe d44b 0abf 4d9e 573f
00000310: c408 313f b562 c03f 3344 1abf 299c 96be
00000320: ade5 b1bd 02e1 b6bd 5e02 803c f3b8 29be
00000330: 9726 edbd 87da e43e 33bd b93e dcc4 f0bf
00000340: adb5 103f b0f1 dd3c f9c5 9cbe 2628 89be
00000350: 0539 69be e154 76be 2274 7fbe 3e09 56bc
00000360: e29a 843e fa9f 943e 2ed3 013f 38a1 013f
00000370: b5fe 3a3d f769 15bc 75a4 23be 7c5b b0bd
00000380: 38be 26be ea7c a7bb 4971 8ebd 6efc 6b3e
00000390: 0814 75bd 4b8c 04be ef81 3ebe 75e1 fabd
000003a0: ed7a f9bd 5cb7 12be cfa5 a1be b7c3 c7bf
000003b0: f862 0bc0 943d 79be 7aef 843f c775 353f
000003c0: fe5f 873e 5801 df3e 5dbd 0f3e cf76 d63e
000003d0: c0dc b93e b922 ff3e af70 003f 7a1a a23f
000003e0: 1b37 4abf cc76 7cbf 5cdc c6be 17d2 35be
000003f0: 7144 f3bd 06aa bcbe 6ab6 9dbe c6dc f6bd
-0.20805976 -1.1626946 -0.35425356 -0.32088733 -0.61181945 3.7128322 3.8231637 -1.8471644
-0.6967217 -0.119588375 -0.06504493 0.022808408 -0.1376793 -0.1071896 -0.16440755 0.14439006
0.14392538 0.021417715 -0.088574216 0.09623515 -0.26317367 -0.2673121 -0.12088672 -0.16122177
-0.20761515 0.27230692 0.14417331 0.31614977 0.20013608 0.47355014 0.00949241 0.07920273
0.01927683 -0.058418363 0.12611029 0.13965048 0.1983816 -0.14376578 -0.5779196 -0.4684965
0.14447045 0.23056644 -0.020385318 0.18222137 0.004906097 -0.22392774 -0.17507136 0.05672113
-0.8247214 -0.7642231 0.07657532 0.10738437 0.10344936 0.08330721 0.099538 -0.04350966
-0.004360299 -0.12569045 0.33275917 -0.08378979 -1.971187 -1.9203538 -0.2537277 -2.817102
-3.5775464 -1.6206396 -1.2634488 2.014277 -0.016231198 -1.1786264 0.04693844 0.3347782
0.2115725 0.22288819 0.27975458 0.18549941 0.013859526 -0.56734616 -0.52774817 -0.903219
0.2542125 0.3245603 0.1768865 0.28404775 0.24392268 -0.16756201 -0.1832222 -0.6434608
-0.5062258 -0.53050965 0.9770088 -0.24617742 -0.5695565 1.0316539 0.82412803 3.4506207
2.315248 -0.96633154 -0.8680015 -0.055233326 0.028230555 -0.06491939 -0.10283219 -0.12865542
-0.15978666 0.026366068 -0.076255985 0.39024553 0.21512663 0.15681213 -0.08632797 -0.03174341
-0.11990284 -0.12647723 0.06262275 -0.3102296 -0.3355354 0.4929429 -0.7059464 -0.56696177
-0.0038891549 0.023034487 -0.12800379 -0.072082885 -0.021315942 0.15350454 0.059999637 0.43605977
0.35248682 0.058193315 -0.23312579 0.025201794 -0.13092847 0.050475363 0.03209228 -0.32128048
-0.32554004 0.011531496 -0.51490355 -0.47474542 -0.2624842 -0.3593893 -0.2707563 -0.22138281
-0.15640734 0.3162511 0.2932864 0.52300304 0.2714208 0.18718287 1.392567 0.6847369
1.1070532 1.3647574 0.9999954 0.2606414 0.7878448 -3.2947955 0.37353963 -0.021709044
-0.53192085 -0.3697034 -0.52125347 -0.5434062 -0.40652645 0.11566396 -0.14926727 0.494556
-0.52145505 -0.3682562 0.3129303 0.51205736 0.5614608 0.73727113 0.4086757 -0.1858283
-0.117070906 0.90037096 -1.0051402 -0.7580247 0.10782952 0.2594824 0.06219531 0.25829262
0.07644017 -0.118581556 -0.123678215 0.5238174 -0.27095145 -0.66545945 -0.5223795 -0.64600503
-0.5010325 -0.43319592 -0.54021955 0.8422592 0.69154 1.5030123 -0.60260314 -0.29416016
-0.08686385 -0.089296356 0.015626129 -0.16574459 -0.11579626 0.44697973 0.3627716 -1.8810077
0.56527215 0.027092785 -0.3061979 -0.26788443 -0.22775657 -0.24055816 -0.24946645 -0.013063727
0.25899416 0.29028302 0.5071286 0.50636625 0.045653064 -0.009119502 -0.15980704 -0.08611199
-0.162835 -0.0051113265 -0.06955201 0.23045513 -0.059833556 -0.12944143 -0.18604253 -0.12250034
-0.12181649 -0.14327759 -0.31571814 -1.5606602 -2.1779156 -0.24339896 1.0385582 0.7088284
0.26440424 0.43555713 0.1403708 0.4188752 0.3630123 0.4983118 0.5017194 1.266433
-0.78990334 -0.9861877 -0.38839996 -0.17755924 -0.118782885 -0.36848468 -0.30803233 -0.12053828

lstm.weight_hh_l0 f4 [256, 64]
00000000: 8809 23c0 172e 5cbe 8b4e 993e 3a0d 11be
00000010: 7d5d a03e 35fb d33f 2bec 1a3f 3d40 eb3e
00000020: d564 0c3e 0c1e 44bf 3c50 77c0 3964 223f
00000030: fb50 5fbf 1af9 ce3d 3d3b 8bbe bf82 013f
00000040: c185 b9be 1283 e83c 772f e03d 7df6 14bf
00000050: 32fc f0be d60d 32bf 01ce dd3f 1205 f5be
00000060: 8fdb 53bf 45bc 6b3e 3a38 523e c767 af3e
00000070: a2ae ba3c 8580 f93e affd 01bf f3b1 ae3e
00000080: 1af7 e3bf cdbd 893c c41a 7f3f 2104 093f
00000090: a498 5e3d 6995 7c3e 8244 9abe b992 eb3d
000000a0: 131f 063d 53cf a9bf 78cc 013f 915d b2bf
000000b0: bc6a 2e3e 629c e9be 318e 0abb c4aa f13e
000000c0: 78fc 5d3f b7c0 613f d7d1 eb39 43dd 12bf
000000d0: 70cd 453e be05 43bf c1b7 8bbf 02a9 5ebf
000000e0: 723e 9cbe 1c88 db3e 8198 f03c be3e 233e
000000f0: 2029 ab3e a2e1 3f3e 770d c53c e9c0 93c0
00000100: 2864 e83e 4a56 50be 2945 853e b8a2 783d
00000110: 5510 973d 504d 7e3e 4d0a 3c3e 948d 0bbe
00000120: 0ca9 133e 34a6 2bbe 0807 2abe 53ac 4a3e
00000130: 9194 063e f575 13be 0134 9d3c 4584 12bf
00000140: 0c38 c73d a1f8 d43c b2bd 733e 9c5c e8be
00000150: dc57 2c3f a26b 623d 7bdf 993c 20fb 1e3e
00000160: 2e40 c33e 9886 45be e108 a3be 9055 08be
00000170: 64b6 c4bd e3f3 8fbe 9320 a4be 74c8 06be
00000180: 824e 54be 3858 f2be 64ea 4f3e 5a70 ae3e
00000190: ad92 c23d 4bee bf3d d40b b5be 4e37 923e
000001a0: 62f8 47be a624 d2bc 6fca a03e f8fd 863c
000001b0: 444d 99be 5e31 0a3e ff9c 5fbe d77b aabe
000001c0: eb7d fe3d 490a 8bbe 57a1 e73d 8eaf f03d
000001d0: 09ca 333e f3e1 343e 19dd 14bf a0ef 4a3e
000001e0: f00c e43e 8d2d e8bb e7de 1c3e 0bc1 8bbe
000001f0: 8f4e 3c3e 2968 043e 7da9 cc3e 7fa9 3bbe
00000200: f7b4 b83e 3d75 09bf 3952 d9be 5666 233d
00000210: 4f2c b1be 0f4e d8be 87c2 e5be 9a2d 9c3e
00000220: abc7 e9be 90e3 28be 8f34 f83e fc45 2b3d
00000230: 2189 b1be 5153 debd 987c 8e3d d1d2 37bf
00000240: 774f 153f 307f 043e 6538 e0bc b139 1c3d
00000250: 3241 8d3f 8bf6 a43e d96f 1bbf a327 463f
00000260: fda3 b93c 4e5a 27bf ab2a 883e e7eb e3be
00000270: 4e00 42be bd98 c2be ecc0 1fbf 5884 b63e
00000280: d8dd 823e 955d 07be 8af6 c7be e2f9 6cbd
00000290: 773b 2ebe 813d 8abe 2407 e9be 47d3 083f
000002a0: d41c bbbc a21d 47be c72a 81be 0f45 243f
000002b0: d7f2 073e 9b92 74be 061f 71bc e2e5 363c
000002c0: 4d4c 03bf d0e0 6a3e a8e7 273d fc6a da3e
000002d0: 4b1c 773e 0777 063d a24c c03a 071c 423d
000002e0: 3e16 9e3e a427 b9bc ee8b cebe f94a 9f3d
000002f0: bf78 da3d 6b69 173c 79cd c63e 2fce a0be
00000300: 2282 053e d4e3 873f f420 323f 7a34 1d3e
00000310: 2aa3 8d3c 5b30 163e beae 013f 712c b5bc
00000320: 99b9 bb3c 6019 8f3e d652 91bf ac06 c9be
00000330: 2779 c23e 8ae2 95bd 87a6 693e a656 a93f
00000340: b187 cebd 3793 b93d e384 2dbd 5b36 8d3e
00000350: 0c21 81bf 876a 87bf e17f e53e 1c2b b93d
00000360: fd03 893c 94c2 903c 5c82 afbe f571 d83e
00000370: bbfd 53be 809e 8abe 96ce 69bf 9fe7 87be
00000380: f0b2 79bf aa51 42be 42ce 0d3e d03e 4e3f
00000390: f2a6 373e 81fb 383f 087a 01bf e39c c0be
000003a0: e4fe 70be 472c 403f 20b6 253f 72de cdbe
000003b0: c40f b5be eda3 c73e 2b3e 0cbe fa93 d13e
000003c0: bc56 1c3e 403f 4bbb 79a6 023d 968b 863b
000003d0: adfd 20bf 2c5c dd3e 3cb8 963e 0dc4 243e
000003e0: 3305 60bf a23e 61be 1275 a03e 764c 3bbe
000003f0: da31 813e d333 c2bd 686c a93e cec4 48be
-2.5474567 -0.21501957 0.29942736 -0.14165202 0.31321326 1.6561037 0.60516614 0.45947447
0.1371034 -0.7660835 -3.864272 0.6343418 -0.8723294 0.10106106 -0.27193633 0.5059013
-0.3623486 0.028382812 0.10946553 -0.5818861 -0.4706741 -0.6955236 1.7328492 -0.4785543
-0.82756895 0.23021038 0.20529261 0.34258863 0.02278835 0.48730865 -0.50777715 0.3412014
-1.7809784 0.016814137 0.99650216 0.53521925 0.05434479 0.2466637 -0.30130392 0.115025945
0.03274448 -1.3266395 0.5070262 -1.3934804 0.17032903 -0.45627123 -0.0021141882 0.47200596
0.8671336 0.88184685 0.00044979036 -0.5736887 0.1931665 -0.76180637 -1.0915452 -0.86976635
-0.30516392 0.4287728 0.029369595 0.15941903 0.33429813 0.18738416 0.024054272 -4.6172986
0.45388913 -0.20345417 0.26029328 0.060702056 0.07376162 0.2483418 0.18363304 -0.13628227
0.14419955 -0.1676262 -0.16604245 0.19792299 0.13142611 -0.14400466 0.019189836 -0.5723308
0.09727487 0.025997462 0.23802832 -0.45383155 0.6732156 0.055278428 0.018783322 0.15525484
0.38134903 -0.19289625 -0.31842712 -0.1331389 -0.09605101 -0.28115758 -0.32056102 -0.13162404
-0.20733073 -0.4733293 0.20304257 0.34070092 0.095006324 0.09371623 -0.35360587 0.2855782
-0.19528344 -0.025652241 0.31404445 0.016478524 -0.29941761 0.13495395 -0.21837233 -0.33297607
0.12426361 -0.27156284 0.1131007 0.117522344 0.17557539 0.17664318 -0.5814987 0.19817972
0.4454112 -0.007085508 0.15319405 -0.27295718 0.18389343 0.12930359 0.3997306 -0.18326376
0.36075565 -0.53694516 -0.42445543 0.039892517 -0.34604117 -0.42247054 -0.44874975 0.3050354
-0.45660147 -0.16493058 0.484776 0.04181479 -0.34674934 -0.10855735 0.06957358 -0.71806055
0.5832438 0.12939143 -0.027370641 0.038140956 1.1035521 0.32219347 -0.6071754 0.7740423
0.022661204 -0.6537217 0.26595053 -0.44515917 -0.18945429 -0.38007155 -0.6240375 0.35647845
0.25559878 -0.13219292 -0.39055282 -0.057855494 -0.17014872 -0.2700005 -0.4551326 0.53447384
-0.022840895 -0.19444898 -0.2522795 0.64167875 0.1327623 -0.2388405 -0.014716869 0.011163207
-0.512883 0.22937322 0.04099241 0.42659748 0.24131887 0.032828357 0.0014671276 0.04739001
0.30876344 -0.02260191 -0.40341133 0.07777972 0.10667562 0.009241442 0.38828638 -0.31407306
0.13037923 1.0616403 0.6958153 0.1535205 0.017289717 0.14666884 0.5065726 -0.022115918
0.022915648 0.27949047 -1.1353405 -0.39262903 0.37983057 -0.073185995 0.22817431 1.3229568
-0.10084475 0.09061282 -0.04236306 0.27580532 -1.008821 -1.0579385 0.44824126 0.090414256
0.016725535 0.017670907 -0.34279144 0.42274442 -0.20702259 -0.2707405 -0.9133085 -0.265439
-0.9753866 -0.18976465 0.13848212 0.80564594 0.17934778 0.72258765 -0.5057683 -0.37619695
-0.23534733 0.7506756 0.64731026 -0.40208775 -0.3536359 0.38992253 -0.1369559 0.4093321
0.15267462 -0.0031013042 0.031897042 0.0041059954 -0.6288708 0.43234384 0.29437435 0.16090412
-0.87507933 -0.21996549 0.31339318 -0.18290886 0.25233346 -0.09482541 0.3309052 -0.19606325

lstm.bias_ih_l0 f4 [256]
00000000: a567 53be 35ef 743d d551 003f 7bd4 46bf
00000010: 3d98 39bf 6d9e b33d 2ae8 3bbf 25ef 26bf
00000020: 28fd 7cbf cc2d 7f3e 6695 4b3e 9c89 34bf
00000030: 2adb 5abd 1bd7 3dbf 766e ed3d a0b5 323f
00000040: ef19 fcbe 7351 24bf 83d9 08bf d1a1 a8be
00000050: 5ee3 183f 6375 933e 2ab8 85bd 9a28 e33e
00000060: 3a0f 84bf 9257 43bf 0403 cbbf f1d8 d0bf
00000070: 11e7 37bf 1146 51bf 8ca9 c53f bf26 0b3e
00000080: b6ea 55bf cf64 4bbf 4853 693e 3d9b af3f
00000090: 5fce 18bf 2079 863e 71d4 0abf 919f 73bf
000000a0: f96e 52bf bd64 95bf 4b07 c63c f8e8 9f3e
000000b0: 26a9 85bf d3df 7f3e f1a5 4fbf 7102 0a3f
000000c0: fac2 ca3e 572c d23e 7230 55bf c57b f93e
000000d0: 70ba 66bd 7041 5ebf 6dce 713f 9be7 02bf
000000e0: ac4b 973f f75d 71bf adf4 33bf 4c89 5a3e
000000f0: 8ff6 4dbf 301d 44bf 57fa 5cbf a949 79be
00000100: 1d85 76bf cb1d c13e cb05 573e 00f7 51be
00000110: 9676 1cbf 49ec a83e 4696 5dbf d609 a9be
00000120: 75d2 77be 752d 72bf cc75 383f 69b6 d3be
00000130: 1c24 653e 61ae 09bf 9e95 473e b2cf 143f
00000140: 8efb 62bf fc03 42bf 94b1 00bf c06f 68bf
00000150: db43 bf3e a70d aa3e b9fa d53e ce8a a1bf
00000160: f260 73bf f8de 43bf e20e aabf e0ad 49bf
00000170: 1893 83bf 2c39 3bbf 3e5d afbf c30f 813e
00000180: a6e1 44be ca76 17bf 804c 703e 0a14 f2bf
00000190: 335e 69be 1e05 0e3e ebbe 71bf 0cb4 2abf
000001a0: 89c9 46bf 86dc 57bf d725 14bf 9fab 773e
000001b0: 8dd5 45bf 59a0 8b3e b149 02bf 15ea f33e
000001c0: d989 163f ffe0 cb3e 8cd8 15bf 2e3c 6c3e
000001d0: f20f a33e 2229 38bf dd18 7bbf 3cc2 9bbf
000001e0: 495e b4bf 370a b8be 3b08 c3be 1f3b e33d
000001f0: eff3 19bf ee34 4fbf 0222 12bf 25f2 a6bf
00000200: 1f51 cf3e 72d6 4cbe 6919 30bf fc39 043e
00000210: 11ad 77be aff3 32be 2207 073f dae7 78be
00000220: 7d53 b2be f61d 83be 0b8b f83e 7b8b c63e
00000230: 62fe 85be 3731 e1be d69f e5bd cbe0 e3be
00000240: 25b3 b23e a171 b3bd 116f f53d 7c42 88be
00000250: d5e0 e23e 2820 973e 0d74 64be 90c5 463f
00000260: bc26 343f 63c8 d3be b1db 1b3f 5ed8 26be
00000270: 7a56 f9be f8d4 973d aa8b 653f cf6d bf3e
00000280: df84 5e3f ba3d f8bd 4847 99be ae56 57bf
00000290: b2d1 24be c60e 2bbe 1d5a 043f 84fd ba3e
000002a0: 0ab1 74bd 8d1e 4a3e 1577 0abf 3960 113f
000002b0: 6744 243e 367e 31be 9b38 4abd 2935 66be
000002c0: 86b1 75be 4a80 813e 6e4b b2be b19a 063f
000002d0: 50ac 063f c8bb d5be a78c 35be f83c 413f
000002e0: 793a 853f 6934 7b3e 2209 98be fe68 8f3e
000002f0: 0e77 da3e 1fb4 b2be c00d bb3e 48de 62bf
00000300: 5043 fdbe b1db b73f 8351 743e e7f6 5dbf
00000310: 8e56 2bbf 6551 e4be 7e17 5c3f 35a8 35bf
00000320: 6bee 17bf 96fa 2dbf d488 af3e 8dae f8be
00000330: 6372 58bf c4eb 68bf 8310 e8bc 6785 6b3f
00000340: d550 3dbf f59a 2dbf aac7 c7be e7b8 7bbf
00000350: 6e23 523f 7bb3 953f 1db4 76bf e152 12c0
00000360: 85c6 86bf 5895 5ebf fdb7 a73f 3ae9 a7be
00000370: 0120 efbe e9ab 1abf ef61 963f e542 fcbe
00000380: 5425 893e baed 35bf 9928 89bf 83be 373f
00000390: 2442 fdbe cfd2 983f 11e3 fbbf dc5a 29bf
000003a0: 331c 6ebf c0db 99bf 891d 083f 6674 b9bf
000003b0: 47f0 20bf efce 4b3d 4161 61bf 7b1c 2f40
000003c0: dbb1 b6bf 8807 bcbe bdf8 7bbf 9e60 afbe
000003d0: ab7d e0bf 73f1 57bf 7781 6e3e 9ff3 73bf
000003e0: a283 0d40 3430 76bf 8213 2cbf 5cc8 9cbf
000003f0: 37a2 4bbf 5d81 5fbf adfe 38bf cb9e 1dbe
-0.20645006 0.059798438 0.50124866 -0.7766797 -0.7249792 0.08770452 -0.7340113 -0.65208656
-0.98823786 0.24919814 0.1988121 -0.70522475 -0.053431667 -0.7415635 0.115933344 0.6980839
-0.49238536 -0.6418678 -0.53456897 -0.32935956 0.59721935 0.28800496 -0.06529267 0.44366914
-1.0317147 -0.76305497 -1.5860295 -1.6316205 -0.71836954 -0.8174754 1.5442367 0.13588999
-0.83561265 -0.79450697 0.22785676 1.371925 -0.596899 0.26264286 -0.5423041 -0.95165354
-0.8220058 -1.1671368 0.0241734 0.3123243 -1.0442245 0.24987726 -0.8111258 0.53909975
0.3960188 0.41049454 -0.83277047 0.4872724 -0.056330144 -0.868186 0.94455606 -0.5113465
1.1819968 -0.94284004 -0.7029522 0.21341437 -0.80454344 -0.76607037 -0.8631949 -0.24344505
-0.96296865 0.37718043 0.20998304 -0.2050438 -0.6111845 0.3299277 -0.86557424 -0.33015317
-0.24201377 -0.9460061 0.72054744 -0.41350105 0.22377056 -0.53781706 0.19490668 0.5812942
-0.8866509 -0.7578733 -0.5027096 -0.90795517 0.37356457 0.3321354 0.4179285 -1.2620485
-0.950698 -0.765121 -1.3285792 -0.7878094 -1.0279264 -0.7313411 -1.370033 0.25207338
-0.19226703 -0.5916563 0.23466682 -1.8912365 -0.2278984 0.1386914 -0.9443194 -0.6668098
-0.7765127 -0.8432087 -0.5787024 0.24186562 -0.7727898 0.27270773 -0.50893694 0.47639528
0.5880409 0.39820096 -0.5853355 0.23069832 0.31848103 -0.71937764 -0.98084813 -1.2168651
-1.4091274 -0.35945293 -0.38092217 0.11095261 -0.6013784 -0.8094014 -0.5708314 -1.3042647
0.40491578 -0.2000368 -0.6878877 0.12912744 -0.24187113 -0.1747577 0.5274526 -0.24307194
-0.34829322 -0.25608796 0.4854358 0.3877829 -0.2617064 -0.4398286 -0.11212127 -0.4450744
0.349023 -0.08761907 0.11984075 -0.26613224 0.44312158 0.2951672 -0.22309895 0.77645206
0.70371604 -0.4136382 0.608821 -0.16293475 -0.4869879 0.074136674 0.89666235 0.37388465
0.86921495 -0.121211484 -0.29937196 -0.8411664 -0.16095617 -0.16704854 0.517 0.36521542
-0.05973915 0.19738217 -0.54087955 0.5678745 0.16041718 -0.17333302 -0.04937039 -0.22481216
-0.23993501 0.2529319 -0.34823173 0.5257979 0.5260668 -0.41744828 -0.17729436 0.75483656
1.040847 0.24531712 -0.29694468 0.2800979 0.42668957 -0.34903046 0.36533928 -0.88620424
-0.49465418 1.436392 0.23859219 -0.8670487 -0.66928947 -0.4459335 0.85973346 -0.7095979
-0.5934817 -0.6796049 0.3428408 -0.48570672 -0.8454954 -0.9098475 -0.028328186 0.9200043
-0.73951465 -0.6781457 -0.3901952 -0.98329014 0.8208531 1.1695398 -0.9636858 -2.2863085
-1.0529333 -0.8694663 1.3103024 -0.32795125 -0.46704105 -0.60418564 1.1748637 -0.49269786
0.26786292 -0.71065867 -1.0715514 0.7177507 -0.49464524 1.1939334 -1.967867 -0.66154265
-0.9301178 -1.2020187 0.5317007 -1.4488647 -0.62866634 0.049757894 -0.8803902 2.7361133
-1.4273027 -0.36724496 -0.9842642 -0.342534 -1.7538351 -0.843528 0.23291574 -0.9529361
2.2111592 -0.961673 -0.67217267 -1.2248645 -0.79544395 -0.8730677 -0.72263604 -0.15392606

lstm.bias_hh_l0 f4 [256]
00000000: d827 8c3c 06b7 293e 40ca d33e a74c 39bf
00000010: a6e5 38bf 83b2 f43d 3991 15bf 249d 0abf
00000020: d5d0 42bf d22f 073e b585 383e 71dc 39bf
00000030: 88b1 173e 4044 44bf 671a b13d dede 293f
00000040: 13b7 21bf 6f64 24bf a68f 1cbf b9b9 5abe
00000050: dd88 383f 63cf c23e 80c4 6e3d d850 e03e
00000060: 6546 8ebf 82d7 2ebf 7a39 c3bf e583 d0bf
00000070: 3390 31bf 0eb9 55bf 596d b13f eb0f 8e3e
00000080: ac2e 59bf aedc 59bf 221c 2b3e db6c b53f
00000090: ffba 1bbf e303 a33e 2dba 3bbf 1488 4bbf
000000a0: 3415 79bf 3d99 93bf 0a12 49bd cfb8 a63e
000000b0: 597e 7cbf f24c a23e ac4a 73bf 0249 0c3f
000000c0: 59dd d43e 8bed db3e 9d52 44bf 16f6 bb3e
000000d0: e460 9ebc 1062 58bf e156 4b3f c14a 23bf
000000e0: 52a1 953f 15c2 65bf 387c 61bf d91b 9a3e
000000f0: 43c7 56bf 55a0 6ebf aa4d 74bf e84d 60be
00000100: db15 81bf 31af d43e eec5 a93e 02be 32be
00000110: 6821 1ebf fab7 943e 5b2b 4ebf 29c8 bcbe
00000120: 5234 5dbe 3485 5dbf 18d9 363f 8c26 8bbe
00000130: e18e 153e 6a0e 26bf d722 ae3d 7989 183f
00000140: d126 75bf 83ca 57bf 7726 bbbe 4385 37bf
00000150: 42b8 ad3e ce88 a13e 84c6 d13e 3a1a 9abf
00000160: 0f20 5abf 090e 37bf 6448 9ebf f356 35bf
00000170: d243 63bf e916 40bf 73cc 9cbf c1d9 c03e
00000180: f000 53be e1d1 36bf 6432 683e d55c f2bf
00000190: 32a1 a1be cda2 7f3e 422c 87bf 27f8 31bf
000001a0: ae3b 6fbf 8d26 2ebf d38e 06bf 2a34 cd3e
000001b0: 680b 3dbf a879 023e 4b76 babe 0100 a63e
000001c0: f88b c83e c834 ac3e 29cb 1fbf 17b5 b43e
000001d0: 0d07 943e 9916 29bf 0c1e 84bf 19f0 99bf
000001e0: 280a c4bf ec2e c8be 5894 bcbe 6174 763d
000001f0: e312 19bf 6dfb 26bf 63ef 4cbf d0ca aabf
00000200: bbbb ed3e 3959 8cbe a808 12bf 10fe 183e
00000210: adb7 bcbe 778f a7be cb76 173f 9db4 17bd
00000220: 6ba6 d9be 3867 a2be 6303 af3e d16d ac3e
00000230: 9f4f 30be 1836 c3be 7153 6abe 8ccd fabe
00000240: 53fc cb3e 50d7 01be 3dc4 963d 7686 9ebe
00000250: c7a3 123f 7368 813e 357b a2bd 932f 353f
00000260: 1a75 303f 8475 f6be 6607 1d3f 7960 19be
00000270: 5e16 22bf a89c 923e 59af 563f f717 003f
00000280: 179b 4b3f d303 88bd a85e 88be 7400 5cbf
00000290: c164 a0be d4a3 a0be 466e 143f b033 573e
000002a0: 5888 95bc 347a 0a3e 5736 fcbe 28a6 113f
000002b0: a60c 5c3e d3a9 91be 14c1 f6bc 94e1 7cbe
000002c0: fae6 bcbe 998b 953e ade1 b6be dceb 033f
000002d0: dc19 da3e 6932 b4be ce01 dcbc aed8 3e3f
000002e0: d2bc 913f 0a61 453e 26fa c3be 2cb8 163e
000002f0: e712 ee3e 1074 afbe 625e 4a3e 27d1 44bf
00000300: b58d bebe 7361 b33f 50ef 433d fe70 2ebf
00000310: 6af4 30bf 7f32 d3be 3fb8 853f aded 3bbf
00000320: d4b1 29bf ec80 22bf c5c1 e23e 9a21 1fbf
00000330: ce9a 53bf ea4e 38bf 0494 5abd 57ca 643f
00000340: cf65 26bf 7667 f6be 0b4f fbbe 95c0 69bf
00000350: 1206 4c3f 52e8 a83f 9345 45bf 74d7 17c0
00000360: b088 82bf e727 4ebf b7bf 9e3f 8039 a0be
00000370: 27eb bfbe 4374 03bf d453 b43f cff2 d3be
00000380: 0af6 0c3e 5dc7 68bf f7f9 82bf 677d 513f
00000390: b4fc 2abf 3988 883f 44d1 01c0 e46e 20bf
000003a0: d7b2 61bf 5cbb 9dbf eb93 3a3f 4862 c6bf
000003b0: 969b 24bf deec 81bd 38ca 4dbf be15 2940
000003c0: 4d59 c2bf 4635 f6be 20e6 5ebf 3dfd c9be
000003d0: 7e3a e3bf f52d 2cbf 26df 073e 2349 67bf
000003e0: ec75 0440 a82c 4ebf c6d7 52bf aacd a0bf
000003f0: 62be 74bf a5e6 6dbf 763c 3dbf 0723 56be
0.017108843 0.16573724 0.41365242 -0.7238259 -0.72225416 0.11948111 -0.5842472 -0.5414603
-0.760999 0.13201836 0.18019755 -0.7260199 0.14813817 -0.7666664 0.08647614 0.66355693
-0.63169974 -0.6421575 -0.6115669 -0.2135991 0.72083837 0.38048849 0.058292866 0.4381168
-1.1115233 -0.6829759 -1.5251915 -1.6290251 -0.69360656 -0.83485496 1.3861495 0.2774652
-0.8483684 -0.85102355 0.1670995 1.4173845 -0.6083221 0.31838903 -0.73330957 -0.79504514
-0.9729798 -1.153114 -0.04908947 0.32562873 -0.9863029 0.3169933 -0.95035815 0.547989
0.41575125 0.42954668 -0.7668856 0.36711186 -0.01933331 -0.8452463 0.7942944 -0.6378594
1.1689856 -0.8974927 -0.8808017 0.3009937 -0.838978 -0.932134 -0.95431006 -0.21904719
-1.0084795 0.4153991 0.3315882 -0.17455295 -0.61769724 0.29046613 -0.80534905 -0.3687146
-0.2160199 -0.86531377 0.7142501 -0.27177846 0.14605285 -0.64865744 0.08502739 0.59584767
-0.95762354 -0.84293383 -0.36552784 -0.71687716 0.3392964 0.31549686 0.40971768 -1.2039254
-0.8520517 -0.7150579 -1.2365842 -0.708358 -0.8877536 -0.7503496 -1.2249893 0.37666133
-0.20605826 -0.71414 0.22675472 -1.893458 -0.31568295 0.24964447 -1.0560381 -0.69519275
-0.9345044 -0.68027574 -0.5256168 0.4007886 -0.7384553 0.1274172 -0.36418375 0.32421878
0.39169288 0.3363402 -0.6241937 0.3529441 0.2891163 -0.66050106 -1.032167 -1.2026397
-1.53156 -0.390983 -0.36831927 0.06016958 -0.59794444 -0.65227395 -0.80052775 -1.3343143
0.4643229 -0.2741182 -0.5704446 0.14940667 -0.36858884 -0.32726642 0.5916564 -0.03703748
-0.4250978 -0.31719375 0.3418227 0.33677533 -0.17217873 -0.38127208 -0.22883393 -0.48984945
0.39840946 -0.12679791 0.07361648 -0.3096196 0.57281154 0.25275 -0.07933656 0.7077572
0.6892868 -0.48136532 0.61339414 -0.14978208 -0.6331538 0.28635144 0.8386131 0.5003657
0.79533523 -0.066413544 -0.26634717 -0.8593819 -0.3132687 -0.3137499 0.57980764 0.21015811
-0.01825349 0.1352318 -0.49260208 0.5689416 0.214892 -0.28449878 -0.030121364 -0.24695426
-0.3689497 0.29208067 -0.35719052 0.5153177 0.42597854 -0.3519471 -0.02685633 0.74549377
1.1385748 0.19275299 -0.38276786 0.14718693 0.46498796 -0.34268236 0.19762567 -0.7688164
-0.3721749 1.4014114 0.047835648 -0.6814116 -0.69122946 -0.41249463 1.0446852 -0.7340954
-0.6628697 -0.6347797 0.4428846 -0.62160647 -0.8265809 -0.71995413 -0.053363815 0.89371246
-0.649991 -0.4812581 -0.49083742 -0.9130948 0.7969676 1.3195899 -0.77059287 -2.3725252
-1.0197964 -0.80529636 1.2402257 -0.3129387 -0.37484095 -0.51349276 1.4088082 -0.41396186
0.13765731 -0.90929204 -1.0232533 0.81831974 -0.66791844 1.0666572 -2.0283976 -0.62669206
-0.8816351 -1.2322803 0.72881955 -1.5498743 -0.64299905 -0.06344007 -0.80386686 2.641952
-1.5183502 -0.4808752 -0.8706989 -0.39451018 -1.7752225 -0.67257625 0.13268718 -0.9034597
2.0696974 -0.8053689 -0.82360494 -1.2562764 -0.95603 -0.9293006 -0.7392038 -0.209118

lstm.weight_ih_l1 f4 [256, 64]
00000000: ecd4 2bbf c6dd 723f 66cf 6a3f b180 cf3d
00000010: f77c 89bd 42c3 073f bef0 323f d089 ae3b
00000020: 6fd3 403e 8f02 e5be 5e65 79bf ad43 21be
00000030: 6b65 983e 2cca d53c 578b 0f3f 66d0 943f
00000040: 1fde 00be 0c75 81be 756d 2fbd c889 ae3e
00000050: e07c 7bbf 8783 5ebf 15f4 6a3e b237 9fbe
00000060: 4fb6 29be 18f0 7c3e fd30 32be a021 8b3e
00000070: a2d7 a83e a362 9e3c 5973 01bf 9308 60be
00000080: 33eb 03bf d487 ae3a c09f 243f ae4c 1a3f
00000090: 135c 2f3f 1aa5 293f 71f7 c5be fa2e 59be
000000a0: 431f 31bd 5316 1f3d 6e02 cc3e 1843 3bbf
000000b0: 3f57 40bd 4d08 753f 9fae 223e be20 063f
000000c0: 3100 7a3f 9bf0 59bf ccb3 babc f952 2ebe
000000d0: 7949 cabd aaf8 d13c efb2 a63e b45f 2cbc
000000e0: aea4 20bf a457 88bd 2085 ca3b 55ba 4dbf
000000f0: bcfb 23be 6f29 68bd db04 32be 4958 633e
00000100: 3919 d7be e25a ca3f 3bf9 613f 59f8 43be
00000110: eb3c c4bc d609 2b3f 4aca 103f 5fb5 3abd
00000120: bab7 2c3e 0e73 a5be 0ad7 99bf 5606 84bc
00000130: 00e7 f83e c284 9f3c 817a d43e b323 cf3f
00000140: 1ceb f5bd 2788 4dbe 3abc 93bd ddc2 5a3e
00000150: 3777 b5bf df9c 53bf a4fd 333f 0ef7 febe
00000160: cfbb 65be a701 5e3e f2cb d6be b65f b6bd
00000170: dc7e 433e aa47 cfbd 2eea cebe 6189 11bf
00000180: 32ef 1fbf 7286 623d b8b0 363f 9df9 d63e
00000190: 7782 143f b1c1 233f 6520 20be 3c24 9bbe
000001a0: 70ba 0ebd a4ec 953e cc06 243e 7038 8cbf
000001b0: 3b7a 4a3e 7c31 893f dbb3 c13d f62b cf3e
000001c0: ba45 163f 1e22 54bf a010 99be 62e7 52be
000001d0: 14ca 5abe 416c 4c3e 5c3c b23e 7eee bdbd
000001e0: b6fc f9be a27c 3abe 8c46 a7bd 2658 51bf
000001f0: 3756 78be ed26 d33b 7e35 6abc 3b26 103e
00000200: 0f1f 38bf 158d 913f 821a c33e 2f88 9ebd
00000210: 1b50 4abd cf12 183f a1ec b43e 258a 08be
00000220: e939 043e 7218 74bc c587 97bf 0edf 8bbe
00000230: ab44 173e fe3d 6c3e 7830 033e 31ca 5d3f
00000240: d9a4 d93c ca14 f0bd 6a38 afbe 110b 0fbd
00000250: a73b 49bf a4df 3fbf d5be 043f 2398 86be
00000260: 6f47 0abd 4bd8 89ba 84ef 00be b02c 103f
00000270: 3f37 a23e 7af7 44be 58b2 b7be a085 94be
00000280: f941 c0be adf5 373c 3e0e ab3e 8ba8 2e3f
00000290: b645 ef3e 1981 4c3f 94fb f5bd 2af3 c5bc
000002a0: 9d7f 19bd 6cb9 e43c 60fd a43d c7b4 4cbf
000002b0: e074 203d 3656 023f b2e5 b2bd fcbc 633e
000002c0: 424a 6a3e fc8a dabe d859 e6bd 845f 2f3d
000002d0: 0420 2dbe fb0f db3d 2418 3b3e cf4e ccbd
000002e0: 484c e7be cf14 33be 94b2 6c3d f4e9 00bf
000002f0: 3d6a 4c3d 2ed5 0ebc a021 923e b87d f1bd
00000300: 10fb 173f f4f8 a3bf 38fa 42bf 689e 49bd
00000310: 71e9 ffbd 8fce dc3e 4b87 d9bf 9e7f 483e
00000320: 64a3 bebe 8355 b6bd cdf1 533f 5139 cf3d
00000330: 2ad5 063e 11de 8bbe 8c3e 653e f48f 59bf
00000340: 0287 fa3e e889 0a3f b4c7 e7bd 90a6 1bbe
00000350: ee5d 7c3f bbb2 223f df42 da3f 7f7d 303f
00000360: 200c a43e 7c64 2ebf 905a 83be a5ae 16bf
00000370: 774d 04be fa23 f7be 05cb 5fbe 0151 8ebe
00000380: 0152 553f 5619 bcbe 2ab3 33be 8a2d 5dbe
00000390: 17e1 4dbe 592e 48bf e695 ae3d 5536 8fbe
000003a0: 1108 4abc 6f4b 14be ae6b 273d efa5 8d3f
000003b0: f487 2fbe 07e5 7fbf 1956 f63d 09b9 d23f
000003c0: 2ea6 00bf 9414 643f a2a5 b23c 563f 30bd
000003d0: 75b4 bcbd d9ca 9c38 5daa c2bf 0228 ea3d
000003e0: b473 1b3f 0a2a b23d f392 2ebd 88e4 0d3f
000003f0: b4c4 853a 800e 99bd 7b5a ba3e 83f5 c1bd
-0.6712177 0.9486965 0.91722715 0.10131968 -0.06713288 0.53032315 0.69898593 0.005326487
0.18830656 -0.44728515 -0.974203 -0.15748473 0.29764876 0.02609738 0.5607199 1.1626098
-0.12584732 -0.25284612 -0.042828996 0.34089494 -0.9823742 -0.86919445 0.22944672 -0.3109718
-0.16573451 0.24700963 -0.174015 0.2717409 0.32977015 0.019334143 -0.5056663 -0.21878271
-0.5153076 0.0013315626 0.6430626 0.60273254 0.6849987 0.6626755 -0.38665345 -0.21209326
-0.043242704 0.03883965 0.39845604 -0.7314925 -0.046958204 0.9571579 0.15886925 0.5239371
0.9765654 -0.8513276 -0.022790812 -0.17023839 -0.09877295 0.025631268 0.3255839 -0.010520864
-0.6275128 -0.06657341 0.0061804205 -0.80362445 -0.16013998 -0.05668014 -0.17384665 0.22201647
-0.4201143 1.5808985 0.8827092 -0.19137706 -0.02395483 0.66811883 0.5655867 -0.045583125
0.16866961 -0.32314342 -1.201875 -0.016116302 0.4861374 0.019472484 0.41499713 1.618277
-0.12007734 -0.20071469 -0.07213636 0.21363397 -1.4177006 -0.8266124 0.703089 -0.49797863
-0.22434925 0.21680318 -0.41952473 -0.08904974 0.19091362 -0.10121091 -0.4041304 -0.5685025
-0.6247436 0.055304 0.713634 0.41987315 0.58011574 0.63967425 -0.15637358 -0.30301082
-0.03484577 0.29282105 0.16018218 -1.0954723 0.1977319 1.0718226 0.09458133 0.40463227
0.58700144 -0.8286456 -0.29895496 -0.20596078 -0.21366149 0.1996317 0.34811676 -0.092740044
-0.48825616 -0.18211606 -0.081677526 -0.8177513 -0.24251638 0.0064438493 -0.01429498 0.14077084
-0.7192239 1.137118 0.3810616 -0.07740819 -0.0493928 0.594037 0.35336784 -0.13333948
0.12912716 -0.014898406 -1.1838309 -0.27318615 0.14772289 0.23070523 0.12811458 0.86636645
0.026567863 -0.11722715 -0.34222728 -0.034922663 -0.7860665 -0.74950624 0.51853687 -0.26287946
-0.03375953 -0.0010516731 -0.12591368 0.5631819 0.31682774 -0.1923503 -0.35878253 -0.29008198
-0.37550333 0.011228007 0.33409303 0.68225926 0.46732873 0.7988449 -0.12010875 -0.024163801
-0.037475217 0.027920447 0.0805614 -0.79963344 0.03917396 0.509128 -0.08735217 0.2224006
0.2287989 -0.42684162 -0.11247605 0.0428157 -0.16906744 0.106964074 0.18270928 -0.09975969
-0.45175385 -0.17488407 0.057787493 -0.50356984 0.049906004 -0.008717818 0.2854128 -0.11791557
0.59367466 -1.281035 -0.76163054 -0.049223334 -0.12495697 0.43126342 -1.6994413 0.19579932
-0.37234032 -0.08903029 0.82790834 0.10118354 0.13167253 -0.2731786 0.22387141 -0.8498528
0.48931128 0.5411668 -0.11317387 -0.15200257 0.98580825 0.6355397 1.7051657 0.6894149
0.320405 -0.68122077 -0.2565503 -0.58860236 -0.12920175 -0.48269635 -0.2185479 -0.27796176
0.83328253 -0.3673808 -0.17548814 -0.21599403 -0.20105396 -0.7819572 0.085246846 -0.2797114
-0.012331025 -0.144819 0.040874176 1.1066264 -0.17141706 -0.99958843 0.120281406 1.6462718
-0.5025357 0.890939 0.021807496 -0.04302915 -0.09214107 7.476443e-05 -1.5208241 0.11433412
0.60723424 0.086994246 -0.04262061 0.55426836 0.0010205717 -0.07473469 0.36397156 -0.09470656

lstm.weight_hh_l1 f4 [256, 64]
00000000: 7a82 61be e057 113c be0d 83be ebf9 4a3f
00000010: 5308 b3be edf6 64be fd49 6a3d 027a d5bd
00000020: 1280 c7bc b051 01bf 95f9 cc3e 5340 86bb
00000030: c343 f3bd 1ad8 6f3d 2721 8d3e 963d 563e
00000040: 9c56 9dbe 500e a2be 1270 9cbd 1bc7 01bd
00000050: d7de fabe 245d 7a3e 8fe2 3fbe a4c2 54be
00000060: 3afb e03d a6d4 f83d e8ee 9c3d 4ad5 ce3d
00000070: 282c a6be 1864 213d 4a55 113e 9c43 613d
00000080: 3f07 debd 80ee 6b3e 0ed3 85bc 8bfe 853e
00000090: a694 08bd ccf0 8fbc dcb4 473d e1ed 863e
000000a0: 40af 7f3c 9999 2b3c d4af cf3d 2a4e 153d
000000b0: 21fb 383e c898 ac3d 1449 00bf a74b 5dbe
000000c0: d26b 6dbe b634 f2bd 34a8 a73e 2207 993a
000000d0: 4905 9cbd 8141 ffbd 1a9b 4e3e d420 f5be
000000e0: c0a0 033e 4441 a23e 2194 97be 9bc3 c83e
000000f0: d10f 233e f30c 7f3b 3cc0 143e 1fdf 80bd
00000100: 0314 dc3c fb32 06bf c776 2cbd d1ec 523f
00000110: ba5e 1cbe 5072 53bd d729 0a3d e4fa 03be
00000120: cf5f 9d3d 89f5 eebe ec54 cb3e fde2 a53e
00000130: 4cb4 10be 04fb a43c ccfd 9ebd 4c57 a73e
00000140: 9dcd 04be 8483 72be 4f8a 6ebd 78bd 39bd
00000150: f4d4 0abe ae4d 063f 6762 22be 304f 083c
00000160: bffa da3c e92a 0fbe 3df0 013e 9a66 983d
00000170: 3593 afbe 58ec 9a3e 0a89 663e 8e19 1cbe
00000180: 1791 353e 0eea 8c3d 2b42 803d 3a02 6d3e
00000190: 4b80 66be aea6 993d ef86 aabd a63a e23e
000001a0: 36e3 f2bd 7650 523e 6908 52bd 0e05 8bbd
000001b0: f9c4 1c3e 870a a73c 0628 c2be ced5 b3bc
000001c0: 65d5 0cbe 58e0 a2bd baa1 513d 588d 02be
000001d0: 4034 1ebd 2a00 3bbe 02dd b23e 236c abbe
000001e0: 9f5e 473e cbc2 9b3e 3da2 4bbf 2cd9 e3bc
000001f0: c110 663e 46c9 2bbd ff50 583e 89e2 4cbd
00000200: b720 eebd aecb 7cbd 298e 98bd 1ad1 633f
00000210: ae39 83be 8618 a8be 44b7 fa3d 49e9 d4bd
00000220: 31f6 3b3e d35c d5be 8e60 b93e ed69 b3bd
00000230: 9b6c 11bf 7fc7 e23d 47b6 783e 168c af3e
00000240: 70cc e3be d132 c1be a851 a33c 1606 eabd
00000250: 07fa b4be 4992 ff3e 33c2 8fbd b7e2 b1bd
00000260: efb5 11bd 5293 5abd 6ae4 af3d 314c d83d
00000270: 2751 dbbe d584 8fbc 9fbf c23e 07c7 02be
00000280: f1af 25be eecf 463e 4e81 1f3d f10b 033f
00000290: f265 31bd eeb1 1abe 8638 cc3d 51b9 993e
000002a0: 7423 cfbc 90ed b73d cc8c 53be 4c41 d0bc
000002b0: 29e5 623d 7735 8abd 6143 04bf 85f1 6f3e
000002c0: 2afd 81be 5125 133d d8dd 87bd d305 c73d
000002d0: b316 3d3e ce26 e2be 15b3 b73d 065f bdbe
000002e0: 0c65 d93d 51ae f33e 34be 09bf 7de4 a63d
000002f0: 7482 df3c 4708 44be e522 d23e 21b6 01bf
00000300: c592 2abe 4cc0 3ebe fabb 86be a457 d83d
00000310: 1342 35bf b3c6 3a3e 7e03 213f 8191 543e
00000320: 78bf 253e c9dc 3d3f 9682 e3bd c845 ca3e
00000330: 84ca 823e 6728 013f 2c8e 733c 6574 f73b
00000340: 0fe7 58be cff3 0c3f d33b d0bd eaaa 7c3c
00000350: 516a dfbe d8b3 90be f625 03be 0713 87be
00000360: 3192 b4bd 00bb 4cbc 4296 7a3e 99be e7bd
00000370: 44f3 5bbe bdf9 8abd 176d d73c 0c49 6ebe
00000380: 4173 4bbe 737d 933e c10b e3be c052 9dbe
00000390: 7360 2abe ff55 0fbe 7e34 f8bd c1f7 4f3f
000003a0: 8541 6f3e 6c35 28be 1c94 fa3d 3bad 403e
000003b0: 1ab3 953d 017a 4c3e 56d0 0c3f a008 bc3e
000003c0: f8b8 e6be 8b56 c2bd 1fc7 f33d 90bf a2be
000003d0: 4155 8a3e b086 fabe 0408 c73e 829d febe
000003e0: e21b 733f 98a0 cd3d 849e 00bf dda5 1dbe
000003f0: a729 d93e 638c 59be cc16 e33e 194f 823e
-0.22022429 0.008871049 -0.25596422 0.79287595 -0.34967288 -0.2235982 0.057199467 -0.10423662
-0.02435306 -0.5051527 0.40034166 -0.0040970235 -0.11878159 0.0585557 0.27564356 0.2092193
-0.3073014 -0.31651545 -0.07638563 -0.031684022 -0.48998138 0.24449593 -0.18738769 -0.20777375
0.10985418 0.121499345 0.07662755 0.100992754 -0.32455564 0.039402097 0.14192691 0.054996118
-0.10841226 0.230402 -0.01633599 0.26170763 -0.033344887 -0.017570876 0.048756465 0.26353362
0.015605748 0.010473632 0.101409584 0.036451496 0.18064548 0.08427578 -0.5011151 -0.2161089
-0.23185661 -0.1182646 0.32745516 0.0011675099 -0.076181956 -0.12463666 0.20176354 -0.47876608
0.1285429 0.3169042 -0.296052 0.39211735 0.15924002 0.003891763 0.14526457 -0.06292557
0.026865011 -0.5242154 -0.042105462 0.82392603 -0.1527051 -0.05162269 0.033731308 -0.12888676
0.0768429 -0.46671703 0.39713228 0.3239974 -0.14131278 0.020139225 -0.07763252 0.3268379
-0.1296906 -0.23682982 -0.05823737 -0.045346707 -0.13557798 0.5246228 -0.1585785 0.008319661
0.026730893 -0.13981213 0.126893 0.07441445 -0.34291998 0.3025844 0.22513214 -0.15244123
0.17731129 0.0688058 0.062626205 0.2314538 -0.22509877 0.07502495 -0.08326518 0.4418537
-0.11859743 0.20538506 -0.05127755 -0.067880735 0.15309514 0.020390762 -0.3792116 -0.021952536
-0.13753279 -0.079529464 0.051179625 -0.12749231 -0.03862405 -0.18261781 0.3493424 -0.3348094
0.19469689 0.30422053 -0.7954443 -0.027813517 0.22467329 -0.041939996 0.21124648 -0.05002073
-0.116273336 -0.06171768 -0.0744899 0.8899094 -0.25629944 -0.3283121 0.122419864 -0.10396058
0.18355633 -0.41672382 0.36206478 -0.08760438 -0.56806344 0.11073207 0.24288283 0.34286565
-0.4449191 -0.37734082 0.019936398 -0.11426942 -0.35347006 0.49916294 -0.070194624 -0.086858205
-0.035573896 -0.05336315 0.085884884 0.10561407 -0.42835352 -0.017519394 0.3803682 -0.12771235
-0.16180398 0.19415256 0.038941674 0.51190096 -0.043310113 -0.15106937 0.099717185 0.30024198
-0.02528546 0.08980858 -0.20659178 -0.025421761 0.055394325 -0.06748479 -0.5166531 0.23431976
-0.2538846 0.03592426 -0.0663411 0.09717908 0.1846569 -0.4417023 0.08969704 -0.3698656
0.10614976 0.4759393 -0.5380585 0.081490494 0.027283885 -0.19143783 0.41042247 -0.5066853
-0.1665755 -0.18628043 -0.2631529 0.10563591 -0.70803946 0.1823986 0.62895954 0.2075863
0.16186321 0.74165016 -0.11108892 0.39506364 0.25545132 0.50452274 0.014865439 0.007551717
-0.21181892 0.5505952 -0.101676606 0.015421608 -0.436358 -0.2826221 -0.1280745 -0.26381704
-0.08816946 -0.012495756 0.24471381 -0.113156505 -0.21479517 -0.06785915 0.026297135 -0.23270053
-0.19868185 0.28806648 -0.44344905 -0.30727196 -0.16638355 -0.13997649 -0.12119387 0.8123742
0.23364837 -0.16426629 0.12235281 0.18816082 0.073095515 0.19968416 0.55005395 0.3672533
-0.45062995 -0.09489163 0.11903214 -0.31786776 0.2701817 -0.48930883 0.38873303 -0.49729544
0.9496442 0.100403965 -0.50241876 -0.15395303 0.4241459 -0.2124496 0.4435333 0.25450972

lstm.bias_ih_l1 f4 [256]
00000000: 7003 38bf b106 51bf b8aa 67bf 6f75 143f
00000010: db8e 86bf e5e0 20bf c59e 69bf f424 8bbe
00000020: 405a 28bf 2c59 e6be 292f a8bf 22b2 3bbf
00000030: 190e 88bf 24a7 4fbf 0668 1dbf 6d12 6ebf
00000040: ac1b 82bf 28e3 42bf bc2d 1abf 83c0 28bf
00000050: 96af 44bf f420 dc3d dadc 8ebf a5a7 4bbf
00000060: 9f34 0fbf 5adb 49bf 65cb 68bf 9bd0 a5be
00000070: b68b 2bbf 386d ff3e 97a4 94bf 0eca 113f
00000080: 2054 42bf 1efa 2fbf b88c 5bbf 0359 db3e
00000090: 4ef3 54bf ab55 13bf 6d71 53bf 43f1 3e3f
000000a0: d6ee 17bf 3db1 b0bd 63aa 37bf 4cf3 0dbf
000000b0: f69a bbbe 3bc5 5cbf 6842 1d3e 10fa 46bf
000000c0: 937d 4ebf 84ea 47bf 8f1a 40bf 365f 8fbf
000000d0: 7c1b 78bf fc00 84bf 83b0 d03e 8ffa a7bf
000000e0: 1a07 813e de04 62bf 09c1 ba3e e39b 13bf
000000f0: 2983 6dbf b477 43bf 0b98 41bf 20e6 31bf
00000100: 27d5 e3be d0e6 24bf 956b 08bf 309d 5b3f
00000110: 8069 e4be 0c93 20be 22e4 d1be 5409 43bf
00000120: 6268 80be 6f5a 33bf c4ec 78bf ce26 d2be
00000130: f4f1 32bf 4258 86be 7ebc cabe 9fe2 31bf
00000140: 0c59 59bf be93 11bf 3ddf bbbe 186e 1fbf
00000150: afce 06bf 02cd 0b3e af3c 7dbf d4dc 24bf
00000160: 5fb6 e1be 9850 edbe d9d6 29bf 9dd4 a3bf
00000170: fc9c efbe b8af 29bf a17d eebe 15fd f63e
00000180: 5c4f afbe e46a 00bf 5805 9fbe 4150 fd3e
00000190: 3d9d 18bf af47 e9be ffab 44bf e7dd a6bf
000001a0: ca24 26bf df48 f2be 6fa6 89be 863f e6be
000001b0: e981 92bf 4194 1dbf bdae 333e 4ad9 0fbf
000001c0: 5433 ddbe af3e 03bf a48b f7be a669 bcbe
000001d0: 341c cdbe 5ed2 20bf 2f7d 0d3f 7698 86bf
000001e0: e5a4 92bf 45fc d5be 27fb 063f b21f 41bf
000001f0: 0fdf 03bf bc5a 0cbf 1c46 00bf c77e 82bf
00000200: 08bc 17bd f8ce e4bd fea2 e43d 1456 95be
00000210: 957b 42be 4160 5f3e 0dd5 fabd 1835 f6be
00000220: 596e c03d dba9 e93e 0bfa 143e 8a04 353e
00000230: 8d26 41bd b241 c2bd 6462 fa3b dfe2 2c3e
00000240: a430 bfbe 25c2 83be 6e78 023d e4e0 a63e
00000250: 6ce2 1d3e 89ff 6fbd 3daf 03bf 856d 8fbe
00000260: a8ca 06be 456e 2ebd 0f2d b8be 92c9 5c3e
00000270: f1bd 713e 2892 62be 84bd 6bbe 05f6 843e
00000280: 784c 0f3e e611 5ebe b7dc 35bc 5f03 34be
00000290: ee5a cabc 55f9 7dbe 78de f2be 07bd 36bf
000002a0: b91b 96be 726b ad3e ebfa 053e ca18 6c3e
000002b0: 142c 5bbc becc 1c3e a543 493e df1e 43be
000002c0: b2a9 3b3e 89d7 fbbd 8a29 e13c 848b 6f3d
000002d0: 00f2 c83d 9cf2 213e 4310 8ebe 7f44 8e3e
000002e0: 687a 2c3f c36c 943e cb1c 1d3e 2029 77be
000002f0: 99ce ac3d 9275 8a3d f20f 44bd 1467 b53e
00000300: a11d 2abf 506d 24bf 0dfb 43bf 653a d13f
00000310: f49e 82bf fb1e 9dbf 3f1d 3abf 505a 7ebe
00000320: 1e5a 26bf 8d6d 45bf 766c dabe 2f4d 18bf
00000330: 6897 9bbf 3e19 52bf b49f 2abf 5105 9fbf
00000340: 4bdc 5dbf b618 28bf 32f1 23bf 2ba9 18bf
00000350: 059e 7cbf dacc c3bf 4f96 e8be 84a3 34bf
00000360: 9bb0 13bf d771 4cbf aa16 81bf 005f 273e
00000370: b427 83bf 0a48 91bf 6a2d 71bf 8686 30bf
00000380: 76fa 4bbf 1cab 20bf 498a 52bf 6327 cabf
00000390: 3b62 32bf d27c 21bf e372 59bf 80ab 973f
000003a0: e54f 2fbf 06ab 85bf 52bc 21bf 93dd 3cbf
000003b0: 004b c1bf 45cb 30bf 4667 e4bf fb0f 8dbf
000003c0: 6a44 61bf d484 61bf e34a 53bf f039 81bf
000003d0: 9715 4fbf d228 8bbf 74d4 843e 730e 9ebf
000003e0: 5eb7 76bf 273b 74bf d74d ca3e 1666 06bf
000003f0: b0a2 88bf 88d7 59bf 95b7 4ebf ba9b cf3e
-0.71880245 -0.81650835 -0.9049487 0.5799169 -1.0512346 -0.6284316 -0.9125789 -0.2717663
-0.6576271 -0.44989908 -1.3139392 -0.73318684 -1.0629302 -0.8111441 -0.6148685 -0.92996866
-1.0164695 -0.7612786 -0.60226035 -0.6591875 -0.7683042 0.10748473 -1.1161149 -0.7955268
-0.5593967 -0.7885033 -0.90935355 -0.32385716 -0.67010057 0.49888015 -1.1612729 0.56948936
-0.75909615 -0.68741024 -0.85761595 0.42841348 -0.83183753 -0.57552594 -0.8259495 0.74586886
-0.5934881 -0.086275555 -0.71744365 -0.55449367 -0.36641663 -0.8623845 0.15357363 -0.77725315
-0.8066036 -0.7809222 -0.75040525 -1.1200931 -0.9691694 -1.03128 0.40759668 -1.312334
0.2520073 -0.88288677 0.364754 -0.5765974 -0.9277826 -0.7635453 -0.75622624 -0.6949177
-0.4449856 -0.6441469 -0.5328916 0.85786724 -0.4461174 -0.15681094 -0.40994364 -0.7618611
-0.25079638 -0.70059866 -0.97236276 -0.4104523 -0.6990044 -0.2623921 -0.39596933 -0.6948642
-0.849015 -0.5686606 -0.36693755 -0.62277365 -0.52659124 0.13652423 -0.9892072 -0.64399457
-0.4408445 -0.4635055 -0.66343457 -1.279926 -0.46799457 -0.6628375 -0.46580222 0.4823996
-0.34240234 -0.501631 -0.31058764 0.4947529 -0.59614927 -0.45562503 -0.76824945 -1.3036469
-0.64899886 -0.4732122 -0.2688479 -0.4497034 -1.1445895 -0.6155434 0.17547126 -0.5619093
-0.43203223 -0.5126752 -0.48348725 -0.36799353 -0.4006058 -0.62820995 0.5526914 -1.0515277
-1.1456572 -0.4179403 0.5272698 -0.7543899 -0.51512235 -0.5482595 -0.5010698 -1.0194939
-0.037044555 -0.11172289 0.11163901 -0.29167235 -0.18992455 0.21814062 -0.122476675 -0.48087382
0.09396047 0.45637402 0.14548509 0.17677513 -0.047155906 -0.09485187 0.0076411236 0.1688342
-0.37341797 -0.25734058 0.031853132 0.32593453 0.15418404 -0.058593307 -0.5143927 -0.28013244
-0.13163245 -0.04258563 -0.35971877 0.21561268 0.23607613 -0.22126067 -0.23021513 0.25968948
0.13994014 -0.21686515 -0.011099986 -0.17579411 -0.024701562 -0.24802144 -0.47435355 -0.7138218
-0.29318026 0.33871037 0.13083999 0.23056331 -0.013377208 0.15312478 0.1965471 -0.19054745
0.18326452 -0.122969694 0.027485628 0.05848266 0.09811783 0.15815204 -0.27746782 0.27786633
0.6737428 0.2898923 0.15343015 -0.24136782 0.08437843 0.06760706 -0.04786677 0.35430205
-0.6645146 -0.642293 -0.7655495 1.6345946 -1.0204759 -1.227508 -0.72700876 -0.24839139
-0.6498126 -0.77120286 -0.42660874 -0.5949277 -1.215558 -0.82069767 -0.6664994 -1.2423497
-0.86664265 -0.65662706 -0.6403991 -0.5963313 -0.9867862 -1.5296891 -0.45427176 -0.70562005
-0.57691354 -0.79861206 -1.0085042 0.16344833 -1.0246491 -1.135011 -0.9420992 -0.68955266
-0.7967905 -0.6276109 -0.82242256 -1.579327 -0.6968114 -0.63081086 -0.8494093 1.1849213
-0.68481284 -1.0442817 -0.6317798 -0.73775595 -1.5101013 -0.69060165 -1.7844017 -1.1020502
-0.87995017 -0.88093305 -0.82536143 -1.0095806 -0.8089232 -1.0871832 0.2594334 -1.234816
-0.96373546 -0.9540276 0.39512512 -0.5249952 -1.0674648 -0.850945 -0.80748874 0.40548497

lstm.bias_hh_l1 f4 [256]
00000000: 34f7 3fbf 0016 15bf 97bb 5cbf 75f7 3b3f
00000010: c065 8abf 2b55 0abf d831 7ebf 9e8c b4bd
00000020: f71c 2abf bac2 0fbf 6237 c0bf feb9 08bf
00000030: 5628 91bf fc1b 62bf 3942 36bf 12dd 84bf
00000040: 20e7 92bf 8415 42bf 1d08 12bf f70a 4cbf
00000050: 64ad 47bf c4b5 ee3c 764c 8bbf fc9b 49bf
00000060: ca86 1dbf 9f1d 47bf 0c6f 81bf c7ac 74be
00000070: bc92 36bf 154a 023f 50d4 a1bf 376e d53e
00000080: 9f93 68bf 3e57 58bf 21d8 2dbf da70 d33e
00000090: d0f2 3abf ed44 2abf 2ec0 66bf 3256 623f
000000a0: ce4c 15bf ca12 2fbe 0860 03bf a1aa 23bf
000000b0: a38a e2be 8f99 34bf 69f8 573d 6e08 4ebf
000000c0: a211 73bf 32bd 4ebf 3ec3 27bf 3efe 6fbf
000000d0: a225 5abf 410c 7bbf a512 1c3f dccc 9cbf
000000e0: a5c1 d33e 3ca0 5abf e639 b33e bb92 28bf
000000f0: 7736 8abf 725f 6bbf 675c 46bf cd4d 2bbf
00000100: 2ce8 03bf 2fd2 f2be 3191 c3be f8e2 5c3f
00000110: eebd 01bf b089 85be e6f4 e9be 51fe 14bf
00000120: 33a2 10be d4bc 37bf 29b8 6bbf 52d1 14bf
00000130: c44d 23bf b150 25be 6964 ddbe dc4d 37bf
00000140: 70de 36bf bdc5 1ebf ae8f ddbe c01a 20bf
00000150: 1809 09bf 5279 853e 169d 65bf 3c6d f6be
00000160: 014b cbbe a44d 2bbf 30c2 10bf 44a9 a5bf
00000170: 06bb b9be a16e 27bf f983 0ebf 2480 043f
00000180: b500 b0be 0bc5 c8be 0c6f 05bf ac96 e83e
00000190: d0b4 f7be 322f d6be 2156 5bbf a8b7 c2bf
000001a0: 7243 13bf a69e 1bbf da64 19be af31 d4be
000001b0: 32ff 86bf fb4a 0bbf 2ee0 603e 84f7 12bf
000001c0: 9127 13bf ebef 2cbf 8dbc babe 5180 86be
000001d0: 5ff8 dbbe 737b dbbe b74b 193f f246 59bf
000001e0: f9e8 6abf 46c7 b5be 8df4 193f ca70 46bf
000001f0: 93a0 fabe 14dc 31bf 5d16 aebe 3990 71bf
00000200: 9123 a0bc 5c5d 18be 8cf7 e5bb 4392 c1be
00000210: 0a14 65be ce91 843d fddf 1dbe 2067 9ebe
00000220: 280c 183e 1fe1 db3e f7c2 213e 7f68 963e
00000230: eefd b1bd 800f a8bc 2030 13be 41f2 9d3e
00000240: a07f d0be 0b6b 92be 101f a03c 78c5 843e
00000250: d870 a23e 89a3 74be f579 f6be 6004 8abe
00000260: 97ad 56bd 34c9 26be 412e edbe 8db8 3a3e
00000270: 4707 6c3e 60b4 30be edb2 2cbe 0229 143e
00000280: 193e 303d 9469 48be d340 c3bd 2ae2 e8bd
00000290: 9307 cabc dc75 22be aa60 21bf 69e7 0cbf
000002a0: 60c2 b8be 2daa 9f3e abd6 3a3d d897 9b3e
000002b0: 6f0d 933d 3cb4 28bd 3dad 9c3e 4ee5 94bd
000002c0: fd62 163d 214c 95bd ed81 9cbd 12de 443d
000002d0: 3b82 5b3d a1ca f03d ddcf 26be aad9 493e
000002e0: 6f30 073f 52d7 233e d8a0 6c3e f35f a5be
000002f0: 8fa4 5d3e 8976 123e 614d 083d 27dd b33e
00000300: af08 1bbf bbc5 1fbf 8fee 74bf e685 d23f
00000310: 4333 71bf 3ada 85bf 1c72 54bf aea3 38be
00000320: 37f5 0ebf a91e 48bf c3d7 d8be 030d 1bbf
00000330: 5e2f 9dbf 517a 57bf d0e4 1fbf cfb7 9cbf
00000340: 73c1 5ebf eb79 2bbf 3ae9 12bf 00ad 1bbf
00000350: 4333 66bf a513 b0bf 05f9 e2be 7ab6 45bf
00000360: 65dd 1cbf fd0d 23bf 802a 71bf e01d b63e
00000370: 1827 87bf 94c4 98bf 9587 94bf 4884 32bf
00000380: 3194 53bf c99a 40bf c40f 3cbf 546b cabf
00000390: 0945 3abf b27b 2cbf 32d7 6abf a509 8a3f
000003a0: adb8 07bf 0d44 95bf 5c06 29bf 6694 15bf
000003b0: 59e2 c6bf fbe9 35bf 4e5b d0bf 46db 80bf
000003c0: 7b78 5fbf 3dd7 5dbf 80a8 4bbf 5a07 88bf
000003d0: 7f69 49bf 8986 86bf 00d0 6c3e db0b 8cbf
000003e0: 437f 5ebf 04e3 40bf 168e 933e 10d1 e2be
000003f0: 41b4 82bf b651 56bf 7904 7ebf 7a76 f23e
-0.7498658 -0.58236694 -0.8622374 0.73424464 -1.0812302 -0.54036206 -0.99294806 -0.08815883
-0.66450447 -0.56156504 -1.5016901 -0.534088 -1.1340435 -0.8832395 -0.711948 -1.0379965
-1.1476784 -0.7581408 -0.5704363 -0.7970423 -0.7799895 0.029139407 -1.0882709 -0.7875364
-0.61533797 -0.77779573 -1.0112014 -0.23894034 -0.7131765 0.5089429 -1.2642918 0.4168565
-0.9085025 -0.8450812 -0.6790791 0.41297036 -0.7302675 -0.6651142 -0.9013699 0.88412774
-0.5832032 -0.17097011 -0.5131841 -0.63932234 -0.44246396 -0.7054681 0.052727137 -0.8048161
-0.9494878 -0.8075744 -0.6553229 -0.9374732 -0.85213673 -0.9806557 0.6096595 -1.2250018
0.41358677 -0.8540075 0.3500511 -0.6584889 -1.0797871 -0.91942513 -0.77484745 -0.6691559
-0.5152614 -0.47425982 -0.3819671 0.86283827 -0.50680435 -0.2608161 -0.45694655 -0.58200556
-0.14124374 -0.71772504 -0.9207788 -0.581319 -0.63790536 -0.16144063 -0.4324067 -0.7160318
-0.7143316 -0.62020475 -0.4327368 -0.6254082 -0.535295 0.26069123 -0.8969282 -0.48130214
-0.3970566 -0.66915345 -0.56546307 -1.2942281 -0.362755 -0.6540318 -0.55670124 0.5175803
-0.3437554 -0.39212832 -0.5212257 0.45427454 -0.48380136 -0.41832882 -0.856783 -1.5212297
-0.5752479 -0.60788953 -0.14979878 -0.41444156 -1.054663 -0.54411286 0.21960518 -0.5740893
-0.5748225 -0.67553586 -0.36471978 -0.26269773 -0.4296293 -0.42867622 0.59881157 -0.8487388
-0.9176174 -0.35503596 0.6013878 -0.7751585 -0.48950633 -0.6947644 -0.34001437 -0.9436069
-0.01954821 -0.14879364 -0.0070180353 -0.378069 -0.22370926 0.064731225 -0.15417476 -0.30938053
0.14848387 0.4294519 0.1579703 0.293766 -0.08691011 -0.020515203 -0.14373827 0.30848888
-0.4072237 -0.28597292 0.019546062 0.25931907 0.31726718 -0.23890509 -0.4813992 -0.26956463
-0.052411642 -0.1628769 -0.4632435 0.18234463 0.23049651 -0.17256308 -0.1686513 0.14468768
0.04302797 -0.19571525 -0.095338486 -0.11371262 -0.024661815 -0.15865272 -0.6303812 -0.55040604
-0.36085796 0.3118452 0.04561488 0.30389285 0.07180297 -0.04118751 0.3060092 -0.07270299
0.036715496 -0.07289911 -0.07641969 0.048063345 0.053590994 0.117573984 -0.16290231 0.19711939
0.5280828 0.16000107 0.23108232 -0.32299766 0.21644805 0.1430303 0.03327692 0.35129663
-0.60560125 -0.6241109 -0.9567651 1.6447113 -0.94218844 -1.0457222 -0.8298662 -0.18031189
-0.5584292 -0.78171784 -0.42352113 -0.6056673 -1.228008 -0.84171015 -0.62458515 -1.2243594
-0.8701393 -0.6698291 -0.57387125 -0.6081085 -0.8992197 -1.3755995 -0.44330612 -0.7723156
-0.6127532 -0.6369322 -0.94205475 0.35569668 -1.0558805 -1.1934991 -1.1603876 -0.69733095
-0.82648 -0.75236183 -0.73461556 -1.5814004 -0.7276159 -0.67376244 -0.9173461 1.0784193
-0.5301617 -1.1661392 -0.6602533 -0.58429563 -1.5537826 -0.7106015 -1.6277864 -1.0066917
-0.87293214 -0.8665655 -0.79553986 -1.0627244 -0.786766 -1.0509807 0.2312622 -1.0941118
-0.86912936 -0.753464 0.2881934 -0.44300127 -1.0211259 -0.8371843 -0.99225575 0.47356015
