DoubleDQN-QT-Reward-Delay-IR-Final/network-transfromer.pth (torch, 220719 bytes, 18 tensors)

encoder.self_attn.in_proj_weight f4 [27, 9]
0	0x3fb3f996	1.4060543
1	0x3effb1dc	0.49940383
2	0xbe00df19	-0.12585105
3	0x3f2b31c4	0.6687281
4	0x402dd22b	2.7159526
5	0xbf16cffd	-0.58911115
6	0xbe836d3c	-0.25669277
7	0x3f256c2e	0.64618194
8	0x3fb70aae	1.4300134
9	0x3f60d74b	0.8782851
10	0x40100260	2.250145
11	0x4007310a	2.112368
12	0x40357826	2.8354583
13	0x40ad0ab5	5.407557
14	0xbf52d7b2	-0.82360375
15	0xbe3c86e4	-0.18410832
16	0xc050b0a4	-3.2607813
17	0x3e620798	0.2207321
18	0xbfabe60a	-1.3429577
19	0xbd0668fb	-0.03281496
20	0x3f83a170	1.0283642
21	0x3fa35d31	1.2762815
22	0x3d1aaea8	0.03776422
23	0x3ff91ff6	1.9462879
24	0x3f965739	1.1745368
25	0xbfc3d4a2	-1.5299265
26	0xbfa0f98d	-1.2576157
27	0xbeefc338	-0.46828628
28	0x3fe29d4f	1.7704257
29	0x403835d0	2.8782845
30	0x40b03e47	5.507602
31	0x40a9d7de	5.307601
32	0x3f949c0e	1.1610124
33	0x4014dc60	2.3259506
34	0xbed61dd7	-0.4181964
35	0xbf3d3dd0	-0.73922443
36	0x3f9e050a	1.2345288
37	0xbfadddbc	-1.3583293
38	0xbf931ba6	-1.1492813
39	0xbede8460	-0.4346037
40	0x3e32f91a	0.17477837
41	0xbf630fb1	-0.8869582
42	0xbf0a864a	-0.5411116
43	0x3e77fd1b	0.24217646
44	0x3f8c57f6	1.0964344
45	0xbef37f77	-0.47558185
46	0x400baf29	2.182566
47	0x40722d05	3.7839978
48	0x4089b535	4.30337
49	0x40b58213	5.672128
50	0x3d49744b	0.04918317
51	0x3f9afa88	1.2107706
52	0xbfa7a937	-1.3098515
53	0xbf2f7838	-0.68542814
54	0x3eb8bfd4	0.36083853
55	0x3ff28f6a	1.8950016
56	0x3fd82049	1.6884853
57	0x40482e51	3.127827
58	0x40a756e0	5.229355
59	0x3f50b14f	0.8152055
60	0x3f6c157d	0.9222029
61	0x3ded0cc4	0.115747005
62	0x3cb27519	0.021784352
63	0xbdf52ca1	-0.11971403
64	0xc03572ea	-2.8351388
65	0xc0672049	-3.6113455
66	0xc08ffa4d	-4.4993043
67	0xc0e318ff	-7.0968013
68	0xbdd27c22	-0.10277583
69	0xbe82024e	-0.25392383
70	0x3cb5cad8	0.02219145
71	0x3edc9f5c	0.43090332
72	0xbf5424a6	-0.8286842
73	0x3ead0e33	0.33799896
74	0xbd6a2927	-0.057168152
75	0xbec15609	-0.37760952
76	0xbfdfd1a1	-1.7485849
77	0x3d28dfd0	0.04122907
78	0xbd957633	-0.07297935
79	0x40129585	2.290376
80	0xbeaf842e	-0.34280533
81	0xbf9929f7	-1.1965932
82	0xc039be49	-2.902239
83	0xbf8399e5	-1.028134
84	0xc03abdc4	-2.9178324
85	0xc02c63f4	-2.6936007
86	0xbeb6f220	-0.35731602
87	0xbe8500f0	-0.25977278
88	0x40ae9f2f	5.4569316
89	0xbdf90705	-0.12159542
90	0xbfba4f2d	-1.4555413
91	0xbfb628d7	-1.4231213
92	0x3f54cbc1	0.83123404
93	0xc0768ef8	-3.8524761
94	0xc073e377	-3.8107584
95	0xbdec0ba2	-0.11525656
96	0xbf28e3e7	-0.6597275
97	0x400ba322	2.1818318
98	0xbf531241	-0.8244973
99	0x3eabd25a	0.33558923
100	0xbef14ded	-0.47129765
101	0x3febcc3b	1.8421701
102	0xbfcdc589	-1.6075908
103	0xbfcd5dfe	-1.6044309
104	0xbedc0338	-0.42971206
105	0xbece6038	-0.40307784
106	0xc08cf494	-4.4048557
107	0x3efedebd	0.4977931
108	0xbebe4801	-0.3716431
109	0x3dd9a2f9	0.10626788
110	0x3ffa02c4	1.9532094
111	0xbfcd79af	-1.605276
112	0xbfd5ff1d	-1.6718479
113	0x3dae2bf5	0.08504478
114	0x3eac10b4	0.33606493
115	0xc01e7879	-2.476103
116	0xbed0c597	-0.4077575
117	0xbfc0cb48	-1.5062037
118	0xbe5e8bf0	-0.2173307
119	0xbf728acd	-0.94743043
120	0xbf83818b	-1.0273908
121	0xbf82c817	-1.0217313
122	0xbf190a03	-0.597809
123	0x3c71fd63	0.014769885
124	0x40ab9310	5.361702
125	0xbe166f4c	-0.14690894
126	0x3f846b6c	1.0345283
127	0x3f772a2e	0.96548736
128	0xbf9d1395	-1.2271601
129	0x3f58f735	0.8475221
130	0x3ecfd853	0.4059473
131	0xbfa07f66	-1.2538879
132	0xbf9b170c	-1.2116408
133	0xc08f1cff	-4.4722896
134	0x3f099013	0.53735465
135	0xbf7c8f35	-0.98656017
136	0xc0051564	-2.0794306
137	0xc0265f0d	-2.5995514
138	0xc041152b	-3.016917
139	0xc02f89f2	-2.7427945
140	0x3935c988	0.00017336581
141	0x3f08cce1	0.5343762
142	0x3f96ca1f	1.1780432
143	0x3cf7477a	0.03018545
144	0x3f092e56	0.5358633
145	0x3fc3c7f5	1.5295397
146	0x3e95a458	0.29226947
147	0x4044aef6	3.0731788
148	0x40423076	3.0342078
149	0x3e1c4eee	0.15264484
150	0x3e6ab36c	0.22920007
151	0x3fd15a56	1.6355693
152	0xbe8e394d	-0.27778092
153	0x3f28b449	0.65900093
154	0x3f210e4b	0.62912434
155	0xc00fae6a	-2.2450204
156	0x40141448	2.3137379
157	0x4015cbeb	2.3405712
158	0x3f3e4529	0.7432428
159	0x3da52b67	0.08064919
160	0xc0257a0a	-2.5855737
161	0xbe1b9a7a	-0.15195647
162	0xbf6c2066	-0.92236936
163	0x3f495866	0.7865051
164	0x3fdedf09	1.7411815
165	0xc00bb43d	-2.1828759
166	0xbf9fd4f0	-1.2486858
167	0xbf49dfc0	-0.7885704
168	0xc0029cca	-2.0408196
169	0xbd20ae0d	-0.039228488
170	0x3de0dca2	0.10979582
171	0xbe0b8093	-0.13623266
172	0xbf3a8a14	-0.7286694
173	0xc01bd0f7	-2.4346292
174	0x3fa3fccd	1.2811524
175	0x3f1f61d1	0.6225863
176	0xbf25c694	-0.6475613
177	0xbea88c4a	-0.32919532
178	0xbfbcdc30	-1.4754696
179	0xbee588b8	-0.4483087
180	0x3f179a19	0.5921951
181	0xbf89dfc2	-1.077141
182	0xbeac98c9	-0.33710316
183	0xbfb9d06d	-1.4516732
184	0xbfefff29	-1.8749744
185	0xbd0fae4f	-0.035078343
186	0xbdb7a562	-0.08967091
187	0xbf8dde5a	-1.1083481
188	0x3f045f3b	0.5170781
189	0xbf1e6c10	-0.6188364
190	0x3fcb9a96	1.5906551
191	0x3fbe7f83	1.4882663
192	0x3f274c15	0.65350467
193	0x3faca05a	1.3486435
194	0x3f12f079	0.5739818
195	0x3f7edeee	0.99558914
196	0x400b7764	2.179162
197	0xbebe0008	-0.371094
198	0x3ec1afb5	0.37829366
199	0xbed937bc	-0.42425334
200	0x3fea4263	1.830151
201	0xc013dd56	-2.3103843
202	0xbfb6e419	-1.428836
203	0xbe548948	-0.20755494
204	0xbefd8625	-0.49516407
205	0x3ece28fc	0.40265644
206	0xbe03b79a	-0.12863007
207	0x3e7b5a0f	0.24546073
208	0xbf9a657a	-1.2062218
209	0x3f035777	0.51305336
210	0xbf9e166c	-1.2350593
211	0xbf796c5b	-0.9743096
212	0x3eda853e	0.4267978
213	0xbebac85e	-0.36480993
214	0x3e7c7600	0.24654388
215	0x3f8de5db	1.1085771
216	0x3f9e2b3e	1.2356946
217	0xbffc881a	-1.9729035
218	0x3e935f38	0.28783584
219	0x3f74e8fc	0.95668006
220	0x3e6608fa	0.22464362
221	0xbd9570c3	-0.07296898
222	0x3dd1e916	0.10249536
223	0xc023af12	-2.5575604
224	0x3ec28633	0.3799301
225	0x3ebef76e	0.3729815
226	0xbf160e03	-0.5861513
227	0xbff1792e	-1.8865106
228	0x3fb0bffc	1.3808589
229	0x3e8a0e97	0.26964256
230	0xbed52b7d	-0.4163474
231	0xbe869f16	-0.26293248
232	0xc0005266	-2.0050292
233	0xbef15e42	-0.47142226
234	0x3e80e539	0.25174883
235	0xbf4dc33a	-0.8037602
236	0xc0232b35	-2.5495121
237	0xbc70cb61	-0.014696927
238	0xbf16ddad	-0.58932
239	0xbc7045e5	-0.014665102
240	0xbda36529	-0.07978279
241	0xbfb3390f	-1.4001788
242	0xbe2f4ada	-0.17118397

encoder.self_attn.in_proj_bias f4 [27]
0	0x40053585	2.0813916
1	0x3f9bc788	1.2170267
2	0xbf966015	-1.1748072
3	0xbec90fb7	-0.39269802
4	0x3fc5da09	1.5457164
5	0xbf3f76c0	-0.74790573
6	0x3eeaf0e1	0.458869
7	0x3d9683aa	0.07349332
8	0xbf9e3823	-1.2360882
9	0x3e88be11	0.2670751
10	0xbd2585fc	-0.04041098
11	0xbe1e04c3	-0.15431504
12	0x3d95168f	0.07279693
13	0x3e3d3189	0.18475927
14	0x3ce137c5	0.027492413
15	0x3c17f943	0.009275737
16	0x3da31546	0.07963042
17	0x3cc9b147	0.024620665
18	0xbe794c10	-0.24345422
19	0x3dad95b8	0.08475822
20	0x3ebb6a6e	0.36604637
21	0xbf5bfe78	-0.85935163
22	0x3e877e6f	0.2646365
23	0x3f322470	0.6958685
24	0x3f2b607e	0.6694411
25	0x3dcd7b46	0.10033278
26	0x3d9fa766	0.077956006

encoder.self_attn.out_proj.weight f4 [9, 9]
0	0x3e550ba3	0.2080522
1	0xbe42047d	-0.18947025
2	0xbea6e66f	-0.32597682
3	0x3f6d3e34	0.9267304
4	0xbe8412ed	-0.2579569
5	0xbde0d301	-0.10977746
6	0xbf27be4d	-0.6552475
7	0xbdc120f1	-0.09430111
8	0x3ceb7afd	0.028745169
9	0xbdb31141	-0.08743525
10	0x3dcb1907	0.09916883
11	0x3e4e701f	0.20159958
12	0xbf34cdd8	-0.7062659
13	0xbec01ca2	-0.37521845
14	0xbeb09ee2	-0.34496218
15	0x3f2200a7	0.63282245
16	0x3e9c6eba	0.30553228
17	0x3f02b8f9	0.51063496
18	0x3ed0d356	0.40786237
19	0xbe81a688	-0.25322366
20	0x3f182fb6	0.594478
21	0xbfde0899	-1.7346374
22	0x3f6095ce	0.87728584
23	0x3f159352	0.5842792
24	0x3f9774b1	1.1832486
25	0xbe4fa481	-0.20277597
26	0xbec4095c	-0.3828839
27	0xbe2cfbf7	-0.16892992
28	0x3f00e42e	0.50348175
29	0x3f65b235	0.8972505
30	0xbf9feb2a	-1.2493641
31	0xbf0e281c	-0.5552995
32	0xbe0f0cea	-0.1396977
33	0x3fa0f155	1.2573649
34	0x3f1b382b	0.6063258
35	0x3f6b128c	0.91825175
36	0x3cddc019	0.027069138
37	0xbf0ed0a6	-0.5578712
38	0x3f0f60d8	0.56007147
39	0xbe16c095	-0.14721902
40	0x3f439bab	0.76409405
41	0x3ee32516	0.44364232
42	0x3e731f71	0.23742463
43	0xbf47e13c	-0.78078055
44	0xbf7ab031	-0.97925097
45	0xbdea48b5	-0.11439649
46	0xbe98ee9b	-0.29869542
47	0xbea2fd66	-0.31833953
48	0x3ee41940	0.44550514
49	0xbd47cc25	-0.04877867
50	0xbeea1a47	-0.45723173
51	0xbeb78aaf	-0.35847995
52	0xbe1168eb	-0.1420018
53	0x3c9acd82	0.018896822
54	0x3e3b1a28	0.18271697
55	0xbe178b62	-0.14799264
56	0xbe3e13ff	-0.18562315
57	0x3f965a17	1.1746243
58	0xbe7d283a	-0.24722376
59	0x3e48ed94	0.19621879
60	0xbf54cd2b	-0.8312556
61	0xbec3e98d	-0.38264123
62	0x3d5a6d44	0.05332686
63	0xbf405ce3	-0.75141734
64	0x3f1d82ef	0.61527914
65	0xbf44ff39	-0.7695194
66	0x3f870031	1.0546933
67	0xbf40a779	-0.75255543
68	0xbf40d571	-0.75325686
69	0xbf16ab81	-0.58855444
70	0x3f2ab49a	0.66681826
71	0x3f12e804	0.5738528
72	0x3f850257	1.0391339
73	0xbfb86024	-1.440434
74	0x3f16a157	0.58839935
75	0xbea179f8	-0.31538367
76	0x3f2a8cc8	0.66621065
77	0x3faae984	1.3352513
78	0x3e0ade6c	0.1356141
79	0xbfb097d9	-1.379634
80	0xbf8a0810	-1.078371

encoder.self_attn.out_proj.bias f4 [9]
0	0x3e0041f7	0.12525164
1	0x3eb4599a	0.3522461
2	0x3f33e19f	0.70266145
3	0x3d263837	0.040580954
4	0x3e70b8c6	0.23507985
5	0xbedc8fa6	-0.43078345
6	0x3e097e9b	0.13427202
7	0xbf92f8b3	-1.1482147
8	0x3f75ad14	0.9596722

encoder.linear1.weight f4 [64, 9]
0	0xbf072e16	-0.52804697
1	0x3e827aea	0.254844
2	0x3ea22c07	0.31674215
3	0xbe161658	-0.14656961
4	0x3e93fba5	0.28902927
5	0x3f6fd42f	0.9368314
6	0x3ebd1ec7	0.36937544
7	0x3edfe822	0.4373179
8	0xbf199f27	-0.6000847
9	0xbd1a41e9	-0.037660513
10	0x3f2be2c4	0.6714289
11	0x3e8221df	0.25416467
12	0x3dbb9608	0.091594756
13	0x3ea17e5f	0.31541726
14	0x3e9dd2af	0.308248
15	0x3e8d0db1	0.27549508
16	0x3eace781	0.33770373
17	0xbe62f826	-0.22164974
18	0xbe206e64	-0.1566711
19	0xbe0f8ba1	-0.14018108
20	0xbdc46d49	-0.09591157
21	0x3e528157	0.20557152
22	0x3ca6062e	0.020266619
23	0x3e9c0142	0.3046971
24	0x3e0f4859	0.13992442
25	0x3e315cf6	0.17320618
26	0xbe0e7d6b	-0.1391503
27	0x3e99fbef	0.30075023
28	0xbd172614	-0.03690155
29	0x3f219773	0.6312172
30	0x3efb92e1	0.49135497
31	0xbe284d0f	-0.16435646
32	0x3e216cf4	0.15764219
33	0x3ea1e7e0	0.3162222
34	0x3f250977	0.6446757
35	0xbf19078a	-0.5977713
36	0x3e88c1ee	0.26710457
37	0xbf2ec920	-0.6827564
38	0xbf2ba0e7	-0.6704239
39	0x3e909caa	0.28244525
40	0xbf07ca6e	-0.5304326
41	0xbe64556b	-0.2229821
42	0xbdbec654	-0.09315172
43	0xbf230802	-0.63684094
44	0x3f80700a	1.0034192
45	0xbe74feb8	-0.23925292
46	0xbee82be4	-0.45345986
47	0x4013c14f	2.3086736
48	0x3fd78382	1.6837008
49	0x3e22c3d4	0.15895015
50	0xbf93b0ac	-1.1538291
51	0xbfe2bb45	-1.77134
52	0xbf7328a2	-0.94983876
53	0x3ee2ee73	0.44322547
54	0x3e114e74	0.14190084
55	0x3d0c74d8	0.03429112
56	0x3e93618d	0.28785363
57	0x3d9bb080	0.07602024
58	0xbe672de4	-0.225761
59	0x3ec93c4b	0.39303812
60	0x3ef3cd56	0.47617596
61	0x3eecb62f	0.46232745
62	0xbf1b5e99	-0.6069122
63	0x3e0a336d	0.1349618
64	0xbdda702f	-0.106659286
65	0x3e78d9df	0.24301861
66	0x3a99964b	0.0011717764
67	0xbeb0172d	-0.34392682
68	0x3dda85f1	0.106700785
69	0x3ef7e8f7	0.48419926
70	0x3eba159f	0.3634462
71	0xbf1add5e	-0.6049403
72	0xbd9061f8	-0.07049936
73	0x3f2e3daa	0.6806284
74	0x3eb5d02f	0.35510394
75	0x3ef75646	0.4830801
76	0xbe14d9fd	-0.14536281
77	0x3e3b6f0e	0.18304083
78	0x3e79e682	0.24404338
79	0x3e8f0f0f	0.27941176
80	0xbe86f3fb	-0.26358017
81	0xbe12995b	-0.14316313
82	0xbf73caf0	-0.95231533
83	0xbf77bd5b	-0.9677331
84	0xbf80c633	-1.0060486
85	0xbf8ef7db	-1.116939
86	0xbe222122	-0.15832952
87	0xbe114a88	-0.14188588
88	0xbf8d8577	-1.1056355
89	0x3fb80298	1.4375792
90	0xbee03807	-0.43792745
91	0x3f295866	0.6615051
92	0x3ea16b71	0.31527284
93	0x3e37929a	0.17927018
94	0xbc1f2b07	-0.009714848
95	0x3f1ac372	0.60454476
96	0x3e16645a	0.14686719
97	0x3e9854c8	0.29752183
98	0xbecfe777	-0.4060628
99	0x3dcb1095	0.09915272
100	0x3f059631	0.521823
101	0x3f968688	1.1759806
102	0x3fd9ece2	1.7025416
103	0x3c9999ec	0.018750153
104	0xbfabcb72	-1.3421462
105	0xc00031f0	-2.003048
106	0xbf541f01	-0.8285981
107	0x3f1a91c3	0.60378665
108	0x3edb3a6c	0.4281801
109	0x3f3db966	0.7411102
110	0xbd0c5f70	-0.034270704
111	0x3f29d5fe	0.6634215
112	0x3eb5ab1e	0.35482115
113	0xbebcf618	-0.36906505
114	0x3eadb19b	0.33924565
115	0x3f0f025d	0.5586298
116	0xbe66f00d	-0.2255251
117	0x3e80824b	0.25099406
118	0x3ec23619	0.37931898
119	0x3ec08798	0.3760345
120	0x3e78ff24	0.24316078
121	0x3f129390	0.5725641
122	0x3f8801aa	1.0625508
123	0xbe6f5d65	-0.23375471
124	0x3f193f63	0.59862345
125	0xbf81de31	-1.0145932
126	0x3d82e466	0.0639122
127	0xbe18d7d8	-0.14926088
128	0x3d4a7185	0.049424667
129	0x3f9b9255	1.2154032
130	0xbf133a7a	-0.57511103
131	0x3fde2fff	1.7358397
132	0x3e6083d9	0.21925296
133	0x3ea7d88c	0.327824
134	0xbfb49ea8	-1.4110918
135	0x3e75d151	0.24005629
136	0xbfa35653	-1.2760719
137	0xbf6b23dd	-0.918516
138	0xbfc9205e	-1.5713003
139	0xbfb20f2d	-1.3910881
140	0xbe55db46	-0.20884427
141	0x3f08e48f	0.5347375
142	0x3ec3c9da	0.38239938
143	0x3f2b5f28	0.6694207
144	0xbf28e04b	-0.65967244
145	0x3f0d0934	0.5509217
146	0xbec68cf2	-0.38779408
147	0x3f4bfeef	0.7968587
148	0x3f7d8292	0.9902736
149	0x3f30284f	0.68811506
150	0xbdd7f572	-0.10544862
151	0x3e8f4f7c	0.2799033
152	0xbe941f8b	-0.28930315
153	0xbfdfc64b	-1.7482389
154	0xc057904e	-3.3681827
155	0xc0294505	-2.6448376
156	0xc08ef061	-4.466843
157	0xbf47c822	-0.78039753
158	0xbdd763c4	-0.10517076
159	0x40aba8aa	5.364339
160	0xbf9794f2	-1.184233
161	0x3fec08e9	1.8440219
162	0xbf41477f	-0.7549972
163	0x3e8b3139	0.2718599
164	0x3f040b6a	0.51579916
165	0x3f02bf67	0.51073307
166	0x3ebd296b	0.36945662
167	0x3da6900f	0.08132946
168	0x3f240d45	0.6408275
169	0x3df5997b	0.11992165
170	0xbf5d81c8	-0.86526155
171	0xbe1f8c50	-0.15580869
172	0x3e2cbadc	0.16868156
173	0x3e3d682b	0.18496768
174	0x3deeeedc	0.116666526
175	0x3cf95b82	0.030439142
176	0x3e8f1b0a	0.27950317
177	0x3dab6750	0.08369315
178	0x3e7ec441	0.24879552
179	0xbed66379	-0.41872767
180	0xbe382e4f	-0.17986415
181	0xba1c3cbb	-0.0005959977
182	0x3e477b1e	0.19480559
183	0x3e2537cd	0.16134568
184	0x3ed70c34	0.42001498
185	0x3ddd69e8	0.10811216
186	0xbe220328	-0.15821517
187	0x3e95197b	0.29121003
188	0xbe820ff6	-0.25402802
189	0xbf302e30	-0.68820477
190	0xbeee93ce	-0.4659714
191	0xbf7dee88	-0.99192095
192	0x3ea59abb	0.32344612
193	0xbe0abad5	-0.13547833
194	0xbd2a357d	-0.041554917
195	0x3dd5e61b	0.1044428
196	0xbe90eee4	-0.2830726
197	0x3f6b64ac	0.9195049
198	0x3ebe0054	0.37109625
199	0x3ee8ab59	0.45443228
200	0x3dc4c5e6	0.09608059
201	0x3e9ae7dd	0.30255023
202	0x3f147d7b	0.5800397
203	0xbe1955a1	-0.14974071
204	0x3f12a46c	0.5728214
205	0x3eff9992	0.49921852
206	0xbe1a5c66	-0.1507431
207	0x3f287c76	0.6581491
208	0xbfaa1112	-1.328646
209	0xbf3e0471	-0.7422553
210	0xbe5e24c0	-0.21693707
211	0xbfbf2d50	-1.4935703
212	0x3f5aed7a	0.8551861
213	0xbe9be667	-0.3044922
214	0xbf5a21bd	-0.8520773
215	0x3f6f3c71	0.934516
216	0xbf29f532	-0.66389763
217	0xbfb539fc	-1.415832
218	0xbf90c831	-1.1311094
219	0x3ded2deb	0.11581024
220	0xbf8d843a	-1.1055977
221	0xbe9590a7	-0.29211923
222	0xbdd1d2d3	-0.1024529
223	0xbf5c11de	-0.85964763
224	0x3f837512	1.0270102
225	0x3eee7cd7	0.4657962
226	0x3ea533d9	0.3226612
227	0x3f2052b6	0.62626207
228	0xbd49250a	-0.04910759
229	0x3f6bc9dc	0.9210489
230	0x3e9bb8cc	0.30414426
231	0x3eeec1f6	0.46632355
232	0x3f457ebe	0.7714652
233	0xbed1b846	-0.40960902
234	0x3d8cfa4e	0.06883679
235	0x3f12e21e	0.5737628
236	0x3e93b8cc	0.28851926
237	0x3efc4fce	0.49279636
238	0x3e38b624	0.18038231
239	0x3f80f436	1.0074527
240	0xbe2cd9cf	-0.16879962
241	0x3f2728d3	0.6529667
242	0xbf81429d	-1.0098454
243	0xbf41c3ed	-0.75689584
244	0x3f3903d2	0.72271454
245	0x3b8d1adf	0.004306182
246	0x3f87310a	1.056184
247	0x3f3abdb0	0.7294569
248	0xbe4e9eaf	-0.2017772
249	0x3f0caaeb	0.549483
250	0x3e45a9bb	0.19303028
251	0x3b13ed8e	0.0022572014
252	0xbdee06e6	-0.116224095
253	0x3e1571dd	0.14594217
254	0x3ef8fd02	0.4863053
255	0x3e6d5e8f	0.23180602

encoder.linear1.bias f4 [64]
0	0xbeb8d53a	-0.3610018
1	0xbe770820	-0.24124193
2	0xbf02d5f3	-0.5110771
3	0xbee3e249	-0.4450858
4	0x3f683ea2	0.9072057
5	0x3f29d02b	0.66333264
6	0xbf12a27b	-0.57279176
7	0xbef7e129	-0.4841397
8	0xbefe81e8	-0.49708486
9	0x3f9863ea	1.1905491
10	0xbea0e32d	-0.3142332
11	0x3f3dda6e	0.7416142
12	0xbec769b4	-0.38947833
13	0xbf3c13bb	-0.73467606
14	0xbf284f06	-0.6574558
15	0x3f1c9b0f	0.611741
16	0xbf23c592	-0.63973343
17	0x3ef930ab	0.48669943
18	0xbf30bcb8	-0.6903796
19	0xbe0d2749	-0.13784517
20	0xbeffcafd	-0.49959555
21	0x3f8be8ee	1.093046
22	0xbe825c28	-0.25460935
23	0x3f536e17	0.8258986
24	0x3f5dea7b	0.86685914
25	0xbe2b05b7	-0.16701399
26	0xbf3452eb	-0.7043902
27	0x3daa00a4	0.083009034
28	0xbf3221b0	-0.69582653
29	0xbdd98110	-0.1062032
30	0x3eff546f	0.49869105
31	0x3eb23a22	0.34809977
32	0x3eb5ffd5	0.35546747
33	0x3fbcc00f	1.4746112
34	0x3edf1692	0.43571907
35	0x3ef6e4e3	0.48221502
36	0xbf090145	-0.5351756
37	0xbe2116d4	-0.15731364
38	0x3f113923	0.5672781
39	0xbf290b30	-0.66032696
40	0xbedff13d	-0.43738738
41	0xbe2947c1	-0.16531278
42	0x3f790345	0.97270614
43	0xbe38e7bb	-0.18057148
44	0x3d9a563d	0.0753598
45	0x3ef83784	0.48479855
46	0x3e7a91fe	0.24469754
47	0xbec04c36	-0.37558144
48	0x3f6977c6	0.91198385
49	0xbec5e603	-0.38652048
50	0xbecc2c42	-0.39877516
51	0xbe3f9dde	-0.18712565
52	0xbdc9e015	-0.098571934
53	0xbe1bbefe	-0.15209576
54	0xbef2d33a	-0.47426778
55	0x3d55b3ba	0.052173354
56	0x3f592f51	0.84837824
57	0xbea3741e	-0.31924528
58	0x3f07cd1c	0.5304735
59	0x3db00c33	0.08596077
60	0xbf10208d	-0.5629967
61	0xbee3c46c	-0.44485795
62	0xbf2fab97	-0.686212
63	0x3c50c1cb	0.012741516

encoder.linear2.weight f4 [9, 64]
0	0xbdbdc9bc	-0.092669934
1	0xbcc3eea7	-0.02391751
2	0x3e619c28	0.22032225
3	0x3ee7530f	0.45180556
4	0x3f331255	0.6994985
5	0xbf5f019a	-0.8711182
6	0x3e8b56d6	0.27214688
7	0x3e4b4fb4	0.19854623
8	0x3ea55fdf	0.32299706
9	0x3f3af8a2	0.73035634
10	0xbe5f1641	-0.21785833
11	0xbf5d43c8	-0.8643155
12	0x3ec73d31	0.38913873
13	0x3e078ea9	0.13238014
14	0xbfb220c7	-1.3916253
15	0xbe317a02	-0.17331699
16	0xbd8d2cf0	-0.06893337
17	0xbf373cd8	-0.71577215
18	0xbe700db8	-0.23442733
19	0xbdb2f1be	-0.08737515
20	0x3e412488	0.18861592
21	0x3f33787a	0.7010571
22	0x3e9f2ad3	0.3108736
23	0x3ebdac1f	0.3704538
24	0x3f524d41	0.8214913
25	0xbc185b1f	-0.009299069
26	0x3b3ebab7	0.002910299
27	0x3ee134e5	0.43985668
28	0x3e9f59b7	0.31123134
29	0x3ec590b0	0.3858695
30	0xbe15c06c	-0.14624184
31	0x3e5c74f9	0.21528997
32	0x3ea114b3	0.31461105
33	0x3f1b2548	0.6060376
34	0x3fa66629	1.2999927
35	0x3ec4c3b4	0.3843056
36	0x3f1465f2	0.57968056
37	0x3f2ab402	0.6668092
38	0x3e9a1d62	0.30100542
39	0x3e8b25a8	0.27177167
40	0xbe60c7aa	-0.21951166
41	0x3d2baa05	0.04191019
42	0x3f5a3c6d	0.8524845
43	0x3d40e8cd	0.047097016
44	0xbf570380	-0.83989716
45	0xbeda7fb4	-0.42675555
46	0x3dc3c4ca	0.09559019
47	0xbeb04093	-0.34424266
48	0xbf6d23d8	-0.9263282
49	0x3dbba82b	0.09162935
50	0x3e07860e	0.13234732
51	0x3dcbed82	0.099574104
52	0x3e8a066a	0.2695802
53	0xbbee89e8	-0.0072796233
54	0x3d94032b	0.07227167
55	0x3f8b6e25	1.0892988
56	0xbf3d9562	-0.74056065
57	0xbc4a55e7	-0.012349582
58	0x402143e4	2.5197687
59	0x3f031865	0.512091
60	0x3cf60d59	0.030035662
61	0xbc927dff	-0.017882345
62	0x3eaa40a7	0.3325245
63	0x3b8f60e8	0.004375566
64	0xbe946d88	-0.28989816
65	0x3df5c189	0.119998045
66	0xbead12dc	-0.3380345
67	0x3e1272d6	0.14301619
68	0xbf69b64c	-0.9129379
69	0xbfb4e490	-1.4132252
70	0x3eeb6d46	0.45981807
71	0xbeace8a6	-0.33771247
72	0xbe812027	-0.25219843
73	0xbf972d89	-1.1810771
74	0xbeadcf83	-0.3394738
75	0xbfbee166	-1.4912536
76	0xbdde5be4	-0.108573705
77	0xbf3cfea2	-0.7382604
78	0xbf8a9c6d	-1.0828987
79	0xbfea3912	-1.8298666
80	0xbf31f961	-0.69521147
81	0xbf895327	-1.0728501
82	0xbdab2472	-0.08356561
83	0xbdb956a0	-0.090497255
84	0xbc8c132f	-0.017098991
85	0xbf028d42	-0.5099679
86	0x3e09e1fa	0.1346511
87	0xbfea36da	-1.8297989
88	0xbe46768e	-0.19381163
89	0xbe958daf	-0.29209659
90	0x3e7dba48	0.24778092
91	0xbf04e046	-0.51904714
92	0xbe32b850	-0.17453122
93	0xbf827058	-1.0190535
94	0xbff78cbe	-1.9339826
95	0xbefa28be	-0.4885921
96	0xbea6a697	-0.32548973
97	0xbf9faa10	-1.2473774
98	0xc001cc2f	-2.0280874
99	0xbe959498	-0.2921493
100	0xbe337505	-0.17525108
101	0xbf26553d	-0.64973813
102	0xbff78b65	-1.9339415
103	0xbe7dd9ba	-0.24790087
104	0xbe286b82	-0.16447261
105	0xbf120bb1	-0.5704909
106	0xbf8cfa9a	-1.1013978
107	0x3d3870be	0.045029394
108	0xbf94393d	-1.1579968
109	0xbf62c0d0	-0.8857546
110	0xbec62891	-0.38702825
111	0xbed2c0b6	-0.41162652
112	0xbfc7b4b9	-1.5602027
113	0xbee7047d	-0.45120612
114	0xbe956eba	-0.2918604
115	0xbd992b21	-0.07478929
116	0xbe19f870	-0.15036178
117	0xbd6400ec	-0.05566494
118	0xbd40a994	-0.047036722
119	0xc0314d87	-2.770357
120	0xc008ff6d	-2.14059
121	0x3cc95028	0.024574354
122	0xc04a8260	-3.1642075
123	0xbeff238c	-0.49831808
124	0xbe4a85ad	-0.19777556
125	0x3e626048	0.22107041
126	0xbe624e1d	-0.2210011
127	0xbd216ea6	-0.039412163
128	0x3df6ef19	0.12057323
129	0xbd1c0b47	-0.038096692
130	0xbeaabe22	-0.33348185
131	0x3edd85d2	0.4326616
132	0xbe083aee	-0.1330373
133	0xbf157e59	-0.58395916
134	0x3e8c33e2	0.27383333
135	0x3ea9e03c	0.3317889
136	0xbe9ba993	-0.30402812
137	0xbd1936f0	-0.037405908
138	0x3dd7d48b	0.10538586
139	0xbf53912d	-0.82643396
140	0x3ea67662	0.32512194
141	0xbed7e327	-0.4216549
142	0xbf911725	-1.1335188
143	0x3f7d0827	0.98840564
144	0x3eb0f087	0.34558508
145	0x40199f11	2.4003336
146	0xbd10a955	-0.035317738
147	0x3e0422c8	0.12903893
148	0x3e421949	0.18954958
149	0x3eff3925	0.49848285
150	0x3e18aeaf	0.14910387
151	0x3f18819a	0.59572756
152	0x3f4bd410	0.79620457
153	0x3f07c636	0.5303682
154	0xbf246d61	-0.642294
155	0x3f2313ad	0.637019
156	0xbeb1a889	-0.34698895
157	0x3e5a41df	0.2131419
158	0x3f853500	1.0406799
159	0x3e2e447f	0.17018317
160	0x3d5d7574	0.05406709
161	0x3e6b7aee	0.22996113
162	0x3d9b7400	0.075904846
163	0x3fa5bb89	1.2947856
164	0x3cb50f35	0.022101978
165	0x3f1490f4	0.5803368
166	0xbe065d8c	-0.13121623
167	0xbe5cb901	-0.21554948
168	0x3e7b3456	0.24531683
169	0x3e13f10e	0.14447424
170	0xbe68ab1b	-0.22721522
171	0xbdc568ee	-0.096391544
172	0x40435da4	3.0525904
173	0x3f0f7912	0.56044114
174	0x3e78f390	0.24311662
175	0xbf2c2859	-0.67249066
176	0xbeea6b2b	-0.45784888
177	0x3ece7fe4	0.40331948
178	0x3e92bdaf	0.28660342
179	0x3daa898c	0.08327016
180	0xbe6ae675	-0.22939475
181	0x3e3a41db	0.18189184
182	0x3df3e863	0.119095586
183	0x4000ca1c	2.0123358
184	0xbfdd12e9	-1.7271396
185	0xbe1c5fc9	-0.15270914
186	0xbf21f622	-0.63266194
187	0x3e73e648	0.23818314
188	0x3d6046f2	0.05475516
189	0xbe580901	-0.21097185
190	0x3d5a14c2	0.053242452
191	0x3c3f97f6	0.011693945
192	0xbebb790d	-0.36615792
193	0xbe293c99	-0.16527022
194	0xbe67820a	-0.226082
195	0xbebd97fb	-0.37030014
196	0xbf708775	-0.9395669
197	0xc049e1a1	-3.1543963
198	0xbea31bd1	-0.3185716
199	0xbec0af0d	-0.37633553
200	0xbeabe707	-0.33574697
201	0xbfd63493	-1.6734794
202	0xbe2e5c34	-0.1702736
203	0xc04b38f1	-3.1753504
204	0xbec5d8a4	-0.38641846
205	0xbef6a62b	-0.4817365
206	0xbf2478ae	-0.6424664
207	0xc04e7a98	-3.2262325
208	0xbf497ccb	-0.78706044
209	0xbf43112b	-0.7619807
210	0x3e0c7bc2	0.13719085
211	0x3ec9f430	0.39444113
212	0xbe099353	-0.13435106
213	0xbfaa7ca6	-1.331929
214	0x3cbbf93c	0.022945993
215	0xc005495e	-2.082603
216	0xbff406fe	-1.9064634
217	0xbf97115d	-1.1802174
218	0xbf11e6fd	-0.56993085
219	0xbf21f6cf	-0.63267225
220	0xbecaedb2	-0.39634472
221	0xbfbde10e	-1.4834306
222	0xbec40852	-0.38287598
223	0xbf06a385	-0.5259326
224	0xbf1e0d2c	-0.6173885
225	0xc00acfaf	-2.168926
226	0x3d1f0098	0.038818926
227	0xc01ba4b8	-2.4319286
228	0xbf1e7d78	-0.619102
229	0xbf6095d0	-0.87728596
230	0xbfb8b3fa	-1.4429924
231	0xbd5ca6af	-0.0538699
232	0xbd69357e	-0.05693578
233	0xbf36689c	-0.7125337
234	0xbfdb9b0c	-1.7156692
235	0x3e1503d1	0.14552237
236	0xbf878563	-1.0587581
237	0xbfbddae8	-1.483243
238	0xbe30f69f	-0.17281578
239	0xbf81ba83	-1.0135044
240	0xc045ad25	-3.088693
241	0xbf1b2870	-0.6060858
242	0xbf0b16a9	-0.5433145
243	0x3c15412d	0.009109777
244	0xbf01613b	-0.50538987
245	0xbe35409b	-0.17700426
246	0xbbc8281e	-0.006108298
247	0xc05edb72	-3.4821439
248	0xc06afca1	-3.6716692
249	0x3e4edfc5	0.20202549
250	0xbd92f9a1	-0.07176519
251	0xbeeef6ca	-0.4667266
252	0xbd8ca7be	-0.06867932
253	0xbd9d4995	-0.0768005
254	0xbec025e0	-0.37528896
255	0xbe4c341f	-0.19941758

encoder.linear2.bias f4 [9]
0	0x3f3c6ade	0.73600566
1	0xbf4c432f	-0.79790014
2	0xbe8fb290	-0.2806592
3	0xbf8c17bc	-1.0944743
4	0xbf864f5b	-1.0492967
5	0xbf8cbb54	-1.0994668
6	0x3e34cc13	0.17655973
7	0xbeb2206f	-0.3479037
8	0x3f1776b8	0.59165525

encoder.norm1.weight f4 [9]
0	0xbe22d293	-0.1590064
1	0x3f1004e6	0.56257474
2	0x3f97f3c1	1.1871263
3	0x3f9608fd	1.1721493
4	0xbe6f4f57	-0.2337011
5	0x3e41af72	0.18914583
6	0x3ed235ad	0.41056576
7	0x3ff620ef	1.92288
8	0x400314b2	2.0481381

encoder.norm1.bias f4 [9]
0	0xbe283e96	-0.16430125
1	0xbe96cf39	-0.29454973
2	0x3e9df4a2	0.30850703
3	0xbee4240b	-0.4455875
4	0x3d87f354	0.06638208
5	0xbebd7692	-0.37004524
6	0xbdddb43e	-0.10825394
7	0xbf8b104f	-1.0864352
8	0x3f888a3a	1.0667183

encoder.norm2.weight f4 [9]
0	0x3f84a2d9	1.0362197
1	0x3f763262	0.9617063
2	0x3e9f2cd7	0.31088898
3	0x3f14145e	0.5784358
4	0x3f710b1c	0.94157577
5	0x3dd1026c	0.1020554
6	0x3eee0e22	0.46495157
7	0x3dc89a43	0.09795048
8	0x3f87e7e2	1.061764

encoder.norm2.bias f4 [9]
0	0x3f03dc7f	0.51508325
1	0xbf87405c	-1.0566516
2	0xbf062bde	-0.52410686
3	0xbf203967	-0.6258759
4	0xbf8351fb	-1.0259393
5	0xbedf8310	-0.4365468
6	0xbf21e805	-0.6324466
7	0xbf014de4	-0.50509477
8	0x3f0110ec	0.50416446

l2.weight f4 [18, 2880]
0	0x3d9ceb43	0.0766206
1	0xbea11ebf	-0.3146877
2	0xbf17edf1	-0.59347445
3	0x3e80fd19	0.25193098
4	0x3e8e5051	0.27795652
5	0xbe86234b	-0.261988
6	0xbf1775d9	-0.59164196
7	0x3ec99b80	0.3937645
8	0xbcfffe73	-0.03124926
9	0x3d1becc3	0.03806759
10	0xbee0c8ea	-0.43903285
11	0xbf2157cf	-0.6302461
12	0x3dc8d708	0.09806639
13	0x3e6719f5	0.22568496
14	0x3e2c1ca7	0.16807805
15	0xbfa85c55	-1.3153177
16	0x3ec1759c	0.3778504
17	0xbe1f51cc	-0.15558547
18	0xbdf2230b	-0.1182309
19	0xbf2c602d	-0.6733425
20	0xbf067eb6	-0.52537096
21	0x3e84f918	0.25971293
22	0xbdc2b2f5	-0.095067896
23	0x3cba5366	0.022744846
24	0x3dd07a32	0.10179557
25	0xbcb9fde4	-0.022704072
26	0xbe620d57	-0.22075401
27	0xbeb5435a	-0.35402948
28	0xbf1133fc	-0.56719947
29	0x3e03a04a	0.12854114
30	0x3e6f2ff6	0.2335814
31	0x3e4e209c	0.20129627
32	0x3eb90814	0.36138976
33	0xbf442502	-0.7661897
34	0xbded7471	-0.11594475
35	0xbdd464cf	-0.1037079
36	0x3d037474	0.03209348
37	0xbea7929b	-0.3272904
38	0xbf25ac37	-0.64715904
39	0x3e52b24f	0.20575832
40	0x3e887470	0.26651335
41	0x3f4aa48c	0.7915733
42	0xbf7f3fa4	-0.9970648
43	0x3ea80354	0.3281504
44	0xbdd1f496	-0.10251729
45	0xbe047669	-0.12935795
46	0xbeebe6b2	-0.46074444
47	0x3d4454fc	0.04793261
48	0x3e2e6e3e	0.17034242
49	0x3eb18699	0.34673002
50	0xbda21b01	-0.07915307
51	0x3e819f13	0.25316676
52	0x3dbcee87	0.09225183
53	0xbe651545	-0.22371395
54	0x3d6bdc77	0.0575833
55	0x3dd98e86	0.10622887
56	0xbf175eb4	-0.5912888
57	0x3e59d9a1	0.21274425
58	0x3e7a8ca5	0.24467714
59	0xbe0d5444	-0.13801676
60	0xbf10e9a7	-0.56606525
61	0x3f135458	0.57550573
62	0xbca5c594	-0.020235814
63	0x3d5b12ee	0.05348485
64	0xbc0c4743	-0.008561912
65	0xbf07cac0	-0.53043747
66	0x3e44fc32	0.1923683
67	0x3e3646e9	0.17800488
68	0xbda477b4	-0.08030644
69	0xbf215de5	-0.63033897
70	0x3f1ddf43	0.61668795
71	0x3e17a128	0.1480757
72	0x3d72b0f1	0.059250776
73	0x3df34ff6	0.11880486
74	0xbf167a21	-0.58780104
75	0x3dcfda92	0.10149111
76	0x3ea9c9b7	0.3316171
77	0xbdea5231	-0.11441458
78	0xc0031984	-2.0484324
79	0x3f0fab10	0.56120396
80	0xbeac2ea6	-0.3362934
81	0xbd7835d9	-0.060598228
82	0xbe9bf00d	-0.30456582
83	0x3d9f2888	0.077714026
84	0x3d3a3d2d	0.045468498
85	0x3e700313	0.23438673
86	0x3f385106	0.7199863
87	0xbfdac5c0	-1.7091599
88	0x3d90034c	0.07031879
89	0xbe3cff0f	-0.18456672
90	0x3dce7bc2	0.10082199
91	0xbca1c40c	-0.019746803
92	0xbf10fa79	-0.5663219
93	0x3e3be6f7	0.18349825
94	0x3e41738f	0.18891738
95	0x3e8326cf	0.25615546
96	0xbf5804b8	-0.843822
97	0xbdf61726	-0.12016134
98	0x3d09ab38	0.033610553
99	0xbe88f16c	-0.2674669
100	0x3e7fb4d3	0.24971323
101	0x3da6025b	0.08105918
102	0x3ecac5d5	0.3960406
103	0x3ed5f60b	0.41789278
104	0x3cced1b6	0.025246482
105	0xbf818397	-1.0118283
106	0xbee9d1ec	-0.4566797
107	0xbd95083a	-0.0727696
108	0x3dcd2f4c	0.10018787
109	0x3f3631cf	0.7116975
110	0xbf1497e7	-0.58044285
111	0x3ef0ecb4	0.4705559
112	0x3e82187d	0.25409308
113	0xbe781b5b	-0.24229185
114	0xbdec9242	-0.11551334
115	0xbea03200	-0.31288147
116	0x3e38efb8	0.18060195
117	0x3d5df55d	0.054189075
118	0x3ee05b32	0.43819577
119	0xbf227262	-0.63455784
120	0x3ecc4d61	0.39902785
121	0x3e2bbdcd	0.16771622
122	0x3efbf8d9	0.49213293
123	0xbf607e30	-0.87692547
124	0x393df7ae	0.00018116712
125	0xbe196f5e	-0.1498389
126	0xbc91a50b	-0.017778894
127	0xbe3254f9	-0.17415227
128	0xbf125c82	-0.57172406
129	0x3e0e8732	0.1391876
130	0xbd0a87dd	-0.033820976
131	0xbe7847f6	-0.24246201
132	0x3ee9134a	0.4552253
133	0xbe4cc469	-0.199968
134	0xbd814809	-0.06312568
135	0xbc7c60f7	-0.015403978
136	0xbebd2ac0	-0.36946678
137	0x3ea41f6b	0.3205522
138	0x3e958695	0.2920424
139	0x3e5ba569	0.21449818
140	0xbe643726	-0.22286662
141	0xbe541b39	-0.2071351
142	0x3d0c22ee	0.034213
143	0xbe58df0c	-0.21178836
144	0x3df907ca	0.12159689
145	0x3dda090c	0.10646257
146	0xbefc210a	-0.49243957
147	0x3e7c9c41	0.24668981
148	0x3e8bb08d	0.27283135
149	0x3db081e5	0.086185254
150	0x3e8a0f18	0.2696464
151	0x3d6ee4e8	0.05832377
152	0x3cedf4cd	0.029047394
153	0xbe6643fb	-0.2248687
154	0x3eaa8320	0.33303165
155	0xbf10006f	-0.5625066
156	0x3ea50edd	0.32237902
157	0x3e9c06a6	0.30473822
158	0xbe88e514	-0.26737273
159	0x3d0ea351	0.03482372
160	0x3e6a2a3b	0.22867672
161	0xbe61db4f	-0.22056316
162	0x3db3df9c	0.087828845
163	0x3e6a449e	0.22877738
164	0xbf2559d6	-0.64590204
165	0x3e67621e	0.22596022
166	0x3e9e7968	0.30952
167	0xbe9c54da	-0.30533487
168	0x3e9087b4	0.28228533
169	0x3ed0c871	0.40777925
170	0xbd940983	-0.07228377
171	0xbf133502	-0.5750276
172	0x3ea38a34	0.31941378
173	0x3e6b33ff	0.22969054
174	0x3eaeae36	0.34117287
175	0x3d315ffd	0.043304432
176	0x3ef5da47	0.48018095
177	0x3f4625da	0.77401507
178	0x3e7577d2	0.23971489
179	0xbee5decb	-0.4489654
180	0x3d008104	0.03137304
181	0xbb45c24b	-0.0030175622
182	0xbefd868f	-0.49516723
183	0x3e8d517c	0.2760123
184	0x3dcb9231	0.09939993
185	0x3ec68bdc	0.3877858
186	0x3e5a9fa4	0.2134996
187	0x3e190de8	0.14946711
188	0xbe4e9f2f	-0.20177911
189	0x3d47c0e4	0.04876794
190	0x3df1f353	0.118139885
191	0xbf26f8a0	-0.6522312
192	0x3d1c2dde	0.03812968
193	0x3d9208de	0.071305975
194	0x3ea30ce8	0.31845784
195	0x3f5a3b1a	0.8524643
196	0xbe44421d	-0.19165845
197	0xbdf65071	-0.12027062
198	0x3c839ebf	0.016066907
199	0x3e8a674c	0.27031934
200	0xbf0d10e8	-0.5510392
201	0x3e9cc7b2	0.30621105
202	0x3e94057e	0.2891044
203	0x3e097af1	0.13425805
204	0x3f13777b	0.5760419
205	0x3e472200	0.19446564
206	0xbe03a214	-0.12854797
207	0x3db4b096	0.088227436
208	0xbdfadb31	-0.12248839
209	0xbf2c8e0d	-0.6740425
210	0x3e7b56cf	0.24544834
211	0x3e760fac	0.24029416
212	0x3d861ceb	0.065484844
213	0xbc07b196	-0.008282086
214	0x3edd8276	0.43263596
215	0xbe2bcb9e	-0.16776893
216	0x3e15fdc6	0.14647588
217	0xbee87551	-0.45402005
218	0xbf105467	-0.5637879
219	0x3c8c0a85	0.01709486
220	0x3dd1dc15	0.102470554
221	0xba0a3a90	-0.0005273009
222	0xbe6f5f1f	-0.2337613
223	0xbc91dbe3	-0.017805045
224	0x3d2e3bce	0.042537503
225	0xbec1d447	-0.37857267
226	0xbf071643	-0.52768344
227	0xbf2877c9	-0.6580778
228	0x3d614f77	0.055007424
229	0x3ea33420	0.31875706
230	0x3e01393a	0.12619486
231	0xbef68791	-0.48150304
232	0x3c919cb5	0.017774919
233	0xbdbc60f0	-0.09198177
234	0x3cfd2c90	0.030905038
235	0xbc358f66	-0.011081552
236	0xbf1b9c10	-0.6078501
237	0x3da49079	0.080353685
238	0x3e8d657d	0.27616492
239	0xbd96ec1e	-0.073692545
240	0x3e6a02c4	0.22852618
241	0x3e20f660	0.15718985
242	0xbdfc9b9f	-0.1233437
243	0xbee855ec	-0.45378053
244	0x3e4c342b	0.19941776
245	0x3d8de126	0.06927709
246	0x3e85ddd9	0.2614582
247	0x3ea20de1	0.31651214
248	0xbe18e63c	-0.14931577
249	0x3e32606e	0.17419598
250	0x3e612753	0.21987657
251	0xbe86e74a	-0.26348335
252	0x3e1e44ad	0.15455885
253	0x3d9e5a2e	0.07732044
254	0xbf14baaf	-0.58097357
255	0x3c8642e9	0.016389327

l2.bias f4 [18]
0	0xbec35c81	-0.38156512
1	0xbf3df8a8	-0.74207544
2	0xbfa6a14a	-1.3017972
3	0xbf474012	-0.7783214
4	0xbf45ef2b	-0.77318066
5	0xbf40e370	-0.7534704
6	0xbf17e9ba	-0.59341013
7	0x3e3d6305	0.18494804
8	0xbf2a6870	-0.6656561
9	0xbf3c99c6	-0.7367214
10	0xbf1db955	-0.6161092
11	0xbed9f568	-0.42570043
12	0xbf173ddc	-0.59078765
13	0xbf2a4f3f	-0.6652717
14	0xbf283e49	-0.6572004
15	0xbf2e2782	-0.68029034
16	0xbeca99ae	-0.39570373
17	0xbf23bf16	-0.6396345

l3.weight f4 [18, 20]
0	0xbe2039a0	-0.15646982
1	0x3f94b2d5	1.1617075
2	0x3b9a24fd	0.0047041164
3	0x3e97255e	0.29520696
4	0x3f5426d6	0.8287176
5	0x3eb3a929	0.35089996
6	0x3d159689	0.036520515
7	0x3d95412d	0.07287822
8	0xbd0d85d0	-0.03455144
9	0x3ee65141	0.44983867
10	0x3dde032b	0.10840448
11	0x3f1654c2	0.5872308
12	0x3d87909e	0.066193804
13	0xbdae9c14	-0.08525863
14	0x3dcc6493	0.099801205
15	0x3e313475	0.17305167
16	0x3e35e2c1	0.17762281
17	0xbe9afdb0	-0.30271673
18	0x3dfddb9c	0.12395403
19	0xbf04363c	-0.51645255
20	0x3ed18c38	0.4092729
21	0x3f6cc623	0.9248983
22	0x3f763bff	0.96185297
23	0x3f332798	0.6998229
24	0x3f10319e	0.5632571
25	0x3f93d75b	1.1550096
26	0x3d6e310d	0.058152247
27	0xbaaed670	-0.0013339054
28	0x3e28540e	0.16438314
29	0x3dfcc21b	0.1234171
30	0xbd0ae4d5	-0.033909637
31	0x3eafaa53	0.34309635
32	0xbdcc0151	-0.099611886
33	0x3d10c7c1	0.03534675
34	0xbe9f0e3c	-0.31065547
35	0xbedcbb15	-0.43111482
36	0x3e1d58a5	0.15365846
37	0xbe9344a7	-0.28763315
38	0xbe24add0	-0.16081929
39	0xbefbcfaa	-0.49181873
40	0x3dff32af	0.12460839
41	0xbe67e4a1	-0.22645809
42	0x3e403a5d	0.18772264
43	0xbc1ef8e3	-0.009702894
44	0x3f025558	0.50911474
45	0x3eefce47	0.46837065
46	0xbeb3bc9c	-0.35104835
47	0xbead5c9f	-0.33859727
48	0xbf3d3780	-0.7391281
49	0xbf4f2412	-0.80914414
50	0xbf181dc2	-0.59420407
51	0xbf0ba7c9	-0.54552895
52	0xbeefc500	-0.46829987
53	0xbf321242	-0.6955911
54	0xbeeccf68	-0.46251988
55	0x3f696bfc	0.91180396
56	0x3d804772	0.06263627
57	0xbf3ad12a	-0.7297541
58	0xbe46465e	-0.1936278
59	0xbee989b7	-0.4561288
60	0xbd90a16e	-0.0706204
61	0x3f60c62e	0.878024
62	0x3e852cb9	0.26010683
63	0x3e309e53	0.17247896
64	0x3e96cfe5	0.29455486
65	0x3f1d85f9	0.6153255
66	0xbdffb501	-0.12485696
67	0x3b7bb227	0.0038405748
68	0xbe2e6c54	-0.17033511
69	0x3f26d258	0.6516471
70	0xbe576b9a	-0.2103714
71	0xbdc24e3d	-0.09487579
72	0xbe6d4064	-0.23169094
73	0xbe6e2436	-0.23256001
74	0xbe5b1e83	-0.21398358
75	0x3ef15b57	0.4714
76	0x3f0200de	0.50782573
77	0x3d49d7de	0.049278133
78	0x3c645f20	0.013938695
79	0xbcdd0726	-0.026980948
80	0x3e850c14	0.25985777
81	0xbf251ddb	-0.6449868
82	0x3e25c3b4	0.16187936
83	0x3dae974c	0.08524951
84	0x3efa0480	0.48831558
85	0x3e7ed43a	0.24885646
86	0x3e9598eb	0.2921823
87	0xbc393289	-0.011303552
88	0xbed0af40	-0.40758705
89	0x3e9ace5a	0.3023556
90	0x3e8c3499	0.2738388
91	0xbe64cf2f	-0.2234466
92	0x3ea28afb	0.3174666
93	0x3e5128a7	0.20425664
94	0x3e22f98d	0.15915509
95	0x3f06cdda	0.52657855
96	0x3e16b094	0.14715797
97	0x3eb9d3b0	0.36294317
98	0xbe3930d2	-0.1808503
99	0xbd1acba5	-0.037791867
100	0xbee4f38c	-0.44717062
101	0xbda98096	-0.08276479
102	0xbf21ccff	-0.63203424
103	0xbe845d35	-0.2585236
104	0xbe981b44	-0.29708302
105	0xbf127125	-0.57203895
106	0x3f5edee0	0.8705883
107	0xbed80399	-0.42190245
108	0x3ed76850	0.42071772
109	0x3f4e6818	0.80627584
110	0x3f1eef25	0.62083656
111	0xbe6b0e7b	-0.22954743
112	0x3f32bb0b	0.69816655
113	0x3f1c677f	0.6109542
114	0x3f4863f4	0.78277516
115	0x3f115300	0.5676727
116	0xbf0cc308	-0.54985094
117	0x3f2d6dc7	0.6774563
118	0x3e545872	0.20736864
119	0xbda02d62	-0.07821156
120	0xbeacdb62	-0.33761126
121	0x3f2b605e	0.6694392
122	0x3f63e291	0.8901759
123	0x3f8e3cc8	1.1112299
124	0x3f0d0d7d	0.55098706
125	0x3facca7f	1.3499297
126	0xbe95aefd	-0.29235068
127	0x3cbc7bee	0.023008313
128	0xbd665585	-0.0562339
129	0xbd8f2286	-0.06989007
130	0xbeb742b4	-0.35793078
131	0xbe039f77	-0.128538
132	0xbf05952f	-0.5218076
133	0xbe9a0ad5	-0.3008639
134	0xbe8d1fa3	-0.275632
135	0x3e0d6584	0.13808256
136	0x3e8cec0b	0.27523836
137	0xbeecf74f	-0.4628243
138	0xbe0178fe	-0.12643811
139	0x3c785170	0.015156135
140	0xbec36d81	-0.38169482
141	0x3f723099	0.94605404
142	0x3f1b1e77	0.6059336
143	0x3f410535	0.7539857
144	0x3e025965	0.12729414
145	0x3f844bc6	1.0335624
146	0xbe042b90	-0.12907243
147	0xbd86b439	-0.065773435
148	0x3e39aa9c	0.18131489
149	0x3f2517b8	0.64489317
150	0xbc93cc93	-0.018041885
151	0x3f608132	0.87697136
152	0x3e826fa7	0.2547581
153	0x3e4a6b29	0.19767441
154	0x3e30fb90	0.17283463
155	0xbe0a5b1e	-0.13511321
156	0x3e81389f	0.2523851
157	0x3f0b2fc8	0.54369783
158	0x3d056d90	0.03257519
159	0xbf13b783	-0.5770189
160	0xbdded628	-0.10880691
161	0x3f51797e	0.8182601
162	0x3f45222a	0.77005255
163	0x3f8597a5	1.0436903
164	0x3f2fb7d0	0.6863985
165	0x3f88f40d	1.0699478
166	0xbe8a7b9d	-0.27047434
167	0xbd8bfb6b	-0.068350635
168	0x3dcb7f48	0.09936386
169	0xbf04a434	-0.51813054
170	0xbef0129f	-0.46889207
171	0xbe7d5fd3	-0.24743585
172	0xbecfd985	-0.40595642
173	0xbec8bfe0	-0.3920889
174	0xbf1f08cd	-0.62122804
175	0x3ed02cc8	0.40659165
176	0x3e90f634	0.28312838
177	0xbf1a02b6	-0.60160387
178	0x3e512982	0.2042599
179	0xbc6ecae0	-0.014574736
180	0x3edf5ae7	0.4362404
181	0x3ea45792	0.3209806
182	0x3ec41cec	0.38303316
183	0x3f2b0234	0.66800237
184	0x3f0c1148	0.5471387
185	0x3f002023	0.50049037
186	0xbe9c8a97	-0.30574486
187	0xbcbd592c	-0.02311381
188	0xbdbdce5b	-0.09267875
189	0xbe8e0018	-0.27734447
190	0xbe0f3fb4	-0.13989145
191	0xbdef4432	-0.11682929
192	0xbe9a65c9	-0.3015578
193	0xbe79b3d6	-0.24385008
194	0xbe994e48	-0.29942536
195	0x3dce7eae	0.10082756
196	0xbe1c80ad	-0.15283461
197	0xbea970c3	-0.33093843
198	0x3d554158	0.05206427
199	0xbd4a815b	-0.04943977
200	0x3ecd78ca	0.40131217
201	0xbecc723f	-0.39930913
202	0x3f682c6b	0.90692776
203	0x3ef627c4	0.48077214
204	0x3d6a21e5	0.05716123
205	0x3efa71ef	0.4891505
206	0x3e1654eb	0.14680831
207	0x3d150354	0.036380127
208	0xbeeb9442	-0.4601155
209	0xbc0bbc16	-0.00852873
210	0x3e1a02b6	0.15040097
211	0xbe92d7d9	-0.28680304
212	0x3cf15d6c	0.029463492
213	0x3e2fb475	0.17158683
214	0xbde313ea	-0.11087783
215	0x3f418f52	0.75609314
216	0x3e76a620	0.24086809
217	0xbdb130f4	-0.08651915
218	0xbd5b0c90	-0.053478777
219	0xbdf3a32b	-0.11896356
220	0x3e96b886	0.29437655
221	0x3f2d845c	0.6778009
222	0x3f7ad1bc	0.9797628
223	0x3f5afae4	0.8553908
224	0x3ef8ace9	0.4856942
225	0x3f7680ce	0.9629029
226	0xbe3cc25f	-0.18433522
227	0xbe199244	-0.14997202
228	0xbd66f572	-0.05638642
229	0xbe4604cc	-0.19337767
230	0xbe973c2c	-0.29538095
231	0xbe4ee368	-0.20203936
232	0xbe539461	-0.20662071
233	0xbe6a721f	-0.22895096
234	0xbeb78be8	-0.35848927
235	0x3f160e7e	0.58615863
236	0x3f030f7d	0.5119551
237	0xbef69a56	-0.48164624
238	0xbd25b908	-0.040459663
239	0xbbdf0e21	-0.006807104
240	0x3edd44b9	0.43216494
241	0xbe8abb7c	-0.27096164
242	0x3eb07ce8	0.34470296
243	0x3eb9f3ea	0.36318904
244	0x3e1ea7ce	0.154937
245	0x3ec636c1	0.3871365
246	0xbd93fd03	-0.072259925
247	0xbee0a5b4	-0.4387642
248	0xbd145ed3	-0.036223244
249	0x3e9ae59e	0.3025331
250	0x3e1fe7d6	0.15615782
251	0xbed7d115	-0.42151704
252	0x3d34f5e4	0.044179812
253	0x3ea77218	0.32704234
254	0x3cc3291e	0.023823317
255	0x3fd7a373	1.6846756

l3.bias f4 [18]
0	0xbe97d771	-0.29656556
1	0xbfab6544	-1.3390279
2	0xbf035651	-0.51303583
3	0x3ebc3276	0.3675725
4	0xbf1b61c4	-0.60696054
5	0x3e570f6b	0.21001975
6	0xbfe6e480	-1.8038483
7	0xbf6b8b06	-0.9200901
8	0xbf8f36e0	-1.1188622
9	0xbfb0c639	-1.3810493
10	0xbe594254	-0.21216708
11	0xbfc59131	-1.5434934
12	0xbeec61c3	-0.46168336
13	0xbf844ad7	-1.0335339
14	0xbf0e600a	-0.55615294
15	0xbf5e78c9	-0.86903054
16	0xbf54c484	-0.8311236
17	0xbfe01e6e	-1.7509286

l4.weight f4 [2, 18]
0	0xbc9dbe79	-0.019255864
1	0x3db54df2	0.088527575
2	0x3e6e465d	0.23269029
3	0x3c83a62b	0.016070446
4	0xbd9bb6f8	-0.07603258
5	0x3f1c28b3	0.609996
6	0xbdeb51fe	-0.11490248
7	0x3cad48c9	0.02115287
8	0xbdba64be	-0.09101246
9	0x3afb4647	0.0019170725
10	0xb9469a2a	-0.00018940182
11	0xbd7b2b1e	-0.061320417
12	0x3f0c1338	0.54716825
13	0xbbb4e9bb	-0.005521027
14	0xbdaabb1f	-0.08336472
15	0x3d809786	0.06278901
16	0x3b4a0b46	0.0030829473
17	0xbe0c2450	-0.13685727
18	0x3dadd52b	0.08487924
19	0xbce57bda	-0.028013159
20	0x3d5a8109	0.053345714
21	0x3cca257d	0.024676079
22	0x3bb0b8b4	0.005393112
23	0x3f410a47	0.75406307
24	0x3a95429d	0.001138765
25	0xbcc0363b	-0.02346336
26	0x3b5814d7	0.0032971406
27	0xbb91299d	-0.0044300095
28	0x3c415d68	0.011802055
29	0xbb812370	-0.003940992
30	0x3ed81501	0.42203525
31	0x3bcf52da	0.0063270153
32	0xba641a2c	-0.00087014097
33	0x3b7b8a6b	0.0038382064
34	0xbb59e07e	-0.003324538
35	0xbe816b47	-0.2527716

l4.bias f4 [2]
0	0x3fc93f28	1.5722399
1	0x3fb3c94d	1.4045807
