Formal Experiments/CSI500/BaseLine-LSTM/ModelParm/2024年2月10日 18-21年训练，22年测试/64target-network-lstmNoguiadance.pth (torch, 230875 bytes, 12 tensors)

lstm.weight_ih_l0 f4 [256, 10]
0	0xbeaff2d7	-0.3436496
1	0xbf89370e	-1.0719926
2	0xbedfe55c	-0.43729675
3	0xbee7206c	-0.45141923
4	0xbf28685f	-0.6578426
5	0x4063fb7f	3.562225
6	0x406b8612	3.680058
7	0xc0011017	-2.016607
8	0xbf526bb9	-0.8219562
9	0xbe803e54	-0.25047553
10	0xbd853647	-0.06504493
11	0x3cbad8b3	0.022808408
12	0xbe0cfbcd	-0.1376793
13	0xbddb8639	-0.1071896
14	0xbe285a74	-0.16440755
15	0x3e13dafd	0.14439006
16	0x3e13612d	0.14392538
17	0x3caf7434	0.021417715
18	0xbdb56666	-0.088574216
19	0x3dc516ef	0.09623515
20	0xbe86beb3	-0.26317367
21	0xbe88dd22	-0.2673121
22	0xbdf79375	-0.12088672
23	0xbe251752	-0.16122177
24	0xbe549911	-0.20761515
25	0x3e8b6bd0	0.27230692
26	0x3e13a22b	0.14417331
27	0x3ea1de62	0.31614977
28	0x3e4cf079	0.20013608
29	0x3ef2752a	0.47355014
30	0x3c1b9419	0.009495758
31	0x3da23230	0.07919729
32	0x3c9dea9a	0.019276906
33	0xbd6f4a35	-0.05842038
34	0x3e0122cd	0.12610932
35	0x3e0fcf26	0.14043865
36	0x3e4bfaed	0.1991994
37	0xbe128f74	-0.14312536
38	0xbf13b6e4	-0.57700944
39	0xbeefc4bc	-0.46829784
40	0x3e13f1b8	0.14447677
41	0x3e6c167c	0.23055452
42	0xbca6ffc3	-0.020385629
43	0x3e3a96f7	0.18221651
44	0x3ba0adb5	0.00490352
45	0xbe63d71b	-0.22250025
46	0xbe31c291	-0.17359377
47	0x3d6e6334	0.058200076
48	0xbf529c81	-0.82270056
49	0xbf4388a8	-0.76380396
50	0x3d9cd385	0.07657532
51	0x3ddbec56	0.10738437
52	0x3dd3dd42	0.10344936
53	0x3daa9cf8	0.08330721
54	0x3dcbda94	0.099538
55	0xbd32372f	-0.04350966
56	0xbb8ee0d7	-0.004360299
57	0xbe00b4ff	-0.12569045
58	0x3eaa5f69	0.33275917
59	0xbdab99fb	-0.08378979
60	0xbff67617	-1.9254788
61	0xbff60805	-1.9221197
62	0xbe81f5cb	-0.25382838
63	0xc03149da	-2.7701325
64	0xc0631df7	-3.548704
65	0xbfb4663d	-1.4093701
66	0xbf87142c	-1.0553031
67	0x400289bb	2.0396564
68	0xbd15f848	-0.036613733
69	0xbf9355c0	-1.1510544
70	0x3d3f7f9c	0.046752557
71	0x3eab8786	0.33501834
72	0x3e589f55	0.2115453
73	0x3e6453bc	0.22297567
74	0x3e8f3f21	0.2797785
75	0x3e1c2f99	0.15252532
76	0xbca0359e	-0.019556817
77	0xbf179138	-0.5920596
78	0xbf0f9d3c	-0.56099296
79	0xbf6980ce	-0.91212165
80	0x3e82284a	0.25421363
81	0x3ea62c99	0.324559
82	0x3e3521d0	0.1768868
83	0x3e916e9d	0.28404704
84	0x3e79c6d8	0.24392259
85	0xbe2b61cf	-0.1673653
86	0xbe3b6a8b	-0.18302362
87	0xbf24aff2	-0.6433097
88	0xbf018de6	-0.50607145
89	0xbf07cccf	-0.5304689
90	0x3f7a7854	0.97839856
91	0xbe7924b0	-0.24330401
92	0xbf110813	-0.56652945
93	0x3f84464c	1.0333953
94	0x3f53825e	0.826208
95	0x405c8fb4	3.446271
96	0x4013e53d	2.3108666
97	0xbf77b333	-0.9675781
98	0xbf5eb42a	-0.8699366
99	0xbd6efe59	-0.058348034
100	0x3ce743c4	0.028230555
101	0xbd84f475	-0.06491939
102	0xbdd299af	-0.10283219
103	0xbe03be3f	-0.12865542
104	0xbe239f1d	-0.15978666
105	0x3cd7fda7	0.026366068
106	0xbd9c2c19	-0.076255985
107	0x3ec7ce43	0.39024553
108	0x3e5c4a28	0.21512663
109	0x3e20935c	0.15681213
110	0xbdb0cc17	-0.08632677
111	0xbd0206f7	-0.031744923
112	0xbdf58fab	-0.11990293
113	0xbe01834e	-0.12647745
114	0x3d804044	0.06262258
115	0xbe9ec3af	-0.3100867
116	0xbeabb8af	-0.3353934
117	0x3efc8377	0.4931905
118	0xbf349c2b	-0.70550793
119	0xbf111df1	-0.5668631
120	0xbb7ee12b	-0.0038891535
121	0x3cbcb2d2	0.023034487
122	0xbe03136d	-0.12800379
123	0xbd93a031	-0.072082885
124	0xbcae9ec5	-0.021315942
125	0x3e1d304b	0.15350454
126	0x3d75c23c	0.05999969
127	0x3edf4355	0.43606058
128	0x3eb47955	0.3524882
129	0x3d6e5c47	0.05819347
130	0xbe6eb848	-0.23312485
131	0x3cce709e	0.025200184
132	0xbe06121d	-0.13092847
133	0x3d4ebe80	0.050474644
134	0x3d0372dd	0.032091964
135	0xbea45df5	-0.32102934
136	0xbea68aef	-0.32527873
137	0x3c3f8c47	0.01169116
138	0xbf03c0b4	-0.51465917
139	0xbef30ae6	-0.47469252
140	0xbe866454	-0.2624842
141	0xbeb801e0	-0.3593893
142	0xbe8aa092	-0.2707563
143	0xbe62b22d	-0.22138281
144	0xbe20293f	-0.15640734
145	0x3ea1ebaa	0.3162511
146	0x3e9629a3	0.2932864
147	0x3f05e387	0.52300304
148	0x3e8af7ab	0.2714208
149	0x3e3facde	0.18718287
150	0x3fb23fa3	1.392567
151	0x3f2f4aeb	0.6847369
152	0x3f8db3eb	1.1070532
153	0x3faeb05f	1.3647574
154	0x3f7fffb3	0.9999954
155	0x3e8572ca	0.2606414
156	0x3f49b032	0.7878448
157	0xc052ddee	-3.2947955
158	0x3ebf4096	0.37353963
159	0xbcb1d72a	-0.021709044
160	0xbf082a6e	-0.5318974
161	0xbebd6207	-0.3698885
162	0xbf057190	-0.5212641
163	0xbf0b2645	-0.5435527
164	0xbed02dfa	-0.40660077
165	0x3e016e2d	0.12639685
166	0xbe0c350e	-0.13692114
167	0x3f013892	0.50476944
168	0xbf01d584	-0.50716424
169	0xbeba91f1	-0.3643947
170	0x3ea036d2	0.31291825
171	0x3f0316dc	0.51206756
172	0x3f0fbbe7	0.5614609
173	0x3f3cbdc1	0.7372704
174	0x3ed13dbe	0.40867418
175	0xbe40a189	-0.18811621
176	0xbdf473fb	-0.11936184
177	0x3f662e1b	0.899141
178	0xbf80efcd	-1.0073181
179	0xbf423161	-0.75856596
180	0x3ddcbd5e	0.107783064
181	0x3e84e269	0.25953987
182	0x3d7ec658	0.062200874
183	0x3e843c8f	0.25827453
184	0x3d9c8a5b	0.07643577
185	0xbdf9fc23	-0.122062944
186	0xbe0264bf	-0.12733744
187	0x3f02c55a	0.51082385
188	0xbe901edb	-0.2814854
189	0xbf2b7a54	-0.6698353
190	0xbf05c13b	-0.5224797
191	0xbf255b32	-0.6459228
192	0xbf0044ec	-0.50105166
193	0xbeddcbaa	-0.43319446
194	0xbf0a4c50	-0.54022694
195	0x3f53ccc6	0.82734334
196	0x3f2d54c2	0.67707455
197	0x3fbef80e	1.491945
198	0xbf1dc636	-0.6163057
199	0xbe985489	-0.29751995
200	0xbdb1e5ad	-0.08686385
201	0xbdb6e102	-0.089296356
202	0x3c80025e	0.015626129
203	0xbe29b8f3	-0.16574459
204	0xbded2697	-0.11579626
205	0x3ee4da87	0.44697973
206	0x3eb9bd33	0.3627716
207	0xbff0c4dc	-1.8810077
208	0x3f10b5ad	0.56527215
209	0x3cddf1b0	0.027092785
210	0xbe9cc5f9	-0.3061979
211	0xbe892826	-0.26788443
212	0xbe693905	-0.22775657
213	0xbe7654e1	-0.24055816
214	0xbe7f7422	-0.24946645
215	0xbc56093e	-0.013063727
216	0x3e849ae2	0.25899416
217	0x3e949ffa	0.29028302
218	0x3f01d32e	0.5071286
219	0x3f01a138	0.50636625
220	0x3d3afeb5	0.045653064
221	0xbc1569f7	-0.009119502
222	0xbe23a475	-0.15980704
223	0xbdb05b7c	-0.08611199
224	0xbe26be38	-0.162835
225	0xbba77cea	-0.0051113265
226	0xbd8e7149	-0.06955201
227	0x3e6bfc6e	0.23045513
228	0xbd751408	-0.059833556
229	0xbe048c4b	-0.12944143
230	0xbe3e81ef	-0.18604253
231	0xbdfae175	-0.12250034
232	0xbdf97aed	-0.12181649
233	0xbe12b75c	-0.14327759
234	0xbea1a5cf	-0.31571814
235	0xbfc7c3b7	-1.5606602
236	0xc00b62f8	-2.1779156
237	0xbe793d94	-0.24339896
238	0x3f84ef7a	1.0385582
239	0x3f3575c7	0.7088284
240	0x3e875abf	0.2643642
241	0x3edf0d52	0.4356485
242	0x3e0fbd0b	0.14036958
243	0x3ed67dd4	0.41892874
244	0x3eb9dff5	0.36303678
245	0x3ef9ce47	0.4879019
246	0x3efb3ffb	0.4907225
247	0x3fa11010	1.2583027
248	0xbf4d36ad	-0.80161554
249	0xbf7d270a	-0.98887694
250	0xbec6dc32	-0.3883987
251	0xbe35d20e	-0.17755911
252	0xbdf3442c	-0.11878237
253	0xbebca9ec	-0.3684839
254	0xbe9db64e	-0.3080315
255	0xbdf69f30	-0.12042081

lstm.weight_hh_l0 f4 [256, 64]
0	0xc030cdfa	-2.7625718
1	0xbe28b171	-0.16473939
2	0x3ea82c64	0.32846367
3	0xbe111a59	-0.14170207
4	0x3ea06c09	0.31332424
5	0x3fda1fe4	1.7040982
6	0x3f062c20	0.5241108
7	0x3eed20b5	0.46314016
8	0x3e0c689c	0.1371178
9	0xbf42f5ab	-0.7615611
10	0xc07ff350	-3.9992256
11	0x3f22631d	0.63432485
12	0xbf25ded4	-0.64793134
13	0x3dcf0985	0.101092376
14	0x3ca28d7b	0.019842854
15	0x3f1267b3	0.5718948
16	0xbebae8b8	-0.36505675
17	0x3ce9858c	0.028506063
18	0x3ddbf4f0	0.107400775
19	0xbf14d959	-0.58144146
20	0xbf07f110	-0.5310221
21	0xbf50ae57	-0.8151602
22	0x3fe09630	1.7545834
23	0xbef50512	-0.4785543
24	0xbf54310a	-0.8288733
25	0x3e6bbc96	0.23021159
26	0x3e52cd0a	0.20586029
27	0x3eaf84b2	0.34280926
28	0x3cc66a19	0.024220513
29	0x3ef97ef9	0.48729685
30	0xbf209bcf	-0.62737745
31	0x3db23623	0.08701732
32	0xbfdefb38	-1.7420416
33	0x3c89ce0f	0.01682189
34	0x3f8ca997	1.0989255
35	0x3f27a2e9	0.65482956
36	0x3d6014db	0.05470739
37	0x3ebb8bbf	0.36630055
38	0xbe9a7f6e	-0.30175346
39	0x3de745f8	0.11292642
40	0x3d0700b2	0.032959647
41	0xbfa9cf53	-1.3266395
42	0x3eb6f2b7	0.35732052
43	0xbfb25dad	-1.3934838
44	0x3e2e6ab5	0.17032893
45	0xbee2d40f	-0.44302413
46	0xbb16ded8	-0.0023021009
47	0x3f1775d7	0.59164184
48	0x3f981760	1.1882133
49	0x3f18abc1	0.59637076
50	0x3a00a37e	0.0004907175
51	0xbf502a43	-0.81314486
52	0x3e450edc	0.1924395
53	0xbf4300d9	-0.7617317
54	0xbf945f0f	-1.159151
55	0xbf5fcce6	-0.87422025
56	0xbed97a73	-0.42476234
57	0x3edb6667	0.42851564
58	0x3cf213d1	0.029550465
59	0x3e235170	0.15949035
60	0x3eab234f	0.33425376
61	0x3e400d0a	0.18754974
62	0x3cc4898c	0.023991369
63	0xc0932edc	-4.59947
64	0x3ee86428	0.45388913
65	0xbe50564a	-0.20345417
66	0x3e854529	0.26029328
67	0x3d78a2b8	0.060702056
68	0x3d971055	0.07376162
69	0x3e7e4d50	0.2483418
70	0x3e3c0a4d	0.18363304
71	0xbe0b8d94	-0.13628227
72	0x3e13a90c	0.14419955
73	0xbe2ba634	-0.1676262
74	0xbe2a0708	-0.16604245
75	0x3e4aac53	0.19792299
76	0x3e069491	0.13142611
77	0xbe1375f5	-0.14400466
78	0x3c9d3401	0.019189836
79	0xbf128445	-0.5723308
80	0x3dc7380c	0.09727487
81	0x3cd4f8a1	0.025997462
82	0x3e73bdb2	0.23802832
83	0xbee85c9c	-0.45383155
84	0x3f2c57dc	0.6732156
85	0x3d626ba2	0.055278428
86	0x3c99df7b	0.018783322
87	0x3e1efb20	0.15525484
88	0x3ec3402e	0.38134903
89	0xbe458698	-0.19289625
90	0xbea308e1	-0.31842712
91	0xbe085590	-0.1331389
92	0xbdc4b664	-0.09605101
93	0xbe8ff3e3	-0.28115758
94	0xbea42093	-0.32056102
95	0xbe06c874	-0.13162404
96	0xbe544e82	-0.20733073
97	0xbef25838	-0.4733293
98	0x3e4fea64	0.20304257
99	0x3eae705a	0.34070092
100	0x3dc292ad	0.095006324
101	0x3dbfee4b	0.09371623
102	0xbeb50bd4	-0.35360587
103	0x3e92374e	0.2855782
104	0xbe47f862	-0.19528344
105	0xbcd224a6	-0.025652241
106	0x3ea0ca6f	0.31404445
107	0x3c86fdf8	0.016478524
108	0xbe994d44	-0.29941761
109	0x3e0a315e	0.13495395
110	0xbe5f9cff	-0.21837233
111	0xbeaa7bd7	-0.33297607
112	0x3dfe7deb	0.12426361
113	0xbe8b0a49	-0.27156284
114	0x3de7a157	0.1131007
115	0x3df0af8e	0.117522344
116	0x3e33ca09	0.17557539
117	0x3e34e1f3	0.17664318
118	0xbf14dd19	-0.5814987
119	0x3e4aefa0	0.19817972
120	0x3ee40cf0	0.4454112
121	0xbbe82d8d	-0.007085508
122	0x3e1cdee7	0.15319405
123	0xbe8bc10b	-0.27295718
124	0x3e3c4e8f	0.18389343
125	0x3e046829	0.12930359
126	0x3ecca97d	0.3997306
127	0xbe3ba97f	-0.18326376
128	0x3eb8b4f7	0.36075565
129	0xbf09753d	-0.53694516
130	0xbed95239	-0.42445543
131	0x3d236656	0.039892517
132	0xbeb12c4f	-0.34604117
133	0xbed84e0f	-0.42247054
134	0xbee5c287	-0.44874975
135	0x3e9c2d9a	0.3050354
136	0xbee9c7ab	-0.45660147
137	0xbe28e390	-0.16493058
138	0x3ef8348f	0.484776
139	0x3d2b45fc	0.04181479
140	0xbeb18921	-0.34674934
141	0xbdde5351	-0.10855735
142	0x3d8e7c98	0.06957358
143	0xbf37d2d1	-0.71806055
144	0x3f154f77	0.5832438
145	0x3e047f30	0.12939143
146	0xbce03865	-0.027370641
147	0x3d1c39b1	0.038140956
148	0x3f8d4132	1.1035521
149	0x3ea4f68b	0.32219347
150	0xbf1b6fd9	-0.6071754
151	0x3f4627a3	0.7740423
152	0x3cb9a3fd	0.022661204
153	0xbf275a4e	-0.6537217
154	0x3e882aab	0.26595053
155	0xbee3ebe7	-0.44515917
156	0xbe42004e	-0.18945429
157	0xbec298bd	-0.38007155
158	0xbf1fc0ec	-0.6240375
159	0x3eb68458	0.35647845
160	0x3e82ddd8	0.25559878
161	0xbe075d95	-0.13219292
162	0xbec7f68a	-0.39055282
163	0xbd6cf9e2	-0.057855494
164	0xbe2e3b77	-0.17014872
165	0xbe8a3d81	-0.2700005
166	0xbee90724	-0.4551326
167	0x3f08d347	0.53447384
168	0xbcbb1cd4	-0.022840895
169	0xbe471da2	-0.19444898
170	0xbe812ac7	-0.2522795
171	0x3f24450f	0.64167875
172	0x3e07f2d7	0.1327623
173	0xbe74929b	-0.2388405
174	0xbc711f06	-0.014716869
175	0x3c36e5e2	0.011163207
176	0xbf034c4d	-0.512883
177	0x3e6ae0d0	0.22937322
178	0x3d27e7a8	0.04099241
179	0x3eda6afc	0.42659748
180	0x3e771c4b	0.24131887
181	0x3d067707	0.032828357
182	0x3ac04ca2	0.0014671276
183	0x3d421c07	0.04739001
184	0x3e9e163e	0.30876344
185	0xbcb927a4	-0.02260191
186	0xbece8bee	-0.40341133
187	0x3d9f4af9	0.07777972
188	0x3dda78bf	0.10667562
189	0x3c17696b	0.009241442
190	0x3ec6cd79	0.38828638
191	0xbea0ce2f	-0.31407306
192	0x3e0590b9	0.13043489
193	0x3f87dd4e	1.0614412
194	0x3f3220fa	0.6958157
195	0x3e1d347a	0.1535205
196	0x3c8da32a	0.017289717
197	0x3e16305b	0.14666884
198	0x3f01ae95	0.50657016
199	0xbcb52c72	-0.02211592
200	0x3cbbb999	0.022915648
201	0x3e8f1931	0.27948907
202	0xbf9152b9	-1.135337
203	0xbec906ac	-0.39262903
204	0x3ec27a4f	0.3798394
205	0xbd95e28a	-0.073185995
206	0x3e692ccc	0.22770995
207	0x3fa95686	1.322953
208	0xbdce87b1	-0.10084475
209	0x3db99337	0.09061282
210	0xbd2d84e3	-0.04236306
211	0x3e8d365b	0.27580532
212	0xbf8116a0	-1.008503
213	0xbf874cc0	-1.0570297
214	0x3ee57fe1	0.44824126
215	0x3db92b1c	0.090414256
216	0x3c8903fd	0.016725535
217	0x3c90c294	0.017670907
218	0xbeaf825c	-0.34279144
219	0x3ed871f5	0.42274442
220	0xbe53fdbb	-0.20702259
221	0xbe8a9e80	-0.2707405
222	0xbf69a132	-0.9126159
223	0xbe87e4b5	-0.26541677
224	0xbf79b2bd	-0.9753836
225	0xbe4251aa	-0.18976465
226	0x3e0dcdd8	0.13848054
227	0x3f4e116c	0.80495334
228	0x3e37a6f2	0.17934778
229	0x3f38bffb	0.7216794
230	0xbf017a08	-0.5057683
231	0xbec09ce3	-0.37619695
232	0xbe70fee4	-0.23534733
233	0x3f402c47	0.7506756
234	0x3f25b5f0	0.6473074
235	0xbecdde72	-0.40208775
236	0xbeb50fc4	-0.3536359
237	0x3ec79f20	0.3898859
238	0xbe0c3e2b	-0.1369559
239	0x3ed11cf1	0.40842393
240	0x3e1c451e	0.15260741
241	0xbb46a39f	-0.0030309928
242	0x3d02a679	0.031897042
243	0x3b8936bc	0.004187433
244	0xbf20fdad	-0.6288708
245	0x3edd5c2c	0.43234384
246	0x3e96613f	0.29371068
247	0x3e24c3ae	0.16090271
248	0xbf5fd7cf	-0.8743867
249	0xbe613ea2	-0.21996549
250	0x3ea07512	0.31339318
251	0xbe3b4c76	-0.18290886
252	0x3e8131da	0.25233346
253	0xbdc233d3	-0.09482541
254	0x3ea96c68	0.3309052
255	0xbe48c4d5	-0.19606335

lstm.bias_ih_l0 f4 [256]
0	0xbea6f4dc	-0.32608688
1	0x3d74ef35	0.059798438
2	0x3f0051d5	0.50124866
3	0xbf4698f5	-0.77577144
4	0xbf3913c6	-0.72295797
5	0x3db39e6d	0.08770452
6	0xbf3a2a29	-0.7272058
7	0xbf2f6df3	-0.68527144
8	0xbf7cf245	-0.98807174
9	0x3e7cc2aa	0.24683633
10	0x3e4b9566	0.1988121
11	0xbf346c85	-0.7047809
12	0xbd5ad9af	-0.053430256
13	0xbf3dc688	-0.7413106
14	0x3ded6e76	0.115933344
15	0x3f32b5a0	0.6980839
16	0xbef50e0d	-0.47862282
17	0xbf24e016	-0.6440443
18	0xbf0c0aa4	-0.54703736
19	0xbeafc1f8	-0.34327674
20	0x3f18e35e	0.59721935
21	0x3e937563	0.28800496
22	0xbd85b82a	-0.06529267
23	0x3ee3289a	0.44366914
24	0xbf858ebb	-1.0434183
25	0xbf4352da	-0.76298296
26	0xbfcbad7e	-1.5912321
27	0xbfd2527c	-1.6431422
28	0xbf39cd20	-0.7257862
29	0xbf511490	-0.81672
30	0x3fc5a400	1.5440674
31	0x3e0b26bf	0.13588999
32	0xbf5c4d41	-0.8605538
33	0xbf4b6ad5	-0.7945989
34	0x3e695348	0.22785676
35	0x3faf82f4	1.3711839
36	0xbf1826fd	-0.5943449
37	0x3e867920	0.26264286
38	0xbf0ad0f7	-0.54225105
39	0xbf7567ad	-0.9586132
40	0xbf51688b	-0.81800145
41	0xbf951908	-1.1648264
42	0x3cdbb411	0.02681926
43	0x3e9fe8f8	0.3123243
44	0xbf8598c1	-1.0437242
45	0x3e7fdfd3	0.24987726
46	0xbf5043b0	-0.8135328
47	0x3f0a0271	0.53909975
48	0x3ecac2fa	0.3960188
49	0x3ed22c57	0.41049454
50	0xbf54da5d	-0.83145696
51	0x3ef98c57	0.48739883
52	0xbd66ba4a	-0.056330003
53	0xbf5e2c98	-0.86786795
54	0x3f71cb8c	0.9445121
55	0xbef1a4f7	-0.4719617
56	0x3f971273	1.1802505
57	0xbf720bdf	-0.94549364
58	0xbf341e35	-0.7035859
59	0x3e5a8b07	0.21342097
60	0xbf4dca4f	-0.80386823
61	0xbf4306f4	-0.76182485
62	0xbf5cdb6a	-0.862723
63	0xbe78dd19	-0.24303092
64	0xbf7d3583	-0.9890978
65	0x3ec11dcb	0.37718043
66	0x3e5705cb	0.20998304
67	0xbe51ed92	-0.20500782
68	0xbf1c754f	-0.611165
69	0x3ea8ec49	0.3299277
70	0xbf5ceacf	-0.8629579
71	0xbeaa68e8	-0.33283162
72	0xbe77d215	-0.24201234
73	0xbf72329f	-0.9460849
74	0x3f3875cc	0.72054744
75	0xbed3b5d6	-0.41349667
76	0x3e652609	0.2237779
77	0xbf09ae56	-0.5378164
78	0x3e47959e	0.19490668
79	0x3f14cfb2	0.5812942
80	0xbf62fa92	-0.8866359
81	0xbf4203ff	-0.7578735
82	0xbf00d18c	-0.50319743
83	0xbf6874ee	-0.9080342
84	0x3ebf43db	0.37356457
85	0x3eaa0da7	0.3321354
86	0x3ed5fab9	0.4179285
87	0xbfa18ace	-1.2620485
88	0xbf7372e4	-0.95097184
89	0xbf43def8	-0.765121
90	0xbfaa0622	-1.3283122
91	0xbf49adfb	-0.787811
92	0xbf839318	-1.0279264
93	0xbf3b38fc	-0.73133826
94	0xbfb4352f	-1.407873
95	0x3e810fc3	0.25207338
96	0xbe4f98fe	-0.20273206
97	0xbf1776cb	-0.5916564
98	0x3e704c80	0.23466682
99	0xbff2d051	-1.8969823
100	0xbe6954ed	-0.22786303
101	0x3e0e051e	0.1386914
102	0xbf71bed9	-0.94431835
103	0xbf2abf8d	-0.66698533
104	0xbf46c97b	-0.77651185
105	0xbf57dc86	-0.8432087
106	0xbf1d842d	-0.6152981
107	0x3e77ab9f	0.24186562
108	0xbf45d58d	-0.7727898
109	0x3e8ba059	0.27270773
110	0xbf024b38	-0.50896025
111	0x3ef3ea15	0.47639528
112	0x3f1689d9	0.5880409
113	0x3ecbe0ff	0.39820096
114	0xbf15d889	-0.5853353
115	0x3e6c5217	0.2307819
116	0x3ea30ff6	0.31848115
117	0xbf382913	-0.71937674
118	0xbf77f2f5	-0.968551
119	0xbf9b8935	-1.2151247
120	0xbfb4861c	-1.4103427
121	0xbeb80b5b	-0.35946164
122	0xbec307a1	-0.38091758
123	0x3de35cd5	0.11101691
124	0xbf19f3e2	-0.6013776
125	0xbf4f34ee	-0.8094014
126	0xbf1221ce	-0.5708283
127	0xbfa6f225	-1.3042647
128	0x3ece83ea	0.40335017
129	0xbe4cd672	-0.2000368
130	0xbf301969	-0.6878877
131	0x3e0465e5	0.12929495
132	0xbe77c108	-0.2419473
133	0xbe32f3af	-0.1747577
134	0x3f070a6d	0.52750283
135	0xbe766611	-0.24062373
136	0xbeb265a2	-0.34843165
137	0xbe8371fe	-0.25672907
138	0x3ef88b0b	0.4854358
139	0x3ec68e17	0.3878028
140	0xbe85fe8d	-0.2617077
141	0xbee131ae	-0.43983215
142	0xbde59fd6	-0.11212127
143	0xbee3e0cb	-0.4450744
144	0x3eb2dfd9	0.34936407
145	0xbdb36a9b	-0.08760568
146	0x3df3c70f	0.11903202
147	0xbe86e173	-0.2634388
148	0x3ee2e0d5	0.44312158
149	0x3e972028	0.2951672
150	0xbe64740d	-0.22309895
151	0x3f46c590	0.77645206
152	0x3f342592	0.7036983
153	0xbed3c849	-0.41363743
154	0x3f1bddf1	0.6088553
155	0xbe239de0	-0.15978193
156	0xbef95669	-0.48698738
157	0x3d983f6a	0.0743397
158	0x3f6be629	0.9214807
159	0x3ebf6dcf	0.37388465
160	0x3f5e833c	0.86919
161	0xbdf8306d	-0.121186115
162	0xbe994748	-0.29937196
163	0xbf578d4f	-0.84199995
164	0xbe258208	-0.16162884
165	0xbe2b0ec6	-0.16704854
166	0x3f0420a3	0.516123
167	0x3ebace69	0.36485603
168	0xbd7525db	-0.059850555
169	0x3e4a1bb1	0.19737126
170	0xbf0a5654	-0.54037976
171	0x3f116039	0.5678745
172	0x3e24458d	0.16042157
173	0xbe317e36	-0.17333302
174	0xbd52ea2d	-0.05149286
175	0xbe663529	-0.22481216
176	0xbe75b186	-0.23993501
177	0x3e81804a	0.2529319
178	0xbeb24fb5	-0.34826437
179	0x3f069ab1	0.5257979
180	0x3f06ac50	0.5260668
181	0xbed5c4d4	-0.4175173
182	0xbe362840	-0.17788792
183	0x3f413c5a	0.75482714
184	0x3f852da7	1.0404557
185	0x3e7b0e7d	0.24517246
186	0xbe9808ff	-0.29694363
187	0x3e8f696e	0.28010124
188	0x3eda7837	0.42669842
189	0xbeb2b910	-0.34906816
190	0x3ebb10be	0.3653621
191	0xbf62de52	-0.88620484
192	0xbf042358	-0.5161643
193	0x3fb44d85	1.4086157
194	0x3e7fb498	0.24971235
195	0xbf5dbb57	-0.8661398
196	0xbf2ad222	-0.6672689
197	0xbef57fc8	-0.47949052
198	0x3f5b7c8f	0.85736936
199	0xbf3e30fe	-0.74293506
200	0xbf17e38c	-0.59331584
201	0xbf2ba791	-0.6705256
202	0x3eb26607	0.34843466
203	0xbef8746a	-0.48526317
204	0xbf5b3e8b	-0.8564231
205	0xbf68db31	-0.9095946
206	0xbdb9526b	-0.09048923
207	0x3f699930	0.9124937
208	0xbf39cb06	-0.72575414
209	0xbf2e298e	-0.6803216
210	0xbece2aab	-0.40266928
211	0xbf7f2495	-0.99665195
212	0x3f4fd35b	0.8118188
213	0x3f95a8fb	1.1692194
214	0xbf74328b	-0.9538962
215	0xc0124ada	-2.2858186
216	0xbf88457c	-1.0646205
217	0xbf5e90a0	-0.8693943
218	0x3fa7a82c	1.3098197
219	0xbeab27de	-0.33428854
220	0xbef2e228	-0.4743817
221	0xbf1a7a7a	-0.60343134
222	0x3f9665a4	1.1749768
223	0xbf2cc6a2	-0.6749059
224	0x3e89e00a	0.2692874
225	0xbf35f3c0	-0.7107506
226	0xbf88be06	-1.068299
227	0x3f37b476	0.71759737
228	0xbefbf3b9	-0.49209383
229	0x3f9aab14	1.2083459
230	0xbffbdcd7	-1.967677
231	0xbf2b239f	-0.6685123
232	0xbf6d15bf	-0.92611307
233	0xbf999bae	-1.2000635
234	0x3f0495a0	0.5179081
235	0xbfb98c6b	-1.4495977
236	0xbf20d0f0	-0.62818813
237	0x3cef224d	0.02919116
238	0xbf61fecd	-0.8827942
239	0x402f2c66	2.7370849
240	0xbfae8223	-1.3633465
241	0xbe69b31a	-0.22822228
242	0xbf7ba299	-0.9829498
243	0xbed84d9e	-0.42246717
244	0xbfdfaaaf	-1.7473963
245	0xbf57dc9c	-0.84321
246	0x3e629714	0.22127944
247	0xbf780970	-0.968894
248	0x400900d8	2.1406765
249	0xbf76de07	-0.96432537
250	0xbf2c3d05	-0.6728061
251	0xbf9ca044	-1.2236409
252	0xbf4b75f5	-0.79476863
253	0xbf5e6b22	-0.8688222
254	0xbf38dfbf	-0.7221641
255	0xbe1d4e61	-0.1536193

lstm.bias_hh_l0 f4 [256]
0	0xbdd1fa30	-0.102527976
1	0x3e29b706	0.16573724
2	0x3ed3ca40	0.41365242
3	0xbf391121	-0.7229176
4	0xbf38612f	-0.7202329
5	0x3df4b283	0.11948111
6	0xbf13d338	-0.5774417
7	0xbf131bf2	-0.57464516
8	0xbf42c5f2	-0.7608329
9	0x3e04c4b2	0.12965658
10	0x3e3885b5	0.18019755
11	0xbf39bf5a	-0.72557604
12	0x3e17b1e7	0.14813958
13	0xbf4433ad	-0.7664135
14	0x3db11a67	0.08647614
15	0x3f29dede	0.66355693
16	0xbf1e311f	-0.617937
17	0xbf24f312	-0.64433396
18	0xbf1fc0c7	-0.6240353
19	0xbe68fa04	-0.22751623
20	0x3f3888dd	0.72083837
21	0x3ec2cf63	0.38048849
22	0x3d6ec480	0.058292866
23	0x3ee050d8	0.4381168
24	0xbf8fc5e6	-1.1232269
25	0xbf2ed2ca	-0.6829039
26	0xbfc3e3f4	-1.5303941
27	0xbfd1fd70	-1.6405468
28	0xbf337642	-0.7010232
29	0xbf55878d	-0.8340996
30	0x3fb167cd	1.3859802
31	0x3e8e0feb	0.2774652
32	0xbf5f9137	-0.87330955
33	0xbf59e2b4	-0.85111547
34	0x3e2b1c22	0.1670995
35	0x3fb55492	1.4166434
36	0xbf1b139d	-0.605768
37	0x3ea303e3	0.31838903
38	0xbf3bb6b3	-0.7332565
39	0xbf4d5030	-0.8020048
40	0xbf780ec6	-0.9689754
41	0xbf934d88	-1.1508036
42	0xbd3e3ba4	-0.046443596
43	0x3ea6b8cf	0.32562873
44	0xbf7c5d91	-0.9858027
45	0x3ea24cf2	0.3169933
46	0xbf73e86b	-0.95276517
47	0x3f0c4902	0.547989
48	0x3ed4dd59	0.41575125
49	0x3edbed8b	0.42954668
50	0xbf43fc88	-0.7655721
51	0x3ebc06a8	0.36723828
52	0xbc9e6092	-0.019333158
53	0xbf584d38	-0.84492826
54	0x3f4b5400	0.7942505
55	0xbf1935a1	-0.59847456
56	0x3f956819	1.1672393
57	0xbf666ffd	-0.9001463
58	0xbf61a5c0	-0.8814354
59	0x3e9a1cb4	0.30100024
60	0xbf569b03	-0.8383028
61	0xbf6d8a19	-0.92788845
62	0xbf742ebd	-0.95383817
63	0xbe5fe158	-0.21863306
64	0xbf846e10	-1.0346088
65	0x3ed4af31	0.4153991
66	0x3ea9c5ee	0.3315882
67	0xbe32b494	-0.17451698
68	0xbf1e2021	-0.61767775
69	0x3e94b7fa	0.29046613
70	0xbf4d7fe4	-0.8027327
71	0xbebe273b	-0.37139305
72	0xbe5d33f2	-0.21601847
73	0xbf5d8a5e	-0.86539257
74	0x3f36d918	0.7142501
75	0xbe8b25f9	-0.27177408
76	0x3e1590ce	0.1460602
77	0xbf260e5f	-0.6486568
78	0x3dae22d7	0.08502739
79	0x3f188979	0.59584767
80	0xbf7525d5	-0.9576085
81	0xbf57ca86	-0.842934
82	0xbebb666a	-0.36601573
83	0xbf378a71	-0.7169562
84	0x3eadb842	0.3392964
85	0x3ea188ce	0.31549686
86	0x3ed1c684	0.40971768
87	0xbf9a1a3a	-1.2039254
88	0xbf5a3201	-0.8523255
89	0xbf370e09	-0.7150579
90	0xbf9e3fa4	-1.2363172
91	0xbf35570e	-0.7083596
92	0xbf6343d2	-0.8877536
93	0xbf4016b9	-0.7503467
94	0xbfa1a464	-1.2628293
95	0x3ec0d9c1	0.37666133
96	0xbe5db848	-0.21652329
97	0xbf36d1e2	-0.71414006
98	0x3e683264	0.22675472
99	0xbff3191c	-1.8992038
100	0xbea19c90	-0.3156476
101	0x3e7fa2cd	0.24964447
102	0xbf872c40	-1.0560379
103	0xbf3203a8	-0.6953683
104	0xbf6f3ba0	-0.93450356
105	0xbf2e268d	-0.68027574
106	0xbf0fed29	-0.5622125
107	0x3ecd342a	0.4007886
108	0xbf3d0b68	-0.7384553
109	0x3e0279a8	0.1274172
110	0xbeba7955	-0.36420694
111	0x3ea60001	0.32421878
112	0x3ec88bf8	0.39169288
113	0x3eac34c8	0.3363402
114	0xbf1fcb26	-0.62419355
115	0x3eb4c00a	0.35302764
116	0x3e940711	0.2891164
117	0xbf29168a	-0.66050017
118	0xbf828b14	-1.0198693
119	0xbf99b712	-1.2008994
120	0xbfc431fb	-1.5327753
121	0xbec83010	-0.3909917
122	0xbebc93be	-0.36831468
123	0x3d76b7cd	0.06023388
124	0xbf1912d6	-0.59794366
125	0xbf26fb6d	-0.65227395
126	0xbf4cef2f	-0.80052465
127	0xbfaacad0	-1.3343143
128	0x3eecee86	0.4627573
129	0xbe8c5939	-0.2741182
130	0xbf1208a8	-0.5704446
131	0x3e1929f9	0.14957418
132	0xbebcc1a7	-0.36866495
133	0xbea78f77	-0.32726642
134	0x3f177a16	0.59170663
135	0xbd0dad6f	-0.034589227
136	0xbed9b890	-0.42523623
137	0xbea2bb40	-0.31783485
138	0x3eaf0363	0.3418227
139	0x3eac706d	0.33679524
140	0xbe304ffc	-0.17218012
141	0xbec3368f	-0.38127562
142	0xbe6a5371	-0.22883393
143	0xbefacd8c	-0.48984945
144	0x3ecc2907	0.3987505
145	0xbe01d3d4	-0.12678462
146	0x3d951c3b	0.07280775
147	0xbe9d256d	-0.30692616
148	0x3f12a3c7	0.57281154
149	0x3e816873	0.25275
150	0xbda27b35	-0.07933656
151	0x3f352f93	0.7077572
152	0x3f3073f0	0.68926907
153	0xbef6756a	-0.48136455
154	0x3f1d09a6	0.6134285
155	0xbe1625fb	-0.14662926
156	0xbf221657	-0.6331534
157	0x3e92b743	0.28655443
158	0x3f5d09d8	0.86343145
159	0x3f0017f7	0.5003657
160	0x3f4b9974	0.79531026
161	0xbd87f686	-0.066388175
162	0xbe885ea8	-0.26634717
163	0xbf5c3715	-0.8602155
164	0xbea0bcec	-0.31394136
165	0xbea0a3d4	-0.3137499
166	0x3f1434cc	0.5789306
167	0x3e56d578	0.2097987
168	0xbc9671fe	-0.018364903
169	0x3e0a7758	0.13522089
170	0xbefbf4d7	-0.49210235
171	0x3f11a628	0.5689416
172	0x3e5c0dcc	0.21489638
173	0xbe91a9d3	-0.28449878
174	0xbd04121e	-0.03224384
175	0xbe7ce194	-0.24695426
176	0xbebce6fa	-0.3689497
177	0x3e958b99	0.29208067
178	0xbeb6e5f4	-0.35722315
179	0x3f03ebdc	0.5153177
180	0x3eda19dc	0.42597854
181	0xbeb43b75	-0.35201612
182	0xbce0de9b	-0.027449897
183	0x3f3ed810	0.74548435
184	0x3f91b000	1.1381836
185	0x3e453b1e	0.19260833
186	0xbec3fa03	-0.3827668
187	0x3e16b915	0.1471904
188	0x3eee1410	0.4649968
189	0xbeaf7901	-0.34272006
190	0x3e4a645b	0.19764845
191	0xbf44d131	-0.768817
192	0xbec99116	-0.39368504
193	0x3fafd347	1.3736352
194	0x3d717ba8	0.05895582
195	0xbf2e356e	-0.6805028
196	0xbf306ffe	-0.68920887
197	0xbee460e2	-0.44605166
198	0x3f856ac8	1.0423212
199	0xbf447676	-0.7674326
200	0xbf29a6f5	-0.6627038
201	0xbf202de7	-0.6257004
202	0x3ee59ef8	0.44847846
203	0xbf1f0489	-0.62116295
204	0xbf5666f6	-0.83750856
205	0xbf383e57	-0.71970123
206	0xbdec984b	-0.11552485
207	0x3f62de20	0.88620186
208	0xbf22e000	-0.63623047
209	0xbef784a6	-0.4834339
210	0xbf00d905	-0.50331146
211	0xbf6d2c43	-0.92645663
212	0x3f49b5ff	0.7879333
213	0x3fa8ddd2	1.3192694
214	0xbf42c401	-0.7608033
215	0xc017cf6d	-2.3720353
216	0xbf8407a7	-1.0314835
217	0xbf4e232f	-0.80522436
218	0x3f9eafe6	1.239743
219	0xbea37824	-0.31927598
220	0xbec3ad4e	-0.38218158
221	0xbf0342d4	-0.51273847
222	0x3fb45789	1.4089214
223	0xbf189e96	-0.5961698
224	0x3e0e6b6f	0.1390817
225	0xbf68cd63	-0.90938395
226	0xbf828f64	-1.0200009
227	0x3f51735a	0.8181664
228	0xbf2a557e	-0.665367
229	0x3f8a607e	1.0810697
230	0xc001ce26	-2.0282073
231	0xbf2237a7	-0.6336617
232	0xbf60ac63	-0.8776304
233	0xbf9d7b4a	-1.230325
234	0x3f370c02	0.715027
235	0xbfc67a4d	-1.5506073
236	0xbf247c3f	-0.64252084
237	0xbdac0bc2	-0.0840068
238	0xbf4e67c4	-0.80627084
239	0x402925a9	2.6429236
240	0xbfba2995	-1.454394
241	0xbeaf074a	-0.3418525
242	0xbf5e8ffc	-0.8693845
243	0xbef2ea3d	-0.47444335
244	0xbfe26782	-1.7687838
245	0xbf2c191e	-0.67225826
246	0x3df7e986	0.12105088
247	0xbf6b5ef4	-0.9194176
248	0x3fffe645	1.9992148
249	0xbf4eda7b	-0.80802125
250	0xbf530149	-0.82423836
251	0xbfa0a592	-1.2550528
252	0xbf749220	-0.9553547
253	0xbf6cd06a	-0.92505515
254	0xbf3d1d88	-0.73873186
255	0xbe55d29d	-0.20881124

lstm.weight_ih_l1 f4 [256, 64]
0	0xbf2bd53f	-0.6712226
1	0x3f72e1d4	0.94875836
2	0x3f6acf77	0.91722816
3	0x3dcf80b1	0.10131968
4	0xbd897cf7	-0.06713288
5	0x3f07c342	0.53032315
6	0x3f32f0f3	0.6989891
7	0x3bae89d0	0.005326487
8	0x3e40d36f	0.18830656
9	0xbee5028c	-0.44728506
10	0xbf7965bb	-0.97420853
11	0xbe2143ad	-0.15748473
12	0x3e986544	0.2976476
13	0x3cd5ca2c	0.02609738
14	0x3f0f8cc2	0.56074154
15	0x3f94d060	1.1626091
16	0xbe00de1f	-0.12584732
17	0xbe81750c	-0.25284612
18	0xbd2f6d75	-0.042828996
19	0x3eae89c8	0.34089494
20	0xbf7b7f35	-0.9824098
21	0xbf5e86f0	-0.8692465
22	0x3e6af422	0.22944692
23	0xbe9f37b2	-0.3109718
24	0xbe29b64f	-0.16573451
25	0x3e7cf018	0.24700963
26	0xbe32310d	-0.17401524
27	0x3e8b21a0	0.2717409
28	0x3ea8d7a2	0.32977015
29	0x3c9e62a3	0.019334143
30	0xbf0175f9	-0.50570637
31	0xbe600d6c	-0.2188012
32	0xbf03eb42	-0.5153085
33	0x3aae87d4	0.0013315626
34	0x3f249fc5	0.6430629
35	0x3f1a4f48	0.60277224
36	0x3f2f5c13	0.6849987
37	0x3f29a884	0.6627276
38	0xbec5f789	-0.38665417
39	0xbe592efa	-0.21209326
40	0xbd311f43	-0.043242704
41	0x3d1f1653	0.03883965
42	0x3ecc02fd	0.3984603
43	0xbf3b4318	-0.7314925
44	0xbd40573f	-0.046958204
45	0x3f7508c8	0.95716524
46	0x3e22ae9f	0.15886925
47	0x3f06241b	0.5239884
48	0x3f79feb7	0.9765429
49	0xbf59f075	-0.85132533
50	0xbcbab3cc	-0.022790812
51	0xbe2e52c8	-0.17023766
52	0xbdca4979	-0.09877295
53	0x3cd1f8aa	0.025631268
54	0x3ea6b58f	0.32560393
55	0xbc2c5d66	-0.010520315
56	0xbf20a743	-0.6275522
57	0xbd8857a4	-0.06657341
58	0x3bca8520	0.0061804205
59	0xbf4dba55	-0.80362445
60	0xbe23fbbc	-0.16013998
61	0xbd68296f	-0.05668014
62	0xbe3204db	-0.17384665
63	0x3e635849	0.22201647
64	0xbed71929	-0.42011383
65	0x3fca5abc	1.580894
66	0x3f61f969	0.88271195
67	0xbe43f859	-0.19137706
68	0xbcc43ceb	-0.02395483
69	0x3f2b09d6	0.66811883
70	0x3f10ca58	0.5655875
71	0xbd3ab55f	-0.045583125
72	0x3e2cb7ba	0.16866961
73	0xbea5730e	-0.32314342
74	0xbf99d70a	-1.201875
75	0xbc840656	-0.016116302
76	0x3ef8e6f3	0.486137
77	0x3c9f84c2	0.019472484
78	0x3ed47737	0.41497204
79	0x3fcf23b3	1.618277
80	0xbdf5eb1c	-0.12007734
81	0xbe4d8827	-0.20071469
82	0xbd93bc3a	-0.07213636
83	0x3e5ac2dd	0.21363397
84	0xbfb5774f	-1.4177035
85	0xbf539ba9	-0.82659394
86	0x3f33fda4	0.703089
87	0xbefef70e	-0.49797863
88	0xbe65bbcf	-0.22434925
89	0x3e5e01a7	0.21680318
90	0xbed6cbf2	-0.41952473
91	0xbdb65fb6	-0.08904974
92	0x3e437edc	0.19091362
93	0xbdcf47aa	-0.10121091
94	0xbecee852	-0.4041162
95	0xbf11894c	-0.56850123
96	0xbf1fef6f	-0.6247472
97	0x3d628672	0.055304
98	0x3f36b0b8	0.713634
99	0x3ed6f7c4	0.41985905
100	0x3f148277	0.58011574
101	0x3f23c07b	0.63965577
102	0xbe20206b	-0.15637366
103	0xbe9b243c	-0.30301082
104	0xbd0eba70	-0.03484577
105	0x3e95eca4	0.29282105
106	0x3e2406e7	0.16018258
107	0xbf8c3870	-1.0954723
108	0x3e4a7a3b	0.1977319
109	0x3f893167	1.0718201
110	0x3dc1b3db	0.09458133
111	0x3ecf2982	0.40461355
112	0x3f164513	0.5869915
113	0xbf542217	-0.82864517
114	0xbe9910a0	-0.29895496
115	0xbe52e0d7	-0.20593582
116	0xbe5aca14	-0.21366149
117	0x3e4c6c41	0.1996317
118	0x3eb23a6b	0.34810194
119	0xbdbdee7f	-0.09274005
120	0xbef9fad5	-0.48824182
121	0xbe3a7ca2	-0.18211606
122	0xbda7468c	-0.081677526
123	0xbf515826	-0.8177513
124	0xbe785637	-0.24251638
125	0x3bd326ed	0.0064438493
126	0xbc6a357e	-0.01429498
127	0x3e10263b	0.14077084
128	0xbf381f20	-0.71922493
129	0x3f918d6b	1.1371282
130	0x3ec31bb6	0.3810708
131	0xbd9e882f	-0.07740819
132	0xbd4a501b	-0.0493928
133	0x3f1812cf	0.594037
134	0x3eb4ea07	0.353348
135	0xbe088a25	-0.13333948
136	0x3e0439e9	0.12912716
137	0xbc741990	-0.014898673
138	0xbf9787cc	-1.1838317
139	0xbe8bdf0e	-0.27318615
140	0x3e1745c1	0.14772703
141	0x3e6c3dfe	0.23070523
142	0x3e032d98	0.12810361
143	0x3f5dca33	0.86636657
144	0x3cd9a4d9	0.026567863
145	0xbdf014ca	-0.11722715
146	0xbeaf386a	-0.34222728
147	0xbd0f0b11	-0.034922663
148	0xbf4940e0	-0.78614616
149	0xbf3fe12b	-0.74952954
150	0x3f04bed5	0.51853687
151	0xbe869823	-0.26287946
152	0xbd0a476f	-0.03375953
153	0xba89d84b	-0.0010516731
154	0xbe00ef78	-0.1259135
155	0x3f102cb0	0.5631819
156	0x3ea2373f	0.31682774
157	0xbe44f77a	-0.1923503
158	0xbeb7b4a4	-0.35880005
159	0xbe948709	-0.29009274
160	0xbec0435e	-0.37551397
161	0x3c37f5ad	0.011228007
162	0x3eab0e40	0.3340931
163	0x3f2ea9b4	0.68227696
164	0x3eef45b6	0.46732873
165	0x3f4c82a0	0.7988682
166	0xbdf5fb81	-0.12010861
167	0xbcc5f32a	-0.024163801
168	0xbd197f9d	-0.037475217
169	0x3ce4b96c	0.027920447
170	0x3da4fddf	0.080562346
171	0xbf4cb4c7	-0.79963344
172	0x3d2074e0	0.03917396
173	0x3f025620	0.50912666
174	0xbdb2e5b2	-0.08735217
175	0x3e63c31e	0.222424
176	0x3e6a48e4	0.22879368
177	0xbeda8d46	-0.42685908
178	0xbde659d8	-0.11247605
179	0x3d2f7948	0.042840272
180	0xbe2d2004	-0.16906744
181	0x3ddb0ffb	0.106964074
182	0x3e3b1c40	0.18272495
183	0xbdcc5816	-0.099777386
184	0xbee74ea2	-0.4517718
185	0xbe3314cf	-0.17488407
186	0x3d6cb294	0.057787493
187	0xbf00e9f4	-0.50356984
188	0x3d4c6a3d	0.049906004
189	0xbc0ed52e	-0.008717818
190	0x3e9221a0	0.2854128
191	0xbdf17db8	-0.11791557
192	0x3f17fb10	0.59367466
193	0xbfa3f8f4	-1.281035
194	0xbf42fa38	-0.76163054
195	0xbd499e68	-0.049223334
196	0xbdffe971	-0.12495697
197	0x3edcce8f	0.43126342
198	0xbfd9874b	-1.6994413
199	0x3e487f9e	0.19579932
200	0xbebea364	-0.37234032
201	0xbdb65583	-0.08903029
202	0x3f53f1cd	0.82790834
203	0x3dcf3951	0.10118354
204	0x3e06d52a	0.13167253
205	0xbe8bde11	-0.2731786
206	0x3e653e8c	0.22387141
207	0xbf598ff4	-0.8498528
208	0x3efa8702	0.48931128
209	0x3f0a89e8	0.5411668
210	0xbde7c7b4	-0.11317387
211	0xbe1ba690	-0.15200257
212	0x3f7c5dee	0.98580825
213	0x3f22b2bb	0.6355397
214	0x3fda42df	1.7051657
215	0x3f307d7f	0.6894149
216	0x3ea40c20	0.320405
217	0xbf2e647c	-0.68122077
218	0xbe835a90	-0.2565503
219	0xbf16aea5	-0.58860236
220	0xbe044d77	-0.12920175
221	0xbef723fa	-0.48269635
222	0xbe5fcb05	-0.2185479
223	0xbe8e5101	-0.27796176
224	0x3f555201	0.83328253
225	0xbebc1956	-0.3673808
226	0xbe33b32a	-0.17548814
227	0xbe5d2d8a	-0.21599403
228	0xbe4de117	-0.20105396
229	0xbf482e59	-0.7819572
230	0x3dae95e6	0.085246846
231	0xbe8f3655	-0.2797114
232	0xbc4a0811	-0.012331025
233	0xbe144b6f	-0.144819
234	0x3d276bae	0.040874176
235	0x3f8da5ef	1.1066264
236	0xbe2f87f4	-0.17141706
237	0xbf7fe507	-0.99958843
238	0x3df65619	0.120281406
239	0x3fd2b909	1.6462718
240	0xbf00a62e	-0.5025357
241	0x3f641494	0.890939
242	0x3cb2a5a2	0.021807496
243	0xbd303f56	-0.04302915
244	0xbdbcb475	-0.09214107
245	0x389ccad9	7.476443e-05
246	0xbfc2aa5d	-1.5208241
247	0x3dea2802	0.11433412
248	0x3f1b73b4	0.60723424
249	0x3db22a0a	0.086994246
250	0xbd2e92f3	-0.04262061
251	0x3f0de488	0.55426836
252	0x3a85c4b4	0.0010205717
253	0xbd990e80	-0.07473469
254	0x3eba5a7b	0.36397156
255	0xbdc1f583	-0.09470656

lstm.weight_hh_l1 f4 [256, 64]
0	0xbe61827a	-0.22022429
1	0x3c1157e0	0.008871049
2	0xbe830dbe	-0.25596422
3	0x3f4afd54	0.792928
4	0xbeb30853	-0.34967288
5	0xbe64f6ed	-0.2235982
6	0x3d6a49fd	0.057199467
7	0xbdd57a09	-0.10423667
8	0xbcc78012	-0.02435306
9	0xbf0151b0	-0.5051527
10	0x3eccf995	0.40034166
11	0xbb864053	-0.0040970235
12	0xbdf343c3	-0.11878159
13	0x3d6fd81a	0.0585557
14	0x3e8d2127	0.27564356
15	0x3e563d96	0.2092193
16	0xbe9d569c	-0.3073014
17	0xbea20e50	-0.31651545
18	0xbd9c7012	-0.07638563
19	0xbd01c71b	-0.031684022
20	0xbefaded7	-0.48998138
21	0x3e7a5cd8	0.2444948
22	0xbe3fe28f	-0.18738769
23	0xbe54c2a4	-0.20777375
24	0x3de0fb3a	0.10985418
25	0x3df8d4a6	0.121499345
26	0x3d9ceee8	0.07662755
27	0x3dced304	0.10098842
28	0xbea62c28	-0.32455564
29	0x3d216418	0.039402097
30	0x3e11554a	0.14192691
31	0x3d6143b8	0.054996222
32	0xbdde073f	-0.10841226
33	0x3e6bee80	0.230402
34	0xbc85d30e	-0.01633599
35	0x3e85fe8d	0.2617077
36	0xbd0894a6	-0.033344887
37	0xbc8ff0cc	-0.017570876
38	0x3d47b4dc	0.048756465
39	0x3e86f309	0.26357296
40	0x3c7faf40	0.015605748
41	0x3c2b9999	0.010473632
42	0x3dcfafd4	0.101409584
43	0x3d154e2a	0.036451496
44	0x3e38fb21	0.18064548
45	0x3dac98c8	0.08427578
46	0xbf004914	-0.5011151
47	0xbe5d4ba7	-0.2161089
48	0xbe6d6bd2	-0.23185661
49	0xbdf234b6	-0.1182646
50	0x3ea7a834	0.32745516
51	0x3a990722	0.0011675099
52	0xbd9c0549	-0.076181956
53	0xbdff4181	-0.12463666
54	0x3e4ea2c7	0.20179282
55	0xbef520d4	-0.47876608
56	0x3e03a0b0	0.12854266
57	0x3ea24144	0.3169042
58	0xbe979a74	-0.29610026
59	0x3ec8c39b	0.39211735
60	0x3e230fd1	0.15924002
61	0x3b7f0cf3	0.003891763
62	0x3e14c03c	0.14526457
63	0xbd80df4a	-0.06292589
64	0x3cdc1403	0.026865011
65	0xbf0632fb	-0.5242154
66	0xbd2c76c7	-0.042105462
67	0x3f52eb9b	0.82390755
68	0xbe1c5eba	-0.1527051
69	0xbd537250	-0.05162269
70	0x3d0a29d7	0.033731308
71	0xbe03fae4	-0.12888676
72	0x3d9d5fcf	0.0768429
73	0xbeeef589	-0.46671703
74	0x3ecb54ec	0.39713228
75	0x3ea5e2fd	0.3239974
76	0xbe10b44c	-0.14131278
77	0x3ca4fb04	0.020139225
78	0xbd9efdcc	-0.07763252
79	0x3ea7574c	0.3268379
80	0xbe04cd9d	-0.1296906
81	0xbe728384	-0.23682982
82	0xbd6e8a4f	-0.05823737
83	0xbd39bd78	-0.045346707
84	0xbe0ad4f4	-0.13557798
85	0x3f064dad	0.52462274
86	0xbe226267	-0.1585785
87	0x3c084f30	0.008319661
88	0x3cdafabf	0.026730893
89	0xbe0f2ae9	-0.13981213
90	0x3e01f03d	0.126893
91	0x3d9865bf	0.074412815
92	0xbeaf9335	-0.34291998
93	0x3e9aec58	0.3025844
94	0x3e66890a	0.22513214
95	0xbe1c198c	-0.1524412
96	0x3e359117	0.17731129
97	0x3d8cea0e	0.0688058
98	0x3d80422b	0.062626205
99	0x3e6d023a	0.2314538
100	0xbe66804b	-0.22509877
101	0x3d99a6ae	0.07502495
102	0xbdaa86ef	-0.08326518
103	0x3ee238c5	0.44183937
104	0xbdf2e336	-0.11859743
105	0x3e525076	0.20538506
106	0xbd520869	-0.05127755
107	0xbd8b050e	-0.067880735
108	0x3e1cc4f9	0.15309514
109	0x3ca70a87	0.020390762
110	0xbec22806	-0.3792116
111	0xbcb3d5ce	-0.021952536
112	0xbe0cd565	-0.13753279
113	0xbda2e058	-0.079529464
114	0x3d51a1ba	0.051179625
115	0xbe028d58	-0.12749231
116	0xbd1e3440	-0.03862405
117	0xbe3b002a	-0.18261781
118	0x3eb2d9a4	0.34931672
119	0xbeab6c23	-0.3348094
120	0x3e475e9f	0.19469689
121	0x3e9bc2cb	0.30422053
122	0xbf4ba0be	-0.7954215
123	0xbce3d92c	-0.027813517
124	0x3e6610c1	0.22467329
125	0xbd2bc946	-0.041939996
126	0x3e5850ff	0.21124648
127	0xbd4ce2b6	-0.050020896
128	0xbdee20b7	-0.116273336
129	0xbd7ccbae	-0.06171768
130	0xbd988e29	-0.0744899
131	0x3f63d2a1	0.8899327
132	0xbe8339ae	-0.25629944
133	0xbea81886	-0.3283121
134	0x3dfab744	0.122419864
135	0xbdd4e945	-0.10396055
136	0x3e3bf631	0.18355633
137	0xbed55cd3	-0.41672382
138	0x3eb9608e	0.36206478
139	0xbdb369ed	-0.08760438
140	0xbf116c9b	-0.56806344
141	0x3de2c77f	0.11073207
142	0x3e78b647	0.24288283
143	0x3eaf8c16	0.34286565
144	0xbee3cc70	-0.4449191
145	0xbec132d1	-0.37734082
146	0x3ca351a8	0.019936398
147	0xbdea0616	-0.11426942
148	0xbeb4fa07	-0.35347006
149	0x3eff9403	0.4991761
150	0xbd8fc233	-0.070194624
151	0xbdb1e2b7	-0.086858205
152	0xbd11b5ef	-0.035573896
153	0xbd5a9352	-0.05336315
154	0x3dafe46a	0.085884884
155	0x3dd85491	0.10563005
156	0xbedb5127	-0.42835352
157	0xbc8f84d5	-0.017519394
158	0x3ec2bf9f	0.3803682
159	0xbe02c6f5	-0.12771209
160	0xbe25aff1	-0.16180398
161	0x3e46cfee	0.19415256
162	0x3d1f814e	0.038941674
163	0x3f030bf1	0.51190096
164	0xbd3165f2	-0.043310113
165	0xbe1ab1ee	-0.15106937
166	0x3dcc3886	0.099717185
167	0x3e99bba3	0.30025968
168	0xbccf2374	-0.02528546
169	0x3db7ed90	0.08980858
170	0xbe538ccc	-0.20659178
171	0xbcd0414c	-0.025421761
172	0x3d62e529	0.055394325
173	0xbd8a3577	-0.06748479
174	0xbf044361	-0.5166531
175	0x3e6ff185	0.23431976
176	0xbe81fd2a	-0.2538846
177	0x3d132551	0.03592426
178	0xbd87ddd8	-0.0663411
179	0x3dc705d3	0.09717908
180	0x3e3d16b3	0.1846569
181	0xbee226ce	-0.4417023
182	0x3db7b074	0.08969203
183	0xbebd5f06	-0.3698656
184	0x3dd9650d	0.10614977
185	0x3ef3ae51	0.4759393
186	0xbf09bee1	-0.53806883
187	0x3da6e47d	0.081490494
188	0x3cdf8274	0.027283885
189	0xbe440847	-0.19143783
190	0x3ed222e5	0.41042247
191	0xbf01b621	-0.5066853
192	0xbe2a92c5	-0.1665755
193	0xbe3ec04c	-0.18628043
194	0xbe86bbfa	-0.2631529
195	0x3dd857a4	0.10563591
196	0xbf354213	-0.70803946
197	0x3e3ac6b3	0.1823986
198	0x3f21037e	0.62895954
199	0x3e549181	0.2075863
200	0x3e25bf78	0.16186321
201	0x3f3ddcc9	0.74165016
202	0xbde38296	-0.11108892
203	0x3eca45c8	0.39506364
204	0x3e82ca84	0.25545132
205	0x3f012867	0.50452274
206	0x3c738e2c	0.014865439
207	0x3bf77465	0.007551717
208	0xbe58e70f	-0.21181892
209	0x3f0cf3cf	0.5505952
210	0xbdd03bd3	-0.101676606
211	0x3c7caaea	0.015421608
212	0xbedf6a51	-0.436358
213	0xbe90b3d8	-0.2826221
214	0xbe0325f6	-0.1280745
215	0xbe871307	-0.26381704
216	0xbdb49231	-0.08816946
217	0xbc4cbb00	-0.012495756
218	0x3e7a9642	0.24471381
219	0xbde7be99	-0.113156505
220	0xbe5bf344	-0.21479517
221	0xbd8af9bd	-0.06785915
222	0x3cd76d17	0.026297135
223	0xbe6e490c	-0.23270053
224	0xbe4b7341	-0.19868185
225	0x3e937d73	0.28806648
226	0xbee30bc1	-0.44344905
227	0xbe9d52c0	-0.30727196
228	0xbe2a6073	-0.16638355
229	0xbe0f55ff	-0.13997649
230	0xbdf8347e	-0.12119387
231	0x3f4ff7c1	0.8123742
232	0x3e6f4185	0.23364837
233	0xbe28356c	-0.16426629
234	0x3dfa941c	0.12235281
235	0x3e40ad3b	0.18816082
236	0x3d95b31a	0.073095515
237	0x3e4c7a01	0.19968416
238	0x3f0cd056	0.55005395
239	0x3ebc08a0	0.3672533
240	0xbee6b8f8	-0.45062995
241	0xbdc2568b	-0.09489163
242	0x3df3c71f	0.11903214
243	0xbea2bf90	-0.31786776
244	0x3e8a5541	0.2701817
245	0xbefa86b0	-0.48930883
246	0x3ec70804	0.38873303
247	0xbefe9d82	-0.49729544
248	0x3f731be2	0.9496442
249	0x3dcda098	0.100403965
250	0xbf009e84	-0.50241876
251	0xbe1da5dd	-0.15395303
252	0x3ed929a7	0.4241459
253	0xbe598c63	-0.2124496
254	0x3ee316cc	0.4435333
255	0x3e824f19	0.25450972

lstm.bias_ih_l1 f4 [256]
0	0xbf3806d9	-0.7188545
1	0xbf51057b	-0.8164899
2	0xbf67ac3f	-0.904972
3	0x3f14756f	0.5799169
4	0xbf868f62	-1.0512507
5	0xbf20e33c	-0.6284673
6	0xbf68f11c	-0.90992904
7	0xbe1a00b9	-0.15039338
8	0xbf285a78	-0.65763044
9	0xbee58b08	-0.44832635
10	0xbfa82f1f	-1.313938
11	0xbf3bb1a9	-0.7331796
12	0xbf8814d2	-1.0631354
13	0xbf4fa637	-0.81113
14	0xbf1d6792	-0.6148616
15	0xbf6e1297	-0.92997116
16	0xbf8213ef	-1.0162333
17	0xbf42e418	-0.76129293
18	0xbf1a2d90	-0.6022577
19	0xbf28c011	-0.6591807
20	0xbf44a8b4	-0.7681992
21	0x3ddc20f4	0.10748473
22	0xbf8ed857	-1.1159772
23	0xbf4ba748	-0.79552126
24	0xbf0f33ca	-0.559384
25	0xbf49db9a	-0.7885071
26	0xbf68ccca	-0.90937483
27	0xbe7bc1e3	-0.2458568
28	0xbf2b8f24	-0.6701529
29	0x3eff5657	0.4987056
30	0xbf94a34e	-1.1612337
31	0x3f11ca0e	0.56948936
32	0xbf42543d	-0.7590979
33	0xbf2ff9d2	-0.6874057
34	0xbf5b91e2	-0.85769475
35	0x3edb5903	0.42841348
36	0xbf54f2b8	-0.8318286
37	0xbf1354ee	-0.5755147
38	0xbf538839	-0.82629734
39	0x3f3e7a05	0.7440494
40	0xbf17eed6	-0.5934881
41	0xbdb0bde2	-0.08629967
42	0xbf37aa1a	-0.7174393
43	0xbf0df4d8	-0.55451727
44	0xbebb5b89	-0.36593273
45	0xbf5cc4c0	-0.86237717
46	0x3e1d4268	0.15357363
47	0xbf46f9d2	-0.77724946
48	0xbf4e7db1	-0.8066054
49	0xbf47eac8	-0.7809262
50	0xbf401a73	-0.7504036
51	0xbf8f33f8	-1.1187735
52	0xbf781cdf	-0.96919054
53	0xbf840170	-1.0312939
54	0x3ed0b083	0.40759668
55	0xbfa7fd8d	-1.3124253
56	0x3e49f983	0.19724087
57	0xbf61ff97	-0.88280624
58	0x3ebac109	0.364754
59	0xbf139be3	-0.5765974
60	0xbf6d83be	-0.9277915
61	0xbf436268	-0.7632203
62	0xbf4197da	-0.7562233
63	0xbf31ed65	-0.6950286
64	0xbee3d536	-0.44498605
65	0xbf24e6d0	-0.6441469
66	0xbf086bb7	-0.5328936
67	0x3f5b9d30	0.85786724
68	0xbee46980	-0.4461174
69	0xbe209340	-0.15681171
70	0xbed1e23f	-0.40992925
71	0xbf42725a	-0.75955737
72	0xbe806864	-0.25079644
73	0xbf3359f1	-0.70059115
74	0xbf78ecc4	-0.97236276
75	0xbed226ce	-0.4104523
76	0xbf32f271	-0.69901186
77	0xbe865824	-0.2623912
78	0xbecabc6f	-0.39596888
79	0xbf31e29f	-0.6948642
80	0xbf59590c	-0.849015
81	0xbf11942f	-0.56866735
82	0xbebbdf3d	-0.36693755
83	0xbf1f6e18	-0.62277365
84	0xbf06cebf	-0.5265922
85	0x3e0bcd02	0.13652423
86	0xbf7d3caf	-0.9892072
87	0xbf24dcd4	-0.64399457
88	0xbee1b647	-0.4408438
89	0xbeed5093	-0.46350536
90	0xbf29d6dc	-0.66343474
91	0xbfa3e9f2	-1.280577
92	0xbeef9d04	-0.4679948
93	0xbf29afdb	-0.6628396
94	0xbeee7da1	-0.46580222
95	0x3ef6fd15	0.4823996
96	0xbeaf4f5d	-0.34240237
97	0xbf006ae4	-0.501631
98	0xbe9f0553	-0.3105875
99	0x3efd5041	0.4947529
100	0xbf189d3d	-0.59614927
101	0xbee947af	-0.45562503
102	0xbf44ac03	-0.7682497
103	0xbfa6c0b6	-1.3027561
104	0xbf2624ca	-0.64899886
105	0xbef248df	-0.4732122
106	0xbe89a66f	-0.2688479
107	0xbee63f86	-0.4497034
108	0xbf9281e9	-1.1445895
109	0xbf1d9441	-0.6155434
110	0x3e33aebd	0.17547126
111	0xbf0fd94a	-0.5619093
112	0xbedd3354	-0.43203223
113	0xbf033eaf	-0.5126752
114	0xbef78ba4	-0.48348725
115	0xbebc5fd6	-0.36791867
116	0xbecd1c3e	-0.4006061
117	0xbf20d25e	-0.62820995
118	0x3f0d7d2f	0.5526914
119	0xbf869876	-1.0515277
120	0xbf927ce2	-1.1444361
121	0xbed5fc30	-0.41793966
122	0x3f06fb27	0.5272698
123	0xbf411fb2	-0.7543899
124	0xbf03df0f	-0.51512235
125	0xbf0c5abc	-0.5482595
126	0xbf00461c	-0.5010698
127	0xbf82887e	-1.0197904
128	0xbd17b877	-0.037041154
129	0xbde4d09c	-0.111726016
130	0x3de48dca	0.111598566
131	0xbe955614	-0.29167235
132	0xbe427b2b	-0.18992297
133	0x3e5f5f5f	0.21813725
134	0xbdfad90f	-0.12248432
135	0xbef93736	-0.48674935
136	0x3dc06dcd	0.09395943
137	0x3ee9b13b	0.4564303
138	0x3e14fa0b	0.14548509
139	0x3e350497	0.17677532
140	0xbd406894	-0.046974733
141	0xbdc23dc8	-0.0948444
142	0x3bfaabdb	0.0076498813
143	0x3e2ce2be	0.1688337
144	0xbebf30a4	-0.37341797
145	0xbe83b968	-0.2572739
146	0x3d027be2	0.031856425
147	0x3ea6e126	0.3259365
148	0x3e1de1e9	0.15418209
149	0xbd6fff89	-0.058593307
150	0xbf03af3d	-0.5143927
151	0xbe8f6d85	-0.28013244
152	0xbe06cc98	-0.13163984
153	0xbd2e6dc3	-0.042585146
154	0xbeb82972	-0.3596912
155	0x3e5ff918	0.21872365
156	0x3e71bdb1	0.23607518
157	0xbe62910c	-0.22125643
158	0xbe6bc396	-0.23023829
159	0x3e84f605	0.25968948
160	0x3e0f4b51	0.13993575
161	0xbe5e11e6	-0.21686515
162	0xbc35c5a7	-0.011094487
163	0xbe34035f	-0.17579411
164	0xbcca5bfc	-0.024702065
165	0xbe7df972	-0.24802187
166	0xbef2de78	-0.47435355
167	0xbf36ba4f	-0.71378034
168	0xbe961bb8	-0.29318023
169	0x3ead6b72	0.33871037
170	0x3e05fafc	0.13084024
171	0x3e6c18ca	0.23056331
172	0xbc5f9aab	-0.013647716
173	0x3e1ccc4b	0.15312307
174	0x3e4943a5	0.1965471
175	0xbe431ece	-0.1905472
176	0x3e3ba9a8	0.18326437
177	0xbdfbd783	-0.12296965
178	0x3ce1294b	0.02748551
179	0x3d747d64	0.059689894
180	0x3dc8f0a7	0.09811526
181	0x3e21f024	0.15814263
182	0xbe8e1043	-0.27746782
183	0x3e8e4438	0.27786422
184	0x3f2d700f	0.6774911
185	0x3e946cc3	0.2898923
186	0x3e1d1ccb	0.15343015
187	0xbe772920	-0.24136782
188	0x3daccd8f	0.08437645
189	0x3d8a77ae	0.06761108
190	0xbd43fc0d	-0.047847796
191	0x3eb5641e	0.35427946
192	0xbf2a210a	-0.66456664
193	0xbf246c1a	-0.6422745
194	0xbf43fc94	-0.7655728
195	0x3fd17310	1.6363239
196	0xbf829f7b	-1.020492
197	0xbf9d2026	-1.2275436
198	0xbf397002	-0.72436535
199	0xbe022720	-0.12710238
200	0xbf265a56	-0.6498159
201	0xbf450795	-0.76964694
202	0xbeda6c4f	-0.42660758
203	0xbf184cb6	-0.5949205
204	0xbf9b9e1f	-1.215763
205	0xbf521851	-0.82068354
206	0xbf2a9f40	-0.66649246
207	0xbf9f0561	-1.2423517
208	0xbf5dccd7	-0.86640686
209	0xbf28192f	-0.6566343
210	0xbf23f106	-0.6403965
211	0xbf18a8e2	-0.59632695
212	0xbf7c9718	-0.9866805
213	0xbfc5eab7	-1.5462254
214	0xbee88487	-0.4541361
215	0xbf34a325	-0.7056144
216	0xbf13afc6	-0.57690084
217	0xbf4c7217	-0.7986159
218	0xbf81175e	-1.0085256
219	0x3de2cadc	0.110738486
220	0xbf83296a	-1.0247014
221	0xbf918320	-1.1368141
222	0xbf712ad4	-0.94205976
223	0xbf344beb	-0.7042834
224	0xbf4bfa93	-0.7967922
225	0xbf20aad0	-0.6276064
226	0xbf528f74	-0.8225014
227	0xbfca264e	-1.579294
228	0xbf3261a7	-0.69680256
229	0xbf217c18	-0.6307998
230	0xbf5989ad	-0.849757
231	0x3f96c348	1.1778345
232	0xbf2f4fe5	-0.68481284
233	0xbf85ac13	-1.0443138
234	0xbf21bc09	-0.63177544
235	0xbf3cdf1f	-0.73777956
236	0xbfc08f33	-1.5043701
237	0xbf30caca	-0.6905943
238	0xbfe45e8e	-1.7841356
239	0xbf8d0fdc	-1.1020465
240	0xbf614488	-0.87995195
241	0xbf618518	-0.8809371
242	0xbf534ac7	-0.82535976
243	0xbf810eb8	-1.0082617
244	0xbf4f16fa	-0.80894434
245	0xbf8b2946	-1.0871971
246	0x3e5722d3	0.21009378
247	0xbf9e2386	-1.2354591
248	0xbf773aee	-0.96574295
249	0xbf7435e0	-0.95394707
250	0x3ec9241d	0.39285365
251	0xbf066616	-0.5249952
252	0xbf88a2f5	-1.067473
253	0xbf59c240	-0.85062027
254	0xbf4eb765	-0.8074859
255	0x3ecf28a8	0.40460706
