Formal Experiments/CSI300/DoubleDQN-QT-LSTM-BaseLine/ModelParam/2024-03-11/64network-lstmNoguiadance.pth (torch, 231534 bytes, 12 tensors)

lstm.weight_ih_l0 f4 [256, 10]
0.06977036 -0.012833376 0.057641335 0.17259482 0.025546918 0.018765789 0.1354756 -0.12601048
-0.18584299 -0.08217327 -0.02898327 0.07988725 0.05727902 -0.10195654 0.12212718 0.057534
-0.1052938 0.6143847 -0.23974128 -0.26686734 0.0057262178 0.11314662 0.12696017 0.0068918564
0.07670928 -0.48879227 -0.40708145 0.073841155 0.0037821957 -0.06957145 -0.06756327 0.012470855
-0.081742406 -0.09988726 -0.056596376 0.5015719 0.44214955 0.2045201 -0.09525912 0.2739992
-0.07502441 0.022091083 0.03375705 0.036629163 -0.111036584 0.30231065 -0.11091311 -0.13013485
0.044647153 -0.09990793 -0.13598737 -0.160962 0.08851349 -0.15586302 -0.16242482 0.08545222
0.103003554 -0.00064506306 -0.47792885 -0.014682165 0.029276537 -0.010240733 0.06878281 -0.08656794
-0.090789214 0.4583404 -0.17198423 -0.16623592 -0.65635234 -0.22864722 0.000105940664 0.10520553
0.050676133 -0.06460273 -0.010544573 -0.11129881 -0.08015432 0.1845081 -0.2705529 0.017915314
0.07581297 0.117898315 0.14045368 0.025002938 0.06314946 0.71070576 0.9223753 0.04807744
0.64768505 0.23409392 -0.12681893 0.02794504 0.08500613 0.02855905 -0.010042476 0.30617002
0.15254536 -0.007648202 0.10024451 0.13741165 -0.04428965 -0.13646747 -0.0052673 -0.07743429
0.005900363 -0.90027434 -0.6486313 0.039171547 0.52020323 0.3828811 -0.17635658 0.07772447
0.023645839 -0.09989939 -0.1262818 0.28058165 0.16550009 -0.20152499 -0.23089384 -0.13705821
-0.088884525 0.11435841 -0.0632392 0.13382336 0.08899366 0.08915939 0.0760086 0.10738324
-0.5876105 -0.21988599 -0.06528606 0.014112434 -0.083225764 -0.041112423 -0.1447655 -0.068383135
0.2406297 0.05210143 -0.061967626 -0.16576248 -0.43250608 0.06353175 -0.08109446 -0.23084311
-0.23331764 0.24904923 -0.52070665 -0.4282475 -0.33544424 -0.22140732 0.05864363 -0.026917187
0.07444007 0.046818685 -0.07684589 0.42456445 0.35928583 -0.04085825 -0.35241747 -0.096749075
0.04314638 0.20677128 0.053660292 0.18276638 0.18797241 0.22909328 0.45178574 -0.04682126
0.78450716 0.21091107 -0.015601579 -0.21212164 -0.1332463 -0.07384381 -0.1830629 -0.32491654
-0.5463506 0.7787468 -0.0070252554 0.08358854 -0.081458405 0.0037292829 -0.14547446 0.09991316
0.05993965 -0.46260986 -0.64353794 0.004656838 -0.30307323 -0.014220484 -0.053802833 0.2311062
-0.00039212138 0.1759491 0.05741008 -0.39477476 -0.67819977 -0.51019937 -0.26670885 -0.1285854
0.06281392 -0.045451943 0.006722409 -0.016883181 -0.12086628 0.1706941 0.32347047 0.07388617
-0.3811625 -0.33330232 -0.07403712 0.20257318 0.026221644 0.011326013 0.07567718 0.5584155
0.58779705 -0.14117905 -0.29154626 -0.5938479 -0.23963004 0.34823808 -0.15056603 0.24698974
0.06512037 -0.27882057 -0.5488989 -0.6782021 -0.25681832 -0.32711145 0.05999073 0.06606514
0.048311558 -0.10304089 -0.09552279 0.10696206 0.06764565 0.10141268 0.016688826 -0.07565423
0.09433788 0.0719285 0.031948183 0.05177758 0.013006104 0.31242415 0.522278 0.081111796
0.14416239 -0.10545974 0.05159019 0.07590107 -0.14003392 0.25128818 0.13514164 -1.1805853
00000000: c3e3 8e3d 1543 52bc 5219 6c3d b2bc 303e
00000010: c547 d13c b6ba 993c 1eba 0a3e e408 01be
00000020: a04d 3ebe 764a a8bd 536e edbc ed9b a33d
00000030: 689d 6a3d 97ce d0bd d11d fa3d c6a8 6b3d
00000040: 47a4 d7bd 5148 1d3f bd7e 75be d6a2 88be
00000050: ffa2 bb3b 6ab9 e73d d901 023e 15d5 e13b
00000060: c119 9d3d fb42 fabe fb6c d0be 083a 973d
00000070: b7de 773b 7a7b 8ebd 9d5e 8abd 8f52 4c3c
00000080: 9068 a7bd b191 ccbd 9ad1 67bd 0467 003f
00000090: 6d61 e23e b86d 513e 3717 c3bd a049 8c3e
000000a0: 66a6 99bd 5cf8 b43c d544 0a3d 7608 163d
000000b0: 2667 e3bd 76c8 9a3e 6a26 e3bd 1242 05be
000000c0: efdf 363d 879c ccbd 4640 0bbe 39d3 24be
000000d0: 9046 b53d 8e9a 1fbe b152 26be 9301 af3d
000000e0: 87f3 d23d 7319 29ba 17b3 f4be 778d 70bc
000000f0: 59d5 ef3c bfc8 27bc 00de 8c3d 884a b1bd
00000100: b2ef b9bd 98ab ea3e a21c 30be c039 2abe
00000110: b506 28bf 7f22 6abe 762c de38 ff75 d73d
00000120: c791 4f3d 704e 84bd 25c3 2cbc a1f0 e3bd
00000130: f327 a4bd b1ef 3c3e e985 8abe 23c3 923c
00000140: d543 9b3d ac74 f13d 17d3 0f3e f6d2 cc3c
00000150: 8154 813d d0f0 353f ca20 6c3f daec 443d
00000160: b0ce 253f 51b6 6f3e d2dc 01be ffec e43c
00000170: b217 ae3d abf4 e93c 3289 24bc 51c2 9c3e
00000180: da34 1c3e c59d fabb fe4c cd3d a4b5 0c3e
00000190: 1069 35bd 21be 0bbe 5199 acbb de95 9ebd
000001a0: d557 c13b 6178 66bf b30c 26bf 5872 203d
000001b0: 0a2c 053f fe08 c43e d296 34be 022e 9f3d
000001c0: ebb4 c13c 0d98 ccbd 0450 01be 66a8 8f3e
000001d0: db78 293e 915c 4ebe 6f6f 6cbe fd58 0cbe
000001e0: 1709 b6bd be34 ea3d 8e83 81bd fe08 093e
000001f0: 4f42 b63d 3399 b63d 66aa 9b3d beeb db3d
00000200: a46d 16bf cb29 61be b3b4 85bd d737 673c
00000210: 4572 aabd 8065 28bd 683d 14be 750c 8cbd
00000220: a267 763e 4f68 553d c4d1 7dbd a4bd 29be
00000230: 7071 ddbe ef1c 823d da14 a6bd 2362 6cbe
00000240: d2ea 6ebe c306 7f3e 084d 05bf 4243 dbbe
00000250: 59bf abbe 9ab8 62be 4e34 703d 6f81 dcbc
00000260: 0974 983d f3c4 3f3d 6161 9dbd 8360 d93e
00000270: 50f4 b73e fb5a 27bd 1070 b4be 6124 c6bd
00000280: 42ba 303d dabb 533e e5ca 5b3d 1c27 3b3e
00000290: d77b 403e 6e97 6a3e 7650 e73e a6c7 3fbd
000002a0: 76d5 483f 12f9 573e c49d 7fbc 6a36 59be
000002b0: b871 08be 6c3b 97bd d774 3bbe 765b a6be
000002c0: a2dd 0bbf f35b 473f 1d34 e6bb 7830 ab3d
000002d0: aad3 a6bd fc66 743b 42f7 14be 459f cc3d
000002e0: 4783 753d 33db ecbe e7be 24bf 6398 983b
000002f0: 6a2c 9bbe 08fd 68bc 5c60 5cbd 1ba7 6c3e
00000300: a495 cdb9 002c 343e d526 6b3d eb1f cabe
00000310: 809e 2dbf 6d9c 02bf 108e 88be e4ab 03be
00000320: 96a4 803d d12b 3abd a747 dc3b 994e 8abc
00000330: bd88 f7bd 6fca 2e3e ec9d a53e a251 973d
00000340: bb27 c3be 9aa6 aabe c6a0 97bd 586f 4f3e
00000350: c6ce d63c be90 393c a3fc 9a3d 51f4 0e3f
00000360: de79 163f 3e91 10be 8d45 95be 6a06 18bf
00000370: 9461 75be 434c b23e fb2d 1abe e1ea 7c3e
00000380: d45d 853d 92c1 8ebe a384 0cbf a79e 2dbf
00000390: b17d 83be 277b a7be d7b8 753d 294d 873d
000003a0: 57e2 453d 1a07 d3bd 74a1 c3bd ed0e db3d
000003b0: cd89 8a3d 73b1 cf3d 01b7 883c 9bf0 9abd
000003c0: 3834 c13d 404f 933d 19dc 023d ba14 543d
000003d0: 8e17 553c 0ff6 9f3e 03b4 053f f11d a63d
000003e0: 4e9f 133e 47fb d7bd 3c50 533d 0572 9b3d
000003f0: 0d65 0fbe d8a8 803e 9262 0a3e 6b1d 97bf

lstm.weight_hh_l0 f4 [256, 64]
0.18075825 0.08037524 0.12680894 0.1792806 -0.24795233 -0.19573778 -0.14554706 -0.015199933
-0.14253654 -0.27829462 -0.28718784 0.22684596 -0.06515381 -0.05106375 -0.045927733 0.06508835
0.08230557 0.016940672 0.07465363 0.28166926 -0.042955607 -0.1045197 0.009675058 -0.20152566
-0.27125672 -0.21598892 0.1552857 -0.09964792 0.2152701 -0.1532568 -0.12930642 -0.12277741
-0.17788105 0.031300176 0.11578151 -0.06753215 -0.053356957 -0.22975595 -0.07609471 0.13286886
-0.11533764 -0.10322787 0.081765294 0.27056465 0.19864392 0.0682089 -0.27925345 -0.032815024
-0.6480592 -0.20955077 -0.15272838 0.13829698 0.16343407 -0.15630847 -0.1395078 -0.020200368
-0.07781637 -0.1624554 -0.26224998 0.12417084 -0.30057213 -0.21828628 0.1493439 -0.01486593
-0.06264106 0.11150963 0.02252299 1.0586476 -0.4345129 -0.42337856 -0.44385406 0.04781149
-0.6602921 -0.353282 -0.26269373 -0.10664837 0.21245502 -0.03374356 -0.04781005 -0.26670468
-0.3435004 0.105255164 0.024621164 0.17706946 -0.09066593 -0.093215555 -0.5905906 -0.28555948
-0.2540312 -0.12035306 0.39586937 -0.88939524 0.663224 0.24438533 0.63605374 0.08155614
-0.41885662 0.41456112 0.21632656 0.7683205 0.009019814 -0.100586094 0.75986207 0.55454165
0.2380862 0.20705101 0.5230084 -0.11618506 0.123591624 0.10898339 -0.33105817 0.17540845
-0.12144505 0.9241835 -0.05854757 -0.21441148 0.09461653 0.16909045 0.0876156 0.3835913
0.109838456 -0.4995218 -0.08152417 0.038603716 -0.34195253 -0.20697446 0.62175703 0.11731948
0.061083186 0.24841636 0.00086477026 0.13212466 0.3042573 0.27514774 0.04639314 -0.03772753
-0.22677104 0.38385728 -0.13483208 0.3385769 0.23473229 0.054179866 -0.049186986 -0.06928912
0.07339505 0.05089011 -0.047374796 -0.34159803 0.0058644554 -0.267566 -0.19405892 0.3071456
0.32234097 0.12070126 -0.2927214 -0.078795396 -0.31566668 0.22347693 -0.2542592 -0.039874546
0.008574629 0.03466188 0.37350833 0.1009538 0.15401568 0.31426093 -0.044257425 0.19834618
-0.18854243 0.0817535 -0.19015539 -0.06651275 0.068798766 0.073779486 0.11027563 -0.10358727
0.46401504 -0.041134275 0.09331035 -0.029985137 -0.38275594 -0.1072537 0.06862786 0.13526624
0.009653548 0.094962314 -0.16289234 -0.35393167 0.33490676 0.026875526 -0.092435494 0.17441958
0.077086695 0.59587127 -0.197305 0.20031537 -0.20999743 -0.5652819 -0.36768004 -0.047596388
-0.36561662 -0.14228316 -0.08689873 0.06008613 0.103718676 -0.027974285 -0.019862344 -0.11513632
-0.024872867 1.0301679 0.39941666 0.098954044 -0.06720123 -0.020633288 0.26505092 -0.11689291
-0.12750301 0.6191612 0.44929084 -1.1429452 0.73281044 -0.14979485 0.62070256 -0.027353574
-0.108850256 0.012033376 0.49122024 0.25610223 -0.23752525 -0.43819115 0.26043427 0.414877
0.48000664 -0.015630461 0.4500307 -0.29267052 0.09355416 0.15986198 0.6407084 0.22380447
-0.42779452 0.6010849 -0.15106623 0.10542785 -0.6114197 0.11000722 -0.3917215 -0.16562743
0.13099231 -0.5400356 -0.03796225 -0.6482787 0.11067973 -0.013493408 0.16559912 0.25795665
00000000: b118 393e c69b a43d 34da 013e 5595 373e
00000010: 37e7 7dbe 7c6f 48be 4a0a 15be 2409 79bc
00000020: 19f5 11be a27c 8ebe 490a 93be 4f4a 683e
00000030: 5c6f 85bd 3928 51bd b81e 3cbd 0a4d 853d
00000040: d38f a83d 2ac7 8a3c 01e4 983d f436 903e
00000050: 38f2 2fbd 6d0e d6bd 2284 1e3c be5c 4ebe
00000060: 29e2 8abe 332c 5dbe 3703 1f3e 3514 ccbd
00000070: c46f 5c3e 5aef 1cbe e768 04be b972 fbbd
00000080: 7326 36be 9d34 003d db1e ed3d 4c4e 8abd
00000090: d38c 5abd 2545 6bbe 8bd7 9bbd c60e 083e
000000a0: 2436 ecbd 2269 d3bd 9074 a73d 7387 8a3e
000000b0: 5069 4b3e 1cb1 8b3d 4ffa 8ebe 0c69 06bd
000000c0: 35e7 25bf 7a94 56be d464 1cbe b99d 0d3e
000000d0: 435b 273e 540f 20be 22db 0ebe 3e7b a5bc
000000e0: 305e 9fbd b55a 26be a145 86be 484d fe3d
000000f0: 97e4 99be 7086 5fbe 9bed 183e 3b90 73bc
00000100: f549 80bd 295f e43d 2282 b83c c481 873f
00000110: 7a78 debe 13c5 d8be d740 e3be fbd5 433d
00000120: e708 29bf 61e1 b4be cb7f 86be 766a dabd
00000130: cf8d 593e b036 0abd 79d4 43bd 848d 88be
00000140: 49df afbe 0590 d73d 53b2 c93c b251 353e
00000150: 0faf b9bd cce7 bebd f230 17bf da34 92be
00000160: 6110 82be aa7b f6bd 64af ca3e 68af 63bf
00000170: 0cc9 293f 2640 7a3e 6bd4 223f e806 a73d
00000180: 6074 d6be 5b41 d43e b684 5d3e a7b0 443f
00000190: d8c7 133c 1500 cebd 5286 423f 71f6 0d3f
000001a0: decc 733e 2e05 543e e1e3 053f 6ff2 edbd
000001b0: 9b1d fd3d af32 df3d 7580 a9be 469e 333e
000001c0: 2fb8 f8bd 4a97 6c3f 94cf 6fbd af8e 5bbe
000001d0: 50c6 c13d 0c26 2d3e cf6f b33d 1466 c43e
000001e0: fcf2 e03d 52c1 ffbe 25f6 a6bd ee1e 1e3d
000001f0: 6714 afbe 1df1 53be 782b 1f3f 3245 f03d
00000200: 5d32 7a3d dc60 7e3e c0b1 623a b04b 073e
00000210: 9dc7 9b3e 2ae0 8c3e bc06 3e3d 2f88 1abd
00000220: ab36 68be f188 c43e 6c11 0abe f459 ad3e
00000230: a95d 703e b5eb 5d3d 4b78 49bd 74e7 8dbd
00000240: 2550 963d 2672 503d 130c 42bd f0e5 aebe
00000250: 9e2a c03b 69fe 88be 62b7 46be 3042 9d3e
00000260: e009 a53e 3932 f73d 94df 95be 7b5f a1bd
00000270: 109f a1be 23d7 643e 432e 82be 7e53 23bd
00000280: 9a7c 0c3c 9ef9 0d3d 7c3c bf3e dec0 ce3d
00000290: 49b6 1d3e cfe6 a03e 4647 35bd 431b 4b3e
000002a0: 4411 41be 616e a73d 18b8 42be d637 88bd
000002b0: 5ee6 8c3d b319 973d 31d8 e13d 9025 d4bd
000002c0: 6193 ed3e 6a7c 28bd 7f19 bf3d 64a3 f5bc
000002d0: 96f8 c3be d4a7 dbbd c38c 8c3d 3c83 0a3e
000002e0: ea29 1e3c 9a7b c23d 40cd 26be 8836 b5be
000002f0: e678 ab3e 102a dc3c d24e bdbd 0c9b 323e
00000300: a1df 9d3d 058b 183f 520a 4abe 791f 4d3e
00000310: 9109 57be 51b6 10bf 8f40 bcbe 6ef4 42bd
00000320: 1a32 bbbe adb2 11be f6f7 b1bd e01c 763d
00000330: 756a d43d 542a e5bc 5bb6 a2bc 97cc ebbd
00000340: 2fc2 cbbc 8bdc 833f 5780 cc3e 6ba8 ca3d
00000350: cca0 89bd 2407 a9bc c1b4 873e 8d65 efbd
00000360: 2690 02be 5981 1e3f 7309 e63e 074c 92bf
00000370: 7799 3b3f d263 19be 5de6 1e3f 9a14 e0bc
00000380: e2ec debd a327 453c 3881 fb3e d51f 833e
00000390: d239 73be 975a e0be a457 853e c26a d43e
000003a0: 6ec3 f53e 740b 80bc 6d6a e63e e9d8 95be
000003b0: 5399 bf3d dcb2 233e 7705 243f 002d 653e
000003c0: e207 dbbe b3e0 193f 1bb1 1abe 8eea d73d
000003d0: 0086 1cbf 774b e13d b88f c8be 3d9a 29be
000003e0: d922 063e c63f 0abf 4e7e 1bbd 98f5 25bf
000003f0: 0eac e23d 7513 5dbc d192 293e e512 843e

lstm.bias_ih_l0 f4 [256]
-0.2761872 -0.47927684 0.16153409 -0.0005955395 0.0058785556 -0.22657438 -0.5553737 -0.108288735
0.60321146 -0.006462935 0.45372444 -0.28663087 -0.5156546 -0.10552858 -0.3002891 -0.2018438
0.39491162 -0.41720054 -0.36241663 -0.3246422 -0.34534374 -0.2836718 -0.13589919 0.026963772
0.13755044 0.161967 -0.41461912 0.25848806 -0.02283974 0.4544049 -0.27284986 -0.3639428
0.14213058 0.18360145 -0.22462277 -0.121318296 -0.44912213 -0.21126045 0.019684602 -0.08340909
-0.14760922 0.060859602 0.21558079 0.14025217 -0.1454118 -0.31425214 -0.06953153 -0.48801833
0.051778547 -0.42308238 0.26416433 -0.4646276 -0.7149001 0.013947304 -0.17360325 -0.25101617
-0.46828994 -0.44913816 0.015962422 0.5905823 -0.38799447 -0.33440822 -0.057954494 0.5099551
-0.44303206 -0.0042515933 -0.348284 0.023615915 0.15139143 -0.37043893 -0.30259833 -0.12009746
0.18098307 0.05039384 -0.40882245 -0.061752528 -0.18451564 -0.13625117 0.03126389 -0.2685428
-0.034176797 -0.5802954 -0.093346156 -0.2201526 -0.44824708 -0.272398 -0.06213911 0.08882142
-0.26614848 -0.7473731 -0.18487597 0.52846885 0.121193826 0.27836278 -0.059592564 -0.06398534
0.1568879 0.016794078 -0.23157266 0.124445714 -0.2915752 -0.20939848 -0.13178466 -0.3298256
-0.4753424 -0.16400631 0.10453483 -0.20845242 -0.30208743 -0.1391813 -0.003478784 -0.40243074
0.43349594 -0.10369137 0.20764273 -0.010813135 -0.75380784 0.21121235 0.01378381 -0.26127768
-0.2401995 -0.107714415 -0.3036411 -0.8960794 -0.4866488 -0.22278185 -0.20231727 0.5440328
-0.2331913 -0.016263869 -0.468549 -0.35385042 0.050828423 0.23578365 -0.03553834 0.18126838
0.33946446 0.10795658 0.41395262 0.258569 0.18297842 0.18792684 -0.111153685 -0.11733188
0.43832916 -0.017733403 0.09927444 -0.11524666 0.25372848 0.094313055 0.100256 0.056311768
0.22483268 -0.04367873 0.023163488 0.2882491 -0.15817468 -0.25931674 -0.05356572 0.025276937
0.24384275 -0.07989568 -0.09501686 0.23896584 -0.16537037 -0.30362353 -0.1122004 -0.15338041
-0.17426042 0.22642806 -0.14309439 -0.203047 -0.061728556 -0.21328056 0.13751768 0.12191545
-0.016836768 -0.22789149 0.21601808 0.04416801 -0.09024951 0.12064119 -0.2013285 -0.051388074
0.033952564 0.10809964 0.17671299 -0.60807186 -0.083651856 0.13780995 -0.023165563 0.4130881
-0.36485192 -0.4905825 -0.28645834 0.07619636 0.21458216 -0.34953374 -0.61276585 -0.26837727
-0.27288213 -0.6242123 0.5615824 -0.21399988 -0.45500264 -0.8589606 -0.24734089 -0.20511389
0.6793988 -0.431155 -0.40044868 -0.27009347 -0.25788993 -0.36308765 -0.2500086 -0.030024394
-0.4845934 -0.42283583 -0.32438108 0.645826 0.47601897 -0.2540108 -0.4122717 -0.27141166
0.28098223 -0.58407956 -0.32513133 -0.21855839 -0.36749867 -0.42340896 -0.11406442 -0.1355585
-0.5185009 -0.2517454 -0.3732367 -0.6412218 -0.40464568 -0.2535939 0.10812239 -0.5686943
-0.7342604 -0.3266103 -0.41035736 -0.46156612 -0.615126 -0.5137056 -0.39404592 -0.3822649
-0.44360176 -0.4126065 -0.3069457 0.5441914 -0.44326404 -0.50249 -0.670418 -0.3518728
00000000: 6968 8dbe c663 f5be 3169 253e fb1d 1cba
00000010: e6a0 c03b 1d03 68be f92c 0ebf 7cc6 ddbd
00000020: 116c 1a3f 07c7 d3bb 924e e83e 48c1 92be
00000030: f101 04bf 5e1f d8bd 7ebf 99be 24b0 4ebe
00000040: db31 ca3e 4f9b d5be ac8e b9be 8137 a6be
00000050: e5d0 b0be 6e3d 91be 2829 0bbe 21e3 dc3c
00000060: 06da 0c3e adda 253e f548 d4be 8c58 843e
00000070: 681a bbbc c2a7 e83e fab2 8bbe b656 babe
00000080: ae8a 113e 0502 3c3e 8303 66be ba75 f8bd
00000090: 56f3 e5be a954 58be 9a41 a13c 63d2 aabd
000000a0: df26 17be eb47 793d 36c1 5c3e 449e 0f3e
000000b0: d5e6 14be a8e5 a0be 8c66 8ebd 8add f9be
000000c0: be15 543d 419e d8be 8c40 873e abe3 edbe
000000d0: b103 37bf 3c83 643c 0dc5 31be 3185 80be
000000e0: b3c3 efbe 70f5 e5be a0c3 823c 6730 173f
000000f0: 36a7 c6be 8e37 abbe b161 6dbd 6b8c 023f
00000100: 19d5 e2be f350 8bbb 4852 b2be 2a76 c13c
00000110: 5b06 1b3e 2caa bdbe 2bee 9abe a8f5 f5bd
00000120: a053 393e c569 4e3d 2d51 d1be 38f0 7cbd
00000130: abf1 3cbe 6d85 0bbe 910e 003d 717e 89be
00000140: f8fc 0bbd 3d8e 14bf 452c bfbd af6f 61be
00000150: a480 e5be c077 8bbe 9485 7ebd 01e8 b53d
00000160: 9d44 88be d853 3fbf 2050 3dbe bc49 073f
00000170: 7834 f83d 9185 8e3e 5517 74bd bf0a 83bd
00000180: 39a7 203e bc93 893c 6221 6dbe 65dd fe3d
00000190: 5849 95be 8e6c 56be 8ff2 06be e7de a8be
000001a0: 1460 f3be 45f1 27be 5b16 d63d 8d74 55be
000001b0: 34ab 9abe 8b85 0ebe 50fc 63bb 670b cebe
000001c0: 2ef3 dd3e 245c d4bd 4ca0 543e 9329 31bc
000001d0: 8df9 40bf 0d48 583e 7dd5 613c 30c6 85be
000001e0: dcf6 75be 6099 dcbd d976 9bbe 7665 65bf
000001f0: 082a f9be ed20 64be 422c 4fbe bc45 0b3f
00000200: b3c9 6ebe ce3b 85bc a8e5 efbe e22b b5be
00000210: 7731 503d 4571 713e a790 11bd 6b9e 393e
00000220: 49ce ad3e 5718 dd3d 99f1 d33e 2863 843e
00000230: b25e 3b3e e56f 403e 8ba4 e3bd b24b f0bd
00000240: ae6c e03e a445 91bc 6650 cb3d 7106 ecbd
00000250: b3e8 813e 3427 c13d 0553 cd3d 2ba7 663d
00000260: 8a3a 663e 78e8 32bd 5bc1 bd3c 6395 933e
00000270: 8bf8 21be 2ac5 84be ba67 5bbd 9411 cf3c
00000280: eab1 793e 59a0 a3bd 3398 c2bd 76b3 743e
00000290: da56 29be 8b74 9bbe 53c9 e5bd c10f 1dbe
000002a0: 5371 32be c2dc 673e 5687 12be 8eeb 4fbe
000002b0: 15d7 7cbd 3866 5abe 6fd1 0c3e cfae f93d
000002c0: 43ed 89bc 635c 69be d833 5d3e 84e9 343d
000002d0: bcd4 b8bd ba12 f73d 0f29 4ebe 4d7c 52bd
000002e0: d811 0b3d 5863 dd3d 40f4 343e 99aa 1bbf
000002f0: aa51 abbd 0d1e 0d3e b5c5 bdbc 4980 d33e
00000300: dfcd babe a12d fbbe abaa 92be d60c 9c3d
00000310: 6dbb 5b3e 16f6 b2be 39de 1cbf bf68 89be
00000320: 35b7 8bbe 61cc 1fbf ddc3 0f3f c922 5bbe
00000330: 1bf6 e8be d8e4 5bbf ee46 7dbe 6009 52be
00000340: 14ed 2d3f 59c0 dcbe 9c07 cdbe b149 8abe
00000350: 260a 84be a0e6 b9be 2101 80be b8f5 f5bc
00000360: a01c f8be f07d d8be 4715 a6be da54 253f
00000370: c2b8 f33e b40d 82be 4715 d3be 78f6 8abe
00000380: e7dc 8f3e 3d86 15bf 9d77 a6be c5cd 5fbe
00000390: c928 bcbe 0fc9 d8be 9b9a e9bd d9cf 0abe
000003a0: 7abc 04bf c6e4 80be e118 bfbe 1d27 24bf
000003b0: b82d cfbe 0fd7 81be 466f dd3d f395 11bf
000003c0: 7df8 3bbf 7739 a7be 5c1a d2be 6552 ecbe
000003d0: e678 1dbf 3682 03bf 63c0 c9be 3ab8 c3be
000003e0: c51f e3be 2941 d3be fd27 9dbe 2150 0b3f
000003f0: 81f3 e2be 2fa3 00bf 84a0 2bbf ac28 b4be

lstm.bias_hh_l0 f4 [256]
-0.15621799 -0.4030686 0.26355 0.06124946 0.11989904 -0.315641 -0.4110658 -0.27716655
0.7219535 0.12715092 0.63564116 -0.4375852 -0.42065522 -0.22602302 -0.22959808 -0.2758628
0.5317709 -0.33163235 -0.2290605 -0.28839353 -0.23661804 -0.42316735 -0.026616538 -0.040499244
0.09345596 0.19591407 -0.4086577 0.20313725 -0.018900152 0.44523314 -0.3915877 -0.19981037
0.15293255 0.14446001 -0.18301286 0.00806622 -0.40048057 -0.261321 -0.06181564 -0.21792209
-0.096170574 -0.06655077 0.1549806 0.15725954 -0.18979838 -0.23116498 -0.0631903 -0.45053014
0.048117615 -0.3297612 0.30827674 -0.30490968 -0.47290578 0.21739903 -0.14009146 -0.31179786
-0.33581248 -0.3598426 0.03598048 0.50206274 -0.3714563 -0.16987887 -0.14840108 0.52493334
-0.35277775 0.0012796291 -0.30228138 -0.12889352 0.04693774 -0.2779548 -0.39854705 -0.14575979
0.14620891 0.2219273 -0.6023646 -0.11534217 -0.2536583 -0.24518639 0.022307979 -0.35123757
-0.039264224 -0.6314505 -0.02823746 -0.41838738 -0.37364313 -0.22366264 -0.07467469 0.16939855
-0.1653753 -0.6366716 -0.27030075 0.56922203 0.04951836 0.31029207 -0.019758847 -0.14902228
0.18508269 0.086099036 -0.18086767 -0.12394459 -0.16523945 -0.3400681 -0.09946915 -0.24996306
-0.4282007 -0.07159794 0.2587751 -0.3021657 -0.34372044 -0.23763265 0.19647124 -0.30474302
0.37571853 -0.14937785 0.19553815 0.057744008 -0.58544844 0.14216916 -0.005886619 -0.2808914
-0.2850693 -0.13976526 -0.3133795 -0.8536431 -0.4873473 -0.34709916 -0.20108604 0.6640337
-0.3492538 -0.06518334 -0.3388745 -0.26521066 -0.023576222 0.23141652 -0.14179264 0.11799461
0.3101491 0.14401828 0.32352555 0.21888173 0.09541036 0.16330105 0.09473642 0.0014024806
0.4062837 0.054081537 0.1867595 -0.26479813 0.22079982 0.07679094 0.113967106 -0.0049683447
0.30715546 -0.14875504 -0.06686244 0.32519516 -0.06815427 -0.41514978 -0.02207512 0.026057445
0.20256898 -0.05164415 -0.15244874 0.12079308 -0.2658308 -0.22187078 -0.20174259 -0.20445752
-0.14159647 0.08921609 -0.34018183 -0.1935394 -0.095840104 -0.15374485 0.14265074 0.088637315
0.10145409 -0.10233684 0.32835683 0.13364063 -0.08945268 0.059700165 -0.00993418 -0.1336711
-0.103226565 -0.017307254 0.10232606 -0.6155837 -0.032856125 0.009322295 0.04791423 0.4247308
-0.44341418 -0.53379464 -0.35690418 -0.1122871 0.38933837 -0.356103 -0.61021733 -0.18117735
-0.14349274 -0.56743926 0.54161185 -0.19252783 -0.48821577 -0.8324671 -0.10584018 -0.122741856
0.7525014 -0.28745434 -0.22590454 -0.21391806 -0.34887272 -0.21189715 -0.122531995 -0.085340925
-0.44142714 -0.41556045 -0.27109236 0.55646545 0.5457403 -0.1609952 -0.43274647 -0.21263534
0.189667 -0.47238204 -0.1553289 -0.31447566 -0.39530608 -0.41695642 -0.09147815 -0.09831765
-0.4852842 -0.31789216 -0.36962223 -0.7120796 -0.28805956 -0.24726595 0.07051974 -0.55421686
-0.84723645 -0.48704898 -0.34164432 -0.4390054 -0.72364444 -0.51368797 -0.5433941 -0.38540855
-0.31809768 -0.257593 -0.48233145 0.44144905 -0.48951715 -0.39701954 -0.6510241 -0.2548851
00000000: 9cf7 1fbe 025f cebe 07f0 863e b7e0 7a3d
00000010: a18d f53d b29b a1be 3777 d2be c6e8 8dbe
00000020: f2d1 383f da33 023e 61b9 223f 2b0b e0be
00000030: 1f60 d7be 9472 67be c21b 6bbe e43d 8dbe
00000040: 2322 083f b7cb a9be d68e 6abe 51a8 93be
00000050: 004c 72be 64a9 d8be ed0a dabc 89e2 25bd
00000060: d765 bf3d b39d 483e 953b d1be 3603 503e
00000070: 7ed4 9abc 99f5 e33e 2f7e c8be 179b 4cbe
00000080: 5a9a 1c3e 53ed 133e b967 3bbe 2e28 043c
00000090: ca0b cdbe decb 85be 6632 7dbd f826 5fbe
000000a0: 14f5 c4bd c54b 88bd 3cb3 1e3e a508 213e
000000b0: 825a 42be 83b6 6cbe ea69 81bd e3ab e6be
000000c0: fa16 453d 76d6 a8be 73d6 9d3e 1f1d 9cbe
000000d0: b520 f2be da9d 5e3e 2374 0fbe f8a3 9fbe
000000e0: 9def abbe 4a3d b8be 4560 133d 2f87 003f
000000f0: 852f bebe baf4 2dbe 74f6 17be 0862 063f
00000100: 499f b4be 3ab9 a73a a0c4 9abe aafc 03be
00000110: ca41 403d 1750 8ebe 5c0e ccbe 0e42 15be
00000120: cab7 153e e940 633e 9134 1abf 8438 ecbd
00000130: 80df 81be 2412 7bbe 39bf b63c 69d5 b3be
00000140: 86d3 20bd bda6 21bf 3f52 e7bc df36 d6be
00000150: 274e bfbe d207 65be 0bef 98bd d076 2d3e
00000160: 2558 29be e9fc 22bf dc64 8abe 89b8 113f
00000170: c4d3 4a3d 9ade 9e3e 4edd a1bc 4c99 18be
00000180: 5186 3d3e b154 b03d 6035 39be a9d6 fdbd
00000190: 8834 29be 681d aebe 7bb6 cbbd 51f6 7fbe
000001a0: 1f3d dbbe f1a1 92bd 2b7e 843e 76b5 9abe
000001b0: 20fc afbe f955 73be c22f 493e 4707 9cbe
000001c0: 2e5e c03e 82f6 18be 273b 483e fb84 6c3d
000001d0: f3df 15bf cb94 113e 8ae4 c0bb ffd0 8fbe
000001e0: 9af4 91be a01e 0fbe 4773 a0be 5b88 5abf
000001f0: 9685 f9be fbb6 b1be 80e9 4dbe 1dfe 293f
00000200: 65d1 b2be d87e 85bd f580 adbe b1c9 87be
00000210: ec22 c1bc 74f8 6c3e 1732 11be 28a7 f13d
00000220: ddcb 9e3e 8779 133e 24a5 a53e 8822 603e
00000230: 8266 c33d 6438 273e 2b05 c23d 71d3 b73a
00000240: 6b04 d03e 9a84 5d3d e23d 3f3e 9f93 87be
00000250: 5919 623e 9144 9d3d 9667 e93d 7fcd a2bb
00000260: 7b43 9d3e 3e53 18be 2def 88bd fb7f a63e
00000270: 7794 8bbd 838e d4be e2d6 b4bc 6c76 d53c
00000280: 3e6e 4f3e d188 53bd 861b 1cbe 5d62 f73d
00000290: fa1a 88be 1832 63be 9c95 4ebe 505d 51be
000002a0: aafe 10be edb6 b63d 502c aebe 312f 46be
000002b0: d147 c4bd 4a6f 1dbe 0913 123e 7b87 b53d
000002c0: 29c7 cf3d fa95 d1bd 631e a83e 17d9 083e
000002d0: f732 b7bd 2988 743d f9c2 22bc 14e1 08be
000002e0: 7368 d3bd f1c7 8dbc 5390 d13d e596 1dbf
000002f0: 2594 06bd 8abc 183c b641 443d 5176 d93e
00000300: 2f07 e3be c4a6 08bf 25bc b6be c7f6 e5bd
00000310: 5c57 c73e 2253 b6be 3437 1cbf 8e86 39be
00000320: c3ef 12be b343 11bf 13a7 0a3f 0426 45be
00000330: 6bf7 f9be 901c 55bf bcc2 d8bd 1560 fbbd
00000340: efa3 403f 372d 93be 8553 67be 560d 5bbe
00000350: 729f b2be 91fb 58be 0ef2 fabd 39c7 aebd
00000360: bd02 e2be 57c4 d4be 9ecc 8abe 8574 0e3f
00000370: a3b5 0b3f eddb 24be f290 ddbe 14bd 59be
00000380: 1138 423e 0fdc f1be 8a0e 1fbe f402 a1be
00000390: 8f65 cabe 507b d5be e558 bbbd c45a c9bd
000003a0: 2c77 f8be c3c2 a2be 203f bdbe d94a 36bf
000003b0: 8b7c 93be 4933 7dbe a76c 903d 28e1 0dbf
000003c0: 7de4 58bf 7c5e f9be 01ec aebe 51c5 e0be
000003d0: c340 39bf 0e81 03bf e01b 0bbf 4554 c5be
000003e0: b3dd a2be 3be3 83be 26f4 f6be 9c05 e23e
000003f0: fea1 fabe 2546 cbbe 84a9 26bf 4d80 82be

lstm.weight_ih_l1 f4 [256, 64]
0.22542089 0.13090238 -0.3446617 -0.25795588 0.10264429 -0.5754203 -0.4951526 0.13935475
0.44917992 0.06107369 0.58472586 0.06027012 0.22124928 -0.61469007 -0.117430955 -0.085225314
0.5230971 0.3055138 0.4783347 -0.24874325 -0.068909794 0.3306384 -0.030616784 0.48109403
0.06174956 0.06690476 0.28619745 -0.08236896 -0.18340868 -0.49150494 0.24269973 0.3340767
0.43032625 -0.41563737 0.13152108 0.25431037 -0.27688572 -0.54493564 0.07620237 -0.079269014
-0.18124905 0.015205524 0.016609002 -0.34997073 -0.35407722 -0.21465322 0.7132681 -0.049409892
-0.7824102 0.3936207 0.13339029 0.15706412 -0.827762 0.7596962 0.31911 -0.66542375
-0.038782325 0.091495484 0.20940673 0.29955837 0.16270249 0.369475 -0.22908853 0.43005127
-0.07581899 0.17067993 0.05310424 0.097032785 -0.5498845 0.053573545 -0.1660633 -0.044439632
-0.17614794 -0.3475152 -0.07687452 -0.018225295 0.0961396 0.09737308 -0.11662247 0.058284402
-0.71707827 -0.08095187 -0.09741778 0.32171664 -0.01675662 -0.13824873 0.056211863 -0.3821998
-0.19081596 0.09389742 -0.07926272 -1.5129755 0.98962665 0.21190856 0.02082883 -0.06972726
-0.440767 0.3952519 0.015075693 -0.111950114 0.07405118 -0.08791983 -0.035205875 0.10027612
0.44122687 -0.103070505 0.04596693 0.14620169 0.21603997 0.103650756 -0.17690454 -0.0959073
-0.5359089 0.16337115 -0.14315942 -0.08866561 -0.22037442 -0.3126 0.3538666 0.02138234
0.10141657 0.06450176 -0.04619786 -0.19700028 -0.043016717 -0.15943043 0.4207146 -0.2258973
-0.55962837 -0.15811752 0.2630508 0.13110621 0.64138806 -0.044258106 0.32173827 0.11339625
-0.35425726 0.47562176 -0.069958895 -0.28124765 -0.2449427 -0.39285225 -0.16311269 0.11351871
0.22761464 -0.12127216 -0.13652444 0.03946119 0.41702333 -0.26838183 -0.17763503 0.5486197
0.2764884 -0.65016717 -0.3598174 0.3909867 -0.16949596 0.18826714 0.11052745 0.044183586
0.32866925 -0.26943943 0.04107484 -0.05137232 0.043868646 0.26047832 0.1316921 -0.2797509
-0.5836163 0.14481577 -0.03718429 -0.21468362 -0.13476911 -0.0744601 -0.57537585 0.30843207
0.77601075 -0.09137572 -0.16846262 -0.22496821 0.35677496 0.45841518 0.14209554 0.048074044
0.15064158 0.30396557 0.4012139 -0.2609359 -0.48212555 0.5102627 -0.3404534 -0.19786583
-0.07792042 0.09645508 0.2295365 0.18282071 -0.3004287 0.039105967 -0.15225823 -0.24056381
-0.06301011 -0.18120392 -0.1316769 0.15691458 0.19477604 0.0603484 -0.013211226 -0.08487322
-0.15718353 -0.00047153112 -0.023665555 0.049016934 0.012943959 -0.028642934 -0.23912726 -0.28750885
-0.15757486 0.26379538 -0.11744322 -0.8005527 0.7007614 -0.015871504 0.16141143 -0.023919284
-0.3226517 0.24935403 0.118505105 0.09380395 0.0062911 0.2240148 -0.02773178 -0.11272251
0.07201472 -0.08724379 0.15568027 0.07694548 0.016766956 0.095186196 0.15016273 -0.0006005968
-0.2631665 0.22372194 -0.09131725 0.04437545 -0.526171 -0.238141 0.26767144 -0.122473784
0.057352506 -0.21290521 -0.13598794 -0.12906742 0.13334642 -0.2599173 0.29164982 -0.062344924
00000000: bcd4 663e 460b 063e 8077 b0be cb12 84be
00000010: 2b37 d23d bf4e 13bf a484 fdbe 03b3 0e3e
00000020: e9fa e53e 6828 7a3d 98b0 153f cddd 763d
00000030: 2c8f 623e 545c 1dbf a47f f0bd 9c8a aebd
00000040: b1e9 053f 4e6c 9c3e 49e8 f43e 8db6 7ebe
00000050: 9420 8dbd 7049 a93e 0dd0 fabc f551 f63e
00000060: 1bed 7c3d 5d05 893d 7988 923e 0fb1 a8bd
00000070: 7ccf 3bbe 89a6 fbbe 4786 783e 1a0c ab3e
00000080: b953 dc3e 6cce d4be 76ad 063e f834 823e
00000090: f7c3 8dbe e780 0bbf fd0f 9c3d cb57 a2bd
000000a0: 5a99 39be 9720 793c 9a0f 883c 5d2f b3be
000000b0: 9c49 b5be 0ece 5bbe bd98 363f 0762 4abd
000000c0: 094c 48bf a788 c93e 7797 083e 6bd5 203e
000000d0: 36e8 53bf 737b 423f 6362 a33e 3659 2abf
000000e0: 37da 1ebd fc61 bb3d b86e 563e b75f 993e
000000f0: 7b9b 263e d42b bd3e 2f96 6abe ae2f dc3e
00000100: fd46 9bbd b8c6 2e3e d583 593d 20b9 c63d
00000110: 3bc5 0cbf ef6f 5b3d 7f0c 2abe 5506 36bd
00000120: 2060 34be 83ed b1be 6370 9dbd 374d 95bc
00000130: d7e4 c43d 8a6b c73d c3d7 eebd a0bb 6e3d
00000140: 7192 37bf 18ca a5bd f982 c7bd 0bb8 a43e
00000150: 2e45 89bc 1391 0dbe 693e 663d b1af c3be
00000160: 4265 43be 4a4d c03d 7e54 a2bd 2ea9 c1bf
00000170: 2c58 7d3f 8ffe 583e 39a1 aa3c 2acd 8ebd
00000180: 36ac e1be 755e ca3e 0a00 773c 1a46 e5bd
00000190: 25a8 973d 500f b4bd 0934 10bd 915d cd3d
000001a0: 7de8 e13e a116 d3bd d247 3c3d e5b5 153e
000001b0: 9539 5d3e d946 d43d 7726 35be 0c6b c4bd
000001c0: 5331 09bf c44a 273e 6298 12be 5196 b5bd
000001d0: d5a9 61be 1b0d a0be 012e b53e 042a af3c
000001e0: 7eb3 cf3d 8019 843d f839 3dbd 71ba 49be
000001f0: 4c32 30bd bb41 23be e767 d73e 9f51 67be
00000200: ce43 0fbf 8fe9 21be 98ae 863e b540 063e
00000210: 0232 243f fd47 35bd e1ba a43e 4b3c e83d
00000220: 3561 b5be b284 f33e 9c46 8fbd b1ff 8fbe
00000230: 42d2 7abe ee23 c9be 0307 27be 7f7c e83d
00000240: d013 693e 8a5d f8bd 10cd 0bbe 0fa2 213d
00000250: 1584 d53e 5869 89be f5e5 35be 5772 0c3f
00000260: e38f 8d3e 5b71 26bf fc39 b8be 692f c83e
00000270: 5990 2dbe 1ac9 403e 375c e23d d9f9 343d
00000280: 5647 a83e f7f3 89be 173e 283d c86b 52bd
00000290: 9caf 333d 6a5d 853e 4bda 063e 833b 8fbe
000002a0: e167 15bf 964a 143e 8e4e 18bd 06d6 5bbe
000002b0: ea00 0abe 897e 98bd d54b 13bf cfea 9d3e
000002c0: a4a8 463f 3223 bbbd 7781 2cbe 115e 66be
000002d0: 35ab b63e 65b5 ea3e 7e81 113e 4ae9 443d
000002e0: c941 1a3e 60a1 9b3e e96b cd3e 6499 85be
000002f0: 29d9 f6be 94a0 023f e84f aebe 579d 4abe
00000300: be94 9fbd 3e8a c53d 9e0b 6b3e 5a35 3b3e
00000310: cad1 99be 942d 203d 95e9 1bbe 5c56 76be
00000320: 720b 81bd 858d 39be 4fd6 06be 37ae 203e
00000330: 5f73 473e e22f 773d e673 58bc 03d2 adbd
00000340: b8f4 20be d637 f7b9 44de c1bc fbc5 483d
00000350: e612 543c 96a4 eabc c7dd 74be 5c34 93be
00000360: 4e5b 21be 3010 873e 1286 f0bd 06f1 4cbf
00000370: 1965 333f f504 82bc 0a49 253e 60f2 c3bc
00000380: 9b32 a5be aa56 7f3e ceb2 f23d 491c c03d
00000390: 9225 ce3b 2364 653e c22d e3bc 0fdb e6bd
000003a0: 747c 933d dfac b2bd a66a 1f3e 9895 9d3d
000003b0: db5a 893c fbf0 c23d 42c4 193e 5e71 1dba
000003c0: c2bd 86be 5d17 653e 8a04 bbbd 08c3 353d
000003d0: 25b3 06bf 3cdb 73be 3b0c 893e 89d3 fabd
000003e0: 76ea 6a3d d303 5abe 6c40 0bbe 402a 04be
000003f0: f78b 083e e113 85be 2053 953e 645d 7fbd

lstm.weight_hh_l1 f4 [256, 64]
-0.39054266 -0.38539648 0.060273778 0.15232079 0.24996832 -0.26916504 0.12715499 0.40340847
0.18030049 -0.3637985 -0.29571843 -0.7305327 0.2802809 0.33990318 -0.5638178 0.057136726
0.7577372 0.26847658 0.02884146 -0.31270072 0.21734802 -0.17815857 -0.0092800865 0.13929872
0.26260474 -0.01379001 -0.2553024 -0.7105911 0.13167539 0.11499634 0.1268733 -0.23702769
0.44453594 -0.08615351 0.3298719 0.19412811 0.25013727 0.13798806 0.27563322 -0.3945161
0.059804335 -0.17248479 0.19155058 -0.37030536 -0.11457165 -0.51676035 -0.67219245 0.05845783
0.11025787 0.58007485 0.80587953 0.3489614 0.10913437 0.4900384 0.20913008 -0.18257056
0.48663473 -0.67371464 -0.271139 0.84261477 -0.46014518 0.08871568 0.23421618 -0.03605561
-0.082216464 -0.0046050567 0.27586964 -0.03844318 0.14959364 0.09182355 -0.09987507 -0.009638119
-0.04827216 -0.12165277 -0.055032715 -0.014677818 0.06680808 0.092566244 -0.07898703 0.12817428
0.018923178 0.0819836 0.05296609 0.018772839 -0.049289532 0.029597148 0.05337109 -0.13624722
0.07715687 0.030434825 -0.18684192 0.18433806 0.17165647 -0.06452073 0.031556383 -0.0022969523
0.08171862 0.1310298 -0.045609344 -0.14747894 -0.09349892 0.15939975 0.068342924 -0.14863673
0.16360515 -0.18004313 0.063035905 -0.0031200363 0.09664023 -0.022185683 -0.043050013 -0.09672337
0.0930013 0.07407091 0.03455971 -0.036386605 -0.019619934 0.07309662 0.18067455 -0.16038111
0.0063267252 -0.047000326 -0.156717 0.22551791 -0.123651244 -0.073753834 0.08979295 0.1339446
-0.041875344 0.1527746 0.45763546 -0.050796025 0.036997095 -0.16910793 -0.08350907 0.17636351
-0.21879849 -0.050579973 0.19240919 -0.27438444 0.171897 0.25534987 0.004686232 0.018819151
0.17931473 0.06499082 -0.12175989 0.013287153 -0.1606243 -0.14744745 -0.12117461 -0.13747437
0.26992983 -0.017486572 -0.26135737 -0.035411496 -0.17159317 -0.012046789 0.09343275 -0.1976257
0.02491071 0.09971397 -0.11340435 -0.011776503 0.044604834 0.15319294 -0.0534239 -0.08607993
0.25474653 -0.21509618 0.042327847 0.14252582 0.048956744 -0.0017465191 -0.17828418 -0.13047923
0.19104956 -0.0004139843 0.23853126 -0.08076254 0.06161167 -0.0020364102 0.07362902 -0.08513237
-0.16042006 -0.00082741736 -0.19755358 0.107375726 -0.14346382 0.20238659 -0.15261553 -0.023081476
0.10565979 -0.011228508 0.2510429 0.0017093773 0.12188175 0.015601995 0.023202043 0.16615641
-0.28424665 -0.14448886 -0.19064304 -0.1845078 -0.19115557 0.15226679 0.11181922 0.12078044
0.23573537 0.15496115 0.077902384 0.0021005252 -0.12165364 0.10138979 0.039627686 0.15758497
0.06758973 -0.06079134 -0.07506798 0.119596146 0.17358427 -0.061683267 0.21394478 0.011688473
0.05810872 0.07145889 0.032580927 0.020573478 -0.08351688 0.11276275 -0.082730964 -0.15526941
0.31751066 -0.24126376 0.0039048966 0.14320788 -0.03116112 -0.030413639 -0.07510273 -0.2708346
0.077370174 -0.091723375 0.3289547 -0.42481184 0.003154781 0.14299068 0.25063497 -0.24150155
-0.057043992 0.137038 0.05984064 0.20061599 -0.02448559 -0.16386668 0.020936856 0.035754267
00000000: 35f5 c7be b052 c5be a3e1 763d fbf9 1b3e
00000010: b2f7 7f3e 00d0 89be eb34 023e 8e8b ce3e
00000020: b1a0 383e cc43 babe 6868 97be 3104 3bbf
00000030: fa80 8f3e ca07 ae3e 5d56 10bf 3308 6a3d
00000040: 11fb 413f c375 893e ed44 ec3c 4f1a a0be
00000050: 7b90 5e3e 336f 36be 810b 18bc 53a4 0e3e
00000060: 2174 863e 7eef 61bc ffb6 82be 4ce9 35bf
00000070: ead5 063e 3383 eb3d 13eb 013e 63b7 72be
00000080: 379a e33e 4071 b0bd f8e4 a83e 85c9 463e
00000090: fe11 803e be4c 0d3e cc1f 8d3e 04fe c9be
000000a0: 64f5 743d da9f 30be d625 443e aa98 bdbe
000000b0: 8ba4 eabd 684a 04bf ce14 2cbf 7a71 6f3d
000000c0: e1ce e13d c97f 143f 1f4e 4e3f 12ab b23e
000000d0: d781 df3d 50e6 fa3e 3226 563e c7f3 3abe
000000e0: 3028 f93e 9078 2cbf bbd2 8abe 9ab5 573f
000000f0: 2698 ebbe 91b0 b53d 5ed6 6f3e 0caf 13bd
00000100: 1b61 a8bd 04e6 96bb c93e 8d3e 9976 1dbd
00000110: 132f 193e fc0d bc3d 4d8b ccbd 33e9 1dbc
00000120: 07b9 45bd 1625 f9bd fc69 61bd 3b7b 70bc
00000130: add2 883d 5f93 bd3d f4c3 a1bd 1e40 033e
00000140: c804 9b3c 05e7 a73d f9f2 583d 7fc9 993c
00000150: d2e3 49bd b875 f23c a59b 5a3d 6484 0bbe
00000160: 6c04 9e3d 7452 f93c 7d53 3fbe 1ec3 3c3e
00000170: b7c6 2f3e 7223 84bd 4441 013d 7788 16bb
00000180: 185c a73d ad2c 063e ddd0 3abd b804 17be
00000190: 5d7c bfbd b039 233e 60f7 8b3d 3a34 18be
000001a0: 1c88 273e 3a5d 38be f818 813d 8679 4cbb
000001b0: 50eb c53d c0be b5bc 3655 30bd e716 c6bd
000001c0: 7777 be3d 7db2 973d 7c8e 0d3d 1f0a 15bd
000001d0: fcb9 a0bc aeb3 953d c002 393e f23a 24be
000001e0: 6b50 cf3b 6a83 40bd 6c7a 20be 2bee 663e
000001f0: dd3c fdbd 400c 97bd 5ee5 b73d c628 093e
00000200: 7b85 2bbd f270 1c3e 324f ea3e 7e0f 50bd
00000210: 448a 173d a12a 2dbe ce06 abbd a398 343e
00000220: b60c 60be f22c 4fbd ea06 453e 1e7c 8cbe
00000230: c405 303e 38bd 823e f78e 993b 9f2a 9a3c
00000240: 489e 373e e819 853d 405d f9bd 5cb2 593c
00000250: b27a 24be 77fc 16be 652a f8bd 15c6 0cbe
00000260: 3e34 8a3e 0040 8fbc a2d0 85be a50b 11bd
00000270: 1fb6 2fbe e55f 45bc ab59 bf3d 645e 4abe
00000280: 8c11 cc3c d736 cc3d 8a40 e8bd 3cf2 40bc
00000290: 8fb3 363d 9cde 1c3e 05d3 5abd ad4a b0bd
000002a0: 236e 823e 2c42 5cbe f75f 2d3d 4af2 113e
000002b0: de86 483d 75eb e4ba 2190 36be 599c 05be
000002c0: 7fa2 433e 080c d9b9 8a41 743e d566 a5bd
000002d0: 855c 7c3d 4b75 05bb d0ca 963d e159 aebd
000002e0: 2845 24be 0ae7 58ba 7c4b 4abe cee7 db3d
000002f0: 2ee8 12be 6e3e 4f3e 3f47 1cbe 5d15 bdbc
00000300: 2964 d83d c7f7 37bc b288 803e 2f0d e03a
00000310: 249d f93d 839f 7f3c 3612 be3c e824 2a3e
00000320: c788 91be e3f4 13be ee37 43be 9def 3cbe
00000330: 49be 43be d3eb 1b3e 7a01 e53d bc5b f73d
00000340: 9d64 713e 23ae 1e3e 498b 9f3d f7a8 093b
00000350: 8b25 f9bd 73a5 cf3d a450 223d f45d 213e
00000360: 7c6c 8a3d 5700 79bd 3ebd 99bd d3ee f43d
00000370: 13c0 313e 98a7 7cbd 5714 5b3e 0281 3f3c
00000380: 6903 6e3d 0a59 923d 9473 053d b689 a83c
00000390: e60a abbd 28f0 e63d da6e a9bd f2fe 1ebe
000003a0: c290 a23e d90d 77be 4be9 7f3b 16a5 123e
000003b0: 9b45 ffbc 0626 f9bc 76cf 99bd d5aa 8abe
000003c0: 4174 9e3d 77d9 bbbd c06c a83e f080 d9be
000003d0: 71c0 4e3b 266c 123e 3a53 803e 2f4c 77be
000003e0: f6a6 69bd b153 0c3e 751b 753d 476e 4d3e
000003f0: 0196 c8bc abcc 27be c583 ab3c 1173 123d

lstm.bias_ih_l1 f4 [256]
0.3525056 -0.51092505 0.30839655 -0.47684437 -0.4458341 -0.6798156 -0.5385975 -0.3661688
-0.22543813 -0.3204873 -0.3841661 -0.57417166 -0.2674476 -0.13322502 -0.6299585 -0.545041
-0.70365363 -0.3731815 -0.3491282 -0.4413458 -0.311716 -0.773248 -0.68043053 -0.6230166
-0.70974684 -0.49269795 -0.7076734 0.18689984 -0.25501293 -0.622054 -0.5674691 -0.56554013
-0.79509634 -0.47223908 -0.77402794 -0.41144615 -0.41300792 -0.2706518 -0.23926136 -0.49923798
-0.44887576 -0.6705498 -0.39070174 -0.45526055 -0.44404262 -0.76833653 -0.20005333 -0.23501313
-0.21753831 -0.45511 -0.5844293 -0.5492379 -0.7735711 -0.5796895 -0.48313078 -0.3592357
-0.23702817 -0.44180182 -0.02027208 -0.6850795 -0.33692682 -0.46838662 -0.60955 -0.8996231
-0.401614 -0.10477789 -0.6725834 -0.37859383 -0.48956907 -0.31454664 -0.2880239 -0.38579658
-0.4696229 -0.38650975 -0.35559517 -0.78563285 -0.17665455 -0.36730415 -0.22531608 -0.6039229
-0.8863916 -0.58840525 -0.44169688 -0.16769198 -0.46200222 -0.4546695 -0.28426808 -0.5210514
-0.49686602 -0.16725194 -0.60580057 -0.46279755 -0.19457838 -0.46825355 -0.51092666 -0.25503585
-0.39713562 -0.31667405 -0.38470268 -0.2688135 -0.38630605 -0.3341062 -0.51409537 -0.7186047
-0.75258064 -0.23556702 -0.27637956 -0.23761693 -0.2319346 -0.45643082 -0.37471375 -0.5924738
-0.5256846 -0.33741838 -0.5151181 -0.70898736 -0.6143795 -0.5613996 -0.15781108 -0.64474785
-0.3148719 -0.6611239 -0.21886933 -0.39442426 -0.24023524 -0.4352531 -0.12673673 -0.41133448
0.444283 0.17853472 -0.24406788 0.22375871 0.29457858 0.26519653 -0.16915521 -0.30086422
0.39883667 0.26710892 -0.1935602 0.20964423 0.054361198 -0.32375944 0.25764507 0.5040867
0.21018793 -0.4597086 0.06460675 -0.11153107 0.116813034 0.108957544 -0.11107478 -0.284302
0.12356694 0.06771703 -0.1521555 -0.3908389 0.21121083 0.22128993 -0.15363976 0.16801704
-0.20313065 0.12913954 -0.1503376 0.06633694 0.18699712 -0.27645683 0.30860704 0.10594476
-0.26129717 0.30007073 0.009196311 0.07347352 -0.059848566 -0.31700358 0.23690885 0.30041742
-0.13754044 -0.2900427 -0.27898225 0.23792961 -0.102380276 0.15151931 -0.028537884 0.29828033
0.06931832 -0.29097074 0.6222022 -0.23687069 0.13759327 0.16991228 -0.0519342 -0.21217576
-0.55253386 -0.47699577 -0.7650097 -0.4458584 -0.4575943 -0.615863 -0.59593636 -0.4347414
-0.0744351 -0.45560905 -0.4638194 -0.5108264 -0.34498093 -0.11724844 -0.7072047 -0.40913492
-0.6635426 -0.53732365 -0.43079427 -0.3769778 -0.20338264 -0.6899047 -0.5323397 -0.5150084
-0.697637 -0.4342874 -0.7813152 -0.49961948 -0.11165751 -0.69622403 -0.39027444 -0.4147633
-0.73792267 -0.63408035 -0.65341073 -0.2970901 -0.29189807 -0.26566294 -0.2167087 -0.57668185
-0.39198834 -0.62133 -0.37348992 -0.56867176 -0.54770476 -0.8972132 -0.46115828 -0.44194546
-0.22212787 -0.51577777 -0.5318058 -0.45547697 -0.6911415 -0.66636926 -0.6783024 -0.46430093
-0.30313432 -0.4491956 -0.77264655 -0.67803836 -0.35085934 -0.46260503 -0.63747394 -0.81716627
00000000: 9d7b b43e fccb 02bf 27e6 9d3e f224 f4be
00000010: 5e44 e4be 6508 2ebf 87e1 09bf 7a7a bbbe
00000020: 41d9 66be e916 a4be 6bb1 c4be eafc 12bf
00000030: e4ee 88be 246c 08be f644 21bf cf87 0bbf
00000040: a522 34bf a511 bfbe eec0 b2be 14f8 e1be
00000050: 3d99 9fbe 95f3 45bf b230 2ebf 047e 1fbf
00000060: f8b1 35bf e842 fcbe 152a 35bf ac62 3f3e
00000070: 0e91 82be ee3e 1fbf a845 11bf 3dc7 10bf
00000080: 6f8b 4bbf 52c9 f1be b226 46bf 12a9 d2be
00000090: c675 d3be df92 8abe ee00 75be 1f9c ffbe
000000a0: 0bd3 e5be 27a9 2bbf 0f0a c8be e917 e9be
000000b0: 8e59 e3be b4b1 44bf c8da 4cbe 48a7 70be
000000c0: 5dc2 5ebe 2e04 e9be 299d 15bf db9a 0cbf
000000d0: c108 46bf 8866 14bf eb5c f7be beed b7be
000000e0: 83b7 72be d933 e2be a211 a6bc 5f61 2fbf
000000f0: ac81 acbe 5fd0 efbe 780b 1cbf b34d 66bf
00000100: 5aa0 cdbe ca95 d6bd 6d2e 2cbf 0dd7 c1be
00000110: cca8 fabe 420c a1be de77 93be 2187 c5be
00000120: 6a72 f0be 9be4 c5be 9210 b6be 3c1f 49bf
00000130: eee4 34be 4a0f bcbe 42b9 66be b19a 1abf
00000140: 8fea 62bf baa1 16bf 1826 e2be 72b7 2bbe
00000150: 8e8b ecbe 71ca e8be 968b 91be a063 05bf
00000160: 3965 febe 1844 2bbe bf15 1bbf cdf3 ecbe
00000170: 8e3f 47be eebe efbe 17cc 02bf 0f94 82be
00000180: 5c55 cbbe 1a23 a2be c0f7 c4be eca1 89be
00000190: e8c9 c5be f80f abbe c19b 03bf 7af6 37bf
000001a0: 20a9 40bf 7b38 71be 9f81 8dbe da51 73be
000001b0: 4480 6dbe 4db1 e9be 7bda bfbe 5dac 17bf
000001c0: 4493 06bf 1ac2 acbe c8de 03bf 3280 35bf
000001d0: fa47 1dbf e2b7 0fbf 3a99 21be 320e 25bf
000001e0: e436 a1be 6a3f 29bf 481f 60be faf1 c9be
000001f0: 3a00 76be 7fd9 debe 46c7 01be 6f9a d2be
00000200: 1079 e33e ced1 363e eeec 79be 0121 653e
00000210: 01d3 963e d7c7 873e 0637 2dbe e00a 9abe
00000220: 5234 cc3e 80c2 883e a534 46be faac 563e
00000230: d9a9 5e3d ccc3 a5be 0eea 833e d30b 013f
00000240: 813b 573e ed5e ebbe 8b50 843d 676a e4bd
00000250: ac3b ef3d 2225 df3d 2d7b e3bd 0890 91be
00000260: aa10 fd3d 3aaf 8a3d a7ce 1bbe 091c c8be
00000270: a747 583e d499 623e be53 1dbe a90c 2c3e
00000280: 7b01 50be 283d 043e 1af2 19be a9db 873d
00000290: 2c7c 3f3e c08b 8dbe be01 9e3e 91f9 d83d
000002a0: bec8 85be dfa2 993e 20ac 163c 4979 963d
000002b0: c523 75bd 4b4e a2be 3c98 723e 50d0 993e
000002c0: 67d7 0cbe 7a80 94be c3d6 8ebe d2a3 733e
000002d0: c0ac d1bd e127 1b3e 48c8 e9bc 33b8 983e
000002e0: c3f6 8d3d 1efa 94be a548 1f3f 3b8e 72be
000002f0: 40e5 0c3e 7cfd 2d3e f5b8 54bd 9a44 59be
00000300: dc72 0dbf ca38 f4be add7 43bf 8d47 e4be
00000310: cd49 eabe 33a9 1dbf 498f 18bf 6d96 debe
00000320: 6e71 98bd 9745 e9be bd79 edbe 85c5 02bf
00000330: 57a1 b0be f31f f0bd 5e0b 35bf 227a d1be
00000340: eedd 29bf 0b8e 09bf 1191 dcbe 3c03 c1be
00000350: 8a43 50be 989d 30bf 6a47 08bf 97d7 03bf
00000360: 5798 32bf eb5a debe 4604 48bf 20ce ffbe
00000370: b1ac e4bd bd3b 32bf 0dd2 c7be db5b d4be
00000380: 80e8 3cbf 1753 22bf ed45 27bf 321c 98be
00000390: aa73 95be f904 88be e3e8 5dbe 6ca1 13bf
000003a0: b2b2 c8be 7c0f 1fbf 123a bfbe 7994 11bf
000003b0: 6136 0cbf c4af 65bf f01c ecbe ad46 e2be
000003c0: 7d75 63be 030a 04bf 6d24 08bf 4734 e9be
000003d0: a6ee 30bf 2d97 2abf 3aa5 2dbf dab8 edbe
000003e0: 6c34 9bbe f7fc e5be 2acc 45bf ec93 2dbf
000003f0: d6a3 b3be 91da ecbe 7e31 23bf cf31 51bf

lstm.bias_hh_l1 f4 [256]
0.3056083 -0.5455374 0.38776305 -0.3630739 -0.29493377 -0.62212276 -0.58937657 -0.46996224
-0.116352394 -0.38674548 -0.33964822 -0.36652273 -0.22742552 -0.27405542 -0.68974054 -0.522277
-0.7742503 -0.4638822 -0.33370996 -0.25893357 -0.1793307 -0.73520887 -0.7050139 -0.5693461
-0.7018099 -0.4474082 -0.7209598 0.23654254 -0.25379124 -0.77875376 -0.5563588 -0.45701778
-0.84952337 -0.62109584 -0.6190996 -0.28298104 -0.21998931 -0.24765469 -0.23292649 -0.6112116
-0.4022664 -0.6418661 -0.46907425 -0.4531566 -0.6740991 -0.71603584 -0.12687561 -0.3924236
-0.25954673 -0.5700424 -0.75042015 -0.53059345 -0.7418173 -0.6541869 -0.5158366 -0.20147847
-0.3641914 -0.30903265 -0.15878296 -0.5724495 -0.307806 -0.6889717 -0.58135384 -0.75279367
-0.39588645 -0.12124502 -0.77134925 -0.29986227 -0.4771952 -0.3148852 -0.15974826 -0.3992497
-0.50831133 -0.5167348 -0.28403586 -0.732456 -0.22173212 -0.60642844 -0.36575088 -0.6495694
-0.92534786 -0.5139868 -0.29450524 -0.19082 -0.4299151 -0.46355876 -0.4407628 -0.5368849
-0.4438009 -0.23713914 -0.78156424 -0.58372396 -0.10972894 -0.39345202 -0.350765 -0.2575933
-0.38663593 -0.3842095 -0.27568197 -0.2049488 -0.34803396 -0.3800379 -0.45262355 -0.70554435
-0.73119944 -0.2412724 -0.32679522 -0.17812653 -0.35272852 -0.40412855 -0.29865164 -0.4928038
-0.4198466 -0.3154403 -0.45947707 -0.47718114 -0.69871163 -0.44679388 -0.16609463 -0.590828
-0.2987553 -0.5839193 -0.25667343 -0.2908304 -0.28342772 -0.32922825 -0.13299738 -0.6137304
0.55501956 0.089181475 -0.27651978 0.31851074 0.41443583 0.1652899 -0.2245419 -0.18451343
0.28084177 0.20270081 -0.1927016 0.2249792 0.03245308 -0.22058702 0.44671047 0.35788193
0.28604442 -0.37615415 0.015712405 -0.07689665 0.18705775 0.05310555 -0.093166016 -0.17872871
0.13395678 0.21609792 -0.091324106 -0.60718113 0.19276848 0.04786397 -0.07886102 0.23098598
-0.18384133 0.20610285 -0.2501481 0.15790902 0.07435878 -0.11247469 0.12320161 0.28586778
-0.37361008 0.25986665 0.07517418 0.24468693 -0.27470002 -0.17273286 0.39955622 0.13996921
-0.18300833 -0.2352507 -0.2576055 0.1799444 -0.2406406 0.27968788 0.15901338 0.25539118
0.23679699 -0.1406716 0.52957505 -0.2552578 0.11392837 0.16634606 -0.052726146 -0.20026767
-0.6900139 -0.49019814 -0.82266045 -0.47355512 -0.36796916 -0.79686046 -0.51162165 -0.33521008
-0.034753088 -0.36993214 -0.37879908 -0.65369934 -0.39917132 -0.17791264 -0.5643549 -0.52072746
-0.7773284 -0.56751776 -0.43272945 -0.3944815 -0.21421722 -0.71116734 -0.5410529 -0.6957193
-0.58811957 -0.53397584 -0.7642325 -0.57877845 -0.21695548 -0.7940553 -0.56533974 -0.41694814
-0.83373696 -0.6420727 -0.8045644 -0.36741424 -0.4190822 -0.29866654 -0.30330715 -0.5445121
-0.5095278 -0.68322015 -0.59550065 -0.57073647 -0.4670003 -0.81136304 -0.5465465 -0.4690793
-0.30913892 -0.60006344 -0.75571537 -0.54071146 -0.6479413 -0.64778167 -0.59742653 -0.53384805
-0.4446768 -0.42494977 -0.8242855 -0.5421582 -0.33189437 -0.5726758 -0.45778784 -0.87870795
00000000: b178 9c3e 57a8 0bbf e188 c63e d2e4 b9be
00000010: 8f01 97be 7043 1fbf 62e1 16bf e49e f0be
00000020: 2a4a eebd 8103 c6be 5fe6 adbe dea8 bbbe
00000030: 3ce2 68be fe50 8cbe d692 30bf f2b3 05bf
00000040: 4535 46bf f881 edbe 08dc aabe f192 84be
00000050: 78a2 37be a636 3cbf ca7b 34bf aac0 11bf
00000060: d0a9 33bf b012 e5be d290 38bf 3538 723e
00000070: edf0 81be 685c 47bf 886d 0ebf 3cfe e9be
00000080: 5d7a 59bf 2300 1fbf 507d 1ebf e4e2 90be
00000090: e144 61be 3199 7dbe 4884 6ebe 5d78 1cbf
000000a0: ddf5 cdbe 5651 24bf 802a f0be 2404 e8be
000000b0: c291 2cbf 204e 37bf aeeb 01be bfeb c8be
000000c0: 4fe3 84be 4cee 11bf 891b 40bf f9d4 07bf
000000d0: bde7 3dbf cb78 27bf de0d 04bf 5f50 4ebe
000000e0: 4c77 babe 8739 9ebe 0098 22be 0d8c 12bf
000000f0: bf98 9dbe 7360 30bf 9bd3 14bf 16b7 40bf
00000100: a1b1 cabe 4f4f f8bd 2577 45bf 8c87 99be
00000110: ee52 f4be a238 a1be 0c95 23be 756a ccbe
00000120: b120 02bf bb48 04bf 266d 91be 3d82 3bbf
00000130: bf0d 63be e53e 1bbf b343 bbbe 2e4a 26bf
00000140: 99e3 6cbf a494 03bf 64c9 96be 5166 43be
00000150: d51d dcbe 9357 edbe a9ab e1be 4a71 09bf
00000160: df39 e3be 9ad4 72be 9814 48bf ef6e 15bf
00000170: 91b9 e0bd 8b72 c9be 7897 b3be 45e3 83be
00000180: 25f5 c5be 1cb7 c4be 3026 8dbe 19de 51be
00000190: 8231 b2be 5494 c2be 46be e7be 8e9e 34bf
000001a0: e32f 3bbf 1d10 77be b451 a7be cd66 36be
000001b0: d598 b4be f0e9 cebe dee8 98be c850 fcbe
000001c0: 22f6 d6be 6481 a1be 9440 ebbe 1651 f4be
000001d0: c4de 32bf 2bc2 e4be b614 2abe 8140 17bf
000001e0: 74f6 98be bc7b 15bf b36a 83be b9e7 94be
000001f0: 701d 91be 9b90 a8be 7730 08be 6f1d 1dbf
00000200: c315 0e3f c7a4 b63d 0094 8dbe d713 a33e
00000210: ef30 d43e c141 293e 50ee 65be 17f1 3cbe
00000220: 7eca 8f3e cd90 4f3e 9153 45be f360 663e
00000230: 85ed 043d 90e1 61be 3cb7 e43e 4d3c b73e
00000240: 6a74 923e 4797 c0be 4db7 803c fe7b 9dbd
00000250: 118c 3f3e 3585 593d d3cd bebd a904 37be
00000260: f72b 093e c648 5d3e 2208 bbbd 3970 1bbf
00000270: 1a65 453e 030d 443d e381 a1bd 9787 6c3e
00000280: e740 3cbe a00c 533e 6913 80be e7b2 213e
00000290: 6b49 983d 2159 e6bd 2051 fc3d 435d 923e
000002a0: d249 bfbe 3e0d 853e ecf4 993d 368f 7a3e
000002b0: 7ba5 8cbe e2e0 30be a292 cc3e 1754 0f3e
000002c0: 8966 3bbe 8fe5 70be dee4 83be 5843 383e
000002d0: 7d6a 76be 4033 8f3e 67d4 223e a2c2 823e
000002e0: e97a 723e 370c 10be 3b92 073f 26b1 82be
000002f0: 4753 e93d 9f56 2a3e 5ff7 57bd f812 4dbe
00000300: c0a4 30bf 40fb fabe e099 52bf d175 f2be
00000310: 7466 bcbe 0cff 4bbf a3f9 02bf a8a0 abbe
00000320: 4159 0ebd bf67 bdbe f4f1 c1be d758 27bf
00000330: 2f60 ccbe bb2e 36be 9079 10bf 654e 05bf
00000340: fefe 46bf d848 11bf b78e ddbe 7bf9 c9be
00000350: c25b 5bbe 100f 36bf 7182 0abf a91a 32bf
00000360: 018f 16bf a4b2 08bf bea4 43bf d32a 14bf
00000370: 9429 5ebe 3547 4bbf 1bba 10bf 3a7a d5be
00000380: c96f 55bf e05e 24bf eff7 4dbf b81d bcbe
00000390: f191 d6be d2ea 98be 134b 9bbe 2565 0bbf
000003a0: 6a70 02bf 84e7 2ebf bb72 18bf c91b 12bf
000003b0: aa1a efbe 7db5 4fbf 79ea 0bbf 292b f0be
000003c0: 7547 9ebe c29d 19bf 9076 41bf 116c 0abf
000003d0: 7bdf 25bf 05d5 25bf f2f0 18bf 44aa 08bf
000003e0: adac e3be 0493 d9be 6004 53bf e1ca 0abf
000003f0: 0fee a9be e29a 12bf 2b63 eabe 01f3 60bf
