Ablation Experiments/Transformer-DoubleDQN-QT-Final/ModelParam/2024-2-27/64target-network-TransformerNoguiadance.pth (torch, 851744 bytes, 18 tensors)

encoder.self_attn.in_proj_weight f4 [30, 10]
-4.7695975 4.369959 -7.3981194 5.5556765 2.6176257 9.531515 9.416911 5.3640656
-10.816501 -7.837863 9.9743805 -13.431363 -3.8191009 -6.256956 -7.196842 -5.9915156
-4.494528 2.5876486 9.365579 11.122797 0.65543056 2.4529116 8.338679 0.48028764
0.9921575 0.21184604 0.5581736 -4.9990916 4.471399 1.5478008 7.0146036 -10.456515
-1.743258 -8.217908 -7.3808966 -5.341177 -4.4055915 -5.252038 3.5566885 6.881373
-7.08856 9.022624 3.3565075 8.407658 7.7780085 4.5651846 3.6877315 4.338462
-3.5530114 -7.373695 3.7166421 -2.2191937 -4.1310296 4.961728 2.0162787 0.8963775
1.4955897 -2.4100676 7.549145 4.2551394 -10.283269 12.645585 1.4274089 7.0936675
6.542059 6.5042315 5.6370196 2.4899592 -11.152461 -12.151065 8.997556 -11.110265
-0.24484666 -8.502535 -7.345077 -6.3841023 -5.4684215 -1.5045823 6.967978 9.889048
-4.654079 3.864683 4.547892 -3.7052429 -1.1540644 0.13457961 -0.6775881 -0.3685631
-8.27373 -5.5950875 3.6775725 -3.0119085 0.15381971 1.8407991 0.51916784 -0.22108975
-1.1076831 -0.58928454 9.81132 5.769995 -0.5889904 2.0133386 -1.5299368 3.569764
1.9065703 0.94090027 1.0392559 -48.09133 0.37521973 -0.05410835 2.344015 0.48777968
6.5960584 -1.1913797 0.42392462 -0.24212712 -0.5335873 52.30452 -0.40943876 0.4119233
-2.997713 -2.9645422 -3.895553 -4.709999 -3.0936294 -0.66141313 -0.9905626 49.459553
-0.28026748 -0.7521405 2.1566136 -0.6494562 3.2016249 -2.3493147 -0.46176127 -0.24159285
-0.019466726 48.295925 -0.4446081 1.1675265 -2.5415158 1.3507988 -3.4854364 3.0286942
-0.007629124 -0.3272525 0.36772025 -48.410667 0.29462612 -2.2912893 1.0794189 0.20544057
3.0357027 -1.617198 0.47717848 -0.61945397 -0.904168 47.82723 -0.2447067 -2.0339894
-1.3900179 1.7944965 -2.3700743 3.1022484 0.6008656 0.43642706 0.48006034 -51.394
0.9905719 -0.47311452 1.6800777 -1.148476 2.6117208 -2.6540778 -0.29010925 -0.24143194
-0.47994813 50.7082 -0.33962762 2.2276242 -1.2145053 -0.69689786 -3.911892 0.93408954
-0.63383913 0.9494893 0.6166728 -47.834274 0.22296733 1.6566262 1.9214821 0.87897694
5.2395706 -0.4644102 0.77182734 -1.1517149 -0.7932955 50.87271 -0.2862121 -0.36345598
-2.7977078 1.0767301 -0.5088654 1.5420368 2.430213 -1.3462133 0.6490346 6.3742514
-2.2404213 -1.65692 -2.7692113 0.901814 1.2201747 -4.4205317 -3.8665235 -0.5253979
0.34064573 -16.960411 0.82975614 1.0970885 -2.6355252 0.939711 -0.61703664 2.7480764
3.7681339 -1.5904204 0.13187093 7.5365396 -2.5047104 -1.4578366 6.23804 -1.6599008
0.2289564 5.138127 2.9112766 3.4658577 2.247144 12.805869 0.58509743 0.9274754
-7.5859375 0.62812024 0.29832128 -3.7450838 -2.8550854 -1.6372869 -0.64332026 -18.829508
-1.0348002 -1.6361064 6.0054464 -2.8423686 -1.1182845 0.16938035 0.80107677 2.879347
00000000: 8ba0 98c0 b4d6 8b40 65bd ecc0 1ac8 b140
00000010: 2e87 2740 1681 1841 abab 1641 6da6 ab40
00000020: 6310 2dc1 c6cf fac0 1097 1f41 dde6 56c1
00000030: 266c 74c0 fc38 c8c0 884c e6c0 7fba bfc0
00000040: 2cd3 8fc0 099c 2540 69d9 1541 faf6 3141
00000050: 4cca 273f 81fc 1c40 3b6b 0541 43e8 f53e
00000060: 09fe 7d3f 2bee 583e 77e4 0e3f 8ff8 9fc0
00000070: b315 8f40 561e c63f a277 e040 e34d 27c1
00000080: 1423 dfbf 8d7c 03c1 4e30 ecc0 ecea aac0
00000090: 9bfa 8cc0 b210 a8c0 c9a0 6340 3534 dc40
000000a0: 7cd5 e2c0 ab5c 1041 05d1 5640 c485 0641
000000b0: 72e5 f840 fe15 9240 cb03 6c40 aed4 8a40
000000c0: 8a64 63c0 4ff5 ebc0 77dd 6d40 4507 0ec0
000000d0: 6531 84c0 7ac6 9e40 b60a 0140 ff78 653f
000000e0: 7c6f bf3f 8c3e 1ac0 9992 f140 1a2a 8840
000000f0: 4588 24c1 5154 4a41 56b5 b63f 53ff e240
00000100: 8c58 d140 aa22 d040 7762 b440 7e5b 1f40
00000110: 7b70 32c1 c36a 42c1 fdf5 0f41 a5c3 31c1
00000120: 15b9 7abe 620a 08c1 df0a ebc0 914a ccc0
00000130: 4ffd aec0 2796 c0bf adf9 de40 8a39 1e41
00000140: 37ee 94c0 f756 7740 5588 9140 b322 6dc0
00000150: 62b8 93bf 3dcf 093e 6a76 2dbf 4db4 bcbe
00000160: 3361 04c1 f50a b3c0 595d 6b40 1cc3 40c0
00000170: ea82 1d3e 4e9f eb3f 2fe8 043f 5a65 62be
00000180: 8fc8 8dbf 5adb 16bf 2bfb 1c41 cda3 b840
00000190: 13c8 16bf 8ada 0040 f8d4 c3bf 0377 6440
000001a0: 7f0a f43f d7de 703f 5606 853f 865d 40c2
000001b0: cd1c c03e b8a0 5dbd 5704 1640 42be f93e
000001c0: e912 d340 217f 98bf a60c d93e 2cf0 77be
000001d0: 2d99 08bf d437 5142 f5a1 d1be 9ce7 d23e
000001e0: 88da 3fc0 0fbb 3dc0 be50 79c0 50b8 96c0
000001f0: 06fe 45c0 5f52 29bf 8395 7dbf 95d6 4542
00000200: 387f 8fbe 488c 40bf f505 0a40 c342 26bf
00000210: 6ce7 4c40 2c5b 16c0 f96b ecbe 1e64 77be
00000220: af78 9fbc 072f 4142 aca3 e3be 8271 953f
00000230: 32a8 22c0 fae6 ac3f 6411 5fc0 20d6 4140
00000240: bbfd f9bb a48d a7be d445 bc3e 86a4 41c2
00000250: 3cd9 963e 7ca4 12c0 662a 8a3f 035f 523e
00000260: f448 4240 5800 cfbf bd50 f43e 8994 1ebf
00000270: 8e77 67bf 154f 3f42 6594 7abe e22c 02c0
00000280: 1bec b1bf 10b2 e53f 4caf 17c0 3d8b 4640
00000290: 54d2 193f 5e73 df3e 78ca f53e 7593 4dc2
000002a0: 1f96 7d3f 113c f2be c90c d73f 4301 93bf
000002b0: 6f26 2740 69dc 29c0 3389 94be ef39 77be
000002c0: c3bb f5be 32d5 4a42 ace3 adbe 6591 0e40
000002d0: e974 9bbf e667 32bf 705c 7ac0 7e20 6f3f
000002e0: 4843 22bf bb11 733f 45de 1d3f 4c56 3fc2
000002f0: 8c51 643e 540c d43f 20f3 f53f a204 613f
00000300: 90aa a740 2cc7 edbe 7a96 453f 656b 93bf
00000310: 6a15 4bbf a87d 4b42 648a 92be e716 babe
00000320: a50d 33c0 4bd2 893f 0145 02bf 7661 c53f
00000330: 9c88 1b40 b850 acbf 2227 263f def9 cb40
00000340: 1063 0fc0 f415 d4bf c23a 31c0 48dd 663f
00000350: af2e 9c3f ff74 8dc0 1f75 77c0 7a80 06bf
00000360: 1e69 ae3e ecae 87c1 e66a 543f 656d 8c3f
00000370: 72ac 28c0 e690 703f 1df6 1dbf 7ce0 2f40
00000380: 1b29 7140 e592 cbbf 2c09 073e 552b f140
00000390: 2d4d 20c0 649a babf 069e c740 a177 d4bf
000003a0: 8c73 6a3e 896b a440 5b52 3a40 9dd0 5d40
000003b0: 35d1 0f40 d7e4 4c41 f2c8 153f 076f 6d3f
000003c0: 00c0 f2c0 7dcc 203f 91bd 983e 74af 6fc0
000003d0: b8b9 36c0 9e92 d1bf a3b0 24bf d5a2 96c1
000003e0: 5574 84bf ef6b d1bf 9e2c c040 5ee9 35c0
000003f0: f223 8fbf 0b72 2d3e 5e13 4d3f 3947 3840

encoder.self_attn.in_proj_bias f4 [30]
-12.305938 8.419414 7.2333527 2.4525898 -3.1119897 9.745839 -9.292344 6.6719213
-10.889484 11.648822 -0.2905908 0.4458231 0.5306663 0.37449268 0.028283007 0.0012308352
0.26135716 0.20569031 -0.41106424 0.839447 -2.8016365 1.205435 -3.0266607 -0.14894581
-0.73827255 0.20176493 -0.46507722 -0.03706592 0.00042049613 -0.63327205
00000000: 1fe5 44c1 ebb5 0641 a077 e740 3bf7 1c40
00000010: d72a 47c0 f5ee 1b41 71ad 14c1 6180 d540
00000020: 543b 2ec1 9361 3a41 51c8 94be ed42 e43e
00000030: bfd9 073f 81bd bf3e c4b1 e73c fa53 a13a
00000040: 9bd0 853e 7ba0 523e 0377 d2be 00e6 563f
00000050: 034e 33c0 b24b 9a3f cfb4 41c0 4085 18be
00000060: 6eff 3cbf 779b 4e3e 9a1e eebe 6fd2 17bd
00000070: 0976 dc39 1e1e 22bf

encoder.self_attn.out_proj.weight f4 [10, 10]
-1.8199428 -0.5248326 -1.8246728 2.9996212 -2.6883721 2.5493364 1.4757932 -2.0682793
2.3931522 -2.798901 0.25697497 0.13732651 0.28956133 1.492431 0.08744956 0.4985686
0.9573626 1.1934038 2.27221 -1.7025136 0.99222404 0.7104608 0.6511119 -1.6688462
2.7440994 -1.5894246 -1.7549486 2.9812164 -0.4863907 2.3568692 -2.1287954 -0.037574485
-1.847122 0.33446977 -2.9269528 0.28550962 0.32288417 -3.3318274 0.10701445 -1.8947699
-0.06929278 1.0033376 -0.3506216 -2.1739311 2.8487144 -1.3746861 -2.131551 2.8690372
-0.34456307 1.5500178 4.987324 -2.8084126 4.9604273 0.8881721 0.1961378 2.19214
2.0188918 -0.18233724 1.17626 -0.42086855 -2.064333 0.012549597 -1.2631407 -1.2740084
2.122406 0.0035317768 -2.0104065 2.9664927 -0.7816936 1.4764448 -0.09703333 0.019328913
0.5424831 -1.175654 0.109015815 -1.7486187 -1.9419825 -1.3862216 -1.4946998 2.6765327
-0.7602164 -0.8151156 -0.6502376 1.7257872 -4.647022 0.78170407 2.78664 -4.4446836
1.4422953 -3.4046447 -0.07091319 0.97051364 0.13029914 -1.9184223 -1.0602479 -1.6185032
-1.2049056 -3.6583886 -2.641139 0.5261233
00000000: e3f3 e8bf 6e5b 06bf e18e e9bf cbf9 3f40
00000010: 4a0e 2cc0 5428 2340 cbe6 bc3f b05e 04c0
00000020: 6829 1940 3221 33c0 3992 833e 529f 0c3e
00000030: 6241 943e fb07 bf3f c118 b33d 6244 ff3e
00000040: b715 753f 75c1 983f e36b 1140 f7eb d9bf
00000050: 6502 7e3f c2e0 353f 45af 263f c19c d5bf
00000060: 539f 2f40 4472 cbbf 28a2 e0bf 40cc 3e40
00000070: 3408 f9be f2d6 1640 2f3e 08c0 b4e7 19bd
00000080: 7e6e ecbf 9f3f ab3e 3253 3bc0 512e 923e
00000090: 1351 a53e a93c 55c0 642a db3d d287 f2bf
000000a0: 5fe9 8dbd 5e6d 803f ad84 b3be b021 0bc0
000000b0: 5651 3640 b7f5 afbf 556b 08c0 4e9e 3740
000000c0: 926a b0be fc66 c63f 2998 9f40 08bd 33c0
000000d0: d2bb 9e40 3f5f 633f 59d8 483e 064c 0c40
000000e0: 8635 0140 9db6 3abe b08f 963f 157c d7be
000000f0: 081e 04c0 d39c 4d3c 98ae a1bf b512 a3bf
00000100: 80d5 0740 6275 673b 80aa 00c0 04db 3d40
00000110: 121d 48bf 25fc bc3f 69b9 c6bd ab57 9e3c
00000120: 2ce0 0a3f d57b 96bf af43 df3d bdd2 dfbf
00000130: e292 f8bf b66f b1bf 5352 bfbf 504c 2b40
00000140: 8b9d 42bf 6aab 50bf f975 26bf 98e6 dc3f
00000150: 67b4 94c0 c21d 483f 4f58 3240 d93a 8ec0
00000160: 229d b83f b3e5 59c0 ef3a 91bd 9573 783f
00000170: 236d 053e dd8e f5bf 34b6 87bf 1d2b cfbf
00000180: 593a 9abf 0a23 6ac0 6c08 29c0 04b0 063f

encoder.self_attn.out_proj.bias f4 [10]
2.7926867 -1.4085833 -3.7361255 2.9287887 -1.6431314 -3.1840818 -0.19465263 -0.45972955
2.1152372 0.83872026
00000000: 61bb 3240 754c b4bf ae1c 6fc0 4671 3b40
00000010: 2152 d2bf ffc7 4bc0 0553 47be ac61 ebbe
00000020: 0c60 0740 5fb6 563f

encoder.linear1.weight f4 [64, 10]
-0.5079002 -3.8396375 1.1459736 -2.257224 -3.5447884 -0.33779684 -1.4925379 0.33797807
0.21319503 3.960837 1.4355059 -5.484059 -1.4857929 0.7164033 -4.8053913 5.7818637
-5.263643 -1.0394242 2.8362825 1.2355684 0.5104874 -1.5745418 0.4138803 1.0477474
-0.0632981 0.30887344 -1.9149202 0.41424835 0.7892036 4.0987034 4.664841 2.5616841
-2.73851 4.9967422 0.570489 -4.727049 2.661685 -6.4207935 1.4748456 0.23822977
0.034351494 -1.4271007 -0.44425863 0.112643965 -1.156904 0.30741894 -1.860528 -0.6562783
1.0245595 2.226794 -0.06985013 -1.5052083 0.34628505 -0.04459154 -1.6212392 0.3665748
-0.8865112 0.8251508 0.8790614 2.5390308 0.07267516 1.1187755 2.05741 -0.6645816
1.8877815 -2.8704097 1.7325525 -0.6262294 -5.0544624 -1.9784232 0.63062096 -2.4282546
0.73854923 -0.543929 -2.6152902 -0.19038013 -2.9605517 -0.6066092 0.8272648 3.7945774
-1.8501805 -0.8905481 0.7999156 -1.102283 0.10708905 1.7485274 -0.90717256 0.6328183
0.045718085 1.3331987 -2.2527514 1.600485 4.888094 -3.2100313 1.9339082 -0.41437143
0.83570355 -1.7380843 -3.8838482 -1.2582127 0.05764466 -1.2643231 -0.28014177 -0.88801575
-1.5381476 1.0561266 -0.9708533 0.011337915 0.95879143 2.5569165 -1.8044138 -1.2928224
0.4045619 -0.91679233 -0.46046513 1.1383377 -1.0339006 1.698556 -0.19072837 1.0233637
-0.9087391 0.4039511 3.756372 -4.6792865 0.9033936 -0.5347595 0.22211568 0.7183013
-1.3697795 -1.1110694 3.803943 4.466592 -3.0347688 2.3693357 -0.0241927 -4.1461744
6.4094796 -3.3787131 0.30943668 -5.0131936 -2.7732737 1.4486563 1.4689653 -2.8885863
0.10066869 2.74783 0.729736 -1.6973848 -1.8555207 0.07466111 0.45692784 -0.66786563
-0.58387345 -0.010187654 -3.2485049 0.32937542 -3.1045475 0.34442008 1.729335 3.1091099
-1.7981457 2.4596786 3.5233295 -2.9984648 2.245698 -1.3917985 2.077663 -1.9990063
-3.776688 -1.5057473 -3.3253534 0.8926477 1.9839883 -2.7788153 2.1091263 3.0480025
0.9851651 -1.9205598 -2.7001293 -1.0029432 -0.44248396 -0.37741742 -0.07046534 0.17673367
0.37339854 0.28083012 -0.46893844 0.7855589 0.060045745 0.06936256 1.6628186 -1.373704
-2.448585 1.729528 -2.6491513 -1.2550136 -3.7623975 2.2645216 2.935672 2.5929115
-2.8103163 0.31763497 1.1632518 -1.0863171 1.63981 -0.43820462 0.84161353 -2.2683473
-1.3225884 0.41991538 1.0856777 -0.1245262 -0.7011654 0.044640023 -0.10136559 0.96145695
-1.0316019 -0.33426046 -0.1547287 -0.27738434 0.14653651 -0.44277188 0.07436643 -0.27166376
-1.5606018 0.27812755 -1.5500573 0.7266149 1.6114588 2.842911 0.82010293 -1.2794981
-0.10694312 0.5502538 -4.1485605 -0.3744687 -3.0117016 -0.5100793 1.639148 4.4856615
0.15521432 -1.0700706 0.16521165 0.45606586 -0.74396694 0.5792571 -1.2559088 0.75993615
0.64942193 2.555203 -1.0306779 0.46569556 3.7938223 -4.077699 2.170301 -0.3759387
00000000: bf05 02bf 9fbc 75c0 43af 923f 5c76 10c0
00000010: d0dd 62c0 b5f3 acbe 7b0b bfbf 760b ad3e
00000020: cc4f 5a3e 5a7e 7d40 a8be b73f 697d afc0
00000030: 762e bebf 3566 373f c4c5 99c0 0705 b940
00000040: c36f a8c0 da0b 85bf a785 3540 1b27 9e3f
00000050: 4daf 023f 968a c9bf 1ee8 d33e 961c 863f
00000060: 6fa2 81bd a924 9e3e 1b1c f5bf 5c18 d43e
00000070: 3f09 4a3f 9428 8340 6146 9540 a2f2 2340
00000080: bf43 2fc0 50e5 9f40 910b 123f fc43 97c0
00000090: 0c59 2a40 2477 cdc0 bec7 bc3f 81f2 733e
000000a0: 27b4 0c3d 3cab b6bf de75 e3be e1b1 e63d
000000b0: 6e15 94bf 0466 9d3e c825 eebf db01 28bf
000000c0: c424 833f cb83 0e40 960d 8fbd aaaa c0bf
000000d0: 464c b13e 9ea5 36bd c484 cfbf b1af bb3e
000000e0: 66f2 62bf 153d 533f 2b0a 613f 7b7f 2240
000000f0: b7d6 943d 0934 8f3f 9bac 0340 0522 2abf
00000100: d3a2 f13f cbb4 37c0 48c4 dd3f 9250 20bf
00000110: 28be a1c0 f93c fdbf 6070 213f 8668 1bc0
00000120: 9011 3d3f ee3e 0bbf ea60 27c0 02f3 42be
00000130: ae79 3dc0 be4a 1bbf a0c7 533f 5bda 7240
00000140: b7d2 ecbf f6fa 63bf 45c7 4c3f 9c17 8dbf
00000150: 8151 db3d bfcf df3f 763c 68bf 6100 223f
00000160: e342 3b3d 41a6 aa3f 142d 10c0 b1dc cc3f
00000170: 446b 9c40 2771 4dc0 4e8a f73f 7e28 d4be
00000180: abf0 553f 8c79 debf f890 78c0 1d0d a1bf
00000190: cf1c 6c3d 57d5 a1bf be6e 8fbe 0055 63bf
000001a0: 05e2 c4bf 282f 873f d889 78bf aac2 393c
000001b0: 5b73 753f 85a4 2340 08f7 e6bf 347b a5bf
000001c0: bd22 cf3e e7b2 6abf 16c2 ebbe 0db5 913f
000001d0: db56 84bf 486a d93f 4c4e 43be 95fd 823f
000001e0: 20a3 68bf aed2 ce3e 6668 7040 b7bc 95c0
000001f0: ce44 673f 00e6 08bf 4b72 633e 98e2 373f
00000200: ef54 afbf 8637 8ebf cd73 7340 52ee 8e40
00000210: a739 42c0 32a3 1740 c52f c6bc 76ad 84c0
00000220: 751a cd40 d63c 58c0 7c6e 9e3e 156c a0c0
00000230: 517d 31c0 926d b93f 0e07 bc3f 99de 38c0
00000240: 632b ce3d 72dc 2f40 facf 3a3f e843 d9bf
00000250: b481 edbf ede7 983d 72f2 e93e 3ef9 2abf
00000260: bb78 15bf 1eea 26bc 81e7 4fc0 e5a3 a83e
00000270: e8b0 46c0 d457 b03e d95a dd3f a8fb 4640
00000280: a329 e6bf 606b 1d40 3b7e 6140 d9e6 3fc0
00000290: 84b9 0f40 7426 b2bf 6ef8 0440 70df ffbf
000002a0: 42b5 71c0 54bc c0bf 97d2 54c0 8f84 643f
000002b0: 54f3 fd3f 1cd8 31c0 edfb 0640 7912 4340
000002c0: c833 7c3f e7d4 f5bf ebce 2cc0 7160 80bf
000002d0: 428d e2be db3c c1be 2250 90bd acf9 343e
000002e0: 182e bf3e f7c8 8f3e b318 f0be 631a 493f
000002f0: 87f2 753d f50d 8e3d 3dd7 d43f 88d5 afbf
00000300: 9eb5 1cc0 2c61 dd3f b28b 29c0 49a4 a0bf
00000310: 1fcb 70c0 eced 1040 0de2 3b40 43f2 2540
00000320: 39dc 33c0 0da1 a23e 6fe5 943f 700c 8bbf
00000330: 4be5 d13f 5b5c e0be fc73 573f 9a2c 11c0
00000340: 944a a9bf 26ff d63e 7df7 8a3f 9807 ffbd
00000350: 937f 33bf 75d8 363d c398 cfbd 0b22 763f
00000360: 880b 84bf 3024 abbe 3371 1ebe 5205 8ebe
00000370: ab0d 163e ffb2 e2be 6d4d 983d 8317 8bbe
00000380: cdc1 c7bf bc66 8e3e 4768 c6bf 6f03 3a3f
00000390: 4844 ce3f 41f2 3540 44f2 513f 98c6 a3bf
000003a0: ff04 dbbd 6fdd 0c3f 02c1 84c0 5dba bfbe
000003b0: b8bf 40c0 8f94 02bf 9acf d13f 8a8a 8f40
000003c0: 81f0 1e3e 13f8 88bf 3e2d 293e 7781 e93e
000003d0: 9e74 3ebf 314a 143f 9fc1 a0bf 2d8b 423f
000003e0: 8440 263f 7288 2340 41ed 83bf a66f ee3e
000003f0: fccd 7240 837c 82c0 36e6 0a40 0a7b c0be

encoder.linear1.bias f4 [64]
-0.422271 1.1871605 -0.10238627 3.4041548 0.25344795 0.7449998 1.0221914 0.60916746
-1.6538911 -0.67740667 0.62374055 -2.2183337 -0.73560923 2.841671 1.7638462 1.1575667
1.0299934 0.43659917 -0.52917695 1.9226245 -0.9798227 0.4956105 0.7313771 0.83983314
0.19022816 -0.4919068 1.9221019 -0.7026125 -0.37569723 1.5772694 0.14002861 0.91304827
2.2228923 2.475706 0.1687377 -1.4235048 -0.26477072 0.7754876 -0.034816537 2.8057847
2.508459 -1.6079477 0.06107758 1.7344086 0.6825139 -0.8361691 0.33697978 0.52338487
1.862971 0.09582088 0.63483596 0.35696733 1.8973829 -1.3792208 2.5326064 1.5156361
-1.1939788 0.89993685 5.2417727 2.3017974 -0.17161809 -1.7121973 0.05267452 2.0778303
00000000: e833 d8be e0f4 973f e5af d1bd acdd 5940
00000010: eec3 813e 4fb8 3e3f 2bd7 823f 66f2 1b3f
00000020: b4b2 d3bf 866a 2dbf 76ad 1f3f 2ef9 0dc0
00000030: e350 3cbf f0dd 3540 b6c5 e13f 252b 943f
00000040: d3d6 833f ed89 df3e 2478 07bf 8f18 f63f
00000050: a9d5 7abf a9c0 fd3e 883b 3b3f 4eff 563f
00000060: 2ccb 423e 35db fbbe 6f07 f63f 6ade 33bf
00000070: 635b c0be f7e3 c93f a963 0f3e 88bd 693f
00000080: de43 0e40 f871 1e40 93c9 2c3e 6835 b6bf
00000090: 0790 87be 5b86 463f c99b 0ebd fa91 3340
000000a0: 988a 2040 3bd1 cdbf 7c2c 7a3d 1a01 de3f
000000b0: 3bb9 2e3f 2e0f 56bf 9d88 ac3e 8dfc 053f
000000c0: d575 ee3f bd3d c43d 9c84 223f 6cc4 b63e
000000d0: 71dd f23f 4f8a b0bf 3916 2240 5d00 c23f
000000e0: 4cd4 98bf 4362 663f 9abc a740 a650 1340
000000f0: a7bc 2fbe 4829 dbbf 3dc1 573d 2cfb 0440

encoder.linear2.weight f4 [10, 64]
-1.9101222 5.20458 0.267869 -3.2704425 -0.089455545 0.38908148 0.03324688 -0.48728755
-2.6554382 -2.6728768 -0.27999613 -0.9812265 -0.95318353 -5.1996255 0.4115677 -0.18698251
-2.0658758 -3.350701 -0.18073829 -1.3034716 0.07175994 -1.1145803 0.058016643 -0.6429542
-0.107362844 -1.6387908 -0.625496 0.031380672 -0.71530735 -0.5589003 -0.27773377 -0.87668866
-0.14704564 -2.6731226 0.514409 -3.9365313 -4.0096607 1.0393515 -2.925852 -0.98754066
-0.22093004 -0.24435541 -0.08953044 -2.3222523 0.1120125 -3.0601032 1.7246908 1.0727669
-2.5745573 0.54167825 -0.7473211 -1.9113823 -1.2626636 -0.5253224 -3.193064 4.0451837
-1.1809756 -2.463359 -2.8549166 -1.8721681 4.4371758 0.22409827 4.044213 -1.4083339
-2.8606975 -2.525821 -0.2826691 -2.1217654 -0.7250609 -0.9093761 -1.2955985 -0.15556768
0.19207583 -1.3562514 -1.455452 -0.035813227 2.4838057 2.4639487 -2.0473094 -0.567213
0.05288021 -3.9974036 -0.7556704 0.5620533 0.0667667 1.4272763 -1.0339714 -0.53763616
-0.84880126 3.2658455 -0.3135688 -0.82466096 1.3934325 0.7467162 -0.75967 -2.1551635
4.356185 0.8734989 -0.8626349 4.687756 -3.415274 -2.539357 2.856584 0.9195029
7.7599344 -0.903208 -0.9902797 -2.6406145 -1.6357629 3.3898368 -2.8180997 -0.44644105
-3.1293104 4.073916 -3.6568851 1.4201522 -0.36309424 -0.08278436 3.783379 -4.967458
-0.58977634 -0.47304177 -0.03340297 -1.5889091 -4.173993 -0.6497608 -2.5677881 0.042891208
5.1756835 0.9214502 1.5447786 5.0202317 2.032567 1.604047 1.2965363 1.8219705
-0.13714965 2.3268988 1.3749748 -0.10890491 -1.4104618 -1.0728512 4.5381646 2.2956994
1.9394819 3.9831324 -0.20236224 4.4414444 0.0010798505 1.8237585 1.9583485 2.5410385
1.801258 -0.45026708 5.0381503 0.35077092 1.7141474 2.9533763 1.7733744 4.199465
-4.797294 2.7370293 1.7772051 -2.7296753 1.2639555 -1.6266876 -1.4986782 4.463243
-4.757155 0.23010033 1.943607 4.725371 1.4616064 -0.7042338 -0.64341396 1.7265371
1.6267769 1.5827069 3.4061806 -1.0314673 2.754217 0.35647875 0.37786987 3.1690252
1.0241258 0.87025094 2.4258282 2.2190979 3.5194564 0.1668157 -2.0566337 2.3678858
1.1787719 -5.31614 1.8279482 2.8750343 1.5249449 2.1387062 3.3372507 2.3649373
1.5980414 1.7928249 1.8334113 0.048086185 0.9339395 11.021918 1.580362 1.6977309
3.7671683 3.7062614 -1.0114601 1.0453613 1.3698548 3.0226161 1.5977535 2.1964269
1.5818949 0.024237586 1.6285025 -0.29343823 2.585773 4.492634 1.2217518 1.5025789
0.5788583 6.505449 2.0510817 -0.7297696 4.103057 -0.58438724 1.8797511 1.5754987
-1.1745898 -0.5464012 1.5682477 2.7087815 1.804863 1.4847202 0.130047 2.3147879
3.3615887 -2.6871734 -1.5394516 1.05968 2.761595 -0.11666152 -1.7443736 -2.905142
-0.31380108 2.3376822 11.014058 4.369111 11.703937 0.33468682 -0.06344461 2.9355278
00000000: e27e f4bf eb8b a640 2026 893e ee4e 51c0
00000010: 7834 b7bd b035 c73e e12d 083d c17d f9be
00000020: b3f2 29c0 6a10 2bc0 a75b 8fbe a931 7bbf
00000030: d603 74bf 5563 a6c0 00b9 d23e 5878 3fbe
00000040: 4f37 04c0 e371 56c0 7513 39be 28d8 a6bf
00000050: e0f6 923d 91aa 8ebf dca2 6d3d a598 24bf
00000060: 0de1 dbbd e6c3 d1bf 8120 20bf 0589 003d
00000070: 621e 37bf 1714 0fbf 1f33 8ebe ab6e 60bf
00000080: 2293 16be 7114 2bc0 4fb0 033f 21f0 7bc0
00000090: 244f 80c0 7809 853f 2941 3bc0 77cf 7cbf
000000a0: 7c3b 62be 4e38 7abe bc5b b7bd c89f 14c0
000000b0: cf66 e53d bbd8 43c0 abc2 dc3f 6d50 893f
000000c0: 8cc5 24c0 6dab 0a3f 7050 3fbf 2da8 f4bf
000000d0: f69e a1bf 877b 06bf 295b 4cc0 2572 8140
000000e0: 352a 97bf ada7 1dc0 f4b6 36c0 34a3 efbf
000000f0: 58fd 8d40 047a 653e 316a 8140 4944 b4bf
00000100: ab15 37c0 0da7 21c0 01ba 90be 01cb 07c0
00000110: 979d 39bf dfcc 68bf 2cd6 a5bf 224d 1fbe
00000120: 87af 443e a599 adbf 404c babf e4b0 12bd
00000130: acf6 1e40 56b1 1d40 1e07 03c0 df34 11bf
00000140: eb98 583d 76d5 7fc0 9e73 41bf bae2 0f3f
00000150: fbbc 883d fdb0 b63f 2d59 84bf 86a2 09bf
00000160: 0a4b 59bf 9d03 5140 178c a0be fb1c 53bf
00000170: ff5b b23f cb28 3f3f bc79 42bf 33ee 09c0
00000180: de65 8b40 a09d 5f3f a4d5 5cbf 1902 9640
00000190: d993 5ac0 d384 22c0 46d2 3640 8b64 6b3f
000001a0: 6251 f840 a438 67bf f882 7dbf d4ff 28c0
000001b0: ae60 d1bf 16f3 5840 bf5b 34c0 ec93 e4be
000001c0: 9f46 48c0 855d 8240 680a 6ac0 8cc7 b53f
000001d0: 7de7 b9be d98a a9bd e222 7240 6af5 9ec0
000001e0: 95fb 16bf 8832 f2be 8dd1 08bd 6061 cbbf
000001f0: 5a91 85c0 b956 26bf a456 24c0 b1ae 2f3d
00000200: 339f a540 29e4 6b3f 4ebb c53f bda5 a040
00000210: 9415 0240 6951 cd3f e7f4 a53f 5436 e93f
00000220: f570 0cbe e9eb 1440 2dff af3f 8a09 dfbd
00000230: 038a b4bf 3053 89bf a538 9140 bdec 1240
00000240: f140 f83f a4eb 7e40 0c38 4fbe 5020 8e40
00000250: c589 8d3a eb70 e93f 2aab fa3f 60a0 2240
00000260: 9f8f e63f 6889 e6be 8738 a140 3f98 b33e
00000270: 2f69 db3f 1e04 3d40 effd e23f 0462 8640
00000280: 6f83 99c0 7d2b 2f40 757b e33f 00b3 2ec0
00000290: 4bc9 a13f 4d37 d0bf b0d4 bfbf e3d2 8e40
000002a0: 9d3a 98c0 6c9f 6b3e 1dc8 f83f 3d36 9740
000002b0: eb15 bb3f ab48 34bf c7b6 24bf 2bff dc3f
000002c0: 3a3a d03f 2496 ca3f ddfe 5940 1f07 84bf
000002d0: 1745 3040 6284 b63e 2978 c13e 4fd1 4a40
000002e0: 8e16 833f c4c8 5e3f c540 1b40 b305 0e40
000002f0: c63e 6140 bcd1 2a3e e39f 03c0 718b 1740
00000300: ffe1 963f d21d aac0 35fa e93f 9000 3840
00000310: 6531 c33f 90e0 0840 8495 5540 225b 1740
00000320: 9f8c cc3f 497b e53f 39ad ea3f 05f6 443d
00000330: a916 6f3f c759 3041 4d49 ca3f 3f4f d93f
00000340: 4919 7140 6333 6d40 8677 81bf 66ce 853f
00000350: 6757 af3f 8b72 4140 3083 cc3f 4292 0c40
00000360: 887b ca3f e78d c63c c572 d03f 893d 96be
00000370: 4e7d 2540 a8c3 8f40 5d62 9c3f 8154 c03f
00000380: 0f30 143f a32c d040 ec44 0340 2ed2 3abf
00000390: 3e4c 8340 679a 15bf af9b f03f f1a9 c93f
000003a0: f558 96bf f3e0 0bbf 57bc c83f ad5c 2d40
000003b0: c005 e73f 500b be3f 0a2b 053e 7c25 1440
000003c0: 4524 5740 a6fa 2bc0 c00c c5bf 98a3 873f
000003d0: f9bd 3040 3cec eebd a247 dfbf d9ed 39c0
000003e0: 89aa a0be 969c 1540 9539 3041 c2cf 8b40
000003f0: 5343 3b41 125c ab3e 3fef 81bd b0df 3b40

encoder.linear2.bias f4 [10]
-0.4181379 -1.3958029 2.0087605 2.609828 2.0469515 -0.42519784 2.7841258 2.6389956
0.35169613 1.3302976
00000000: 2c16 d6be aba9 b2bf 888f 0040 6c07 2740
00000010: 4101 0340 88b3 d9be 1e2f 3240 4ee5 2840
00000020: 8411 b43e 3147 aa3f

encoder.norm1.weight f4 [10]
2.1103842 0.8356222 1.5179502 1.4178435 -0.6706087 4.2521124 -1.0501691 -0.5170875
1.0921566 0.76440024
00000000: 8910 0740 56eb 553f 314c c23f e57b b53f
00000010: 03ad 2bbf 4e11 8840 f16b 86bf d95f 04bf
00000020: cacb 8b3f bcaf 433f

encoder.norm1.bias f4 [10]
2.170286 1.1081194 -1.0435861 1.1414025 0.43570927 -2.387283 2.375643 -1.7002822
-1.1393459 -1.6163791
00000000: f7e5 0a40 dbd6 8d3f 3b94 85bf 7a19 923f
00000010: 4915 df3e 3fc9 18c0 890a 1840 d9a2 d9bf
00000020: 16d6 91bf 83e5 cebf

encoder.norm2.weight f4 [10]
0.14525495 2.0297372 -0.40950942 0.07398134 0.2794541 -0.05509091 0.2569197 -0.04970696
0.8149209 0.30663806
00000000: b7bd 143e 37e7 0140 38ab d1be 8783 973d
00000010: 9c14 8f3e 02a7 61bd fb8a 833e 8699 4bbd
00000020: a89e 503f aaff 9c3e

encoder.norm2.bias f4 [10]
0.4774729 -3.453677 -0.4742262 0.15851855 -3.439811 -0.72630733 -0.27224395 -0.36448243
-0.18557711 0.14547527
00000000: 5477 f43e 0b09 5dc0 c7cd f2be b052 223e
00000010: dd25 5cc0 47ef 39bf 8f63 8bbe 719d babe
00000020: ed07 3ebe 78f7 143e

l2.weight f4 [64, 3200]
-0.3457727 0.73903936 0.28484526 -0.28418142 0.250683 0.41020733 -0.5843588 0.035778828
0.15135658 -0.34668258 -0.5963056 0.18542628 0.115608774 -0.6861462 0.29265293 -0.08086167
-0.22781159 0.5355739 0.42820626 -0.83749807 -0.11065553 0.30774495 0.16533849 -0.5423534
0.33371767 0.16322212 -0.24798101 -0.18635973 0.70241654 -0.13064459 -0.30242434 0.7226374
0.25292924 -0.36328742 0.18860207 0.6730606 -0.115778096 0.06131846 0.43657002 0.006589143
0.032565854 0.436108 0.35218576 -0.29064342 0.44162038 0.10639874 -0.10867871 0.14625901
0.698415 -0.44547674 -0.740127 0.5486595 0.23324293 -0.37994277 0.39243147 0.21588652
-0.056523856 0.6202852 0.67698073 -0.4559749 -0.65260106 0.5396001 0.2461899 -0.0021649748
0.20268895 0.3028514 -0.108475104 0.025735756 0.29574302 0.0036763072 -0.5968341 0.6924308
0.21845827 -0.4333824 0.31443298 0.19281305 -0.1520047 0.3511489 -0.035684753 -0.28171188
-0.972232 0.61746836 0.21082251 -0.49583903 0.48546317 0.27371088 -0.20845826 0.18808821
0.39812425 -0.326658 -0.5016985 0.5593327 0.3356183 -0.25206658 0.1298642 0.46280798
-0.24301858 0.1344017 0.57914543 -0.43231905 -0.38163325 0.5471747 0.4722552 -0.17775047
0.25203642 0.26727065 -0.3424748 0.14738367 0.7277354 -0.15454294 -0.8416662 0.63001925
0.17308006 -0.41292483 0.6233436 0.22386177 -0.2484093 0.31520033 0.26382375 0.11492987
-0.34502634 0.42350143 0.30110624 -0.45881754 0.36580616 -0.08514552 -0.14696088 0.15369578
0.14794289 -0.5432253 -0.66646904 0.58013403 0.19378778 -0.6228536 0.37283686 0.19787915
-0.015154426 -0.06496633 -0.122593515 -0.036691148 -0.35774603 0.5348842 0.24660252 -0.34346613
0.2738987 0.060622916 -0.0032410566 0.6796217 0.8058124 0.24911247 -0.9119845 0.4333833
0.23001978 -0.41563654 0.108704366 0.25140983 -0.16614784 0.27005023 -0.21777762 -1.0175631
-0.5672676 0.50277925 0.63329226 -0.3166846 0.3349855 0.19790322 -0.45120004 -0.10902393
-0.10136685 -0.95307577 -0.62757003 0.5237089 0.18736403 -0.53033555 0.27627444 0.39581996
-0.2933163 0.30613837 0.35871205 0.3741445 -1.1512614 0.6981302 0.15628017 -0.34215233
0.24104041 0.19769962 0.18548085 0.3021258 0.48661214 -0.17057107 -0.62463814 0.6250374
0.4183926 -0.8421314 0.14417797 0.35266465 -0.2563097 -0.097311124 0.48557922 -0.7069303
-0.47700608 0.58486104 0.2578752 0.076971084 0.6048669 0.13935496 -0.1845526 0.2956423
0.88509786 -0.39953992 -0.55048305 0.71525997 0.09307933 -0.5356065 0.25608706 0.06922606
-0.26820347 0.14560087 -0.16297999 0.0456757 -0.4453097 0.3726053 0.14555866 -0.39014938
0.57885593 0.26118255 -0.094346404 -0.058360364 0.16861156 -0.6113633 -0.67055124 0.5019451
0.45855018 -0.34684825 0.47906893 0.085529976 -0.18798593 0.032606486 0.6976246 -0.20262592
-0.46928754 0.5188082 0.43635148 -0.4427931 0.049756628 0.19007125 -0.2604344 0.074308686
0.1851855 -0.80835664 -0.622714 0.7044586 0.35697728 -0.6061787 0.31662294 0.20061113
00000000: 1f09 b1be af31 3d3f 3dd7 913e 3a80 91be
00000010: 8659 803e b206 d23e 8a98 15bf d28c 123d
00000020: 38fd 1a3e 6180 b1be 7ca7 18bf 63e0 3d3e
00000030: 4bc4 ec3d 47a7 2fbf 9bd6 953e ce9a a5bd
00000040: 7147 69be 5f1b 093f da3d db3e 4666 56bf
00000050: 5e9f e2bd bf90 9d3e 7e4e 293e acd7 0abf
00000060: 0bdd aa3e b323 273e bcee 7dbe 16d5 3ebe
00000070: 92d1 333f b2c7 05be 5dd7 9abe c4fe 383f
00000080: f17f 813e cf00 babe e720 413e b34d 2c3f
00000090: 111d edbd 1129 7b3d 1b86 df3e bde9 d73b
000000a0: c663 053d 8c49 df3e b151 b43e 37cf 94be
000000b0: 111c e23e 95e7 d93d f292 debd ecc4 153e
000000c0: 53cb 323f 8715 e4be f778 3dbf f374 0c3f
000000d0: 3cd7 6e3e dc87 c2be c7ec c83e 5b11 5d3e
000000e0: 8f85 67bd 03cb 1e3f 9c4e 2d3f 8b75 e9be
000000f0: dd10 27bf 3b23 0a3f 3519 7c3e 40e2 0dbb
00000100: b18d 4f3e 570f 9b3e 3228 debd cbd3 d23c
00000110: a16b 973e 33ee 703b 1fca 18bf 2543 313f
00000120: 86b3 5f3e 4ce4 ddbe 5cfd a03e c970 453e
00000130: 1fa7 1bbe cac9 b33e 2d2a 12bd 8a3c 90be
00000140: 32e4 78bf 6812 1e3f dbe1 573e 9dde fdbe
00000150: a18e f83e d523 8c3e 1576 55be 329a 403e
00000160: f1d6 cb3e b83f a7be 506f 00bf 6e30 0f3f
00000170: 29d6 ab3e df0e 81be 1ffb 043e 2bf5 ec3e
00000180: ddd9 78be 99a0 093e e042 143f ec58 ddbe
00000190: 6f65 c3be a413 0c3f 6fcb f13e 3804 36be
000001a0: eb0a 813e b3d7 883e db58 afbe bfeb 163e
000001b0: de4c 3a3f 8140 1ebe 7077 57bf f148 213f
000001c0: e63b 313e e26a d3be 7293 1f3f 053c 653e
000001d0: 025f 7ebe f061 a13e e813 873e 5a60 eb3d
000001e0: 4ba7 b0be 2ed5 d83e 992a 9a3e 22ea eabe
000001f0: f24a bb3e c660 aebd ea7c 16be 6d62 1d3e
00000200: 577e 173e d010 0bbf b79d 2abf aa83 143f
00000210: 4e70 463e 5573 1fbf 79e4 be3e d5a0 4a3e
00000220: 454a 78bc 110d 85bd 4f12 fbbd 7549 16bd
00000230: 7d2a b7be 2cee 083f 5f85 7c3e cbda afbe
00000240: 733c 8c3e bc4f 783d e867 54bb b0fb 2d3f
00000250: b949 4e3f 5717 7f3e d177 69bf 6ae4 dd3e
00000260: 4e8a 6b3e 50ce d4be 65a0 de3d cab8 803e
00000270: a922 2abe 0644 8a3e 1901 5fbe 823f 82bf
00000280: 7338 11bf 24b6 003f 711f 223f 7c24 a2be
00000290: 3883 ab3e 24a7 4a3e b103 e7be f047 dfbd
000002a0: 6c99 cfbd c6fc 73bf 6ea8 20bf c911 063f
000002b0: 5bdc 3f3e 12c4 07bf d873 8d3e eaa8 ca3e
000002c0: 8e2d 96be 2bbe 9c3e 1ba9 b73e de8f bf3e
000002d0: 895c 93bf a9b8 323f e907 203e 972e afbe
000002e0: 4cd3 763e c571 4a3e b1ee 3d3e 3cb0 9a3e
000002f0: 3a25 f93e 2faa 2ebe 49e8 1fbf 7302 203f
00000300: 8e37 d63e ec95 57bf 64a3 133e 7690 b43e
00000310: 063b 83be 0e4b c7bd d79d f83e 62f9 34bf
00000320: 243a f4be 74b9 153f 3808 843e 04a3 9d3d
00000330: 8fd8 1a3f 11b3 0e3e 5bfb 3cbe 6d5e 973e
00000340: c695 623f 7f90 ccbe 75ec 0cbf 471b 373f
00000350: 60a0 be3d 821d 09bf d81d 833e 64c6 8d3d
00000360: f751 89be 6518 153e 3ae4 26be 7116 3b3d
00000370: a2ff e3be 1fc6 be3e 540d 153e a9c1 c7be
00000380: e72f 143f b8b9 853e b038 c1bd 470b 6fbd
00000390: 82a8 2c3e 4e82 1cbf 3fa9 2bbf 797f 003f
000003a0: 17c7 ea3e 1896 b1be 8648 f53e 572a af3d
000003b0: 627f 40be 618e 053d 8797 323f 2b7d 4fbe
000003c0: 7546 f0be 9dd0 043f 7669 df3e c7b5 e2be
000003d0: 9bcd 4b3d 0aa2 423e a857 85be 272f 983d
000003e0: 45a1 3d3e 76f0 4ebf 2f6a 1fbf 6657 343f
000003f0: bac5 b63e 872e 1bbf 671c a23e 016d 4d3e

l2.bias f4 [64]
-0.6626052 -1.3014977 -0.523182 -0.5532703 -1.4300619 -0.29339892 0.051873583 -0.19491173
-0.9426598 -3.4417417 -1.0588297 -0.56153345 -0.72514856 0.23947948 0.3506994 -1.5750356
-1.0857433 -0.212937 -0.21408474 0.36938033 -7.0267797 -0.5714513 0.65369225 -0.49839455
0.39658824 -0.86442125 -0.74996173 -1.8160814 0.096015856 -0.38773614 -6.492105 -0.8764771
-1.0622007 -0.5251597 -2.3606966 -0.19977742 0.6384578 -0.2553061 -2.323262 -1.2370541
-2.2181513 -0.20046285 -0.19794315 -0.52099055 -0.027534742 -0.5373141 -0.26630476 -0.88331896
-0.004374257 -0.6375661 -0.44694647 -0.32171935 -1.3605604 -0.5230179 -0.4471291 -0.82132715
-1.3152575 -1.1703405 -0.07577204 -0.5135101 -1.4002187 -1.1764094 0.2978693 0.16739267
00000000: 7fa0 29bf 7a97 a6bf 41ef 05bf 1fa3 0dbf
00000010: 450c b7bf 6238 96be 6579 543d f196 47be
00000020: 2752 71bf 7f45 5cc0 bb87 87bf a8c0 0fbf
00000030: 56a3 39bf 1c3a 753e df8e b33e c49a c9bf
00000040: a3f9 8abf 280c 5abe 0839 5bbe 6b1f bd3e
00000050: 61db e0c0 a24a 12bf 6058 273f 922d ffbe
00000060: 9d0d cb3e b64a 5dbf 7efd 3fbf 5b75 e8bf
00000070: f6a3 c43d 5a85 c6be 53bf cfc0 ce60 60bf
00000080: 31f6 87bf de70 06bf a715 17c0 7492 4cbe
00000090: f871 233f 7bb7 82be 53b0 14c0 ca57 9ebf
000000a0: 31f6 0dc0 2246 4dbe 9cb1 4abe a35f 05bf
000000b0: 8a90 e1bc 6b8d 09bf 1959 88be 3121 62bf
000000c0: ed55 8fbb 8837 23bf 2bd6 e4be 66b8 a4be
000000d0: d826 aebf 80e4 05bf 1bee e4be 7f42 52bf
000000e0: 5c5a a8bf b8cd 95bf 5f2e 9bbd 6675 03bf
000000f0: 5e3a b3bf 9594 96bf 5382 983e fc68 2b3e

l3.weight f4 [64, 66]
0.8717249 0.5911305 0.5053492 1.5075443 0.24231084 0.66497743 1.3114469 0.91399354
-0.013259337 0.39143094 -0.097942404 -0.48857903 0.23999733 -0.18322939 -0.8172161 0.13016301
0.7113498 0.7824588 -0.6461667 1.0610198 0.7812571 1.4827944 0.4773365 0.08715876
0.71439636 -0.46986195 -0.54277366 0.89314467 -0.96822804 0.26563102 0.7431134 -0.3422574
0.16121598 0.7993431 0.5566078 0.25002235 -0.3430016 -0.29452795 0.7360161 0.89927614
0.8350013 -0.022960221 0.63698715 -0.36761948 0.36796218 0.6279381 -0.058714647 -0.07109076
0.22228388 0.18999293 0.2762175 0.00021460831 0.7726111 0.6401827 -0.8271443 -0.003408886
-0.48107123 0.45047578 -0.4497445 0.74950343 0.08871785 -0.68350375 -0.6668029 -0.36121222
-0.9510421 -0.63741505 0.46916935 0.25183475 0.14960487 -0.72760814 0.66451806 0.8870684
0.587319 0.3319445 -0.21232209 0.2628357 -0.45808077 0.39306316 0.009980147 0.5665385
0.4454743 0.6220617 0.02232251 -0.18465069 1.3040733 0.83245164 0.016970506 0.08310474
-0.2986367 -0.10331564 -0.00946867 0.28538343 0.31440726 0.08260129 0.37044266 1.1188966
-0.062687084 -0.13580036 0.30820176 0.42448437 0.19131522 -0.20338121 0.18002458 1.2353561
-0.2808307 0.5432824 -0.09939 0.1143495 0.93758136 -0.29642558 0.41058114 -0.19443485
0.81070626 -0.51930743 0.40063214 -0.32261798 -0.13478862 0.39323357 0.4556659 1.6991155
0.64104587 0.14206842 0.14241967 0.96223855 1.1868528 0.06681365 0.48842937 0.35747036
-0.59353036 0.10191744 0.24600202 -0.14359206 -0.75230384 -0.34640062 0.8587309 -0.22651616
-0.1936244 -0.44923025 -0.25054416 0.25376078 -0.48586455 0.210103 0.10802881 -1.1538138
-0.25329828 -0.7247526 -1.4221822 0.31038865 0.36673287 -0.68663603 -0.045655675 0.2762087
0.8182659 -0.17306748 -1.0235054 -0.32648957 -0.33459368 -0.75741905 -0.15000282 0.6250038
-0.6141495 -0.2768441 0.6872766 0.0911277 -0.007863622 1.0062897 0.29441774 -0.75846267
-0.5820914 -0.74515116 0.12948798 0.58661497 -0.17953569 -0.91579103 1.0201863 -0.45566648
-0.03616855 -0.2736526 -0.4166545 -0.114984326 -0.2184637 -0.5468838 -1.0661372 0.8129694
-0.09534994 -0.8909396 -0.18818961 -0.5135496 -0.8612177 -0.6041724 -0.44764477 0.055438146
0.106160834 -0.5342951 -1.4085174 -0.2819839 0.49835396 -0.05776724 0.118537165 -0.17099042
0.023248969 0.2757959 0.20134231 0.46302092 0.9898409 -0.6915031 0.32383248 0.41356117
-0.4526233 0.9129688 0.07648521 -0.7065864 0.9221877 0.22557202 0.353704 0.50313663
0.3277665 0.069862515 0.22435576 0.30548558 0.5306828 0.07086438 0.27463728 1.0916342
0.2883517 1.1710956 0.3306644 0.6979083 0.36306056 0.38097748 0.107124805 0.6777491
0.090479285 0.6165303 0.038566258 -0.008538166 -0.05235916 0.16421013 0.23056248 0.69635445
-0.56288284 0.7314992 0.6304151 -0.3739336 -0.3181305 -0.8751891 -0.25159106 0.68817496
0.1906751 1.3647254 -0.19617973 0.9988067 -0.12741213 0.68729246 0.22281134 -0.11375142
00000000: 5d29 5f3f 5454 173f 915e 013f 36f7 c03f
00000010: 5520 783e f63b 2a3f 7edd a73f 7bfb 693f
00000020: b13d 59bc a369 c83e 0796 c8bd 0827 fabe
00000030: dcc1 753e 7ca0 3bbe 1335 51bf 7449 053e
00000040: 051b 363f 384f 483f 2e6b 25bf 7fcf 873f
00000050: 7700 483f 35cc bd3f 7365 f43e 4b80 b23d
00000060: aee2 363f bf91 f0be 37f3 0abf 21a5 643f
00000070: cbdd 77bf ca00 883e ae3c 3e3f 5d3c afbe
00000080: cd15 253e c0a1 4c3f d97d 0e3f ee02 803e
00000090: e89d afbe 5ecc 96be 8d6b 3c3f f636 663f
000000a0: a5c2 553f 1317 bcbc 9711 233f 9f38 bcbe
000000b0: 8a65 bc3e 8dc0 203f c57e 70bd 0898 91bd
000000c0: 639e 633e 828d 423e 616c 8d3e 7b08 6139
000000d0: d7c9 453f 03e3 233f bbbf 53bf 9e67 5fbb
000000e0: f84e f6be c3a4 e63e e944 e6be 75df 3f3f
000000f0: b4b1 b53d 1afa 2ebf 98b3 2abf cff0 b8be
00000100: 7f77 73bf a22d 23bf f736 f03e 7cf0 803e
00000110: 0532 193e 8744 3abf db1d 2a3f ea16 633f
00000120: 8a5a 163f a1f4 a93e f66a 59be 6792 863e
00000130: 9089 eabe 933f c93e c583 233c ab08 113f
00000140: 3515 e43e 703f 1f3f b2dd b63c 1215 3dbe
00000150: e0eb a63f 8d1b 553f bb05 8b3c d132 aa3d
00000160: e9e6 98be 2697 d3bd 7b22 1bbc c71d 923e
00000170: fdf9 a03e dd2a a93d a9aa bd3e 0138 8f3f
00000180: 1662 80bd 400f 0bbe 9fcc 9d3e 0456 d93e
00000190: 23e8 433e 2a43 50be 5d58 383e 2620 9e3f
000001a0: 0bc9 8fbe 8e14 0b3f fc8c cbbd 1230 ea3d
000001b0: 5505 703f 18c5 97be b137 d23e ee19 47be
000001c0: 728a 4f3f 55f1 04bf a81f cd3e 2f2e a5be
000001d0: 0706 0abe e955 c93e 0a4d e93e 9e7c d93f
000001e0: 951b 243f 627a 113e 76d6 113e 4455 763f
000001f0: cbea 973f 98d5 883d 6a13 fa3e 5b06 b73e
00000200: 9bf1 17bf 17ba d03d f4e7 7b3e cc09 13be
00000210: fc96 40bf 6c5b b1be cad5 5b3f daf3 67be
00000220: 7a45 46be 8201 e6be 5347 80be efec 813e
00000230: 3dc3 f8be 3e25 573e 353e dd3d 2cb0 93bf
00000240: 50b0 81be 6389 39bf 110a b6bf 43eb 9e3e
00000250: 69c4 bb3e 61c7 2fbf 7201 3bbd 3a6b 8d3e
00000260: e079 513f 9a38 31be 3a02 83bf a429 a7be
00000270: dd4f abbe 37e6 41bf 579a 19be 4000 203f
00000280: e738 1dbf 83be 8dbe 5cf1 2f3f 29a1 ba3d
00000290: 6cd6 00bc 1ace 803f ecbd 963e 9c2a 42bf
000002a0: f103 15bf 3ac2 3ebf 7f98 043e 662c 163f
000002b0: 34d8 37be 4871 6abf 7795 823f 1e4d e9be
000002c0: 7925 14bd 321c 8cbe bd53 d5be e77c ebbd
000002d0: f3b4 5fbe 9400 0cbf 2f77 88bf c31e 503f
000002e0: d446 c3bd 9e14 64bf c7b4 40be fd77 03bf
000002f0: c378 5cbf 0bab 1abf b231 e5be 1c13 633d
00000300: da6a d93d 90c7 08bf 4c4a b4bf 3260 90be
00000310: 4028 ff3e 579d 6cbd 9dc3 f23d 1d18 2fbe
00000320: 9f74 be3c 1f35 8d3e ae2c 4e3e 1411 ed3e
00000330: 3766 7d3f 5906 31bf 5fcd a53e 4abe d33e
00000340: 3ebe e7be 53b8 693f 47a4 9c3d d9e2 34bf
00000350: 7e14 6c3f 5afc 663e b118 b53e 90cd 003f
00000360: 03d1 a73e 1414 8f3d 84bd 653e 9b68 9c3e
00000370: d4da 073f 5821 913d 429d 8c3e abba 8b3f
00000380: d6a2 933e 76e6 953f d84c a93e 1eaa 323f
00000390: 13e3 b93e 7b0f c33e 4064 db3d f780 2d3f
000003a0: 344d b93d eed4 1d3f a7f7 1d3d aae3 0bbc
000003b0: 8f76 56bd b326 283e 9218 6c3e 4944 323f
000003c0: 1719 10bf 8843 3b3f e262 213f 3a74 bfbe
000003d0: 00e2 a2be 650c 60bf 8bd0 80be 3c2c 303f
000003e0: 5540 433e 52af ae3f 57e3 48be ccb1 7f3f
000003f0: 5378 02be 66f2 2f3f a828 643e 81f6 e8bd

l3.bias f4 [64]
-2.7695265 1.3999578 -1.5956725 -1.1552138 -0.4527884 -1.0093052 -2.2050235 -0.27989098
0.38309047 -0.016406089 -0.40840092 -0.889259 -2.672937 -0.72090656 0.50577474 0.5651104
-0.4831825 -0.8735724 -0.26544484 -1.311841 -1.5457774 -1.6370509 -0.12984258 -2.5240808
0.28391367 -0.0023162244 -0.0304989 0.9230135 -2.0358977 0.4736966 1.1271837 -0.3901085
1.4304521 -1.0384407 0.41590604 -1.2936432 -1.0402427 -1.1509562 -0.3654107 -1.4517709
-0.5107683 0.5344948 -1.3516854 -0.12379363 -1.0504097 -0.14784689 0.441195 -0.59113115
-1.8240609 -0.24364856 0.21838322 -1.9643475 -0.54599106 1.4758853 1.6350405 -0.36111814
0.004344048 -0.55081403 0.09983585 -0.92513394 1.2553873 -0.25114897 -2.1055524 0.50503004
00000000: ec3f 31c0 d131 b33f ff3e ccbf 0cde 93bf
00000010: e2d3 e7be ea30 81bf 1b1f 0dc0 df4d 8fbe
00000020: 6f24 c43e 1066 86bc ed19 d1be 7aa6 63bf
00000030: 6611 2bc0 558d 38bf 747a 013f 13ab 103f
00000040: b263 f7be 71a2 5fbf 63e8 87be 68ea a7bf
00000050: 09dc c5bf e28a d1bf 74f5 04be 8a8a 21c0
00000060: 225d 913e cccb 17bb d4d8 f9bc 9d4a 6c3f
00000070: 264c 02c0 5c88 f23e 8e47 903f 4dbc c7be
00000080: 0e19 b73f a0eb 84bf a3f1 d43e 1a96 a5bf
00000090: ac26 85bf 8852 93bf 1c17 bbbe a1d3 b9bf
000000a0: b6c1 02bf a7d4 083f 0704 adbf 8487 fdbd
000000b0: d373 86bf 2d65 17be 50e4 e13e 5f54 17bf
000000c0: d47a e9bf 027f 79be da9f 5f3e bd6f fbbf
000000d0: 12c6 0bbf cfe9 bc3f 0249 d13f 7ae4 b8be
000000e0: 8458 8e3b 2602 0dbf bd76 cc3d 94d5 6cbf
000000f0: 88b0 a03f 9996 80be 5fc1 06c0 a649 013f

l4.weight f4 [2, 64]
0.40119997 -0.049507692 0.077593826 0.2280487 -0.015957141 0.09361787 0.04912414 0.15464312
-0.10257201 0.08977429 0.17349729 -0.26073244 0.07348531 -0.2962739 0.053881776 -0.039586134
0.13023028 -0.042452857 0.17981914 0.11088034 0.31460527 -0.050430175 -0.27886674 0.26622322
0.17064679 -0.2807202 0.28783333 -0.018830506 0.12824258 -0.24715665 -0.018861584 -0.01616172
0.32041243 0.29008478 0.2344651 -0.054067686 -0.10724424 0.0047676465 0.05056007 -0.27118483
-0.18143642 0.017787758 -0.24523191 0.07391702 0.061324906 0.056532092 0.31126606 0.20129117
-0.027326355 -0.06340911 -0.11033233 0.032069955 0.19861695 0.33824947 -0.08153725 -0.31026307
0.4109565 0.1920185 -0.17307104 -0.12951604 -0.061978206 -0.21637268 -0.0022308624 -0.03517532
0.039988056 0.028079418 -0.00617124 -0.18352021 0.080706336 0.05633757 -0.029926062 -0.213639
0.181095 -0.16460414 0.056535088 0.27262935 0.03900793 0.23184915 -0.10089198 -0.25505325
0.09749398 0.17529926 -0.11032162 0.02373081 -0.21650232 0.055194307 0.23103198 0.05371099
-0.13701494 0.07843613 0.17641789 -0.0007868221 -0.064044505 0.245914 -0.11332775 -0.13183649
-0.2191914 -0.2024832 -0.08432697 0.06029978 0.23451434 -0.100539036 -0.12625556 0.30381235
0.09368457 -0.14277709 -0.15555257 -0.047566146 -0.090419546 -0.061485272 -0.11173369 -0.36074767
0.09867809 0.06831526 0.097627066 -0.096553065 0.27426597 -0.26450208 -0.19292517 0.27849546
-0.29105666 -0.115228675 0.22900078 0.02558721 -0.12848048 -0.009001097 -0.03487915 0.003115998
00000000: 156a cd3e 94c8 4abd 83e9 9e3d 9985 693e
00000010: 8db8 82bc baba bf3d 6536 493d c45a 1e3e
00000020: 4611 d2bd 95db b73d 46a9 313e b97e 85be
00000030: 777f 963d 36b1 97be 23b3 5c3d 1225 22bd
00000040: 165b 053e 0ce3 2dbd 8222 383e 3b15 e33d
00000050: f113 a13e df8f 4ebd 9fc7 8ebe 694e 883e
00000060: 08be 2e3e 8fba 8fbe e45e 933e 6f42 9abc
00000070: 0652 033e a216 7dbe 9c83 9abc 9565 84bc
00000080: 190d a43e fe85 943e 9f17 703e 1476 5dbd
00000090: dea2 dbbd eb39 9c3b 1318 4f3d bdd8 8abe
000000a0: 78ca 39be a2b7 913c 131e 7bbe ce61 973d
000000b0: d32f 7b3d 328e 673d 445e 9f3e 461f 4e3e
000000c0: 85db dfbc a3dc 81bd ebf5 e1bd c95b 033d
000000d0: 3e62 4b3e 092f ad3e 00fd a6bd cdda 9ebe
000000e0: e468 d23e 7fa0 443e 8939 31be da9f 04be
000000f0: dcdc 7dbd cd90 5dbe a933 12bb ff13 10bd
00000100: 84ca 233d cf06 e63c 1d38 cabb b9ec 3bbe
00000110: 5d49 a53d 39c2 663d 8027 f5bc 2fc4 5abe
00000120: f870 393e fd8d 28be 5691 673d 1396 8b3e
00000130: c7c6 1f3d dd69 6d3e 74a0 cebd 5796 82be
00000140: ecaa c73d a681 333e 4df0 e1bd 1e67 c23c
00000150: c9b2 5dbe 6d13 623d a693 6c3e 0e00 5c3d
00000160: a54d 0cbe 1fa3 a03d e4a6 343e bd42 4eba
00000170: c429 83bd e1d0 7b3e 6118 e8bd 2500 07be
00000180: b673 60be c257 4fbe 9eb3 acbd e7fc 763d
00000190: 8724 703e 69e7 cdbd 2349 01be 4b8d 9b3e
000001a0: b2dd bf3d 2834 12be 2c49 1fbe b8d4 42bd
000001b0: e22d b9bd fbd7 7bbd a2d4 e4bd ebb3 b8be
000001c0: bd17 ca3d dfe8 8b3d b3f0 c73d 9dbd c5bd
000001d0: 976c 8c3e d16c 87be 2d8e 45be f596 8e3e
000001e0: 6105 95be 03fd ebbd 2e7f 6a3e 459c d13c
000001f0: 6390 03be 5679 13bc 71dd 0ebd c635 4c3b

l4.bias f4 [2]
0.75258577 0.38917682
00000000: 76a9 403f 2f42 c73e
