Transformer-DoubleDQN-QT-Final/ModelParam/2024-2-27/64network-TransformerNoguiadance.pth (torch, 851590 bytes, 18 tensors)

encoder.self_attn.in_proj_weight f4 [30, 10]
00000000: cda2 98c0 5ad8 8b40 5abe ecc0 f7c6 b140
00000010: 7485 2740 a87c 1841 eca7 1641 d4b7 ab40
00000020: a811 2dc1 a3d1 fac0 d194 1f41 2fe5 56c1
00000030: 676d 74c0 b83b c8c0 324d e6c0 abc2 bfc0
00000040: 17da 8fc0 9fa6 2540 4bd7 1541 fcf4 3141
00000050: 28d2 273f d3fa 1c40 7f6b 0541 fce4 f53e
00000060: e0ff 7d3f 6092 593e a00b 0f3f b006 a0c0
00000070: 5417 8f40 2e21 c63f ef73 e040 894c 27c1
00000080: 3d26 dfbf a57d 03c1 ed30 ecc0 ccf2 aac0
00000090: 6901 8dc0 9203 a8c0 c799 6340 2a31 dc40
000000a0: f3d1 e2c0 555b 1041 9ad2 5640 f686 0641
000000b0: 0ce6 f840 671d 9240 df10 6c40 47c4 8a40
000000c0: b85d 63c0 78f2 ebc0 ffdc 6d40 5107 0ec0
000000d0: 0131 84c0 b0c5 9e40 310a 0140 ed9c 653f
000000e0: 6982 bf3f 5657 1ac0 5b93 f140 2a29 8840
000000f0: 1886 24c1 f852 4a41 8cb7 b63f ed00 e340
00000100: 2259 d140 1628 d040 4d67 b440 8656 1f40
00000110: 876e 32c1 fc68 42c1 ddf3 0f41 f5c1 31c1
00000120: d1c6 7abe 8c0b 08c1 060b ebc0 e250 ccc0
00000130: 2703 afc0 6180 c0bf 94f5 de40 d137 1e41
00000140: ccee 94c0 fc57 7740 d587 9140 3022 6dc0
00000150: 44b9 93bf 5226 093e 3da1 2dbf b7d6 bbbe
00000160: e461 04c1 fa0a b3c0 f160 6b40 afc5 40c0
00000170: eb9e 1d3e daa2 eb3f ddee 043f 715a 61be
00000180: 20ab 8dbf 265c 17bf 34fc 1c41 1da5 b840
00000190: e4be 16bf 61db 0040 3fd3 c3bf 9079 6440
000001a0: 9b0c f43f 0df5 703f d611 853f 945c 40c2
000001b0: c2fd c03e d910 62bd 3702 1640 09b8 f93e
000001c0: 8112 d340 e983 98bf c404 d93e 4145 78be
000001d0: 44af 08bf ef36 5142 cb7b d2be da5a d33e
000001e0: 70dc 3fc0 9abb 3dc0 8d51 79c0 4eb9 96c0
000001f0: cefe 45c0 bc6b 29bf 28b0 7dbf 85d5 4542
00000200: cc58 90be e05b 40bf 8404 0a40 3d45 26bf
00000210: f0e6 4c40 ef5c 16c0 cb71 ecbe 42ac 77be
00000220: dbc7 a1bc 482e 4142 477e e4be 7c9c 953f
00000230: 70a6 22c0 6ce8 ac3f c910 5fc0 2fd8 4140
00000240: e740 f8bb f967 a7be a96c bc3e c0a3 41c2
00000250: cab0 973e 6ab7 12c0 2926 8a3f 1855 523e
00000260: 1148 4240 b604 cfbf c049 f43e 86ad 1ebf
00000270: ca91 67bf 074e 3f42 7b47 7cbe ae21 02c0
00000280: f1e7 b1bf 99b3 e53f 89ae 17c0 988d 4640
00000290: 35d6 193f 149e df3e d5f6 f53e 8f92 4dc2
000002a0: 7503 7e3f 4cad f2be a508 d73f d402 93bf
000002b0: b025 2740 bdde 29c0 0791 94be 988b 77be
000002c0: 07e6 f5be 5bd4 4a42 2fbd aebe f8a1 0e40
000002d0: af70 9bbf 5b65 32bf 8f5b 7ac0 4629 6f3f
000002e0: be3f 22bf 402a 733f fff7 1d3f 4255 3fc2
000002f0: 4404 663e acf4 d33f deee f53f f901 613f
00000300: 1eaa a740 51d9 edbe d892 453f 7f77 93bf
00000310: c12e 4bbf a37c 4b42 7164 93be 69b7 b9be
00000320: e302 33c0 a481 893f c996 02bf b154 c53f
00000330: 1379 1b40 c94b acbf 4c30 263f cafd cb40
00000340: 715b 0fc0 1202 d4bf f13c 31c0 b003 673f
00000350: 4150 9c3f a970 8dc0 8b60 77c0 ac8f 06bf
00000360: a149 ae3e 0cb0 87c1 eb5d 543f 2569 8c3f
00000370: a2a1 28c0 98ee 6f3f 6d47 1ebf 1dda 2f40
00000380: a919 7140 cd8d cbbf 1c2f 073e 472f f140
00000390: 6d45 20c0 5286 babf 399d c740 5a79 d4bf
000003a0: b977 693e 3f62 a440 2c08 3a40 37d2 5d40
000003b0: d5d2 0f40 bdea 4c41 40c6 153f 766a 6d3f
000003c0: a4be f2c0 31c4 203f 1cf2 983e 599e 6fc0
000003d0: e6b5 36c0 9294 d1bf 86b4 24bf 64a2 96c1
000003e0: 9870 84bf f767 d1bf e42c c040 76ee 35c0
000003f0: 3446 8fbf e4b9 2c3e 9992 4c3f e549 3840
-4.769873 4.37016 -7.3982363 5.5555377 2.6175203 9.530434 9.415997 5.36619
-10.816811 -7.8380904 9.973832 -13.430953 -3.8191774 -6.25729 -7.1969233 -5.992513
-4.4953723 2.5882947 9.365062 11.122311 0.6555505 2.452809 8.338744 0.48026264
0.9921856 0.21247244 0.55877113 -5.0008163 4.4715977 1.5478876 7.014152 -10.456185
-1.7433544 -8.218175 -7.3809724 -5.3421383 -4.406422 -5.250436 3.5562608 6.8810015
-7.0881286 9.022298 3.356604 8.407949 7.778082 4.566089 3.6885297 4.3364596
-3.5525951 -7.373348 3.7166135 -2.2191966 -4.130982 4.961632 2.016247 0.89692575
1.4961673 -2.4115806 7.5492377 4.255025 -10.282738 12.645256 1.4274764 7.093863
6.5421305 6.5048933 5.63761 2.489656 -11.151984 -12.150631 8.997037 -11.109853
-0.24489905 -8.502819 -7.3450956 -6.3848734 -5.469135 -1.5039178 6.967478 9.888627
-4.65415 3.8647451 4.547831 -3.7052116 -1.1540914 0.13393524 -0.67824155 -0.36687252
-8.273899 -5.59509 3.6777918 -3.0120656 0.15392654 1.8409073 0.51926976 -0.22007157
-1.1067848 -0.5912498 9.811573 5.7701554 -0.58885026 2.0133898 -1.5298842 3.5699196
1.9066347 0.9412392 1.0396068 -48.09041 0.37693602 -0.05519185 2.3438852 0.4877322
6.596009 -1.1915256 0.42386448 -0.24245168 -0.53392434 52.303646 -0.41110072 0.41280252
-2.9978294 -2.9645753 -3.8956025 -4.71012 -3.093677 -0.66180015 -0.9909692 49.458515
-0.28192747 -0.7514019 2.1565256 -0.649494 3.2015953 -2.3494222 -0.46180567 -0.24186805
-0.019748619 48.295197 -0.44627592 1.168838 -2.5414085 1.350843 -3.4853995 3.0288198
-0.0075760963 -0.32696512 0.3680165 -48.409912 0.29627067 -2.2924447 1.0792896 0.20540273
3.0356486 -1.6173313 0.47712517 -0.61983526 -0.9045683 47.8262 -0.24636643 -2.0333056
-1.3898908 1.7945434 -2.3700278 3.1023922 0.6009248 0.43675292 0.4803988 -51.393124
0.99224025 -0.4739784 1.6799513 -1.1485238 2.6116753 -2.6542199 -0.29016897 -0.24174345
-0.4802706 50.70738 -0.3412871 2.2286358 -1.2143763 -0.69685906 -3.9118383 0.93422353
-0.6337851 0.94986343 0.61706537 -47.83326 0.22462565 1.6559043 1.9213521 0.87893635
5.2395163 -0.46454862 0.7717719 -1.1520842 -0.79368216 50.871716 -0.28787568 -0.36272743
-2.7970512 1.0742688 -0.5101133 1.5416471 2.4292648 -1.3460628 0.64917445 6.37473
-2.2399561 -1.6563132 -2.7693446 0.9024 1.2211992 -4.4200025 -3.8652675 -0.52562976
0.3404055 -16.96096 0.8295581 1.0969588 -2.6348653 0.9372344 -0.6182774 2.7476876
3.7671912 -1.5902649 0.13201565 7.537021 -2.5042374 -1.4572241 6.237942 -1.6599534
0.22799577 5.136993 2.9067488 3.4659555 2.2472432 12.807309 0.5850563 0.9274057
-7.5857716 0.62799364 0.29872215 -3.7440398 -2.8548522 -1.6373465 -0.64337957 -18.829292
-1.0346861 -1.6359853 6.00548 -2.8426795 -1.1193299 0.16867787 0.7991119 2.8795102

encoder.self_attn.in_proj_bias f4 [30]
00000000: 45e6 44c1 b8b3 0641 dd78 e740 4af0 1c40
00000010: 4324 47c0 0fef 1b41 51ab 14c1 657c d540
00000020: c53b 2ec1 7c62 3a41 55cd 94be 9c45 e43e
00000030: 45db 073f 11bf bf3e 68ad e73c fa95 a23a
00000040: 58cf 853e fe9c 523e 6f77 d2be 85e5 563f
00000050: 9644 33c0 8d47 9a3f 3cab 41c0 ca96 18be
00000060: e3f7 3cbf 27a4 4e3e 3720 eebe 8956 17bd
00000070: 4da1 d039 8418 22bf
-12.306218 8.418877 7.233504 2.452166 -3.1115882 9.745864 -9.291825 6.671435
-10.889592 11.649044 -0.29062906 0.44584358 0.53068954 0.3745046 0.028280929 0.0012404316
0.26134753 0.205677 -0.41106746 0.8394397 -2.8010612 1.2053086 -3.0260763 -0.14901271
-0.73815745 0.20179807 -0.46508953 -0.03694776 0.0003979303 -0.6331866

encoder.self_attn.out_proj.weight f4 [10, 10]
00000000: f1e4 e8bf 7b4f 06bf 4a7d e9bf 93f6 3f40
00000010: c706 2cc0 1b26 2340 a4de bc3f 1858 04c0
00000020: 0927 1940 1c1b 33c0 9b81 833e a786 0d3e
00000030: 3931 943e c8f9 be3f b77c b43d c412 ff3e
00000040: 11e9 743f d6cb 983f 7065 1140 55ca d9bf
00000050: 5cfa 7d3f 7cfb 353f 2da7 263f 0ba5 d5bf
00000060: f2a1 2f40 7d79 cbbf 41ae e0bf a6cd 3e40
00000070: c826 f9be d2dd 1640 bd36 08c0 0eae 19bd
00000080: 255e ecbf c130 ab3e f44c 3bc0 1d26 923e
00000090: 963d a53e 4337 55c0 1308 db3d 237e f2bf
000000a0: b8cd 8dbd eb6f 803f cb7d b3be 0223 0bc0
000000b0: 2554 3640 f0f6 afbf f96d 08c0 72a0 3740
000000c0: 6d70 b0be f072 c63f 3996 9f40 97c3 33c0
000000d0: c6b9 9e40 488a 633f e02e 483e 7254 0c40
000000e0: d43e 0140 1f48 3bbe 2ea1 963f e3d6 d7be
000000f0: 5020 04c0 bbde 553c 1bb3 a1bf 9d1d a3bf
00000100: f0d7 0740 5a00 553b 4bb3 00c0 37dc 3d40
00000110: ee30 48bf 3527 bd3f 6ad8 c5bd c92a 9f3c
00000120: 9afb 0a3f 6782 96bf 7046 e03d bed5 dfbf
00000130: af9a f8bf 2160 b1bf 8455 bfbf 7a53 2b40
00000140: 7295 42bf b3b0 50bf a46d 26bf 1ee7 dc3f
00000150: 0bb3 94c0 4f20 483f 5a58 3240 e339 8ec0
00000160: 679e b83f 93e2 59c0 2850 91bd ef97 783f
00000170: d063 053e 07a2 f5bf 9aa6 87bf d239 cfbf
00000180: 3852 9abf c51d 6ac0 5010 29c0 4eec 063f
-1.8194867 -0.5246503 -1.824136 2.9994247 -2.6879137 2.5492008 1.4755445 -2.0678768
2.3930075 -2.7985296 0.2568482 0.13820897 0.28943804 1.4919977 0.0881285 0.49819005
0.9566813 1.1937206 2.2718163 -1.7014872 0.99210143 0.7108686 0.6509884 -1.6690992
2.7442594 -1.589645 -1.7553178 2.9813018 -0.486624 2.3572888 -2.128341 -0.037519507
-1.8466231 0.33435634 -2.9265718 0.28544703 0.3227355 -3.331498 0.106948994 -1.8944744
-0.06924003 1.0034155 -0.3505691 -2.1740117 2.8488858 -1.3747234 -2.1317122 2.8691678
-0.34460774 1.5503826 4.9870877 -2.8088129 4.9601774 0.88882875 0.19549131 2.1926541
2.0194597 -0.18289231 1.1767938 -0.42156133 -2.0644722 0.013053591 -1.2632784 -1.2743412
2.1225548 0.003250143 -2.0109432 2.9665658 -0.7819966 1.477759 -0.09660418 0.019429581
0.54290164 -1.1758546 0.10950935 -1.7487104 -1.9422206 -1.3857461 -1.4947972 2.67697
-0.76009285 -0.8151962 -0.6501105 1.7258031 -4.646856 0.781743 2.7866426 -4.4445662
1.442334 -3.404454 -0.07095367 0.9710683 0.13026357 -1.9190072 -1.0597718 -1.618952
-1.2056341 -3.658067 -2.6416206 0.5270432

encoder.self_attn.out_proj.bias f4 [10]
00000000: 70b1 3240 a24c b4bf 9b1c 6fc0 886b 3b40
00000010: e153 d2bf 7fc4 4bc0 e256 47be ce7a ebbe
00000020: 795f 0740 a2b1 563f
2.79208 -1.4085886 -3.736121 2.9284382 -1.6431848 -3.1838682 -0.19466737 -0.4599213
2.1152022 0.83864796

encoder.linear1.weight f4 [64, 10]
00000000: bf05 02bf 9fbc 75c0 43af 923f 5c76 10c0
00000010: d0dd 62c0 b5f3 acbe 7b0b bfbf 760b ad3e
00000020: cc4f 5a3e 5a7e 7d40 a8be b73f 697d afc0
00000030: 762e bebf 3566 373f c4c5 99c0 0705 b940
00000040: c36f a8c0 d70b 85bf a785 3540 1b27 9e3f
00000050: 4daf 023f 968a c9bf 1ee8 d33e 961c 863f
00000060: 6fa2 81bd a924 9e3e 1b1c f5bf 5c18 d43e
00000070: 3f09 4a3f 9428 8340 4047 9540 b5f3 2340
00000080: 2f45 2fc0 4ce4 9f40 7e11 123f d63d 97c0
00000090: cc59 2a40 1675 cdc0 00d8 bc3f aaea 733e
000000a0: 27b4 0c3d 3cab b6bf de75 e3be e1b1 e63d
000000b0: 6e15 94bf 0466 9d3e c825 eebf db01 28bf
000000c0: c424 833f cb83 0e40 960d 8fbd aaaa c0bf
000000d0: 464c b13e 9ea5 36bd c484 cfbf b1af bb3e
000000e0: 66f2 62bf 153d 533f 2b0a 613f 7b7f 2240
000000f0: 9df6 933d 0d28 8f3f 9ab1 0340 e426 2abf
00000100: e095 f13f 9cb8 37c0 f2ba dd3f 4050 20bf
00000110: cdc6 a1c0 a134 fdbf 6070 213f 8668 1bc0
00000120: 9011 3d3f ee3e 0bbf ea60 27c0 02f3 42be
00000130: ae79 3dc0 be4a 1bbf a0c7 533f 5bda 7240
00000140: b7d2 ecbf f6fa 63bf 45c7 4c3f 9c17 8dbf
00000150: 8151 db3d bfcf df3f 763c 68bf 6100 223f
00000160: e342 3b3d 41a6 aa3f c91a 10c0 12e9 cc3f
00000170: 7765 9c40 4368 4dc0 118b f73f 487e d4be
00000180: c90d 563f 5b8b debf 789b 78c0 d419 a1bf
00000190: cf1c 6c3d 57d5 a1bf be6e 8fbe 0055 63bf
000001a0: 05e2 c4bf 282f 873f d889 78bf aac2 393c
000001b0: 5b73 753f 85a4 2340 08f7 e6bf 347b a5bf
000001c0: bd22 cf3e e7b2 6abf 16c2 ebbe 0db5 913f
000001d0: db56 84bf 486a d93f 4c4e 43be 95fd 823f
000001e0: c8a2 68bf 17bc ce3e 3f68 7040 02c0 95c0
000001f0: d849 673f 7dcf 08bf 0b35 633e 7cf4 373f
00000200: ac4d afbf d830 8ebf e270 7340 48ed 8e40
00000210: b637 42c0 9ba1 1740 c5da c6bc 78ac 84c0
00000220: 7819 cd40 093b 58c0 9186 9e3e 2d6b a0c0
00000230: ef7e 31c0 0b6e b93f 3006 bc3f 6ddc 38c0
00000240: 6514 ce3d 65db 2f40 ffd7 3a3f 8f48 d9bf
00000250: 5e86 edbf 53b5 983d 72f2 e93e 3ef9 2abf
00000260: bb78 15bf 1eea 26bc 81e7 4fc0 e5a3 a83e
00000270: e8b0 46c0 d457 b03e d95a dd3f a8fb 4640
00000280: 8828 e6bf 9b6a 1d40 077e 6140 c2e7 3fc0
00000290: c2b9 0f40 e823 b2bf 0ef7 0440 bddb ffbf
000002a0: 26b1 71c0 2dba c0bf 5fd3 54c0 c984 643f
000002b0: a6f2 fd3f 58d6 31c0 97fb 0640 f111 4340
000002c0: 2d38 7c3f 7dd7 f5bf 20d0 2cc0 2962 80bf
000002d0: 428d e2be db3c c1be 2250 90bd acf9 343e
000002e0: 182e bf3e f7c8 8f3e b318 f0be 631a 493f
000002f0: 87f2 753d f50d 8e3d e6d0 d43f aedb afbf
00000300: edb2 1cc0 de61 dd3f e08f 29c0 dfae a0bf
00000310: 88cd 70c0 62ec 1040 93d7 3b40 59f4 2540
00000320: 5cd6 33c0 20c5 a23e 34d6 943f a5f5 8abf
00000330: d7e8 d13f c6a6 e0be 548a 573f 8532 11c0
00000340: eb51 a9bf 2ed5 d63e 7703 8b3f aa4c febd
00000350: c890 33bf b680 373d 09fe cebd da1e 763f
00000360: 7501 84bf 793a abbe 153a 1ebe cf29 8ebe
00000370: ab0d 163e ffb2 e2be 6d4d 983d 8317 8bbe
00000380: cdc1 c7bf bc66 8e3e 4768 c6bf 6f03 3a3f
00000390: 4844 ce3f 41f2 3540 44f2 513f 98c6 a3bf
000003a0: 3805 dbbd 6fdd 0c3f 02c1 84c0 5dba bfbe
000003b0: b8bf 40c0 8f94 02bf 9acf d13f 8a8a 8f40
000003c0: 81f0 1e3e 13f8 88bf 3e2d 293e 7781 e93e
000003d0: 9e74 3ebf 314a 143f 9fc1 a0bf 2d8b 423f
000003e0: 8440 263f 7288 2340 3ded 83bf 9e6b ee3e
000003f0: 13ce 7240 5e7d 82c0 7ee6 0a40 ad71 c0be
-0.5079002 -3.8396375 1.1459736 -2.257224 -3.5447884 -0.33779684 -1.4925379 0.33797807
0.21319503 3.960837 1.4355059 -5.484059 -1.4857929 0.7164033 -4.8053913 5.7818637
-5.263643 -1.0394238 2.8362825 1.2355684 0.5104874 -1.5745418 0.4138803 1.0477474
-0.0632981 0.30887344 -1.9149202 0.41424835 0.7892036 4.0987034 4.6649475 2.5617497
-2.7385976 4.9966183 0.5705794 -4.7262983 2.6617308 -6.4205427 1.4753418 0.23819986
0.034351494 -1.4271007 -0.44425863 0.112643965 -1.156904 0.30741894 -1.860528 -0.6562783
1.0245595 2.226794 -0.06985013 -1.5052083 0.34628505 -0.04459154 -1.6212392 0.3665748
-0.8865112 0.8251508 0.8790614 2.5390308 0.07224772 1.1184098 2.057715 -0.6646559
1.8873863 -2.8706427 1.7322676 -0.6262245 -5.0555177 -1.9781686 0.63062096 -2.4282546
0.73854923 -0.543929 -2.6152902 -0.19038013 -2.9605517 -0.6066092 0.8272648 3.7945774
-1.8501805 -0.8905481 0.7999156 -1.102283 0.10708905 1.7485274 -0.90717256 0.6328183
0.045718085 1.3331987 -2.2516348 1.6008627 4.887386 -3.2094886 1.9339315 -0.41502595
0.83614784 -1.7386278 -3.884489 -1.2586007 0.05764466 -1.2643231 -0.28014177 -0.88801575
-1.5381476 1.0561266 -0.9708533 0.011337915 0.95879143 2.5569165 -1.8044138 -1.2928224
0.4045619 -0.91679233 -0.46046513 1.1383377 -1.0339006 1.698556 -0.19072837 1.0233637
-0.90873384 0.40377876 3.7563627 -4.6796885 0.9034705 -0.534416 0.22188203 0.7185743
-1.3695579 -1.1108656 3.8037648 4.466465 -3.0346503 2.3692386 -0.02427424 -4.1460533
6.409359 -3.3786032 0.3096204 -5.013083 -2.7733724 1.4486707 1.4689388 -2.8884537
0.10062484 2.7477658 0.72985834 -1.6975268 -1.8556631 0.0745646 0.45692784 -0.66786563
-0.58387345 -0.010187654 -3.2485049 0.32937542 -3.1045475 0.34442008 1.729335 3.1091099
-1.7981119 2.4596317 3.523317 -2.9985204 2.2457128 -1.3917208 2.077579 -1.9988934
-3.7764373 -1.5056816 -3.325401 0.89265114 1.9839675 -2.7787075 2.1091058 3.04797
0.9852322 -1.9206387 -2.700203 -1.0029956 -0.44248396 -0.37741742 -0.07046534 0.17673367
0.37339854 0.28083012 -0.46893844 0.7855589 0.060045745 0.06936256 1.6626251 -1.3738916
-2.4484208 1.7295492 -2.6494064 -1.2553366 -3.7625446 2.2644277 2.9350326 2.5930388
-2.8099585 0.3179102 1.162787 -1.0856215 1.6399182 -0.43877238 0.84195447 -2.2687085
-1.3228124 0.41959518 1.0860432 -0.12416966 -0.70142794 0.044800483 -0.10107047 0.96140826
-1.0312945 -0.3344305 -0.15451844 -0.27766272 0.14653651 -0.44277188 0.07436643 -0.27166376
-1.5606018 0.27812755 -1.5500573 0.7266149 1.6114588 2.842911 0.82010293 -1.2794981
-0.10694355 0.5502538 -4.1485605 -0.3744687 -3.0117016 -0.5100793 1.639148 4.4856615
0.15521432 -1.0700706 0.16521165 0.45606586 -0.74396694 0.5792571 -1.2559088 0.75993615
0.64942193 2.555203 -1.0306774 0.4656648 3.7938278 -4.0778036 2.1703181 -0.37586728

encoder.linear1.bias f4 [64]
00000000: e833 d8be e0f4 973f e5af d1bd e8db 5940
00000010: eec3 813e 4fb8 3e3f 9fd3 823f 66f2 1b3f
00000020: b4b2 d3bf 9145 2dbf 76ad 1f3f 2ef9 0dc0
00000030: e061 3cbf cedb 3540 25ca e13f 252b 943f
00000040: 65d3 833f 7993 df3e 2478 07bf 0d19 f63f
00000050: 6dbd 7abf 7fe0 fd3e 883b 3b3f 4eff 563f
00000060: 2ccb 423e 8fe2 fbbe 5605 f63f 6ade 33bf
00000070: d579 c1be 02df c93f 4c87 0f3e bdc0 693f
00000080: a24f 0e40 2e72 1e40 93c9 2c3e 9247 b6bf
00000090: 1b8b 87be 5285 463f 371e 13bd 2e91 3340
000000a0: 048c 2040 3bd1 cdbf 7c2c 7a3d 6803 de3f
000000b0: 3bb9 2e3f d918 56bf 9088 ac3e 8dfc 053f
000000c0: e271 ee3f bc4b c43d 9c84 223f 50c8 b63e
000000d0: 71d6 f23f 4f8a b0bf 2001 2240 01d2 c13f
000000e0: 47d4 98bf d858 663f 46b9 a740 9e52 1340
000000f0: b631 2fbe 4829 dbbf 02c1 573d 15f5 0440
-0.422271 1.1871605 -0.10238627 3.404047 0.25344795 0.7449998 1.0220832 0.60916746
-1.6538911 -0.67684275 0.62374055 -2.2183337 -0.73586845 2.8415408 1.7639815 1.1575667
1.0298887 0.436672 -0.52917695 1.9226395 -0.9794529 0.4958534 0.7313771 0.83983314
0.19022816 -0.49196288 1.9220378 -0.7026125 -0.37788263 1.5771182 0.14016455 0.9130972
2.2236104 2.475719 0.1687377 -1.4240592 -0.26473317 0.7754718 -0.035917487 2.805736
2.5085459 -1.6079477 0.06107758 1.734479 0.6825139 -0.83631665 0.3369794 0.52338487
1.8628504 0.09584758 0.63483596 0.356997 1.8971692 -1.3792208 2.5313187 1.5142213
-1.1939782 0.89979315 5.2413664 2.3019176 -0.17108807 -1.7121973 0.0526743 2.0774586

encoder.linear2.weight f4 [10, 64]
00000000: e27e f4bf eb8b a640 2026 893e 934f 51c0
00000010: 7834 b7bd b035 c73e 0cdc 083d c17d f9be
00000020: b3f2 29c0 880a 2bc0 a75b 8fbe a931 7bbf
00000030: 1102 74bf ab63 a6c0 71be d23e 5878 3fbe
00000040: c82d 04c0 c670 56c0 7513 39be fbc8 a6bf
00000050: c47c 933d 8ab2 8ebf dca2 6d3d a598 24bf
00000060: 0de1 dbbd f7c0 d1bf 0316 20bf 0589 003d
00000070: c718 37bf 090f 0fbf 3529 8ebe 086c 60bf
00000080: e08d 17be ea14 2bc0 4fb0 033f d1ec 7bc0
00000090: cc4e 80c0 4f09 853f b83a 3bc0 27c2 7cbf
000000a0: a443 62be 4e38 7abe bc5b b7bd c59e 14c0
000000b0: cf66 e53d bbd8 43c0 abc2 dc3f 6d50 893f
000000c0: 2ac5 24c0 40ab 0a3f 7050 3fbf 61a9 f4bf
000000d0: 4a9b a1bf 877b 06bf 9a53 4cc0 a86f 8140
000000e0: 132a 97bf 1da7 1dc0 a1b7 36c0 8b9b efbf
000000f0: 64fe 8d40 047a 653e 316a 8140 6544 b4bf
00000100: ab15 37c0 0da7 21c0 01ba 90be 72ca 07c0
00000110: 979d 39bf dfcc 68bf 31dd a5bf 224d 1fbe
00000120: 87af 443e 88b2 adbf 404c babf e4b0 12bd
00000130: d3f5 1e40 46b2 1d40 b608 03c0 df34 11bf
00000140: b4cd 533d 94d7 7fc0 9e73 41bf dcb9 0f3f
00000150: d866 873d c4b9 b63f 2d59 84bf 86a2 09bf
00000160: 0a4b 59bf f100 5140 dda6 a0be fb1c 53bf
00000170: ad55 b23f a622 3f3f 7084 42bf 91ef 09c0
00000180: 506f 8b40 189f 5f3f a4d5 5cbf 11ff 9540
00000190: ef94 5ac0 b084 22c0 83c5 3640 d752 6b3f
000001a0: e751 f840 a438 67bf f882 7dbf cb01 29c0
000001b0: ae60 d1bf f8f2 5840 bf5b 34c0 ec93 e4be
000001c0: 2047 48c0 8d5d 8240 680a 6ac0 d5c8 b53f
000001d0: 77fa b9be d98a a9bd 2f15 7240 73ee 9ec0
000001e0: d5fb 16bf ac38 f2be 15a2 08bd 0b73 cbbf
000001f0: b293 85c0 b956 26bf a456 24c0 b7ab 2f3d
00000200: 339f a540 29e4 6b3f 4ebb c53f 3ca5 a040
00000210: 9415 0240 6951 cd3f c9f0 a53f 5436 e93f
00000220: f570 0cbe f1ea 1440 2dff af3f 8a09 dfbd
00000230: 0b8a b4bf 2354 89bf a538 9140 bdec 1240
00000240: 133a f83f 8beb 7e40 0c38 4fbe 131e 8e40
00000250: ba58 843a f670 e93f 2aab fa3f 60a0 2240
00000260: 9f8f e63f c08a e6be 8637 a140 3f98 b33e
00000270: b468 db3f 3803 3d40 6dfd e23f 0462 8640
00000280: 7183 99c0 9b2a 2f40 757b e33f 6bb3 2ec0
00000290: 31c9 a13f 4d37 d0bf 99d6 bfbf 87d1 8e40
000002a0: 9d3a 98c0 6c9f 6b3e 1dc8 f83f 3d36 9740
000002b0: eb15 bb3f ab48 34bf c7b6 24bf 2bff dc3f
000002c0: 0637 d03f 2496 ca3f ddfe 5940 fa07 84bf
000002d0: 2543 3040 6284 b63e a76f c13e 29d1 4a40
000002e0: 8c16 833f 29c0 5e3f 0a40 1b40 b904 0e40
000002f0: 733e 6140 bcd1 2a3e e39f 03c0 1e8a 1740
00000300: ffe1 963f d21d aac0 35fa e93f 0afa 3740
00000310: 6531 c33f 90e0 0840 6a92 5540 225b 1740
00000320: 9f8c cc3f ca79 e53f 39ad ea3f 05f6 443d
00000330: 7a16 6f3f 6158 3041 fe48 ca3f 3f4f d93f
00000340: d917 7140 3133 6d40 8677 81bf 83c6 853f
00000350: 1956 af3f 036b 4140 3083 cc3f 4292 0c40
00000360: 887b ca3f 4c79 c63c 626c d03f 893d 96be
00000370: 317d 2540 d6c2 8f40 f461 9c3f 2b54 c03f
00000380: 2911 143f fb29 d040 ec44 0340 b1d3 3abf
00000390: 3d4c 8340 719a 15bf 4f9a f03f 67a0 c93f
000003a0: 2d5a 96bf f3e0 0bbf 57bc c83f 875c 2d40
000003b0: c005 e73f 500b be3f 0a2b 053e 7c25 1440
000003c0: fb1e 5740 a6fa 2bc0 c00c c5bf 3c99 873f
000003d0: 97b9 3040 3cec eebd 3449 dfbf e0ed 39c0
000003e0: aeaa a0be fd96 1540 4938 3041 57cf 8b40
000003f0: 5043 3b41 125c ab3e 3eef 81bd 9ad9 3b40
-1.9101222 5.20458 0.267869 -3.2704818 -0.089455545 0.38908148 0.033412978 -0.48728755
-2.6554382 -2.6725178 -0.27999613 -0.9812265 -0.95315653 -5.1996665 0.4116092 -0.18698251
-2.0652943 -3.3506331 -0.18073829 -1.3030084 0.072015315 -1.1148236 0.058016643 -0.6429542
-0.107362844 -1.6387013 -0.6253359 0.031380672 -0.7152218 -0.55882317 -0.27765813 -0.8766484
-0.14800215 -2.6731515 0.514409 -3.9363291 -4.0096188 1.0393466 -2.925459 -0.9873375
-0.22096115 -0.24435541 -0.08953044 -2.3221905 0.1120125 -3.0601032 1.7246908 1.0727669
-2.574534 0.54167557 -0.7473211 -1.911419 -1.2625515 -0.5253224 -3.1926026 4.04488
-1.1809715 -2.4633248 -2.8549578 -1.8719343 4.4373035 0.22409827 4.044213 -1.4083372
-2.8606975 -2.525821 -0.2826691 -2.1217313 -0.7250609 -0.9093761 -1.2958127 -0.15556768
0.19207583 -1.3570108 -1.455452 -0.035813227 2.483754 2.464006 -2.0474067 -0.567213
0.051709846 -3.9975328 -0.7556704 0.56142974 0.06611413 1.4275441 -1.0339714 -0.53763616
-0.84880126 3.2656825 -0.31377307 -0.82466096 1.3932396 0.74662244 -0.75983334 -2.155247
4.357338 0.8735213 -0.8626349 4.687386 -3.4153402 -2.5393486 2.8558052 0.9192328
7.759998 -0.903208 -0.9902797 -2.6407344 -1.6357629 3.3898296 -2.8180997 -0.44644105
-3.1293411 4.07392 -3.6568851 1.4201914 -0.36323902 -0.08278436 3.782543 -4.9666076
-0.58978015 -0.47308862 -0.0333577 -1.5894483 -4.174279 -0.6497608 -2.5677881 0.04288837
5.1756835 0.9214502 1.5447786 5.02017 2.032567 1.604047 1.2964107 1.8219705
-0.13714965 2.3268397 1.3749748 -0.10890491 -1.4104627 -1.0728801 4.5381646 2.2956994
1.9392723 3.9831264 -0.20236224 4.441171 0.0010097243 1.8237598 1.9583485 2.5410385
1.801258 -0.45027733 5.038028 0.35077092 1.7141328 2.9533215 1.773359 4.199465
-4.797295 2.7369754 1.7772051 -2.7297008 1.2639524 -1.6266876 -1.4987365 4.463077
-4.757155 0.23010033 1.943607 4.725371 1.4616064 -0.7042338 -0.64341396 1.7265371
1.6266792 1.5827069 3.4061806 -1.0314934 2.7540982 0.35647875 0.37780496 3.1690161
1.0241256 0.87011963 2.4257836 2.2190382 3.5194366 0.1668157 -2.0566337 2.367805
1.1787719 -5.31614 1.8279482 2.8746362 1.5249449 2.1387062 3.3370614 2.3649373
1.5980414 1.7927792 1.8334113 0.048086185 0.9339367 11.021577 1.5803525 1.6977309
3.7670805 3.7062495 -1.0114601 1.0451206 1.369815 3.0221565 1.5977535 2.1964269
1.5818949 0.02422776 1.6283076 -0.29343823 2.585766 4.4925337 1.2217393 1.5025686
0.57838684 6.5051246 2.0510817 -0.72979265 4.1030564 -0.58438784 1.8797091 1.5752076
-1.174627 -0.5464012 1.5682477 2.7087724 1.804863 1.4847202 0.130047 2.3147879
3.361266 -2.6871734 -1.5394516 1.0593638 2.7613275 -0.11666152 -1.7444215 -2.9051437
-0.31380218 2.3373406 11.0137415 4.36906 11.703934 0.33468682 -0.0634446 2.9351563

encoder.linear2.bias f4 [10]
00000000: e121 d6be 56a6 b2bf f68e 0040 c700 2740
00000010: 6809 0340 eda8 d9be c129 3240 69e6 2840
00000020: e512 b43e ea44 aa3f
-0.41822723 -1.3957012 2.0087256 2.6094224 2.047449 -0.42511693 2.7837985 2.6390631
0.35170665 1.3302281

encoder.norm1.weight f4 [10]
00000000: 1711 0740 5bf3 553f ea53 c23f 797c b53f
00000010: 279b 2bbf 8d12 8840 f47a 86bf 4640 04bf
00000020: d4dd 8b3f 8bb8 433f
2.110418 0.83574456 1.5181859 1.4178611 -0.6703362 4.2522645 -1.0506272 -0.51660573
1.0927072 0.76453465

encoder.norm1.bias f4 [10]
00000000: 11e3 0a40 52da 8d3f 9795 85bf 1d19 923f
00000010: b528 df3e 35c2 18c0 6908 1840 9899 d9bf
00000020: 5dd3 91bf 77e6 cebf
2.170109 1.1082251 -1.0436276 1.1413914 0.43585745 -2.3868535 2.3755133 -1.6999998
-1.1392628 -1.6164082

encoder.norm2.weight f4 [10]
00000000: 79c5 143e b3e7 0140 84ba d1be 4d5f 973d
00000010: 7aeb 8e3e 2b03 61bd 4e88 833e a07e 4bbd
00000020: c09d 503f d609 9d3e
0.14528455 2.0297668 -0.40962613 0.07391224 0.2791403 -0.05493466 0.2568993 -0.049681306
0.8149071 0.30671567

encoder.norm2.bias f4 [10]
00000000: 1173 f43e c108 5dc0 56c9 f2be 0b49 223e
00000010: 9924 5cc0 82ed 39bf 0267 8bbe 999a babe
00000020: 7d06 3ebe 6a0c 153e
0.4774404 -3.4536593 -0.47419232 0.15848176 -3.4397337 -0.72628033 -0.27227026 -0.36446074
-0.18557163 0.14555517

l2.weight f4 [64, 3200]
00000000: f908 b1be ad31 3d3f 35d7 913e 1580 91be
00000010: 8159 803e b006 d23e 9398 15bf da8c 123d
00000020: 34fd 1a3e 4480 b1be 84a7 18bf 58e0 3d3e
00000030: f8c3 ec3d 52a7 2fbf 97d6 953e c79a a5bd
00000040: 5f47 69be 5f1b 093f d53d db3e 2466 56bf
00000050: fe9f e2bd bc90 9d3e 574e 293e b6d7 0abf
00000060: 09dd aa3e ae23 273e aaee 7dbe 18d5 3ebe
00000070: 8fd1 333f 5dc7 05be 5ad7 9abe c0fe 383f
00000080: f27f 813e cb00 babe e920 413e b54d 2c3f
00000090: 221d edbd 1029 7b3d 0f86 df3e a2ed d73b
000000a0: b663 053d 8549 df3e a351 b43e 53cf 94be
000000b0: 0d1c e23e 9de7 d93d a292 debd e8c4 153e
000000c0: 4acb 323f 4e15 e4be ff78 3dbf f174 0c3f
000000d0: 2bd7 6e3e b587 c2be c3ec c83e 5611 5d3e
000000e0: 2b85 67bd 03cb 1e3f 9b4e 2d3f 8475 e9be
000000f0: ce10 27bf 3923 0a3f 1e19 7c3e c9e4 0dbb
00000100: b38d 4f3e 560f 9b3e ff27 debd c8d3 d23c
00000110: 9b6b 973e 08f9 703b 44ca 18bf 2243 313f
00000120: 67b3 5f3e 6fe4 ddbe 58fd a03e c470 453e
00000130: 54a7 1bbe cac9 b33e 042a 12bd 523c 90be
00000140: 2de4 78bf 6512 1e3f cee1 573e 72de fdbe
00000150: 9c8e f83e d323 8c3e 1176 55be 319a 403e
00000160: edd6 cb3e 5b3f a7be 466f 00bf 6b30 0f3f
00000170: 1bd6 ab3e cc0e 81be 23fb 043e 29f5 ec3e
00000180: d0d9 78be 98a0 093e d942 143f 9c58 ddbe
00000190: 3965 c3be a113 0c3f 5ccb f13e 7304 36be
000001a0: e60a 813e b1d7 883e c758 afbe bceb 163e
000001b0: d84c 3a3f 3a40 1ebe 7677 57bf ee48 213f
000001c0: cb3b 313e a36a d3be 7093 1f3f 003c 653e
000001d0: 605f 7ebe f261 a13e d513 873e 8a60 eb3d
000001e0: 33a7 b0be 26d5 d83e 8f2a 9a3e 17ea eabe
000001f0: ed4a bb3e bd60 aebd fc7c 16be 6c62 1d3e
00000200: 587e 173e af10 0bbf b09d 2abf a783 143f
00000210: 3770 463e 4a73 1fbf 77e4 be3e cfa0 4a3e
00000220: a84e 78bc 190d 85bd 6612 fbbd ad48 16bd
00000230: 852a b7be 29ee 083f 2c85 7c3e c2da afbe
00000240: 6e3c 8c3e bc4f 783d af74 54bb b0fb 2d3f
00000250: b549 4e3f a617 7f3e c777 69bf 6ae4 dd3e
00000260: 2e8a 6b3e 53ce d4be 66a0 de3d c6b8 803e
00000270: 9f22 2abe 0844 8a3e 1601 5fbe 793f 82bf
00000280: 6838 11bf 20b6 003f 6b1f 223f 9324 a2be
00000290: 3483 ab3e 1fa7 4a3e ba03 e7be f647 dfbd
000002a0: 6b99 cfbd 9ffc 73bf 5ca8 20bf c811 063f
000002b0: 52dc 3f3e fbc3 07bf d373 8d3e e9a8 ca3e
000002c0: 852d 96be 2cbe 9c3e 10a9 b73e de8f bf3e
000002d0: 9b5c 93bf a7b8 323f db07 203e 9d2e afbe
000002e0: 4fd3 763e bf71 4a3e 89ee 3d3e 3eb0 9a3e
000002f0: 3225 f93e 9aa9 2ebe 32e8 1fbf 6f02 203f
00000300: 8937 d63e dd95 57bf 63a3 133e 7490 b43e
00000310: 243b 83be 154b c7bd c39d f83e 52f9 34bf
00000320: 223a f4be 70b9 153f 2c08 843e 4fa2 9d3d
00000330: 8dd8 1a3f 0bb3 0e3e 1bfb 3cbe 6f5e 973e
00000340: c295 623f 5490 ccbe 84ec 0cbf 451b 373f
00000350: 2ba0 be3d 931d 09bf d41d 833e 68c6 8d3d
00000360: 0052 89be 6118 153e 3ee4 26be e017 3b3d
00000370: 91ff e3be 1cc6 be3e 270d 153e bec1 c7be
00000380: e52f 143f b7b9 853e 4138 c1bd 3b0b 6fbd
00000390: 75a8 2c3e 3182 1cbf 3fa9 2bbf 777f 003f
000003a0: 13c7 ea3e 2596 b1be 8248 f53e 5e2a af3d
000003b0: 897f 40be 638e 053d 8097 323f 9d7c 4fbe
000003c0: 6246 f0be 99d0 043f 7069 df3e e9b5 e2be
000003d0: 95cd 4b3d 04a2 423e 8657 85be 212f 983d
000003e0: 2fa1 3d3e 64f0 4ebf 376a 1fbf 6357 343f
000003f0: a6c5 b63e 8c2e 1bbf 631c a23e fb6c 4d3e
-0.34577158 0.73903924 0.28484502 -0.2841803 0.25068286 0.41020727 -0.58435935 0.035778858
0.15135652 -0.3466817 -0.5963061 0.18542612 0.115608156 -0.68614686 0.29265282 -0.08086162
-0.22781132 0.5355739 0.42820612 -0.83749604 -0.11065672 0.30774486 0.1653379 -0.542354
0.3337176 0.16322204 -0.24798074 -0.18635976 0.70241636 -0.13064332 -0.30242425 0.7226372
0.25292927 -0.3632873 0.1886021 0.6730607 -0.11577822 0.061318457 0.43656966 0.0065896073
0.032565795 0.43610778 0.35218534 -0.29064426 0.44162026 0.1063988 -0.10867812 0.14625895
0.69841444 -0.44547504 -0.7401275 0.5486594 0.23324268 -0.3799416 0.39243135 0.21588644
-0.056523483 0.6202852 0.6769807 -0.4559747 -0.65260017 0.53959996 0.24618956 -0.002165126
0.20268898 0.30285138 -0.108474724 0.02573575 0.29574284 0.0036769528 -0.5968363 0.6924306
0.2184578 -0.43338344 0.31443286 0.19281298 -0.1520055 0.3511489 -0.0356846 -0.2817102
-0.9722317 0.6174682 0.21082231 -0.49583775 0.48546302 0.27371082 -0.2084582 0.1880882
0.39812413 -0.32665524 -0.5016979 0.55933255 0.33561787 -0.25206602 0.12986426 0.46280792
-0.24301839 0.13440168 0.579145 -0.43231666 -0.38163164 0.5471745 0.47225463 -0.17775135
0.25203627 0.2672706 -0.3424742 0.14738363 0.72773504 -0.15454188 -0.8416666 0.63001907
0.17307965 -0.41292295 0.62334347 0.2238617 -0.2484107 0.3152004 0.26382318 0.11493023
-0.34502563 0.4235012 0.30110595 -0.4588172 0.365806 -0.08514545 -0.14696115 0.15369576
0.1479429 -0.5432233 -0.6664686 0.58013386 0.19378744 -0.6228529 0.3728368 0.19787906
-0.015155472 -0.06496639 -0.122593686 -0.036690403 -0.35774627 0.53488404 0.24660176 -0.34346586
0.27389854 0.060622916 -0.0032418182 0.6796217 0.8058122 0.24911365 -0.9119839 0.4333833
0.2300193 -0.41563663 0.10870437 0.2514097 -0.1661477 0.2700503 -0.21777758 -1.017562
-0.56726694 0.502779 0.6332919 -0.3166853 0.33498538 0.19790314 -0.4512003 -0.10902397
-0.10136684 -0.95307344 -0.62756896 0.5237088 0.1873639 -0.5303342 0.2762743 0.39581993
-0.29331604 0.3061384 0.35871172 0.3741445 -1.1512636 0.6981301 0.15627997 -0.3421525
0.24104045 0.19769953 0.18548025 0.30212587 0.4866119 -0.17056885 -0.62463677 0.62503713
0.41839245 -0.8421305 0.14417796 0.3526646 -0.25631058 -0.09731118 0.48557863 -0.7069293
-0.47700602 0.5848608 0.25787485 0.076969735 0.6048668 0.13935487 -0.18455164 0.29564235
0.8850976 -0.39953864 -0.55048394 0.71525985 0.09307893 -0.5356075 0.25608695 0.069226086
-0.26820374 0.14560081 -0.16298005 0.045677066 -0.4453092 0.3726052 0.14555798 -0.39015
0.5788558 0.26118252 -0.09434558 -0.05836032 0.16861136 -0.61136156 -0.67055124 0.50194496
0.45855007 -0.34684864 0.47906882 0.08553003 -0.18798651 0.032606494 0.6976242 -0.2026238
-0.46928698 0.51880795 0.4363513 -0.4427941 0.049756605 0.19007117 -0.26043338 0.07430864
0.18518518 -0.80835557 -0.62271446 0.7044584 0.3569767 -0.606179 0.31662282 0.20061104

l2.bias f4 [64]
00000000: 7fa0 29bf 0098 a6bf 5de9 05bf 49a2 0dbf
00000010: 5a0b b7bf 2235 96be 0bab 543d 2096 47be
00000020: bd50 71bf ed41 5cc0 e186 87bf 79c0 0fbf
00000030: 2ca2 39bf 773b 753e 9890 b33e 8f96 c9bf
00000040: c9f7 8abf 4903 5abe 7238 5bbe 062b bd3e
00000050: a2d9 e0c0 e749 12bf 8458 273f f22b ffbe
00000060: 370b cb3e 2b46 5dbf a9fc 3fbf 4c74 e8bf
00000070: eead c43d a482 c6be 5cbd cfc0 a958 60bf
00000080: b3f4 87bf 076c 06bf fc12 17c0 1e8c 4cbe
00000090: 6b72 233f 41b6 82be ccaf 14c0 7e4f 9ebf
000000a0: 43f5 0dc0 9f2d 4dbe b3b1 4abe 035d 05bf
000000b0: 1343 e1bc 7f8e 09bf 0f58 88be b821 62bf
000000c0: d733 8ebb e42e 23bf e5d1 e4be 35b4 a4be
000000d0: 0226 aebf 39e3 05bf ffe4 e4be 423e 52bf
000000e0: 4759 a8bf cacd 95bf c024 9bbd b76d 03bf
000000f0: a137 b3bf 7894 96bf e781 983e d46b 2b3e
-0.6626052 -1.3015137 -0.5230921 -0.5532575 -1.4300339 -0.29337412 0.05192093 -0.19490862
-0.9426382 -3.4415238 -1.0588037 -0.56153065 -0.7251308 0.23948465 0.35071254 -1.5749072
-1.0856868 -0.21290316 -0.21408251 0.36946887 -7.0265665 -0.57144016 0.6536944 -0.49838215
0.39656994 -0.8643519 -0.74994904 -1.8160491 0.09603487 -0.38771546 -6.491865 -0.87635285
-1.0621551 -0.52508587 -2.3605337 -0.19975325 0.6384646 -0.25529674 -2.3232298 -1.2368009
-2.2180946 -0.20036934 -0.1979435 -0.5209505 -0.027497804 -0.53733057 -0.26629683 -0.883327
-0.004339676 -0.63743424 -0.44691387 -0.32168737 -1.3605349 -0.5229984 -0.4470596 -0.8212625
-1.3152245 -1.1703427 -0.07575369 -0.51339287 -1.4001352 -1.1764059 0.29786608 0.16740352

l3.weight f4 [64, 66]
00000000: e13c 5f3f f997 173f 1772 023f 6012 c13f
00000010: c8f1 783e 6099 2a3f 6a5b a83f a6ed 693f
00000020: 5d18 61bc 2fb6 c83e d58c c9bd 18e2 fabe
00000030: 19e7 763e 0d9b 3dbe 640e 52bf 8a56 053e
00000040: 478f 363f 8d4f 483f 3db8 25bf 590c 883f
00000050: e022 483f a8f2 bd3f 6b24 f43e c6bc ba3d
00000060: 71bc 363f 106c f0be 8d37 0bbf b7ba 643f
00000070: 0f13 78bf aaa2 873e d35d 3e3f 58e0 afbe
00000080: 6603 253e 0ee9 4c3f 0fa9 0e3f 0b27 803e
00000090: c81d b1be b92a 96be 188d 3c3f 1db9 663f
000000a0: 3ce9 553f 3eb5 bcbc 2608 233f 084c bcbe
000000b0: a8d4 bb3e 70dc 203f 88ec 6fbd c631 92bd
000000c0: 3844 663e a570 423e cea9 8d3e 6c7e 213b
000000d0: a3fb 453f 74b6 233f 69ed 53bf 7e1e 3abb
000000e0: 39b3 f5be bba8 e63e b6f8 e5be 11f6 3f3f
000000f0: dccc b43d fb6d 2fbf 231f 2bbf 1479 b9be
00000100: 68b7 72bf c7c4 22bf e625 f03e 48bb 803e
00000110: 6800 173e e877 3abf 15dc 293f 47f1 623f
00000120: 9c06 163f a5b9 a93e ebd5 59be 364d 863e
00000130: 2b87 eabe 533e c93e fe24 173c 3814 113f
00000140: 8472 e43e a712 1f3f 616a a53c 4c7c 3dbe
00000150: 09ed a63f 79f2 543f a5d0 863c b6a6 a83d
00000160: 06ee 98be 0f19 d7bd 8858 19bc 17c6 913e
00000170: ac00 a13e e901 a83d 54ae bd3e 4e31 8f3f
00000180: df69 81bd c023 0bbe 9f95 9d3e d0e7 d83e
00000190: a048 433e 7487 50be b7e6 383e 9e17 9e3f
000001a0: 421b 90be 0ec6 0a3f 7274 ccbd 2635 e93d
000001b0: bf01 703f fbe0 97be 2b5e d23e 9d9b 47be
000001c0: 3e7d 4f3f 41f0 04bf d3d7 cc3e be53 a5be
000001d0: dd7d 0abe e6bd c83e e92e e93e a577 d93f
000001e0: b828 243f 9804 113e 0e4b 113e de53 763f
000001f0: 8be0 973f 9721 883d 00ea f93e 3805 b73e
00000200: ffdd 17bf 12e0 d03d 0a09 7b3e 23ce 11be
00000210: 8196 40bf 381e b1be 621f 5c3f c49d 67be
00000220: 432f 46be aec3 e5be f7d0 7ebe 37ad 813e
00000230: 5c04 f9be 5c36 573e 1dca dc3d a3d2 93bf
00000240: de84 81be 94dc 39bf 5842 b6bf a0c7 9e3e
00000250: 1610 bc3e c1d1 2fbf af8e 3ebd e2c9 8d3e
00000260: a27d 513f c8cf 30be 170a 83bf 5a39 a6be
00000270: 546c abbe a0ef 41bf d9ad 1abe 76fc 1f3f
00000280: b659 1dbf 631a 8ebe 80f4 2f3f 35a7 b83d
00000290: f4a2 05bc 93d7 803f d6c9 963e a52b 42bf
000002a0: 2a47 15bf 279e 3ebf a499 043e 6354 163f
000002b0: 23b9 37be 3c84 6abf b58f 823f f86a e9be
000002c0: aff6 15bd 2d16 8cbe e45a d5be 3bc0 ebbd
000002d0: 22e0 5ebe 070f 0cbf be74 88bf 5d53 503f
000002e0: 2dd6 c2bd d13e 64bf 7f05 41be f071 03bf
000002f0: be5d 5cbf 74ac 1abf 7b24 e5be 2e1a 633d
00000300: b976 d83d a82f 09bf 4868 b4bf 10ad 90be
00000310: bfc5 ff3e 624c 6fbd 23c8 f23d 6812 2fbe
00000320: 4411 bf3c d837 8d3e 732e 4e3e 1414 ed3e
00000330: 876b 7d3f f210 31bf 2cc9 a53e d2be d33e
00000340: cdbe e7be bbb5 693f d8ac 9c3d 61f7 34bf
00000350: 000f 6c3f 5af9 663e 221e b53e 3fcd 003f
00000360: a1b1 a73e 3523 8f3d dcbe 653e 2d6b 9c3e
00000370: 3ad3 073f 314e 913d 5e9c 8c3e 7cba 8b3f
00000380: 388f 933e 79e6 953f a74a a93e a6a6 323f
00000390: a3e3 b93e d006 c33e 0c5c db3d ef81 2d3f
000003a0: 8c4f b93d e6d4 1d3f 65b9 1d3d b480 0bbc
000003b0: cc74 56bd ab36 283e 041a 6c3e 2443 323f
000003c0: fe22 10bf 9941 3b3f 3760 213f b673 bfbe
000003d0: 2ee2 a2be 890c 60bf 3acb 80be a32b 303f
000003e0: 8c41 433e feb0 ae3f 71e1 48be 8fae 7f3f
000003f0: f17c 02be 87f2 2f3f 5c2d 643e 2bf5 e8bd
0.8720227 0.59216267 0.5095534 1.5083733 0.24310982 0.6664028 1.3152897 0.9137825
-0.013738719 0.39201495 -0.09841315 -0.4900062 0.24111594 -0.18516178 -0.8205321 0.13021293
0.71312374 0.78246385 -0.6473425 1.0628768 0.78178215 1.4839678 0.47684035 0.09118037
0.7138129 -0.46957445 -0.5438164 0.89347404 -0.9690408 0.2649129 0.74361914 -0.34350848
0.16114578 0.80043113 0.5572671 0.25029787 -0.34593034 -0.2932947 0.7365279 0.9012621
0.8355901 -0.023035642 0.6368431 -0.36776757 0.3668568 0.6283636 -0.058575183 -0.071384
0.22486961 0.18988283 0.27668613 0.0024642004 0.7733709 0.63950276 -0.82784134 -0.0028399522
-0.479883 0.45050606 -0.44916314 0.7498484 0.08828136 -0.6852719 -0.66844386 -0.36225188
-0.94811106 -0.6358151 0.46903914 0.25142884 0.14746249 -0.7283921 0.66351444 0.8864941
0.58603835 0.33149448 -0.2127301 0.26230782 -0.4580625 0.39305362 0.009225128 0.56671476
0.44618618 0.62137836 0.020192327 -0.18504447 1.3041087 0.83182484 0.016456911 0.082349226
-0.29869097 -0.105028264 -0.009359486 0.28471443 0.31445825 0.08203489 0.37047064 1.1186922
-0.063190214 -0.13587856 0.30778214 0.4236436 0.19070673 -0.20364171 0.1805676 1.2350957
-0.28145796 0.5420846 -0.09983148 0.113870904 0.93752664 -0.29663834 0.4108747 -0.19492956
0.8105048 -0.519291 0.4000841 -0.32290453 -0.13524576 0.3920738 0.45543602 1.6989638
0.6412463 0.14161909 0.14188787 0.9622172 1.18654 0.06647032 0.4881134 0.3574617
-0.59323114 0.10198988 0.24515167 -0.14238791 -0.7522965 -0.34593368 0.85985386 -0.22618777
-0.19353966 -0.44875854 -0.24884401 0.25327465 -0.48636138 0.2101683 0.107807375 -1.1548656
-0.25296682 -0.726022 -1.4238997 0.31011677 0.36731023 -0.68679434 -0.046522792 0.27693087
0.81832325 -0.17266762 -1.0237454 -0.3246563 -0.33481085 -0.75756264 -0.1510538 0.624946
-0.61465013 -0.27754506 0.6873245 0.09016267 -0.008156527 1.0065788 0.29450864 -0.75847846
-0.5831171 -0.7446007 0.12949234 0.58722514 -0.17941718 -0.91608024 1.0200106 -0.45589423
-0.03661221 -0.2736067 -0.41670907 -0.115112744 -0.21765187 -0.5471043 -1.0660627 0.813772
-0.09513507 -0.8915835 -0.18849753 -0.5134573 -0.8608054 -0.6041939 -0.44754395 0.05544489
0.105695195 -0.5358834 -1.4094324 -0.28257036 0.49955556 -0.058422454 0.11854579 -0.17096865
0.023323663 0.27581668 0.20134906 0.4630438 0.989922 -0.6916648 0.32380044 0.41356522
-0.45262757 0.91292924 0.07650155 -0.7068997 0.9221039 0.22556058 0.35374552 0.5031318
0.32752708 0.06989137 0.22436088 0.3055052 0.5305668 0.07094992 0.2746305 1.0916286
0.28820205 1.171096 0.33064768 0.69785535 0.36306486 0.38091135 0.10710916 0.6777639
0.090483755 0.6165298 0.038506884 -0.008514572 -0.05235748 0.16427104 0.23056799 0.696337
-0.56303394 0.7314697 0.6303744 -0.37392968 -0.31813186 -0.8751913 -0.2515505 0.68816584
0.19067973 1.3647764 -0.19617249 0.9987573 -0.12742974 0.6872944 0.22282928 -0.11374887

l3.bias f4 [64]
00000000: 2439 31c0 d733 b33f 9b34 ccbf 99dd 93bf
00000010: cca6 e7be 082f 81bf c716 0dc0 8026 8fbe
00000020: fe23 c43e 76ad 82bc 99dc d0be fdae 63bf
00000030: 2c0f 2bc0 c08f 38bf be91 013f 56b5 103f
00000040: 0642 f7be 8da2 5fbf dbb4 87be 4eea a7bf
00000050: 24ce c5bf b784 d1bf d9f9 04be 9582 21c0
00000060: 6772 913e ab29 18bb b218 f7bc 6465 6c3f
00000070: 0545 02c0 6b7d f23e 644c 903f 839b c7be
00000080: 3e1a b73f 4fcf 84bf 002d d53e d693 a5bf
00000090: b627 85bf 5c4b 93bf b4fa babe 6ee5 b9bf
000000a0: e4c1 02bf f8eb 083f f002 adbf 773f fdbd
000000b0: ec6b 86bf 9a2e 17be 4f19 e23e 0f51 17bf
000000c0: 197b e9bf 1986 79be 1388 5f3e 9e66 fbbf
000000d0: afc5 0bbf 4eed bc3f 6351 d13f baea b8be
000000e0: 20b8 953b 75f1 0cbf 8764 cc3d 0fd6 6cbf
000000f0: 1eb9 a03f 3a97 80be 6bbe 06c0 fe4d 013f
-2.7691126 1.4000195 -1.5953554 -1.1552001 -0.45244443 -1.0092478 -2.2045152 -0.2795906
0.3830871 -0.015951853 -0.40793303 -0.88938886 -2.672801 -0.72094345 0.5061301 0.56526697
-0.4829256 -0.8735741 -0.2650517 -1.3118379 -1.5453534 -1.6368626 -0.12985934 -2.523595
0.28407595 -0.0023218195 -0.030163143 0.9234221 -2.0354626 0.4736131 1.1273313 -0.38985834
1.4304883 -1.0375766 0.41635895 -1.2935741 -1.0402744 -1.1507373 -0.36519396 -1.4523141
-0.51077104 0.5348506 -1.3516521 -0.123656206 -1.0501685 -0.14763871 0.44159934 -0.5910806
-1.8240691 -0.2436756 0.21829252 -1.9640691 -0.54598516 1.475992 1.6352962 -0.36116582
0.0045690686 -0.55055934 0.099801116 -0.9251413 1.2556493 -0.25115377 -2.1053722 0.5050963

l4.weight f4 [2, 64]
00000000: bcd2 cd3e d879 49bd 1119 a23d d8a7 693e
00000010: e645 80bc ca83 c13d 8ebb 523d 7930 1f3e
00000020: 85e0 d1bd e470 b83d 89e1 313e 2d17 85be
00000030: 7157 993d e15d 97be 215a 593d 4bb6 21bd
00000040: c9e3 053e 33fc 2cbd 1f5b 383e 991f e33d
00000050: 565c a13e 0556 45bd 7db2 8ebe 6176 883e
00000060: c3bd 2e3e 20a6 8fbe ac88 933e 49e7 8cbc
00000070: 63ee 033e 8eda 7cbe 574c 9fbc 7bd6 7fbc
00000080: 210f a43e 90fb 943e 3969 703e 2f5b 58bd
00000090: 9e7a dbbd 1f52 ae3b 48c0 513d eeba 8abe
000000a0: 3d84 39be 6eb2 943c 3e89 79be 1d6a 9c3d
000000b0: a2d9 7a3d 5161 673d 492b 9f3e 123b 4e3e
000000c0: 79b0 debc d3ac 81bd d2e8 dfbd 09c9 053d
000000d0: dc75 4b3e b6a7 ad3e 16d3 a6bd bc88 9ebe
000000e0: 61bf d23e 12b3 453e 162c 31be b283 04be
000000f0: 98f5 7dbd 5676 5dbe 4640 ebba 7d83 10bd
00000100: afaa 233d 58bd e63c 78b0 bebb 16e0 3bbe
00000110: e6e8 a43d dbfd 6a3d 22b8 e4bc 636b 5abe
00000120: cd6b 393e 7c95 28be 5cb9 663d 08c2 8b3e
00000130: 3397 203d 478b 6d3e a429 d3bd ab54 82be
00000140: 3b15 c93d c59b 333e b2de e1bd 826f c23c
00000150: 186e 5dbe aa59 633d 7f93 6c3e d755 5c3d
00000160: 7c82 0bbe b3b7 a03d 2f4d 353e c2b8 0eb9
00000170: 3e47 81bd 4f9f 7c3e c730 e9bd 93c4 06be
00000180: 7671 60be 9c46 4ebe eb56 acbd 3d92 763d
00000190: 32eb 6f3e e02c cebd d5a4 00be 05b5 9b3e
000001a0: f105 c03d f0e2 11be f7b8 1ebe 1b1b 47bd
000001b0: e5d2 b8bd 7fef 7dbd ab07 e5bd 879e b8be
000001c0: d839 ca3d f1e9 8a3d bd0a c83d ecd3 c3bd
000001d0: 5d42 8c3e c76a 87be 84fe 44be 04a9 8e3e
000001e0: 06f7 94be bb3b ecbd 8279 6a3e 06f5 d03c
000001f0: 6415 03be c496 13bc 2d56 10bd cb63 763b
0.4019984 -0.049188465 0.07914937 0.22817934 -0.01565833 0.09448965 0.051448397 0.15545835
-0.10247902 0.09005907 0.17371191 -0.25994244 0.07487381 -0.2956381 0.05306447 -0.03948049
0.13075174 -0.042232703 0.1800351 0.11090011 0.3151576 -0.048177738 -0.2787055 0.26652816
0.17064576 -0.2805643 0.2881521 -0.01720013 0.12883906 -0.24692747 -0.019445581 -0.015615101
0.32042792 0.29098177 0.2347764 -0.052821334 -0.10716747 0.005319848 0.051208764 -0.2709574
-0.18116851 0.018151488 -0.2436876 0.07637427 0.061242707 0.056489293 0.3108771 0.20139721
-0.027183758 -0.06331792 -0.10933079 0.032662425 0.19869179 0.33917016 -0.0814573 -0.30963695
0.41161636 0.19306591 -0.17301974 -0.12940863 -0.062001795 -0.21627173 -0.0017948232 -0.035281647
0.0399577 0.028166458 -0.0058193766 -0.18347201 0.08052234 0.057371 -0.027919833 -0.21330027
0.18107529 -0.16463274 0.056329116 0.27296472 0.039206695 0.23197661 -0.10310677 -0.25455222
0.098185025 0.1753989 -0.11028804 0.023734812 -0.21624029 0.055505432 0.2310314 0.0537928
-0.13623995 0.07847538 0.17705224 -0.00013611003 -0.063124165 0.24670146 -0.11386257 -0.13160925
-0.21918282 -0.20144123 -0.08415016 0.060198057 0.23429564 -0.10067153 -0.12562878 0.30411544
0.09376133 -0.14246726 -0.15500246 -0.048609834 -0.090246 -0.06199598 -0.11183103 -0.36058447
0.09874314 0.06782902 0.09767673 -0.09561905 0.2739438 -0.26448652 -0.19237715 0.27863324
-0.29094714 -0.1153483 0.22897914 0.025507461 -0.12801129 -0.009008113 -0.035238434 0.0037596102

l4.bias f4 [2]
00000000: 95be 403f c128 c73e
0.75290805 0.3889828
