Ablation Experiments/Reward Function-激励函数转浮盈浮亏/Transformer-DoubleDQN-QT-Final/ModelParam/2024-3-13/64network-TransformerNoguiadance.pth (torch, 851590 bytes, 18 tensors)

encoder.self_attn.in_proj_weight f4 [30, 10]
000000 6a d8 8b 40 6d 6b 6d c0 62 65 a3 c0 7b 17 14 40
       4.3701677 -3.7096817 -5.106126 2.3139331
000010 ce b4 d9 3f 7a ad ab 3e a5 dc 1f 3f 5e d4 a1 c1
       1.7008302 0.3353079 0.6244605 -20.228695
000020 4d 5f eb 40 d4 b7 b4 40 f1 37 ff 3f 1c e6 28 c0
       7.3553834 5.64744 1.9938947 -2.6390448
000030 34 68 cb 3f d5 09 e0 be 00 a2 80 c0 b3 23 f7 bf
       1.5891175 -0.437575 -4.0197754 -1.930777
000040 aa bd ed bf 80 ba 00 42 57 c3 13 40 ce 5a 4b 3f
       -1.8573506 32.18213 2.3087976 0.7943543
000050 3c f8 79 c0 c3 ff 3e 40 c9 d4 99 40 9f de ac bf
       -3.905776 2.9843605 4.8072248 -1.3505439
000060 55 6c 0c c0 8b 76 82 bf 5b a6 91 bf 70 14 e9 41
       -2.194112 -1.0192426 -1.1378893 29.13498
000070 79 44 a8 c0 44 aa b1 c0 c2 53 05 c1 45 32 f6 40
       -5.2583585 -5.5520344 -8.332949 7.6936364
000080 e3 e5 93 40 d9 9a 4e bf ab 28 5b 3f 14 6b 66 3f
       4.6218123 -0.8070503 0.8560893 0.9000714
000090 be 26 df 3e ec ba 6c 41 24 8a 4d c1 91 00 14 c1
       0.43584245 14.795635 -12.846226 -9.250138
0000a0 a8 aa cc 40 61 54 b2 c0 9b 06 a2 c0 6b 0a 25 40
       6.395832 -5.5728 -5.0633063 2.5787609
0000b0 cb 29 b4 3f ad fe 16 3c 7f 5e b0 3d d0 92 62 c1
       1.4075254 0.009215993 0.08611774 -14.160843
0000c0 3d 9d 2a 41 4a 52 f2 40 8d c0 56 c0 56 4a 90 40
       10.663388 7.572545 -3.3555024 4.509074
0000d0 2b 14 76 c0 0d e6 9c 3f 0c 3d 92 40 65 06 1b 40
       -3.844981 1.2257706 4.569952 2.4222653
0000e0 12 cc 16 40 f7 43 ff c1 c2 87 79 c0 76 71 09 c0
       2.3562055 -31.908186 -3.898911 -2.14755
0000f0 f7 b3 cb 40 1a 23 c0 c0 e1 06 ef bf ca da 5d c0
       6.3657184 -6.004285 -1.8673974 -3.4664788
000100 2c 7f ce bf d2 5f ae be de f1 37 be c8 57 c5 c1
       -1.613256 -0.3405748 -0.17963359 -24.667862
000110 4d b8 f0 40 3f 5a 07 41 35 9d 15 40 81 a4 29 c0
       7.5224977 8.459533 2.3377202 -2.6506655
000120 20 d1 3e 40 b1 08 9c bf 78 fc 94 c0 06 88 f8 bf
       2.981514 -1.2190152 -4.655819 -1.9416511
000130 7e e4 31 c0 07 00 03 42 6d c3 2d 40 2d 4d 2f 3f
       -2.779571 32.750027 2.7150528 0.68477136
000140 28 1a 91 c0 f2 e8 b9 3f 5b 01 52 c0 e8 8c 64 3f
       -4.534443 1.4524214 -3.2813327 0.89277506
000150 27 e0 12 c0 4f 77 b1 bf c4 0f f8 bf c6 9a ce 41
       -2.2949312 -1.3864535 -1.9379811 25.825573
000160 c8 1e 2d c0 7b d1 99 c0 d9 db 2a 40 ff 49 65 c0
       -2.7050037 -4.8068213 2.6696684 -3.5826414
000170 93 cc 5d 40 a3 7d 5d bf 4d 55 90 c0 6a f4 a7 bf
       3.4656112 -0.8651983 -4.5104127 -1.3121464
000180 83 b0 f9 bf 45 d0 06 42 98 f4 41 40 37 bb d1 3f
       -1.9506992 33.70339 3.0305538 1.6385258
000190 2c 76 66 3f d4 2b 08 3f d4 d0 21 be 14 43 94 bf
       0.90024066 0.53191876 -0.15802318 -1.1582971
0001a0 a1 0b 77 3e 29 c2 53 3e fc 6a b2 3e 19 c4 51 c2
       0.2412553 0.20679535 0.34847248 -52.4415
0001b0 c8 38 ff be 62 82 0c 3f f0 30 0b 3f 88 93 f1 3e
       -0.49848008 0.5488645 0.5437155 0.4718287
0001c0 40 ca 12 3e 63 ef cf bf 9b 0d 7c bd 4d d4 a5 3f
       0.14334965 -1.624493 -0.061536413 1.2955414
0001d0 32 01 8c 3f 21 52 3d c2 29 b0 30 40 ba d0 31 3e
       1.0937865 -47.330204 2.760752 0.17364779
0001e0 ce a7 0c c0 ca 8b d9 be 25 db 2f bf b6 30 aa 3f
       -2.197742 -0.42489463 -0.68693763 1.3296115
0001f0 64 d1 14 bf 41 0b 08 be ad d0 b8 3d bd 26 45 42
       -0.58132005 -0.13285543 0.09024177 49.28783
000200 c9 9a 15 40 4d fd 6a 3f ff ef 1d bf 93 73 7c bf
       2.3375723 0.91792756 -0.6169433 -0.9861385
000210 e5 68 a7 3e f1 b1 02 40 18 87 0d 3f 8b 83 a2 be
       0.32697216 2.0421107 0.5528426 -0.31740984
000220 62 1c a3 be 1d 45 66 42 7b 54 9d bc 03 52 96 3e
       -0.31857592 57.567493 -0.019205322 0.29359445
000230 92 64 39 3f 65 56 1f 3f 15 f5 08 bf e9 d1 1c c0
       0.72419083 0.622412 -0.53498966 -2.450312
000240 1e 89 43 bf b3 7e aa 3e 19 d0 ad 3e b9 2f 60 c2
       -0.763811 0.3329979 0.33947828 -56.046604
000250 ac 2f fd bd f0 21 ca 3e 0f 8c 3e bf ff c2 10 be
       -0.12362608 0.39479017 -0.7443246 -0.14136885
000260 f7 e4 b8 be 6a f9 a9 3f 7c 92 6b be d8 65 e5 be
       -0.36112186 1.327924 -0.23005098 -0.44804263
000270 c4 22 52 bf 59 1c 45 42 83 43 32 c0 11 df 0a 3e
       -0.820843 49.277683 -2.7853706 0.13561656
000280 28 95 00 40 b0 b2 da be 66 93 1a 3e 22 18 47 bf
       2.0091038 -0.42714453 0.1509529 -0.777712
000290 82 9b 33 be 5a 0b 8a be f8 38 19 3d d2 05 4c c2
       -0.1753979 -0.26961786 0.037407845 -51.005684
0002a0 f3 b3 09 3d c5 29 8a bf 2a 3d 10 3f f8 2d 10 3f
       0.03361888 -1.0793997 0.5634333 0.5632014
0002b0 9e bf 1f 3f 38 10 58 bf a1 71 47 3e e8 81 85 3f
       0.6240176 -0.8439975 0.1947694 1.0430269
0002c0 24 c5 98 3f ac 6b 38 c2 a3 99 56 40 44 e3 72 3d
       1.1935163 -46.10515 3.3531272 0.05929877
0002d0 88 a7 94 bf 64 9c b3 3e b6 b0 96 3f 59 db 13 40
       -1.1613626 0.35080254 1.1772678 2.310263
0002e0 8e 44 46 3e 69 76 00 40 db b2 14 40 2f 71 44 42
       0.19362089 2.0072272 2.3234165 49.11053
0002f0 fe 51 56 3d ec 31 4b 40 32 00 12 3f b3 cf 2b 3f
       0.052324288 3.174922 0.5703155 0.671138
000300 ee 08 0d 3f 29 db c8 bf 7c f0 d5 3e 7f 2f 41 3f
       0.5509175 -1.5691882 0.41785038 0.754631
000310 71 69 3e 3f 53 3d 43 c2 f4 6b 44 40 72 09 09 3f
       0.7437964 -48.809887 3.069089 0.5353004
000320 87 d2 ae bf a1 0c d4 3f 3e 20 03 41 af 86 8d c0
       -1.3657998 1.6566354 8.195372 -4.422691
000330 b7 42 44 40 a8 b7 db 3e 91 6c 7f be 1c 9e 8f 41
       3.066572 0.42913556 -0.24943759 17.952202
000340 90 1a 57 bf 51 c9 d7 be d1 4c 86 3f da 76 ec bf
       -0.84024906 -0.4214578 1.0492193 -1.8473771
000350 bf 2c e9 c0 f3 1e 57 40 33 17 78 c0 68 7f 4b be
       -7.286712 3.361264 -3.876416 -0.1987282
000360 94 9e 8b be b2 4c dc c1 a1 03 52 3f ae 11 dc 3e
       -0.27269423 -27.537449 0.8203679 0.4298224
000370 53 00 98 be 12 fd e0 3f ac d4 c2 3f e2 21 27 c0
       -0.29687747 1.7577231 1.5221152 -2.611443
000380 fa 7a 89 40 bd 7d b0 3e 13 2c 21 3f 49 ed 23 41
       4.296262 0.3447093 0.62957877 10.245431
000390 2e 5d 34 bf e7 b0 af bf e5 db 62 bf 2d 8a a9 3f
       -0.7045468 -1.3725861 -0.8861678 1.3245293
0003a0 96 f0 40 40 77 a2 b0 bf 20 f7 95 40 49 44 8b 3f
       3.0146842 -1.379958 4.6864166 1.0880214
0003b0 57 06 33 3f 23 ff 09 41 5b 16 6f bf c6 ec e0 bf
       0.6993155 8.624789 -0.93393487 -1.7572258
0003c0 2f 4b 1b 3e b8 8b fb bf 8c d2 0a c1 23 6f 67 40
       0.15165399 -1.9652014 -8.676403 3.6161582
0003d0 c2 5e 8f c0 57 10 c3 bf 55 ca 32 bf 92 bc 9b c1
       -4.480317 -1.5239362 -0.69839984 -19.467075
0003e0 81 18 85 3f 44 69 ba 3e a1 07 19 3f 0a 35 2b bf
       1.0398103 0.36408436 0.59777266 -0.66877806
0003f0 96 3a ab 40 2b 92 bc c0 7c 0f 85 3d 2c ff f0 3f
       5.3509016 -5.892843 0.06497094 1.8827872

encoder.self_attn.in_proj_bias f4 [30]
000000 76 06 ad 40 d2 ae 03 40 56 ae 8d c0 c4 3a 16 c1
       5.4070387 2.0575452 -4.4275312 -9.389347
000010 3c 9c e6 40 4d 8f 66 c0 1a 64 ee 40 a3 89 10 40
       7.2065716 -3.6024964 7.4497194 2.2584007
000020 2a 48 29 c0 d4 e3 3a 40 c7 fa d9 3e 86 e6 18 3f
       -2.6450295 2.9201555 0.4257414 0.5972675
000030 70 6d e3 be 25 52 ff 3d d2 1c 67 3e 39 87 e9 3d
       -0.44419432 0.1246684 0.22569588 0.11402745
000040 bd 07 06 3f 14 b1 83 be d6 a3 9f be 23 7f b9 bd
       0.5235556 -0.25721037 -0.31179684 -0.090574525
000050 1c ba 3f be 77 f0 4d 3e e8 08 08 bf 3d 42 3d bf
       -0.18723339 0.20111261 -0.5313859 -0.73929197
000060 de 68 d8 3e af 64 a2 3e 7b 97 f6 3e 43 71 b1 3d
       0.42267507 0.3171744 0.48162445 0.08664181
000070 1d 4c 22 3e 3d 53 07 3f
       0.15849347 0.52861387

encoder.self_attn.out_proj.weight f4 [10, 10]
000000 53 ca b8 3f 99 ec 7d c0 f9 46 a2 3f 9f 13 da 3f
       1.4436744 -3.9675658 1.2677909 1.7037238
000010 ca 28 13 c0 b2 97 0b 40 43 d9 32 c0 0c 2e 0c bf
       -2.2993646 2.1811337 -2.7945106 -0.5475776
000020 f1 c5 4a 40 a4 56 b5 bf 29 df 09 c0 41 24 e4 3f
       3.1683314 -1.4167066 -2.1542456 1.7823564
000030 b0 69 84 be 74 d0 86 be 3c 86 35 bd 0b 89 06 3f
       -0.25861883 -0.26330912 -0.04431747 0.5255286
000040 b9 41 86 3e e6 bf 2c 40 81 e0 c7 3f 1e 14 71 3f
       0.26222017 2.6992126 1.5615388 0.9417132
000050 6e c1 c3 3f 0f b5 48 c0 c0 ed c1 bf 0c c3 d0 bf
       1.5293405 -3.136051 -1.515068 -1.6309524
000060 e2 54 18 3f 23 cb ff be d4 5a 16 40 9c 3f 42 c0
       0.5950452 -0.4995967 2.3492937 -3.0351324
000070 7c 46 80 bf 5e 30 0c 3f 2d 57 bc 3f 49 2a 0f c0
       -1.002151 0.547613 1.4714104 -2.236956
000080 37 70 35 3f 6d 9d 4d 3f 74 4d 48 bf 9a 66 0c bf
       0.7087435 0.8031834 -0.78243184 -0.5484406
000090 a0 b5 4d bf b1 fe 2f c0 7a 5d 3b bf 40 34 56 bf
       -0.8035526 -2.7499201 -0.7318951 -0.8367348
0000a0 0d 84 b8 3f da 1d ab bf 31 71 50 bf ae cd a1 bf
       1.4415299 -1.3368485 -0.81422716 -1.2640893
0000b0 6f e6 96 3f c5 a0 05 bf f9 ad 25 3f e6 97 01 c0
       1.1789073 -0.5219844 0.64718586 -2.0248961
0000c0 0f 68 7a bf e0 67 3e 3e 1a 0d 01 bf 09 b4 7b bf
       -0.9781503 0.18594313 -0.50410616 -0.98321587
0000d0 4c 75 05 bf 2a 03 0b bf 24 87 6a 3f ba 02 cf 3e
       -0.52132106 -0.543017 0.9161246 0.40431768
0000e0 c4 ce 39 3f fe b2 ed 3c a9 5a f6 3e 52 76 46 3f
       0.72581124 0.029016014 0.48116043 0.7752429
0000f0 c9 87 d8 3e 50 eb 8e bf d4 1d c5 3f 06 7a d1 3f
       0.42291096 -1.1165562 1.5399728 1.6365364
000100 db 58 0d bf 3a 40 46 bf a8 9a d3 3e 79 63 22 bf
       -0.5521371 -0.7744175 0.4132893 -0.63433033
000110 a2 15 80 bf 0e 2a 40 bf 78 a5 46 3e 54 d8 21 3e
       -1.0006602 -0.7506417 0.19399059 0.15805179
000120 95 76 d8 bf b4 9d 8c bf 1d bb 12 3f 72 ad 47 bf
       -1.6911188 -1.0985627 0.5731676 -0.7799903
000130 ed a4 b3 be a2 be 44 bf ab 05 01 be a4 46 3a 3f
       -0.35086766 -0.7685338 -0.12599818 0.7276404
000140 98 06 86 3f e7 7e e0 bf ec 84 bf 3f 7e ef ce 3f
       1.0470762 -1.7538728 1.496244 1.6166837
000150 46 09 8d bf 29 19 12 3f 9a e8 f9 bf 98 01 8c be
       -1.1018455 0.5706964 -1.9524109 -0.27344966
000160 fa bc cc 3f 63 3e 86 bf 8c 03 72 c0 03 82 03 41
       1.5995171 -1.0487789 -3.7814665 8.219241
000170 d8 65 a2 bf 86 8f 84 bf 65 be 34 40 ab d3 19 c0
       -1.268733 -1.03563 2.8241208 -2.4035442
000180 83 75 18 3f 9c 6e e9 40 06 28 1d be ec 2d 0e 40
       0.5955431 7.294752 -0.15347299 2.2215528

encoder.self_attn.out_proj.bias f4 [10]
000000 73 0f 4d be 12 23 1d 40 20 11 40 3f 28 5e ed bf
       -0.20025425 2.4552655 0.7502613 -1.8544359
000010 24 43 61 3f a1 63 15 3f 5e d8 9a bf 2b c8 b4 3d
       0.87993073 0.58355147 -1.209728 0.088272415
000020 64 df 98 bf cb d2 bf 3f
       -1.1943173 1.4986204

encoder.linear1.weight f4 [64, 10]
000000 89 dc 09 3f ba 76 ec bf 6d ab 7e 3f e1 a4 7a 3f
       0.53852135 -1.8473732 0.99480325 0.97907835
000010 6b e5 ec 3f 5b f3 11 3f a9 e7 82 40 62 ae 85 3d
       1.8507513 0.57011956 4.090779 0.065274015
000020 72 6e 53 c0 34 60 5c 3f 0c ce 24 bf 75 51 34 3f
       -3.303616 0.86084294 -0.643769 0.70436794
000030 88 7d e9 bf f5 e3 dd 3f b3 2b 3e c0 e6 cf f5 bf
       -1.8241434 1.7335192 -2.9714172 -1.920407
000040 50 f4 14 be f6 e3 07 bf 3d bf bd 3f b4 f7 48 3e
       -0.14546323 -0.53082216 1.4823986 0.19625741
000050 34 47 27 40 4a eb 65 3f 25 1f 07 c0 85 49 5d 3f
       2.613721 0.8981215 -2.111276 0.86440307
000060 7e 0b 49 bd 93 44 89 3e c1 c4 0a c1 94 bf c1 40
       -0.049083225 0.2681013 -8.673036 6.054636
000070 37 d6 b5 3d f4 82 19 3f 09 d5 fe 3f 85 9e 71 3f
       0.08878749 0.59965444 1.9908763 0.94382507
000080 3e 8a d4 bf 8a 40 ef 3f 38 a4 43 c0 c6 ef 36 c0
       -1.6604688 1.8691571 -3.056898 -2.8583846
000090 4a c5 ad be 1f cf d9 3f a7 ee 12 40 68 09 21 c0
       -0.33939582 1.7016333 2.2958162 -2.516199
0000a0 46 bb 45 bf bc fb b0 3f 4e 32 d8 bf d3 22 ba 3f
       -0.7723888 1.3826823 -1.6890352 1.4541878
0000b0 c9 02 53 c0 53 29 f6 bf 19 a1 1c be 8d be 1e be
       -3.297045 -1.9231361 -0.15295829 -0.15502377
0000c0 a3 bb 84 3f 9f 6c f9 3e 99 df 8c 3e fc f4 87 3f
       1.0369762 0.48715684 0.2751434 1.0621638
0000d0 02 74 de 3f 7e 8f 1e 40 ec 4c 20 3e b9 06 82 be
       1.7379153 2.477508 0.15654343 -0.25395754
0000e0 7e f1 82 bf 52 b2 87 3f bb 12 ab bf 3e a3 0f 3f
       -1.0229948 1.0601294 -1.3365091 0.5610846
0000f0 73 97 59 3f 5c 97 ba 3f f4 c8 e3 3e 80 60 9b 3e
       0.8499672 1.4577441 0.44489253 0.3034706
000100 22 77 69 3e 2e be aa bf 64 dc d0 be cb 82 a5 3f
       0.22799352 -1.3339288 -0.40793145 1.293054
000110 4a 79 18 bf 41 05 1f bf 99 d1 08 40 b0 57 87 bf
       -0.5956007 -0.6211739 2.1377928 -1.0573635
000120 43 d5 ea 3e 73 ca b5 3e 25 71 de 3f 4f 86 af 3f
       0.4586583 0.3550602 1.7378279 1.3712863
000130 4c 4d dc 3f b7 65 2b 3f 8f c3 25 c0 13 7a 0d 3f
       1.7211089 0.6695208 -2.590061 0.55264395
000140 d2 63 ee 3f e7 d4 e4 40 e6 8c eb 3f 44 c2 96 c0
       1.8624213 7.150989 1.8402374 -4.711214
000150 65 0a cf 3f df a9 2f 40 4b 3a 4f c0 92 c8 46 40
       1.6175047 2.744743 -3.237933 3.1059918
000160 ed ec a8 c0 50 b8 b6 c0 11 82 f5 3f f3 ae da be
       -5.2789216 -5.709999 1.9180318 -0.427116
000170 12 a9 0d 40 ac 2f 2e 3f 58 4c 27 40 11 ff 2f 40
       2.2134442 0.6804149 2.6140347 2.749943
000180 d5 86 03 bf ca 95 e2 3f 56 bd 92 c0 c7 8b dd 3f
       -0.5137761 1.7701962 -4.5856123 1.7308282
000190 db d8 91 bf 26 7e cd 3f 8b 96 70 bf b0 69 16 40
       -1.1394304 1.6054122 -0.9397971 2.3502007
0001a0 30 f1 62 bf 05 d3 f7 bf 4d 97 de bd ad 2f 37 3f
       -0.8864927 -1.9361273 -0.10868702 0.7155712
0001b0 67 94 2a 40 92 32 65 3f 3d c3 2b be ce 42 36 3f
       2.6653078 0.8953029 -0.16773696 0.71195686
0001c0 df 0a dc 3e ff b1 00 40 4d 5c ef bf b0 fb 39 c0
       0.42977044 2.010864 -1.8700043 -2.9059868
0001d0 90 b3 59 40 4a 9b 14 c0 11 22 20 bc e7 7d 8a bf
       3.4015846 -2.321978 -0.009773747 -1.0819672
0001e0 9a e6 03 40 87 9b 59 40 f3 3c 34 c0 ca d4 13 3f
       2.0609498 3.4001176 -2.81622 0.57746565
0001f0 75 d3 dc bf 81 3c 04 c0 01 81 a9 be 5b 4c 19 3f
       -1.7252032 -2.0661929 -0.33106235 0.59882134
000200 81 4c b9 3f c0 76 7a c0 c4 97 24 be 2c fc 3e bf
       1.4476472 -3.913498 -0.16073519 -0.74603534
000210 a2 ac 28 c0 a2 a0 27 3f 6d a6 c2 bd 8e 29 2a bf
       -2.6355367 0.6547948 -0.095043994 -0.6646966
000220 66 cf 87 bf 82 89 82 3f b1 26 50 40 3b 00 0b 40
       -1.0610168 1.0198214 3.2523615 2.171889
000230 fe a6 08 3f 47 aa 94 bf 6b 81 f1 bf ff b8 8d 3f
       0.5337981 -1.1614465 -1.886762 1.1072081
000240 2b 3e be bf 6c 0b 8c bf 84 66 21 bf 07 7d e2 3d
       -1.4862722 -1.0940986 -0.6304705 0.11059003
000250 2d 0d 3f 40 9b 62 a8 3f 00 06 2a bf ce 75 41 3f
       2.9851792 1.3155092 -0.66415405 0.7557038
000260 a8 70 11 c0 2e 32 e4 3f 0d 47 2c c0 68 14 ea bf
       -2.272501 1.7827814 -2.6918366 -1.8287477
000270 27 d6 86 be c9 fc d7 be e1 84 e9 3f 03 05 cc 3e
       -0.2633526 -0.42185047 1.8243676 0.39847574
000280 81 ab c9 3f d5 4f 88 3f be ed 3e 3d 62 60 d2 3f
       1.5755464 1.0649363 0.046613447 1.6435664
000290 77 bb 38 bf 70 7a 8e bf 1c 2e ca bf fc cf 09 40
       -0.7216105 -1.1131115 -1.5795321 2.1533194
0002a0 1f e9 cf be 13 2b f6 bf 42 b4 6c 3f 04 f9 eb 3e
       -0.40607545 -1.9231895 0.9246255 0.4608842
0002b0 17 5d f2 3f 2d bd 88 3f 44 69 4d 3f fd 0b bd be
       1.8934659 1.0682732 0.8023875 -0.3692321
0002c0 a8 65 f1 be 45 e7 43 3f 22 50 1c bf 0f 31 13 bd
       -0.4714787 0.76524764 -0.6105977 -0.035935458
0002d0 f2 cd 84 bf 21 f8 94 3e 06 c6 56 3e db 9e 7f be
       -1.037535 0.29095557 0.20973977 -0.24962942
0002e0 45 78 0c bf c2 3a e0 3d 5a 96 7a 3f de 70 2b bf
       -0.54871017 0.10948707 0.9788567 -0.66969097
0002f0 95 49 c6 3e 44 df cc bd 50 9c 3e 3e 47 87 12 bf
       0.38728014 -0.10003522 0.18614316 -0.57237667
000300 e8 59 d2 bf 70 ca c6 3e 95 6e ab bf 43 ac 5a bf
       -1.6433687 0.38826323 -1.3393122 -0.854191
000310 68 e9 1c bf c1 fa 75 3e 37 16 18 40 fe 46 83 3f
       -0.6129365 0.24021436 2.376356 1.025604
000320 3e ee c3 3e b3 2a 03 c0 de 7c e2 3f a9 ca 45 bf
       0.38267702 -2.0494812 1.7694356 -0.7726236
000330 51 67 af 3f 69 fa 97 3f 1e 3e 07 3f 84 90 31 be
       1.3703405 1.1873294 0.5282916 -0.17340285
000340 b7 79 d2 bf 74 cb bd 3f bb 45 d9 3e d8 9b 66 3e
       -1.6443394 1.4827714 0.42436013 0.22520387
000350 1d 26 20 c0 89 a2 50 3f 5e f3 37 c0 3b 51 ca bf
       -2.5023263 0.8149801 -2.874229 -1.580604
000360 5c d5 5c bd 1a fd 61 3e 0c 47 ad 3f fc 81 8f 3f
       -0.053914413 0.22069207 1.3537307 1.1211543
000370 9b 4b 2f 3f 8a c0 3e bf 74 3b d5 3f 45 8a e0 3e
       0.6847474 -0.7451254 1.6658769 0.4385549
000380 5a 43 b0 3f 4a 29 29 3e fa de 28 be 2b cb 6f 3f
       1.3770554 0.16519657 -0.16491309 0.93669385
000390 9b 66 c5 bf 37 75 47 bf 6d c5 81 3d b5 47 16 be
       -1.5421938 -0.7791323 0.06336484 -0.14675792
0003a0 ca 09 eb bf 98 34 4e 3f 30 93 8c bf f9 d2 85 bf
       -1.8362362 0.80549 -1.0982418 -1.0455009
0003b0 86 76 2b bf 7c ee 18 3f 7f b4 46 40 4b 10 ba 3f
       -0.6697773 0.597389 3.1047666 1.4536222
0003c0 ea 43 3b bf 95 0c bb 3e ae e5 6f bc 88 85 67 3e
       -0.73150504 0.36533037 -0.014642162 0.22609532
0003d0 cf 30 f1 bd ee 6a c8 be 00 43 bd 3f 76 fe f3 bf
       -0.117768876 -0.3914408 1.4786072 -1.906203
0003e0 0d 19 08 3f 15 4d 03 bf 3e 8c ed be b6 58 f4 3e
       0.53163224 -0.5128949 -0.4639606 0.4772393
0003f0 42 e9 c0 bf b3 74 b2 3f 2a 55 50 c0 2d d7 e8 bf
       -1.5071185 1.3941864 -3.255198 -1.8190666

encoder.linear1.bias f4 [64]
000000 4a 6d 1a 3f b8 40 88 3f 3e 92 20 40 b8 08 f6 3f
       0.6032301 1.064475 2.508926 1.9221411
000010 c5 8c 8c 3f eb cc bf 3f 71 7b de 3d d9 0f 32 3f
       1.098046 1.4984411 0.10863388 0.6955543
000020 7d 34 2b 40 b2 91 de 3f 0b 4c 7c 3f eb 91 5a be
       2.6750786 1.7388213 0.9855353 -0.21344726
000030 ef b8 6e 3f 89 a7 a1 3f a9 62 c1 3e c5 41 bd 3f
       0.93250936 1.2629253 0.37770584 1.4785696
000040 6a 61 06 40 9e 2f 03 3f 65 2d 82 bf bd 33 8f bc
       2.0996957 0.51244533 -1.0170103 -0.017480725
000050 90 64 3b bf 66 ce 6c bd 48 d6 c5 3f a4 e0 35 3e
       -0.7320032 -0.057814024 1.5456018 0.17761475
000060 9c 7c 37 bf 90 4f 78 3f bd cc fe 3e 5e a9 80 3e
       -0.71674514 0.969964 0.49765578 0.25129217
000070 78 d0 07 40 c3 a3 6e be dd 1c 8d bf e6 f4 97 bf
       2.122099 -0.23304658 -1.1024433 -1.1871612
000080 f3 b0 99 3f 93 22 70 3f e9 a9 ee 3f 8f 4c e2 3e
       1.2007126 0.93802756 1.8645602 0.44199035
000090 79 da 23 3f 84 f6 6b bf b0 15 d3 3f 85 f8 bd bf
       0.6400524 -0.9217303 1.6490993 -1.4841467
0000a0 b2 94 dd 3e f1 b5 1c 40 f9 58 12 40 58 2b b5 bf
       0.43277508 2.4486048 2.2866805 -1.4153852
0000b0 6a 64 11 bf d8 ed da 3f a1 fe 97 bf 24 69 3f 40
       -0.56793845 1.7103834 -1.1874582 2.9907923
0000c0 1f 33 45 40 69 b9 9a 3f e2 00 97 3e 54 07 d5 3f
       3.0812452 1.2087833 0.2949286 1.6642861
0000d0 f0 35 3a 40 73 d5 c1 3e 36 34 ae 3e d5 32 f5 3f
       2.909542 0.3785816 0.3402421 1.9156138
0000e0 02 17 18 3f d7 f0 00 3f f0 67 ac 3e 71 3a 9e 3f
       0.5941011 0.5036749 0.33673048 1.2361585
0000f0 43 a1 bd 3f 8f 17 35 3f 22 37 b6 3e 49 2f 49 bf
       1.4814838 0.7073907 0.35588938 -0.78587776

encoder.linear2.weight f4 [10, 64]
000000 0e 02 82 40 d7 6d 0f 40 bb 05 91 bf b3 0d 16 bf
       4.062751 2.241079 -1.1329874 -0.58614653
000010 3e cd 06 40 f9 4e 5c 40 68 05 06 40 23 7b 18 40
       2.106277 3.44232 2.09408 2.3825157
000020 fa 58 c0 40 47 21 9c 40 c5 a2 94 3f 53 06 a1 c0
       6.0108614 4.879062 1.1612173 -5.032022
000030 6c 0f d1 be 81 a6 2a 40 88 cb 03 40 a3 2c f8 3f
       -0.40832078 2.6664126 2.0592976 1.9388622
000040 17 66 a1 3f 9b d8 61 40 d0 b0 6b 3e 77 42 00 40
       1.260928 3.5288455 0.23016667 2.0040567
000050 f4 66 0b 40 ec b2 24 40 ee 23 ae 3f 31 ee e7 3f
       2.1781588 2.5734205 1.3604715 1.8119565
000060 31 9e 24 3d 61 a3 09 40 89 24 06 40 f2 0e 48 40
       0.040189926 2.1505969 2.09598 3.1259122
000070 68 df eb 3f 13 f0 4b 40 fd 36 48 3e 8e 3f 95 3e
       1.8427553 3.186528 0.19552226 0.2915005
000080 31 d9 32 40 2a ba 9c 3f 0d 2c 82 40 2d 9f f7 3f
       2.7945063 1.2244313 4.0678773 1.9345452
000090 2f 4d f6 3f 60 6d 17 3e 77 de 5b 40 b6 19 50 3f
       1.9242305 0.14787817 3.4354532 0.8128923
0000a0 a3 04 12 40 97 18 f3 3d 41 8d 91 be 0b 89 7f 3f
       2.281533 0.118699245 -0.2842808 0.99818486
0000b0 07 e5 07 40 69 37 8f 3f b6 5d c0 3d c3 af 85 3c
       2.1233537 1.1188785 0.09392874 0.016319161
0000c0 e2 95 b3 3f 53 d1 f6 3f e7 34 4a 40 3a 8c a0 40
       1.4030116 1.9282631 3.159479 5.0171175
0000d0 97 bb 2c 40 35 ec a8 3f 63 2d fe 3f bc 33 b3 3f
       2.6989496 1.3197085 1.9857601 1.4000163
0000e0 cd 09 9e 3f 19 32 fe 3f 6f 98 0a 40 4b f9 dc be
       1.2346741 1.9859039 2.1655538 -0.43158945
0000f0 1c c9 25 c0 96 5e 7f 40 2d 77 74 40 fe 16 69 c1
       -2.5903997 3.990148 3.819774 -14.568113
000100 f3 06 a7 40 fb 7e b4 3f 24 89 a6 40 5c e6 29 40
       5.2195983 1.4101251 5.204241 2.654685
000110 64 cd c5 3f 7f d6 27 40 31 5c d8 3f 02 5b 87 40
       1.5453305 2.6224668 1.6903135 4.2298594
000120 38 83 a8 40 b1 95 9c 40 c2 11 ea 3f ad ef 45 40
       5.266018 4.893273 1.8286669 3.0927536
000130 b3 81 1b 40 68 24 22 40 08 cb 75 3f 86 f9 bc 3f
       2.4297912 2.533472 0.96012926 1.4763649
000140 70 f2 29 40 39 36 22 40 11 cf ed 3e 7a d2 7e 3f
       2.6554222 2.5345595 0.46447042 0.9953991
000150 51 43 12 40 ed 38 8a 3f e9 58 14 40 06 56 83 3f
       2.2853587 1.0798622 2.3179266 1.0260627
000160 80 f0 cc 3f 12 93 d6 3f f0 76 07 40 e6 41 0f 40
       1.6010895 1.6763632 2.1166344 2.2383971
000170 61 31 3a 40 ae 9d 3e 40 01 45 75 3d 8a be d5 3e
       2.9092638 2.978374 0.05988026 0.41746932
000180 f3 6c d0 3f dd 07 3c 3f ce 8a 8a 40 ba 4e 8c 3f
       1.6283249 0.734495 4.329444 1.0961525
000190 46 03 63 3f 31 03 ef 3e c4 8d ce 40 99 8d 1a 3f
       0.8867687 0.46682122 6.4548054 0.6037231
0001a0 91 d0 7d 3f 92 4b 32 40 2b 84 28 40 61 0e 6d 3f
       0.9914637 2.7858624 2.633067 0.92600065
0001b0 81 01 82 3f e8 dc 23 40 53 24 a0 bd 55 79 37 40
       1.0156709 2.560358 -0.07819428 2.8667805
0001c0 b6 a5 43 40 e2 c8 a4 3f 77 41 42 40 65 78 99 40
       3.0569892 1.2873805 3.0352457 4.7959466
0001d0 ff 5b cf 40 ff 38 7d 3f fc f4 9a 3f 97 a0 21 40
       6.47998 0.98915094 1.2106013 2.5254266
0001e0 a7 cb 34 40 6f 4c 95 3f 26 3c cf 3f 45 e2 83 40
       2.82493 1.1663951 1.6190231 4.121371
0001f0 79 dd 8b 40 da 23 26 40 2d ed 22 40 d9 8a fd 40
       4.370785 2.5959382 2.545726 7.923199
000200 7a 70 d2 3f 45 77 45 c0 a2 44 ed c0 f7 d3 50 c0
       1.6440575 -3.0854046 -7.414628 -3.2629373
000210 71 df 73 c0 e8 03 6c c0 07 02 0e c0 b8 33 13 be
       -3.8105128 -3.6877384 -2.2188737 -0.14375198
000220 90 11 fe 40 b2 97 ad bf f6 19 2f c0 55 2a 7f c0
       7.939644 -1.3561919 -2.7359595 -3.9869587
000230 f5 85 35 bf 10 08 41 c0 03 a6 30 c0 58 c6 44 c0
       -0.7090753 -3.016117 -2.7601326 -3.074606
000240 fe 66 85 c0 79 e0 74 c0 b4 d8 f0 be c1 30 28 c0
       -4.1688223 -3.8262007 -0.4704033 -2.6279757
000250 f4 72 b1 c0 a2 5f 29 c0 f9 d3 8e c0 ca 0f 1b c0
       -5.5452824 -2.646462 -4.4633756 -2.4228387
000260 99 2c 53 c0 0c c6 57 c0 64 1a 15 c0 5a bb 49 c0
       -3.299597 -3.3714628 -2.3297358 -3.15206
000270 af 03 96 c0 af 12 80 c0 f9 ed 38 bf aa 95 4a bf
       -4.6879497 -4.0022807 -0.7223812 -0.7913462
000280 2d f7 80 c0 8c ac 4f c0 0e 21 fb 3f 49 e9 20 c0
       -4.030173 -3.2449064 1.9619462 -2.5142386
000290 8e e6 25 c0 2e 03 3b 3f ba b2 aa c0 e1 45 a3 be
       -2.592197 0.73051727 -5.334317 -0.3188925
0002a0 f4 9d 3b c0 e4 93 72 c0 50 21 80 c0 d0 ce 52 be
       -2.9315157 -3.7902765 -4.0040665 -0.20586705
0002b0 4b cf 2c c0 96 1d 6a c0 8f 8c 40 bf 72 fa 91 c0
       -2.7001522 -3.6580558 -0.75214475 -4.561822
0002c0 49 46 9b c0 cf 28 5d c0 63 7b 3d c0 de 31 d6 bf
       -4.8523297 -3.4556158 -2.960656 -1.6733968
0002d0 d7 34 84 c0 d2 fc d3 bf 92 1e 26 c0 31 12 31 c0
       -4.13145 -1.656153 -2.5956159 -2.7667353
0002e0 8c 91 4f c0 c7 99 28 c0 ce 5f 31 c0 c8 1e 9f c0
       -3.2432585 -2.6343858 -2.7714725 -4.9725075
0002f0 0e bd ca c0 7a 5a 80 c0 19 ca 75 c0 a3 7d 40 c0
       -6.335578 -4.0110445 -3.84046 -3.0076683
000300 c1 59 b5 bf 06 a4 e0 3f cf af 80 40 ab b6 2e 40
       -1.4168016 1.7550056 4.021461 2.7298992
000310 20 b8 c8 3f 35 21 4e 40 38 05 0e 40 f6 87 15 40
       1.568119 3.2207768 2.2190685 2.3364234
000320 80 a1 bf 40 43 6a 5c 40 a1 e8 f3 3f 66 6c 26 40
       5.9884644 3.4439857 1.9055368 2.600366
000330 42 86 07 40 36 37 07 40 07 c2 f0 3f 47 15 eb 3f
       2.1175694 2.1127448 1.8809212 1.8365868
000340 87 bc 39 40 0e 1d 44 40 04 4a 37 3f 9d d2 d8 3f
       2.9021318 3.0642734 0.71597314 1.6939274
000350 65 b3 16 3f 80 95 d7 3f 09 b3 23 40 14 c9 e6 3f
       0.58867484 1.6842499 2.5578024 1.8030114
000360 54 66 b1 3e d7 d7 d1 3f 33 ca 17 40 64 9e 0a 40
       0.34648383 1.6393994 2.3717163 2.1659174
000370 23 8f 4c 40 60 d1 f3 3f 2b d3 f8 3e 37 33 c2 be
       3.1962364 1.9048271 0.48598608 -0.379297
000380 5e 28 df 3f 4c a7 1e 3f c7 d7 c6 3f 19 37 f7 3f
       1.7434194 0.61974025 1.55346 1.931369
000390 c3 96 f9 3f 33 b5 99 bc cb e1 27 40 7d 30 ce 3e
       1.9499134 -0.01876316 2.6231563 0.4027137
0003a0 d2 de d6 3f a0 58 1f 40 90 fd 35 40 17 88 97 bd
       1.6786749 2.4897842 2.8436012 -0.07399004
0003b0 a2 3d f7 3f 6f 13 17 40 37 06 de 3e 25 38 1c 40
       1.9315684 2.3605611 0.43364117 2.4409268
0003c0 e5 ed 33 40 2f f1 f1 3f 7b 4c 22 40 c3 5a 4b 40
       2.811395 1.8901728 2.535918 3.1774147
0003d0 fb a4 0f 40 7f fd d2 3f b8 30 c0 3f ac 14 21 40
       2.2444446 1.6483611 1.5014868 2.5168867
0003e0 9b 9a 1c 40 14 fb f4 3f da d5 e9 3f 64 4f 8c 40
       2.4469364 1.9139123 1.8268387 4.384691
0003f0 2e 1e 93 40 c9 e5 3c 40 cd cb ee 3f 39 30 bd 40
       4.597434 2.951525 1.8655945 5.9121366

encoder.linear2.bias f4 [10]
000000 03 36 19 40 52 1c 02 40 ee e4 65 c0 90 4e 07 40
       2.3939216 2.0329785 -3.5920978 2.11417
000010 db ce d2 3f 9c 3e 92 3f 1f 1a 03 3f 5a ef 06 40
       1.6469377 1.1425357 0.5121173 2.1083589
000020 4b dd d8 3f 62 70 0d 40
       1.6942533 2.2099843

encoder.norm1.weight f4 [10]
000000 89 d8 ad be f0 8e fe 3f 8d 9e e6 3f ba 87 b8 3f
       -0.33954266 1.9887371 1.8017136 1.441642
000010 d8 95 89 3f 57 37 6b 3f 09 f4 8d 3f 53 54 a1 3f
       1.0748854 0.91881317 1.1090099 1.2603859
000020 8c 5c 48 40 91 57 2b c0
       3.1306486 -2.6772196

encoder.norm1.bias f4 [10]
000000 82 8a f7 3e e4 ac cc 3f 83 68 f1 bc 78 d6 9c be
       0.4834786 1.5990262 -0.02946878 -0.30632377
000010 0c 64 99 3f 8b 26 18 3f fc a7 d8 bf c5 9d c9 3f
       1.1983657 0.5943381 -1.6926265 1.5751272
000020 27 76 69 bf 54 f8 3a bf
       -0.9119591 -0.7303517

encoder.norm2.weight f4 [10]
000000 c9 2b 03 bf 36 5a d9 3e 02 ff a0 3f cb 75 d9 3e
       -0.51238686 0.42451638 1.2577822 0.4247268
000010 e3 31 04 3f 2e 83 91 3e 94 06 52 be 6e 5b bf 3e
       0.5163862 0.28420395 -0.20510322 0.37374443
000020 f0 50 44 3f 60 4f c1 be
       0.76686 -0.3775587

encoder.norm2.bias f4 [10]
000000 b6 98 66 bf df ee 0d bf 4f d7 83 bf 74 03 03 be
       -0.9007677 -0.55442613 -1.0300082 -0.12794286
000010 9a b3 1a bf f9 30 d2 bf 3e 13 08 be a9 32 9e be
       -0.604303 -1.6421195 -0.1328859 -0.30898026
000020 43 ad 42 3d 49 b9 6b bf
       0.047528517 -0.920796

l2.weight f4 [64, 3200]
000000 e3 9f b8 bd 00 4c 71 3c 9f 4b 33 3f a0 fb c1 bd
       -0.09014871 0.0147275925 0.70037264 -0.09471822
000010 d1 82 78 3e 90 6d 37 3e cb 6e ec 3e 9b 4c b7 3e
       0.24268652 0.17912889 0.46178278 0.35800633
000020 e5 ca 94 3f 2c 17 41 3e 79 46 0a bf 5d f9 eb be
       1.1624418 0.18856496 -0.5401378 -0.46088687
000030 bb 1a 1d 3f 4a 11 15 bf a7 77 4d 3e d3 60 9c 3e
       0.6136891 -0.58229506 0.20065175 0.3054262
000040 d6 45 20 3f 11 a4 09 3f 0f 4d ba 3f ee 7f 18 3f
       0.6260656 0.5376597 1.4554766 0.59570205
000050 9f f6 af be 1f 40 5f bf 2a 45 23 3f a7 b0 12 bf
       -0.34367844 -0.87207216 0.6377741 -0.573008
000060 4b e0 f6 3d dc 89 37 3f 01 b4 16 3f 88 65 8b 3b
       0.12054499 0.7169473 0.58868414 0.004254047
000070 20 75 bd 3f cf d3 0e 3f 34 6c 37 bf db 4e 90 be
       1.4801369 0.55791944 -0.7164948 -0.28185162
000080 61 2a 43 3f f6 58 53 be 0d 00 f4 3d 28 e5 36 3f
       0.7623654 -0.20639405 0.11914072 0.71443415
000090 77 c4 06 3f 65 98 e7 3d 37 b2 37 3f 8f 5e ab 3e
       0.5264353 0.11308364 0.7175631 0.3347058
0000a0 22 30 a9 bf ef dc d5 be 95 49 56 3f 42 9a 37 be
       -1.3217814 -0.4177012 0.8370603 -0.17929938
0000b0 13 cb 3b bd e6 5d 66 3f ba 7e 10 3f 93 7d c1 be
       -0.045847964 0.8998703 0.5644337 -0.37791118
0000c0 ea 77 83 3f 3e af 97 3e 74 56 7e bf 23 84 17 3b
       1.027097 0.29625887 -0.99350667 0.002311953
0000d0 6d 46 28 3f ee 78 51 be eb 1c 1e 3e f6 8b 4a 3e
       0.6573246 -0.20456287 0.15440719 0.19779953
0000e0 5a 7d 07 3f b1 f8 ba be ca f5 81 3f 9d fc f2 3c
       0.52925646 -0.3651786 1.0153134 0.029661471
0000f0 c1 7f 7e 3e 7f d2 11 bf 65 2d 1d 3f 3b 04 a6 be
       0.24853422 -0.56961817 0.6139739 -0.32425103
000100 9c 34 93 3e ca a4 bb 3c b4 e9 48 3e fa 81 1b bb
       0.28751075 0.022905726 0.196204 -0.0023728595
000110 8a 5d d4 3f ee 53 aa be 1d 1a 8a be f3 01 c0 bf
       1.6591046 -0.33267158 -0.26973048 -1.5000595
000120 4f ba 25 3f fa 07 7d be b2 a9 be bc 62 94 e3 3e
       0.6473741 -0.24710074 -0.023274276 0.44449145
000130 5a 67 1b 3f a1 cb a9 be 2f 53 a7 3f 0c 07 9c 3d
       0.60704577 -0.3316317 1.3072261 0.076185316
000140 c1 13 9d bd 54 25 0b bf 4a fc 43 3f 5c e7 83 bd
       -0.076697834 -0.54353833 0.7655684 -0.06440613
000150 a4 18 91 3d 79 fc d0 3e 24 03 fc 3e 1e 68 71 3d
       0.07084778 0.4081762 0.49221146 0.058937185
000160 42 a5 9b 3f 50 45 a1 3e ab 4b 88 bf 59 f6 9e be
       1.2159808 0.31498194 -1.0648092 -0.31047323
000170 e7 dd 1a 3f 32 61 1a be fc 3f c0 3d 26 d4 d1 3e
       0.60494846 -0.1507614 0.09387204 0.4098217
000180 f1 81 da 3e 96 13 09 bf d1 21 b5 3f 86 5a 0a 3f
       0.42677262 -0.5354551 1.4150945 0.5404438
000190 f4 7d 87 be 67 51 ad bf d7 88 26 3f 10 16 7f be
       -0.26463282 -1.3540467 0.6505255 -0.2491076
0001a0 9d 4e b2 3d b8 fa ba 3e 1e 38 15 3f b5 6c 0e bc
       0.087064005 0.36519408 0.58288753 -0.00869291
0001b0 2a 03 84 3f 3a 00 a3 be 88 e5 a8 be af 81 b6 be
       1.0313466 -0.3183611 -0.32987618 -0.35645816
0001c0 22 de 2d 3f ef 55 ca be dc 5c aa bb 75 2f e6 3e
       0.6791707 -0.39518687 -0.005199058 0.44958082
0001d0 d9 b4 28 3f 9a 71 03 bf 38 3d 66 3f 7a f7 d1 bd
       0.6590095 -0.5134522 0.8993716 -0.102522805
0001e0 ce fa a1 bf 3e c4 be be 37 67 16 3f 64 d4 e9 bd
       -1.2654665 -0.37259096 0.58751243 -0.114174634
0001f0 43 40 bd 3d c9 31 4a 3e 2c 30 41 3f e7 c0 af be
       0.092407726 0.19745554 0.7546413 -0.3432686
000200 89 92 41 3f a8 20 14 3c c6 60 fd be 41 4f 0b bf
       0.7561422 0.009040989 -0.49487895 -0.54417807
000210 04 1b 31 3f e9 65 fd bd 7b 4a 7a 3c ad a3 12 3f
       0.6918185 -0.123729534 0.015276547 0.57281
000220 81 76 4d 3f cd d4 d0 be e8 ff 53 3f 3b 22 28 3e
       0.8025895 -0.40787354 0.82812357 0.16419308
000230 3e 4c 6e be f4 c9 80 be 2f 78 1f 3f b4 eb 25 bf
       -0.23271272 -0.25154078 0.6229276 -0.6481278
000240 a4 6c 55 3e 3b 64 a4 3e 43 f4 0e 3f dd 3a 96 bc
       0.20842224 0.3210772 0.55841464 -0.018338615
000250 83 94 5f 3f e1 9f 9c bb 47 35 48 bf f8 9f 2b bf
       0.87335986 -0.0047798012 -0.78206295 -0.6704097
000260 26 60 14 3f 33 79 c4 bd a9 f3 c9 3d fe 42 18 3f
       0.5795921 -0.095934294 0.098609276 0.5947722
000270 be cf 1b 3f 53 82 63 be a1 23 e7 3e 1e 4d f4 bd
       0.60863864 -0.22217683 0.4514437 -0.119287714
000280 6a e6 25 bf 81 a5 8d bf 32 e1 2a 3f a6 eb 12 bd
       -0.6480471 -1.1066133 0.6674987 -0.035869263
000290 ed 5b 09 3e 73 2b fe 3e ed 40 a3 3e 9a b7 eb 3e
       0.13413973 0.49642524 0.31885472 0.46038514
0002a0 de 01 81 3f 6f 4a 0b 3d 5a b2 a4 bf a7 9a bd be
       1.0078695 0.034006532 -1.2866929 -0.37032053
0002b0 6c 6b 14 3f 19 8b 1a 3e 41 1e 63 3d 4c c9 a4 3e
       0.5797641 0.15092124 0.055448774 0.32184827
0002c0 03 4d f9 3e 74 5c 6c 3e e8 c3 26 3f 7b ee b0 3e
       0.48691568 0.23082143 0.6514268 0.34556946
0002d0 2f fd 8a be 83 44 61 bf 2b 4d 17 3f 4c 3a a9 be
       -0.2714629 -0.87995166 0.59102124 -0.3305229
0002e0 9f 31 bd 3d 9b 51 dd 3e 6e 00 de 3e 04 41 c9 3d
       0.0923798 0.43226323 0.43359703 0.09826854
0002f0 40 c2 80 3f 14 89 7b 3c fd 7c 03 3e 04 11 11 bf
       1.005928 0.015352506 0.12840648 -0.5666659
000300 b6 4e 1d 3f cf 67 21 be 52 f6 b8 3d 68 e1 bf 3d
       0.6144823 -0.15762256 0.09031357 0.09369165
000310 cb b7 0e 3f 37 bb 20 3e a8 91 63 3f 48 90 68 be
       0.55749196 0.15696417 0.8889413 -0.22711289
000320 41 08 f1 bd 3e f8 2d be b4 f5 07 3f c5 e6 3c bf
       -0.117691524 -0.16989228 0.5310929 -0.73789626
000330 20 40 b4 3e 4e 66 49 3d e8 54 15 3f 13 6b 19 3d
       0.35205173 0.04916983 0.5833268 0.03745563
000340 f1 0e 86 3f 60 56 53 be 04 76 9c 3d f0 22 0b bf
       1.047331 -0.20638418 0.07639697 -0.54350185
000350 15 ef 08 3f 47 62 4d be 32 65 99 3e 5f 5f 85 3d
       0.5348981 -0.20057021 0.29960018 0.06512331
000360 ac cb 34 3f 96 a2 e6 3e 7f eb a0 3f 51 0e 22 bf
       0.7062328 0.45045918 1.2571868 -0.63303095
000370 07 6e 1e 3f 7d 32 08 be 33 21 06 3f 39 9b 6c bd
       0.6188664 -0.1330051 0.5239441 -0.05776522
000380 ba 59 87 3e d8 f0 ae 3d 5c aa 10 3f 8c 74 f2 3e
       0.26435643 0.08542031 0.5650995 0.47354543
000390 4b a5 a0 3f da 8a a4 be 9e b0 8d be c5 67 19 bf
       1.2550443 -0.32137185 -0.2767381 -0.59923965
0003a0 48 e1 25 3f be 1e 4c bf 7a 85 dd 3c a4 24 11 3f
       0.64796877 -0.7973441 0.027041186 0.56696534
0003b0 66 47 8f 3e b3 85 d8 be 15 ad 52 3f f8 a2 b7 3e
       0.2798416 -0.42289504 0.8229535 0.35866523
0003c0 54 fc 09 bd 6d 64 49 bf 63 0e 2f 3f 4a 70 d7 be
       -0.033687904 -0.7866886 0.6838133 -0.42077857
0003d0 7a 89 71 3e a1 ef b2 3e fe 84 0e 3f 05 62 59 be
       0.235876 0.34948447 0.5567168 -0.21228798
0003e0 a7 3c 83 3f dd 82 e7 3d a6 39 a4 bd b5 4f 5f 3e
       1.0252885 0.11304257 -0.08018808 0.2180775
0003f0 cd 78 30 3f 70 c4 d8 bd 6e 66 6b 3e a4 ea 90 3d
       0.6893433 -0.105843425 0.22988293 0.07076004

l2.bias f4 [64]
000000 d8 fc 91 bf f0 13 27 bf 2f 51 9f bf d9 f2 d7 bf
       -1.1405287 -0.652648 -1.244665 -1.6870986
000010 5f e1 36 be e4 5e 2d be 12 b1 7b bf 5c ef 1c bf
       -0.1785941 -0.16930729 -0.9831706 -0.61302733
000020 51 cf 47 c0 05 9d 43 bf 6b a4 41 bf e0 9b 2e bf
       -3.1220286 -0.7641147 -0.75641507 -0.68206596
000030 b6 f2 c0 bf 59 20 04 bf 71 22 d9 be 5c 10 c4 bf
       -1.507407 -0.5161186 -0.4240909 -1.5317492
000040 59 13 5e bf 8d da ea bf b1 aa 9c bf ce d6 5f c0
       -0.8674827 -1.8347946 -1.2239591 -3.4974856
000050 45 08 80 bf 7f d7 a6 bf a4 01 50 c0 5e 69 ef bf
       -1.0002524 -1.3034514 -3.2501001 -1.870403
000060 61 d5 62 bf 18 90 6b bf 77 02 fa be 49 7e ac bf
       -0.8860684 -0.92016745 -0.48830006 -1.3476039
000070 62 2d ca bd 8a 5a 3a bf 53 53 50 bf 8c fc 5f bf
       -0.09871937 -0.727944 -0.8137714 -0.8749473
000080 cb 4f 79 c0 2b 62 f2 bf cb 3d 4f bf c1 44 00 c0
       -3.8954952 -1.8936208 -0.80953664 -2.0041964
000090 c7 b0 e6 bf 91 f4 68 bf 1e 9f 4a bf d3 b9 fc be
       -1.8022698 -0.9099818 -0.79149044 -0.49360523
0000a0 27 b2 24 bf f4 df 0d bf 89 2f 2a be 97 cc 03 be
       -0.6433434 -0.5541985 -0.16619696 -0.12871014
0000b0 d2 16 40 c0 51 ed 96 be 27 86 27 bf 37 b4 4a be
       -3.0013928 -0.29477933 -0.65439075 -0.19795309
0000c0 99 61 6a bf 5d 84 d8 be 41 55 2a bf 23 b1 da bf
       -0.9155517 -0.42288485 -0.6653634 -1.7085308
0000d0 70 a6 c9 be cd 97 36 bf 70 e2 5c c0 8d 02 13 bf
       -0.39384794 -0.7132538 -3.4513206 -0.5742577
0000e0 92 01 5c bd e2 00 4c bf 03 63 5a bf a5 fe a2 bf
       -0.053712435 -0.7968885 -0.8530733 -1.2733961
0000f0 44 cc 2a be 0f 91 02 c0 a8 6f 16 be 22 e9 c9 be
       -0.16679484 -2.0401037 -0.14691031 -0.3943568

l3.weight f4 [64, 66]
000000 a0 97 02 3f 0b 7e 08 3f e3 34 53 3f c9 87 18 3f
       0.5101261 0.53317326 0.82502574 0.5958219
000010 5e 8c 76 3f 08 aa b6 be e7 9d 65 3f d4 66 13 3f
       0.96307933 -0.356766 0.89694065 0.5757878
000020 8f 69 32 3f a1 9c da 3e ba 2c 6d 3f 66 e3 06 3f
       0.6969232 0.42697623 0.9264637 0.5269073
000030 75 4d 20 3f 1e 44 e5 3e 89 e9 4a 3f 51 30 1e 3f
       0.6261819 0.44778532 0.79262596 0.61792475
000040 ab 4c 28 3f 83 32 0b 3f 43 4d 5f 3f ac d4 36 3f
       0.65741986 0.5437395 0.8722727 0.7141826
000050 f5 cc 8a 3f 01 6d 0d 3f 91 c4 20 3f 4e be 01 3f
       1.0843798 0.5524445 0.62799937 0.50681007
000060 60 33 20 3f 97 a0 73 3e 40 7c 7a 3f 40 3e c2 3e
       0.6257839 0.23791729 0.9784584 0.37938118
000070 6e 1f 8c 3d 31 15 0f 3f 7d 2c 3e be 4a 6d 22 3e
       0.06841932 0.5589171 -0.18571658 0.15862003
000080 f7 b8 32 3f 1c ab 7a 3f 92 8a 43 3e 2b 04 08 3f
       0.69813484 0.9791734 0.19095829 0.5313136
000090 22 11 32 3f 32 46 08 3f a6 e9 4c 3e b7 c4 7f be
       0.6955739 0.5323211 0.20011005 -0.24977385
0000a0 a3 51 01 3f 5f 6a 27 be c1 73 bc 3d 01 27 9e 3f
       0.5051519 -0.16349171 0.09201766 1.2355653
0000b0 cc 12 3f 3f a3 6b 94 3e 42 bf 78 3f a2 a8 da 3e
       0.74638057 0.2898837 0.97166836 0.42706782
0000c0 9f 6f 71 bf 26 99 7b 3f 80 72 47 3f 81 0f 2e 3f
       -0.94310945 0.9828056 0.7790909 0.6799241
0000d0 01 ee ec 3e a7 c5 75 3e 8b fd 5f 3f f7 9d a4 3e
       0.46275333 0.2400118 0.8749625 0.32151768
0000e0 a0 c1 31 3f 0c c0 f8 3e 02 34 c3 bd d3 49 be 3e
       0.69436073 0.4858402 -0.09531404 0.37165698
0000f0 ce 07 f0 3e 5d fc 27 3f 33 73 02 be f2 ea 3b 3f
       0.46880955 0.6561945 -0.12739258 0.73405373
000100 63 6e d4 be 45 db dd be 70 de b5 3e 54 60 97 3e
       -0.41490468 -0.43331352 0.3552127 0.2956568
000110 4d 4d 11 3f f4 9a a0 3e e4 f7 86 bf 64 83 af bf
       0.56758577 0.3136822 -1.05444 -1.3711972
000120 6f b0 40 3f c0 c6 a3 be 6b c6 7e 3e d8 eb 6a 3d
       0.75269216 -0.31987572 0.24880378 0.057353824
000130 f8 86 99 bd db 8a 03 3f 9d b7 8f bd 08 ec b3 be
       -0.07496446 0.5138375 -0.07017443 -0.35141015
000140 4c 9b 04 bf ac 9a 1e 3e bb 6c 0d 3f 7b 0f 8f 3e
       -0.51799464 0.1548869 0.55244035 0.27941498
000150 df ff 37 3f 59 ae a1 3e ec 3e 44 3f b7 fb 2e 3d
       0.71874803 0.3157833 0.7665851 0.042720523
000160 22 37 69 3e 2f d2 76 3e 39 d5 a1 be 4c 28 eb bd
       0.22774938 0.24103616 -0.31607988 -0.114822954
000170 e0 63 df 3d 82 39 c4 be 28 63 85 bf e2 1b e6 3d
       0.109077215 -0.38325125 -1.0420885 0.11235787
000180 d8 18 ee be 84 50 a1 be d1 a3 93 3e 5b 26 9d 3d
       -0.4650333 -0.3150674 0.2883592 0.07673331
000190 0e 63 67 bd cf e7 da bd 33 7e 0b bd 61 cc ad be
       -0.05649095 -0.10688745 -0.0340559 -0.3394499
0001a0 8e 41 62 be a6 a8 9a bf c1 cb b2 be 76 12 9a 3e
       -0.2209532 -1.2082717 -0.34921077 0.3009221
0001b0 0e e7 59 bf 31 19 50 3d 7f 97 a8 3e 53 08 fb 3e
       -0.85118186 0.050805274 0.32928082 0.49029788
0001c0 e8 f1 b0 bf 01 26 8b be 87 92 ab bd 38 c8 c9 bd
       -1.3823824 -0.27177432 -0.08377557 -0.09852642
0001d0 32 51 f8 3e 31 93 aa 3e 88 69 40 3f 54 ab d3 be
       0.48499447 0.33315423 0.7516103 -0.4134165
0001e0 eb 6c 55 3e 79 c3 56 be 9a 11 96 be 29 c6 88 3e
       0.2084233 -0.20973004 -0.29310304 0.26713684
0001f0 15 03 a3 bf 51 2a 56 bf 4f 36 c6 bf d4 f5 91 3c
       -1.2735316 -0.8365832 -1.5485324 0.017817415
000200 4f cf 5c bf 21 cd 47 3f 6f b8 12 40 33 4d 53 be
       -0.8625383 0.78047377 2.292507 -0.20634918
000210 df 81 17 3e 0b 84 b1 be 2e f7 8a bc 41 4e 4b 3e
       0.14795636 -0.34671053 -0.016963568 0.1985407
000220 98 b4 15 bb cf 3a 26 3f 63 37 02 3d 59 71 4c 3e
       -0.0022843238 0.64933485 0.031791102 0.19965114
000230 ed 0f 2d 3e 0a 73 8b 3e af b0 04 bf df 9e 3e 3d
       0.16900606 0.27236205 -0.518321 0.04653823
000240 11 0f 0a 3d cf e8 b7 bd c0 a4 a3 bd 52 1a 4a 3e
       0.033705775 -0.089799516 -0.07990408 0.19736603
000250 2d a1 b4 3e 63 84 e0 3d 1d 36 f9 bd 31 00 73 3d
       0.35279217 0.10962751 -0.121685244 0.059326354
000260 0b 3e 89 3e 47 f3 0c bf 50 e4 29 3e 54 7a aa 3d
       0.26805148 -0.5505871 0.16591 0.083241135
000270 a9 74 76 3e 1d 67 a3 3e 46 e8 24 bd 5f 3b 74 bd
       0.2406794 0.31914607 -0.040260576 -0.059626933
000280 dc d0 89 3e db 3d bd bd d7 0d a8 be 9b e2 7c be
       0.2691716 -0.092403136 -0.3282306 -0.24695818
000290 05 ff 92 3e 0e 14 e9 bd 1b cb 83 3f b1 d5 69 3b
       0.2871019 -0.11380778 1.0296358 0.0035680349
0002a0 f1 51 9c 3e 74 90 b6 3d 73 8a 0c 3f 15 6d f3 3e
       0.30531266 0.08914271 0.54898757 0.4754416
0002b0 35 e7 57 3f 34 ea 5d 3c 02 f2 e3 3e ef 82 88 be
       0.8433717 0.013544608 0.44520575 -0.26662394
0002c0 64 04 c7 3d d0 ab a5 3e c6 91 91 3d 49 fd eb 3e
       0.09717634 0.32357645 0.07107882 0.4609168
0002d0 6a 22 98 3e f4 61 c5 3e 24 27 8c bd 7e 8b 1b 3c
       0.29713756 0.38551295 -0.06843403 0.009493707
0002e0 36 84 a1 bc 6d 94 2e 3f 27 85 07 bb 46 0d 1a bf
       -0.019716363 0.6819523 -0.002067873 -0.60176504
0002f0 2e cd a5 3e f7 0d 58 be 20 da db 3e ea 78 07 3e
       0.32383102 -0.21099077 0.42939854 0.13229719
000300 53 2c 51 3f 4a bd 4a 3e 1f 66 07 bf c0 60 e8 be
       0.8170826 0.1979877 -0.528902 -0.45386314
000310 40 ee b4 bf 9c 2e 07 be fe 36 ed 3e b3 15 b1 3f
       -1.4135208 -0.13201374 0.46331018 1.3834747
000320 6f 06 f7 3f 62 17 a1 3e f2 47 b1 be 7f b3 ad bf
       1.9298838 0.31463152 -0.34625202 -1.3570403
000330 ec ee 6e 3f 6e 06 bf 3d 8a 6e 01 3e 66 89 ee be
       0.93333316 0.09327398 0.12639824 -0.46589202
000340 6b e0 cb bd ed 87 ba 3e 14 82 81 3d f0 43 ad be
       -0.09954914 0.36431828 0.063236386 -0.33840895
000350 87 53 17 3f d7 31 3c 3e ab dd a7 be b6 ce 83 3e
       0.5911183 0.18378387 -0.32786307 0.25743645
000360 5f b3 c5 3e 09 26 66 3e 0c 93 2e 3e d6 02 78 3f
       0.38613412 0.22475447 0.17048281 0.9687933
000370 86 95 66 3d 26 73 1c 3e 2b 5a d6 3d fe b4 b3 be
       0.05629494 0.152783 0.10466417 -0.35099024
000380 db 3b 47 3f 4e cc 5c be da f4 62 bf bf 71 50 bf
       0.7782571 -0.21562311 -0.88654864 -0.8142356
000390 c9 ab cd be 05 77 75 be 02 f9 11 be bc fa 8a 3e
       -0.40170124 -0.23971184 -0.14255145 0.2714442
0003a0 f2 31 23 be 68 97 3a 3e b6 18 b3 bd c4 58 d0 3d
       -0.15937021 0.1822182 -0.087449476 0.10173181
0003b0 a0 d7 9c be e2 6e e4 be ed 7e d7 be 4a b5 f3 3e
       -0.3063326 -0.44615847 -0.42089024 0.4759925
0003c0 73 1c c1 be 2e 5f 4d be 86 30 49 3e 54 ee c7 bd
       -0.37717018 -0.2005584 0.19647416 -0.09762254
0003d0 e4 f5 17 3f 7a 2a 33 bf 19 26 0a 3f ab 70 92 3f
       0.59359574 -0.6998669 0.5396438 1.1440634
0003e0 37 9e c8 3e 13 99 9a 3d 78 20 ff 3e 62 12 26 bf
       0.39183208 0.07548728 0.4982946 -0.648718
0003f0 a9 b0 81 3e 24 b7 27 3e 96 f4 65 bf 59 1c aa 3e
       0.25330094 0.16378456 -0.89826334 0.33224753

l3.bias f4 [64]
000000 ee 52 29 bf 67 81 04 bf 32 0c fc 3c f9 35 44 bc
       -0.66142166 -0.5175995 0.030767534 -0.011975759
000010 2e 17 14 3e 42 b8 a0 bf c8 1e a9 bf 94 f5 cd 3e
       0.14461967 -1.2556231 -1.3212519 0.40226424
000020 3b 58 80 bf a4 d3 36 be ed e4 05 be 00 89 30 bf
       -1.0026926 -0.17854172 -0.1307561 -0.68959045
000030 ce f1 e1 3e d6 86 c1 bd 91 34 a4 be 24 79 83 be
       0.44129795 -0.09449546 -0.32071355 -0.2567836
000040 87 df bd be 4e d3 e9 be 08 a8 06 bf 45 91 94 be
       -0.370846 -0.45669025 -0.52600145 -0.29017082
000050 6e fc 2b bf 61 5d 3c bf f0 c9 ac 3e b1 74 64 be
       -0.6718205 -0.73579985 0.33747816 -0.22310139
000060 1f 3b 15 3f e5 f7 0e bf 04 cc 3e be ed 0e 93 bf
       0.58293337 -0.5584701 -0.18632513 -1.148893
000070 d7 80 ae be c2 24 a5 bf d0 ba 4e bf 2e f7 db be
       -0.34082672 -1.2901843 -0.80753803 -0.4296202
000080 b9 d4 c9 3e 14 97 45 be f1 8f 9b bf 7d b8 e3 be
       0.39420107 -0.19295913 -1.2153302 -0.4447669
000090 ea a7 02 bf 81 d1 b1 be dc 23 f4 3e f6 7d b8 be
       -0.51037467 -0.3473015 0.4768361 -0.360336
0000a0 60 49 6f 3e c7 3b 13 3f 49 9a 37 bd 86 58 3b bf
       0.23367834 0.5751309 -0.044824872 -0.7318195
0000b0 3f 2c 89 3e fd 9d 38 be c7 68 49 3e 12 a8 23 be
       0.2679157 -0.18029018 0.19668876 -0.15982082
0000c0 02 80 20 bf a7 23 d9 be eb 58 a6 be ca 14 22 3f
       -0.62695324 -0.42410013 -0.32489714 0.6331297
0000d0 e4 56 29 bf 75 ef 90 bf 42 2d 27 bf 92 61 06 3e
       -0.6614821 -1.1323076 -0.6530343 0.13123158
0000e0 25 18 15 bf b9 b8 1d bd 60 ed 97 be 62 ff 95 bd
       -0.58239967 -0.038506243 -0.2967329 -0.07324101
0000f0 2f 9a 01 3f fa 0e 6a bf 3c 6a 78 3d 1c 41 9b 3d
       0.5062589 -0.914291 0.060648188 0.07580778

l4.weight f4 [2, 64]
000000 93 10 00 be 18 11 bb bb 60 a3 b9 3d 64 10 fe 3d
       -0.12506323 -0.005708825 0.090643644 0.1240547
000010 94 79 aa be 30 92 49 3c e5 86 9e bd 22 d9 8f 3c
       -0.33295882 0.01230292 -0.07740573 0.017559592
000020 70 10 86 3e 0a 1a bc bd ea 39 d8 bc c0 74 24 bd
       0.26184416 -0.09184654 -0.026394803 -0.040150404
000030 71 1f 3c 3e 6d a2 3e be 1c 49 98 be 43 ed ad bd
       0.18371369 -0.18616648 -0.29743278 -0.0849252
000040 6d 65 9c 3e c7 76 95 bd 5b 5d 60 3d 78 1d 83 3e
       0.30546132 -0.072980456 0.05477653 0.2560842
000050 cb a2 9a bd 58 41 2d be f8 e2 4d bd cd ce ce 3c
       -0.075505815 -0.16919458 -0.050265282 0.025245095
000060 6f d2 65 bd 6c a4 bf bd 1b e3 26 3e f9 51 90 be
       -0.05610889 -0.09357533 0.16297571 -0.2818754
000070 46 1c 6e be 72 59 18 3d 01 43 aa bd a7 38 b6 bd
       -0.23252973 0.037194677 -0.08313561 -0.08897524
000080 70 07 46 3e 89 c5 4c 3e 08 a2 af bd 1a c5 c1 3d
       0.19338775 0.19997229 -0.08575827 0.09461422
000090 f4 ed 83 3e 84 d3 8b bd 71 4e 20 bd 53 b9 b0 be
       0.2576748 -0.06827453 -0.039137308 -0.3451639
0000a0 24 03 66 be 04 b7 89 be 25 90 a1 bd ad b5 64 3e
       -0.22462136 -0.26897442 -0.078888215 0.22334929
0000b0 9f 6e 9e be 35 ca 87 be 33 13 0d bc 09 88 46 bd
       -0.30943772 -0.2652146 -0.0086105345 -0.048469577
0000c0 8d 1b 63 3e c1 f3 b2 bd 97 5b f6 3d 18 52 99 bd
       0.22178479 -0.087378986 0.12029188 -0.07486361
0000d0 6a 54 ac 3d c0 4a 77 3e 1a 85 e8 3d 0d 31 75 3d
       0.08414538 0.24149609 0.11353512 0.05986123
0000e0 37 59 42 be 7c 09 5a be 6a 4f 89 3c ec 2f 84 be
       -0.18979345 -0.2129268 0.0167615 -0.2581781
0000f0 20 f5 81 3e 17 9a cd bc 88 40 88 3e 91 87 8f bd
       0.25382328 -0.02509789 0.26611733 -0.07008279
000100 92 d8 0f 3d 0b 14 38 bd be a0 60 3e b9 76 c9 bd
       0.035118647 -0.04494099 0.21936318 -0.09837098
000110 b0 01 3e 3e 55 26 19 bd 4b 2d ad 3d 3b 59 2f 3c
       0.18555331 -0.037390072 0.084559046 0.010702427
000120 e6 62 97 be 36 e3 48 3d 35 2f 86 3b e4 d8 2d 3e
       -0.2956764 0.04904481 0.004094983 0.16977268
000130 22 b5 a7 3e fb 1b e6 3d b6 cf 1f 3e 2f 58 25 be
       0.3275538 0.112358056 0.15606579 -0.1614692
000140 a5 1e 9c be 30 32 81 bc bf 21 cc 3c e1 1b 8c be
       -0.3049213 -0.015771002 0.024918435 -0.2736502
000150 9f 25 04 be a7 07 81 3e d9 39 2c be 3e 9b 21 3c
       -0.12904976 0.2520115 -0.16818942 0.009863673
000160 ae 2b 6a 3d 15 60 0b 3e 54 e8 82 be 71 ce 02 3e
       0.057170562 0.13610871 -0.25567877 0.12774064
000170 29 9f 2d 3e f6 80 5a be de cc 16 3e f7 71 60 3c
       0.16955246 -0.21338257 0.14726588 0.013699046
000180 75 31 94 3d c7 9c 98 3e 9e 4e bf 3d 8d 92 67 be
       0.07235996 0.29807112 0.09341167 -0.22614498
000190 55 4f 87 be eb 54 4b 3d 9b 8b 88 bc e4 b7 80 3e
       -0.26427713 0.04964153 -0.016668132 0.25140297
0001a0 0d 2d 25 be a0 81 0b 3e f7 78 85 3d 7d 0b 9d be
       -0.16130467 0.13623667 0.06517213 -0.30672827
0001b0 f0 63 b8 bd 52 8a bb 3a e0 a2 aa 3d 1e 97 83 3d
       -0.090034366 0.001430819 0.08331847 0.06425308
0001c0 25 d5 40 be 1a 4d 1a be 62 7d 83 bd d2 bb 7d be
       -0.18831308 -0.15068474 -0.06420399 -0.24778679
0001d0 91 10 02 bd c2 83 bf 3e 06 fb bb bc d2 04 0b 3e
       -0.03175408 0.3740521 -0.022946846 0.13576058
0001e0 0b db 89 3d 85 70 18 3e be 26 f5 3d 95 4b 95 3e
       0.06731232 0.14886673 0.1197028 0.29159227
0001f0 5d 40 7b 3d c4 cf 81 3e 07 f9 87 be d8 8e 8a 3e
       0.06134068 0.25353825 -0.2655718 0.27062106

l4.bias f4 [2]
000000 62 b9 a8 bd e6 bd 0e 3e
       -0.08238484 0.13939628
