Ablation Experiments/Reward Function-激励函数转浮盈浮亏/Transformer-DoubleDQN-QT-Final/ModelParam/2024-3-13/64target-network-TransformerNoguiadance.pth (torch, 851744 bytes, 18 tensors)

encoder.self_attn.in_proj_weight f4 [30, 10]
00000000: f1db 8b40 b460 6dc0 c14b a3c0 ca3f 1440
00000010: 030c da3f 499e ab3e a2d4 1f3f 22cf a1c1
00000020: 165f eb40 3ab7 b440 af20 ff3f 75ef 28c0
00000030: ab57 ca3f 786a e2be d4ed 80c0 a925 f7bf
00000040: 8abf edbf acb7 0042 70c1 1340 1657 4b3f
00000050: 7504 7ac0 5cf2 3e40 af84 9940 5197 adbf
00000060: 97ef 0cc0 1275 82bf bca4 91bf 600e e941
00000070: dc44 a8c0 1eaa b1c0 1e53 05c1 9330 f640
00000080: 63e6 9340 b7a7 4ebf f023 5b3f d17a 663f
00000090: fd46 df3e 70b1 6c41 5a89 4dc1 e3ff 13c1
000000a0: 4aab cc40 bf50 b2c0 99ff a1c0 9919 2540
000000b0: db45 b43f b4be 133c ecf2 af3d 2889 62c1
000000c0: a99c 2a41 1351 f240 85b1 56c0 7e51 9040
000000d0: 056a 75c0 b0aa 9d3f 398d 9240 9c06 1b40
000000e0: 36cc 1640 103e ffc1 2686 79c0 2271 09c0
000000f0: 0bb4 cb40 4624 c0c0 e012 efbf bfe1 5dc0
00000100: 108d cebf 835a aebe d2e6 37be a152 c5c1
00000110: e8b8 f040 855a 0741 7890 1540 95af 29c0
00000120: f82f 3e40 8bbb 9cbf 0e52 95c0 3689 f8bf
00000130: 0fe5 31c0 ebfc 0242 b1c1 2d40 6f4a 2f3f
00000140: 0b1b 91c0 89f0 b93f 61fb 51c0 2ecb 643f
00000150: 74cf 12c0 047f b1bf b017 f8bf e095 ce41
00000160: 0421 2dc0 87d2 99c0 6ccd 2a40 9457 65c0
00000170: 301e 5d40 b705 5fbf aca8 90c0 faf4 a7bf
00000180: f8b0 f9bf 38cd 0642 fef2 4140 6aba d13f
00000190: a28b 663f ee69 083f c0f5 20be 9b28 94bf
000001a0: 96d5 773e fa9c 533e b757 b23e f3c4 51c2
000001b0: a23c ffbe 3285 0c3f 1e52 0b3f 4729 f23e
000001c0: 47af 133e 95cb cfbf 9dc8 77bd e9cf a53f
000001d0: 98fc 8b3f c353 3dc2 3caf 3040 94e3 313e
000001e0: 8dac 0cc0 c601 dabe 5611 30bf 0318 aa3f
000001f0: 0800 15bf 9ae5 07be 621e b93d 8027 4542
00000200: 2c9b 1540 93fa 6a3f ed06 1ebf ecb3 7cbf
00000210: 4ff9 a63e 16a4 0240 2552 0d3f 1971 a2be
00000220: 3909 a3be 1346 6642 3810 9dbc f24b 963e
00000230: 5f7b 393f c196 1f3f b6bd 08bf 25c4 1cc0
00000240: 7754 43bf 1e6c aa3e c5bc ad3e aa30 60c2
00000250: 9b40 fdbd c727 ca3e d7a8 3ebf bcd9 11be
00000260: 1d57 b9be f8d8 a93f 5d8a 6cbe 4e54 e5be
00000270: 9c19 52bf b51d 4542 c242 32c0 67ce 0a3e
00000280: 329a 0040 5e3b dabe 3370 1b3e 7be4 46bf
00000290: 18d9 32be 7a1d 8abe 52a3 183d ad06 4cc2
000002a0: b397 093d 3328 8abf 655e 103f dd77 103f
000002b0: d7f7 1f3f e0c8 57bf c580 483e ad7d 853f
000002c0: b9c0 983f 426d 38c2 b898 5640 712d 733d
000002d0: 0caf 94bf 0231 b33e b496 963f 6ed0 1340
000002e0: 57a3 453e d878 0040 5db5 1440 c671 4442
000002f0: 0d62 563d 5131 4b40 5a1d 123f 1117 2c3f
00000300: 1643 0d3f 3cba c8bf 986e d63e 4a26 413f
00000310: d95f 3e3f cd3e 43c2 246b 4440 a90d 093f
00000320: 3bcf aebf 6305 d43f b51d 0341 d78c 8dc0
00000330: 6d36 4440 66ba db3e 4267 7fbe 1d9d 8f41
00000340: a20d 57bf 24bb d7be 4c50 863f 1e7c ecbf
00000350: fd2b e9c0 641c 5740 4d1a 78c0 b965 4bbe
00000360: 7992 8bbe e64d dcc1 0a10 523f 121a dc3e
00000370: b117 98be bc0c e13f f2ff c23f 6e0f 27c0
00000380: 7e88 8940 f857 b03e 1f19 213f e5ee 2341
00000390: 6075 34bf b7b9 afbf cde4 62bf a197 a93f
000003a0: 8604 4140 c187 b0bf b5ff 9540 3b3d 8b3f
000003b0: d5f7 323f 6300 0a41 7e29 6fbf 29f4 e0bf
000003c0: 4f90 1b3e df9b fbbf 6cd8 0ac1 1264 6740
000003d0: be66 8fc0 9607 c3bf ecb8 32bf 17bd 9bc1
000003e0: 7529 853f f28d ba3e faf0 183f e90e 2bbf
000003f0: d544 ab40 878a bcc0 8268 893d 75ef f03f
4.3705983 -3.7090273 -5.1029973 2.3163934 1.7034916 0.335192 0.62433827 -20.22614
7.355357 5.6473665 1.9931849 -2.6396153 1.5808004 -0.44221854 -4.0290318 -1.9308368
-1.8574078 32.179367 2.3086815 0.7942976 -3.906522 2.9835424 4.7974467 -1.3561803
-2.2021234 -1.0191977 -1.1378398 29.132019 -5.2584057 -5.5520163 -8.332792 7.6934295
4.6218734 -0.8072466 0.8560171 0.9003115 0.43608847 14.79332 -12.846033 -9.249972
6.3959093 -5.5723567 -5.062451 2.5796874 1.4083818 0.009017635 0.085912555 -14.158485
10.663247 7.5723968 -3.354585 4.509948 -3.834596 1.2317715 4.579739 2.4222784
2.356214 -31.905304 -3.8988128 -2.14753 6.365728 -6.004428 -1.8677635 -3.4669034
-1.6136799 -0.3405343 -0.17959145 -24.665346 7.5225716 8.4595995 2.3369427 -2.6513417
2.9716778 -1.2244734 -4.6662664 -1.9416873 -2.7796056 32.74699 2.714947 0.6847295
-4.534551 1.452653 -3.280968 0.8937253 -2.293912 -1.3866887 -1.9382229 25.823181
-2.70514 -4.806949 2.668788 -3.5834703 3.4549675 -0.87118095 -4.52059 -1.3121636
-1.9507132 33.70041 3.030456 1.6385014 0.9005681 0.53286636 -0.15718746 -1.1574892
0.2420257 0.2066535 0.34832546 -52.442333 -0.49850947 0.5489074 0.54422176 0.47297117
0.14422332 -1.6234003 -0.060494054 1.2954074 1.093646 -47.3318 2.7606955 0.1737197
-2.1980317 -0.42579478 -0.6877645 1.3288578 -0.5820317 -0.1327118 0.09038998 49.288574
2.337596 0.91788596 -0.6172932 -0.9871204 0.32612082 2.041265 0.5520347 -0.31726912
-0.31842974 57.56843 -0.019172773 0.29354817 0.72453874 0.6233941 -0.53414476 -2.4494717
-0.7630076 0.33285612 0.33933082 -56.047523 -0.12365838 0.39483473 -0.7447638 -0.14243215
-0.36199275 1.3269339 -0.23099656 -0.44790882 -0.82070327 49.27901 -2.7853246 0.13555299
2.0094113 -0.4262342 0.1517952 -0.77692384 -0.17465627 -0.26975614 0.03726513 -51.00652
0.033591937 -1.0793518 0.56394035 0.56432897 0.6248755 -0.84290886 0.19580372 1.0428978
1.1933814 -46.106697 3.3530712 0.05936951 -1.161592 0.34998327 1.1764741 2.3095965
0.1930059 2.0073757 2.3235695 49.111107 0.052339602 3.174885 0.57076037 0.67222697
0.5518049 -1.5681834 0.4188125 0.7544905 0.74365 -48.81133 3.0690393 0.5353647
-1.3656992 1.6564144 8.194753 -4.4234424 3.065822 0.42915648 -0.24941733 17.951715
-0.8400518 -0.42134964 1.0493255 -1.8475378 -7.2866197 3.3611078 -3.8766053 -0.19863023
-0.27260187 -27.538036 0.82055724 0.4298864 -0.29705575 1.7582011 1.5234358 -2.6103168
4.2979116 0.34442115 0.62928957 10.245824 -0.704916 -1.3728551 -0.8863037 1.3249398
3.015901 -1.3791429 4.687464 1.0878061 0.6990941 8.625094 -0.9342269 -1.7574512
0.15191768 -1.9656943 -8.677837 3.6154828 -4.481292 -1.523669 -0.6981342 -19.467329
1.0403277 0.3643642 0.597427 -0.66819626 5.3521523 -5.89191 0.067093864 1.8823076

encoder.self_attn.in_proj_bias f4 [30]
00000000: 2506 ad40 48ad 0340 89ae 8dc0 1e3a 16c1
00000010: 339b e640 258e 66c0 a864 ee40 4888 1040
00000020: 404a 29c0 a2e2 3a40 0efb d93e 70e6 183f
00000030: 876d e3be 4253 ff3d 161c 673e 3687 e93d
00000040: eb07 063f 18b1 83be aea3 9fbe 967e b9bd
00000050: 0498 3fbe 5a09 4e3e 041e 08bf 5853 3dbf
00000060: 3b94 d83e 3d27 a23e 0b72 f63e da42 b13d
00000070: 72ff 213e 4860 073f
5.407 2.0574512 -4.4275556 -9.389189 7.206445 -3.6024258 7.449787 2.258318
-2.6451569 2.9200826 0.42574352 0.5972662 -0.444195 0.12467052 0.22569308 0.114027426
0.5235583 -0.2572105 -0.31179565 -0.090573475 -0.18710333 0.20120755 -0.531708 -0.739553
0.4230059 0.3167056 0.48133883 0.08655329 0.15820101 0.5288129

encoder.self_attn.out_proj.weight f4 [10, 10]
00000000: d9ec b83f 90fc 7dc0 d35b a23f af27 da3f
00000010: 5533 13c0 7796 0b40 62e5 32c0 be7b 0cbf
00000020: 5bbe 4a40 9370 b5bf b8d5 09c0 1d13 e43f
00000030: ce3d 84be 33a6 86be 05ea 36bd d685 063f
00000040: 6f0c 863e fcb4 2c40 abd7 c73f 04f8 703f
00000050: ccba c33f e5b1 48c0 27f1 c1bf 56c6 d0bf
00000060: c15d 183f 35cc ffbe 475d 1640 313c 42c0
00000070: bb45 80bf 433b 0c3f 082c bc3f f715 0fc0
00000080: ce3c 353f 246c 4d3f 7917 48bf 275f 0cbf
00000090: 5878 4dbf 90e6 2fc0 b934 3bbf b5f2 55bf
000000a0: 618e b83f 6028 abbf 1667 50bf 10c9 a1bf
000000b0: 47df 963f b1a4 05bf d99e 253f 4e9d 01c0
000000c0: 756f 7abf 3f21 3e3e 30cc 00bf 75f3 7bbf
000000d0: 3353 05bf 45e3 0abf 895d 6a3f 25f5 ce3e
000000e0: 0fa1 393f 8f17 e53c 462f f63e 5043 463f
000000f0: ace1 d83e 7300 8fbf 3b2a c53f cd85 d13f
00000100: ca73 0dbf 6c43 46bf f45d d33e e295 22bf
00000110: 991d 80bf 294b 40bf a8f9 453e 1578 223e
00000120: 2080 d8bf a9a6 8cbf ecd3 123f eca9 47bf
00000130: 1f6a b3be 0291 44bf 2bd9 00be ec66 3a3f
00000140: 6cfd 853f fc75 e0bf 877f bf3f 62ea ce3f
00000150: 7003 8dbf 8419 123f 51e2 f9bf 57d9 8bbe
00000160: 8bbf cc3f 7a37 86bf 020f 72c0 af84 0341
00000170: bd6a a2bf ef93 84bf 4ec2 3440 6ad2 19c0
00000180: 1a8a 183f 3074 e940 5d07 1dbe 6134 0e40
1.444728 -3.9685402 1.2684273 1.704336 -2.300008 2.1810586 -2.7952504 -0.54876316
3.1678684 -1.417498 -2.1536694 1.7818333 -0.25828403 -0.26298675 -0.044656772 0.5254797
0.2618136 2.6985464 1.5612692 0.9412844 1.5291381 -3.1358578 -1.5151719 -1.6310527
0.5951806 -0.49960485 2.3494432 -3.0349238 -1.002128 0.54777926 1.4700937 -2.2357156
0.70795906 0.80243134 -0.78160816 -0.5483269 -0.80261755 -2.7484474 -0.73127323 -0.83573467
1.441845 -1.3371696 -0.81407297 -1.2639484 1.1786889 -0.52204424 0.6469551 -2.025226
-0.9782632 0.1856737 -0.50311565 -0.9841836 -0.52080077 -0.54253036 0.91548973 0.40421405
0.7251138 0.027965335 0.48082942 0.7744646 0.42359674 -1.1172012 1.5403513 1.6368958
-0.55254805 -0.7744663 0.41282618 -0.63509953 -1.0009032 -0.75114685 0.19333518 0.1586612
-1.6914101 -1.0988361 0.5735462 -0.77993655 -0.350419 -0.76783764 -0.12582843 0.72813296
1.0467963 -1.7536006 1.4960793 1.6165278 -1.1016674 0.57070184 -1.9522191 -0.27314255
1.5995954 -1.048568 -3.782166 8.219893 -1.2688824 -1.0357646 2.8243594 -2.4034677
0.59585726 7.295433 -0.1533484 2.221947

encoder.self_attn.out_proj.bias f4 [10]
00000000: 1082 4ebe e41c 1d40 f519 403f 0545 edbf
00000010: 3742 613f cb36 153f 79f2 9abf 6bfc b53d
00000020: 7cd7 98bf b5d2 bf3f
-0.20166802 2.4548883 0.7503961 -1.8536688 0.8799166 0.5828673 -1.2105247 0.088860355
-1.1940761 1.4986178

encoder.linear1.weight f4 [64, 10]
00000000: dcc2 093f 679c ecbf f7a1 7e3f 28ce 7a3f
00000010: 86db ec3f 12c7 113f f9e9 8240 bb08 853d
00000020: b164 53c0 5779 5c3f 02ce 24bf be51 343f
00000030: 827d e9bf d4e3 dd3f c02b 3ec0 cbcf f5bf
00000040: 61f4 14be d4e3 07bf 8dbe bd3f f4f5 483e
00000050: b24b 2740 2918 663f 641f 07c0 a919 5d3f
00000060: 94b8 47bd 5295 893e 08c6 0ac1 e5c1 c140
00000070: aac7 b43d c065 193f b2de fe3f 07c5 713f
00000080: 3c8c d4bf fc26 ef3f e29c 43c0 47e4 36c0
00000090: bbf7 adbe 93da d93f d9e5 1240 2d11 21c0
000000a0: 2bb9 45bf d5fd b03f f433 d8bf 5121 ba3f
000000b0: ca01 53c0 3726 f6bf 59ac 1cbe 89b2 1ebe
000000c0: 7aba 843f 6868 f93e 403b 8d3e ff2f 883f
000000d0: ce71 de3f 2566 1e40 cf8a 213e e0d9 80be
000000e0: ed10 83bf a5cf 873f 5f40 abbf 0856 0f3f
000000f0: 9ec3 593f 36c0 ba3f aec1 e33e 1ebf 9a3e
00000100: fb2d 6a3e 6398 aabf a134 d1be fe96 a53f
00000110: 13c3 18bf 7143 1fbf becc 0840 1375 87bf
00000120: c2d7 ea3e 8bad b63e 5961 de3f 8d62 af3f
00000130: cf5c dc3f fe4b 2b3f 2eba 25c0 53a3 0d3f
00000140: c559 ee3f 6cce e440 ae8d eb3f 76b9 96c0
00000150: 6ef9 ce3f 3f99 2f40 7d33 4fc0 30c2 4640
00000160: aee7 a8c0 12b4 b6c0 ff8b f53f b94d dabe
00000170: 6aa8 0d40 2df0 2d3f 0853 2740 790b 3040
00000180: e69f 03bf 04a1 e23f bcc1 92c0 357b dd3f
00000190: 3ed6 91bf 0184 cd3f 2193 70bf a865 1640
000001a0: d6e6 62bf a8cb f7bf a8cf debd 8835 373f
000001b0: 5595 2a40 7d29 653f 3dc3 2bbe ce42 363f
000001c0: df0a dc3e ffb1 0040 4d5c efbf b0fb 39c0
000001d0: 90b3 5940 4a9b 14c0 1122 20bc e77d 8abf
000001e0: 67e1 0340 908d 5940 663c 34c0 3d0d 143f
000001f0: f6de dcbf cf47 04c0 5a52 a9be bd37 193f
00000200: 965f b93f 316e 7ac0 f975 24be 7eef 3ebf
00000210: 33ac 28c0 fe91 273f ef34 c2bd 7d1c 2abf
00000220: 6ed4 87bf 7a8d 823f cb2a 5040 d6fd 0a40
00000230: 7ba9 083f eea8 94bf ec7f f1bf 8db6 8d3f
00000240: f73b bebf e308 8cbf 4569 21bf bc94 e23d
00000250: 530e 3f40 0c61 a83f 9d04 2abf 8a78 413f
00000260: a070 11c0 ed30 e43f 4646 2cc0 1113 eabf
00000270: a2d9 86be 9cf9 d7be ab84 e93f 1701 cc3e
00000280: 87bf c93f 9283 883f 78b5 3e3d 1927 d23f
00000290: 968b 38bf f54a 8ebf af45 cabf 87da 0940
000002a0: 697c d0be ca4b f6bf 91dc 6c3f ddca ec3e
000002b0: 1e5b f23f 4a7d 883f a5a2 4d3f a42e bcbe
000002c0: dacb f1be c815 443f e59c 1cbf ba69 17bd
000002d0: f2cd 84bf 6ef7 943e 06c6 563e 6b9e 7fbe
000002e0: 3f78 0cbf 4d3a e03d 7696 7a3f e670 2bbf
000002f0: e748 c63e b0df ccbd afa5 3e3e 8284 12bf
00000300: e957 d2bf 52c1 c63e 5b6c abbf 8ea8 5abf
00000310: d7eb 1cbf 4f03 763e 3917 1840 4045 833f
00000320: 2bf0 c33e f129 03c0 427d e23f 37cf 45bf
00000330: 4468 af3f c0fc 973f fc3c 073f b28a 31be
00000340: bb7a d2bf 37cb bd3f 2c47 d93e 33a5 663e
00000350: 0b27 20c0 ea9f 503f fdf2 37c0 624f cabf
00000360: 09f3 5cbd 2505 623e 5b48 ad3f 6081 8f3f
00000370: af66 2f3f 6579 3ebf 263a d53f b4cd df3e
00000380: f357 b03f 4f72 2a3e 726d 29be f0eb 6f3f
00000390: 2781 c5bf 83a2 47bf e3e5 813d 362c 16be
000003a0: b207 ebbf dd2b 4e3f d68e 8cbf 14cf 85bf
000003b0: 687b 2bbf 9ef2 183f 21b6 4640 2f0e ba3f
000003c0: ea43 3bbf 950c bb3e aee5 6fbc 8885 673e
000003d0: cf30 f1bd ee6a c8be 0043 bd3f 76fe f3bf
000003e0: 0d19 083f 154d 03bf 5c8c edbe ee58 f43e
000003f0: 3fe9 c0bf a074 b23f 3955 50c0 e4d6 e8bf
0.53812957 -1.848523 0.9946589 0.9797082 1.8504493 0.5694438 4.091061 0.06495806
-3.3030207 0.8612265 -0.6437684 0.7043723 -1.8241427 1.7335153 -2.9714203 -1.9204038
-0.14546348 -0.53082013 1.4823776 0.19625074 2.613995 0.89880615 -2.111291 0.8636728
-0.04876001 0.26871735 -8.673347 6.054919 0.088271454 0.59920883 1.9911711 0.94441265
-1.6605296 1.8683772 -3.0564504 -2.857683 -0.33978066 1.7019829 2.2952788 -2.5166733
-0.7723567 1.3827463 -1.6890855 1.4541417 -3.2969842 -1.9230412 -0.1530012 -0.15497793
1.0369408 0.48712468 0.27584267 1.0639647 1.737848 2.4749844 0.15775608 -0.25166225
-1.023954 1.0610243 -1.337902 0.5599065 0.85064113 1.4589908 0.44483703 0.30223936
0.22869103 -1.3327755 -0.40860465 1.2936704 -0.5967266 -0.6221228 2.1374965 -1.0582603
0.45867735 0.35679278 1.7373458 1.370195 1.7215823 0.6691283 -2.5894885 0.5532734
1.8621145 7.150198 1.8402612 -4.7101393 1.616987 2.7437284 -3.2375176 3.1056023
-5.278281 -5.7094812 1.9183348 -0.42637423 2.2134042 0.67944604 2.6144428 2.7507002
-0.5141586 1.7705388 -4.586149 1.7303225 -1.1393507 1.6055909 -0.939745 2.3499546
-0.8863348 -1.9359026 -0.10879451 0.7156606 2.6653645 0.8951643 -0.16773696 0.71195686
0.42977044 2.010864 -1.8700043 -2.9059868 3.4015846 -2.321978 -0.009773747 -1.0819672
2.0606325 3.3992653 -2.8161864 0.578327 -1.7255542 -2.0668828 -0.33070642 0.59850675
1.4482296 -3.9129755 -0.16060628 -0.74584186 -2.6355102 0.6545714 -0.094827525 -0.6644972
-1.0611703 1.0199425 3.2526119 2.171743 0.53383607 -1.1614053 -1.8867164 1.1071335
-1.486205 -1.0940212 -0.63051254 0.11063525 2.9852493 1.3154616 -0.6641329 0.75574553
-2.272499 1.7827431 -2.6917892 -1.8287069 -0.26337916 -0.42182624 1.8243612 0.3984458
1.5761575 1.0665152 0.04655978 1.6418182 -0.7208799 -1.1116625 -1.5802516 2.1539629
-0.40719917 -1.9241879 0.9252406 0.46248522 1.8934057 1.0663235 0.803263 -0.36754334
-0.4722584 0.76595736 -0.611769 -0.036966063 -1.037535 0.29095024 0.20973977 -0.24962775
-0.5487098 0.1094862 0.97885835 -0.66969144 0.38727495 -0.100036025 0.18617891 -0.5723344
-1.6433078 0.38819367 -1.3392442 -0.85413444 -0.61297363 0.240247 2.3764174 1.0255508
0.3826917 -2.049435 1.7694476 -0.7726931 1.3703694 1.1874008 0.5282743 -0.17338064
-1.6443704 1.4827641 0.42437112 0.22523956 -2.502383 0.8149401 -2.8742058 -1.5805476
-0.053942714 0.22072275 1.3537706 1.1211357 0.6851606 -0.74403983 1.665837 0.43711627
1.377684 0.16645168 -0.16545656 0.9371939 -1.5430039 -0.7798235 0.063426755 -0.14665303
-1.8361723 0.8053568 -1.098109 -1.045382 -0.6698518 0.59745204 3.1048663 1.4535578
-0.73150504 0.36533037 -0.014642162 0.22609532 -0.117768876 -0.3914408 1.4786072 -1.906203
0.53163224 -0.5128949 -0.46396148 0.47724098 -1.5071181 1.3941841 -3.2552016 -1.819058

encoder.linear1.bias f4 [64]
00000000: 9d53 1a3f b440 883f 8e98 2040 e016 f63f
00000010: 418e 8c3f 72f1 bf3f ae2e e03d 32ee 313f
00000020: 8d2c 2b40 7ca0 de3f cb53 7c3f eb91 5abe
00000030: b99b 6e3f 5cad a13f 5869 c13e aa42 bd3f
00000040: e06f 0640 dd6c 033f 6c2d 82bf 73da 8ebc
00000050: 2b63 3bbf 80a6 6cbd 4eeb c53f 3cf7 353e
00000060: 9c7c 37bf 9e4f 783f 940a ff3e 5709 813e
00000070: 9cda 0740 a5f0 6dbe dd1c 8dbf e6f4 97bf
00000080: 19c3 993f 5529 703f 279c ee3f 2156 e23e
00000090: 35e7 233f d3ee 6bbf ab28 d33f 73d8 bdbf
000000a0: 6395 dd3e 11c2 1c40 e965 1240 9e3d b5bf
000000b0: 655f 11bf 8406 db3f a1fe 97bf 3b70 3f40
000000c0: 503b 4540 c1b9 9a3f ee78 973e 9415 d53f
000000d0: b636 3a40 7e11 c23e 7f31 ae3e 033c f53f
000000e0: 9e55 183f 12fb 003f bd6a ac3e 224f 9e3f
000000f0: 02ad bd3f ca4b 353f 5749 b63e ec12 49bf
0.60283834 1.0644746 2.5093112 1.9225731 1.0980912 1.4995558 0.109464034 0.6950408
2.6745942 1.7392726 0.9856536 -0.21344726 0.93206364 1.263103 0.37775683 1.4785969
2.1005783 0.5133799 -1.0170112 -0.01743815 -0.73198193 -0.057775974 1.5462434 0.17770094
-0.71674514 0.96996486 0.49812758 0.25202438 2.1227179 -0.2323633 -1.1024433 -1.1871612
1.2012664 0.9381307 1.8641404 0.44206336 0.6402467 -0.9216129 1.6496786 -1.483168
0.43278036 2.4493449 2.28747 -1.4159429 -0.56786186 1.7111363 -1.1874582 2.991225
3.0817451 1.2087938 0.2958445 1.664721 2.9095893 0.3790397 0.34022138 1.9158939
0.5950564 0.503831 0.33675185 1.23679 1.4818423 0.7081877 0.3560283 -0.785445

encoder.linear2.weight f4 [10, 64]
00000000: f503 8240 7870 0f40 b8fc 90bf b102 16bf
00000010: bdce 0640 6951 5c40 980a 0640 648f 1840
00000020: 425c c040 2325 9c40 17a9 943f 5306 a1c0
00000030: 92dd d0be 7cab 2a40 76d1 0340 1235 f83f
00000040: 486e a13f 03db 6140 c9b0 6b3e 3547 0040
00000050: 3467 0b40 9fb9 2440 3f2b ae3f 40f7 e73f
00000060: 319e 243d e9a5 0940 4b29 0640 d014 4840
00000070: 65e8 eb3f cdf3 4b40 fd36 483e 8e3f 953e
00000080: 97dd 3240 4ebf 9c3f b62f 8240 33a6 f73f
00000090: 2755 f63f 986d 173e 45e3 5b40 302b 503f
000000a0: 840a 1240 f8ae f33d 1166 91be 5edb 7f3f
000000b0: bfe9 0740 263d 8f3f b65d c03d c4d1 873c
000000c0: 849e b33f 34d9 f63f 8d39 4a40 978f a040
000000d0: f2c1 2c40 82f8 a83f 1b3a fe3f d142 b33f
000000e0: 660f 9e3f 9e3b fe3f 2c9e 0a40 c8f1 dcbe
000000f0: f3c3 25c0 eb5f 7f40 f677 7440 ca16 69c1
00000100: 4406 a740 0480 b43f 4586 a640 10e1 2940
00000110: 89cc c53f 73d1 2740 7b4c d83f 404d 8740
00000120: 737e a840 8690 9c40 8a0e ea3f adef 4540
00000130: a676 1b40 3e25 2240 09c9 753f d7fd bc3f
00000140: 53eb 2940 6531 2240 ebce ed3e 25d0 7e3f
00000150: 3943 1240 9c44 8a3f a752 1440 d955 833f
00000160: 80f0 cc3f f696 d63f ec74 0740 df39 0f40
00000170: a029 3a40 cf98 3e40 0145 753d 8abe d53e
00000180: 8d5f d03f d801 3c3f bb83 8a40 db4e 8c3f
00000190: ba07 633f 3103 ef3e ad89 ce40 ae7c 1a3f
000001a0: ace0 7d3f a543 3240 e47b 2840 2cf5 6c3f
000001b0: 0600 823f 48d7 2340 5324 a0bd de71 3740
000001c0: 069e 4340 becd a43f a03a 4240 7d73 9940
000001d0: dd56 cf40 af1d 7d3f 87fc 9a3f cf94 2140
000001e0: 30cc 3440 224e 953f d743 cf3f 71e1 8340
000001f0: 32da 8b40 2421 2640 66ec 2240 e888 fd40
00000200: 3466 d23f 4e78 45c0 4748 edc0 6fd8 50c0
00000210: c2e0 73c0 5207 6cc0 410a 0ec0 b1e0 15be
00000220: 830a fe40 9eaf adbf 8f1c 2fc0 552a 7fc0
00000230: f2b8 35bf 850b 41c0 03a8 30c0 57c8 44c0
00000240: 256a 85c0 f8e3 74c0 c7d8 f0be b432 28c0
00000250: 0f73 b1c0 2362 29c0 93d6 8ec0 8a12 1bc0
00000260: 992c 53c0 10c7 57c0 811f 15c0 cdc4 49c0
00000270: 3207 96c0 5315 80c0 f9ed 38bf aa95 4abf
00000280: 9dfa 80c0 bead 4fc0 7208 fb3f c7eb 20c0
00000290: d5e9 25c0 5703 3b3f 8db6 aac0 e4a5 a3be
000002a0: ed9f 3bc0 439b 72c0 4d25 80c0 14c6 53be
000002b0: c3d0 2cc0 c121 6ac0 8f8c 40bf dafd 91c0
000002c0: af49 9bc0 7d2a 5dc0 6f82 3dc0 8746 d6bf
000002d0: 493a 84c0 5e0c d4bf 8820 26c0 5720 31c0
000002e0: 2692 4fc0 849d 28c0 7761 31c0 7d1f 9fc0
000002f0: 28c1 cac0 6e5b 80c0 4bcb 75c0 3c80 40c0
00000300: a651 b5bf 56b1 e03f 87bd 8040 16cc 2e40
00000310: 59bf c83f 0a36 4e40 3129 0e40 f90b 1640
00000320: 66b6 bf40 1b9a 5c40 a120 f43f 666c 2640
00000330: feb0 0740 5254 0740 02f6 f03f 7a3a eb3f
00000340: 1eda 3940 b931 4440 044a 373f f009 d93f
00000350: 50b4 163f 49c9 d73f 64ce 2340 450a e73f
00000360: 5466 b13e ece8 d13f d400 1840 20c3 0a40
00000370: e8ae 4c40 3401 f43f 2bd3 f83e 3733 c2be
00000380: 3a64 df3f c8ea 1e3f 1d41 c73f 6567 f73f
00000390: a2d3 f93f e9d4 99bc 0e04 2840 fc20 ce3e
000003a0: e303 d73f 6e79 1f40 3d1f 3640 dc59 98bd
000003b0: c35a f73f 7a2a 1740 3706 de3e 9656 1c40
000003c0: ba0c 3440 a613 f23f ed6b 2240 c886 4b40
000003d0: 82ce 0f40 ba83 d33f 8561 c03f 3345 2140
000003e0: 71a3 1c40 8d45 f53f 23f8 e93f a953 8c40
000003f0: 9d2d 9340 7ef1 3c40 ead3 ee3f a93a bd40
4.062983 2.2412395 -1.1327124 -0.58597857 2.1063683 3.442469 2.0943966 2.3837519
6.011262 4.8795333 1.1614102 -5.032022 -0.40794045 2.6667166 2.0596595 1.9391196
1.261178 3.5289924 0.23016657 2.0043461 2.178174 2.5738294 1.3606948 1.812233
0.040189926 2.1507514 2.0962703 3.1262703 1.8430296 3.1867554 0.19552226 0.2915005
2.7947748 1.2245882 4.068324 1.9347595 1.9244736 0.147879 3.4357464 0.813159
2.2818918 0.11898607 -0.28398183 0.999441 2.1236417 1.1190536 0.09392874 0.016579516
1.403275 1.9285035 3.1597626 5.017528 2.6993375 1.3200839 1.9861482 1.4004766
1.2348449 1.9861944 2.165904 -0.43153214 -2.5900848 3.9902294 3.8198218 -14.568064
5.219515 1.4101567 5.2038903 2.6543617 1.5453044 2.6221588 1.689834 4.22818
5.2654357 4.892642 1.8285687 3.0927536 2.4291167 2.533523 0.9600988 1.4764966
2.654988 2.5342648 0.46446928 0.99536353 2.285353 1.0802188 2.3175447 1.0260574
1.6010895 1.676482 2.1165113 2.2379072 2.9087906 2.9780767 0.05988026 0.41746932
1.627916 0.73440313 4.3285804 1.0961565 0.88683665 0.46682122 6.454306 0.60346496
0.9917095 2.7853787 2.6325617 0.925616 1.0156257 2.5600147 -0.07819428 2.866325
3.05652 1.2875288 3.0348282 4.7953477 6.4793534 0.9887342 1.2108315 2.5247076
2.8249626 1.1664469 1.6192578 4.1212697 4.370385 2.5957727 2.5456786 7.922962
1.643744 -3.0854678 -7.415073 -3.26321 -3.8105931 -3.6879468 -2.2193758 -0.14636494
7.938783 -1.3569219 -2.736118 -3.9869587 -0.7098533 -3.016328 -2.7602546 -3.0747278
-4.169207 -3.826414 -0.47040388 -2.6280947 -5.5452952 -2.6466148 -4.463693 -2.4230065
-3.299597 -3.3715248 -2.3300478 -3.1526368 -4.6883783 -4.002603 -0.7223812 -0.7913462
-4.0305924 -3.2449794 1.9611952 -2.5143907 -2.592397 0.7305197 -5.334784 -0.31962502
-2.931636 -3.7907264 -4.0045533 -0.2068103 -2.7002418 -3.6583102 -0.75214475 -4.5622377
-4.8527446 -3.4557183 -2.961086 -1.6740273 -4.132115 -1.6566274 -2.5957355 -2.7675989
-3.2432952 -2.634614 -2.7715738 -4.972594 -6.3360786 -4.011161 -3.840533 -3.0078268
-1.4165542 1.7554119 4.0231357 2.7312064 1.5683395 3.2220483 2.2212641 2.3444808
5.9910154 3.4469059 1.9072458 2.600366 2.1201777 2.1145215 1.8825076 1.8377221
2.9039378 3.0655348 0.71597314 1.6956158 0.58868885 1.6858302 2.559472 1.8050009
0.34648383 1.6399207 2.3750505 2.1681595 3.1981754 1.9062867 0.48598608 -0.379297
1.7452462 0.62077 1.5566746 1.9328429 1.951771 -0.018778281 2.6252475 0.4025954
1.6798061 2.4917865 2.8456566 -0.07439014 1.9324573 2.3619676 0.43364117 2.4427848
2.8132768 1.8912246 2.5378373 3.1801014 2.2469792 1.6524575 1.5029761 2.5198486
2.4474757 1.916185 1.827885 4.3852124 4.599318 2.9522395 1.8658421 5.9134107

encoder.linear2.bias f4 [10]
00000000: 2f3b 1940 8814 0240 aaed 65c0 fc70 0740
00000010: a4b5 d23f c339 923f d116 033f 92ec 0640
00000020: c7e4 d83f 7870 0d40
2.3942373 2.0325031 -3.5926309 2.116271 1.6461682 1.1423877 0.5120669 2.108189
1.6944817 2.2099895

encoder.norm1.weight f4 [10]
00000000: 1162 aebe b572 fe3f 179e e63f 315c b83f
00000010: 4899 893f 81c8 6a3f 6602 8e3f 1760 a13f
00000020: 5d57 4840 6759 2bc0
-0.34059194 1.9878756 1.8016995 1.4403135 1.0749903 0.91712195 1.1094482 1.2607449
3.1303322 -2.6773317

encoder.norm1.bias f4 [10]
00000000: 952c f83e 0ea0 cc3f 002d efbc 2767 9cbe
00000010: a25e 993f e0fc 173f e4b8 d8bf c7b4 c93f
00000020: 4a65 69bf 38fb 3abf
0.48471513 1.5986345 -0.029196262 -0.3054745 1.1982005 0.5937023 -1.6931424 1.5758294
-0.9117018 -0.7303958

encoder.norm2.weight f4 [10]
00000000: 7d2e 03bf 375c d93e 4927 a13f 470d da3e
00000010: e409 043f 8673 913e 3109 52be 724c bf3e
00000020: 5551 443f 0974 c1be
-0.5124281 0.42453167 1.2590114 0.42588255 0.5157759 0.2840845 -0.20511319 0.3736301
0.766866 -0.3778384

encoder.norm2.bias f4 [10]
00000000: 94b2 66bf 56ee 0dbf 8905 84bf cd3b 02be
00000010: 09d5 1abf e837 d2bf 3e11 08be 684d 9ebe
00000020: 4aaa 423d aecc 6bbf
-0.9011624 -0.55441797 -1.0314189 -0.12718125 -0.60481316 -1.6423311 -0.13287827 -0.3091843
0.04752568 -0.9210919

l2.weight f4 [64, 3200]
00000000: 2a96 b8bd 4e92 713c 934c 333f dc17 c2bd
00000010: e582 783e de74 373e 5e6f ec3e 5b4c b73e
00000020: f3cb 943f 7c21 413e d644 0abf 07f8 ebbe
00000030: a71b 1d3f 5216 15bf e47a 4d3e 2a64 9c3e
00000040: aa45 203f 7fa4 093f 524e ba3f b482 183f
00000050: 66f3 afbe b63f 5fbf fb45 233f acb5 12bf
00000060: abde f63d 9c8b 373f 9db4 163f 4ac0 8b3b
00000070: 9776 bd3f bdd5 0e3f b96a 37bf ef4d 90be
00000080: 332b 433f d66e 53be 2f01 f43d 43e7 363f
00000090: 80c6 063f f499 e73d d8b4 373f 3262 ab3e
000000a0: 7c2f a9bf f6db d5be 7a4a 563f 24b8 37be
000000b0: 1db6 3bbd a95f 663f 757f 103f 6c7c c1be
000000c0: e479 833f bcb3 973e 1c55 7ebf 9a55 183b
000000d0: 4347 283f 3990 51be 4f1c 1e3e bd92 4a3e
000000e0: 6a7d 073f 74f8 babe f3f6 813f 6e45 f33c
000000f0: 7f84 7e3e 3dd2 11bf 8b2e 1d3f 8c06 a6be
00000100: c435 933e 05da bb3c f0ec 483e 98c5 1abb
00000110: a45e d43f 6f4e aabe d817 8abe cb01 c0bf
00000120: 5abb 253f 391a 7dbe b896 bebc 5e98 e33e
00000130: f367 1b3f 0fcc a9be 7554 a73f 5116 9c3d
00000140: 190a 9dbd db25 0bbf 22fd 433f 2cea 83bd
00000150: fb18 913d 6f00 d13e 1409 fc3e 2971 713d
00000160: aba7 9b3f dd49 a13e 134b 88bf 84f5 9ebe
00000170: d5de 1a3f 377c 1abe 6c3c c03d 6ad7 d13e
00000180: 2884 da3e 7f13 09bf d822 b53f e65b 0a3f
00000190: d27a 87be 1151 adbf c189 263f 8317 7fbe
000001a0: a94b b23d 30fe ba3e 2f38 153f 6c50 0ebc
000001b0: 5c05 843f 1efb a2be f5e2 a8be fc81 b6be
000001c0: 07df 2d3f b858 cabe d39e a9bb 8232 e63e
000001d0: 43b4 283f 0671 03bf 4940 663f cde1 d1bd
000001e0: 12fa a1bf 5dc3 bebe 0368 163f c313 eabd
000001f0: 484f bd3d dd37 4a3e a530 413f 48c0 afbe
00000200: 6f95 413f 749b 143c 025e fdbe 364f 0bbf
00000210: dc1b 313f fb7c fdbd f96e 7a3c baa5 123f
00000220: ae77 4d3f 0fd4 d0be 1204 543f 582c 283e
00000230: 9346 6ebe 1dc8 80be 0779 1f3f e9f0 25bf
00000240: b370 553e e967 a43e cbf6 0e3f 2234 96bc
00000250: 4397 5f3f 9f74 9bbb ef33 48bf 6fa0 2bbf
00000260: fb60 143f d974 c4bd 7efd c93d d944 183f
00000270: 95d0 1b3f 4781 63be b129 e73e 6c37 f4bd
00000280: d5e4 25bf e9a4 8dbf 2ae2 2a3f fff5 12bd
00000290: fe59 093e 2d2f fe3e ed41 a33e ffb7 eb3e
000002a0: 8803 813f 9f7b 0b3d dab1 a4bf d79a bdbe
000002b0: 306c 143f 448e 1a3e 7430 633d 54cc a43e
000002c0: 6f4c f93e c85d 6c3e cac7 263f a7f4 b03e
000002d0: 3efa 8abe df43 61bf 034e 173f dd3f a9be
000002e0: 7936 bd3d e754 dd3e 2b01 de3e 3f45 c93d
000002f0: 44c4 803f cd19 7c3c 6282 033e dd10 11bf
00000300: a74f 1d3f c678 21be 55fe b83d 82ef bf3d
00000310: 14b8 0e3f 70bc 203e 8495 633f 6386 68be
00000320: 8cfe f0bd 6bf8 2dbe 6df6 073f 71eb 3cbf
00000330: 4141 b43e 4884 493d 7754 153f 1071 193d
00000340: 1310 863f 054d 53be 467d 9c3d 7522 0bbf
00000350: faef 083f 5368 4dbe c564 993e b76d 853d
00000360: 4bcb 343f 7da3 e63e d6ec a03f 340b 22bf
00000370: 076f 1e3f 5831 08be 1622 063f b2c2 6cbd
00000380: d85a 873e 4e00 af3d f8ab 103f 6e77 f23e
00000390: d0a6 a03f b884 a4be 26ae 8dbe 7e67 19bf
000003a0: 5ee2 253f 8021 4cbf abb6 dd3c 3726 113f
000003b0: ec4b 8f3e c584 d8be 9dae 523f 34a8 b73e
000003c0: 26ec 09bd 0e64 49bf 6d0f 2f3f b978 d7be
000003d0: 988d 713e 4ff3 b23e c285 0e3f 805f 59be
000003e0: a33d 833f a099 e73d 542f a4bd f14e 5f3e
000003f0: ca79 303f 9bd3 d8bd fb6b 6b3e 0ef7 903d
-0.090130165 0.014744354 0.7003872 -0.09477207 0.24268682 0.17915675 0.46178716 0.35800442
1.162474 0.1886043 -0.54011285 -0.46087667 0.6137032 -0.58237183 0.2006641 0.3054517
0.626063 0.53766626 1.4555151 0.5957444 -0.34365386 -0.8720659 0.63778657 -0.5730846
0.12054189 0.716974 0.58869344 0.004264866 1.4801816 0.5579489 -0.7164722 -0.2818446
0.7623779 -0.2064775 0.11914288 0.7144663 0.52646637 0.11308661 0.7176032 0.33473355
-1.3217616 -0.4176938 0.8370739 -0.17941338 -0.045827974 0.89989716 0.56444484 -0.3779024
1.0271573 0.29629314 -0.99348617 0.0023244382 0.65733737 -0.20465173 0.15440486 0.19782539
0.5292574 -0.3651768 1.0153488 0.029696193 0.24855231 -0.56961423 0.61399144 -0.3242687
0.28751957 0.022931108 0.19621634 -0.002361631 1.6591382 -0.33262965 -0.26971316 -1.5000547
0.64739 -0.24717034 -0.023265228 0.44452184 0.6070549 -0.33163497 1.3072649 0.07621444
-0.076679416 -0.5435464 0.76558125 -0.06441149 0.07084843 0.40820643 0.49225676 0.05894581
1.2160543 0.31501666 -1.0647911 -0.3104669 0.60496265 -0.15086447 0.093865246 0.4098466
0.42678952 -0.53545374 1.4151258 0.54046476 -0.26460892 -1.3540365 0.65053946 -0.24911313
0.08705837 0.36522055 0.58288854 -0.008686166 1.0314136 -0.31832212 -0.32985654 -0.35646045
0.6791844 -0.39520812 -0.005176404 0.4496041 0.6590006 -0.51344335 0.8994184 -0.10248146
-1.265444 -0.37258425 0.5875246 -0.114295505 0.09243637 0.19747873 0.7546485 -0.34326386
0.7561864 0.009070266 -0.49485785 -0.5441774 0.69183135 -0.12377354 0.015285247 0.5728413
0.8026074 -0.40786788 0.8281871 0.16423166 -0.2326911 -0.25152674 0.6229405 -0.64820725
0.20843773 0.32110527 0.55845326 -0.018335406 0.8734018 -0.004744127 -0.78204244 -0.6704168
0.5796048 -0.095925994 0.09862803 0.59480053 0.60865146 -0.22217284 0.45148996 -0.119246334
-0.64802295 -1.1065952 0.6675135 -0.03587913 0.13413236 0.49645367 0.31886235 0.46038815
1.0079203 0.03405344 -1.2866776 -0.37032196 0.5797758 0.15093333 0.05546613 0.3218714
0.48691127 0.2308265 0.65148604 0.34561655 -0.27144045 -0.8799419 0.5910341 -0.33056536
0.092389055 0.43228838 0.43360266 0.09827661 1.0059896 0.015387011 0.12842706 -0.56666356
0.61449665 -0.15768728 0.09032885 0.09371854 0.5574963 0.15696883 0.8890002 -0.22707514
-0.11767301 -0.16989295 0.5311039 -0.73796755 0.35206035 0.04919842 0.5833201 0.03746134
1.0473655 -0.2063485 0.076410815 -0.5434945 0.53491175 -0.20059328 0.29959694 0.06515067
0.706227 0.45046607 1.2572277 -0.63298345 0.61888164 -0.13300073 0.5239576 -0.057802863
0.26436496 0.0854498 0.56512403 0.47356743 1.2550907 -0.32132506 -0.27671927 -0.5992354
0.64798534 -0.79738617 0.027064642 0.56698936 0.2798761 -0.42288795 0.8229769 0.35870516
-0.033672474 -0.78668296 0.6838291 -0.42084292 0.2358917 0.34951255 0.5567285 -0.21227837
1.0253185 0.113085985 -0.080168396 0.21807458 0.68935835 -0.105872355 0.2299041 0.07078372

l2.bias f4 [64]
00000000: 60fd 91bf 001a 27bf 6d68 9fbf 373e d8bf
00000010: 1a1e 37be 9f33 2dbe 7fc2 7bbf a1ff 1cbf
00000020: 77e8 47c0 e3da 43bf dfa4 41bf f953 2fbf
00000030: 2e37 c1bf d61f 04bf ec62 d9be 9644 c4bf
00000040: 685a 5ebf b62b ebbf cec3 9cbf 69ed 5fc0
00000050: f608 80bf f5ef a6bf 9814 50c0 e2af efbf
00000060: d420 63bf a7d6 6bbf 816e fabe b2a0 acbf
00000070: 472f cabd 0d7a 3abf 995c 50bf 1340 60bf
00000080: e065 79c0 bd93 f2bf c961 4fbf 2458 00c0
00000090: c5d7 e6bf 592c 69bf c8cd 4abf 3ddc fcbe
000000a0: ed13 25bf 40e2 0dbf e6fd 2abe 7eee 03be
000000b0: 9637 40c0 6c4c 97be 19b6 27bf b8b6 4abe
000000c0: 1b7f 6abf e7a4 d8be 0359 2abf e7f6 dabf
000000d0: 57a8 c9be 289b 36bf cdf9 5cc0 7f0b 13bf
000000e0: 6503 5cbd 4c3d 4cbf 5a62 5abf 6e1e a3bf
000000f0: 03f6 2abe e3a2 02c0 cc6f 16be 05ea c9be
-1.1405449 -0.6527405 -1.2453743 -1.6893986 -0.17882577 -0.16914223 -0.9834365 -0.6132756
-3.1235635 -0.7650587 -0.756422 -0.6848751 -1.5094965 -0.5161108 -0.42458284 -1.5333431
-0.868567 -1.8372715 -1.2247255 -3.4988654 -1.0002735 -1.3041979 -3.251257 -1.872555
-0.88721967 -0.9212441 -0.48912433 -1.348654 -0.09872299 -0.72842485 -0.8139129 -0.8759777
-3.896843 -1.8951336 -0.81008583 -2.0053797 -1.8034598 -0.91083294 -0.7922025 -0.49386778
-0.6448353 -0.55423355 -0.16698417 -0.12883946 -3.0033927 -0.29550493 -0.65512234 -0.19796264
-0.916002 -0.4231331 -0.6654207 -1.7106599 -0.39386246 -0.713305 -3.4527466 -0.57439417
-0.053714175 -0.7978103 -0.8530632 -1.2743661 -0.16695409 -2.0411918 -0.14691085 -0.39436355

l3.weight f4 [64, 66]
00000000: 79e8 023f b3bf 083f c74b 533f e4b2 183f
00000010: dba1 763f 71a4 b6be f6bc 653f 838b 133f
00000020: ac84 323f 532a db3e 052e 6d3f d629 073f
00000030: c188 203f c545 e53e f126 4b3f 6270 1e3f
00000040: 8667 283f 8356 0b3f 886d 5f3f c1ee 363f
00000050: 64de 8a3f 4c83 0d3f 4de0 203f 6be4 013f
00000060: 9278 203f a03d 743e 86af 7a3f 3bcc c23e
00000070: a33e 8c3d c687 0f3f b919 3ebe 4e70 233e
00000080: d4d0 323f 20d5 7a3f 3437 443e c436 083f
00000090: 4e31 323f 52ae 083f 77ae 4d3e 0996 7ebe
000000a0: 6d83 013f 93a3 26be c628 bd3d a029 9e3f
000000b0: 0f30 3f3f e585 943e 4526 793f 4ad9 da3e
000000c0: 5e67 71bf 67ab 7b3f 919e 473f 5230 2e3f
000000d0: cd2f ed3e eafb 753e 881a 603f 9fe3 a43e
000000e0: 55d9 313f 2291 f93e 4071 c2bd 7c42 bf3e
000000f0: 2f16 f13e 9c1e 283f 8e57 02be af1c 3c3f
00000100: 8da5 d4be b0a2 e0be 376a b63e 37b0 983e
00000110: ab0c 123f d5b8 a23e 8681 86bf 4a72 afbf
00000120: ec9a 413f 525e a2be 6907 813e 9dc9 833d
00000130: 9aeb 98bd 43f5 043f 5541 85bd e8cf b3be
00000140: ed04 04bf ae44 253e 4468 0e3f a92d 913e
00000150: 39fa 383f 934c a33e 9d6e 443f 9cec 383d
00000160: 6e9d 6c3e 42a3 7a3e e754 9ebe 04d6 dfbd
00000170: 5dc8 e83d c856 c1be c94f 85bf 5373 f53d
00000180: 0e75 edbe 6585 9ebe c428 953e e6eb a53d
00000190: 3ab7 4cbd 2ab7 d0bd 98ba f8bc 8c2f a9be
000001a0: a5fb 5abe 8e48 9abf 0b66 b0be b842 9c3e
000001b0: 2acb 58bf af10 543d 6255 aa3e ca5a fc3e
000001c0: 1be8 afbf 4cd3 8abe 7467 a7bd 8d69 c5bd
000001d0: 7124 f93e 5633 ac3e 3c9a 403f 95fc d0be
000001e0: 91c8 583e d71b 53be ffdf 95be 1471 8b3e
000001f0: d3d8 a2bf 97ca 54bf 259d c5bf b012 b23c
00000200: 579c 5cbf c226 483f 21ab 1240 f91c 54be
00000210: 7dae 163e cfb5 b1be 6f14 91bc 855a 4a3e
00000220: 5949 74bb 5930 263f eb0c fd3c d99b 4b3e
00000230: 491c 2c3e c961 8a3e 44ea 04bf 2fef 353d
00000240: 73b3 053d 7b86 b9bd 066f a6bd b0e2 483e
00000250: 9609 b43e ef78 de3d dee2 fabd 852b 6f3d
00000260: c1e3 883e fc1c 0dbf ffe5 283e af9a a83d
00000270: 9909 753e 93b5 a23e 4dc7 26bd 3455 78bd
00000280: 0e8a 893e 88ff bebd 2f9b a8be d123 80be
00000290: 4c87 923e de2a ebbd 7c72 833f d9dd 1b3b
000002a0: c1dc 9b3e 1057 b33d 5d21 0c3f 4612 f33e
000002b0: 8ba4 573f dcca 353c 9bce e23e 1fb8 88be
000002c0: 310b c53d a93f a53e 0db6 8c3d 3dab eb3e
000002d0: cfec 963e f43e c53e f673 8ebd 9beb 0e3c
000002e0: e8a9 a7bc 97f2 2d3f 4fea 47bb 3d5f 1abf
000002f0: d16f a53e 8520 59be c2aa db3e 1b61 063e
00000300: 71bb 503f 84af 493e 9b76 07bf 9e66 e9be
00000310: a50f b5bf d6b4 09be 4691 ee3e 1149 b13f
00000320: 7855 f73f f5b7 a23e 8235 afbe ad9e adbf
00000330: a5ac 6f3f e814 c43d 6c2f 043e ba5b ecbe
00000340: 824d c6bd 9d6e bd3e 811f 893d 9110 acbe
00000350: 63c3 173f c6f8 403e 3700 a6be 7168 853e
00000360: e427 c73e 50e8 683e ca71 303e dc86 783f
00000370: 56ea 713d a47d 1f3e 0f25 e13d d745 b1be
00000380: 1cd3 473f 7f04 59be 92d1 62bf 8479 4fbf
00000390: b1de cbbe ad97 6ebe 9359 0fbe d7b5 8c3e
000003a0: 08b6 1bbe 84c8 3e3e 5950 adbd bbd9 dd3d
000003b0: f43e 9abe ecef e2be 1ad5 d5be 8099 f53e
000003c0: c192 bebe e799 4cbe 261a 4c3e 0336 c3bd
000003d0: a0c3 193f d0c9 32bf 8dd4 0a3f 9aa2 923f
000003e0: 306d ca3e e8b7 9f3d 1f0a 003f e33a 25bf
000003f0: dd1a 833e 520c 2a3e bfce 65bf b240 ac3e
0.51135975 0.5341751 0.825375 0.59647965 0.9634072 -0.35672334 0.89741457 0.57634753
0.6973369 0.42805728 0.92648345 0.5279821 0.6270867 0.44779792 0.79356295 0.6189023
0.65782964 0.5442888 0.87276506 0.7145806 1.0849118 0.5527847 0.62842256 0.50739163
0.62683976 0.23851633 0.9792408 0.3804644 0.068478845 0.5606655 -0.185645 0.1596081
0.69849896 0.9798145 0.19161683 0.53208566 0.69606483 0.5339099 0.20086084 -0.24861921
0.50591165 -0.16273336 0.092362925 1.2356453 0.74682707 0.29008403 0.9732402 0.42743903
-0.9429835 0.98308414 0.7797633 0.6804248 0.46325532 0.24021879 0.87540483 0.3220491
0.6947225 0.4874354 -0.09494257 0.3735541 0.47087237 0.65671706 -0.12728712 0.7348127
-0.41532555 -0.4387412 0.3562791 0.2982194 0.5705058 0.3178164 -1.0508277 -1.3706753
0.7562702 -0.31712586 0.25200966 0.06434939 -0.074668124 0.5193674 -0.06506602 -0.35119557
-0.51570016 0.1613948 0.55627847 0.28355148 0.7225681 0.3189436 0.7673128 0.045147523
0.2310693 0.2447634 -0.3092415 -0.10929492 0.11366341 -0.3776152 -1.0414973 0.11984887
-0.46378368 -0.30961147 0.29132664 0.08101635 -0.049979426 -0.10191186 -0.030362412 -0.33044088
-0.21385057 -1.2053392 -0.34452853 0.30519652 -0.84685004 0.051773723 0.33268267 0.49288017
-1.3742708 -0.27114332 -0.08174029 -0.09639273 0.48660615 0.33632916 0.7523534 -0.40817705
0.2117026 -0.20616089 -0.29272458 0.2723471 -1.272242 -0.8312163 -1.5438582 0.021737427
-0.86176056 0.7818414 2.2916949 -0.20714177 0.14715 -0.3470902 -0.017709939 0.19761093
-0.0037275164 0.6491752 0.030889949 0.1988367 0.16807665 0.2702773 -0.5191996 0.044417556
0.03264184 -0.09058853 -0.08126645 0.19617724 0.35163563 0.1086291 -0.12250303 0.058391113
0.26736262 -0.5512235 0.16493987 0.082326286 0.23929442 0.31779155 -0.04071741 -0.06062813
0.2686314 -0.093260825 -0.32930896 -0.25027326 0.28618848 -0.11482786 1.0269313 0.0023783355
0.3044186 0.0875684 0.5473841 0.4747488 0.8423545 0.011095729 0.44298252 -0.26702973
0.09621275 0.3227513 0.06870661 0.46029082 0.29477546 0.38524592 -0.069557115 0.008723165
-0.02046676 0.6794829 -0.003050465 -0.6030157 0.32311872 -0.21203811 0.42903715 0.1312298
0.8153601 0.1969586 -0.5291535 -0.45586103 -1.4145399 -0.1344789 0.4659521 1.3850423
1.9322958 0.31780973 -0.3422051 -1.3564049 0.9362281 0.095743 0.12908715 -0.46163732
-0.09682752 0.36998454 0.06695462 -0.3360639 0.5928251 0.188449 -0.3242204 0.26056245
0.38897622 0.2274487 0.17230907 0.9708078 0.05906137 0.15575272 0.109933965 -0.34623596
0.780565 -0.21193121 -0.8860103 -0.81044793 -0.39818338 -0.23300047 -0.13999014 0.27482483
-0.15206158 0.18631178 -0.08462591 0.108325444 -0.30126154 -0.4432367 -0.41764146 0.47968674
-0.3722134 -0.19980584 0.1993185 -0.09531786 0.60064125 -0.6983919 0.54230577 1.1455872
0.39536428 0.07798749 0.50015444 -0.6454298 0.25606433 0.16606262 -0.89768595 0.3364311

l3.bias f4 [64]
00000000: 1961 29bf a913 05bf 7bc4 013d 40a4 69bc
00000010: 371c 163e 3dbd a0bf 5d29 a9bf 36a5 cd3e
00000020: 2fa4 80bf 5875 37be 2d01 07be df0a 30bf
00000030: 6bfe e23e 5baf bfbd cb13 a3be b0df 83be
00000040: 3db7 c0be adc0 eabe 1939 07bf 5ac5 94be
00000050: 2557 2cbf 2e43 3cbf 8f82 ab3e b594 64be
00000060: 461c 153f 8155 0ebf 3415 3fbe d603 93bf
00000070: 8808 aebe 7427 a5bf 477d 4ebf fcce dbbe
00000080: 50ca c93e e52c 44be 4896 9bbf 02e1 e4be
00000090: f2bb 02bf 8a6b b2be 477b f33e 1467 b7be
000000a0: 2df1 6e3e 467c 133f bf92 32bd c982 3bbf
000000b0: e990 883e 13b0 38be 51ea 4a3e 538b 22be
000000c0: 72a2 20bf 5711 dabe b6ae a6be 978a 213f
000000d0: 2368 29bf 83af 90bf 4ec5 27bf c003 073e
000000e0: 99ca 14bf ffaf 17bd 43f5 97be e636 94bd
000000f0: f788 013f 4e3b 69bf 1ef7 763d 6244 9c3d
-0.66163784 -0.51983124 0.03168152 -0.014260352 0.146592 -1.2557751 -1.3215748 0.40165108
-1.0050105 -0.17915857 -0.13184042 -0.6876659 0.4433473 -0.09359618 -0.31851038 -0.25756598
-0.376398 -0.45850125 -0.528215 -0.29056817 -0.6732047 -0.7354001 0.33498046 -0.22322352
0.58246267 -0.5559922 -0.18660432 -1.1485546 -0.33990884 -1.2902665 -0.8065991 -0.42931354
0.39412165 -0.19157751 -1.2155237 -0.44702917 -0.5106803 -0.3484767 0.4755499 -0.3582083
0.23334189 0.576115 -0.04359698 -0.7324644 0.26673058 -0.18035917 0.19815947 -0.1587346
-0.6274787 -0.42591354 -0.3255517 0.63102096 -0.66174525 -1.1303562 -0.6553544 0.13185024
-0.5812164 -0.037033077 -0.29679307 -0.072370335 0.50599617 -0.91106117 0.060294263 0.076302305

l4.weight f4 [2, 64]
00000000: ebc8 fbbd a109 70bb c67d bb3d 65b6 003e
00000010: a35d aabe d055 723c 9e97 99bd 5234 933c
00000020: 1b74 863e 7078 b6bd f2a9 d4bc 7899 27bd
00000030: acb0 3d3e e148 3ebe 8cd9 98be c795 aabd
00000040: c39c 9c3e 102b 92bd f492 653d 5776 833e
00000050: e5d4 96bd c57e 2bbe 5e37 47bd 24d0 e53c
00000060: 79a5 64bd c4fd c2bd aa2f 273e ce58 8fbe
00000070: cda1 6dbe 5504 1b3d 843b a9bd e212 b8bd
00000080: 16b9 463e 6c34 4e3e 6c09 adbd e0b3 c63d
00000090: 541e 843e f23c 8dbd 5de3 20bd 210b b0be
000000a0: 33e4 64be ac4c 89be 2d9f a4bd 7dd2 653e
000000b0: 4a2a 9ebe 2382 87be 12e0 2abc 61b5 4bbd
000000c0: 2ee1 643e 1e91 adbd 0f85 f93d 0fd6 97bd
000000d0: 359a ae3d a9bf 773e da0f ee3d d1e8 773d
000000e0: 6ffd 43be dd22 5abe 743b 8c3c 6abb 83be
000000f0: 7537 823e 9f1a d8bc 276f 883e 374c 8fbd
00000100: 93df fe3c 7951 44bd 8285 5f3e f7c0 cebd
00000110: fd2d 3c3e c239 35bd 5c12 a63d 710d 333c
00000120: ee4a 98be db18 303d cb26 503b b9e1 303e
00000130: 15b4 a63e 6d9c e13d c9ff 1f3e a3cd 27be
00000140: 4178 9cbe 1244 b2bc 36e3 c03c f0ab 8cbe
00000150: 80d4 07be eec2 7e3e 56ee 2ebe 5fbe 323b
00000160: 0f27 6b3d 818b 103e ff36 84be a55b fc3d
00000170: e263 2d3e 693c 5cbe 39d8 143e 497d 653c
00000180: a0b6 8e3d 3ecd 973e 37d8 b83d 0e62 68be
00000190: 668f 87be 7a1d 503d ab36 87bc ec1a 7e3e
000001a0: b1ed 25be a658 083e 04e9 8a3d 64e1 9dbe
000001b0: dbca bebd fda4 c6ba 47d2 b53d 28bd 883d
000001c0: 082d 46be 3be5 1fbe 7ecc 89bd 4820 80be
000001d0: 02a7 10bd f0bc be3e 40e0 eebc 8810 0b3e
000001e0: edb7 8c3d 4fff 163e 2c61 f43d 2368 943e
000001f0: d371 753d 262b 833e d73f 88be 4515 8b3e
-0.122941814 -0.0036626833 0.09154849 0.12569578 -0.33274564 0.014790967 -0.07499622 0.017969284
0.26260456 -0.089096904 -0.025959942 -0.040917844 0.18524426 -0.18582489 -0.29853475 -0.08329349
0.3058835 -0.0713712 0.05604835 0.25676224 -0.07364825 -0.16747577 -0.048636787 0.02805335
-0.05582187 -0.09521058 0.16326776 -0.2799744 -0.23206253 0.03784593 -0.08263305 -0.089879766
0.19406542 0.20137185 -0.08449063 0.09702277 0.2580439 -0.0689639 -0.03927933 -0.3438349
-0.22352676 -0.26816308 -0.08038173 0.22443576 -0.3089164 -0.26466474 -0.010429399 -0.049733523
0.22351524 -0.084749445 0.12183582 -0.07413875 0.085255064 0.24194206 0.11624117 0.060524765
-0.19139646 -0.21302362 0.017118193 -0.25728923 0.25432935 -0.026379881 0.26647303 -0.06996959
0.031112468 -0.04792926 0.21828273 -0.10095399 0.18376918 -0.044244535 0.081089705 0.010928498
-0.29744667 0.042992454 0.0031761404 0.17273606 0.32559267 0.11016164 0.15624918 -0.16387038
-0.30560496 -0.021760974 0.023545843 -0.27474928 -0.13264656 0.24879047 -0.17083105 0.0027274115
0.057410296 0.14115717 -0.2582321 0.12322167 0.16932634 -0.2150742 0.14535607 0.014006921
0.06968427 0.29648775 0.09025615 -0.22693655 -0.26476592 0.05080936 -0.01650556 0.24814957
-0.16203953 0.13315067 0.067827255 -0.30836022 -0.09316035 -0.0015155372 0.08877998 0.06676704
-0.19353116 -0.15614788 -0.06728457 -0.2502463 -0.03531552 0.37253523 -0.029159665 0.13580525
0.068710186 0.1474583 0.119325966 0.289857 0.059923004 0.25618857 -0.26611206 0.27164665

l4.bias f4 [2]
00000000: 4336 acbd b3b8 123e
-0.08408787 0.1432827
