Formal Experiments/CSI500/Transformer-DoubleDQN-QT-Final/ModelParam/2024-3-10/64network-TransformerNoguiadance.pth (torch, 851590 bytes, 18 tensors)

encoder.self_attn.in_proj_weight f4 [30, 10]
000000 66 af 34 41 f5 28 27 c1 db 70 da c0 18 22 1b bf
       11.292822 -10.447499 -6.8262763 -0.605989
000010 db be 54 c0 f2 bd 8e c0 f6 1e 8e c0 56 4a 8d 41
       -3.324149 -4.4606867 -4.4412794 17.661297
000020 a8 7c 3b 41 07 1d 60 41 8d 03 37 c1 6e 43 26 41
       11.717934 14.007087 -11.438367 10.391462
000030 e4 8c 8e c0 f2 5d 83 bf 04 5f 84 c0 db 17 6c 3f
       -4.4546986 -1.0263045 -4.1365986 0.922239
000040 c0 90 6f bf b1 82 33 c2 35 fc 35 c1 78 94 fe c0
       -0.93580246 -44.87763 -11.374074 -7.9556236
000050 bb 45 82 41 f9 cd 78 c1 9e ef 0e 40 b7 54 9b 3f
       16.284048 -15.550286 2.233375 1.2135228
000060 90 6a 81 40 71 8c 69 bf c2 38 b6 3f 7e 58 57 42
       4.044258 -0.9122992 1.4236071 53.83642
000070 f3 45 8b 41 d7 ae 54 41 8a 26 a2 40 37 c7 71 c0
       17.409155 13.2926855 5.0672045 -3.777784
000080 13 21 71 c0 81 ac 9c 3f a6 9d 42 c0 63 c0 32 3f
       -3.7676437 1.2240144 -3.040872 0.6982481
000090 99 ac c1 bf 79 68 94 c2 ab 2b 8e 40 39 21 8e 40
       -1.5130798 -74.20405 4.4428306 4.4415555
0000a0 1f 97 ab 40 85 da 7e c0 e7 49 63 c0 ba b0 f1 3f
       5.3621974 -3.9820874 -3.5513856 1.8882058
0000b0 e1 f1 4f c0 7c a7 6b 3d 15 7f 0d c0 68 2d 92 c2
       -3.249138 0.057532772 -2.2108815 -73.088684
0000c0 c7 3d 87 40 47 fd 8c 40 bb 49 2e c1 c2 a0 33 41
       4.226291 4.4059176 -10.893001 11.2267475
0000d0 3f 2f 57 c0 bf d1 cf 3d e5 76 37 c0 bc 2a a5 3f
       -3.3622587 0.10147428 -2.8666317 1.2903666
0000e0 30 06 c6 bf fe 7f 79 c2 ab 9e 43 c1 5d e2 01 c1
       -1.5470638 -62.374992 -12.226237 -8.117764
0000f0 55 38 a6 c1 21 31 ac 41 ce 57 c8 40 62 98 69 40
       -20.777506 21.523989 6.2607183 3.6499257
000100 b8 d8 3b 40 1b b2 65 bf 3f f1 35 3f f2 5e 13 c2
       2.9351025 -0.8972489 0.7107124 -36.84272
000110 c1 8a bb c1 e4 3a a5 c1 59 b2 8a 40 a1 6a 9e c0
       -23.44275 -20.653755 4.334271 -4.950516
000120 82 f0 c4 40 bb 86 87 bf 20 8d 85 40 c7 11 ec bf
       6.154359 -1.0587991 4.173477 -1.8442925
000130 41 26 cf 3e 9e e6 2e 42 f6 22 78 40 ef fe 17 3f
       0.40458873 43.725212 3.8771338 0.5937337
000140 2d d5 bc c0 ef e3 ae 40 4c 58 ad c0 09 d5 a8 3f
       -5.9010224 5.465324 -5.4170284 1.3190013
000150 ca 74 77 c0 82 1b 24 40 c6 61 89 be 96 d7 63 c2
       -3.8665032 2.564179 -0.26832408 -56.960533
000160 60 62 c2 c0 c9 52 30 c0 9c 50 87 c0 35 d2 a7 40
       -6.0745087 -2.7550528 -4.22859 5.24441
000170 77 25 b8 40 04 f8 cd 3f aa 85 3d 40 d7 e0 0e bf
       5.7545733 1.6091313 2.9612832 -0.5581183
000180 a5 15 85 3f 95 24 cd c1 ee 85 bf c0 e7 15 cf c0
       1.039723 -25.642862 -5.985099 -6.4714236
000190 3f 8a e9 bd 74 18 c4 bf e9 6a ce 3f 3e 3b 6a bf
       -0.114033215 -1.5319963 1.6126376 -0.91496646
0001a0 bc 12 e5 be 15 ca fd be c2 ad 63 bd b1 ab 9b 42
       -0.44740856 -0.4956824 -0.05558563 77.835335
0001b0 38 2d 17 bf de 37 fe be de 0f 7b bf b4 e8 f1 3f
       -0.59053373 -0.49651998 -0.98071086 1.889914
0001c0 3f 9a fb be 93 8e 45 3e 37 83 81 bf 76 92 da be
       -0.49141118 0.19292669 -1.0118169 -0.42689866
0001d0 2b 7d 11 bf b7 4d 8e c2 98 e1 54 be 77 30 da be
       -0.56831616 -71.15179 -0.20789182 -0.426151
0001e0 2b 6f 8c 3f 79 37 e2 bf 66 93 25 3f c0 4f 59 3d
       1.0971426 -1.7673179 0.6467804 0.05305457
0001f0 93 79 74 3f 58 8b 1b 3e ca 1d cf 3e 50 1e 8f 42
       0.9549801 0.15189874 0.40452415 71.559204
000200 6d 1f 16 3d 68 52 42 3e fc 5e 76 c0 53 07 b7 bf
       0.036651064 0.18976748 -3.8495474 -1.429911
000210 18 9e 93 be fd ec 86 bf db 27 55 bf ee 41 26 c0
       -0.28831553 -1.0541073 -0.8326394 -2.597774
000220 24 56 41 c0 0b 65 93 42 3f 50 20 40 61 9e 6c c0
       -3.0208826 73.69735 2.5048978 -3.6971667
000230 27 43 90 c0 0c 35 f6 bf e7 f8 06 40 08 37 4f c0
       -4.5081973 -1.9234939 2.1089418 -3.2377338
000240 41 4f 4f c0 1c f3 14 c0 81 12 51 c0 6e 5d 9a 42
       -3.2392123 -2.3273382 -3.2667544 77.18248
000250 2e 46 2b 40 19 a7 ad c0 d0 0e 73 bf ad 5d eb 3f
       2.6761584 -5.4266477 -0.9494448 1.8387963
000260 2a 6a be be 4e fa c6 3d 61 6a ae bf 8e 90 06 bf
       -0.37190372 0.097157106 -1.3626214 -0.5256432
000270 1e 1b 37 bf d2 43 8d c2 27 15 2b 3e 5a 82 bb 3e
       -0.7152575 -70.63246 0.16707288 0.36622888
000280 cb 92 68 bf 81 f4 9e 3f d7 7e 16 c0 4a f8 16 3e
       -0.9084899 1.2418367 -2.3514917 0.14743152
000290 61 7e 3f bf 6b 2a 84 3c c8 4e 58 bc 51 8b 96 c2
       -0.74802214 0.016133508 -0.013202377 -75.2721
0002a0 41 59 23 3d c4 a8 2a bf 90 75 ff 3e 63 5b 3a c0
       0.03988004 -0.66663766 0.4989438 -2.9118278
0002b0 c1 b7 a7 3f f1 37 e8 bf 4f c3 77 bd e6 04 db 3f
       1.3102952 -1.8142072 -0.060488995 1.711087
0002c0 8f 1a 1b 40 30 4a 89 42 2f 7c 8e 3e 75 a0 29 3e
       2.423496 68.6449 0.2782912 0.16565116
0002d0 16 ba e9 3d 7e 2c 4e 40 fb a6 89 bf 60 15 de 3f
       0.11412446 3.2214656 -1.0754083 1.7350273
0002e0 a6 fa 29 3f 36 fc ba bf 56 80 9c bf 16 a4 8c c2
       0.66398084 -1.4608219 -1.2226665 -70.32048
0002f0 77 82 5b 3e 5d 4a 7f 3e 05 a3 b4 3f 71 c4 43 40
       0.21436487 0.24930711 1.411225 3.0588648
000300 9d f4 35 bf a2 bd cd 3f 3a 38 77 3f cf ba 82 3f
       -0.71076375 1.6073496 0.9657017 1.021326
000310 7f 89 f8 3e a2 fa 91 c2 5b ea 29 40 fc 84 30 bf
       0.485424 -72.98952 2.654929 -0.6895292
000320 55 ab 38 40 c5 24 87 40 73 d5 a0 40 3a d6 e3 3f
       2.8854573 4.2232385 5.026056 1.7799752
000330 6f d9 b6 40 d2 86 1e 3f d5 7f 20 bf 20 ee 60 42
       5.714042 0.6192447 -0.62695056 56.232544
000340 46 9c f7 3d fc 34 d2 3f a6 e2 43 40 24 db 80 40
       0.12090354 1.642242 3.0607085 4.0267506
000350 0a 53 f6 3f 25 ba 3c 40 f4 cc b9 40 9f 46 90 3f
       1.9244092 2.9488614 5.8062687 1.1271552
000360 91 73 16 bf 11 30 15 42 45 9d 14 3f c9 2a a0 3f
       -0.5877009 37.29694 0.58052474 1.2513057
000370 74 0d e1 3f 7d c0 e7 bf ea e1 13 3f fa 91 4e be
       1.758223 -1.8105618 0.5776659 -0.20172873
000380 a6 06 0e c0 79 43 e4 3f d6 60 b0 3f f7 31 81 c1
       -2.2191558 1.7833091 1.3779552 -16.149397
000390 fc 87 24 3e 0a 3a 23 bd 77 3c c7 bf a3 2a b9 3e
       0.16067499 -0.039850272 -1.5565327 0.36165342
0003a0 d5 de 63 40 3b af 50 c0 30 b4 15 bf 91 94 88 bf
       3.5604756 -3.2606952 -0.5847807 -1.0670339
0003b0 4d 9d e2 be 42 2e 26 41 88 dc 35 bf 83 ad 5e 3e
       -0.44260636 10.386293 -0.7103963 0.21745877
0003c0 42 1f 19 c0 1a a9 86 c0 3a 9c 99 c0 d4 08 7b bf
       -2.3925328 -4.2081423 -4.8003206 -0.98060346
0003d0 b4 5b af c0 8f 15 0e bf 00 cc f1 3e 2d ec 36 c2
       -5.479944 -0.55501646 0.47225952 -45.73064
0003e0 17 fb 68 3e 80 e4 ac be 6a 51 09 3f 80 50 73 c0
       0.22752033 -0.33768082 0.53639853 -3.8017883
0003f0 dc 81 1f c0 fd 5b 82 c0 c2 c8 18 3f 3c e8 09 bf
       -2.492301 -4.073729 0.5968133 -0.53869987

encoder.self_attn.in_proj_bias f4 [30]
000000 43 7a 37 41 df e4 40 c1 35 64 8a 41 5b 7a 58 40
       11.467349 -12.055877 17.29893 3.382468
000010 19 d0 56 40 e4 02 40 c1 45 10 bc c1 7c 0e 9a 40
       3.3564513 -12.000706 -23.507944 4.814268
000020 92 51 d6 c0 94 73 a4 c0 ca ab 08 40 4b 58 6a be
       -6.6974573 -5.1391087 2.1354852 -0.22885244
000030 d0 fb 00 40 ac 43 9b 3f 8d 5b 8f 3f de b7 46 c0
       2.0153694 1.2130027 1.1199814 -3.1049724
000040 3f cd e1 3f 52 ba 9b 3f f0 b4 9d bf 2f 5d ab bf
       1.7640761 1.2166235 -1.2320843 -1.3387812
000050 d3 dd 8e bd c4 23 e0 be 6b 36 22 bf d6 37 13 3e
       -0.06975903 -0.43777287 -0.63364285 0.14376768
000060 42 07 bc bd d3 1e 18 40 08 d7 f0 bd e1 66 44 c0
       -0.09181072 2.3768814 -0.11759764 -3.0687792
000070 ce 41 3d 3e 70 68 82 be
       0.18482134 -0.25470304

encoder.self_attn.out_proj.weight f4 [10, 10]
000000 f7 ce e1 c0 2f 4c d7 c0 27 6a 2a c0 6c 4c da 3f
       -7.0565143 -6.7280498 -2.662729 1.7054572
000010 0c 8c d5 40 c1 18 1e c0 78 62 1c c0 f3 94 48 40
       6.6733456 -2.4702609 -2.44351 3.1340911
000020 0e fd 06 41 83 05 59 c0 27 22 55 40 2f 69 27 40
       8.436781 -3.3909614 3.3302095 2.615795
000030 d7 8d b9 bf 0a c8 d8 3f a3 69 3e c0 2d 21 af be
       -1.4496411 1.6936047 -2.9751976 -0.34205
000040 84 31 06 c0 0c 49 0f be 43 e3 70 c0 68 6d b9 bf
       -2.0967722 -0.13992709 -3.763871 -1.4486513
000050 bd 3a 8d c0 9a cc 03 c0 b0 73 7e 3e e2 7b c6 be
       -4.41342 -2.059363 0.24848819 -0.3876639
000060 0b 33 41 40 84 23 54 bf 76 99 7d 3f d5 ff 06 40
       3.0187404 -0.8286669 0.9906229 2.1093647
000070 a4 77 9d 40 d1 53 ad be 83 59 76 40 d4 4a 00 40
       4.9208546 -0.3385301 3.8492134 2.0045671
000080 d4 74 cd be b7 5f 05 c0 e9 71 03 c0 6f 68 5f 3f
       -0.40128195 -2.083967 -2.0538275 0.8726873
000090 80 ab 9d 3f e1 90 9a bf a3 6f 8a c0 94 7f 94 3f
       1.2317963 -1.2075464 -4.3261275 1.1601434
0000a0 57 32 9a 40 23 eb 89 40 88 10 a6 bf 19 d4 cd 3f
       4.818645 4.309953 -1.2973795 1.6080352
0000b0 aa 3b 63 c0 d2 67 3b 3f 14 39 09 c0 58 88 1e bf
       -3.5505166 0.7320529 -2.1441088 -0.61926794
0000c0 bd ba d2 c0 94 69 93 bf 11 81 ad c0 54 11 72 c0
       -6.585295 -1.1516595 -5.422005 -3.7823076
0000d0 2f ad 00 3f c2 e6 b6 bf ef 07 6d 40 37 24 18 be
       0.5026426 -1.4289172 3.7036092 -0.14857565
0000e0 ec 46 d0 3f b8 60 4d 3f 7b 7d dc 40 8d 31 0b bf
       1.6271644 0.80225706 6.8903174 -0.54372483
0000f0 68 4d 09 40 03 75 2b 3f 05 36 5f bf a0 5f ef 3e
       2.1453495 0.6697542 -0.871918 0.46752644
000100 7c be 09 c0 6b 70 e0 3e 41 61 90 bf 95 6a ec 3f
       -2.1522512 0.43835768 -1.127968 1.8470026
000110 67 26 5d c0 63 1d 6e bf 03 e0 54 40 b6 60 22 40
       -3.455469 -0.9301359 3.3261726 2.5371528
000120 3f 89 50 3e a3 49 25 bd f4 44 3e c0 2e 65 81 bf
       0.20364855 -0.04035343 -2.9729586 -1.0109003
000130 31 73 2f be ff 0d d9 3d 14 c2 40 c0 6a f9 57 3f
       -0.17133786 0.10598373 -3.0118456 0.8436495
000140 dd b2 96 bf 48 c7 2b c0 1a d7 20 40 a0 4f eb bf
       -1.1773335 -2.6840382 2.5131288 -1.8383675
000150 a9 a0 8b 3f 77 6b 86 40 0e f4 0f 40 a4 8b 6e c0
       1.0908405 4.2006183 2.249271 -3.727273
000160 07 1e 8a 3f fb 3a 2f 40 59 36 1c 40 07 d4 a4 3f
       1.0790414 2.737975 2.440817 1.2877206
000170 42 c7 78 bf 97 0c 9a 3f 4b b2 1f c0 4f 5e b8 bf
       -0.97179043 1.2035092 -2.4952571 -1.4403781
000180 4a 1f c2 bf fe fd 96 3f f3 2a 1e c0 76 49 50 bf
       -1.5165799 1.1796262 -2.4713714 -0.8136209

encoder.self_attn.out_proj.bias f4 [10]
000000 ab 3a 4d c0 cd 96 93 40 7e 9d 87 c0 82 f7 48 40
       -3.2067058 4.6121583 -4.237975 3.1401067
000010 34 2a bc 40 7c 0c 5c c0 0a 83 40 40 5c 4e 27 be
       5.8801517 -3.438262 3.007998 -0.16338485
000020 59 5a c4 3e 69 74 c1 3f
       0.3835018 1.511365

encoder.linear1.weight f4 [64, 10]
000000 99 64 ed bf 7b eb b6 be 0f 25 c3 bf 1e 8c 2a 40
       -1.8546325 -0.35726532 -1.5245684 2.664802
000010 7d 99 c9 c0 c6 3e bc 3f be 52 73 40 d4 08 6b c0
       -6.2999864 1.4706657 3.8019252 -3.6724138
000020 17 9b 61 40 4c 2f 44 40 3e e0 a2 bf bc c8 b2 bf
       3.525091 3.0653868 -1.2724683 -1.3967509
000030 47 c0 88 bd 57 dd 8d 3f 32 01 b4 3e cf 27 a0 3e
       -0.06677299 1.1083173 0.35157162 0.31280372
000040 a1 91 e1 3f c6 44 49 be fc 85 a1 3f e9 18 82 3f
       1.7622567 -0.19655141 1.2619014 1.0163852
000050 39 8d 1c be 60 1b af 3f b9 20 0a 3f 86 2d 09 c0
       -0.15288247 1.3680229 0.5395618 -2.1434035
000060 b6 e5 d5 3d be b0 10 3f 44 f7 00 c0 f8 dd 03 3e
       0.104442045 0.5651969 -2.015092 0.12877643
000070 c0 28 be bf a7 50 4a 3f f0 90 09 40 e2 df 94 be
       -1.4856186 0.79029316 2.1494713 -0.2907706
000080 0e 9d 21 40 82 90 35 bf 6c b1 c4 bf d0 b3 3a 40
       2.5252109 -0.70923626 -1.5366645 2.917225
000090 f9 a9 4c c0 ac f0 01 40 94 25 12 c0 7e eb e8 bf
       -3.1978743 2.0303144 -2.2835436 -1.8196867
0000a0 dc 97 fe bd be 3c d8 3f 49 2f 23 3e 0b 0f cb bf
       -0.124313086 1.6893537 0.15936007 -1.5863966
0000b0 1c ec 19 bf f7 eb 2d 3e b4 80 04 c0 4e 5f af 3f
       -0.601259 0.16984545 -2.0703554 1.370096
0000c0 6a 0b 42 bf d5 4e 83 3f 0d 8c ad c0 8a 6d 94 c0
       -0.75798666 1.0258433 -5.423346 -4.6383715
0000d0 0d 63 a2 c0 98 08 92 40 aa e2 23 40 92 c0 b4 c0
       -5.074591 4.563549 2.5607095 -5.648507
0000e0 93 36 9b 40 cf a6 12 c0 4d cd 2b 41 3f 39 0a 41
       4.850412 -2.2914312 10.737622 8.638976
0000f0 ec e5 ff 3f 61 44 53 c0 bd 93 73 c0 55 33 96 40
       1.9992042 -3.3010485 -3.8058922 4.693766
000100 67 ef c2 3e 60 fa cb bf 46 97 78 40 e1 4c e9 bf
       0.38073274 -1.5935783 3.884233 -1.8226587
000110 c3 78 a1 40 86 c9 f9 bf 3d a1 10 40 da 7f a7 be
       5.0459914 -1.9514625 2.2598412 -0.3271473
000120 ef 08 d0 be 3f 9b 54 c0 e3 f7 a9 bf fd a4 80 bf
       -0.40631816 -3.3219755 -1.3278774 -1.005035
000130 26 95 9f 3d f5 be 71 40 db 6c ed bf 8f 17 ad 3f
       0.0779212 3.77728 -1.8548845 1.3522815
000140 ac 7f c4 bd b2 90 8e 3f 29 2d 29 3f ac f6 27 bf
       -0.09594664 1.1137908 0.66084534 -0.65610766
000150 24 5e 66 be 0e 1e 90 3e c8 a9 dd bf 40 c8 df 3e
       -0.2249685 0.2814793 -1.7317438 0.43707466
000160 50 b3 e1 be 8f 6f a3 3d ac c8 02 3f 31 98 c3 bf
       -0.44082117 0.079802625 0.5108745 -1.528082
000170 88 52 b0 3f c8 b6 a2 bf de f3 f4 bd 9b 01 95 3f
       1.3775187 -1.271203 -0.119605765 1.1641115
000180 cc 53 23 40 a5 2f d9 3f a0 0d 3e bf f6 f0 d5 40
       2.5519896 1.6967665 -0.7423954 6.685664
000190 d7 63 be 40 eb 5e 42 bf c3 99 b4 bf 4f 26 e5 c0
       5.9496875 -0.75926083 -1.4109424 -7.1609263
0001a0 9e 97 af bf d0 99 98 bf 7b d7 b9 3f 26 dc 0e 3f
       -1.3718145 -1.192194 1.4518884 0.5580467
0001b0 17 e8 06 c0 bc 6c 2c 40 ad 5e be be d8 2c 8d bf
       -2.1079156 2.6941366 -0.37181607 -1.102931
0001c0 81 f4 be bf 2a f0 8f 40 e1 7f 9d c0 ec ec d6 3f
       -1.4918367 4.498067 -4.92186 1.6791053
0001d0 e2 12 b6 40 9a b8 84 c0 ab a1 a5 40 c8 07 fc 3d
       5.689805 -4.1475344 5.175985 0.12306172
0001e0 8c 9d 16 bf 57 73 6d bf 13 14 05 c0 ad 15 42 3f
       -0.5883415 -0.9275412 -2.0793502 0.75814325
0001f0 58 23 12 3f c6 3d 3f bf e1 99 d1 bf 81 eb ae bf
       0.5708518 -0.74703634 -1.6375085 -1.366562
000200 7a 6c d8 3e 03 f6 39 3f 8a e9 e2 40 8f cb db bf
       0.4227026 0.7264101 7.091008 -1.7171496
000210 51 b4 e2 bf 16 9e cf c0 eb 27 95 bf b1 f4 99 bf
       -1.7711278 -6.4880476 -1.1652807 -1.2027799
000220 5c ea 47 40 06 51 b8 40 c7 42 68 c0 c2 25 66 40
       3.1236792 5.7598906 -3.6290758 3.5960546
000230 17 0a b6 be 33 e6 da 3f c1 61 18 3f 28 de ed bf
       -0.35554573 1.7101501 0.5952416 -1.8583422
000240 b9 f7 d7 3d 63 cb 8d 3f 12 22 80 bf 43 0f d1 3f
       0.10545296 1.1077694 -1.0010397 1.6332783
000250 38 71 9c bf 13 2f 59 bb 73 8d f5 bf ee 57 0b 41
       -1.2222052 -0.003313963 -1.9183792 8.708967
000260 1b 09 0c 41 09 fb 35 40 63 83 91 40 e2 fc 17 41
       8.752223 2.843447 4.5472884 9.499239
000270 23 13 00 bf 81 b8 c7 bf b1 45 4a 40 8f f2 17 40
       -0.500292 -1.5603181 3.1605036 2.3741796
000280 b6 c1 e0 c0 34 f7 26 c0 6a 21 0b c1 9c 7f d8 40
       -7.0236464 -2.608838 -8.695658 6.7655773
000290 86 a0 13 40 57 45 11 c1 2a 61 c4 40 00 f5 da c0
       2.3066726 -9.079429 6.136861 -6.842407
0002a0 b8 2b c0 40 dc cc c4 40 bd e8 ae 3f 20 50 b3 3e
       6.0053368 6.1500072 1.3664776 0.35022068
0002b0 25 2a ee 3f cc 7e 6e be 70 c8 dd bf 6a be 43 40
       1.8606611 -0.23290557 -1.7326794 3.058497
0002c0 96 6c b3 bf 06 e6 9c be 39 e4 10 40 87 6f 71 bf
       -1.4017513 -0.30644244 2.2639296 -0.943108
0002d0 e5 ed f4 be a7 4b b3 3d 15 8f 04 be e0 b0 8a 3f
       -0.4783775 0.08754664 -0.12945206 1.0835228
0002e0 59 bd 1b 3f ac c5 87 3f 84 3f 2e bf da 47 53 be
       0.60835797 1.06072 -0.6806567 -0.20632878
0002f0 71 b9 db 3f f6 41 07 40 18 f1 76 3f 07 04 c3 bf
       1.7165967 2.113401 0.9646163 -1.5235604
000300 74 08 11 40 91 c2 ed 3f 2f ef cc bf a2 12 4f 40
       2.266141 1.8575002 -1.6010493 3.2355123
000310 96 84 f3 3e 27 8e 0d c0 1d 49 bf 40 b0 ef 80 3e
       0.47562093 -2.2118013 5.977675 0.25182867
000320 01 f9 20 3e 8a 9b 56 3f 31 5d 8f 3f 50 6c b1 c0
       0.15719987 0.83831084 1.1200315 -5.5444717
000330 c1 71 c2 3f 14 7d 24 3f d6 e9 5b bf ee b0 9c 40
       1.5190965 0.64253354 -0.8590368 4.896598
000340 d6 d0 fb bf 1c c6 b7 40 38 95 6f 3f 20 16 1b 3f
       -1.9673107 5.7429333 0.93587065 0.60580635
000350 cd ba 99 3f 3a e4 e9 bf 4c ff 43 be a3 d0 32 3f
       1.2010132 -1.8272774 -0.19140357 0.69849604
000360 a8 e4 52 bf b5 3b 0f 40 05 bc 6b bf 41 da de 3d
       -0.8238015 2.2380192 -0.9208377 0.108814724
000370 9b a5 7c bf 59 42 04 c0 cc 23 31 bd 79 d6 05 bf
       -0.98690194 -2.0665495 -0.04324703 -0.52280384
000380 8a 8a c6 3e 3b 80 ef be f5 2f 9b 40 ed ca 9d 3d
       0.38777572 -0.4677752 4.849604 0.07704721
000390 cd 47 9e bd 99 c4 08 41 34 a1 85 bb 5f 34 71 3f
       -0.07728539 8.547997 -0.004078055 0.94220537
0003a0 2d 82 d3 3d 16 b2 63 bf e0 67 f6 bd 5b 37 09 be
       0.103275634 -0.8894361 -0.12031531 -0.13400023
0003b0 72 5f ba bf 74 15 0b 3f 24 33 4b bf da 0e 78 3e
       -1.4560378 0.5432961 -0.7937491 0.24224415
0003c0 c8 29 0f c0 67 ac 31 c0 ef 40 fa bf 83 05 1a 40
       -2.2369251 -2.7761476 -1.9551066 2.4065864
0003d0 a9 38 6f 3f 30 65 cd be 49 2f 96 3f 46 f1 0c c0
       0.9344583 -0.40116262 1.173318 -2.2022262
0003e0 cc af cd 3f fa b4 b0 3f ed 69 a4 be da 9f 07 bf
       1.6069274 1.380523 -0.32112065 -0.5297829
0003f0 0d 9f 43 bf 08 6a c3 40 8b 85 33 40 28 54 7a be
       -0.7641457 6.1066933 2.8050258 -0.24446166

encoder.linear1.bias f4 [64]
000000 53 1a 63 40 6c 07 ad 3f 53 be 51 c0 e3 99 8f bf
       3.5484817 1.351789 -3.2772415 -1.1218837
000010 c2 7e 2b c0 89 94 9a 40 00 73 89 40 ee 8c 57 bf
       -2.6796117 4.8306317 4.295288 -0.84199417
000020 57 43 81 bf 94 a0 f2 3e d0 b7 0d bf 3a 2c b2 40
       -1.0098675 0.47388136 -0.553586 5.5678988
000030 f5 a4 af 3f 24 44 99 3f c5 76 08 c0 d7 10 09 40
       1.3722216 1.197392 -2.132249 2.1416528
000040 cc 6e 99 40 46 0d 28 bf fa df 18 bf 8d 00 86 3f
       4.794775 -0.65645254 -0.5971676 1.0468918
000050 57 a6 ea bf e6 36 8e be a7 4a cf 3f bb 5c e5 bd
       -1.8332013 -0.2777626 1.6194657 -0.111993276
000060 39 ff 06 40 2f 70 1e 3f aa b4 14 41 7b 89 45 3f
       2.1093276 0.6188993 9.294107 0.77162904
000070 03 fe fe 40 e7 9e 11 40 27 ed a2 3f 47 b3 2e c0
       7.9685073 2.2753236 1.2728623 -2.7296922
000080 a1 8e e3 40 78 12 96 40 83 3f cd 3f db 76 40 40
       7.1111608 4.6897545 1.6035007 3.0072544
000090 45 6e a1 40 1c b0 d5 be 9d c6 89 bf fa 47 58 3f
       5.0447106 -0.41735923 -1.0763737 0.8448483
0000a0 02 0d 83 40 1d ec 14 40 eb ae aa 3e de 09 d6 3f
       4.095338 2.3269112 0.33336577 1.6721761
0000b0 67 a4 3a 40 f6 1f 1a c0 39 7c 97 40 32 24 3f 40
       2.9162843 -2.4082007 4.733914 2.9865842
0000c0 3a 36 6e 40 a2 96 34 bd 8d 29 9e 3f 1c 80 9c 40
       3.7220597 -0.044088967 1.235643 4.8906384
0000d0 96 80 91 40 f6 5b 3d 40 57 bd 7f be d2 33 9b 3f
       4.5469465 2.9587379 -0.24974571 1.2125189
0000e0 0c 82 2c 40 87 e0 88 3f d6 01 91 bf 02 af 20 c0
       2.6954374 1.069352 -1.1328685 -2.5106816
0000f0 87 ca 2e bf 55 85 92 40 ae d1 a2 3e a1 05 6d bf
       -0.6827778 4.578776 0.31800598 -0.92586714

encoder.linear2.weight f4 [10, 64]
000000 43 24 13 41 95 65 98 40 56 d3 dd be 3a 17 01 c0
       9.196353 4.7624 -0.433253 -2.0170426
000010 6e 2e 03 3f 00 c1 45 41 42 9b 09 41 2e 92 40 c0
       0.5124272 12.359619 8.600405 -3.008922
000020 b8 c7 dc 3e e7 30 7c c0 6d ba b7 c0 25 b0 33 41
       0.43121123 -3.9404848 -5.741507 11.230504
000030 40 05 51 40 85 65 9a c0 c4 fe e9 3e 84 35 79 c0
       3.2659454 -4.8248925 0.45702183 -3.8938913
000040 cb 04 12 41 8e fe 99 40 d6 29 86 40 2c f1 63 40
       9.12617 4.8123236 4.192607 3.561595
000050 4e 0b 0f 3f a3 59 fd bd e1 c1 14 3f 1c fe 25 3f
       0.55876625 -0.123706125 0.58108336 0.64840865
000060 53 24 c8 40 10 20 81 40 1d f7 4d 41 11 0c dd 3f
       6.254434 4.035164 12.87283 1.7269307
000070 01 aa 2b 41 1d 62 02 41 ae 4b 18 c0 c5 d1 6f be
       10.729005 8.148953 -2.3796191 -0.23419864
000080 5e 5d b3 c0 63 58 29 c1 b2 4b 2e 41 f0 9e a7 40
       -5.6051474 -10.584079 10.89348 5.2381516
000090 da a5 b7 40 10 81 42 3e 6c f3 be 3f c2 d0 92 40
       5.7389956 0.18994546 1.4918036 4.587983
0000a0 36 95 9f 40 fe c9 d8 3f 8d df e3 3e f8 39 d0 40
       4.986964 1.6936643 0.44506493 6.5070763
0000b0 01 36 ed 40 06 9d 16 bf 93 ac 15 41 c1 2e c6 40
       7.4128423 -0.5883335 9.354632 6.1932073
0000c0 cd cf 0c 41 76 f8 96 40 5a f4 54 40 90 d5 2c 41
       8.800733 4.7178297 3.327414 10.802139
0000d0 6d e5 14 41 6c 13 8a 3e 0b b5 08 3f e8 8d 5e c0
       9.306012 0.26967943 0.5340125 -3.4774113
0000e0 7e c8 7e 41 de 01 ca 40 6b 33 86 c0 27 33 45 3f
       15.923948 6.312728 -4.1937766 0.7703118
0000f0 12 a7 c7 3e ff 9d 26 41 2c ab 52 40 a2 07 1d 40
       0.38994652 10.413573 3.2916975 2.4535909
000100 85 9e 02 c0 64 07 79 be 41 25 c8 3e 41 a2 25 3e
       -2.0409253 -0.24319226 0.39090922 0.16175176
000110 ae f7 f1 3d fd 89 93 c0 f4 81 4f be 35 cb 7a bf
       0.11814819 -4.6105943 -0.20264417 -0.9796632
000120 58 c0 87 3f 88 82 bf bf 6b 25 33 c0 1c 61 3e c0
       1.0605574 -1.496171 -2.7991588 -2.974677
000130 31 77 7b 3f 72 ab aa c0 54 c0 23 bf a7 70 07 bf
       0.98228747 -5.3334284 -0.63965344 -0.5290627
000140 e4 91 ef 40 56 68 ba 3e 42 fc 62 3f 81 6a 72 3f
       7.486559 0.36407727 0.88666165 0.9469376
000150 d6 d2 d6 3f 2d 4e 59 3f 85 36 0e c0 bd 79 54 be
       1.6783092 0.8488491 -2.2220776 -0.20749564
000160 38 7a 2a bf 04 9c fa 3f 39 b8 75 c0 06 41 96 3e
       -0.6659274 1.9578862 -3.839369 0.29346484
000170 0f 6d ff bf 0e 30 3d 40 cc 7f e1 3e 94 78 f1 3e
       -1.9955157 2.956058 0.44042814 0.47162306
000180 f8 06 33 41 62 69 80 41 b3 de e3 3e 72 f7 59 40
       11.189201 16.051456 0.44505844 3.4057279
000190 0d 8a 74 c0 4c 00 ae be 0f 12 6c 3e c6 e7 21 3f
       -3.820926 -0.33984601 0.23053764 0.63244283
0001a0 ab 86 b0 40 de 10 bb 40 cc 75 b4 3f 37 01 a8 3f
       5.516439 5.845809 1.4098449 1.3125371
0001b0 c2 d1 98 40 c1 e7 c9 be a5 ea 0d c0 ae 32 cd 40
       4.775605 -0.39434627 -2.2174466 6.4124365
0001c0 e4 0f b6 bf dd 49 52 3f a0 cd db 3f ae 91 12 40
       -1.42236 0.82143956 1.7172127 2.2901416
0001d0 bd 55 2a 3f d3 0d 33 40 ea b9 64 be 34 d1 1e 40
       0.66537076 2.7977188 -0.22336546 2.4815187
0001e0 62 79 e5 c0 de a8 76 3f 0f 50 1a 3f f0 26 d3 3f
       -7.171067 0.9635142 0.6027841 1.6496258
0001f0 c4 15 94 3e fd c1 30 c0 5d 59 67 40 83 5b 28 3f
       0.28922856 -2.76184 3.6148293 0.65764636
000200 3f 8c 2a 3f d0 2e 3a bf 77 7c f7 bd 13 7e 20 40
       0.6662025 -0.7272768 -0.12084287 2.507695
000210 aa 54 02 bf 09 3e 2a 40 aa f7 ab c0 80 2a 38 40
       -0.5091044 2.6600363 -5.3739824 2.877594
000220 88 1d e4 3e 05 13 5a 3f 5c 08 f5 3f 77 cd 80 3f
       0.4455378 0.8518527 1.9143176 1.0062703
000230 10 7e 40 c0 dc 19 2e 40 3a fa 7b 3d 33 4b 58 3f
       -3.0076942 2.7203283 0.06151793 0.84489745
000240 ef 36 c4 c0 7a 11 54 c0 87 99 70 c0 27 66 d1 c0
       -6.1317058 -3.3135667 -3.7593706 -6.54372
000250 f8 5d db bf 59 a3 cf 3f ad d7 d5 bf 9a fb e3 3b
       -1.7138052 1.6221725 -1.6706444 0.0069574835
000260 85 ba 31 c0 38 3a 9f c0 f2 67 b8 bf 2e 7b 85 bf
       -2.7770092 -4.975857 -1.4406722 -1.0428216
000270 e4 5d df 40 2a 22 c2 bf 58 0c 56 40 51 22 6d bf
       6.9802113 -1.5166676 3.3445034 -0.9263049
000280 52 42 b3 41 42 6f 59 41 52 44 b0 c0 37 06 65 c0
       22.407383 13.589663 -5.50834 -3.5785043
000290 7a b7 a7 3f 28 1d b0 3e 0f 39 e5 3f 5b 53 db bf
       1.3102868 0.34397244 1.7908038 -1.7134813
0002a0 9d 32 a4 c0 e9 bb 87 3e bc e4 e5 3f c9 bd 66 c0
       -5.1311784 0.26510552 1.7960429 -3.6053336
0002b0 88 bc d3 3f d7 35 90 be 52 e6 b1 3f d6 a2 a9 c0
       1.654191 -0.28166077 1.3898413 -5.3011274
0002c0 fd b3 a2 bf 40 ff ff bf e4 b6 95 c0 ff 37 87 bf
       -1.2711178 -1.9999771 -4.6785755 -1.0563964
0002d0 2b a7 4b 41 e6 46 cc 40 d6 69 a8 3f 74 7a 5d c0
       12.7283125 6.3836546 1.3157299 -3.460599
0002e0 a4 5d 85 c0 4f cc 34 bf 61 24 9f 3f 9e 4c 2b 3f
       -4.1676807 -0.7062425 1.2432977 0.66913784
0002f0 be 02 7c 3e 07 df 2e bc 01 3a 8c c0 87 d2 2f bf
       0.24610421 -0.010673291 -4.3820806 -0.68680614
000300 7a 78 30 40 df db 62 c0 8a a6 6a 3f 53 72 97 3f
       2.7573533 -3.5446699 0.9166037 1.1831764
000310 95 66 8f 3e 01 a8 9c bf 17 ae d7 3d b9 25 e6 3f
       0.2800795 -1.2238771 0.10531252 1.7980262
000320 bb 9d cf 3e 29 fd 88 c0 96 03 48 c0 5e 2b d4 3f
       0.40550026 -4.2809033 -3.1252189 1.6575735
000330 ee ca 76 40 32 8f 81 c0 41 9e 2b 3f cb f8 2a 40
       3.8561358 -4.04873 0.6703835 2.671435
000340 d1 70 b2 40 8e f4 10 3d 91 4f 30 bf fa fa c6 3e
       5.5762715 0.035389476 -0.6887141 0.38863355
000350 a0 66 c7 3e 8b a9 ec bf c7 ca 42 c0 70 75 fc 3e
       0.38945484 -1.848924 -3.0436265 0.49308348
000360 ef 7b 6e bf 10 c0 88 bf 56 2d 35 c0 16 ce 11 c0
       -0.9315786 -1.0683613 -2.830892 -2.2782035
000370 65 5e e4 3e 85 fa 18 40 b4 fe 9b 3e b2 ca 00 bf
       0.44603267 2.3902905 0.3046776 -0.5030929
000380 ab 9c e2 40 6f 00 22 40 3e 21 84 c0 95 46 52 bf
       7.0816245 2.5312765 -4.129058 -0.8213895
000390 4a b9 dd 40 c6 0f 16 3f b7 2e 44 3f 9a 39 3a c0
       6.9288683 0.5861782 0.7663378 -2.9097657
0003a0 51 ff 8d bf 51 f4 8a 40 b3 14 85 3f b2 e9 fd 3e
       -1.1093541 4.342324 1.0396942 0.49592358
0003b0 e1 00 9d 40 7e d3 27 3e 43 bd a2 3f b3 ee 2a 3e
       4.9063573 0.16389272 1.2714008 0.16692619
0003c0 2c da 4a c0 98 0f 12 c0 a2 15 01 3e 5c e6 c0 3f
       -3.1695662 -2.2822018 0.12605909 1.50703
0003d0 e1 39 c4 40 0b 1f d0 3f 6c 51 00 3e c6 c1 00 c0
       6.1320653 1.6259474 0.1253106 -2.011827
0003e0 29 09 ca c0 83 47 ba 3f c5 ca 9c 3e 8f 92 0d 40
       -6.313618 1.4553074 0.3062345 2.2120702
0003f0 1f d6 2c 3f 8a 08 c7 3d 03 7f 38 c0 ee dd da be
       0.6751422 0.097184256 -2.8827522 -0.42747444

encoder.linear2.bias f4 [10]
000000 5c 34 d3 40 a6 73 c4 bf 5a e6 84 bf 5c 47 41 c0
       6.6001415 -1.5347793 -1.0382798 -3.0199804
000010 a7 fd 8a bf fc 65 2f c0 f3 33 4e c0 7f 79 28 3d
       -1.0858659 -2.7405996 -3.2219207 0.041131493
000020 1f cd 04 bf 7b 0f 10 bf
       -0.5187549 -0.5627362

encoder.norm1.weight f4 [10]
000000 73 10 a2 40 8f bd f2 bf 8c bf 45 40 23 03 1f 40
       5.064508 -1.8964099 3.089816 2.4845665
000010 b7 8c dc bf 23 b0 19 40 45 fd ad 3f a9 ab 4b c0
       -1.7230443 2.4013755 1.3592917 -3.1823523
000020 61 6e 6b 40 9a e7 32 bf
       3.678612 -0.69884646

encoder.norm1.bias f4 [10]
000000 e1 08 4a c0 1f 5b 30 c0 37 73 fc bf 3b 0b 3d 40
       -3.156792 -2.7555616 -1.9722661 2.9538105
000010 60 5c 9e 3e db 06 c3 bf 4b 6f 44 40 47 c4 f3 bf
       0.30929852 -1.5236467 3.0692928 -1.9044274
000020 99 9b 5d 40 00 e1 47 3f
       3.462622 0.780777

encoder.norm2.weight f4 [10]
000000 3e 6d c2 be f9 13 b1 be 0b 19 36 3e 29 b3 83 3f
       -0.3797397 -0.3458555 0.1778299 1.028905
000010 8f 5c e4 be 34 64 ff be 9b d3 b6 3e d7 52 e0 3e
       -0.44601867 -0.49881136 0.35708317 0.43813202
000020 e5 cd 82 be ec 0f 06 bf
       -0.2554771 -0.52368045

encoder.norm2.bias f4 [10]
000000 f2 66 0e 3f c3 58 95 bf e0 54 9f be 24 21 73 be
       0.5562583 -1.1667713 -0.31119442 -0.23743111
000010 f4 91 00 bf f7 b3 85 bf 6d 39 95 c0 46 9c ea 3d
       -0.50222707 -1.0445546 -4.66326 0.11455588
000020 11 6f 85 3e 5b ac 77 bf
       0.260613 -0.9674737

l2.weight f4 [64, 3200]
000000 53 a4 31 3e f0 e5 6c be 16 76 7f 3e 27 b2 ff 3e
       0.17347841 -0.23134589 0.2494739 0.49940607
000010 b5 90 5b 40 92 81 a4 3e 18 66 38 3f f1 96 79 be
       3.4307072 0.32130104 0.7203078 -0.24373986
000020 ce 79 9e bf a3 88 39 3f 12 0e ad 3f 2f 1c d1 be
       -1.2380922 0.72474116 1.3519919 -0.40841815
000030 4c 66 56 3f 0c 46 ab 3e 76 a8 60 40 55 de aa 3e
       0.8374984 0.3345188 3.510282 0.3337275
000040 7d 30 09 3f f2 2a 97 be 56 15 0e c0 e8 59 01 3f
       0.5358961 -0.29524952 -2.2200522 0.5052781
000050 bb da 4f 3f 85 90 4b bf 20 11 c6 3f e7 d1 53 3f
       0.8119313 -0.79517394 1.5473976 0.8274216
000060 d1 ba 5e 40 08 49 9f 3f 09 aa 47 3f 98 27 94 be
       3.4801524 1.2444162 0.7799383 -0.28936458
000070 e0 9e bb bf 51 54 0d 3f e2 a3 8d 3f 8c b7 4e bf
       -1.465786 0.5520678 1.1065638 -0.8074882
000080 8b e5 1b 3f 4f cd 14 3f fc 64 80 40 5f 2c 59 3d
       0.6089713 0.58125776 4.012327 0.05302083
000090 35 78 85 3f b5 d0 72 3d 38 52 b9 bf 0e 3c 4c 3f
       1.0427309 0.05928107 -1.4478216 0.79779136
0000a0 17 ce 08 3f af 39 29 bf a1 a3 21 3f 78 5f f3 3e
       0.5343947 -0.66103643 0.631403 0.47533774
0000b0 7f b4 58 40 a6 a9 cc bc ad 43 38 3f 8a 63 ac be
       3.3860166 -0.024983238 0.71978265 -0.33669692
0000c0 00 6a f2 bf 45 b9 1f 3f 96 8f 7d 40 e8 89 a5 be
       -1.8938599 0.62392074 3.9618888 -0.32331777
0000d0 2d 2c 8d 3f ad 3e 7b 3e 29 41 55 40 39 c5 cc 3e
       1.1029106 0.24535628 3.332102 0.3999422
0000e0 d8 88 58 3f 26 47 02 be cc 1e e0 bf 8a db 19 3f
       0.84583807 -0.12722453 -1.7509398 0.60100615
0000f0 1a 86 9e 3f 88 d8 a6 be e2 88 43 3f ec 0e a6 3d
       1.2384675 -0.32587075 0.7638074 0.08108315
000100 1a 65 83 40 78 46 31 3e 6c 2a 25 3f e6 cd 3d bf
       4.1060915 0.17312038 0.64517856 -0.741423
000110 dd e8 1d c0 0f 13 c7 3e c6 3b 04 40 ab c9 02 bf
       -2.4673378 0.38881728 2.0661483 -0.5108897
000120 03 d8 ed 3e 80 a2 28 3f d1 bd 66 40 48 a9 a7 bd
       0.46453866 0.65872955 3.6053355 -0.08186585
000130 9c 6e 4e 3f 3b 46 97 be fa ca b9 bf 05 ac 14 3f
       0.80637527 -0.2954577 -1.4515069 0.5807498
000140 a5 32 38 3f 4d 3c 14 bf 88 25 94 3f 9f f6 19 3f
       0.7195228 -0.5790451 1.1573954 0.6014194
000150 fa 65 49 40 66 23 58 3f cc 95 32 3f 64 b8 c3 be
       3.1468492 0.84429014 0.6975982 -0.38226616
000160 d0 52 02 c0 59 6b 03 3f 6a e7 b3 3f 7e eb 55 bf
       -2.0363045 0.51335675 1.4054997 -0.8356246
000170 c3 36 16 3f ab 12 9b 3e ca 5b 63 40 c5 df a8 3e
       0.5867731 0.3028768 3.5524774 0.32983223
000180 82 39 11 3f 5e d6 ec be 8a 42 9d bf b6 3f 29 3f
       0.56728375 -0.462573 -1.2285931 0.6611284
000190 33 76 e6 3f b0 44 32 bf 05 c1 62 3e 61 a2 90 3f
       1.8004822 -0.6963606 0.22143944 1.1299554
0001a0 8a 8d 5d 40 59 a9 2b 3f e2 95 1f 3f 12 38 c6 be
       3.4617639 0.6705528 0.6233808 -0.38714653
0001b0 7c 10 1a c0 df 46 dd 3e c4 70 38 3f df 47 da be
       -2.4072561 0.43218133 0.72047067 -0.42632958
0001c0 61 2f 11 3f 64 fc 4d 3f 06 fd 52 40 3e 4a 86 be
       0.5671292 0.8046324 3.2966933 -0.26228517
0001d0 24 18 d5 3e ea b7 0d bf d2 54 c4 bf 7a 43 ef 3e
       0.4161998 -0.55358756 -1.5338385 0.46731168
0001e0 44 91 00 40 e0 a8 f1 be 16 1d 86 3f 66 a9 4e 3f
       2.0088663 -0.47199154 1.0477626 0.8072723
0001f0 ad a6 24 40 7c 4f 37 3f 77 e1 e3 3e d7 93 8f be
       2.572673 0.7160566 0.44507954 -0.2804248
000200 15 f9 1a c0 bf cb 0c 3f 0f d3 1c 3f a9 f9 e6 be
       -2.4214528 0.5499839 0.6125955 -0.4511235
000210 36 03 c7 3e ca 4e c3 3e 19 87 5d 40 2f 85 a5 3c
       0.38869637 0.3814605 3.4613707 0.020205108
000220 b7 56 2b 3f e5 38 aa be 71 5a f6 bf 2b 38 f8 3e
       0.6692919 -0.33246532 -1.924635 0.48480353
000230 fd e8 37 bc 65 70 90 be 01 d3 c7 3f 1b 77 0b 3f
       -0.011224982 -0.2821075 1.5611268 0.54478616
000240 f1 72 6b 40 9c e2 d0 be f7 28 1a 3f 01 3c c7 3d
       3.6788905 -0.4079789 0.6021876 0.09728242
000250 57 23 04 c0 75 a9 4f 3f 19 62 6b 3e e8 ed 14 bf
       -2.064657 0.81117946 0.2298664 -0.58175516
000260 be c4 b5 3f 19 7e 22 3f 23 dc 61 40 a9 e1 94 3e
       1.4200666 0.6347366 3.529061 0.29078415
000270 b9 49 35 3f 20 df 8b be a7 5d b8 bf 1f fe 21 3f
       0.70815617 -0.27318668 -1.440358 0.63278383
000280 a0 f7 89 3f 22 06 9d be f0 bc d2 3e b4 66 8e 3f
       1.0778694 -0.3066874 0.41159773 1.1125093
000290 17 b2 5b 40 79 2d 81 bd c4 83 37 3f ad 44 ec be
       3.4327447 -0.06307501 0.71685433 -0.46146145
0002a0 7d 7b f4 bf db 5c 39 3f 2f 5b d1 3f 3a 11 04 be
       -1.9100186 0.7240731 1.6355952 -0.12897196
0002b0 80 66 42 3f 6d 70 9d 3f 44 22 83 40 b4 88 36 3e
       0.7593765 1.2299935 4.097933 0.17825586
0002c0 fc f4 39 3f 16 82 3d bf d7 1e 05 c0 17 2b e6 3e
       0.7263944 -0.7402662 -2.0800073 0.4495475
0002d0 c4 cc 30 40 7b 2c 73 bb 65 f2 4b 3f 34 86 00 3f
       2.762498 -0.003710537 0.7966674 0.5020478
0002e0 4c 54 6b 40 2e da 6f 3f f2 41 3a 3f ac 4c f3 be
       3.67702 0.9369229 0.72756875 -0.47519433
0002f0 d5 ca 02 bf 76 f5 0f 3f 61 68 95 3f 8e 56 3b bf
       -0.5109075 0.5623392 1.1672479 -0.73178947
000300 1a 73 e5 3f 38 8c 60 3f 17 ae 83 40 75 f3 62 3f
       1.7925751 0.87713957 4.115001 0.88652736
000310 64 49 56 3f f2 b8 b3 be 9b 77 de bf c5 b0 95 3e
       0.83705735 -0.3510204 -1.7380251 0.29236427
000320 09 3c 80 3f 55 fd be be 12 3b a2 3f 65 0e 33 3d
       1.0018321 -0.37302652 1.2674277 0.0437149
000330 d4 f6 57 40 5a ea 99 3e e7 e6 3d 3f 02 37 56 bf
       3.3744402 0.3006161 0.74180454 -0.83677685
000340 3d 4d 0a c0 c0 e7 03 3f c9 e2 0b bf b7 cf 49 bf
       -2.1609643 0.515255 -0.5464292 -0.7883257
000350 19 32 25 3f 77 e5 2e 3f d9 02 4c 40 4d f3 99 3f
       0.6452957 0.68318886 3.1876738 1.2027375
000360 56 d4 7f 3f 11 a7 1e 3f 84 4c 41 bf 2b a0 3c 3f
       0.99933374 0.61973673 -0.7550738 0.73681897
000370 67 47 38 3f 1c 55 ce be 6b fb da 3f fa 58 89 3e
       0.7198395 -0.40299308 1.7107977 0.26825696
000380 bc 46 7d 40 cc 67 a4 3e 59 2f 3e 3f 46 eb 1a 3b
       3.9574423 0.3211044 0.74290997 0.002363877
000390 f8 df 00 c0 25 c4 1b 3f ff 89 59 3f b4 ef f2 3d
       -2.01367 0.6084617 0.8497619 0.11862126
0003a0 e4 3a 0b bf 25 de 3f 3e a5 60 6d 40 87 2e 06 3f
       -0.54386735 0.18737085 3.7090237 0.52414745
0003b0 1e cc 3d 3f 40 2e 0e bf fb 57 9d bf 46 24 05 3f
       0.74139583 -0.5553932 -1.2292475 0.52008474
0003c0 59 df 21 3e 3a c8 11 3c f4 14 c2 3e 5a 87 82 bd
       0.15807857 0.008897835 0.3790661 -0.063734725
0003d0 89 4c 36 40 d3 4f 18 3f 8c 46 4f 3f 46 70 23 be
       2.8484213 0.594968 0.8096702 -0.15960798
0003e0 2e 06 f1 bf 08 68 03 3f 42 c2 eb 3f 0d 6a aa be
       -1.8830011 0.51330614 1.8418658 -0.33284035
0003f0 6f f2 a5 3e 55 59 46 3e 49 8d 87 40 6d 49 04 3f
       0.32411525 0.19370015 4.2359967 0.5167454

l2.bias f4 [64]
000000 17 16 95 bf 84 de 08 bf 58 95 f9 bf ad 8f 47 c0
       -1.1647366 -0.5346453 -1.9498701 -3.1181443
000010 48 b9 f2 be 02 c0 19 bf a8 73 f7 3d 8b 7d b6 c0
       -0.47406983 -0.60058606 0.120826066 -5.702825
000020 8b 34 b0 c0 a7 b5 02 3d 1b 3e ca be 58 c7 de bf
       -5.506414 0.03191152 -0.39500508 -1.7404585
000030 ee ed ab c0 a3 33 0c c0 7b ca 29 bf 25 95 1f 3d
       -5.372794 -2.1906517 -0.66324586 0.038960595
000040 38 cf 73 bf 22 77 19 bf 34 bf 00 3e 11 de 83 bf
       -0.95238066 -0.5994741 0.12572938 -1.0302144
000050 e9 37 5a be 06 a4 ba c0 ba 0c 97 bf 4e da 3f c0
       -0.2131039 -5.8325224 -1.1800759 -2.9976993
000060 b6 e0 61 bf 55 01 30 c0 49 61 4f bf 57 34 9b bd
       -0.88233507 -2.7500813 -0.8100782 -0.075783424
000070 ed a9 35 c0 11 f3 8b bf 64 ba 53 be 95 62 26 bf
       -2.8384964 -1.0933553 -0.20676571 -0.64994174
000080 11 33 04 be 80 8d 9e bf 65 5e 21 bf 19 d5 50 bf
       -0.12910105 -1.2386932 -0.6303466 -0.8157516
000090 a1 0d 08 bf 7c 16 b7 be e3 c5 f9 be f9 9b 4f bf
       -0.53145796 -0.35759342 -0.48783788 -0.8109737
0000a0 99 ec 1e c1 4e 15 73 bf e4 16 2b bf 15 10 36 bf
       -9.932763 -0.94954383 -0.66831803 -0.7111829
0000b0 0f fb d8 bd da ef 0a bf 2a 1d b9 be 85 70 5a bf
       -0.105947606 -0.54272234 -0.36155063 -0.8532794
0000c0 49 08 3c c0 6a 66 e2 bf 30 fd 89 c0 ce 79 c7 be
       -2.9380057 -1.7687504 -4.3121567 -0.38960117
0000d0 16 91 8f c0 10 f7 58 bf 13 7a 48 c0 dc f9 c4 bd
       -4.4864607 -0.8475199 -3.1324508 -0.096179694
0000e0 e2 f4 d3 be 25 fc bb bd 97 b3 d2 bf 55 7f f7 bf
       -0.41397768 -0.09178952 -1.6461056 -1.9335734
0000f0 d2 9f a8 bf e5 8b 1e bf a9 3c 19 c0 3f 31 50 bf
       -1.3173773 -0.6193221 -2.3943274 -0.81325144

l3.weight f4 [64, 66]
000000 7a 5d e4 3f 8e 6f 65 3e 2b 34 3b bf f5 78 dd 3e
       1.7841027 0.22405836 -0.73126477 0.43256345
000010 67 03 41 3d f4 f0 42 bf c0 39 cd 3e 87 a5 d3 3e
       0.047122385 -0.76148915 0.40083122 0.41337225
000020 50 e7 7b 3e f3 31 b5 be 86 e6 e2 3f 61 3a 86 3d
       0.24599957 -0.3538967 1.77266 0.06554104
000030 f2 50 00 3f 7a 69 22 3e f5 3a d5 3c 84 40 d9 be
       0.5012351 0.15860549 0.02602909 -0.42432034
000040 3f 7e 26 bd c7 38 3e 3e 6d 5d e9 3e f9 4d a4 3e
       -0.04064774 0.18576346 0.4557909 0.32090738
000050 6d f9 1e 3e 50 dd ba 3e 3a bd 88 be 36 40 e3 3e
       0.15524836 0.36496973 -0.26706868 0.44384927
000060 21 2a 71 3e e3 7e 74 3d 0d bf 6e 3e f2 48 d7 3f
       0.23551227 0.05969132 0.23315068 1.6819136
000070 e7 c2 5a be 0b 05 e6 3e ae 2d bb 3f 61 4c da 3e
       -0.21363412 0.44925722 1.4623315 0.42636397
000080 de ac 85 bf 9c 1c a2 3e 6e 2d 53 3f a7 85 dd 3e
       -1.044338 0.31662452 0.82491195 0.4326603
000090 9d 91 1d 3f c1 09 48 3f cc 70 be 3f 7f e8 83 3f
       0.61550313 0.78139883 1.4878173 1.0305327
0000a0 e7 47 a0 3e 80 f2 42 bf dc f2 0a 3f 86 41 3b 3f
       0.31304857 -0.76151276 0.54276824 0.73146856
0000b0 5b 15 97 bd fb 8a e3 3e fd b4 15 3f 3c 14 37 3f
       -0.0737712 0.4444197 0.5847929 0.7151525
0000c0 c2 0d b4 3e d1 2e 83 bd 9f 62 d6 3e 42 f8 06 be
       0.35166746 -0.06405414 0.41872117 -0.1318064
0000d0 27 ce 30 3d 14 26 64 bd b9 94 94 3e 21 58 91 3e
       0.043165352 -0.055700377 0.29019716 0.2838755
0000e0 ab a6 9b 3f 68 37 52 3f 88 1c 72 3e be 67 98 3c
       1.2160238 0.82115793 0.23643696 0.018604156
0000f0 32 1f 84 3f 90 18 41 3f 32 5b 24 3f e7 26 62 3f
       1.032202 0.75428104 0.64201653 0.8834061
000100 55 18 83 be b5 21 10 bf 11 e0 94 3f e9 e3 03 40
       -0.256045 -0.5630143 1.163088 2.0607855
000110 32 e5 63 be 77 47 5f 3f f2 7c 07 3f ed 44 b2 3f
       -0.222554 0.8721842 0.52925026 1.3927284
000120 ca 35 b5 3e eb 86 94 3e 13 d5 9e 3e 22 87 90 bf
       0.353926 0.29009184 0.31021938 -1.1291239
000130 4b 4d b8 3d 9d c0 27 bd ae 68 e2 3e 3a b4 38 3f
       0.089991175 -0.040955175 0.4422049 0.72150004
000140 0b bd e9 3f 6b 1b 28 3e eb 20 7e 3f a1 89 63 3e
       1.8260816 0.16416709 0.9926898 0.2222047
000150 ea e6 5b bf 51 aa c5 3d e7 69 d2 3e 1f c2 b9 3c
       -0.8589922 0.09651626 0.41096422 0.022675572
000160 ea 16 9d 3e 0c b9 50 3e 05 68 62 3f 35 ca 3c 3e
       0.30681545 0.2038309 0.8843997 0.18436511
000170 32 ac ec 3e 17 e6 2a 3f 8c 42 7d 3f 47 c0 08 3f
       0.46225125 0.6675734 0.9892967 0.5341839
000180 08 f2 a1 bc 47 de 60 3f 1c 78 b8 3f 24 3b b4 3f
       -0.01976873 0.8783917 1.4411654 1.4080548
000190 30 92 53 3f 1f 60 a6 bf 82 8e 75 3f 19 2c 74 be
       0.8264494 -1.2998084 0.95920575 -0.23844947
0001a0 a8 9b 14 3f b7 78 dd 3e c2 0b 97 bd 9c fb 29 3e
       0.5805001 0.4325616 -0.073752895 0.16599888
0001b0 b2 4f 1c 3f 0d e9 84 3f 3f 50 d1 be 60 f9 bc 3e
       0.61059105 1.0383621 -0.40881535 0.36909008
0001c0 3d e1 12 3f 01 97 f8 3e 80 a8 87 3d 39 12 63 3f
       0.57374936 0.48552707 0.06623936 0.8869968
0001d0 46 54 81 3e 05 2a 9a be 97 ee 0d 3e a7 73 12 3e
       0.25259608 -0.30110183 0.13860546 0.1430193
0001e0 6e e0 5b 3e c9 7a 97 bf 54 5b 73 3f 65 c1 04 40
       0.21472332 -1.1834346 0.9506123 2.0743039
0001f0 75 40 c5 3d f3 75 2a 3f f3 e7 20 be c4 b3 1c 3f
       0.09631435 0.66586226 -0.15713482 0.612118
000200 2f b9 cf 3e f7 cd 6f bf da 6a 44 3f d5 fd 82 be
       0.4057097 -0.9367365 0.7672554 -0.25584283
000210 a4 48 80 be 4d c1 a1 bf a1 05 e3 be 2b d3 02 bf
       -0.2505542 -1.2637116 -0.44340232 -0.51103467
000220 f2 e4 b1 be 79 54 42 bf a0 c2 37 bf 71 b0 a3 bc
       -0.34744984 -0.75910145 -0.7178135 -0.019981595
000230 de 74 4d bd 60 41 d9 3e 43 1f 2d bf 63 64 29 be
       -0.05016028 0.4243269 -0.67625827 -0.165422
000240 0f 4b 04 3f 4d 26 42 3e c4 85 11 3d db a0 ae bd
       0.5167703 0.18959923 0.03552796 -0.085267745
000250 66 44 12 3f 57 67 53 bf 72 05 2c 40 cb d6 aa 3f
       0.5713562 -0.8257956 2.6878324 1.33468
000260 4a 59 00 bf f9 fe a1 3e 7a 22 eb 3e b8 c4 83 3e
       -0.50136244 0.3163984 0.4592474 0.25736022
000270 72 21 d3 3e 79 c3 12 bd f1 e1 87 3c 9a 21 7b bf
       0.41236454 -0.03583095 0.01658723 -0.98098147
000280 56 eb c1 3e e8 9e d8 bd 61 d2 96 be 9f 6b e5 3e
       0.3787486 -0.10577184 -0.2945738 0.4480867
000290 6e ad 85 be 9b 18 eb be 23 fc b9 bd 83 6f d5 be
       -0.2610888 -0.4591721 -0.090812944 -0.4168664
0002a0 d7 36 bb 3e 3f 48 e3 be 45 c0 0d bf d1 db 1f be
       0.36565277 -0.44391057 -0.55371505 -0.15611197
0002b0 94 78 d4 3e 46 9a 0f bf 3b cd f9 3e ee 92 44 3e
       0.41498244 -0.5609478 0.4878939 0.19196674
0002c0 5d 02 2a 3f 48 9b f4 3d f3 f3 b8 bf a7 30 b8 bc
       0.66409856 0.1194368 -1.4449447 -0.022484137
0002d0 b1 66 54 3e d2 e0 4c bd 5d e5 17 be 43 f8 91 be
       0.20742299 -0.050019093 -0.14833589 -0.2850972
0002e0 b8 8f 97 3e 9f d7 5c bf 24 fe d9 3e ee 9d 1c bf
       0.29601836 -0.8626651 0.42576706 -0.6117848
0002f0 36 ab ef 3e 17 2b 8c be 80 fc c4 be cb f5 ff bd
       0.4681031 -0.27376625 -0.38473892 -0.12498053
000300 f9 f4 50 be 95 95 66 3e 03 3d a2 3d a4 05 cd 3d
       -0.2040595 0.22517999 0.07921793 0.100108415
000310 02 24 70 be f2 74 57 3e 64 64 fc be fc 01 34 3f
       -0.23451236 0.21040705 -0.49295342 0.7031553
000320 5d 74 8e 3f 32 6d 56 3f 31 e8 ed 3e f3 83 c5 3e
       1.1129261 0.8376037 0.4646621 0.38577232
000330 21 1f 00 3f de 06 fd bd 35 ee 08 3e 48 a9 5d bf
       0.500475 -0.123548254 0.13372119 -0.8658643
000340 37 7b ae bd 64 97 02 3f 62 a4 fe bd 3b 81 27 3d
       -0.08519595 0.51012254 -0.12433697 0.04089473
000350 92 12 b9 be b0 ae 5f 3c 60 3a c7 3e 46 a8 cf 3f
       -0.3614698 0.013652489 0.38911724 1.6223228
000360 72 33 db bf 77 ca 5d bf 09 22 bc 3e 1a a9 b5 3e
       -1.7125075 -0.8663706 0.36744717 0.35480577
000370 5d a9 8f 3f 0d 1f b7 3e 85 4f e4 3e 47 dd 35 3d
       1.122356 0.35765877 0.4459192 0.04440048
000380 14 0f 11 bf ed 6d 9b bf a7 1d bb 3c a3 16 94 be
       -0.5666363 -1.2142922 0.022841288 -0.2892352
000390 16 01 1a 3f af 25 30 3f c8 23 96 bf 2a 23 ae 3f
       0.60157907 0.688075 -1.172967 1.3604481
0003a0 66 37 aa be df 59 b9 bf 04 67 7a be 9e 36 b0 3e
       -0.3324539 -1.4480551 -0.2445336 0.3441667
0003b0 ee 44 07 3f 43 93 89 be 29 72 93 3e 99 48 b2 3f
       0.52839553 -0.26870164 0.28798035 1.3928405
0003c0 07 db ac be 6e 3b 66 3f 46 da b2 bd 3d 82 8e 3e
       -0.33760855 0.8993443 -0.087330386 0.2783374
0003d0 0c 88 8e bf fd 5c bd bd f0 2f b2 3e d9 b1 13 bd
       -1.1135268 -0.09246252 0.34802198 -0.03605828
0003e0 c8 4a ea bd 5e b1 0b 3f 93 a3 88 3d 5b 16 97 3e
       -0.11440045 0.54567516 0.06671824 0.29509243
0003f0 96 98 c8 3e 6e 36 cf 3f 2d f8 a0 be bf 81 d4 3e
       0.39178914 1.6188486 -0.31439343 0.41505238

l3.bias f4 [64]
000000 32 b8 23 bf d3 2b 65 bf 50 52 13 bf 84 e7 04 3e
       -0.63952935 -0.89519995 -0.57547474 0.12978941
000010 40 bf 38 bf 02 b9 8a bf ac f5 3e bb 3c 6f c1 be
       -0.72166824 -1.083771 -0.002913813 -0.37780178
000020 a1 55 6f bf fd 34 a8 bd b7 a0 b0 be e8 08 f2 be
       -0.93490034 -0.08213232 -0.34497616 -0.4727242
000030 6d 9e 6b bf a0 e8 c2 be 58 90 8a be e7 56 ae 3e
       -0.92038614 -0.38068104 -0.2706325 0.34050676
000040 ad 42 28 be 0b 38 e9 be 5c b9 9f be 1c 7f 7b bf
       -0.16431685 -0.4555057 -0.31196105 -0.9824083
000050 2c 3f 8b bf 60 4b 37 bf d6 c7 4c be 44 8c bb bf
       -1.0878654 -0.7159939 -0.19998106 -1.4652181
000060 d3 8f 56 bf a5 48 47 bf 41 70 8d be d2 11 83 bf
       -0.8381321 -0.7784522 -0.27624705 -1.0239813
000070 07 42 56 be 7d 3e c6 bf 4b 9c 01 be 56 aa 09 c0
       -0.20923625 -1.548782 -0.12657277 -2.1510215
000080 c5 e8 55 3e b1 63 2a bf ec f5 88 bf 5b 62 98 3e
       0.20889576 -0.66558367 -1.0700049 0.2976254
000090 37 d0 76 bf 3f f5 3a bf c3 7e d6 bd 92 64 64 be
       -0.9641146 -0.73030466 -0.10473397 -0.2230399
0000a0 eb 45 0d bf a5 ca a6 3d d8 9f 83 bf 46 f5 3e bf
       -0.5518481 0.0814412 -1.0283155 -0.7459301
0000b0 4c 97 c6 bf 4c 8f 8c bf 8d e5 d4 bf 67 13 93 be
       -1.5514922 -1.0981231 -1.6632553 -0.2872574
0000c0 26 cb d0 bf ef 8c a4 be 2d 59 3c bf db 6f 00 bf
       -1.6311996 -0.32138774 -0.7357357 -0.5017068
0000d0 24 03 36 bf 01 27 c2 be 47 98 4c bf 67 74 82 bf
       -0.7109854 -0.37920383 -0.79919857 -1.0191773
0000e0 a9 cf 3a bf 2c 25 83 3e 2e 44 ae bd 64 2c 63 bf
       -0.72973114 0.25614297 -0.08509098 -0.8873961
0000f0 7c 30 08 bf 32 21 80 bf a6 47 58 bf 77 ab bc bf
       -0.5319898 -1.001013 -0.84484327 -1.4739827

l4.weight f4 [2, 64]
000000 4c d0 5b be 9c 64 61 3e 30 1d c4 3d 60 9a c7 bc
       -0.21466178 0.22011036 0.095758796 -0.024365604
000010 ad ea 4e 3e 0e e9 8c 3e 15 07 04 3d c8 a0 ba bd
       0.20206709 0.27521557 0.032233316 -0.09112698
000020 03 89 0a 3d 48 5d 74 3e 8a 99 c2 bc a1 12 13 be
       0.03382207 0.23863709 -0.023754854 -0.14362575
000030 3b 27 18 3d 8e 0f aa be 08 51 3c 3d ea d7 2b bd
       0.037146788 -0.33214992 0.045975715 -0.04195396
000040 d0 e5 bd be 26 ca 66 3d 02 e3 a9 bd de 6a 21 bc
       -0.37089396 0.056345128 -0.082952514 -0.009852139
000050 2a 43 fc bd fa 3c 59 bd 60 34 4f 3b e1 72 0d 3e
       -0.12317498 -0.053036667 0.0031616911 0.13813354
000060 d7 1e e2 3c 0e ab 0a bb cb de a9 3c 5a f8 96 3c
       0.027602596 -0.0021159085 0.020736119 0.01842897
000070 cd 9c 7d bd 99 02 9f 3d e2 f3 42 be 53 a0 be 3d
       -0.061917115 0.07764167 -0.19038346 0.09307923
000080 3b a9 21 be 1d cf 7d bd 67 21 88 bc db ef ea 3d
       -0.15787213 -0.061965097 -0.01661749 0.1147153
000090 f9 f8 7e 3d 9b 04 cc 3c 8d 64 25 be 32 39 66 be
       0.062249158 0.02490454 -0.16151638 -0.22482756
0000a0 fe f0 7b 39 d2 36 94 be 31 bf d8 bd dc cc 84 3e
       0.00024027002 -0.28948075 -0.10583342 0.25937545
0000b0 21 41 af 3d 1e af 36 bd d7 40 29 3d b6 91 03 3e
       0.08557344 -0.0446006 0.0413216 0.12848553
0000c0 e9 af 75 3d 5e 91 6a 3d dd 03 a1 be c8 4e 90 bb
       0.059982214 0.05726754 -0.3144826 -0.0044039227
0000d0 c2 01 0d 3d d0 5a 96 bd 97 e9 21 be c0 40 b9 bd
       0.034425505 -0.0734154 -0.15811764 -0.09045553
0000e0 14 66 e3 be 07 b2 28 3d 56 4e 8d 3d 48 d4 dc b9
       -0.44413817 0.041185405 0.06899707 -0.00042119832
0000f0 7c fe 24 3e c7 4f 06 3e 85 44 36 3d 5e 1f 04 be
       0.16112703 0.1311637 0.04449894 -0.1290259
000100 1e 95 b5 3d 03 21 99 3e 8f e5 a0 bb 45 db ae 3d
       0.088663325 0.29907998 -0.004910178 0.08537916
000110 ab ab f6 bd e4 d7 9a be 96 a3 3b be 16 60 ba bc
       -0.12044462 -0.30242836 -0.18324122 -0.022750895
000120 c5 5d 8b be 06 78 7a 3e ca 17 85 3c 01 3d 61 b9
       -0.27219978 0.24459848 0.016246695 -0.00021480398
000130 85 59 29 3c 89 b4 7b 3e 9e 6c 6c bd 65 f8 e0 3d
       0.0103362845 0.24580587 -0.057720773 0.109848775
000140 6e c8 60 3e 84 63 1c be d3 08 57 3e e3 bb 05 bf
       0.21951458 -0.15272337 0.2099946 -0.5223982
000150 56 72 59 3d 20 e5 64 be eb 42 a0 3e 35 9b c5 3d
       0.053087555 -0.22353029 0.31301054 0.09648744
000160 1b 88 1a 3c b0 72 93 be fc 94 df bd 88 04 0a be
       0.009431864 -0.28798437 -0.109170884 -0.13478291
000170 ec fd a6 bd c9 7c 6e be df e2 c4 3d 38 bc ce 3d
       -0.081539005 -0.2328979 0.09613585 0.10094494
000180 30 d1 78 3d 76 81 09 3e ed e2 2f 3e fa 1f 96 be
       0.06074637 0.13428292 0.17176409 -0.2932127
000190 2b a2 17 3e 2d e9 38 be 77 0a 00 3d 18 26 a4 3e
       0.14807956 -0.180577 0.03125998 0.32060313
0001a0 5f 0d 8a 3e 31 3e 05 3f a8 ef 1c 3d 5e 6b 7d bd
       0.26963326 0.5204802 0.03831449 -0.06186997
0001b0 2e 7a 13 bd a9 8a 84 bd cd c5 80 3e fd 16 a6 bd
       -0.03600519 -0.0647176 0.2515091 -0.081098534
0001c0 9f af 89 bb 9f 11 b4 3c 8f 28 b5 bd 57 16 02 be
       -0.004201844 0.021981059 -0.088456266 -0.12703834
0001d0 6f a2 32 bb 08 49 3e 3e a2 5c 8f 3d 15 f6 47 bd
       -0.0027257462 0.18582547 0.0700009 -0.048818666
0001e0 6f 5b 4f 3e e4 d0 f6 bd 23 7f 45 3c 5b a2 ce bc
       0.20249723 -0.120515615 0.012054238 -0.025223901
0001f0 bb 45 be be 90 83 06 3e c8 da 81 be 64 b0 ff 3c
       -0.37162575 0.13136125 -0.2536223 0.03121204

l4.bias f4 [2]
000000 9f ec f7 be 78 e1 98 3e
       -0.48422715 0.2985952
