Formal Experiments/CSI500/Transformer-DoubleDQN-QT-Final/ModelParam/2024-3-10/64target-network-TransformerNoguiadance.pth (torch, 851744 bytes, 18 tensors)

encoder.self_attn.in_proj_weight f4 [30, 10]
0	0x4134bd4d	11.296216
1	0xc1272f6a	-10.449076
2	0xc0da73ea	-6.8266497
3	0xbf1ad838	-0.60486174
4	0xc054a982	-3.322846
5	0xc08ea8fd	-4.4581285
6	0xc08dfe7f	-4.4373164
7	0x418d4a09	17.66115
8	0x413b7493	11.7159605
9	0x416027af	14.009688
10	0xc136e815	-11.431661
11	0x41263227	10.387244
12	0xc08e9246	-4.4553556
13	0xbf832bef	-1.0247782
14	0xc0845679	-4.1355557
15	0x3f6d403d	0.92676145
16	0xbf6dc2bb	-0.9287526
17	0xc2337e79	-44.87351
18	0xc13603eb	-11.375957
19	0xc0fe6334	-7.9496098
20	0x41823665	16.27656
21	0xc178b98c	-15.5453
22	0x400efcd1	2.2341807
23	0x3f9b25d4	1.2120919
24	0x408163fa	4.043454
25	0xbf6aab85	-0.9166797
26	0x3fb54f73	1.4164871
27	0x425755a4	53.833633
28	0x418b48c7	17.410536
29	0x415491c9	13.285592
30	0x40a25a60	5.073532
31	0xc072044a	-3.7815118
32	0xc07125dc	-3.7679358
33	0x3f9ce522	1.2257426
34	0xc0428aa4	-3.039712
35	0x3f346c65	0.70477897
36	0xbfc07275	-1.503493
37	0xc294638b	-74.19442
38	0x408e1723	4.4403243
39	0x408e4aed	4.446646
40	0x40abca43	5.36844
41	0xc07f17da	-3.9858308
42	0xc063501c	-3.5517645
43	0x3ff1e734	1.8898683
44	0xc04fe075	-3.2480748
45	0x3d82e117	0.06390589
46	0xc00ce4e5	-2.2014706
47	0xc2922895	-73.07926
48	0x40872986	4.223819
49	0x408d275b	4.411054
50	0xc12e2c52	-10.88582
51	0x41338f1b	11.222438
52	0xc0573429	-3.3625586
53	0x3dd376cf	0.10325395
54	0xc037626a	-2.8653817
55	0x3fa5f56a	1.296552
56	0xbfc4dadf	-1.5379294
57	0xc27979ea	-62.369057
58	0xc143a764	-12.228367
59	0xc101c9ff	-8.111815
60	0xc1a63df1	-20.780245
61	0x41ac2de0	21.5224
62	0x40c82c46	6.2554045
63	0x40696309	3.6466696
64	0x403b7e5d	2.9295876
65	0xbf692714	-0.91075253
66	0x3f325491	0.6966029
67	0xc2135f7e	-36.843254
68	0xc1bb7ece	-23.436916
69	0xc1a53601	-20.65137
70	0x408a7b25	4.3275323
71	0xc09e4a38	-4.94656
72	0x40c4f329	6.1546826
73	0xbf87c1f5	-1.0606066
74	0x40858208	4.172123
75	0xbfecd389	-1.8502055
76	0x3ecac29a	0.39601594
77	0x422ede7e	43.717278
78	0x40784a5c	3.8795385
79	0x3f1696d9	0.58823925
80	0xc0bc9dcb	-5.894262
81	0x40aec3dd	5.461409
82	0xc0ad5a49	-5.417271
83	0x3fa911fb	1.3208612
84	0xc0775e5a	-3.8651338
85	0x40248346	2.5705123
86	0xbe84ae19	-0.25914076
87	0xc263cf83	-56.95265
88	0xc0c276d1	-6.077004
89	0xc02ffaa1	-2.7496722
90	0xc08765da	-4.231183
91	0x40a7dca1	5.2456822
92	0x40b828c3	5.754976
93	0x3fcde4b8	1.6085424
94	0x403d7621	2.960335
95	0xbf0eeead	-0.5583294
96	0x3f84fbfa	1.0389397
97	0xc1cd2064	-25.640816
98	0xc0bf8043	-5.984407
99	0xc0cf29ad	-6.4738374
100	0xbdf6adc9	-0.12044866
101	0xbfc44dd5	-1.5336252
102	0x3fcd9909	1.6062328
103	0xbf6a5af9	-0.91545063
104	0xbee76b7f	-0.451992
105	0xbefccde2	-0.49375826
106	0xbd5f929e	-0.054583184
107	0x429ba68c	77.82529
108	0xbf174bcb	-0.59100026
109	0xbefcbb49	-0.49361637
110	0xbf798099	-0.9746185
111	0x3ff212a1	1.8911935
112	0xbef86b9a	-0.48519593
113	0x3e45a115	0.19299729
114	0xbf80f895	-1.0075861
115	0xbedb729c	-0.42860878
116	0xbf11b0c9	-0.5691038
117	0xc28e48e6	-71.14238
118	0xbe54a13a	-0.20764628
119	0xbedc21ce	-0.4299454
120	0x3f8ba6e2	1.0910304
121	0xbfe26399	-1.7686645
122	0x3f23fa50	0.6405382
123	0x3d58c0b9	0.05291817
124	0x3f736101	0.9506989
125	0x3e1d4b83	0.15360837
126	0x3ecf8501	0.4053116
127	0x428f1981	71.54981
128	0x3d150fe4	0.036392108
129	0x3e462390	0.19349504
130	0xc076c2a1	-3.8556292
131	0xbfb7466e	-1.4318368
132	0xbe96f0ba	-0.29480535
133	0xbf8704bf	-1.0548323
134	0xbf56576e	-0.8372716
135	0xc0261e18	-2.5955868
136	0xc041410d	-3.0195954
137	0x429360f0	73.68933
138	0x402044e4	2.5042048
139	0xc06c6ce7	-3.6941469
140	0xc0907604	-4.514406
141	0xbff67701	-1.9255067
142	0x40068d53	2.1023757
143	0xc04f44a5	-3.2385647
144	0xc04f9cf1	-3.243954
145	0xc014cd15	-2.3250172
146	0xc050fb33	-3.265332
147	0x429a5934	77.174225
148	0x402b3979	2.6753829
149	0xc0ad9080	-5.423889
150	0xbf717da1	-0.9433232
151	0x3feb89e2	1.8401453
152	0xbebb39d4	-0.36567557
153	0x3dc741f7	0.09729379
154	0xbfadde16	-1.35834
155	0xbf0700f4	-0.5273583
156	0xbf374fa7	-0.71605915
157	0xc28d3eff	-70.62304
158	0x3e2b516b	0.16730277
159	0x3eb999df	0.36250207
160	0xbf66fe5f	-0.9023189
161	0x3f9f2165	1.2432066
162	0xc0161792	-2.3451886
163	0x3e172219	0.14759101
164	0xbf3e629e	-0.7436923
165	0x3c6c23a3	0.014412793
166	0xbc653020	-0.013988525
167	0xc2968678	-75.262634
168	0x3d248bd7	0.040172424
169	0xbf2b9bdc	-0.670347
170	0x3efc4820	0.49273777
171	0xc03a6f0c	-2.9130278
172	0x3fa6ec01	1.3040773
173	0xbfe8377f	-1.8141936
174	0xbd848389	-0.06470401
175	0x3fdb42e0	1.7129784
176	0x401b2ad3	2.4244888
177	0x42894526	68.635056
178	0x3e8e610d	0.2780842
179	0x3e2d88d3	0.16946726
180	0x3df68cb7	0.12038558
181	0x404e4277	3.2228067
182	0xbf88d9b4	-1.0691438
183	0x3fde19fe	1.7351682
184	0x3f2b1643	0.66830844
185	0xbfbb3925	-1.4626814
186	0xbf9c9fae	-1.223623
187	0xc28c9f09	-70.310616
188	0x3e5bc2eb	0.21461074
189	0x3e7ba139	0.2457322
190	0x3fb56ea6	1.4174392
191	0x4043dd5e	3.0603862
192	0xbf345b0a	-0.70451415
193	0x3fcdc924	1.6077008
194	0x3f785a14	0.9701245
195	0x3f82842e	1.0196588
196	0x3ef826a4	0.4846698
197	0xc291f5cf	-72.980095
198	0x4029ef01	2.6552126
199	0xbf315df4	-0.69283986
200	0x40389482	2.8840642
201	0x40870b21	4.2201085
202	0x40a068c4	5.012789
203	0x3fe3246e	1.7745492
204	0x40b6ae68	5.70879
205	0x3f1d5eb8	0.61472654
206	0xbf2186d0	-0.6309633
207	0x4260d89c	56.211533
208	0x3dfbcb84	0.12294677
209	0x3fd25c10	1.6434345
210	0x4043cde8	3.0594425
211	0x4080c0e6	4.023547
212	0x3ff4a6c6	1.9113395
213	0x403c605a	2.9433808
214	0x40b9a189	5.8009686
215	0x3f8faa53	1.1223854
216	0xbf178c7e	-0.5919875
217	0x421521ca	37.282997
218	0x3f150b96	0.58220804
219	0x3fa05abc	1.252769
220	0x3fe0d3d9	1.7564651
221	0xbfe6eb58	-1.8040571
222	0x3f17860a	0.591889
223	0xbe44d1ae	-0.19220611
224	0xc00d7f96	-2.2109122
225	0x3fe531dd	1.7905842
226	0x3fb13637	1.384467
227	0xc1813348	-16.15004
228	0x3e254e9c	0.16143268
229	0xbd344d35	-0.044018943
230	0xbfc70dbf	-1.555107
231	0x3eb65f85	0.3561975
232	0x4062fd3e	3.5467067
233	0xc051368d	-3.2689545
234	0xbf178e5f	-0.59201616
235	0xbf896eb7	-1.0736912
236	0xbee5b78b	-0.44866595
237	0x41262ef4	10.386463
238	0xbf360918	-0.71107626
239	0x3e6292d7	0.22126327
240	0xc01908fc	-2.3911734
241	0xc086917b	-4.205259
242	0xc09937f7	-4.7880816
243	0xbf79bd69	-0.9755464
244	0xc0af3397	-5.4750476
245	0xbf0cf5f5	-0.550628
246	0x3ef3cda2	0.47617823
247	0xc236d80a	-45.710976
248	0x3e672388	0.22572148
249	0xbead79a9	-0.33881882
250	0x3f08de01	0.5346375
251	0xc072d5cf	-3.7942998
252	0xc01ebd77	-2.480314
253	0xc0821a18	-4.0656853
254	0x3f1a6c8c	0.6032188
255	0xbf0899ad	-0.5335949

encoder.self_attn.in_proj_bias f4 [30]
0	0x41377468	11.4659195
1	0xc140e350	-12.055496
2	0x418a61cc	17.297752
3	0x40587578	3.3821697
4	0x4056ca48	3.3560963
5	0xc14000af	-12.000167
6	0xc1bc098a	-23.504658
7	0x409a0dcb	4.8141837
8	0xc0d650e8	-6.6973763
9	0xc0a47084	-5.138735
10	0x40086266	2.1310058
11	0xbe62d05d	-0.22149797
12	0x4000b6e1	2.011162
13	0x3f9ae9c5	1.2102591
14	0x3f8f874d	1.1213166
15	0xc0462863	-3.096215
16	0x3fe1f034	1.7651429
17	0x3f9bcf9c	1.2172732
18	0xbf9e40d0	-1.2363529
19	0xbfaad9c4	-1.3347707
20	0xbd8d7c49	-0.06908471
21	0xbedfce4f	-0.43712088
22	0xbf22893e	-0.63490665
23	0x3e14400c	0.14477557
24	0xbdbd3528	-0.092386544
25	0x40181068	2.3760014
26	0xbdf30b79	-0.118674226
27	0xc0445f24	-3.068307
28	0x3e3c9515	0.18416245
29	0xbe82ecde	-0.2557134

encoder.self_attn.out_proj.weight f4 [10, 10]
0	0xc0e1a28b	-7.0510917
1	0xc0d73526	-6.725238
2	0xc02a41ae	-2.6602588
3	0x3fda3a6a	1.7049077
4	0x40d56414	6.6684666
5	0xc01e1ec7	-2.4706285
6	0xc01c3bee	-2.4411578
7	0x40485a4d	3.1305115
8	0x4106ec65	8.4327135
9	0xc058d3db	-3.3879306
10	0x4054e6c0	3.3265839
11	0x40272291	2.6114848
12	0xbfba072f	-1.4533442
13	0x3fd91630	1.6959896
14	0xc03e3ea8	-2.9725742
15	0xbeaecc93	-0.34140453
16	0xc0067127	-2.1006563
17	0xbe0c56c2	-0.1370497
18	0xc070a2c0	-3.7599335
19	0xbfb9f43d	-1.4527661
20	0xc08d1e7b	-4.4099708
21	0xc0039641	-2.0560458
22	0x3e801c9e	0.25021833
23	0xbec6c7df	-0.38824365
24	0x4040f4fb	3.0149524
25	0xbf547b2e	-0.8300046
26	0x3f7e0bf5	0.99236995
27	0x4006e3de	2.107658
28	0x409d5dd3	4.917703
29	0xbeac467f	-0.33647534
30	0x40761976	3.845304
31	0x40004f2a	2.0048318
32	0xbecd91af	-0.4015021
33	0xc005ad07	-2.0886858
34	0xc002e1c3	-2.0450294
35	0x3f5fdb12	0.8744365
36	0x3f9db320	1.232029
37	0xbf99fd98	-1.2030516
38	0xc08a5eba	-4.3240633
39	0x3f945f54	1.1591592
40	0x409a25b3	4.817102
41	0x4089ccd4	4.3062534
42	0xbfa6af27	-1.3022202
43	0x3fce2508	1.6105051
44	0xc063136e	-3.548061
45	0x3f3bd1dc	0.73367095
46	0xc00977c0	-2.147934
47	0xbf1e2555	-0.61775714
48	0xc0d2ab32	-6.583398
49	0xbf940691	-1.1564504
50	0xc0ad5f51	-5.4178853
51	0xc071d21d	-3.7784493
52	0x3f015f37	0.5053591
53	0xbfb70b83	-1.4300388
54	0x406cb2af	3.698406
55	0xbe1992f1	-0.1499746
56	0x3fd0a0c6	1.6299064
57	0x3f4ca2b5	0.7993577
58	0x40dc60aa	6.8868
59	0xbf0a60d6	-0.5405401
60	0x40091bc6	2.1423202
61	0x3f2ab54c	0.6668289
62	0xbf6015b9	-0.87533146
63	0x3ef0401a	0.46923906
64	0xc0098dc5	-2.149278
65	0x3ee0d32f	0.4391112
66	0xbf90d338	-1.1314459
67	0x3fecd2e4	1.8501859
68	0xc05cfb8a	-3.4528527
69	0xbf6f1b8c	-0.9340141
70	0x40549259	3.3214324
71	0x40221aa0	2.532875
72	0x3e4b2858	0.19839609
73	0xbd1cba17	-0.038263407
74	0xc03dfe7a	-2.968657
75	0xbf814448	-1.0098963
76	0xbe32c581	-0.17458154
77	0x3ddcdd81	0.10784436
78	0xc0407cba	-3.0076127
79	0x3f56bea5	0.8388465
80	0xbf96e758	-1.178935
81	0xc02ba3e1	-2.6818774
82	0x40214277	2.5196817
83	0xbfebfe84	-1.8437047
84	0x3f8bb4f3	1.0914596
85	0x408661ca	4.199437
86	0x40106002	2.2558599
87	0xc06ea9e2	-3.7291188
88	0x3f8a36e4	1.0798001
89	0x402fa5d7	2.744497
90	0x401c311a	2.440497
91	0x3fa43dd9	1.2831374
92	0xbf7ab2e1	-0.979292
93	0x3f9abb70	1.2088451
94	0xc01fa46f	-2.4944112
95	0xbfb84b0c	-1.4397902
96	0xbfc309d8	-1.5237379
97	0x3f975f91	1.182604
98	0xc01e15d5	-2.4700825
99	0xbf5241f7	-0.82131904

encoder.self_attn.out_proj.bias f4 [10]
0	0xc04d415e	-3.2071147
1	0x40939575	4.6119943
2	0xc087a503	-4.238893
3	0x40491eaf	3.1424978
4	0x40bc2b8e	5.8803167
5	0xc05c168a	-3.4388757
6	0x404081e8	3.0079288
7	0xbe27a28c	-0.163706
8	0x3ec4cedd	0.38439074
9	0x3fc136e7	1.509488

encoder.linear1.weight f4 [64, 10]
0	0xbfed7b30	-1.8553219
1	0xbeb6ea5a	-0.3572567
2	0xbfc32da6	-1.5248306
3	0x402a9465	2.6653073
4	0xc0c98f90	-6.2987747
5	0x3fbc4536	1.4708622
6	0x40735847	3.802263
7	0xc06b211e	-3.6738963
8	0x4061a6e4	3.5258112
9	0x404445ad	3.0667527
10	0xbfa2bff7	-1.2714833
11	0xbfb21f4d	-1.3915802
12	0xbd7b8c16	-0.061412893
13	0x3f8dbe81	1.1073762
14	0x3eb8f831	0.36126855
15	0x3ea32293	0.31862316
16	0x3fe10e07	1.7582406
17	0xbe47bb86	-0.19505128
18	0x3fa1a8d1	1.2629644
19	0x3f821292	1.0161917
20	0xbe1c8d39	-0.15288247
21	0x3faf1b60	1.3680229
22	0x3f0a20b9	0.5395618
23	0xc0092d86	-2.1434035
24	0x3dd5e5b6	0.104442045
25	0x3f10b0be	0.5651969
26	0xc000f744	-2.015092
27	0x3e03ddf8	0.12877643
28	0xbfbe28c0	-1.4856186
29	0x3f4a50a7	0.79029316
30	0x400990f0	2.1494713
31	0xbe94dfe2	-0.2907706
32	0x40219d0e	2.5252109
33	0xbf359082	-0.70923626
34	0xbfc4b16c	-1.5366645
35	0x403ab3d0	2.917225
36	0xc04ca9f9	-3.1978743
37	0x4001f0ac	2.0303144
38	0xc0122594	-2.2835436
39	0xbfe8eb7e	-1.8196867
40	0xbdfe97dc	-0.124313086
41	0x3fd83cbe	1.6893537
42	0x3e232f49	0.15936007
43	0xbfcb0f0b	-1.5863966
44	0xbf19ec1c	-0.601259
45	0x3e2debf7	0.16984545
46	0xc00480b4	-2.0703554
47	0x3faf5f4e	1.370096
48	0xbf420b6a	-0.75798666
49	0x3f834ed5	1.0258433
50	0xc0ad76ff	-5.420776
51	0xc09458fb	-4.635862
52	0xc0a2477e	-5.071227
53	0x4091f620	4.5612946
54	0x4023f44a	2.5617852
55	0xc0b4a948	-5.645664
56	0x409b202b	4.8476768
57	0xc0125b77	-2.2868326
58	0x412bc5dc	10.7358055
59	0x410a2796	8.634665
60	0x3fffc88e	1.998308
61	0xc05342c4	-3.30095
62	0xc073940b	-3.8059108
63	0x40963af6	4.6946974
64	0x3ec3371d	0.38127986
65	0xbfcbefff	-1.5932616
66	0x40789867	3.884302
67	0xbfe958fa	-1.8230278
68	0x40a188d7	5.047954
69	0xbff98b8c	-1.9495711
70	0x4010a10c	2.2598295
71	0xbea7993c	-0.32734096
72	0xbed01c11	-0.40646413
73	0xc054956e	-3.3216205
74	0xbfaa001f	-1.3281287
75	0xbf80ad1d	-1.005283
76	0x3da00bc5	0.07814745
77	0x4071bc77	3.777128
78	0xbfed7d7e	-1.8553922
79	0x3fad1d03	1.3524479
80	0xbdc47fac	-0.09594664
81	0x3f8e90b2	1.1137908
82	0x3f292d29	0.66084534
83	0xbf27f6ac	-0.65610766
84	0xbe665e24	-0.2249685
85	0x3e901e0e	0.2814793
86	0xbfdda9c8	-1.7317438
87	0x3edfc840	0.43707466
88	0xbee1b350	-0.44082117
89	0x3da36f8f	0.079802625
90	0x3f02ac25	0.5104392
91	0xbfc398cc	-1.5281005
92	0x3fb056ff	1.3776549
93	0xbfa2af34	-1.2709718
94	0xbdf4519e	-0.1192963
95	0x3f9502a5	1.1641432
96	0x4023554c	2.552081
97	0x3fd92546	1.69645
98	0xbf3e0f10	-0.74241734
99	0x40d5f211	6.685799
100	0x40be63e9	5.949696
101	0xbf425648	-0.75912905
102	0xbfb49597	-1.4108151
103	0xc0e5284d	-7.1611695
104	0xbfaf90a8	-1.371602
105	0xbf9892f6	-1.1919849
106	0x3fb9d2a7	1.4517411
107	0x3f0ee0f8	0.55812025
108	0xc006e42b	-2.1076763
109	0x402c6b56	2.6940513
110	0xbebe54cf	-0.3717408
111	0xbf8d127b	-1.1021265
112	0xbfbed192	-1.4907706
113	0x408fef39	4.497952
114	0xc09d72ff	-4.9202876
115	0x3fd7173c	1.6803966
116	0x40b60e79	5.6892667
117	0xc084b624	-4.147234
118	0x40a5a351	5.176186
119	0x3dfc58ac	0.123216
120	0xbf16599f	-0.587305
121	0xbf6e40b7	-0.93067497
122	0xc0054dae	-2.0828662
123	0x3f41e5f2	0.75741494
124	0x3f108192	0.5644771
125	0xbf402a8e	-0.75064933
126	0xbfd14fa8	-1.6352434
127	0xbfaebb69	-1.3650943
128	0x3ed6f51e	0.41983885
129	0x3f39625c	0.7241571
130	0x40e2e8e6	7.09093
131	0xbfdbcc0c	-1.7171645
132	0xbfe2b4fb	-1.7711481
133	0xc0cf9e19	-6.488049
134	0xbf952658	-1.1652327
135	0xbf99f4cb	-1.202783
136	0x4047ea07	3.123659
137	0x40b85150	5.759926
138	0xc068407e	-3.6289363
139	0x406627f0	3.5961876
140	0xbeb60a17	-0.35554573
141	0x3fdae633	1.7101501
142	0x3f1861c1	0.5952416
143	0xbfedde28	-1.8583422
144	0x3dd7f7b9	0.10545296
145	0x3f8dcb63	1.1077694
146	0xbf802212	-1.0010397
147	0x3fd10f43	1.6332783
148	0xbf9c7138	-1.2222052
149	0xbb592f13	-0.003313963
150	0xbff549b4	-1.9163117
151	0x410b6435	8.711965
152	0x410c178b	8.755748
153	0x4035e234	2.8419313
154	0x40917ed8	4.546734
155	0x41180619	9.501489
156	0xbf00bd63	-0.5028898
157	0xbfc7185c	-1.5554309
158	0x404a2e78	3.1590862
159	0x4017bca7	2.3708894
160	0xc0e0c782	-7.024354
161	0xc0271f42	-2.6112828
162	0xc10b2c40	-8.698303
163	0x40d883f3	6.766107
164	0x40136886	2.3032546
165	0xc11150af	-9.082198
166	0x40c471fd	6.1389146
167	0xc0daf8f2	-6.842889
168	0x40c02935	6.00503
169	0x40c4cf6d	6.1503205
170	0x3faee6bb	1.3664163
171	0x3eb3441a	0.35012895
172	0x3fee21b6	1.8604038
173	0xbe6e531d	-0.23273893
174	0xbfddc30c	-1.7325149
175	0x4043b9de	3.0582194
176	0xbfb36793	-1.4015983
177	0xbe9cfb27	-0.30660364
178	0x4010e75c	2.264121
179	0xbf715533	-0.9427063
180	0xbef63429	-0.4808667
181	0x3db33712	0.08750738
182	0xbe04f8e4	-0.12985569
183	0x3f8af805	1.085694
184	0x3f1c55fe	0.61068714
185	0x3f87d010	1.0610371
186	0xbf2e0d2a	-0.67988837
187	0xbe560000	-0.20898438
188	0x3fdc2976	1.7200153
189	0x4007892b	2.117747
190	0x3f763d54	0.9618733
191	0xbfc32d17	-1.5248135
192	0x4010e5d7	2.2640283
193	0x3fee390e	1.8611162
194	0xbfcce7df	-1.6008261
195	0x404ef52e	3.2337146
196	0x3ef46384	0.47732174
197	0xc00db774	-2.214322
198	0x40bf6f9a	5.982373
199	0x3e8396ec	0.25701082
200	0x3e20f901	0.15719987
201	0x3f569b8a	0.83831084
202	0x3f8f5d31	1.1200315
203	0xc0b16c50	-5.5444717
204	0x3fc271c1	1.5190965
205	0x3f247d14	0.64253354
206	0xbf5be9d6	-0.8590368
207	0x409cb0ee	4.896598
208	0xbffbd0d6	-1.9673107
209	0x40b7c61c	5.7429333
210	0x3f6f9538	0.93587065
211	0x3f1b1620	0.60580635
212	0x3f99bacd	1.2010132
213	0xbfe9e43a	-1.8272774
214	0xbe43ff4c	-0.19140357
215	0x3f32d0a3	0.69849604
216	0xbf52e4a8	-0.8238015
217	0x400f3bb5	2.2380192
218	0xbf6bbc05	-0.9208377
219	0x3ddeda41	0.108814724
220	0xbf7c0f97	-0.9846129
221	0xc0042126	-2.0645232
222	0xbd25b773	-0.040458154
223	0xbf064421	-0.52447706
224	0x3ec5bd64	0.38621056
225	0xbeee7615	-0.46574464
226	0x409b1d30	4.847313
227	0x3da77aa0	0.08177686
228	0xbda204c5	-0.07911066
229	0x4108b50b	8.5442
230	0xbb85a134	-0.004078055
231	0x3f71345f	0.94220537
232	0x3dd3822d	0.103275634
233	0xbf63b216	-0.8894361
234	0xbdf667e0	-0.12031531
235	0xbe09375b	-0.13400023
236	0xbfba5f72	-1.4560378
237	0x3f0b1574	0.5432961
238	0xbf4b3324	-0.7937491
239	0x3e780eda	0.24224415
240	0xc00f3d16	-2.2381034
241	0xc0319f17	-2.775335
242	0xbffa2254	-1.9541726
243	0x401a15d9	2.4075835
244	0x3f6ff617	0.9373488
245	0xbeccc58c	-0.39994466
246	0x3f962a62	1.1731684
247	0xc00d0897	-2.2036493
248	0x3fcde141	1.6084367
249	0x3fb100d3	1.3828377
250	0xbea57377	-0.32314655
251	0xbf077555	-0.5291341
252	0xbf4379ce	-0.76357734
253	0x40c3793e	6.10855
254	0x4033b54f	2.8079412
255	0xbe795208	-0.24347699

encoder.linear1.bias f4 [64]
0	0x406321ed	3.5489457
1	0x3facb421	1.3492471
2	0xc051be53	-3.2772415
3	0xbf8f99e3	-1.1218837
4	0xc02b7ec2	-2.6796117
5	0x409a7ff4	4.8281193
6	0x4089750e	4.295539
7	0xbf5780e5	-0.8418105
8	0xbf814357	-1.0098675
9	0x3ef2a2d3	0.4738985
10	0xbf0dbfe2	-0.55370915
11	0x40b229b8	5.5675926
12	0x3fafc0d0	1.3730717
13	0x3f994313	1.1973594
14	0xc00876c5	-2.132249
15	0x4008f401	2.1398928
16	0x4099789d	4.7959733
17	0xbf2802a5	-0.65629035
18	0xbf187fa2	-0.5956975
19	0x3f863fb7	1.0488194
20	0xbfeaa657	-1.8332013
21	0xbe8e36e6	-0.2777626
22	0x3fcf0ce1	1.6175805
23	0xbde55cbb	-0.111993276
24	0x400704cb	2.1096675
25	0x3f1ead88	0.6198354
26	0x4114ac9f	9.292144
27	0x3f458a82	0.7716447
28	0x40fef4f6	7.9674025
29	0x401192dd	2.2745888
30	0x3fa2edef	1.2728862
31	0xc02eb347	-2.7296922
32	0x40e37e8d	7.109198
33	0x4095f51e	4.6861715
34	0x3fcce96a	1.6008732
35	0x40405cd2	3.0056653
36	0x40a17a5f	5.046188
37	0xbed5b01c	-0.41735923
38	0xbf89c69d	-1.0763737
39	0x3f57eec6	0.84348714
40	0x4083120a	4.095952
41	0x4014f1ef	2.3272665
42	0x3eaaaeaf	0.33336398
43	0x3fd61ebb	1.6728128
44	0x403ac860	2.91848
45	0xc01a1ff6	-2.4082007
46	0x409780ad	4.7344575
47	0x403f2171	2.986416
48	0x406e3625	3.7220547
49	0xbd26dad3	-0.04073603
50	0x3f9e4914	1.2366052
51	0x409c898d	4.891791
52	0x40918c68	4.5483894
53	0x403d8c62	2.9616933
54	0xbe7fbd9f	-0.24974678
55	0x3f9b3363	1.2125057
56	0x402c7592	2.694676
57	0x3f88c6b9	1.0685645
58	0xbf9101f6	-1.1328723
59	0xc020af02	-2.5106816
60	0xbf2eca87	-0.6827778
61	0x4092878b	4.579046
62	0x3ea2d3f8	0.31802344
63	0xbf6d05a1	-0.92586714

encoder.linear2.weight f4 [10, 64]
0	0x41132267	9.195899
1	0x40985fba	4.7616854
2	0xbeddd356	-0.433253
3	0xc001173a	-2.0170426
4	0x3f032e6e	0.5124272
5	0x4145beea	12.35911
6	0x41099910	8.599869
7	0xc0409288	-3.0089436
8	0x3edcc7b8	0.43121123
9	0xc07c30dc	-3.9404821
10	0xc0b7bace	-5.7415533
11	0x4133ae9f	11.230132
12	0x4050fb5b	3.2653415
13	0xc09a65c6	-4.8249235
14	0x3ee9fec4	0.45702183
15	0xc0790f2f	-3.8915517
16	0x41120295	9.12563
17	0x4099fe6f	4.812309
18	0x40863902	4.194459
19	0x40640f57	3.5634363
20	0x3f0f0b4e	0.55876625
21	0xbdfd59a3	-0.123706125
22	0x3f14936b	0.5803744
23	0x3f25fe1c	0.64840865
24	0x40c822f8	6.2542686
25	0x4081268a	4.0359545
26	0x414df389	12.871957
27	0x3fdd0c15	1.7269312
28	0x412ba71e	10.7283
29	0x41025c8c	8.147594
30	0xc0184b76	-2.3796058
31	0xbe6fd1c5	-0.23419864
32	0xc0b3670f	-5.6063304
33	0xc1295f00	-10.585693
34	0x412e495b	10.892909
35	0x40a7956f	5.2369914
36	0x40b79f77	5.738216
37	0x3e428110	0.18994546
38	0x3fbef36c	1.4918036
39	0x4092d532	4.588525
40	0x409f9266	4.986621
41	0x3fd8ca70	1.6936779
42	0x3ee3dfaf	0.44506595
43	0x40d0381c	6.5068493
44	0x40ed336d	7.4125276
45	0xbf169d06	-0.5883335
46	0x4115ac14	9.354511
47	0x40c62c1f	6.192886
48	0x410ccd69	8.800149
49	0x40970d64	4.7203846
50	0x4054ee8f	3.3270605
51	0x412cd314	10.801533
52	0x4114e776	9.306509
53	0x3e8aa3f0	0.270782
54	0x3f08b522	0.53401387
55	0xc05e8e0c	-3.4774199
56	0x417ec806	15.923834
57	0x40c9f3cd	6.311011
58	0xc086336b	-4.1937766
59	0x3f453327	0.7703118
60	0x3ec7a712	0.38994652
61	0x41269be9	10.413064
62	0x4052a653	3.2914016
63	0x401d07a2	2.4535909
64	0xc0029d13	-2.040837
65	0xbe78d211	-0.24298884
66	0x3ec82541	0.39090922
67	0x3e25a241	0.16175176
68	0x3df1f7ae	0.11814819
69	0xc0938556	-4.6100264
70	0xbe4f2590	-0.20229173
71	0xbf7acac9	-0.97965676
72	0x3f87c058	1.0605574
73	0xbfbf83fc	-1.4962153
74	0xc0332536	-2.7991462
75	0xc03e5c56	-2.9743857
76	0x3f7b79b7	0.982326
77	0xc0aaab8d	-5.3334413
78	0xbf23c054	-0.63965344
79	0xbf071abe	-0.5277518
80	0x40ef8de3	7.48607
81	0x3eba6e06	0.36412066
82	0x3f6355eb	0.88802975
83	0x3f72c3b8	0.94829893
84	0x3fd6d2d6	1.6783092
85	0x3f594e2d	0.8488491
86	0xc00e3f74	-2.2226229
87	0xbe5479bd	-0.20749564
88	0xbf2a6c1e	-0.66571224
89	0x3ffac385	1.9590918
90	0xc075b401	-3.8391116
91	0x3e964112	0.2934652
92	0xbfff7678	-1.9958029
93	0x403d095a	2.9536958
94	0x3ee180c9	0.44043568
95	0x3ef17894	0.47162306
96	0x4132ff22	11.187288
97	0x418063fb	16.048819
98	0x3ee3c142	0.44483382
99	0x4059e996	3.404882
100	0xc07489eb	-3.8209178
101	0xbeae004c	-0.33984601
102	0x3e6c120f	0.23053764
103	0x3f2214fd	0.63313276
104	0x40b087cb	5.5165763
105	0x40bb1b59	5.8470883
106	0x3fb475d7	1.4098462
107	0x3fa8053c	1.3126597
108	0x4098d61d	4.776137
109	0xbec9e7c1	-0.39434627
110	0xc00de4e8	-2.2170963
111	0x40cd32d5	6.412455
112	0xbfb6076e	-1.4221017
113	0x3f52c349	0.8232923
114	0x3fdbda48	1.7175989
115	0x40129353	2.290242
116	0x3f2a8a85	0.66617614
117	0x4033200a	2.7988305
118	0xbe64b982	-0.2233639
119	0x401ed182	2.4815373
120	0xc0e5753c	-7.170561
121	0x3f760bc7	0.9611172
122	0x3f1a504c	0.60278773
123	0x3fd326f0	1.6496258
124	0x3e9415c4	0.28922856
125	0xc030bf54	-2.7616777
126	0x40675ecf	3.6151617
127	0x3f285b83	0.65764636
128	0x3f2a507d	0.66529065
129	0xbf3a4abc	-0.72770286
130	0xbdf77c77	-0.12084287
131	0x40207e13	2.507695
132	0xbf0254aa	-0.5091044
133	0x402a376e	2.6596332
134	0xc0abfbd2	-5.37449
135	0x40382a79	2.8775923
136	0x3ee41d88	0.4455378
137	0x3f5a1036	0.85180986
138	0x3ff50829	1.9143115
139	0x3f80b4d1	1.0055181
140	0xc0408e5c	-3.008689
141	0x402e19a2	2.7203145
142	0x3d7bfa3a	0.06151793
143	0x3f58f833	0.8475372
144	0xc0c44030	-6.1328354
145	0xc0540f39	-3.313429
146	0xc0708930	-3.7583733
147	0xc0d15cec	-6.542593
148	0xbfdb5df8	-1.7138052
149	0x3fcfa359	1.6221725
150	0xbfd5f442	-1.6715167
151	0x3be3fb9a	0.0069574835
152	0xc031c401	-2.7775881
153	0xc09f38ef	-4.9757
154	0xbfb87f93	-1.4413933
155	0xbf857b11	-1.0428182
156	0x40df56f3	6.979364
157	0xbfc25188	-1.5181131
158	0x40560c6a	3.3445077
159	0xbf6d2251	-0.9263049
160	0x41b34002	22.406254
161	0x41596a47	13.588447
162	0xc0b04b64	-5.509203
163	0xc0651967	-3.5796754
164	0x3fa79946	1.309365
165	0x3eb01d28	0.34397244
166	0x3fe5390f	1.7908038
167	0xbfdb57c0	-1.7136154
168	0xc0a43752	-5.131753
169	0x3e87d9b1	0.26533273
170	0x3fe5e4c1	1.7960435
171	0xc066c75e	-3.6059184
172	0x3fd3aa1f	1.6536292
173	0xbe9035d7	-0.28166077
174	0x3fb1d584	1.3893285
175	0xc0a9a8e4	-5.3018665
176	0xbfa2c443	-1.2716144
177	0xbfffbeae	-1.9980066
178	0xc095bc27	-4.679218
179	0xbf8754da	-1.057277
180	0x414ba6ed	12.728253
181	0x40cc4bfa	6.3842745
182	0x3fa869de	1.3157308
183	0xc05d7a5d	-3.4605935
184	0xc08562b9	-4.168301
185	0xbf352b5b	-0.7076928
186	0x3f9f2466	1.2432983
187	0x3f2b4c9e	0.66913784
188	0x3e7c02be	0.24610421
189	0xbc3aaa2d	-0.011393112
190	0xc08c3d7f	-4.382507
191	0xbf2fd287	-0.68680614
192	0x40308f67	2.7587526
193	0xc062cccb	-3.5437496
194	0x3f6aa68a	0.9166037
195	0x3f977253	1.1831764
196	0x3e8f6695	0.2800795
197	0xbf9ca43b	-1.2237619
198	0x3dd8cff0	0.10586536
199	0x3fe62891	1.798113
200	0x3ecf9dbb	0.40550026
201	0xc088fa07	-4.280521
202	0xc04800a7	-3.1250398
203	0x3fd449f8	1.6585073
204	0x4076dcd5	3.8572285
205	0xc0818d5d	-4.0485063
206	0x3f2b9e41	0.6703835
207	0x402aba5f	2.6676252
208	0x40b280bf	5.578216
209	0x3d103099	0.035202596
210	0xbf30d377	-0.6907267
211	0x3ec5c9f8	0.38630652
212	0x3ec766a0	0.38945484
213	0xbfeca98b	-1.848924
214	0xc042a3cd	-3.0412476
215	0x3efc7570	0.49308348
216	0xbf6e4f23	-0.93089503
217	0xbf88eadb	-1.0696672
218	0xc0351b85	-2.8298047
219	0xc011ce18	-2.278204
220	0x3ee52adc	0.44759262
221	0x40195224	2.3956385
222	0x3e9bf6e1	0.3046179
223	0xbf00cab2	-0.5030929
224	0x40e2c2db	7.086286
225	0x40226f02	2.5380254
226	0xc084158c	-4.12763
227	0xbf517b6a	-0.8182894
228	0x40ddc564	6.9303455
229	0x3f160fc6	0.5861782
230	0x3f442eb7	0.7663378
231	0xc03a3fa3	-2.910134
232	0xbf8de2c0	-1.1084824
233	0x408ada27	4.33913
234	0x3f851466	1.039685
235	0x3efe523d	0.49672118
236	0x409d047c	4.9067974
237	0x3e27d37e	0.16389272
238	0x3fa2c6ea	1.2716954
239	0x3e2be531	0.16786648
240	0xc04ace13	-3.1688278
241	0xc0123baa	-2.2848916
242	0x3e014ed8	0.12627733
243	0x3fc10ba6	1.508168
244	0x40c434a9	6.1314282
245	0x3fcfea05	1.6243292
246	0x3e004d68	0.12529528
247	0xc000c1f6	-2.0118384
248	0xc0ca0572	-6.3131647
249	0x3fbb079e	1.46117
250	0x3e9cc8dc	0.30621994
251	0x400d928f	2.2120702
252	0x3f2cd61f	0.6751422
253	0x3dc92888	0.09822184
254	0xc03870fc	-2.881896
255	0xbedaddee	-0.42747444

encoder.linear2.bias f4 [10]
0	0x40d3309c	6.599684
1	0xbfc47b46	-1.535012
2	0xbf84f9ff	-1.0388793
3	0xc041292a	-3.0181375
4	0xbf8af58a	-1.0856183
5	0xc02f5339	-2.7394545
6	0xc04e1399	-3.2199461
7	0x3d2946ab	0.04132716
8	0xbf059f7a	-0.52196467
9	0xbf0fefd1	-0.56225306

encoder.norm1.weight f4 [10]
0	0x40a1f365	5.0609612
1	0xbff30ee3	-1.8988918
2	0x4045b6f8	3.0892925
3	0x401f3799	2.4877684
4	0xbfdce791	-1.7258168
5	0x4019d365	2.4035275
6	0x3fae0f08	1.3598337
7	0xc04b7615	-3.1790822
8	0x406bb1ed	3.6827347
9	0xbf32c8ee	-0.69837844

encoder.norm1.bias f4 [10]
0	0xc049d416	-3.1535697
1	0xc0302808	-2.7524433
2	0xbffc1997	-1.9695309
3	0x403d1a5d	2.954734
4	0x3e9e489a	0.30914766
5	0xbfc2a257	-1.5205792
6	0x4044492e	3.0669665
7	0xbff3b3d3	-1.9039253
8	0x405dbaa1	3.464516
9	0x3f47055d	0.7774256

encoder.norm2.weight f4 [10]
0	0xbec25552	-0.3795572
1	0xbeafd5be	-0.3434276
2	0x3e35ddd5	0.17760403
3	0x3f8466e3	1.0343899
4	0xbee4528f	-0.44594237
5	0xbeffa51e	-0.49930662
6	0x3eb61f46	0.35570735
7	0x3ee0a0d9	0.43872717
8	0xbe85b303	-0.26113138
9	0xbf06b25f	-0.5261592

encoder.norm2.bias f4 [10]
0	0x3f0e6a73	0.5563118
1	0xbf95510a	-1.1665356
2	0xbe9fb04e	-0.31189197
3	0xbe7239a7	-0.23654805
4	0xbf00a107	-0.5024571
5	0xbf85db1b	-1.0457491
6	0xc0952fe8	-4.662098
7	0x3deaa332	0.11456908
8	0x3e867f98	0.2626922
9	0xbf77a86e	-0.9674138

l2.weight f4 [64, 3200]
0	0x3e33e834	0.17569047
1	0xbe6b2a46	-0.22965345
2	0x3e800f43	0.25011644
3	0x3efe7855	0.4970118
4	0x405bb0a4	3.4326563
5	0x3ea4d720	0.32195377
6	0x3f38e01c	0.72216964
7	0xbe79a760	-0.24380255
8	0xbf9ebf5e	-1.2402151
9	0x3f3a0b30	0.7267332
10	0x3fad0fac	1.3520408
11	0xbed03601	-0.40666202
12	0x3f5685d4	0.83797956
13	0x3ea943e5	0.33059612
14	0x4060dfdc	3.5136633
15	0x3eaba677	0.3352544
16	0x3f09b081	0.5378495
17	0xbe97063a	-0.29496938
18	0xc00e4863	-2.2231681
19	0x3f01ecca	0.50751936
20	0x3f50d1bf	0.8157005
21	0xbf4b2118	-0.7934737
22	0x3fc6337d	1.5484463
23	0x3f53ffea	0.8281237
24	0x405ece26	3.4813323
25	0x3f9f78cc	1.2458739
26	0x3f482917	0.781877
27	0xbe94bc9c	-0.29050148
28	0xbfbc3e40	-1.4706497
29	0x3f0db78f	0.55358213
30	0x3f8dc32e	1.1075189
31	0xbf4e36e3	-0.805525
32	0x3f1bfb3b	0.6093022
33	0x3f1394e0	0.5764904
34	0x40806c16	4.013194
35	0x3d631d76	0.055448018
36	0x3f85ba85	1.0447546
37	0x3d76d124	0.060258046
38	0xbfb9c060	-1.4511833
39	0x3f4cb6c8	0.799664
40	0x3f0a7b53	0.5409443
41	0xbf28be1f	-0.659151
42	0x3f21d4c6	0.6321529
43	0x3ef7c660	0.48393536
44	0x4058c91e	3.3872752
45	0xbcb8e65c	-0.022570781
46	0x3f38c036	0.7216829
47	0xbeac5ffe	-0.33666986
48	0xbff327a9	-1.8996478
49	0x3f205624	0.6263144
50	0x407de870	3.9673119
51	0xbea4d0cd	-0.32190552
52	0x3f8d50f8	1.1040335
53	0x3e841230	0.25795126
54	0x40554b15	3.3327076
55	0x3ecde966	0.4021713
56	0x3f58fdf4	0.847625
57	0xbe023ba8	-0.1271807
58	0xbfe0e58f	-1.7570056
59	0x3f1a7385	0.6033252
60	0x3f9dbd25	1.2323347
61	0xbea5e4fb	-0.3240126
62	0x3f43a3f9	0.7642208
63	0x3d852592	0.065013066
64	0x4083726d	4.107718
65	0x3e30b8ec	0.17258042
66	0x3f25ab2e	0.64714324
67	0xbf3dd735	-0.74156505
68	0xc01e1047	-2.4697435
69	0x3ec87495	0.39151445
70	0x400491f6	2.0714087
71	0xbf024d63	-0.5089933
72	0x3eee4798	0.46538997
73	0x3f293df3	0.6611015
74	0x4066d208	3.6065693
75	0xbda5bdad	-0.080928184
76	0x3f4ee9f5	0.8082574
77	0xbe973308	-0.2953112
78	0xbfba2905	-1.4543768
79	0x3f152115	0.58253604
80	0x3f39851c	0.72468734
81	0xbf13d292	-0.5774318
82	0x3f943fd1	1.1581975
83	0x3f1bf2eb	0.6091754
84	0x404969b4	3.1470766
85	0x3f583853	0.84460944
86	0x3f32fdd4	0.6991856
87	0xbec40602	-0.38285834
88	0xc0029f15	-2.0409596
89	0x3f03bd8d	0.51461107
90	0x3fb3edbc	1.4056926
91	0xbf556e3f	-0.8337135
92	0x3f16524f	0.5871934
93	0x3e972647	0.2952139
94	0x40637542	3.5540318
95	0x3ea90a71	0.3301578
96	0x3f11aef3	0.56907576
97	0xbeec9dea	-0.4621423
98	0xbf9d7bce	-1.2303407
99	0x3f29ae41	0.66281515
100	0x3fe5b3d6	1.7945507
101	0xbf31b1dc	-0.69412017
102	0x3e632914	0.22183639
103	0x3f8fb02b	1.1225637
104	0x405dabfc	3.463622
105	0x3f2bdcaa	0.6713358
106	0x3f201610	0.62533665
107	0xbec6878b	-0.38775286
108	0xc01a30b7	-2.4092233
109	0x3ede79a6	0.43452185
110	0x3f387f69	0.7206941
111	0xbed940ad	-0.42432156
112	0x3f115dc8	0.56783724
113	0x3f4fb849	0.8114057
114	0x40530beb	3.2976024
115	0xbe8550c1	-0.26038173
116	0x3ed60b06	0.41805285
117	0xbf0db558	-0.55354834
118	0xbfc4deeb	-1.5380529
119	0x3ef02da2	0.46909815
120	0x40004f40	2.004837
121	0xbef0a334	-0.46999514
122	0x3f8628b5	1.0481173
123	0x3f4f0b9d	0.80877095
124	0x4024b944	2.5738077
125	0x3f37c4de	0.7178477
126	0x3ee4de62	0.44700915
127	0xbe8fb52b	-0.28067908
128	0xc01b1ac5	-2.423509
129	0x3f0d3ec0	0.55173874
130	0x3f1d476c	0.61437106
131	0xbee5de81	-0.4489632
132	0x3ec77cd8	0.38962436
133	0x3ec72cb6	0.389013
134	0x405d97bc	3.4623861
135	0x3ca2d98a	0.019879121
136	0x3f2bc98e	0.67104423
137	0xbeaa6e10	-0.33287096
138	0xbff6a83b	-1.927009
139	0x3ef91b2c	0.48653543
140	0xbc463117	-0.012096665
141	0xbe8f7ab1	-0.28023294
142	0x3fc7e040	1.5615311
143	0x3f08f1f7	0.5349421
144	0x406b861a	3.68006
145	0xbed028b8	-0.40656066
146	0x3f1aa91f	0.6041431
147	0x3dc6a775	0.09699909
148	0xc0045f7f	-2.0683286
149	0x3f5037f9	0.8133541
150	0x3e674490	0.22584748
151	0xbf146781	-0.57970434
152	0x3fb5cced	1.4203163
153	0x3f1ff5e7	0.6248459
154	0x4061fa5e	3.5309062
155	0x3e95b44f	0.29239127
156	0x3f35d0d5	0.7102178
157	0xbe8baba7	-0.27279398
158	0xbfb8b4a8	-1.4430132
159	0x3f22a388	0.6353078
160	0x3f8a2b1c	1.0794406
161	0xbe9c11da	-0.3048237
162	0x3ed3275d	0.4124097
163	0x3f8eb2ab	1.1148275
164	0x405bc4b7	3.4338815
165	0xbd79a860	-0.06095159
166	0x3f380373	0.71880263
167	0xbeec3321	-0.46132758
168	0xbff4f588	-1.913743
169	0x3f39e8c1	0.7262078
170	0x3fd155a5	1.6354262
171	0xbe01f340	-0.12690449
172	0x3f42875f	0.7598781
173	0x3f9cfbfc	1.22644
174	0x408328e2	4.0987406
175	0x3e37a532	0.17934111
176	0x3f3a6d5b	0.72823113
177	0xbf3d6c8e	-0.73993766
178	0xc0055236	-2.0831428
179	0x3ee77b6c	0.4521135
180	0x4030bde1	2.7615893
181	0xbadc1a1d	-0.001679245
182	0x3f4c1532	0.7971984
183	0x3efdc7b4	0.49566424
184	0x406b6e03	3.6785896
185	0x3f7045bf	0.93856424
186	0x3f3abfe6	0.72949064
187	0xbef2f3cb	-0.47451624
188	0xbf038a2b	-0.513827
189	0x3f108c98	0.5646453
190	0x3f966c40	1.1751785
191	0xbf3aedad	-0.73018914
192	0x3fe58d85	1.7933813
193	0x3f627fc7	0.8847622
194	0x4083bb29	4.1165967
195	0x3f63472c	0.88780475
196	0x3f56d305	0.8391574
197	0xbeb422b0	-0.35182714
198	0xbfdebebd	-1.7401959
199	0x3e97006b	0.29492506
200	0x3f8028d3	1.0012459
201	0xbebdded6	-0.37084073
202	0x3fa245d9	1.2677566
203	0x3cffcfd8	0.031227037
204	0x4058177c	3.3764334
205	0x3e9a120b	0.3009189
206	0x3f3e666b	0.7437503
207	0xbf5610ba	-0.8361927
208	0xc00a6708	-2.1625385
209	0x3f049052	0.51782715
210	0xbf0dda6e	-0.5541142
211	0xbf494319	-0.7861801
212	0x3f253ef3	0.6454918
213	0x3f2d3f16	0.67674387
214	0x404c1452	3.1887403
215	0x3f9a1398	1.203723
216	0x3f803165	1.0015074
217	0x3f1e72ca	0.61893904
218	0xbf415d6e	-0.7553319
219	0x3f3d2cf3	0.7389671
220	0x3f387b4e	0.7206315
221	0xbecd4a6d	-0.40095845
222	0x3fdb0a45	1.7112509
223	0x3e88cc0e	0.2671818
224	0x407d5c0f	3.9587438
225	0x3ea4c36e	0.3218035
226	0x3f3eac32	0.744815
227	0x3b29d3f7	0.0025913694
228	0xc00100a9	-2.0156653
229	0x3f1c75b6	0.6111711
230	0x3f58f13e	0.84743106
231	0x3df7a9cf	0.12092935
232	0xbf0b1ce7	-0.54340976
233	0x3e3b6f3a	0.18304148
234	0x406d872c	3.7113752
235	0x3f06594e	0.5248002
236	0x3f3e5065	0.7434142
237	0xbf0e13ed	-0.55499154
238	0xbf9da57f	-1.231613
239	0x3f05c1fd	0.5224913
240	0x3e232ede	0.15935847
241	0x3c3307d3	0.010927158
242	0x3ec2786d	0.37982503
243	0xbd8ccde7	-0.0687521
244	0x40365d86	2.8494582
245	0x3f18e47a	0.5972363
246	0x3f4fc6ba	0.8116261
247	0xbe22f660	-0.15914297
248	0xbff18a73	-1.8870376
249	0x3f040996	0.51577127
250	0x3febf43e	1.8433912
251	0xbea95ab7	-0.33077022
252	0x3ea638cc	0.32465208
253	0x3e3fece0	0.18742704
254	0x408792d1	4.236672
255	0x3f04b03a	0.518314

l2.bias f4 [64]
0	0xbf955164	-1.1665463
1	0xbf08b959	-0.5340782
2	0xbff9a1e8	-1.9502535
3	0xc04799d7	-3.1187646
4	0xbef2a8e7	-0.47394487
5	0xbf19c398	-0.6006408
6	0x3df6b5bf	0.12046384
7	0xc0b675a3	-5.70186
8	0xc0b0305c	-5.5059032
9	0x3d020381	0.031741623
10	0xbeca261f	-0.3948221
11	0xbfdecd0e	-1.7406328
12	0xc0abc8fa	-5.3682833
13	0xc00c86b1	-2.195721
14	0xbf2992bd	-0.6623953
15	0x3d0ae2cc	0.033907697
16	0xbf726898	-0.9469085
17	0xbf195ab9	-0.59904057
18	0x3e00d8cd	0.12582703
19	0xbf83f1f4	-1.0308213
20	0xbe543c54	-0.20726138
21	0xc0ba9571	-5.8307424
22	0xbf972e28	-1.1810961
23	0xc03ff21a	-2.9991517
24	0xbf61da2e	-0.8822354
25	0xc03027a3	-2.7524192
26	0xbf508689	-0.81455284
27	0xbd9baa6a	-0.07600863
28	0xc035795e	-2.8355327
29	0xbf8cb9c7	-1.0994195
30	0xbe539cb7	-0.2066525
31	0xbf26ef46	-0.6520885
32	0xbe01c2b0	-0.12671924
33	0xbf9f0c58	-1.2425642
34	0xbf218344	-0.6309092
35	0xbf510f1e	-0.8166369
36	0xbf08fc3e	-0.5350989
37	0xbeb8f960	-0.36127758
38	0xbefafc58	-0.49020648
39	0xbf4f9bbd	-0.8109701
40	0xc11edddd	-9.929166
41	0xbf730ee5	-0.949446
42	0xbf2c6bc7	-0.67351955
43	0xbf361053	-0.7111866
44	0xbdd8c8c9	-0.10585172
45	0xbf0c3761	-0.54772
46	0xbeb7c2e4	-0.35890877
47	0xbf5b7da1	-0.8573857
48	0xc03c314e	-2.9405093
49	0xbfe2997a	-1.7703087
50	0xc089f012	-4.3105555
51	0xbec7134c	-0.3888191
52	0xc08f8305	-4.4847436
53	0xbf5a7450	-0.8533373
54	0xc0488f5f	-3.1337507
55	0xbdc4f5cc	-0.096171945
56	0xbed30476	-0.4121434
57	0xbdba5fdf	-0.09100317
58	0xbfd2b162	-1.6460383
59	0xbff77c02	-1.9334719
60	0xbfa89923	-1.3171734
61	0xbf1fe9fd	-0.6246641
62	0xc01942e2	-2.3947072
63	0xbf504230	-0.81350994

l3.weight f4 [64, 66]
0	0x3fe52cc7	1.790429
1	0x3e695298	0.22785413
2	0xbf3a7e6f	-0.7284917
3	0x3edec138	0.4350679
4	0x3d577bf6	0.052608453
5	0xbf429a31	-0.7601653
6	0x3ed0ec61	0.40805343
7	0x3ed463ba	0.41482335
8	0x3e7d9d7e	0.2476711
9	0xbeb47261	-0.35243514
10	0x3fe31cbe	1.7743146
11	0x3d87af18	0.06625193
12	0x3f00c78c	0.50304484
13	0x3e26f3b5	0.16303904
14	0x3cd6be7f	0.026213882
15	0xbed90180	-0.42383957
16	0xbd3788f5	-0.044808347
17	0x3e378e82	0.17925456
18	0x3eeaa250	0.4582696
19	0x3ea3b10d	0.31971017
20	0x3e0288bd	0.12747474
21	0x3ebbfaca	0.36714774
22	0xbe8686c9	-0.26274708
23	0x3ee4d15b	0.44690976
24	0x3e75a0b7	0.23987089
25	0x3d81216a	0.06305201
26	0x3e72e375	0.2371958
27	0x3fd74828	1.6818895
28	0xbe58b74e	-0.21163675
29	0x3ee91dcd	0.4553055
30	0x3fbb2ca6	1.4623001
31	0x3edbfa99	0.42964628
32	0xbf855546	-1.0416648
33	0x3ea412a1	0.32045463
34	0x3f5418f5	0.8285058
35	0x3edfaaf6	0.4368512
36	0x3f1e61d1	0.61868006
37	0x3f48d21a	0.7844559
38	0x3fbebcbb	1.4901346
39	0x3f83e66f	1.0304698
40	0x3ea123fa	0.3147276
41	0xbf41dc3b	-0.7572667
42	0x3f0c21f1	0.5473929
43	0x3f3b601e	0.7319354
44	0xbd93ed6c	-0.07223019
45	0x3ee430f1	0.4456859
46	0x3f1708de	0.58997905
47	0x3f37ae1a	0.7175003
48	0x3eb5d937	0.35517284
49	0xbd688599	-0.056768034
50	0x3ed7220d	0.42018166
51	0xbe05c053	-0.13061647
52	0x3d39336c	0.045215055
53	0xbd5cf2d8	-0.05394253
54	0x3e962a9c	0.29329383
55	0x3e914ee9	0.28380516
56	0x3f9c496b	1.2209905
57	0x3f53c077	0.82715553
58	0x3e74add5	0.23894437
59	0x3ca4a20e	0.020096805
60	0x3f84bbe9	1.0369846
61	0x3f4217c1	0.75817496
62	0x3f24ee1f	0.64425844
63	0x3f62f793	0.8865902
64	0xbe8767cc	-0.26446378
65	0xbf100d15	-0.5626996
66	0x3f947138	1.1597052
67	0x40039db2	2.0565
68	0xbe65c59b	-0.22438662
69	0x3f5ecfc3	0.8703577
70	0x3f06ef68	0.52709055
71	0x3fb2318c	1.392137
72	0x3eb3ce74	0.3511845
73	0x3e93cbf1	0.28866532
74	0x3e9e03f2	0.30862385
75	0xbf90abfd	-1.1302487
76	0x3db5e19b	0.088809215
77	0xbd2d7b3e	-0.04235386
78	0x3ee18ead	0.44054165
79	0x3f382189	0.7192617
80	0x3fe975b6	1.8239048
81	0x3e277a61	0.16355278
82	0x3f7e6218	0.9936843
83	0x3e660868	0.22464144
84	0xbf5c3c61	-0.8602963
85	0x3dc4ef06	0.096159026
86	0x3ed45e14	0.41478026
87	0x3cab623a	0.020920862
88	0x3e9b6e0c	0.30357397
89	0x3e4e8eac	0.20171613
90	0x3f61b45e	0.88165843
91	0x3e3a82ef	0.1821401
92	0x3eebd621	0.46061805
93	0x3f2ae3c3	0.66753787
94	0x3f7cd661	0.98764616
95	0x3f080f44	0.53148293
96	0xbca55763	-0.02018327
97	0x3f607f29	0.8769403
98	0x3fb83c96	1.4393489
99	0x3fb404ae	1.4063928
100	0x3f52aadd	0.82291967
101	0xbfa6aee5	-1.3022124
102	0x3f752305	0.9575656
103	0xbe7567ee	-0.23965427
104	0x3f142faf	0.5788526
105	0x3edd7a7a	0.43257505
106	0xbd9a3217	-0.07529085
107	0x3e27b0e0	0.16376066
108	0x3f1bcedf	0.60862535
109	0x3f84c55f	1.0372733
110	0xbed27aab	-0.41109213
111	0x3ebc38dd	0.36762133
112	0x3f11a0b6	0.5688585
113	0x3ef7df18	0.48412395
114	0x3d82b467	0.06382065
115	0x3f61faaf	0.8827314
116	0x3e80913c	0.25110805
117	0xbe9aae5b	-0.30211148
118	0x3e0c1fb3	0.13683967
119	0x3e118a8a	0.14213005
120	0x3e598f73	0.21246128
121	0xbf977b45	-1.1834494
122	0x3f72883f	0.94739145
123	0x40049869	2.0718024
124	0x3db99631	0.0906185
125	0x3f2a03fd	0.66412336
126	0xbe23d51b	-0.15999262
127	0x3f1c4f96	0.6105894
128	0x3ececb8d	0.40389672
129	0xbf706452	-0.93903077
130	0x3f45c9e8	0.7726121
131	0xbe828564	-0.25492394
132	0xbe807355	-0.2508799
133	0xbfa1dd2a	-1.2645619
134	0xbee31971	-0.44355348
135	0xbf02dbd4	-0.5111668
136	0xbeb1fcb1	-0.347631
137	0xbf425600	-0.75912476
138	0xbf37d99a	-0.7181641
139	0xbca46480	-0.020067453
140	0xbd4de104	-0.05026342
141	0x3ed938df	0.42426202
142	0xbf2d23ec	-0.6763294
143	0xbe29709f	-0.16546868
144	0x3f0443c6	0.51665914
145	0x3e41ee8a	0.18938652
146	0x3d11444f	0.035465535
147	0xbdaea688	-0.08527857
148	0x3f125e8c	0.5717552
149	0xbf534e54	-0.82541394
150	0x402c02c5	2.687669
151	0x3faadb2f	1.334814
152	0xbefbc443	-0.49173173
153	0x3ea1ed85	0.31626526
154	0x3eeaf401	0.45889285
155	0x3e83abd5	0.25717035
156	0x3ed3004e	0.4121117
157	0xbd1386f3	-0.03601737
158	0x3c867a85	0.016415844
159	0xbf7b1f46	-0.98094594
160	0x3ec1d88a	0.3786052
161	0xbdd92f06	-0.10604672
162	0xbe96c71a	-0.29448777
163	0x3ee556b1	0.44792703
164	0xbe85c15f	-0.26124093
165	0xbeeb2da6	-0.45933264
166	0xbdba95d0	-0.09110606
167	0xbed58b5e	-0.4170789
168	0x3ebb2267	0.36549684
169	0xbee35857	-0.44403335
170	0xbf0dc760	-0.5538235
171	0xbe1fdaf4	-0.15610868
172	0x3ed46b78	0.41488242
173	0xbf0fa7fc	-0.561157
174	0x3ef9b37f	0.48769757
175	0x3e448573	0.19191532
176	0x3f29f186	0.6638416
177	0x3df46f71	0.11935318
178	0xbfb90062	-1.4453242
179	0xbcb90b8c	-0.022588514
180	0x3e542d49	0.207204
181	0xbd4eb8be	-0.050469153
182	0xbe17fc1a	-0.14842263
183	0xbe920115	-0.2851645
184	0x3e977e5b	0.2958859
185	0xbf5cdcb4	-0.86274266
186	0x3ed9e34f	0.42556235
187	0xbf1c9da2	-0.6117803
188	0x3eef73a0	0.46767902
189	0xbe8c51d8	-0.27406192
190	0xbec53923	-0.38520154
191	0xbe000fe3	-0.1250606
192	0xbe514192	-0.2043517
193	0x3e666e02	0.22502902
194	0x3da1ec70	0.07906425
195	0x3dcc9f14	0.09991279
196	0xbe6f4a15	-0.23368104
197	0x3e57734e	0.21040079
198	0xbefc5437	-0.49283
199	0x3f340a4a	0.703282
200	0x3f8e74d9	1.1129409
201	0x3f566bb1	0.83758074
202	0x3eedf2dd	0.46474352
203	0x3ec57347	0.38564512
204	0x3f003a7e	0.5008925
205	0xbdfd2336	-0.123602316
206	0x3e08e1ab	0.13367335
207	0xbf5dabc4	-0.8659022
208	0xbdae84a0	-0.0852139
209	0x3f02913c	0.5100286
210	0xbdfec0be	-0.124391064
211	0x3d27d23c	0.04097198
212	0xbeb923a7	-0.36160013
213	0x3c5ea37a	0.013588781
214	0x3ec700f2	0.3886791
215	0x3fcfa063	1.6220821
216	0xbfdb3171	-1.7124463
217	0xbf5dd820	-0.86657906
218	0x3eba90e6	0.36438674
219	0x3eb5a64c	0.35478437
220	0x3f8faf34	1.1225343
221	0x3eb72344	0.35769093
222	0x3ee455e7	0.44596788
223	0x3d35d5fc	0.044393525
224	0xbf110964	-0.56654954
225	0xbf9b707e	-1.2143705
226	0x3cbb32bb	0.022851339
227	0xbe93fde1	-0.28904632
228	0x3f19ff1e	0.601549
229	0x3f302c2b	0.68817395
230	0xbf9622f1	-1.1729413
231	0x3fae260b	1.360536
232	0xbeaa2cc2	-0.33237273
233	0xbfb95834	-1.4480042
234	0xbe7a556f	-0.24446653
235	0x3eb04145	0.34424797
236	0x3f07471c	0.5284288
237	0xbe8993ed	-0.2687067
238	0x3e936bfa	0.28793317
239	0x3fb24c31	1.3929502
240	0xbeaccd5c	-0.33750427
241	0x3f663ab1	0.89933306
242	0xbdb291fd	-0.08719251
243	0x3e8e7c4e	0.27829212
244	0xbf8e7b06	-1.1131294
245	0xbdbd5b61	-0.09245945
246	0x3eb235a0	0.34806538
247	0xbd1313f6	-0.035907708
248	0xbdea6b44	-0.114462405
249	0x3f0bb0c0	0.54566574
250	0x3d8895a8	0.0666917
251	0x3e97197c	0.2951163
252	0x3ec89ce6	0.39182204
253	0x3fcf3649	1.6188442
254	0xbea0e2fa	-0.3142317
255	0x3ed4a611	0.4153295

l3.bias f4 [64]
0	0xbf23e39f	-0.640192
1	0xbf64c5ef	-0.8936452
2	0xbf134fdb	-0.57543725
3	0x3e050f98	0.1299423
4	0xbf38f100	-0.72242737
5	0xbf8af32f	-1.0855464
6	0xbba15d88	-0.00492448
7	0xbec1a7c8	-0.3782332
8	0xbf70030a	-0.9375464
9	0xbdab7c14	-0.083732754
10	0xbeb1af80	-0.34704208
11	0xbef36b3a	-0.47542745
12	0xbf6b9db2	-0.920375
13	0xbec2d911	-0.38056234
14	0xbe8a9aba	-0.27071172
15	0x3eae4d5f	0.34043404
16	0xbe283a03	-0.1642838
17	0xbee97d44	-0.45603383
18	0xbe9f9bbd	-0.31173506
19	0xbf7bfd74	-0.98433614
20	0xbf8b56e9	-1.0885898
21	0xbf375e66	-0.71628416
22	0xbe4ba44a	-0.1988689
23	0xbfbb8688	-1.4650431
24	0xbf56e8f2	-0.83949196
25	0xbf47c121	-0.78029066
26	0xbe8eb04f	-0.27868888
27	0xbf834c61	-1.0257684
28	0xbe592e0c	-0.21208972
29	0xbfc65265	-1.5493895
30	0xbe020599	-0.12697448
31	0xc0090693	-2.1410263
32	0x3e5559b4	0.20835
33	0xbf2a6016	-0.66552866
34	0xbf88ecaf	-1.069723
35	0x3e9808dc	0.2969426
36	0xbf76b750	-0.9637346
37	0xbf3baa9b	-0.733072
38	0xbdd7f6a6	-0.10545091
39	0xbe63c4e8	-0.22243083
40	0xbf0d18b6	-0.5511583
41	0x3da74268	0.08166963
42	0xbf83bbef	-1.0291728
43	0xbf3f1be0	-0.7465191
44	0xbfc6c6d8	-1.5529432
45	0xbf8cb735	-1.099341
46	0xbfd4c968	-1.6623964
47	0xbe9319ea	-0.28730708
48	0xbfd0e735	-1.6320559
49	0xbea4b0fa	-0.32166272
50	0xbf3cb576	-0.7371439
51	0xbf0110a9	-0.50416046
52	0xbf366a53	-0.7125599
53	0xbec222de	-0.37917227
54	0xbf4cbcb2	-0.79975426
55	0xbf829c9e	-1.0204046
56	0xbf3af71a	-0.730333
57	0x3e81f909	0.2538531
58	0xbdaeeaf1	-0.08540905
59	0xbf63a9b2	-0.8893081
60	0xbf087c5c	-0.5331476
61	0xbf7ffec1	-0.999981
62	0xbf58ab41	-0.8463631
63	0xbfbcd04c	-1.4751067

l4.weight f4 [2, 64]
0	0xbe60001d	-0.21875043
1	0x3e5dde6f	0.21666883
2	0x3dc1e5cd	0.09467659
3	0xbcc9ea0b	-0.024647733
4	0x3e53b074	0.2067278
5	0x3e8bee96	0.27330464
6	0x3cf207cd	0.029544735
7	0xbdc6c4cf	-0.09705507
8	0x3cd7504e	0.02628341
9	0x3e73db22	0.23814061
10	0xbd014efe	-0.031569473
11	0xbe1a7447	-0.15083419
12	0x3d185277	0.03718802
13	0xbeadd259	-0.33949545
14	0x3d189816	0.037254415
15	0xbd3a37cb	-0.045463365
16	0xbebf08bd	-0.37311354
17	0x3d567652	0.052358933
18	0xbdaf814a	-0.08569582
19	0xbc852ba5	-0.016256163
20	0xbe0049b4	-0.12528116
21	0xbd69fb45	-0.057124395
22	0xb9c22065	-0.000370267
23	0x3e07e998	0.13272703
24	0x3cbf612d	0.023361767
25	0xbbddf76e	-0.0067738807
26	0x3c77d738	0.015126996
27	0x3c5ddde9	0.013541677
28	0xbd87d0f5	-0.06631652
29	0x3d9b46d9	0.075818725
30	0xbe46bae7	-0.19407235
31	0x3dbb626f	0.09149634
32	0xbe2a9a1f	-0.16660355
33	0xbd8715b0	-0.065959334
34	0xbcb51631	-0.022105308
35	0x3de79bd1	0.113090165
36	0x3d6c47ca	0.05768565
37	0x3cc18d4e	0.02362695
38	0xbe2ca7ca	-0.16860881
39	0xbe662fe9	-0.22479214
40	0xbbc9d179	-0.0061590043
41	0xbe97f9a2	-0.29682642
42	0xbde8de53	-0.1137053
43	0x3e8361c8	0.2566054
44	0x3da87159	0.08224744
45	0xbd405943	-0.046960127
46	0x3d25535a	0.040362693
47	0x3e026fe3	0.12737994
48	0x3d612665	0.054968257
49	0x3d6e8e4f	0.058241185
50	0xbea33977	-0.3187978
51	0xbc191bd8	-0.009345017
52	0x3d09d1fc	0.033647522
53	0xbda63376	-0.08115284
54	0xbe291af8	-0.16514194
55	0xbdc1d0e7	-0.09463673
56	0xbee5fed8	-0.44920993
57	0x3d23d146	0.0399945
58	0x3d8b3e12	0.06798948
59	0x39bbdcfc	0.00035832066
60	0x3e21a5e0	0.15785933
61	0x3e06cb5e	0.13163516
62	0x3d24a0af	0.040192302
63	0xbe08fb45	-0.13377102
64	0x3db35b8c	0.087576956
65	0x3e98b5cc	0.298262
66	0xbba01d73	-0.004886323
67	0x3dacebc5	0.08443407
68	0xbdfa8ad0	-0.12233508
69	0xbe9c2882	-0.30499655
70	0xbe3e292b	-0.18570392
71	0xbcc1a7a2	-0.023639504
72	0xbe8b8add	-0.27254382
73	0x3e7d4c3b	0.24736111
74	0x3c8b0071	0.016967984
75	0x38b3e410	8.577865e-05
76	0x3c1ec008	0.0096893385
77	0x3e7cf1c9	0.24701609
78	0xbd6f7833	-0.05846424
79	0x3dddf9e4	0.108386785
80	0x3e605c93	0.21910314
81	0xbe1e1319	-0.15436973
82	0x3e56013d	0.2089891
83	0xbf05da86	-0.52286565
84	0x3d56588f	0.05233055
85	0xbe68aef4	-0.2272299
86	0x3e9fe4a8	0.31229138
87	0x3dc2f68c	0.09519681
88	0x3c023450	0.007947043
89	0xbe93ed6e	-0.28892082
90	0xbde00ad3	-0.109395646
91	0xbe0ac86e	-0.1355302
92	0xbda899dc	-0.08232471
93	0xbe6ff9d8	-0.23435152
94	0x3dc3fbde	0.09569524
95	0x3dd19d05	0.10235027
96	0x3d7e8a84	0.062143818
97	0x3e0830eb	0.1329991
98	0x3e2e5108	0.17023098
99	0xbe96ff71	-0.2949176
100	0x3e173fb5	0.14770396
101	0xbe3b2aa9	-0.18277992
102	0x3d006969	0.031350527
103	0x3ea3390a	0.31879455
104	0x3e8a5e14	0.270249
105	0x3f057933	0.5213806
106	0x3d1c7667	0.038198855
107	0xbd81c70e	-0.06336795
108	0xbd1a2514	-0.037633017
109	0xbd8812ce	-0.06644212
110	0x3e7f9908	0.2496072
111	0xbda65e54	-0.081234604
112	0xbbc62400	-0.006046772
113	0x3ca321e5	0.019913623
114	0xbdb631fe	-0.08896254
115	0xbe0342c2	-0.12818435
116	0xbbb9749b	-0.0056596524
117	0x3e3e05ae	0.18556854
118	0x3d911ef1	0.0708598
119	0xbd4ed61c	-0.05049716
120	0x3e4de38c	0.20106333
121	0xbdfa5c32	-0.12224616
122	0x3c2f977f	0.010717272
123	0xbcd85bdc	-0.02641099
124	0xbebf0e1a	-0.37315446
125	0x3e04653c	0.12929243
126	0xbe82a8ee	-0.25519508
127	0x3cf0dd9f	0.029402552

l4.bias f4 [2]
0	0xbef72815	-0.48272768
1	0x3e99ffc8	0.30077958
