Formal Experiments/SZ50/DoubleDQN-QT-LSTM-BaseLine/ModelParam/2024-03-11/64target-network-lstmNoguiadance.pth (torch, 231597 bytes, 12 tensors)

lstm.weight_ih_l0 f4 [256, 10]
0.069768414 -0.012832836 0.057640776 0.17259401 0.02554626 0.018756285 0.13545914 -0.12601076
-0.18666077 -0.08230141 -0.028983273 0.07988725 0.05727902 -0.10195654 0.12212718 0.05753322
-0.105294354 0.6143847 -0.23974282 -0.26686782 0.0057252343 0.11314696 0.12695998 0.0068915244
0.07670899 -0.4888 -0.40708447 0.073840916 0.0032486313 -0.06963971 -0.06757414 0.012470513
-0.08174567 -0.09989416 -0.056601975 0.5006524 0.4413028 0.20451961 -0.09834146 0.27350983
-0.07502441 0.022091083 0.03375705 0.036629163 -0.111036584 0.30231065 -0.110913 -0.13013485
0.044646643 -0.09990799 -0.13598737 -0.160962 0.08851349 -0.15586302 -0.16242482 0.08545133
0.10300265 -0.0006450631 -0.47793558 -0.014683055 0.029276438 -0.010240736 0.06878281 -0.08656795
-0.090789214 0.45833254 -0.17199174 -0.16623592 -0.6563842 -0.22865176 0.00010232877 0.105206974
0.050675213 -0.06460379 -0.010545522 -0.11127534 -0.08012404 0.1845072 -0.27217764 0.017652782
0.07581297 0.117898315 0.14045368 0.025002938 0.06314946 0.71070576 0.9223753 0.04807744
0.64768505 0.23409392 -0.12681893 0.02794504 0.08500613 0.02855905 -0.010042476 0.30617002
0.15254536 -0.007648202 0.10024451 0.13741165 -0.044303227 -0.13646735 -0.005271391 -0.07744262
0.0058937017 -0.90133584 -0.6495848 0.03917082 0.5170894 0.38228887 -0.17635639 0.07772454
0.023645908 -0.09989925 -0.1262818 0.2806046 0.16552223 -0.20152499 -0.2308343 -0.13705136
-0.08888444 0.11435839 -0.0632392 0.13382336 0.08899366 0.08916153 0.07601061 0.10738324
-0.58756644 -0.21988042 -0.065286055 0.014112428 -0.083225764 -0.041112423 -0.1447655 -0.06838462
0.2406279 0.052101433 -0.061953522 -0.16576086 -0.43250608 0.06353175 -0.08109446 -0.23084311
-0.23331764 0.24905038 -0.52070546 -0.4282475 -0.33546406 -0.22140996 0.058639932 -0.026916746
0.074439116 0.04681671 -0.07684751 0.42432216 0.3590718 -0.040858526 -0.35359952 -0.09694307
0.04314638 0.20677128 0.053660292 0.18276638 0.18797241 0.22909175 0.45178396 -0.04682126
0.78451014 0.21091084 -0.015601568 -0.21212164 -0.1332463 -0.07384381 -0.1830629 -0.32491887
-0.5463529 0.7787468 -0.0070038186 0.08358983 -0.081458375 0.003729265 -0.14547446 0.09991316
0.05993965 -0.46260995 -0.643538 0.0046568504 -0.30304298 -0.014216826 -0.05380447 0.23110713
-0.00039260188 0.17594875 0.05740989 -0.39457443 -0.6780021 -0.5102002 -0.26760772 -0.12872916
0.062807985 -0.045450877 0.0067207487 -0.016886013 -0.12086864 0.17041622 0.32321203 0.073885724
-0.38324004 -0.33363822 -0.07403782 0.20257299 0.026221367 0.011325475 0.07567676 0.5583509
0.58773756 -0.14117916 -0.29171732 -0.59387004 -0.23963004 0.34823808 -0.15056603 0.24698974
0.06512037 -0.27882197 -0.5488997 -0.6782021 -0.2568069 -0.32711 0.05999073 0.06606514
0.048311558 -0.10304089 -0.09552279 0.10696206 0.06764565 0.10141268 0.016688826 -0.07565423
0.09433667 0.07192875 0.031947814 0.051777087 0.013005688 0.31242275 0.52227753 0.081111446
0.14354846 -0.10553954 0.051589016 0.07590166 -0.14003411 0.25128785 0.1351414 -1.1805886
00000000: bee2 8e3d d140 52bc bc18 6c3d 7cbc 303e
00000010: 6446 d13c c8a6 993c cdb5 0a3e f708 01be
00000020: 0024 3fbe a48d a8bd 546e edbc ed9b a33d
00000030: 689d 6a3d 97ce d0bd d11d fa3d f4a7 6b3d
00000040: 91a4 d7bd 5148 1d3f 247f 75be e6a2 88be
00000050: bf9a bb3b 98b9 e73d cc01 023e 4cd2 e13b
00000060: 9a19 9d3d fe43 fabe 606d d0be e839 973d
00000070: fde6 543b 449f 8ebd 5064 8abd 1f51 4c3c
00000080: 466a a7bd 4f95 ccbd 79d7 67bd c12a 003f
00000090: 71f2 e13e 976d 513e 3f67 c9bd 7b09 8c3e
000000a0: 66a6 99bd 5cf8 b43c d544 0a3d 7608 163d
000000b0: 2667 e3bd 76c8 9a3e 5b26 e3bd 1242 05be
000000c0: 66df 363d 8f9c ccbd 4640 0bbe 39d3 24be
000000d0: 9046 b53d 8e9a 1fbe b152 26be 1b01 af3d
000000e0: 0ef3 d23d 7419 29ba f9b3 f4be 3291 70bc
000000f0: 24d5 ef3c c3c8 27bc 00de 8c3d 8a4a b1bd
00000100: b2ef b9bd 90aa ea3e 9a1e 30be c039 2abe
00000110: cc08 28bf b023 6abe 5799 d638 c176 d73d
00000120: d090 4f3d fe4e 84bd 20c7 2cbc 53e4 e3bd
00000130: 1318 a4bd 75ef 3c3e de5a 8bbe 919c 903c
00000140: d543 9b3d ac74 f13d 17d3 0f3e f6d2 cc3c
00000150: 8154 813d d0f0 353f ca20 6c3f daec 443d
00000160: b0ce 253f 51b6 6f3e d2dc 01be ffec e43c
00000170: b217 ae3d abf4 e93c 3289 24bc 51c2 9c3e
00000180: da34 1c3e c59d fabb fe4c cd3d a4b5 0c3e
00000190: 4d77 35bd 19be 0bbe a2bb acbb 3d9a 9ebd
000001a0: f41f c13b f2bd 66bf 304b 26bf 9571 203d
000001b0: f95f 043f 5ebb c33e c596 34be 0b2e 9f3d
000001c0: 10b5 c13c fa97 ccbd 0450 01be 68ab 8f3e
000001d0: a97e 293e 915c 4ebe d45f 6cbe 3157 0cbe
000001e0: 0c09 b6bd bb34 ea3d 8e83 81bd fe08 093e
000001f0: 4f42 b63d 529a b63d 73ab 9b3d beeb db3d
00000200: c16a 16bf 5528 61be b2b4 85bd d037 673c
00000210: 4572 aabd 8065 28bd 683d 14be 3c0d 8cbd
00000220: 2967 763e 5068 553d fac2 7dbd 37bd 29be
00000230: 7071 ddbe ef1c 823d da14 a6bd 2362 6cbe
00000240: d2ea 6ebe 1007 7f3e f44c 05bf 4243 dbbe
00000250: f2c1 abbe 4bb9 62be 6d30 703d 8280 dcbc
00000260: 8973 983d e1c2 3f3d 3a62 9dbd c140 d93e
00000270: 42d8 b73e 455b 27bd ff0a b5be 178a c6bd
00000280: 42ba 303d dabb 533e e5ca 5b3d 1c27 3b3e
00000290: d77b 403e 0797 6a3e 3a50 e73e a6c7 3fbd
000002a0: a8d5 483f 03f9 573e b89d 7fbc 6a36 59be
000002b0: b871 08be 6c3b 97bd d774 3bbe c45b a6be
000002c0: c9dd 0bbf f35b 473f 4a80 e5bb 2531 ab3d
000002d0: a6d3 a6bd af66 743b 42f7 14be 459f cc3d
000002e0: 4783 753d 36db ecbe e8be 24bf 7e98 983b
000002f0: 7328 9bbe b1ed 68bc 1362 5cbd 59a7 6c3e
00000300: 22d6 cdb9 e92b 343e a226 6b3d a905 cabe
00000310: 8c91 2dbf 7b9c 02bf e103 89be 94d1 03be
00000320: 79a1 803d b32a 3abd ba39 dc3b 8954 8abc
00000330: fa89 f7bd 9781 2e3e 0c7c a53e 6651 973d
00000340: 0a38 c4be a1d2 aabe 24a1 97bd 4b6f 4f3e
00000350: 31ce d63c 7c8e 393c 6bfc 9a3d 16f0 0e3f
00000360: f875 163f 4591 10be f95b 95be de07 18bf
00000370: 9461 75be 434c b23e fb2d 1abe e1ea 7c3e
00000380: d45d 853d c1c1 8ebe b184 0cbf a79e 2dbf
00000390: 327c 83be f67a a7be d7b8 753d 294d 873d
000003a0: 57e2 453d 1a07 d3bd 74a1 c3bd ed0e db3d
000003b0: cd89 8a3d 73b1 cf3d 01b7 883c 9bf0 9abd
000003c0: 9633 c13d 614f 933d b6db 023d 3614 543d
000003d0: cf15 553c e0f5 9f3e fbb3 053f c21d a63d
000003e0: 5efe 123e 1d25 d8bd 014f 533d 5472 9b3d
000003f0: 1a65 0fbe cda8 803e 8262 0a3e 871d 97bf

lstm.weight_hh_l0 f4 [256, 64]
0.1807635 0.08037523 0.12682016 0.17929187 -0.2487101 -0.19573778 -0.14554708 -0.015208014
-0.14255364 -0.2783146 -0.2877941 0.22684555 -0.06515409 -0.051063947 -0.045927245 0.06509665
0.08154478 0.016940722 0.07465346 0.28167185 -0.04296516 -0.10452097 0.009674749 -0.20224813
-0.27127752 -0.21597356 0.15528594 -0.10040875 0.21603094 -0.15324643 -0.12930684 -0.12277876
-0.1786394 0.0313145 0.11580601 -0.06754057 -0.053353876 -0.22975068 -0.07608513 0.13288517
-0.115318 -0.103242956 0.08177288 0.27056766 0.19865012 0.068217404 -0.27925345 -0.03282037
-0.64806634 -0.20954579 -0.15274017 0.13829622 0.16343299 -0.15632698 -0.13949893 -0.020199891
-0.07780938 -0.1624554 -0.26227027 0.12473213 -0.30057046 -0.21829772 0.14936058 -0.014880728
-0.06264106 0.11150963 0.022523023 1.0586476 -0.4345157 -0.42337856 -0.44385406 0.047811463
-0.6602921 -0.353282 -0.26269582 -0.10664837 0.21245502 -0.03374356 -0.04781005 -0.26670468
-0.34350318 0.105255164 0.024621164 0.17706946 -0.09066596 -0.093215555 -0.5905906 -0.28556204
-0.2540312 -0.120353006 0.39586937 -0.88939816 0.6632269 0.24438533 0.63605374 0.08155614
-0.4188594 0.41456112 0.21632656 0.7683205 0.009019825 -0.100586094 0.75986207 0.55454165
0.23808627 0.20705101 0.5230084 -0.11618506 0.123591624 0.108983405 -0.33105817 0.17540845
-0.12144505 0.9241835 -0.0585476 -0.21441148 0.09461653 0.1690904 0.0876156 0.3835913
0.10983846 -0.4995218 -0.08152423 0.03860571 -0.34195253 -0.20697446 0.62175703 0.11731943
0.06108578 0.24841636 0.00087019656 0.13213012 0.30379996 0.27514774 0.04639311 -0.037731487
-0.22677928 0.3838474 -0.13518505 0.33857667 0.23473214 0.054179758 -0.04918674 -0.069285005
0.0729357 0.05089014 -0.04737489 -0.34159696 0.0058597685 -0.26756656 -0.19405909 0.3067104
0.32233065 0.120708585 -0.29272133 -0.07925474 -0.31520733 0.22348204 -0.2542594 -0.03987521
0.008117133 0.034668937 0.37352076 0.100949705 0.1540172 0.3142634 -0.044252593 0.1983542
-0.18853277 0.08174614 -0.1901515 -0.06651125 0.06880177 0.073783726 0.11027563 -0.10358993
0.46401167 -0.041131802 0.09330465 -0.02998553 -0.3827565 -0.10726279 0.06863197 0.13526651
0.009657009 0.094962314 -0.16290234 -0.35360393 0.33490774 0.026869938 -0.092427246 0.1744123
0.0771052 0.59587127 -0.19727226 0.20038159 -0.21249771 -0.5652819 -0.36768037 -0.047622446
-0.3657104 -0.14235161 -0.08892572 0.06008347 0.10371773 -0.027974796 -0.019860754 -0.115096934
-0.027378326 1.0301679 0.3994161 0.09896003 -0.06724183 -0.020641841 0.26504987 -0.11933492
-0.12758772 0.61920375 0.4492914 -1.1454502 0.7353156 -0.14976178 0.62070125 -0.027359001
-0.11134996 0.012083155 0.49132395 0.25607812 -0.23751332 -0.43815342 0.2604748 0.41496152
0.48008344 -0.01567795 0.45006403 -0.29266047 0.093573235 0.15989421 0.6407084 0.22378132
-0.427817 0.6011067 -0.15110192 0.10542551 -0.61142397 0.1099313 -0.3917 -0.16562575
0.13102181 -0.5400356 -0.038036957 -0.6463064 0.11068887 -0.013530398 0.16566345 0.2579092
00000000: 111a 393e c59b a43d 25dd 013e 4a98 373e
00000010: dcad 7ebe 7c6f 48be 4b0a 15be 092b 79bc
00000020: 95f9 11be 407f 8ebe c059 93be 334a 683e
00000030: 826f 85bd 6e28 51bd 351e 3cbd 6451 853d
00000040: f300 a73d 45c7 8a3c eae3 983d 4b37 903e
00000050: 3cfc 2fbd 170f d6bd d782 1e3c 221a 4fbe
00000060: e3e4 8abe 2c28 5dbe 4703 1f3e 1aa3 cdbd
00000070: 3737 5d3e a2ec 1cbe 0369 04be 6e73 fbbd
00000080: 3fed 36be a243 003d b42b ed3d b652 8abd
00000090: 9889 5abd c343 6bbe 85d2 9bbd 0d13 083e
000000a0: d82b ecbd 0b71 d3bd 8a78 a73d d887 8a3e
000000b0: f06a 4b3e 91b5 8b3d 4ffa 8ebe a76e 06bd
000000c0: ade7 25bf 2c93 56be eb67 1cbe 869d 0d3e
000000d0: fa5a 273e 2e14 20be cfd8 0ebe 3e7a a5bc
000000e0: 865a 9fbd b55a 26be 4a48 86be 8f73 ff3d
000000f0: 5fe4 99be 7089 5fbe fbf1 183e 4cce 73bc
00000100: f549 80bd 295f e43d 3482 b83c c481 873f
00000110: d878 debe 13c5 d8be d740 e3be f4d5 433d
00000120: e708 29bf 61e1 b4be 1180 86be 766a dabd
00000130: cf8d 593e b036 0abd 79d4 43bd 848d 88be
00000140: a6df afbe 0590 d73d 53b2 c93c b251 353e
00000150: 13af b9bd cce7 bebd f230 17bf 3035 92be
00000160: 6110 82be a37b f6bd 64af ca3e 99af 63bf
00000170: 3dc9 293f 2640 7a3e 6bd4 223f e806 a73d
00000180: bd74 d6be 5b41 d43e b684 5d3e a7b0 443f
00000190: e3c7 133c 1500 cebd 5286 423f 71f6 0d3f
000001a0: e3cc 733e 2e05 543e e1e3 053f 6ff2 edbd
000001b0: 9b1d fd3d b132 df3d 7580 a9be 469e 333e
000001c0: 2fb8 f8bd 4a97 6c3f 9ccf 6fbd af8e 5bbe
000001d0: 50c6 c13d 0926 2d3e cf6f b33d 1466 c43e
000001e0: fdf2 e03d 52c1 ffbe 2df6 a6bd 0521 1e3d
000001f0: 6714 afbe 1df1 53be 782b 1f3f 2b45 f03d
00000200: 1535 7a3d dc60 7e3e e71d 643a 1e4d 073e
00000210: ab8b 9b3e 2ae0 8c3e b406 3e3d 558c 1abd
00000220: d438 68be a587 c43e f36d 0abe ec59 ad3e
00000230: 9f5d 703e 98eb 5d3d 0978 49bd 4ce5 8dbd
00000240: 505f 953d 2e72 503d 2c0c 42bd cce5 aebe
00000250: 4d03 c03b 7cfe 88be 6db7 46be 2509 9d3e
00000260: 8608 a53e 1036 f73d 92df 95be 4f50 a2bd
00000270: db62 a1be 7ad8 643e 4a2e 82be 3054 23bd
00000280: b9fd 043c 0401 0e3d 1d3e bf3e b8be ce3d
00000290: afb6 1d3e 22e7 a03e 3542 35bd 5d1d 4b3e
000002a0: bc0e 41be 856a a73d 13b7 42be 0d37 88bd
000002b0: f1e7 8c3d ec1b 973d 31d8 e13d f526 d4bd
000002c0: f092 ed3e d279 28bd 8216 bf3d 37a4 f5bc
000002d0: a9f8 c3be 98ac dbbd eb8e 8c3d 4e83 0a3e
000002e0: 6e38 1e3c 9a7b c23d dfcf 26be 930b b5be
000002f0: 0779 ab3e 581e dc3c 7f4a bdbd 2399 323e
00000300: 55e9 9d3d 058b 183f bd01 4abe d530 4d3e
00000310: 0099 59be 51b6 10bf 9a40 bcbe c10f 43bd
00000320: 653e bbbe 9fc4 11be b01e b6bd 161a 763d
00000330: f669 d43d 662b e5bc 05b3 a2bc f1b7 ebbd
00000340: 8348 e0bc 8bdc 833f 4480 cc3e 8eab ca3d
00000350: 16b6 89bd 1419 a9bc 9eb4 873e de65 f4bd
00000360: 5ba6 02be 2384 1e3f 8609 e63e 1d9e 92bf
00000370: a53d 3c3f 275b 19be 47e6 1e3f fc1f e0bc
00000380: 730b e4bd 6df8 453c d08e fb3e ac1c 833e
00000390: b136 73be a555 e0be f45c 853e d675 d43e
000003a0: 7fcd f53e 0b6f 80bc cb6e e63e 98d7 95be
000003b0: 53a3 bf3d 4fbb 233e 7705 243f ee26 653e
000003c0: d40a dbbe 21e2 193f 76ba 1abe 54e9 d73d
000003d0: 4886 1cbf a923 e13d e78c c8be cc99 29be
000003e0: 952a 063e c63f 0abf a4cc 1bbd 5674 25bf
000003f0: d9b0 e23d 9aae 5dbc aea3 293e ad0c 843e

lstm.bias_ih_l0 f4 [256]
-0.2769483 -0.4792796 0.16107452 -0.0031012327 0.005878126 -0.22658074 -0.555405 -0.10975824
0.60321146 -0.006462935 0.45098197 -0.28658175 -0.5156118 -0.10551446 -0.3003082 -0.20289229
0.3949117 -0.4171918 -0.36238888 -0.32551956 -0.34721217 -0.2838153 -0.13588902 0.026963772
0.13700067 0.16139533 -0.41465592 0.25848806 -0.02283976 0.4544049 -0.2728069 -0.36417568
0.14213058 0.18360145 -0.22957984 -0.12280417 -0.4494415 -0.21186373 0.01819906 -0.08716684
-0.14859852 0.05918164 0.2155809 0.14016736 -0.14612424 -0.31569007 -0.06953711 -0.4889028
0.051778547 -0.42495278 0.264162 -0.4645473 -0.7154755 0.013947304 -0.17464672 -0.25095472
-0.4688969 -0.44913924 0.014412622 0.5892155 -0.38827822 -0.33578163 -0.05805466 0.5099551
-0.44306585 -0.004251861 -0.3485028 0.023425704 0.1513891 -0.37043893 -0.30260015 -0.120436326
0.18098307 0.05039384 -0.40978593 -0.061742116 -0.18451214 -0.13624492 0.031262 -0.26859677
-0.03402786 -0.5802949 -0.09334184 -0.22023214 -0.4484081 -0.27241635 -0.062138155 0.08882142
-0.26659697 -0.7473882 -0.18488522 0.52846885 0.12119366 0.27836278 -0.059582625 -0.064012975
0.1568879 0.016794078 -0.23340653 0.12406284 -0.2916382 -0.20947693 -0.13195778 -0.3299873
-0.47569385 -0.16442466 0.10453514 -0.20850869 -0.30214667 -0.13959327 -0.0034807618 -0.402577
0.43349594 -0.104332425 0.20762794 -0.010769431 -0.75380856 0.21121235 0.012885224 -0.26127335
-0.24030684 -0.1077145 -0.3039744 -0.896152 -0.48665226 -0.2231411 -0.20259479 0.5440328
-0.23317587 -0.016276492 -0.46852267 -0.35379007 0.050828062 0.2357811 -0.035685115 0.18115768
0.33946446 0.10795658 0.4137177 0.2586928 0.18303414 0.188033 -0.11113068 -0.116766036
0.43832916 -0.017740719 0.099325515 -0.115160845 0.25350463 0.09430337 0.10026791 0.056311768
0.2247903 -0.043244973 0.023204248 0.2882491 -0.15817462 -0.25931674 -0.05350907 0.025065595
0.24384275 -0.07989568 -0.09397846 0.23860607 -0.16535473 -0.30361485 -0.1116849 -0.1528603
-0.17385377 0.2262552 -0.14309439 -0.20304461 -0.06156575 -0.21281232 0.13750643 0.12173589
-0.016836768 -0.22708015 0.21601805 0.04427208 -0.09082633 0.12064119 -0.20093967 -0.051541578
0.034315847 0.10809659 0.17634451 -0.60737616 -0.08364985 0.1374261 -0.023124281 0.4130881
-0.36568323 -0.49058527 -0.28881973 0.073567 0.21244104 -0.34954017 -0.6127977 -0.2699186
-0.27664465 -0.62824005 0.5586541 -0.21395317 -0.4549612 -0.8589408 -0.24736015 -0.20609887
0.67860866 -0.43114626 -0.40042073 -0.27095655 -0.25963315 -0.36322507 -0.24999821 -0.03392275
-0.4879571 -0.42531794 -0.32441705 0.64538616 0.47562566 -0.25664535 -0.41222808 -0.27164918
0.27888268 -0.5873327 -0.33446437 -0.22034438 -0.36781368 -0.42421678 -0.11562915 -0.13905372
-0.52169585 -0.254516 -0.37321758 -0.6415896 -0.405464 -0.25497475 0.10811688 -0.56965524
-0.737308 -0.32846883 -0.4131735 -0.46148616 -0.6157119 -0.5176731 -0.39547437 -0.38219994
-0.4442076 -0.41260758 -0.30997062 0.5426205 -0.4435616 -0.50461686 -0.6731698 -0.3555878
00000000: 2bcc 8dbe 2364 f5be b8f0 243e 0d3e 4bbb
00000010: 4b9d c03b c804 68be 062f 0ebf eec8 e0bd
00000020: 116c 1a3f 07c7 d3bb 1ce7 e63e d8ba 92be
00000030: 23ff 03bf f717 d8bd ffc1 99be ffc2 4fbe
00000040: de31 ca3e 2a9a d5be 098b b9be 80aa a6be
00000050: cbc5 b1be 3d50 91be 7e26 0bbe 21e3 dc3c
00000060: e749 0c3e d144 253e c84d d4be 8c58 843e
00000070: 731a bbbc c2a7 e83e 59ad 8bbe 3c75 babe
00000080: ae8a 113e 0502 3c3e fa16 6bbe c180 fbbd
00000090: 321d e6be cef2 58be 3216 953c 8784 b2bd
000000a0: 362a 18be 7368 723d 3dc1 5c3e 0888 0f3e
000000b0: 98a1 15be 21a2 a1be 7969 8ebd 7851 fabe
000000c0: be15 543d 6993 d9be 3e40 873e 25d9 edbe
000000d0: 6729 37bf 3c83 643c 97d6 32be 237d 80be
000000e0: 4113 f0be 94f5 e5be eb22 6c3c d4d6 163f
000000f0: 67cc c6be 92eb abbe b9ca 6dbd 6b8c 023f
00000100: 87d9 e2be 3253 8bbb f66e b2be 43e7 bf3c
00000110: bf05 1b3e 2caa bdbe 68ee 9abe 52a7 f6bd
00000120: a053 393e c569 4e3d 76cf d1be 4de5 7cbd
00000130: c0f0 3cbe ca83 0bbe 950c 003d 8485 89be
00000140: cc60 0bbd 358e 14bf 022a bfbd 8984 61be
00000150: bf95 e5be 287a 8bbe 9484 7ebd 01e8 b53d
00000160: 667f 88be d554 3fbf 8d52 3dbe bc49 073f
00000170: 6234 f83d 9185 8e3e e90c 74bd 3c19 83bd
00000180: 39a7 203e bc93 893c 1f02 6fbe a914 fe3d
00000190: 9a51 95be 1f81 56be f11f 07be 18f4 a8be
000001a0: 258e f3be f05e 28be 8516 d63d 4d83 55be
000001b0: f8b2 9abe 8af1 0ebe 7e1d 64bb 931e cebe
000001c0: 2ef3 dd3e 3dac d5bd 6b9c 543e 4472 30bc
000001d0: 99f9 40bf 0d48 583e 8c1c 533c 9fc5 85be
000001e0: ff12 76be 6b99 dcbd 88a2 9bbe 386a 65bf
000001f0: 7c2a f9be 1a7f 64be 0275 4fbe bc45 0b3f
00000200: a8c5 6ebe 4756 85bc 34e2 efbe f923 b5be
00000210: 1631 503d 9a70 713e 8e2a 12bd 6681 393e
00000220: 49ce ad3e 5718 dd3d ced2 d33e 6273 843e
00000230: 4d6d 3b3e b98b 403e 7b98 e3bd 0823 efbd
00000240: ae6c e03e fc54 91bc 2d6b cb3d 73d9 ebbd
00000250: 5ccb 813e 2022 c13d 4359 cd3d 2ba7 663d
00000260: 6e2f 663e a421 31bd d616 be3c 6395 933e
00000270: 87f8 21be 2ac5 84be 542c 5bbd 5d56 cd3c
00000280: eab1 793e 59a0 a3bd c777 c0bd 2655 743e
00000290: c052 29be 6873 9bbe 0ebb e4bd 6987 1cbe
000002a0: b906 32be 71af 673e 5687 12be edea 4fbe
000002b0: 5e2c 7cbd 79eb 59be 7cce 0c3e ab50 f93d
000002c0: 43ed 89bc b387 68be d633 5d3e a456 353d
000002d0: 2803 babd ba12 f73d 21c3 4dbe 431d 53bd
000002e0: c68e 0c3d bf61 dd3d a893 343e 017d 1bbf
000002f0: 9d50 abbd 6db9 0c3e 226f bdbc 4980 d33e
00000300: d53a bbbe fe2d fbbe 2ee0 93be 4caa 963d
00000310: 258a 593e eef6 b2be 4fe0 1cbf c532 8abe
00000320: 5ea4 8dbe 57d4 20bf f503 0f3f 8a16 5bbe
00000330: adf0 e8be 8be3 5bbf fb4b 7dbe 950b 53be
00000340: 4cb9 2d3f 34bf dcbe f203 cdbe d1ba 8abe
00000350: a3ee 84be a3f8 b9be 88ff 7fbe 95f2 0abd
00000360: 83d5 f9be 46c3 d9be fe19 a6be 0738 253f
00000370: 3585 f33e 0567 83be 8f0f d3be 9a15 8bbe
00000380: b6c9 8e3e 705b 16bf ea3e abbe f5a1 61be
00000390: 1352 bcbe f132 d9be face ecbd 1964 0ebe
000003a0: dc8d 05bf ec4f 82be 6016 bfbe 373f 24bf
000003b0: fa98 cfbe 0d8c 82be 626c dd3d edd4 11bf
000003c0: 38c0 3cbf 112d a8be 7a8b d3be ea47 ecbe
000003d0: 4c9f 1dbf 3986 04bf 9e7b cabe b6af c3be
000003e0: 2e6f e3be 4d41 d3be 78b4 9ebe 2de9 0a3f
000003f0: 821a e3be 922e 01bf db54 2cbf 9b0f b6be

lstm.bias_hh_l0 f4 [256]
-0.15697911 -0.40307137 0.26309052 0.058743767 0.1198986 -0.31564742 -0.4110971 -0.2786361
0.7219535 0.12715092 0.63289887 -0.4375361 -0.42061266 -0.22600892 -0.22961727 -0.27691132
0.53177094 -0.3316236 -0.22903267 -0.28927088 -0.23848645 -0.42331085 -0.02660637 -0.040499244
0.092906214 0.1953424 -0.4086945 0.20313725 -0.018900173 0.44523314 -0.39154476 -0.20004334
0.15293255 0.14446001 -0.18796992 0.006580332 -0.40079993 -0.26192424 -0.063301206 -0.22167984
-0.097159915 -0.06822871 0.1549807 0.15717472 -0.19051082 -0.23260303 -0.06319588 -0.45141461
0.048117615 -0.3316316 0.30827442 -0.3048294 -0.47348094 0.21739903 -0.14113493 -0.3117364
-0.33641943 -0.35984367 0.034430686 0.50069594 -0.37174004 -0.1712522 -0.14850123 0.52493334
-0.35281155 0.0012793591 -0.3025002 -0.1290838 0.046935424 -0.2779548 -0.39854887 -0.14609866
0.14620891 0.2219273 -0.60332805 -0.11533177 -0.2536548 -0.24518014 0.022306092 -0.35129154
-0.039115287 -0.63145 -0.028233137 -0.41846687 -0.37380415 -0.22368105 -0.07467377 0.16939855
-0.16582376 -0.6366867 -0.27030995 0.56922203 0.049518187 0.31029207 -0.019748908 -0.14904995
0.18508269 0.086099036 -0.18270154 -0.12432746 -0.16530247 -0.34014666 -0.099642254 -0.2501248
-0.42855215 -0.07201627 0.2587754 -0.30222213 -0.34377968 -0.23804462 0.19646923 -0.3048893
0.37571853 -0.15001893 0.19552335 0.05778773 -0.58544916 0.14216916 -0.0067852065 -0.28088707
-0.28517658 -0.13976529 -0.31371278 -0.8537157 -0.48735076 -0.34745845 -0.20136356 0.6640337
-0.3492384 -0.06519595 -0.33884814 -0.2651503 -0.023576582 0.23141398 -0.14193942 0.11788395
0.3101491 0.14401828 0.32329062 0.2190055 0.09546611 0.1634072 0.09475943 0.001968308
0.4062837 0.05407423 0.18681061 -0.26471236 0.22057597 0.07678125 0.11397901 -0.0049683447
0.30711305 -0.1483213 -0.066821724 0.32519516 -0.06815418 -0.41514978 -0.022018477 0.025846103
0.20256898 -0.05164415 -0.15141033 0.120433316 -0.2658153 -0.22186211 -0.20122707 -0.20393741
-0.14118981 0.08904322 -0.34018183 -0.193537 -0.095677294 -0.1532766 0.14263949 0.088457756
0.10145409 -0.10152551 0.32835683 0.13374467 -0.0900295 0.059700165 -0.009545369 -0.13382459
-0.10286328 -0.017310286 0.10195762 -0.614888 -0.03285411 0.008938463 0.047955517 0.4247308
-0.4442455 -0.53379756 -0.35926557 -0.11491645 0.38719723 -0.35610944 -0.61024916 -0.1827187
-0.14725527 -0.571467 0.5386836 -0.19248112 -0.48817435 -0.83244723 -0.10585947 -0.12372681
0.7517113 -0.2874456 -0.22587644 -0.21478112 -0.35061595 -0.21203452 -0.12252158 -0.08923931
-0.44479084 -0.41804257 -0.27112833 0.5560256 0.545347 -0.16362964 -0.43270284 -0.21287285
0.1875674 -0.47563532 -0.16466218 -0.31626165 -0.3956211 -0.41776425 -0.09304288 -0.10181287
-0.48847926 -0.32066277 -0.36960313 -0.71244735 -0.28887787 -0.24864686 0.070514224 -0.5551778
-0.8502841 -0.48890752 -0.34446046 -0.43892545 -0.72423035 -0.51765543 -0.5448226 -0.38534358
-0.31870353 -0.25759408 -0.48535636 0.43987796 -0.48981473 -0.3991464 -0.6537759 -0.25860012
00000000: 22bf 20be 5f5f cebe cdb3 863e 4e9d 703d
00000010: 668d f53d 8a9c a1be 527b d2be 64a9 8ebe
00000020: f2d1 383f da33 023e a905 223f bb04 e0be
00000030: 8b5a d7be e26e 67be ca20 6bbe 52c7 8dbe
00000040: 2422 083f 92ca a9be 8a87 6abe 501b 94be
00000050: cb35 74be 33bc d8be 9af5 d9bc 89e2 25bd
00000060: 9d45 be3d d707 483e 6840 d1be 3603 503e
00000070: 89d4 9abc 99f5 e33e 8e78 c8be 29d8 4cbe
00000080: 5a9a 1c3e 53ed 133e 307b 40be d39f d73b
00000090: a635 cdbe ef1a 86be 10a4 81bd 0a00 63be
000000a0: c7fb c6bd 7ebb 8bbd 43b3 1e3e 69f2 203e
000000b0: 4515 43be 7d2f 6ebe d76c 81bd d11f e7be
000000c0: fa16 453d 9ecb a9be 25d6 9d3e 9912 9cbe
000000d0: 186c f2be da9d 5e3e ad85 10be ea9b 9fbe
000000e0: 2b3f acbe 6e3d b8be 3107 0d3d 9c2d 003f
000000f0: b654 bebe bd5c 2fbe b510 18be 0862 063f
00000100: b7a3 b4be 2bb0 a73a 4ee1 9abe 8b2e 04be
00000110: 5c3f 403d 1750 8ebe 990e ccbe e39a 15be
00000120: cab7 153e e940 633e b573 1abf 1033 ecbd
00000130: 0bdf 81be 8110 7bbe 44bb b63c 7cdc b3be
00000140: 5a37 20bd b5a6 21bf 2e49 e7bc 4a41 d6be
00000150: 4263 bfbe a50c 65be 90ee 98bd d076 2d3e
00000160: b4cd 29be e6fd 22bf 1166 8abe 89b8 113f
00000170: 95d3 4a3d 9ade 9e3e 76c8 a1bc 8da0 18be
00000180: 5186 3d3e b154 b03d 1d16 3bbe 659f febd
00000190: 0d45 29be b427 aebe 3d11 ccbd 5c10 80be
000001a0: 306b dbbe 447d 93bd 367e 843e dcbc 9abe
000001b0: e403 b0be f8c1 73be 3b2f 493e 731a 9cbe
000001c0: 2e5e c03e 909e 19be 4637 483e d4b2 6c3d
000001d0: ffdf 15bf cb94 113e 7056 debb 6ed0 8fbe
000001e0: aa02 92be a21e 0fbe f69e a0be 1d8d 5abf
000001f0: 0a86 f9be 13e6 b1be 4032 4ebe 1dfe 293f
00000200: 60cf b2be 7485 85bd 817d adbe c8c1 87be
00000210: ad23 c1bc c9f7 6c3e 9158 11be 246d f13d
00000220: ddcb 9e3e 8779 133e 5986 a53e fa42 603e
00000230: bc83 c33d 3854 273e 3b11 c23d bafe 003b
00000240: 6b04 d03e f17c 5d3d 484b 3f3e 6188 87be
00000250: abde 613e 7d3f 9d3d d46d e93d 7fcd a2bb
00000260: ec3d 9d3e 8ae1 17be d4d9 88bd fb7f a63e
00000270: 6b94 8bbd 838e d4be 1860 b4bc 35bb d33c
00000280: 3e6e 4f3e d188 53bd 4f0b 1bbe bea5 f63d
00000290: f118 88be d22f 63be 780e 4ebe f8d4 50be
000002a0: 1094 10be 4b5c b63d 502c aebe 902e 46be
000002b0: 75f2 c3bd 8bf4 1cbe 1610 123e 5729 b53d
000002c0: 29c7 cf3d 9bec cfbd 631e a83e 5df4 083e
000002d0: 6361 b8bd 2988 743d 2e64 1cbc 5009 09be
000002e0: fca9 d2bd 4dce 8dbc 28cf d03d 4d69 1dbf
000002f0: 0892 06bd a272 123c 016d 443d 5176 d93e
00000300: 2574 e3be f5a6 08bf a8f1 b7be 5159 ebbd
00000310: b73e c63e fa53 b6be 4a39 1cbf 9c1a 3bbe
00000320: 16ca 16be a94b 12bf 2be7 093f c519 45be
00000330: fdf1 f9be 431b 55bf dacc d8bd 7b64 fdbd
00000340: 2770 403f 122c 93be 274c 67be 95ef 5bbe
00000350: ef83 b3be 941f 59be 98ec fabd 19c3 b6bd
00000360: a0bb e3be ad09 d6be 55d1 8abe b257 0e3f
00000370: dc9b 0b3f 878e 27be 3a8b ddbe 57fb 59be
00000380: ab11 403e 7986 f3be 349d 28be 0ced a1be
00000390: d98e cabe 32e5 d5be 448d bebd 4483 d0bd
000003a0: f419 fabe e92d a4be 9f3c bdbe f362 36bf
000003b0: cde7 93be 489d 7ebe c369 903d 2220 0ebf
000003c0: 38ac 59bf 1652 fabe 1f5d b0be d6ba e0be
000003d0: 2967 39bf 1185 04bf 7e79 0bbf c14b c5be
000003e0: 1c2d a3be 5fe3 83be a180 f8be af37 e13e
000003f0: ffc8 fabe eb5c ccbe db5d 27bf 3c67 84be

lstm.weight_ih_l1 f4 [256, 64]
0.2253926 0.13090254 -0.34472454 -0.2580227 0.106022105 -0.5754203 -0.49515224 0.13939923
0.44928184 0.06118128 0.5875908 0.06027245 0.22125068 -0.614689 -0.11743349 -0.085271046
0.5264791 0.3055134 0.4783357 -0.2487582 -0.06885808 0.3306464 -0.030615117 0.48445007
0.061863333 0.06681084 0.2861962 -0.078987114 -0.18679038 -0.49156433 0.24270177 0.33408394
0.43370447 -0.41571465 0.13130364 0.25435647 -0.2769022 -0.5449676 0.076149926 -0.07935878
-0.18135127 0.015289222 0.016567156 -0.34998724 -0.3541114 -0.21470149 0.7132681 -0.0493809
-0.7823708 0.39359292 0.13345627 0.15706845 -0.827756 0.7597996 0.31905863 -0.6654265
-0.038819637 0.091495484 0.20952047 0.29680875 0.16269276 0.36953688 -0.22917719 0.4301382
-0.07581941 0.17067993 0.05310343 0.097031526 -0.54978544 0.053573545 -0.1660633 -0.044439033
-0.1761461 -0.3475137 -0.0767997 -0.018225249 0.09613963 0.0973731 -0.11662251 0.058283634
-0.71697867 -0.08095187 -0.097417764 0.32171643 -0.016755786 -0.13824846 0.056211907 -0.38210645
-0.19081417 0.09389628 -0.07926273 -1.5128759 0.98952705 0.21190774 0.020828864 -0.06972717
-0.4406678 0.3952508 0.015072043 -0.11194952 0.07405091 -0.08792055 -0.035206694 0.10027471
0.4412255 -0.103069395 0.045966182 0.14620142 0.21603951 0.10365003 -0.17690454 -0.095906794
-0.5359085 0.16337071 -0.14315853 -0.08866555 -0.22037424 -0.3125984 0.35386598 0.021382302
0.101415955 0.06450176 -0.04619617 -0.19707026 -0.0430169 -0.15942958 0.42071316 -0.2258962
-0.5596438 -0.1581174 0.26301748 0.13106635 0.6437946 -0.04425801 0.3217385 0.11342017
-0.3541974 0.47567987 -0.067983165 -0.2812462 -0.24494195 -0.3928517 -0.16311398 0.11349247
0.2300251 -0.12127239 -0.13652393 0.03945359 0.4170523 -0.2683771 -0.17763409 0.5509952
0.27655238 -0.65021896 -0.35981807 0.39339712 -0.17190629 0.18823445 0.110528566 0.044187654
0.33107576 -0.26948145 0.0409374 -0.05134815 0.043859474 0.2604585 0.13166216 -0.2798027
-0.58367234 0.14486074 -0.037208706 -0.21469247 -0.13478741 -0.07448726 -0.57537585 0.30844852
0.7760317 -0.09139156 -0.16842732 -0.22496586 0.35677832 0.4584729 0.14206804 0.048072502
0.15062056 0.30396557 0.40127766 -0.26281223 -0.48213133 0.5102957 -0.3405026 -0.19781786
-0.07808993 0.096456155 0.22917941 0.18240835 -0.29698873 0.039107062 -0.15225597 -0.2402989
-0.062403485 -0.18057914 -0.12834688 0.15693006 0.19478479 0.06035503 -0.013227076 -0.0851478
-0.15374398 -0.000473741 -0.023659512 0.04893019 0.013260071 -0.028590143 -0.23911679 -0.28410655
-0.156919 0.26327163 -0.117450625 -0.79711527 0.6973239 -0.016216403 0.16142419 -0.023873083
-0.31921053 0.24890028 0.117262535 0.09407258 0.006188109 0.22381501 -0.02805012 -0.113279626
0.071420945 -0.08675965 0.15551096 0.07684429 0.016563566 0.094900556 0.15016378 -0.00041929816
-0.26293144 0.22354616 -0.09093576 0.044401757 -0.52613354 -0.2375233 0.26738617 -0.12249089
0.057124615 -0.21290515 -0.13534099 -0.1322517 0.13328363 -0.25954908 0.29113516 -0.06184483
00000000: 51cd 663e 510b 063e bc7f b0be 8d1b 84be
00000010: 1e22 d93d bf4e 13bf 9884 fdbe acbe 0e3e
00000020: 4508 e63e 3999 7a3d 5a6c 163f 3fe0 763d
00000030: 8a8f 623e 425c 1dbf f880 f0bd 96a2 aebd
00000040: 56c7 063f 416c 9c3e 6be8 f43e 78ba 7ebe
00000050: 7705 8dbd 7c4a a93e 8ecc fabc d709 f83e
00000060: 6864 7d3d 1fd4 883d 4f88 923e ffc3 a1bd
00000070: fa45 3fbe 52ae fbbe d086 783e 0d0d ab3e
00000080: 830e de3e 8dd8 d4be 7674 063e 033b 823e
00000090: 20c6 8dbe ff82 0bbf 7ef4 9b3d db86 a2bd
000000a0: 26b4 39be a57f 7a3c d8b7 873c 8731 b3be
000000b0: 174e b5be b5da 5bbe bd98 363f a043 4abd
000000c0: 7449 48bf 0385 c93e c3a8 083e 8dd6 203e
000000d0: d1e7 53bf 3a82 423f a75b a33e 6459 2abf
000000e0: 5701 1fbd fc61 bb3d 898c 563e 51f7 973e
000000f0: ee98 263e f033 bd3e 6dad 6abe 133b dc3e
00000100: 3547 9bbd b8c6 2e3e fb82 593d 77b8 c63d
00000110: bdbe 0cbf ef6f 5b3d 7f0c 2abe b405 36bd
00000120: a55f 34be 51ed b1be 2949 9dbd 1e4d 95bc
00000130: dbe4 c43d 8c6b c73d c8d7 eebd d2ba 6e3d
00000140: ea8b 37bf 18ca a5bd f782 c7bd 04b8 a43e
00000150: 6e43 89bc 0191 0dbe 753e 663d 75a3 c3be
00000160: ca64 43be b14c c03d 8054 a2bd eba5 c1bf
00000170: a551 7d3f 58fe 583e 4ba1 aa3c 1ecd 8ebd
00000180: 369f e1be 505e ca3e bbf0 763c ca45 e5bd
00000190: 01a8 973d b00f b4bd e534 10bd d45c cd3d
000001a0: 4fe8 e13e 0c16 d3bd 0947 3c3d d3b5 153e
000001b0: 7639 5d3e 7846 d43d 7726 35be c86a c4bd
000001c0: 4d31 09bf a74a 273e 2698 12be 4996 b5bd
000001d0: c9a9 61be e60c a0be ec2d b53e f029 af3c
000001e0: 2bb3 cf3d 8019 843d 3238 3dbd c9cc 49be
000001f0: 7d32 30bd 8241 23be b767 d73e 5551 67be
00000200: d144 0fbf 87e9 21be 3aaa 863e 4236 063e
00000210: b9cf 243f e347 35bd e9ba a43e d648 e83d
00000220: 5d59 b5be 508c f33e c23a 8bbd 80ff 8fbe
00000230: 10d2 7abe dc23 c9be 5a07 27be bd6e e83d
00000240: b38b 6b3e a95d f8bd eecc 0bbe 169a 213d
00000250: e187 d53e b968 89be b6e5 35be 050e 0d3f
00000260: 4698 8d3e c074 26bf 133a b8be 596b c93e
00000270: 3408 30be 88c0 403e cd5c e23d 1dfe 343d
00000280: c382 a93e 79f9 89be faad 273d 7052 52bd
00000290: fea5 333d d15a 853e 72d2 063e 4d42 8fbe
000002a0: 8d6b 15bf 6056 143e 2868 18bd 58d8 5bbe
000002b0: b605 0abe c78c 98bd d54b 13bf f7ec 9d3e
000002c0: 03aa 463f 802b bbbd 3678 2cbe 735d 66be
000002d0: a6ab b63e f6bc ea3e 497a 113e ace7 443d
000002e0: 473c 1a3e 60a1 9b3e 4474 cd3e 538f 86be
000002f0: ebd9 f6be bda2 023f 5b56 aebe c490 4abe
00000300: 9ded 9fbd ce8a c53d 02ae 6a3e 41c9 3a3e
00000310: e80e 98be ba2e 203d fde8 1bbe ea10 76be
00000320: cc9a 7fbd bde9 38be 5d6d 03be 46b2 203e
00000330: aa75 473e d636 773d 61b6 58bc f861 aebd
00000340: 106f 1dbe 7160 f8b9 98d1 c1bc 066b 483d
00000350: c540 593c e035 eabc 08db 74be 6a76 91be
00000360: 60af 20be 8acb 863e f489 f0bd bf0f 4cbf
00000370: d283 323f 43d8 84bc 624c 253e 7c91 c3bc
00000380: 906f a3be b7df 7e3e 5727 f03d 20a9 c03d
00000390: 9fc5 ca3b c32f 653e 5ec9 e5bc 26ff e7bd
000003a0: 2545 923d 0baf b1bd 443e 1f3e 8a60 9d3d
000003b0: 51b0 873c 395b c23d 89c4 193e 3fd5 dbb9
000003c0: f39e 86be 49e9 643e 873c babd 9ede 353d
000003d0: b0b0 06bf 4f39 73be d7e6 883e 81dc fabd
000003e0: 80fb 693d cf03 5abe d496 0abe fd6c 07be
000003f0: 817b 083e 9ee3 84be ab0f 953e 0151 7dbd

lstm.weight_hh_l1 f4 [256, 64]
-0.3905301 -0.38539648 0.060260445 0.15232478 0.24996942 -0.26916504 0.12715499 0.4034047
0.18030909 -0.36379778 -0.29571867 -0.7305316 0.2802809 0.33989882 -0.5638178 0.057137832
0.7577372 0.26847193 0.028842337 -0.31270182 0.21734987 -0.1781583 -0.009280098 0.13929112
0.26260474 -0.013790002 -0.2553024 -0.71060085 0.13167736 0.11499641 0.12687103 -0.23702769
0.44453594 -0.08615351 0.3298719 0.1941289 0.25013843 0.13798173 0.275638 -0.39451548
0.059790775 -0.17248479 0.19155058 -0.37030536 -0.11457165 -0.51676035 -0.6721809 0.05846858
0.110251695 0.58007485 0.8058785 0.34896788 0.1091305 0.49004084 0.20913102 -0.18256837
0.48663703 -0.67371774 -0.27113897 0.84261477 -0.46014452 0.0887162 0.23421618 -0.036055684
-0.08221623 -0.004605056 0.27586925 -0.038443096 0.14959364 0.09182355 -0.09987507 -0.009638188
-0.04827201 -0.12165276 -0.055032715 -0.0146777965 0.06680808 0.09256616 -0.07898703 0.12817428
0.018923178 0.08198353 0.052966103 0.018772814 -0.04928947 0.029597158 0.05337109 -0.1362474
0.07715687 0.030434825 -0.18684192 0.18433794 0.1716565 -0.06452073 0.03155633 -0.0022969523
0.08171862 0.1310298 -0.045609344 -0.14747894 -0.093498886 0.15939955 0.068343006 -0.14863673
0.16360499 -0.18004313 0.063035905 -0.0031200363 0.09664023 -0.022185687 -0.043049783 -0.09672316
0.09300122 0.07407091 0.0345597 -0.036386482 -0.019620007 0.073096655 0.18067455 -0.16038106
0.006326766 -0.047000363 -0.156717 0.22551791 -0.12365124 -0.073753834 0.08979295 0.1339446
-0.041867916 0.1527746 0.45762745 -0.050793633 0.03699774 -0.16910793 -0.08350909 0.1763612
-0.21879335 -0.05057952 0.19240904 -0.27438375 0.171897 0.25534728 0.004686241 0.018819805
0.17931473 0.06498806 -0.121759385 0.013286544 -0.16062316 -0.14744727 -0.12117461 -0.13747896
0.26992983 -0.017486572 -0.26135737 -0.035417274 -0.17159197 -0.012046742 0.09343136 -0.1976257
0.024910683 0.09971397 -0.11340435 -0.011776035 0.04460554 0.15318915 -0.053420983 -0.08607955
0.2547384 -0.21509618 0.042327873 0.14252582 0.048956737 -0.0017466701 -0.17827706 -0.13047278
0.19104584 -0.00041399177 0.23853062 -0.08075863 0.061609305 -0.002034971 0.07362957 -0.085131034
-0.16041872 -0.0008292775 -0.1975535 0.10737569 -0.14346337 0.2023869 -0.15261553 -0.023081526
0.10573163 -0.011228161 0.25096366 0.0017287775 0.12188819 0.015602234 0.023201725 0.16613331
-0.28421712 -0.14448416 -0.19064468 -0.18450087 -0.19115528 0.152247 0.11181931 0.1207869
0.23573537 0.1549352 0.077907495 0.0020942122 -0.121642195 0.101391524 0.03962762 0.15756366
0.06759002 -0.060791284 -0.075068034 0.119539246 0.17359653 -0.061682783 0.21393149 0.01168857
0.058108445 0.07145902 0.032580763 0.02057833 -0.083509944 0.11272945 -0.08270887 -0.15526551
0.3174597 -0.24126351 0.0039051818 0.14320798 -0.031161273 -0.0304152 -0.07504794 -0.27078915
0.07733529 -0.09172345 0.32894835 -0.424796 0.0031317074 0.14300545 0.25064063 -0.24148859
-0.057029992 0.13702445 0.059841424 0.20061561 -0.024481032 -0.16386339 0.020936716 0.035753783
00000000: 90f3 c7be b052 c5be a8d3 763d 07fb 1b3e
00000010: fcf7 7f3e 00d0 89be eb34 023e 108b ce3e
00000020: f2a2 383e b443 babe 7068 97be 1e04 3bbf
00000030: fa80 8f3e 3807 ae3e 5d56 10bf 5c09 6a3d
00000040: 11fb 413f 2775 893e c446 ec3c 741a a0be
00000050: f790 5e3e 216f 36be 8d0b 18bc 55a2 0e3e
00000060: 2174 863e 76ef 61bc ffb6 82be f0e9 35bf
00000070: 6ed6 063e 3d83 eb3d 7bea 013e 63b7 72be
00000080: 379a e33e 4071 b0bd f8e4 a83e bac9 463e
00000090: 2512 803e 154b 0d3e 6d20 8d3e effd c9be
000000a0: 2ce7 743d da9f 30be d625 443e aa98 bdbe
000000b0: 8ba4 eabd 684a 04bf 0c14 2cbf c07c 6f3d
000000c0: a4cb e13d c97f 143f 0e4e 4e3f ebab b23e
000000d0: d07f df3d a2e6 fa3e 7126 563e 34f3 3abe
000000e0: 7d28 f93e c478 2cbf bad2 8abe 9ab5 573f
000000f0: 1098 ebbe d7b0 b53d 5ed6 6f3e 20af 13bd
00000100: fc60 a8bd 02e6 96bb bc3e 8d3e 8276 1dbd
00000110: 132f 193e fc0d bc3d 4d8b ccbd 7ee9 1dbc
00000120: dfb8 45bd 1525 f9bd fc69 61bd 247b 70bc
00000130: add2 883d 5493 bd3d f4c3 a1bd 1e40 033e
00000140: c804 9b3c fbe6 a73d fcf2 583d 72c9 993c
00000150: c1e3 49bd bd75 f23c a59b 5a3d 7084 0bbe
00000160: 6c04 9e3d 7452 f93c 7d53 3fbe 16c3 3c3e
00000170: b9c6 2f3e 7223 84bd 3641 013d 7788 16bb
00000180: 185c a73d ad2c 063e ddd0 3abd b804 17be
00000190: 587c bfbd a339 233e 6bf7 8b3d 3a34 18be
000001a0: 1188 273e 3a5d 38be f818 813d 8679 4cbb
000001b0: 50eb c53d c2be b5bc f854 30bd cb16 c6bd
000001c0: 6c77 be3d 7db2 973d 798e 0d3d fe09 15bd
000001d0: 23ba a0bc b3b3 953d c002 393e ef3a 24be
000001e0: c350 cf3b 7483 40bd 6c7a 20be 2bee 663e
000001f0: dc3c fdbd 400c 97bd 5ee5 b73d c628 093e
00000200: b17d 2bbd f270 1c3e 254e ea3e fc0c 50bd
00000210: f18a 173d a12a 2dbe d006 abbd 0898 343e
00000220: 5d0b 60be 792c 4fbd e006 453e 077c 8cbe
00000230: c405 303e e1bc 823e 0a8f 993b fe2b 9a3c
00000240: 489e 373e 7618 853d fc5c f9bd ceaf 593c
00000250: 667a 24be 6bfc 16be 652a f8bd 49c7 0cbe
00000260: 3e34 8a3e 0040 8fbc a2d0 85be b411 11bd
00000270: ceb5 2fbe b35f 45bc f158 bf3d 645e 4abe
00000280: 7d11 cc3c d736 cc3d 8a40 e8bd 45f0 40bc
00000290: 4cb4 363d 9edd 1c3e f6cf 5abd 7a4a b0bd
000002a0: 126d 823e 2c42 5cbe fe5f 2d3d 4af2 113e
000002b0: dc86 483d 86f0 e4ba 438e 36be a89a 05be
000002c0: 85a1 433e 090d d9b9 5f41 743e c864 a5bd
000002d0: 0a5a 7c3d 265d 05bb 1acb 963d 2e59 aebd
000002e0: ce44 24be df63 59ba 774b 4abe c9e7 db3d
000002f0: 10e8 12be 833e 4f3e 3f47 1cbe 7815 bdbc
00000300: d389 d83d 52f6 37bc 4f7e 803e 2698 e23a
00000310: 84a0 f93d 83a0 7f3c 8b11 be3c da1e 2a3e
00000320: e884 91be a8f3 13be 5c38 43be cced 3cbe
00000330: 36be 43be a3e6 1b3e 8601 e53d 1f5f f73d
00000340: 9d64 713e 55a7 1e3e f78d 9f3d 0d3f 093b
00000350: 8b1f f9bd 5ca6 cf3d 9250 223d 5e58 213e
00000360: a36c 8a3d 4800 79bd 45bd 99bd fed0 f43d
00000370: 4ac3 313e 16a7 7cbd db10 5b3e 6a81 3f3c
00000380: 1f03 6e3d 1b59 923d 6873 053d e393 a83c
00000390: 4307 abbd b3de e63d 4563 a9bd ecfd 1ebe
000003a0: 148a a23e c80d 77be 14ee 7f3b 1da5 123e
000003b0: ed45 ffbc 4c29 f9bc bcb2 99bd e0a4 8abe
000003c0: f761 9e3d 81d9 bbbd eb6b a83e dc7e d9be
000003d0: 553d 4d3b 0570 123e f853 803e c948 77be
000003e0: 4898 69bd 2350 0c3e 481c 753d 2e6e 4d3e
000003f0: 728c c8bc cecb 27be 7a83 ab3c 8f72 123d

lstm.bias_ih_l1 f4 [256]
0.35588807 -0.51082546 0.31080744 -0.47340718 -0.44435227 -0.6798157 -0.53861934 -0.36341843
-0.22442336 -0.31800535 -0.38334942 -0.5724668 -0.26742923 -0.13263626 -0.6299811 -0.54417753
-0.7036535 -0.3722387 -0.34862396 -0.43834174 -0.30894178 -0.7726969 -0.6804101 -0.6212062
-0.70970756 -0.49270675 -0.7076746 0.19015928 -0.25252008 -0.62190855 -0.56466585 -0.5655435
-0.7950715 -0.47225064 -0.7740248 -0.40860954 -0.41179544 -0.26803425 -0.23581785 -0.49754575
-0.4461638 -0.6704844 -0.3906612 -0.45527622 -0.44404393 -0.7676858 -0.19384979 -0.23168884
-0.21455988 -0.45513356 -0.58305234 -0.5475147 -0.770477 -0.57708746 -0.480375 -0.3568953
-0.23462524 -0.43931967 -0.019826189 -0.6847904 -0.33419424 -0.46668288 -0.6095072 -0.89949775
-0.40138996 -0.10476987 -0.67228544 -0.37813666 -0.48939514 -0.3145466 -0.2880255 -0.3850518
-0.46955946 -0.38642913 -0.35549214 -0.7855666 -0.17665437 -0.36725658 -0.22531733 -0.60379875
-0.8863916 -0.5883414 -0.44163123 -0.16742055 -0.46174398 -0.45463306 -0.2842675 -0.52098197
-0.49686405 -0.16725232 -0.60580057 -0.46269 -0.19403216 -0.4682448 -0.5104219 -0.25503612
-0.3971348 -0.3166744 -0.38470238 -0.26855814 -0.38619488 -0.3335096 -0.5136506 -0.71856827
-0.7522597 -0.2355615 -0.27637696 -0.23761752 -0.23193468 -0.45638028 -0.37413046 -0.5919844
-0.5251043 -0.33741912 -0.51491505 -0.70888597 -0.61374086 -0.5609647 -0.15746048 -0.64449686
-0.3145476 -0.66093147 -0.21885455 -0.3944121 -0.23997875 -0.43512073 -0.12673295 -0.41132152
0.44440895 0.17860173 -0.24495925 0.22516352 0.2947101 0.26519638 -0.16914234 -0.30193275
0.39900774 0.2675472 -0.1938407 0.21021412 0.05438448 -0.3253818 0.2576445 0.50414765
0.21018793 -0.4598059 0.06549081 -0.11243091 0.1178759 0.10916379 -0.11108043 -0.28665647
0.12358008 0.067712225 -0.15214717 -0.39089507 0.21239504 0.22136424 -0.15466803 0.1680143
-0.20313378 0.12913607 -0.15033932 0.067166865 0.18788216 -0.27832475 0.31052068 0.10670063
-0.2625396 0.3000851 0.009246447 0.07346328 -0.05984728 -0.3170901 0.23923519 0.30112663
-0.1392709 -0.29003572 -0.2795792 0.23972487 -0.10351666 0.15271336 -0.027660852 0.29898834
0.07046906 -0.29244795 0.62220246 -0.23699325 0.13834745 0.17055032 -0.051980298 -0.2121897
-0.5463033 -0.4768961 -0.75885093 -0.4425635 -0.45609176 -0.6158631 -0.59595823 -0.43200305
-0.07345958 -0.45313102 -0.46300134 -0.5091538 -0.3449626 -0.11670801 -0.7072273 -0.40828216
-0.6635425 -0.53654784 -0.4303182 -0.37397432 -0.20059672 -0.68935513 -0.53231925 -0.5133563
-0.69759774 -0.4342962 -0.78131646 -0.49471492 -0.10916478 -0.6960786 -0.38748762 -0.41476667
-0.737898 -0.634092 -0.6534076 -0.29425278 -0.2908254 -0.26309118 -0.21373759 -0.57499427
-0.38948038 -0.6212646 -0.3734496 -0.5686876 -0.54770595 -0.8965622 -0.4578125 -0.43900815
-0.21913394 -0.5158013 -0.5303054 -0.45353818 -0.6878828 -0.6637889 -0.67555976 -0.46240658
-0.30075222 -0.44709894 -0.772055 -0.67774886 -0.34813404 -0.46090013 -0.63743114 -0.8170409
00000000: f636 b63e 75c5 02bf 2722 9f3e 6d62 f2be
00000010: 2482 e3be 6708 2ebf f5e2 09bf fb11 babe
00000020: 3dcf 65be 99d1 a2be 6046 c4be 2f8d 12bf
00000030: 7cec 88be cdd1 07be 7146 21bf 384f 0bbf
00000040: a322 34bf 1296 bebe d77e b2be 546e e0be
00000050: 9e2d 9ebe 77cf 45bf 5b2f 2ebf 5f07 1fbf
00000060: 65af 35bf 0f44 fcbe 2a2a 35bf 1db9 423e
00000070: 504a 81be 6635 1fbf f18d 10bf 75c7 10bf
00000080: ce89 4bbf d6ca f1be 7d26 46bf 4535 d1be
00000090: dad6 d2be c93b 89be 3c7a 71be 51be febe
000000a0: 956f e4be dea4 2bbf bf04 c8be f719 e9be
000000b0: ba59 e3be 0e87 44bf 8f80 46be d73f 6dbe
000000c0: 96b5 5bbe 4407 e9be eb42 15bf ec29 0cbf
000000d0: fb3d 45bf 01bc 13bf b6f3 f5be fbba b6be
000000e0: 9941 70be 82ee e0be 886a a2bc 6c4e 2fbf
000000f0: 821b abbe 0ff1 eebe aa08 1cbf 7c45 66bf
00000100: fc82 cdbe 9691 d6bd e61a 2cbf 219b c1be
00000110: 0092 fabe 410c a1be 1478 93be 8225 c5be
00000120: 196a f0be 0ada c5be 1103 b6be e51a 49bf
00000130: e2e4 34be 0e09 bcbe 96b9 66be 8e92 1abf
00000140: 8fea 62bf 8b9d 16bf 7d1d e2be 4b70 2bbe
00000150: b569 ecbe aac5 e8be 828b 91be 135f 05bf
00000160: f764 febe 3144 2bbe bf15 1bbf b4e5 ecbe
00000170: 5eb0 46be c8bd efbe 02ab 02bf 1894 82be
00000180: 4155 cbbe 2623 a2be b6f7 c4be 7480 89be
00000190: 56bb c5be c5c1 aabe 9b7e 03bf 17f4 37bf
000001a0: 1794 40bf 0937 71be 4881 8dbe 0252 73be
000001b0: 4980 6dbe adaa e9be 078e bfbe 4a8c 17bf
000001c0: 3c6d 06bf 33c2 acbe 79d1 03bf 8d79 35bf
000001d0: 1f1e 1dbf 629b 0fbf 523d 21be bffd 24bf
000001e0: 620c a1be ce32 29bf 681b 60be 62f0 c9be
000001f0: fdbc 75be 25c8 debe 48c6 01be bc98 d2be
00000200: 9289 e33e 5fe3 363e 99d6 7abe 4491 663e
00000210: 3ee4 963e d2c7 873e a633 2dbe ee96 9abe
00000220: be4a cc3e f2fb 883e 2d7e 46be 5f42 573e
00000230: 43c2 5e3d 7198 a6be fbe9 833e d20f 013f
00000240: 813b 573e ae6b ebbe 0c20 863d 2d42 e6bd
00000250: eb68 f13d 4491 df3d 237e e3bd a3c4 92be
00000260: 8e17 fd3d b5ac 8a3d 78cc 1bbe 6623 c8be
00000270: 167e 593e 4fad 623e 4c61 1ebe f10b 2c3e
00000280: 4d02 50be 3f3c 043e 8df2 19be c88e 893d
00000290: 2e64 403e 9580 8ebe 91fc 9e3e dc85 da3d
000002a0: 976b 86be c1a4 993e 697e 173c eb73 963d
000002b0: 6c22 75bd a259 a2be 12fa 743e 452d 9a3e
000002c0: 089d 0ebe 907f 94be 0125 8fbe 707a 753e
000002d0: 8b00 d4bd e460 1c3e 0399 e2bc 0015 993e
000002e0: 1552 903d bdbb 95be a948 1f3f 5cae 72be
000002f0: f4aa 0d3e bea4 2e3e 4be9 54bd 4248 59be
00000300: 88da 0bbf ba2b f4be 0e44 42bf af97 e2be
00000310: dc84 e9be 34a9 1dbf b890 18bf 812f ddbe
00000320: fa71 96bd ca00 e8be 830e edbe e757 02bf
00000330: f09e b0be 9c04 efbd d90c 35bf 5c0a d1be
00000340: ecdd 29bf 335b 09bf ab52 dcbe 9079 bfbe
00000350: 3a69 4dbe 9479 30bf 1346 08bf 526b 03bf
00000360: c495 32bf 125c debe 5b04 48bf 464b fdbe
00000370: c991 dfbd 3532 32bf c764 c6be 4c5c d4be
00000380: e2e6 3cbf da53 22bf b845 27bf 4da8 96be
00000390: 11e7 94be e3b3 86be 07de 5abe d332 13bf
000003a0: f969 c7be 320b 1fbf c934 bfbe 8395 11bf
000003b0: 7536 0cbf 1a85 65bf 6666 eabe adc5 e0be
000003c0: a664 60be 8e0b 04bf 18c2 07bf 2836 e8be
000003d0: 1619 30bf 12ee 29bf 7cf1 2cbf 8ec0 ecbe
000003e0: 32fc 99be 27ea e4be 65a5 45bf f380 2dbf
000003f0: a03e b2be 1afb ebbe b02e 23bf 9829 51bf

lstm.bias_hh_l1 f4 [256]
0.30899078 -0.5454378 0.39017394 -0.3596367 -0.29345194 -0.6221229 -0.5893984 -0.46721187
-0.115337625 -0.38426355 -0.33883154 -0.36481774 -0.22740719 -0.27346674 -0.6897631 -0.5214135
-0.7742502 -0.4629394 -0.33320573 -0.2559295 -0.17655648 -0.73465776 -0.7049934 -0.5675357
-0.7017706 -0.447417 -0.72096103 0.23980197 -0.2512984 -0.7786083 -0.55355555 -0.45702118
-0.8494985 -0.6211076 -0.61909646 -0.28014442 -0.21877687 -0.24503715 -0.22948298 -0.6095194
-0.39955446 -0.6418007 -0.46903372 -0.45317227 -0.6741004 -0.7153851 -0.12067203 -0.38909924
-0.25656834 -0.5700659 -0.74904317 -0.5288702 -0.7387232 -0.65158486 -0.51308084 -0.19913815
-0.3617885 -0.3065505 -0.15833704 -0.57216036 -0.3050734 -0.68726784 -0.58131105 -0.7526683
-0.3956624 -0.121237 -0.7710513 -0.2994051 -0.47702128 -0.31488517 -0.15974991 -0.3985049
-0.50824785 -0.5166539 -0.28393283 -0.7323898 -0.22173195 -0.6063808 -0.36575228 -0.64944524
-0.92534786 -0.513923 -0.29443958 -0.19054857 -0.42965686 -0.46352232 -0.4407622 -0.53681546
-0.44379893 -0.23713951 -0.78156424 -0.5836165 -0.109182745 -0.39344326 -0.3502602 -0.25759357
-0.38663512 -0.38420987 -0.27568167 -0.20469348 -0.3479228 -0.3794413 -0.45217878 -0.70550793
-0.7308785 -0.24126689 -0.32679263 -0.17812712 -0.35272858 -0.404078 -0.29806834 -0.49231458
-0.4192663 -0.31544104 -0.45927396 -0.47707987 -0.69807297 -0.44635874 -0.16574404 -0.590577
-0.29843098 -0.5837269 -0.2566586 -0.29081824 -0.28317127 -0.32909587 -0.1329936 -0.61371726
0.55514556 0.08924846 -0.27741122 0.31991556 0.41456735 0.16528973 -0.22452903 -0.18558194
0.28101283 0.20313908 -0.19298209 0.2255491 0.03247636 -0.22220942 0.4467099 0.35794285
0.28604442 -0.37625146 0.01659649 -0.07779649 0.1881206 0.053311802 -0.09317166 -0.1810831
0.13396993 0.21609312 -0.0913158 -0.6072373 0.1939527 0.047938205 -0.07988928 0.23098324
-0.18384446 0.20609938 -0.25014976 0.15873897 0.075243786 -0.11434265 0.12511519 0.28662363
-0.3748525 0.25988102 0.075224325 0.24467674 -0.27469867 -0.17281947 0.40188253 0.14067851
-0.18473879 -0.23524366 -0.25820243 0.18173966 -0.24177697 0.2808819 0.15989041 0.2560992
0.23794775 -0.14214882 0.5295753 -0.25538042 0.11468255 0.1669841 -0.052772243 -0.20028162
-0.6837833 -0.49009848 -0.8165017 -0.47026023 -0.3664666 -0.7968605 -0.5116435 -0.33247173
-0.033777554 -0.3674541 -0.377981 -0.6520267 -0.399153 -0.17737228 -0.5643775 -0.51987463
-0.77732825 -0.56674194 -0.4322534 -0.39147803 -0.2114313 -0.7106178 -0.54103243 -0.69406724
-0.5880803 -0.5339849 -0.76423377 -0.573874 -0.21446271 -0.79390985 -0.56255305 -0.4169515
-0.8337123 -0.6420843 -0.80456126 -0.3645769 -0.41800952 -0.29609478 -0.3003362 -0.5428245
-0.50701976 -0.6831547 -0.59546006 -0.5707523 -0.4670017 -0.81071204 -0.54320097 -0.46614197
-0.3061449 -0.600087 -0.75421494 -0.5387726 -0.6446826 -0.6452013 -0.5946839 -0.5319538
-0.4422947 -0.4228531 -0.82369393 -0.5418687 -0.32916906 -0.57097083 -0.45774502 -0.8785826
00000000: 0a34 9e3e d0a1 0bbf e1c4 c73e 4d22 b8be
00000010: 553f 96be 7243 1fbf d0e2 16bf 6536 efbe
00000020: 2236 ecbd 31be c4be 547b adbe 64c9 babe
00000030: 6edd 68be d503 8cbe 5194 30bf 5b7b 05bf
00000040: 4335 46bf 6506 edbe f199 aabe 3109 83be
00000050: 39cb 34be 8812 3cbf 737a 34bf 054a 11bf
00000060: 3da7 33bf d713 e5be e790 38bf a68e 753e
00000070: 2faa 80be e052 47bf d1b5 0dbf aefe e9be
00000080: bc78 59bf e800 1fbf 1b7d 1ebf 176f 8fbe
00000090: 0b07 60be 05eb 7abe 96fd 6abe 7709 1cbf
000000a0: 6792 ccbe 0d4d 24bf 3025 f0be 3206 e8be
000000b0: d891 2cbf 7a23 37bf e622 f7bd 0438 c7be
000000c0: ed5c 83be d7ef 11bf 4bc1 3fbf 0a64 07bf
000000d0: f71c 3dbf 44ce 26bf 4459 03bf dfea 4bbe
000000e0: 583c b9be 30f4 9cbe 1b23 22be 1a79 12bf
000000f0: 9532 9cbe c9f0 2fbf cdd0 14bf dfae 40bf
00000100: 4394 cabe 1b4b f8bd 9e63 45bf a04b 99be
00000110: 223c f4be a138 a1be 7b95 23be d608 ccbe
00000120: 881c 02bf 6e43 04bf a55f 91be e67d 3bbf
00000130: b30d 63be c63b 1bbf e243 bbbe 0b42 26bf
00000140: 99e3 6cbf 7590 03bf c9c0 96be 2a1f 43be
00000150: fcfb dbbe cc52 edbe 95ab e1be bd6c 09bf
00000160: 9d39 e3be b3d4 72be 9814 48bf e467 15bf
00000170: 349b dfbd 6571 c9be 4e55 b3be 4ee3 83be
00000180: 0af5 c5be 28b7 c4be 2626 8dbe 2b9b 51be
00000190: f022 b2be 2146 c2be fa83 e7be 2b9c 34bf
000001a0: da1a 3bbf ab0e 77be 5d51 a7be f566 36be
000001b0: d798 b4be 50e3 cebe 6a9c 98be a810 fcbe
000001c0: 13aa d6be 7d81 a1be f525 ebbe d043 f4be
000001d0: e9b4 32bf 2289 e4be ceb8 29be 0e30 17bf
000001e0: f2cb 98be 206f 15bf c268 83be 21e6 94be
000001f0: d3fb 90be 417f a8be 792f 08be 931c 1dbf
00000200: 051e 0e3f e6c7 b63d d808 8ebe f9cb a33e
00000210: 2c42 d43e b641 293e f0ea 65be 3109 3ebe
00000220: eae0 8f3e b103 503e 199d 45be 58f6 663e
00000230: ef05 053d de8a 63be 29b7 e43e 4944 b73e
00000240: 6a74 923e 08a4 c0be 5df5 873c c453 9fbd
00000250: b0a2 403e 7a5d 5a3d c9d0 bebd d96d 39be
00000260: 6a2f 093e 8447 5d3e c703 bbbd e773 1bbf
00000270: 899b 463e da5a 443d fe9c a3bd df86 6c3e
00000280: b941 3cbe b70b 533e a113 80be 788c 223e
00000290: 6a19 9a3d 7b2c eabd 321e 003e 55c0 923e
000002a0: abec bfbe 200f 853e 360f 9a3d 8a8c 7a3e
000002b0: 4ea5 8cbe 96f7 30be 8cc3 cd3e 070e 103e
000002c0: 2a2c 3dbe b7e3 70be 1c33 84be f619 3a3e
000002d0: 6294 77be c1cf 8f3e 50ba 233e 6f1f 833e
000002e0: 93a8 733e 768f 11be 3f92 073f 39c1 82be
000002f0: afde ea3d e1fd 2a3e b527 58bd a016 4dbe
00000300: 6c0c 2fbf 30ee fabe 4106 51bf f3c5 f0be
00000310: 83a1 bbbe 0dff 4bbf 12fb 02bf bc39 aabe
00000320: 555a 0abd f222 bcbe ba86 c1be 39eb 26bf
00000330: c85d ccbe 14a1 35be 0b7b 10bf 8116 05bf
00000340: fcfe 46bf 0016 11bf 5150 ddbe cf6f c8be
00000350: 7281 58be 0ceb 35bf 1a81 0abf 64ae 31bf
00000360: 6e8c 16bf 3cb3 08bf d3a4 43bf 68e9 12bf
00000370: 1d9c 5bbe ad3d 4bbf 7a03 10bf ab7a d5be
00000380: 2b6e 55bf a35f 24bf baf7 4dbf d3a9 babe
00000390: 5805 d6be bc99 97be abc5 99be 8cf6 0abf
000003a0: 0ccc 01bf 3ae3 2ebf 1270 18bf d31c 12bf
000003b0: d91a efbe d38a 4fbf 380f 0bbf 29aa eebe
000003c0: 06bf 9cbe 4d9f 19bf 3b14 41bf 00ed 09bf
000003d0: eb09 25bf ea2b 25bf 343d 18bf 202e 08bf
000003e0: 7374 e2be 3480 d8be 9bdd 52bf e8b7 0abf
000003f0: d988 a8be 252b 12bf 8e5d eabe caea 60bf
