DoubleDQN-QT-Reward-Delay-IR-Final/ModelParam/2024-02-03/2024-02-0364target-network-lstm.pth (torch, 231873 bytes, 12 tensors)

lstm.weight_ih_l0 f4 [256, 10]
0	0xc09dd62d	-4.9323945
1	0xbf1ecfa7	-0.620356
2	0xc0b5902f	-5.6738505
3	0xc0770882	-3.8598943
4	0xc082a11e	-4.0821676
5	0xc08ab85d	-4.3350053
6	0xc074c1dd	-3.8243325
7	0xbff53b0b	-1.9158643
8	0xbdc710f1	-0.09720028
9	0x3f86ac0a	1.0521252
10	0xbf8838b5	-1.0642306
11	0xbebc2da5	-0.36753574
12	0xbf090f56	-0.53539026
13	0xbf5f089a	-0.871225
14	0xbf46b6a4	-0.7762244
15	0x3d45dc97	0.048306074
16	0x3f80f725	1.0075423
17	0xbf7cb534	-0.98713994
18	0xbf8aebc8	-1.0853205
19	0xbfcc28e7	-1.5949982
20	0xbfe988a9	-1.824483
21	0xbf84e762	-1.0383112
22	0xbf74701b	-0.9548356
23	0xbfc4bf39	-1.5370857
24	0xbfe7c7d4	-1.8107858
25	0x3eac5bed	0.33663884
26	0xbe20161e	-0.15633437
27	0x403e1617	2.9700983
28	0xbe210382	-0.15723994
29	0xbf228342	-0.63481534
30	0xc0110350	-2.2658272
31	0x3ee591f3	0.44837913
32	0xbf692f9f	-0.9108829
33	0xbf06f0b3	-0.5271103
34	0xbed62b57	-0.4182994
35	0xbfeca6ab	-1.8488363
36	0xbfb0763b	-1.3786081
37	0xc0809f26	-4.0194273
38	0xbf7938a3	-0.97352046
39	0xbe959db9	-0.29221895
40	0xc0763b1f	-3.8473585
41	0x40a0bc61	5.0229955
42	0x3f2b7aaa	0.66984046
43	0xbf336713	-0.70079154
44	0x3fa93ec3	1.3222278
45	0x402cd0a9	2.7002356
46	0xbe36048c	-0.17775172
47	0xc0cf9ac4	-6.4876423
48	0xbe563015	-0.2091678
49	0xbf75b379	-0.9597698
50	0xbf59b5ac	-0.85042834
51	0x3d94a241	0.0725751
52	0xbed29c87	-0.41135046
53	0xbf5543cd	-0.8330658
54	0xbf433ee2	-0.76267827
55	0x3fa5648a	1.2921307
56	0xbefbcdce	-0.49180454
57	0xc0127791	-2.2885478
58	0xbe8b2669	-0.27177742
59	0xbf6b3548	-0.91878176
60	0x400754fd	2.1145623
61	0x4032dc4c	2.7946959
62	0x4003aa42	2.0572667
63	0x405b573e	3.4271998
64	0x4040f795	3.0151112
65	0x3fc36d04	1.5267644
66	0xbfc81ae9	-1.5633212
67	0x406331b6	3.549909
68	0xbdc7ea0b	-0.09761437
69	0xbf4ca43e	-0.79938114
70	0xc0031dc4	-2.0486917
71	0xbfa6b409	-1.3023692
72	0xbf9119d7	-1.1336011
73	0xc03a9815	-2.9155324
74	0xc01110be	-2.2666469
75	0x3f12ccfa	0.5734402
76	0x3eb99263	0.36244497
77	0x40310a72	2.7662625
78	0xbfa50a40	-1.2893753
79	0xbf4bfb65	-0.7968047
80	0xbea24197	-0.31690666
81	0xbf32858a	-0.69735014
82	0xbf47b6ab	-0.78013104
83	0xbf788cf5	-0.97090083
84	0xbffa5765	-1.9557921
85	0x40048e23	2.0711753
86	0xc015d4f5	-2.3411229
87	0x4050a43e	3.2600245
88	0xbe3c5495	-0.1839164
89	0xbf64ce3f	-0.89377207
90	0xc04d53fd	-3.2082512
91	0xbfbe3ad7	-1.4861706
92	0xc073c8bf	-3.8091276
93	0xc021046b	-2.5158947
94	0xc01c9f07	-2.4472063
95	0xbf514457	-0.81744903
96	0xbd7e4bfd	-0.062084187
97	0x3ff770c6	1.9331291
98	0xbfb6e957	-1.428996
99	0xc00468f0	-2.0689049
100	0xc07b85d3	-3.930043
101	0x3e4ada8e	0.19809934
102	0xc01c619f	-2.4434583
103	0xc028ac31	-2.6355097
104	0xc00f3c95	-2.2380726
105	0x3fc4740a	1.5347912
106	0xbc93c216	-0.018036883
107	0xbdded435	-0.10880319
108	0xbea297a6	-0.31756324
109	0xbd84313c	-0.06454703
110	0xc0ff149f	-7.971267
111	0x409ee755	4.965739
112	0xbde11d20	-0.10991883
113	0xc050a045	-3.259782
114	0x3f450c4f	0.76971906
115	0x3ec2dd0f	0.3805928
116	0xbd85bee7	-0.06530552
117	0xc110239f	-9.008697
118	0xbeb9898c	-0.36237752
119	0x3f9e5040	1.236824
120	0x409072db	4.5140204
121	0x4038b26e	2.8858905
122	0x404f6984	3.2408152
123	0x40938e23	4.6111007
124	0x405357eb	3.302241
125	0x3ffef4e0	1.991848
126	0x3ff6ada0	1.9271736
127	0x400b2c88	2.174593
128	0xbf60865e	-0.8770503
129	0x3edb7f04	0.42870343
130	0x3eb94bb1	0.3619056
131	0x3f2d1c4e	0.67621315
132	0x3e6708c9	0.22561945
133	0x3e7e96a2	0.2486215
134	0x3ea99ef1	0.33129075
135	0xbefeb21c	-0.49745262
136	0xbeecc37f	-0.46242902
137	0x3ff0e62e	1.8820245
138	0xbf6a3124	-0.9148123
139	0xbfa59c4b	-1.2938322
140	0xbf2d01b6	-0.67580736
141	0x3ebcea8a	0.3689769
142	0xbee01052	-0.4376245
143	0xbe9acb01	-0.30233005
144	0xbed90f13	-0.42394313
145	0x3e81664e	0.25273365
146	0x3e793d18	0.24339712
147	0x3f18edbc	0.59737754
148	0xbf750896	-0.95716226
149	0xbfbb7de6	-1.4647796
150	0x3eb05e5f	0.34447
151	0x3f43d9bd	0.7650412
152	0x3dda74b6	0.10666792
153	0x3edadbb9	0.4274576
154	0xbe9ee9f4	-0.31037867
155	0x3f83ffd4	1.0312448
156	0xbecfaed7	-0.4056308
157	0x3fcfbe15	1.6229883
158	0xbec581d7	-0.38575622
159	0xbf76c05a	-0.96387255
160	0x3f68232a	0.90678656
161	0x3ef6b3d3	0.4818407
162	0x3f1e7843	0.61902255
163	0x3f3883e2	0.7207624
164	0x3f43c999	0.7647949
165	0x3f1a1ec7	0.6020321
166	0x3f51c612	0.81942856
167	0x3e29164e	0.16512415
168	0x3f37ee59	0.71848065
169	0x3f3a5597	0.7278685
170	0x3dd56da1	0.10421301
171	0x3f988df9	1.1918327
172	0x3ef0ad80	0.4700737
173	0x3e45dcb7	0.19322477
174	0x3ed2f7bd	0.41204634
175	0xbcefd062	-0.02927417
176	0x3e4c77fe	0.19967648
177	0x3e57f2c3	0.210887
178	0xbf692810	-0.91076756
179	0xbf88bb30	-1.0682125
180	0x4054a737	3.322706
181	0x40345f69	2.8183234
182	0x408786c9	4.2352033
183	0x406b51ed	3.6768754
184	0x40556065	3.3340085
185	0x3f86e304	1.053803
186	0x3fb9a05c	1.4502063
187	0x4044c1ce	3.074329
188	0xbf58e52e	-0.847247
189	0x3d972d91	0.07381738
190	0xc0aea211	-5.4572835
191	0xc08207ea	-4.063466
192	0xc0758e61	-3.836815
193	0xc08f7194	-4.4826145
194	0xc09d3919	-4.91322
195	0xbf14acd7	-0.5807623
196	0xbfcf74c5	-1.620751
197	0x3fd068c5	1.6281973
198	0x3f501dc6	0.8129543
199	0x3ea54417	0.3227851
200	0xbf444a71	-0.7667609
201	0xba318df0	-0.00067731645
202	0xbf628ce9	-0.8849626
203	0xbece606e	-0.40307945
204	0xbfc63732	-1.5485594
205	0x3fc28f4a	1.5199978
206	0xbe2412dc	-0.1602282
207	0x40955ede	4.6678305
208	0x3e1121d8	0.14173067
209	0xbe8f9c62	-0.28048998
210	0xbfb09623	-1.3795818
211	0xc02e2e6c	-2.7215834
212	0xc007e5dd	-2.1234047
213	0xc03af634	-2.921277
214	0xc02f50c7	-2.7393053
215	0xbfc36bea	-1.5267308
216	0x3fb7a52f	1.4347285
217	0x40515c3a	3.271254
218	0xbf6a7d68	-0.91597605
219	0xbff710c5	-1.9301993
220	0x3ffa7e87	1.9569863
221	0x4038d958	2.8882656
222	0x3f20c97a	0.6280743
223	0x40581f40	3.3769073
224	0x4064b208	3.5733662
225	0x3ff588c5	1.9182364
226	0x3e11b885	0.14230545
227	0xc01cc87b	-2.4497364
228	0xbe6ce155	-0.23132832
229	0xbfec0382	-1.843857
230	0xc010e756	-2.2641196
231	0x400dc832	2.215344
232	0xbea3af99	-0.31969908
233	0xbdec1e85	-0.11529259
234	0x3df8e4cb	0.12153014
235	0x401e7ed5	2.4764912
236	0xbfe56475	-1.7921282
237	0xc06c9f31	-3.6972163
238	0x3e80a777	0.25127766
239	0xbf88b8df	-1.0681418
240	0x3f74b31e	0.9558581
241	0x3fb4c3c8	1.4122248
242	0x3fb0fa43	1.3826374
243	0x3f34a55c	0.7056482
244	0x3f6875a4	0.90804505
245	0x3fa3b1aa	1.2788594
246	0x3f56a8d9	0.8385139
247	0x40170baa	2.360087
248	0xbfa4f249	-1.288644
249	0xbf36d22f	-0.71414465
250	0xbf0ed43c	-0.55792594
251	0xbe57be66	-0.21068725
252	0xbf2925eb	-0.66073483
253	0xbed011f6	-0.40638703
254	0xbea63b04	-0.324669
255	0x3ea26f7e	0.31725687

lstm.weight_hh_l0 f4 [256, 64]
0	0xbf140753	-0.57823676
1	0xbe1b16b9	-0.15145387
2	0xbfec435e	-1.8458059
3	0xc006d7a6	-2.1069121
4	0xc005aa3f	-2.088516
5	0xbfefe031	-1.8740293
6	0x401f45cb	2.4886348
7	0xbfa6cb61	-1.3030816
8	0xbf01efb8	-0.50756407
9	0xbfa3d6ac	-1.2799888
10	0x402e6c97	2.7253778
11	0x3f83cde8	1.0297213
12	0x3f0c2582	0.5474473
13	0xbf151931	-0.58241564
14	0xbfc74259	-1.5567123
15	0xbf59daaa	-0.8509928
16	0x40028809	2.039553
17	0xbf2f1d81	-0.68404394
18	0xbfee2c26	-1.8607223
19	0xbfe1f666	-1.765332
20	0x3f02af6f	0.5104894
21	0xbfe5e92a	-1.7961781
22	0x409405b3	4.6256957
23	0x3f06549f	0.5247287
24	0x3fffba0b	1.9978651
25	0xbfa36c83	-1.276749
26	0x3f5fc9cb	0.87417287
27	0x3f6c129e	0.9221591
28	0xbf264abe	-0.649578
29	0x3ee7d667	0.45280764
30	0x3fa12bee	1.2591531
31	0xbfcefc87	-1.6170815
32	0x401ed7c2	2.4819188
33	0xbec9f28a	-0.39442855
34	0x3d9a084f	0.07521116
35	0xc002f11a	-2.0459657
36	0xbf8051f8	-1.0025015
37	0x3ff83d09	1.9393626
38	0xbfc25ffa	-1.518554
39	0xbe563cfa	-0.20921698
40	0xbecb47b2	-0.39703137
41	0xbfb2cf6a	-1.3969548
42	0x3e4a2683	0.19741254
43	0x3f2f0614	0.6836865
44	0x3e81e2cb	0.25368342
45	0x3f107476	0.56427705
46	0x3f87b0b3	1.0600799
47	0xbf86eefa	-1.054168
48	0xbcf1ce9e	-0.029517468
49	0xbf90e91c	-1.1321139
50	0x3f36d33a	0.71416056
51	0x3eeaa58f	0.45829436
52	0xbf1ac7aa	-0.60460913
53	0x3efd338b	0.49453387
54	0xbc9d2a72	-0.019185279
55	0xbfbbca03	-1.4671024
56	0x40146dff	2.3192136
57	0x401158fb	2.271056
58	0xbf5081d2	-0.8144809
59	0xbe8037f2	-0.25042683
60	0x400da799	2.2133543
61	0x3ec095f0	0.37614393
62	0xbe1a074e	-0.15041849
63	0x3f75c4e3	0.9600355
64	0xbfe4b45a	-1.7867539
65	0xbc8cf921	-0.017208638
66	0x3e33183a	0.1748971
67	0xbeba434f	-0.36379477
68	0x3eb624c0	0.35574913
69	0x3d630142	0.05542112
70	0xbef5b684	-0.4799081
71	0x3df0dc66	0.11760788
72	0x3e9b156f	0.3028979
73	0xbf09ed96	-0.5387815
74	0xbee24638	-0.44194198
75	0x3f9c0c26	1.2191207
76	0xbdd7f2c3	-0.1054435
77	0xbe7059b3	-0.23471718
78	0xbe76e866	-0.2411209
79	0xbf61fb72	-0.882743
80	0x3f914ce7	1.1351594
81	0x3d0f57f6	0.034995995
82	0x3df3118c	0.11868581
83	0x3ac0c3dc	0.0014706808
84	0x3f07a085	0.5297931
85	0xbefa85d8	-0.4893024
86	0x3e705e7a	0.2347354
87	0xbe9ed6d5	-0.3102328
88	0x3e1eaafe	0.15494916
89	0x3ef9a332	0.4875732
90	0x3e88ab8b	0.26693377
91	0x3ebd037c	0.3691672
92	0xbe4b04f5	-0.1982611
93	0xbe78bb09	-0.24290098
94	0x3e88557b	0.26627716
95	0x3fc69920	1.551548
96	0xbf0ddd88	-0.55416155
97	0x3e9ef055	0.31042734
98	0x3d992aea	0.07478888
99	0x3e664b22	0.22489598
100	0x3ed7f86d	0.4218172
101	0x3e651f20	0.22375154
102	0xbe0666ef	-0.13125204
103	0x3d770a87	0.060312774
104	0xbf3a96eb	-0.7288653
105	0xbea635cc	-0.3246292
106	0xbe59189d	-0.21200795
107	0xbef19ad8	-0.4718845
108	0x3edf2bec	0.43588197
109	0xbf1d2808	-0.6138921
110	0x3e864de8	0.26231313
111	0x3e4cb04d	0.19989128
112	0x3ebc6106	0.36792773
113	0xbdc70060	-0.097168684
114	0x3f1aab2b	0.6041743
115	0xbea4e906	-0.32209033
116	0x3e40274a	0.18764988
117	0xbf21dd2e	-0.6322812
118	0xbe973e53	-0.29539737
119	0x3e82eafb	0.255699
120	0x3e8a47cd	0.27007905
121	0x3e1ab8d2	0.15109566
122	0xbf1932b6	-0.59843004
123	0x3eaee97a	0.34162503
124	0x3eada4d6	0.33914822
125	0xbf415bc8	-0.7553067
126	0x3cf726d7	0.030169887
127	0xbee21b01	-0.44161227
128	0xbfebad75	-1.841231
129	0xbe4cc421	-0.19996692
130	0xbfdab44f	-1.7086276
131	0x3e837ea6	0.25682563
132	0xbf959f3e	-1.1689222
133	0x3f17084a	0.58997023
134	0xbe14150b	-0.14461152
135	0x3fa70ad2	1.3050177
136	0x3f3e3e13	0.7431347
137	0xbf9f63c4	-1.2452321
138	0x40106669	2.2562506
139	0x3fd906d4	1.6955209
140	0xbf568d87	-0.83809704
141	0xbeac26f7	-0.33623478
142	0xbf192c9c	-0.59833694
143	0xbf1394f9	-0.5764919
144	0x3f6b9900	0.92030334
145	0x3f07a3f4	0.5298455
146	0xbfa132e6	-1.2593658
147	0x3f2dccfe	0.6789092
148	0x3e665319	0.22492637
149	0x40078232	2.1173215
150	0xbe8d1d0e	-0.2756123
151	0x3fd042f8	1.6270437
152	0xbe9806e7	-0.29692766
153	0xbf4997e3	-0.78747386
154	0xbe5599e4	-0.20859486
155	0x3e741b27	0.23838483
156	0xc00a82dc	-2.164237
157	0x4003e758	2.060995
158	0x3d8e9c52	0.069634095
159	0x3f4ef6d6	0.8084539
160	0x3f021934	0.50819707
161	0x3ebd6a4d	0.36995164
162	0x3fa0cf77	1.2563313
163	0xbfbe3182	-1.4858859
164	0xbeed8494	-0.46390212
165	0x3e9b7363	0.3036147
166	0xbfa0fbaa	-1.2576802
167	0xbfc8a60c	-1.5675673
168	0x3e1aacf7	0.15105043
169	0x3e2d176a	0.16903463
170	0xbf910f45	-1.1332785
171	0xbed4e6e9	-0.4158242
172	0x3f10a71e	0.56505
173	0xbe38b717	-0.18038593
174	0xbe4b67ec	-0.19863862
175	0x3b049ffa	0.0020236955
176	0x3df813d6	0.121131584
177	0xbf94c110	-1.1621418
178	0x3dd0d16c	0.10196194
179	0x3eb1180c	0.3458866
180	0x3fbe9424	1.4888959
181	0x3e535cc4	0.20640856
182	0xbfa02b92	-1.2513297
183	0xbf573539	-0.84065586
184	0xbe9837dc	-0.29730117
185	0xc06caf8e	-3.698215
186	0xbfa32cfa	-1.2748101
187	0xbf08bcef	-0.5341329
188	0x3f94bb2c	1.161962
189	0x3f35a88b	0.709603
190	0xbfa4af8f	-1.2866076
191	0xbf040880	-0.5157547
192	0x3e038c1c	0.12846416
193	0xbeddcc6a	-0.43320018
194	0xbfc38b6c	-1.5276923
195	0x3cbb1206	0.022835743
196	0xbec12cad	-0.37729397
197	0x3e05a3e9	0.13050808
198	0xbdfba7ea	-0.122878864
199	0xbf0ec18e	-0.5576409
200	0x3f418f17	0.7560896
201	0xbf9f34a3	-1.2437938
202	0x3f7780c8	0.9668088
203	0xbf12ec1e	-0.57391536
204	0x3f82d135	1.0220095
205	0xbe83bf67	-0.25731966
206	0xbeba0bff	-0.36337277
207	0x3d1f7db8	0.038938254
208	0x3f56aa69	0.83853775
209	0xbf11122c	-0.56668353
210	0xbf04691c	-0.51722884
211	0xbea5c1fe	-0.32374567
212	0x3f0752b2	0.5286056
213	0xbcbf56dd	-0.02335685
214	0xbf91ffa4	-1.140614
215	0x400656d6	2.09905
216	0x3ecd0a4a	0.40046912
217	0x3d03c92e	0.03217428
218	0x3facbcf7	1.3495167
219	0x3ebd44fa	0.36966687
220	0xc01a4686	-2.4105544
221	0xbedad3c0	-0.42739677
222	0xbf332cb0	-0.6999006
223	0xc030031e	-2.7501903
224	0x3d650581	0.055913452
225	0x3fbcfcf3	1.4764694
226	0xbf3eb223	-0.74490565
227	0x3ee5c13f	0.44873998
228	0xbf02652e	-0.5093564
229	0xbfd0ce37	-1.6312932
230	0x3fbaf0f4	1.4604783
231	0x3ed1e169	0.40992287
232	0xbf4e9f8c	-0.807122
233	0x3f64ff02	0.8945161
234	0x3d38d03b	0.04512046
235	0x3ea671a6	0.32508582
236	0xbe683c97	-0.22679363
237	0xbef14805	-0.4712526
238	0x3ef47c2e	0.47750992
239	0x3f874cd7	1.0570325
240	0xbda344cc	-0.07972106
241	0xbf04cc45	-0.5187419
242	0xbd9a1157	-0.075228386
243	0xbe57fc68	-0.21092379
244	0xbefb32d8	-0.49062228
245	0xbf5abf90	-0.8544855
246	0x3e92589e	0.28583235
247	0xbf0fa3ff	-0.56109613
248	0xbf2e41c2	-0.6806909
249	0xbec5eff7	-0.3865964
250	0xbf9d5f71	-1.2294751
251	0x3efaf3f3	0.49014243
252	0xbf13d2f7	-0.5774378
253	0xbf1218b8	-0.5706897
254	0xbf63ecd3	-0.8903324
255	0xbe826481	-0.25467303

lstm.bias_ih_l0 f4 [256]
0	0xbf1dd877	-0.61658424
1	0xbf952450	-1.1651707
2	0xbf76535c	-0.96220946
3	0xbf4a30d7	-0.78980774
4	0xbf2c5f91	-0.6733332
5	0xbf4e13a0	-0.80498695
6	0xbf8727e0	-1.0559044
7	0xbf480aeb	-0.7814166
8	0xbf7a5fb9	-0.9780231
9	0xbe658fe2	-0.22418168
10	0xbc383e9e	-0.011245398
11	0x3eaf4625	0.34233204
12	0xbf106892	-0.5640956
13	0xbf7f3312	-0.996873
14	0xbf90b9df	-1.1306723
15	0xbf867b0a	-1.0506299
16	0x3f00f532	0.5037414
17	0xbf91045b	-1.1329454
18	0xbdd5a6cb	-0.10432204
19	0x3e7cab13	0.24674635
20	0xbf90af52	-1.1303504
21	0x3e2061d8	0.15662324
22	0xbefb6a47	-0.4910452
23	0xbe77f5ce	-0.24214861
24	0xbee74dc6	-0.45176524
25	0xbf84b07e	-1.0366361
26	0x3f58883d	0.84582883
27	0xbf320c96	-0.69550455
28	0xbe96d64b	-0.29460368
29	0xbf46d8eb	-0.7767474
30	0xbf777b57	-0.96672577
31	0xbf2a1781	-0.66442114
32	0xbeaf003a	-0.3417986
33	0xbf9ef2bf	-1.241783
34	0x3e006d1e	0.12541625
35	0xbf411757	-0.7542624
36	0xbf3ef6d8	-0.74595404
37	0xbf179139	-0.5920597
38	0xbf815e6d	-1.0106941
39	0xbe8bbe50	-0.27293634
40	0xbf28bf90	-0.659173
41	0xbf853fe1	-1.0410119
42	0xbf9d3b7f	-1.2283782
43	0xbfba8226	-1.4570968
44	0xbf4298b7	-0.76014274
45	0xbf8f1596	-1.1178463
46	0xbf6499bd	-0.89297086
47	0xbf37e91a	-0.7184006
48	0xbfb0742e	-1.3785455
49	0xbf895741	-1.0729753
50	0xbf3eb08f	-0.7448816
51	0xbf971f04	-1.180634
52	0xbe5ef2cd	-0.21772309
53	0xbe97deb9	-0.2966211
54	0xbfa327b1	-1.2746488
55	0xbf411972	-0.7542945
56	0xbe2b54c2	-0.16731551
57	0xbf53b59c	-0.8269899
58	0xbf64e061	-0.89404875
59	0xbf9f2661	-1.2433587
60	0xb99a4bdd	-0.00029429691
61	0xbf68ebd9	-0.90984875
62	0xbe3868e9	-0.1800877
63	0xbf7ffcb2	-0.9999496
64	0x3e8905a1	0.26762107
65	0xbf74e2ca	-0.9565855
66	0xbfc0c716	-1.5060756
67	0xbe770977	-0.24124704
68	0xbf8a0c79	-1.0785056
69	0xbfcd0028	-1.6015673
70	0xbf8d6986	-1.1047828
71	0xbe9ba5d7	-0.30399963
72	0xbf87b8d2	-1.0603278
73	0xbfa5a228	-1.2940111
74	0xbfb917ce	-1.446039
75	0xbed1d435	-0.40982214
76	0xbfd9ab97	-1.700549
77	0xbf85b679	-1.0446311
78	0xbf0b7e5b	-0.5448968
79	0xbf0bef23	-0.5466177
80	0x3f424cfc	0.7589872
81	0xbf74d7f1	-0.95642
82	0xbfb0c971	-1.3811475
83	0xbf20332e	-0.62578094
84	0xbf315269	-0.6926637
85	0xbed09e1f	-0.40745637
86	0xbfa84fae	-1.3149316
87	0xbf80888c	-1.0041671
88	0x3de36792	0.11103739
89	0xbf9e449e	-1.236469
90	0x3f4fc5c8	0.81161165
91	0xbf7c3128	-0.98512506
92	0x3ebd84a5	0.37015262
93	0xbf6220ae	-0.88331115
94	0xbf100a33	-0.5626556
95	0xbf8397e9	-1.0280734
96	0xbfc91a74	-1.5711198
97	0xbf65c502	-0.89753735
98	0xbf5efbda	-0.87103045
99	0xbfca5d0a	-1.5809643
100	0xbf972d20	-1.1810646
101	0xbf6605ea	-0.89852774
102	0xbfaaac01	-1.3333741
103	0xc003be3a	-2.0584855
104	0xbee5144f	-0.44742057
105	0xbfc84a65	-1.5647703
106	0xbf6ad34f	-0.9172868
107	0xbfb065cc	-1.3781066
108	0xbfc93e5a	-1.5722153
109	0xbf7d946b	-0.9905459
110	0xbd19d6d1	-0.03755838
111	0xbf67513e	-0.9035834
112	0xbf9e816f	-1.238325
113	0xbfe487a4	-1.7853894
114	0xbfa5f15c	-1.2964282
115	0xbf9425b7	-1.157401
116	0xbfc8bae8	-1.5682039
117	0xbfd4116a	-1.6567814
118	0xbfa35f69	-1.2763492
119	0xbf281e46	-0.65671194
120	0xbf9fca3e	-1.2483594
121	0xbfa3e16a	-1.2803166
122	0xbf904e9c	-1.127399
123	0xbf4ae5b3	-0.79256743
124	0xbf309722	-0.6898061
125	0xbf322330	-0.6958494
126	0xbfbf6f01	-1.4955751
127	0xbf176075	-0.59131557
128	0x3f8eccf7	1.11563
129	0x3e99ae0e	0.30015606
130	0x3f4756f9	0.77867085
131	0x3f39fc59	0.72650677
132	0x3f333daf	0.70015997
133	0x3eb3688b	0.35040697
134	0xbee6d32e	-0.45082992
135	0x3e01c9ab	0.12674586
136	0xbe360382	-0.17774776
137	0x3eb52d17	0.35385963
138	0xbeead2fa	-0.45864087
139	0xbf95ad25	-1.1693465
140	0x3f56f452	0.83966553
141	0x3f1f58c4	0.6224482
142	0x3ed0dc4f	0.40793082
143	0x3f296e38	0.66183805
144	0xbf281350	-0.6565447
145	0x3e9b5376	0.30337113
146	0x3f056fe8	0.5212388
147	0x3e579edc	0.21056694
148	0xbeb55f7d	-0.35424414
149	0x3fa5565a	1.2916977
150	0xbeadc5b8	-0.3393991
151	0xbeb24933	-0.34821472
152	0xbebf4859	-0.37359884
153	0x3e95774f	0.29192588
154	0xbf3f8745	-0.7481578
155	0xbef9424c	-0.48683393
156	0x3f12135f	0.5706081
157	0xbe66df02	-0.22546008
158	0xbd9943c6	-0.0748363
159	0xbce0cbdc	-0.027440958
160	0xbe567572	-0.2094324
161	0xbf84f627	-1.038762
162	0x3d2a1793	0.04152639
163	0x3f55bc7d	0.83490735
164	0x3ea36096	0.31909627
165	0xbf42e81e	-0.7613543
166	0x3f2dc85c	0.6788385
167	0xbdf4b4c0	-0.11948538
168	0x3f7616b0	0.9612837
169	0xbeb66038	-0.35620284
170	0x3eb090c6	0.34485453
171	0xbe912387	-0.28347418
172	0xbf046d69	-0.51729447
173	0xbd32ae39	-0.043623183
174	0xbf11f76b	-0.57018155
175	0x3f48291d	0.78187734
176	0x3f229a1e	0.63516414
177	0xbea6b04e	-0.32556385
178	0xbf115ad3	-0.5677921
179	0xbe8ac21f	-0.27101228
180	0xbf710902	-0.9415437
181	0x3ee7d5d5	0.45280328
182	0x3d93fd73	0.07226076
183	0x3e6b99ce	0.2300789
184	0xbec629c1	-0.3870373
185	0xbe95b083	-0.2923623
186	0x3f584506	0.8448032
187	0x3da5b01d	0.080902316
188	0xbf8f7f27	-1.1210679
189	0xbe9d3c22	-0.3070994
190	0x3eaa07e2	0.3320914
191	0xbe2aad0e	-0.16667578
192	0xbbf424af	-0.007450662
193	0xbf80908d	-1.0044113
194	0xbf8c2f47	-1.0951928
195	0xbf5e0603	-0.86727923
196	0x3e908c98	0.28232265
197	0xbf41cd91	-0.75704294
198	0xbf47e8e0	-0.78089714
199	0xbf88cf44	-1.0688252
200	0xbf227377	-0.63457435
201	0x3eba1d08	0.36350274
202	0xbe96a89c	-0.29425514
203	0x3e441408	0.19148266
204	0xbf55326e	-0.83280075
205	0xbf4f911c	-0.81080794
206	0xbf7b1cf9	-0.98091084
207	0xbf4f0063	-0.80859965
208	0x3cefee1d	0.029288346
209	0xbf9292fa	-1.1451104
210	0xbf3f1402	-0.74639904
211	0xbe39f2f5	-0.18159087
212	0xbf6b1162	-0.918234
213	0x3e587a41	0.21140386
214	0xbf504f1a	-0.813707
215	0x3ecebaac	0.40376794
216	0xbf09bd42	-0.5380441
217	0xbf8821f7	-1.0635365
218	0xbeeeb36f	-0.46621272
219	0xbf3c7cdf	-0.7362804
220	0x3bab84cd	0.005234337
221	0xbf80624f	-1.0030001
222	0xbf6e0750	-0.9297991
223	0xbe602b4b	-0.21891515
224	0xbecd3237	-0.40077373
225	0xbf8af4ee	-1.0855997
226	0xbeb70eac	-0.3575338
227	0xbe36bd9c	-0.17845768
228	0xbf4d02fb	-0.8008267
229	0xbee92631	-0.4553695
230	0xbf7a7ef5	-0.9784997
231	0x3db45683	0.08805563
232	0xbe98f958	-0.29877734
233	0xbf937532	-1.152014
234	0xbf99bc49	-1.2010585
235	0xbf831db6	-1.0243442
236	0xbf6088cc	-0.87708735
237	0xbf869dce	-1.0516908
238	0xbf60072a	-0.8751093
239	0xbf02c96e	-0.5108861
240	0xbfa14dc6	-1.260186
241	0xbf58760b	-0.8455512
242	0xbf57f090	-0.84351444
243	0xbf98f060	-1.1948357
244	0xbeea300d	-0.45739785
245	0xbf009211	-0.5022288
246	0xbf742f86	-0.95385015
247	0xbf36f8ab	-0.7147319
248	0xbd082b0b	-0.033244174
249	0xbf7f1afb	-0.99650544
250	0xbf561626	-0.83627546
251	0xbfa19103	-1.2622379
252	0x3d353f48	0.044249803
253	0xbf3691e2	-0.7131635
254	0xbeb8398a	-0.359814
255	0xbf8301f0	-1.0234966

lstm.bias_hh_l0 f4 [256]
0	0xbf39091a	-0.7227951
1	0xbf96a8e3	-1.177029
2	0xbf87c2f5	-1.0606371
3	0xbf688a23	-0.9083578
4	0xbf4e65ea	-0.8062426
5	0xbf461e7f	-0.77390283
6	0xbf83ea77	-1.0305928
7	0xbf50e686	-0.8160175
8	0xbf570bca	-0.84002364
9	0xbe78bd52	-0.2429097
10	0xbddc1562	-0.10746266
11	0x3e1b3efb	0.15160744
12	0xbf116cd6	-0.56806695
13	0xbf812bc3	-1.009148
14	0xbf884b02	-1.064789
15	0xbf57673b	-0.8414189
16	0x3f188b8b	0.59587926
17	0xbf81291b	-1.0090669
18	0x3bc59430	0.006029628
19	0x3e19b91c	0.1501202
20	0xbf9653d6	-1.1744335
21	0x3dac8b0c	0.084249586
22	0xbf0b5683	-0.5442888
23	0xbeb7088c	-0.35748708
24	0xbec4d358	-0.38442492
25	0xbf8d21e0	-1.1025963
26	0x3f734a39	0.9503513
27	0xbf34a3a3	-0.7056219
28	0xbe3b07c1	-0.18264677
29	0xbf73d6e2	-0.9524976
30	0xbf62b9a2	-0.88564503
31	0xbf21c8e9	-0.6319719
32	0xbe872238	-0.26393294
33	0xbf9e9b41	-1.239113
34	0x3da6a2b6	0.081365034
35	0xbf45b5a9	-0.77230316
36	0xbf0b9737	-0.5452761
37	0xbf1a6b21	-0.60319716
38	0xbf73d230	-0.95242596
39	0xbe430b52	-0.19047287
40	0xbf0d0d2c	-0.55098224
41	0xbf8652a3	-1.0493969
42	0xbf833c48	-1.0252771
43	0xbfa33485	-1.2750403
44	0xbf3f1f99	-0.7465759
45	0xbf980f09	-1.1879588
46	0xbf59b1ef	-0.8503713
47	0xbf337c64	-0.7011168
48	0xbfaa9d10	-1.3329182
49	0xbf84d21e	-1.0376623
50	0xbf4f7263	-0.81033915
51	0xbf9d965c	-1.2311511
52	0xbe85afe1	-0.26110747
53	0xbea744f7	-0.32669804
54	0xbf918f9a	-1.1371949
55	0xbf63d5c3	-0.8899805
56	0xbdd050db	-0.10171672
57	0xbf6a9b99	-0.91643673
58	0xbf66e04d	-0.90186006
59	0xbfb89dc3	-1.4423145
60	0x3e1ba3e3	0.15199237
61	0xbf6493d6	-0.8928808
62	0xbe7572ff	-0.23969649
63	0xbf740bc5	-0.9533046
64	0x3ec9428f	0.39308593
65	0xbf7ec494	-0.99518704
66	0xbfd13178	-1.6343222
67	0xbd4dc237	-0.050234046
68	0xbf7d6a98	-0.98990774
69	0xbfde92d2	-1.7388556
70	0xbf683cde	-0.90717876
71	0xbe6ef68a	-0.23336235
72	0xbf75bf76	-0.9599527
73	0xbfaee965	-1.3664976
74	0xbfc37e6f	-1.527296
75	0xbeb30b71	-0.34969667
76	0xbfc3fab4	-1.5310884
77	0xbf72fcad	-0.949168
78	0xbee338b6	-0.44379205
79	0xbf21f8c1	-0.63270193
80	0x3f29dff1	0.6635733
81	0xbf6a8907	-0.9161534
82	0xbfbd493b	-1.4787973
83	0xbee0f0c4	-0.4393369
84	0xbf25ee3a	-0.6481663
85	0xbf015cb2	-0.50532067
86	0xbfa13fd2	-1.2597601
87	0xbf6f618b	-0.93508214
88	0x3e042afb	0.12907021
89	0xbf9ef2e8	-1.2417879
90	0x3f659361	0.8967801
91	0xbf5656c3	-0.8372614
92	0x3ee17464	0.44034111
93	0xbf842134	-1.0322633
94	0xbecb962b	-0.39763007
95	0xbf87ede5	-1.0619475
96	0xbfc24b79	-1.5179282
97	0xbf7ae441	-0.9800454
98	0xbf616729	-0.88048035
99	0xbfcc2e7f	-1.595169
100	0xbf92a3db	-1.1456255
101	0xbf6f5e26	-0.93503034
102	0xbfa91303	-1.3208927
103	0xc006dca2	-2.1072164
104	0xbef5ece6	-0.48032302
105	0xbfc2ee80	-1.5229034
106	0xbf3af120	-0.7302418
107	0xbfb73ac4	-1.4314809
108	0xbfbf40c9	-1.4941646
109	0xbf5d5528	-0.86458063
110	0x3dc05b89	0.09392459
111	0xbf4cd960	-0.8001919
112	0xbf921d0e	-1.1415117
113	0xbfea4346	-1.830178
114	0xbfa8a0a7	-1.3174027
115	0xbf948e07	-1.1605843
116	0xbfda1c44	-1.7039876
117	0xbfef1e98	-1.8681211
118	0xbfa042c4	-1.2520375
119	0xbf1bcbf6	-0.60858095
120	0xbfa1908c	-1.2622237
121	0xbfb49722	-1.4108622
122	0xbf8c9f73	-1.098616
123	0xbf50da7d	-0.81583387
124	0xbf1fe904	-0.6246493
125	0xbf381ed9	-0.7192207
126	0xbfd83ede	-1.6894186
127	0xbf35476a	-0.70812094
128	0x3f862789	1.0480815
129	0x3e9c485b	0.30523953
130	0x3f4f968a	0.8108908
131	0x3f2f49fd	0.6847227
132	0x3f39f1e3	0.72634715
133	0x3ec3673c	0.381647
134	0xbeaced50	-0.33774805
135	0xbbad6205	-0.005291226
136	0xbebd43f8	-0.3696592
137	0x3e85f24b	0.26161417
138	0xbef84795	-0.48492113
139	0xbfa33e93	-1.2753471
140	0x3f440952	0.7657672
141	0x3f02b095	0.5105069
142	0x3e927061	0.28601363
143	0x3f182d3c	0.5944402
144	0xbf077cbf	-0.5292472
145	0x3e09e2bc	0.13465399
146	0x3ef5f684	0.4803964
147	0x3e5936eb	0.21212356
148	0xbeb901e3	-0.36134252
149	0x3f921bbc	1.1414714
150	0xbea6885b	-0.32525906
151	0xbeb66235	-0.356218
152	0xbea2c442	-0.31790358
153	0x3e90b0aa	0.28259784
154	0xbf4a812e	-0.7910336
155	0xbeebdc55	-0.46066537
156	0x3f3e20e3	0.7426893
157	0xbe5df8d0	-0.21676946
158	0x3e09db8a	0.13462654
159	0xbdd7d019	-0.10537738
160	0xbe62ba3d	-0.22141357
161	0xbf799cc1	-0.9750481
162	0x3de6e77b	0.1127462
163	0x3f5c568f	0.8606958
164	0x3ec12dd5	0.3773028
165	0xbf4d9aa0	-0.80314064
166	0x3f314456	0.692449
167	0xbeafc86d	-0.343326
168	0x3f5b1b1a	0.8558823
169	0xbeb075a4	-0.34464753
170	0x3e87d619	0.2653053
171	0xbe7c93d7	-0.24665771
172	0xbf0049b2	-0.5011245
173	0xbe28ba66	-0.16477355
174	0xbf29bb4c	-0.6630142
175	0x3f474d05	0.778519
176	0x3ed8148d	0.4220318
177	0xbeb06f86	-0.34460086
178	0xbf056b9f	-0.5211734
179	0xbec0eb5f	-0.37679574
180	0xbf48abd0	-0.78387165
181	0x3f159279	0.58426625
182	0xbdff8788	-0.124770224
183	0x3eb6f4a6	0.35733527
184	0xbeb226f2	-0.34795338
185	0xbe7fc077	-0.24975763
186	0x3f6a40aa	0.9150492
187	0x3daa5d18	0.083185375
188	0xbf94fac7	-1.1639031
189	0xbf098e3a	-0.53732646
190	0x3e401434	0.18757707
191	0xbe6e15cd	-0.23250504
192	0xbe5cc8a4	-0.21560913
193	0xbf75e0ba	-0.9604603
194	0xbf933dfd	-1.1503292
195	0xbf5f67c6	-0.8726772
196	0x3e760f60	0.24029303
197	0xbf638f02	-0.8889009
198	0xbf31cdca	-0.69454634
199	0xbf7ac5ea	-0.9795824
200	0xbf3c73ff	-0.73614496
201	0x3f067f00	0.52537537
202	0xbeac4ab4	-0.33650744
203	0x3e55e9e4	0.20890003
204	0xbf61ab44	-0.88151956
205	0xbf6ce333	-0.9253418
206	0xbf841a55	-1.0320536
207	0xbf456e1d	-0.77121145
208	0x3dbfc026	0.09362821
209	0xbf8fc120	-1.1230812
210	0xbf25e68e	-0.64804924
211	0xbea3050c	-0.31839788
212	0xbf74d990	-0.95644474
213	0x3e5a4c49	0.21318163
214	0xbf6f64bb	-0.9351308
215	0x3ef29909	0.47382382
216	0xbf2c0e13	-0.67208976
217	0xbfa108ea	-1.2580845
218	0xbf34309f	-0.7038669
219	0xbf256650	-0.6460924
220	0xbc4183a1	-0.011811168
221	0xbf5508dc	-0.83216643
222	0xbf63d7c7	-0.89001125
223	0xbe650818	-0.22366369
224	0xbed34fb6	-0.41271752
225	0xbf95de0f	-1.1708392
226	0xbefefe12	-0.49803215
227	0xbe815f88	-0.25268197
228	0xbf2b6eea	-0.66966116
229	0xbf00d0ca	-0.50318587
230	0xbf57ac02	-0.8424684
231	0x3e0ea2cb	0.13929288
232	0xbee6e97c	-0.4510001
233	0xbf8bcb72	-1.0921462
234	0xbf85ee02	-1.0463259
235	0xbf9319ed	-1.1492287
236	0xbf83adf0	-1.0287457
237	0xbf84f470	-1.0387096
238	0xbf4ea93b	-0.80726975
239	0xbf086b2b	-0.53288525
240	0xbfb04116	-1.3769863
241	0xbf7972d8	-0.9744086
242	0xbf3c36b5	-0.73520976
243	0xbf89cf77	-1.0766438
244	0xbf29b935	-0.6629823
245	0xbec7541a	-0.38931352
246	0xbf839d54	-1.0282388
247	0xbf491379	-0.7854534
248	0xbd973cc6	-0.073846385
249	0xbf7aa92d	-0.9791439
250	0xbf593c76	-0.8485788
251	0xbf9e1abe	-1.2351911
252	0x3e55725c	0.20844406
253	0xbf38b1a4	-0.7214606
254	0xbe51730c	-0.20454043
255	0xbf87812d	-1.0586296

lstm.weight_ih_l1 f4 [256, 64]
0	0xbfab3b72	-1.3377516
1	0x3d845bad	0.06462798
2	0x3d5ec214	0.054384306
3	0x3e7410e0	0.23834562
4	0xbeac3235	-0.33632055
5	0xbd3bba9f	-0.045832273
6	0xbda1f8f8	-0.07908815
7	0xbd1e428c	-0.038637683
8	0xbe354484	-0.17701918
9	0xbefad03e	-0.48987
10	0xbd47951d	-0.04872619
11	0x3fa0a454	1.2550149
12	0xbe0c9691	-0.13729312
13	0xbddc69a4	-0.10762337
14	0x3df4c1a7	0.11950999
15	0xbe9f4cc1	-0.31113246
16	0x3f920d1f	1.1410254
17	0xbe4514cc	-0.19246215
18	0x3e809382	0.2511254
19	0xbe87c32e	-0.26516098
20	0x3ea7233a	0.32644063
21	0xbf2a629a	-0.66556704
22	0x3db7d484	0.08976081
23	0x3eac0d26	0.3360378
24	0xbe05060e	-0.12990591
25	0x3ca1cffb	0.019752493
26	0x3f0aad29	0.5417047
27	0xbe121ae8	-0.14268076
28	0xbf2f4d8c	-0.684777
29	0xbd68f5f2	-0.056875177
30	0x3dd17401	0.10227204
31	0x3f239348	0.6389661
32	0xbef98752	-0.48736054
33	0x3e282611	0.16420771
34	0x3dab212f	0.08355939
35	0xbf7ad674	-0.9798348
36	0x3e9b4060	0.30322552
37	0x3f5c513b	0.8606145
38	0x3dc587f6	0.09645073
39	0xbee74852	-0.45172364
40	0xbf98c83b	-1.1936105
41	0xbd09a5eb	-0.033605497
42	0x3ed20884	0.41022122
43	0xbe857a0e	-0.26069683
44	0x3e4df628	0.20113432
45	0xbf4ce69d	-0.8003939
46	0x3e1e83ad	0.15479918
47	0x3db95813	0.09050002
48	0xbde64c52	-0.11245026
49	0xbe89d67f	-0.2692146
50	0x3b41c1f1	0.002956506
51	0xbe0c69a3	-0.13712172
52	0x3e7ec2d4	0.24879009
53	0x3f009721	0.50230604
54	0xbe8b0548	-0.27152467
55	0x3ebfa6da	0.37431985
56	0x3f7bf34a	0.98418105
57	0xbe2ec76b	-0.1706826
58	0xbf7831ec	-0.96951175
59	0xbdabb743	-0.08384564
60	0x3f3ce4d4	0.73786664
61	0xbf01ff48	-0.50780153
62	0x3e300647	0.17189895
63	0xbec419b9	-0.38300875
64	0xc023374a	-2.5502496
65	0x3e66c49c	0.22535938
66	0xbf27a7de	-0.6549052
67	0xbea330ba	-0.31873113
68	0xc0081673	-2.1263702
69	0x3eddf518	0.43351054
70	0x3f08ce9e	0.5344027
71	0xbe15e3ac	-0.14637631
72	0x3f676fd7	0.9040503
73	0xbeaab033	-0.33337554
74	0x3ea0574a	0.31316596
75	0x4008d329	2.1378882
76	0xbf42db2a	-0.7611567
77	0xbf1b7d22	-0.6073781
78	0xbe2022b5	-0.1563824
79	0xbfc7298f	-1.5559558
80	0x3fd727fe	1.680908
81	0xbea9e8f1	-0.33185533
82	0xbf8296ad	-1.0202233
83	0x3e772dfa	0.24138632
84	0x3fe18c58	1.7620955
85	0xbfe01a60	-1.7508049
86	0x3de6576d	0.11247144
87	0x3e8bd420	0.27310276
88	0x3dac8fc1	0.084258564
89	0xbeb95524	-0.3619777
90	0x3ec49558	0.3839519
91	0x3f59e9d6	0.8512243
92	0x3cb4cd12	0.022070441
93	0x3ecd5b04	0.40108502
94	0xbdba453c	-0.09095237
95	0x3f1dfa13	0.6170971
96	0x3ef2fb8f	0.4745755
97	0x3f8547c4	1.0412526
98	0xbf3d7984	-0.74013543
99	0xc014203e	-2.314468
100	0xbf5cd3aa	-0.86260474
101	0x3f698df7	0.91232246
102	0xbec3ee36	-0.38267678
103	0x3f0b20ce	0.5434693
104	0xc0076946	-2.1158004
105	0x3b6f076b	0.0036472927
106	0xbe97e4de	-0.296668
107	0x3f2b1f9a	0.66845095
108	0x3e977c76	0.29587144
109	0xbfc3b434	-1.5289369
110	0xbe34f8e0	-0.17673063
111	0x3f039a06	0.51406896
112	0xbeacc430	-0.3374343
113	0xbf487b25	-0.78312904
114	0x3fbdd4ff	1.4830626
115	0x3cc2702b	0.023735126
116	0x3f432b8b	0.76238316
117	0x3e93d4c5	0.28873268
118	0xbe6feee5	-0.23430975
119	0xbf21689f	-0.63050264
120	0x3f30d70a	0.69078124
121	0x3ebf7a64	0.37398064
122	0xbe7b4ce9	-0.24541058
123	0x3d5509ad	0.05201118
124	0x400ceb80	2.2018738
125	0x3ed7a6b3	0.4211937
126	0xbe992620	-0.299119
127	0x3ebe469c	0.37163246
128	0xbf991d35	-1.1962038
129	0x3e0257d0	0.1272881
130	0xbea6a2f9	-0.32546213
131	0x3e33bd31	0.1755264
132	0xbf18834f	-0.5957536
133	0xbcb39d16	-0.02192549
134	0x3f5c6820	0.8609638
135	0x3ded71a5	0.115939416
136	0x3f2ecb58	0.6827903
137	0xbe30bc8c	-0.17259425
138	0x3f1461e1	0.5796185
139	0x3fdb0470	1.7110729
140	0xbf2d6c91	-0.67743784
141	0xbf1ba881	-0.6080399
142	0xbd5a6165	-0.05331554
143	0xbf0f164c	-0.558934
144	0x3f9cab2b	1.2239736
145	0xbd9bdcae	-0.07610451
146	0xbe3c1200	-0.18366241
147	0x3e1e0834	0.15432817
148	0x3f6e218e	0.9301995
149	0x3d760ab7	0.060068812
150	0xbe0bf82e	-0.13668892
151	0x3db944f4	0.09046355
152	0xbdb2fc84	-0.0873957
153	0x3e270f8a	0.16314521
154	0x3f9c6dcb	1.2221006
155	0x3ea46590	0.32108736
156	0x3dcddc50	0.10051787
157	0x3d5b5714	0.05354984
158	0x3ea6ac8f	0.32553527
159	0x3ef32877	0.4749181
160	0xbdd29dd1	-0.10284007
161	0x3f59d9f4	0.85098195
162	0xbda9a4b6	-0.08283369
163	0xbf651d02	-0.8949739
164	0x3cd11754	0.025523819
165	0x3eee4626	0.46537894
166	0xbedcbcbb	-0.4311274
167	0x3e93cc53	0.28866825
168	0xbf64e310	-0.8940897
169	0x3e74fc66	0.23924407
170	0xbf2e7bed	-0.68157846
171	0xbe45a1aa	-0.19299951
172	0xbe043f2e	-0.12914726
173	0xbf4f2066	-0.8090881
174	0x3dfb9dc1	0.122859485
175	0x3efa3cf5	0.48874632
176	0x3d3e361b	0.046438318
177	0xbe8329f1	-0.25617936
178	0x3f1eb43a	0.61993754
179	0xbeed53dc	-0.46353042
180	0x3ecfd42e	0.40591568
181	0xbe5771f3	-0.21039562
182	0xbf016386	-0.50542486
183	0xbd4cafe3	-0.049972426
184	0x3ed9dac5	0.4254972
185	0x3e8b7ed1	0.2724519
186	0xbee5ff97	-0.44921562
187	0xbe86286b	-0.2620271
188	0x3f873ecb	1.0566038
189	0x3e164f61	0.14678718
190	0xbef177fc	-0.47161853
191	0xbd8f034a	-0.06983049
192	0xc00af17d	-2.1709893
193	0x3d826399	0.06366653
194	0xbed2d4c2	-0.41177946
195	0xbed98343	-0.42482957
196	0xbf8a1c31	-1.0789853
197	0x3e2298cf	0.15878604
198	0x3f39db30	0.7260008
199	0xbe6c2406	-0.23060617
200	0x3fb91ed4	1.4462533
201	0xbf1f0356	-0.62114465
202	0x3f200749	0.62511116
203	0x3fc053a1	1.5025522
204	0xbead19af	-0.33808658
205	0xbebb0ec2	-0.36534697
206	0xbda3d051	-0.079987176
207	0xbf46c77c	-0.7764814
208	0x3fe5e80a	1.7961438
209	0xbcb229c6	-0.021748435
210	0xbed892fb	-0.42299637
211	0xbf353ce9	-0.70796067
212	0x3fff2d4a	1.9935696
213	0xbfa3e311	-1.280367
214	0x3f0f2e1b	0.55929726
215	0x3f9ab152	1.2085364
216	0xbdd7d6b4	-0.10538998
217	0x3e879ef7	0.26488468
218	0x3fed399a	1.8533204
219	0x3ef33303	0.47499856
220	0xbcaee047	-0.021347178
221	0x3f01730c	0.5056617
222	0xbf050a09	-0.5196844
223	0x3f38c890	0.72181034
224	0xbde285cb	-0.11060675
225	0x3f9f1005	1.2426764
226	0xbe5de11f	-0.21667908
227	0xbf749ec1	-0.9555474
228	0x3e8b0d2b	0.27158484
229	0x3f3e5cb8	0.7436023
230	0xbf33b5f5	-0.7019952
231	0xbdd3372a	-0.10313256
232	0xc03cd80d	-2.9506867
233	0xbf3065d3	-0.6890537
234	0xbf07f589	-0.5310903
235	0x3e5824bd	0.21107765
236	0x3e2c84dc	0.16847557
237	0xbf5d8786	-0.8653492
238	0x3dd4eb5e	0.10396455
239	0xbe63163a	-0.22176448
240	0x3e1ddd0c	0.15416354
241	0xbea70038	-0.32617354
242	0x3f578dd2	0.84200776
243	0xbd9d80c2	-0.07690574
244	0x3fbe6814	1.4875512
245	0x3e92efcb	0.28698573
246	0xbe96ada6	-0.29429358
247	0xbea3f1e9	-0.320205
248	0x3eaeba04	0.34126294
249	0x3baa251e	0.005192413
250	0xbf180b6d	-0.59392434
251	0x3e34b80c	0.17648333
252	0x400ecb75	2.231168
253	0x3e91eb0a	0.28499633
254	0x3d71ee59	0.059065197
255	0xbdc23e68	-0.09484559

lstm.weight_hh_l1 f4 [256, 64]
0	0x3f3841f1	0.7197562
1	0x3f80d756	1.0065715
2	0x3e85b750	0.2611642
3	0xbe9d5245	-0.3072683
4	0xbd18734b	-0.037219327
5	0xbf0f0d0f	-0.558793
6	0xbd674143	-0.056458723
7	0xbea9fc93	-0.3320051
8	0x3e784eff	0.24248885
9	0xbf81a860	-1.0129509
10	0xbfb9e21e	-1.452213
11	0xbdddcf59	-0.10830564
12	0xbeb86446	-0.36014003
13	0x3f781d4f	0.9691972
14	0x3dce19a6	0.10063486
15	0xbd978d57	-0.07400005
16	0xbf722ee2	-0.9460279
17	0xbf4a9089	-0.79126793
18	0x3eb8271b	0.35967335
19	0xbf23d491	-0.63996226
20	0x3bda90c2	0.0066700885
21	0xbdaad71a	-0.083418086
22	0xbfde395b	-1.7361253
23	0x3dd1ce23	0.102443956
24	0x3edeecd1	0.43540052
25	0x3e633526	0.22188243
26	0x3ceb8aa6	0.028752636
27	0xbebce9e0	-0.36897182
28	0xbeeae6be	-0.45879167
29	0x3f6e9ea0	0.9321079
30	0x3d821a71	0.063526995
31	0x3e08bd24	0.13353401
32	0x3e7b9774	0.24569494
33	0xbf64f16c	-0.8943088
34	0x3f188a28	0.5958581
35	0x3d92646e	0.07148062
36	0x3decda38	0.115650594
37	0xbea93e9c	-0.3305558
38	0xbdb09be8	-0.08623487
39	0xbec7b65e	-0.39006323
40	0x3ea2cb6e	0.3179583
41	0x3ea96a3c	0.33088863
42	0x3d4bc485	0.049747963
43	0xbeeccbae	-0.46249145
44	0xbf138360	-0.5762234
45	0xbe74a4f1	-0.23891045
46	0x3e4f6d8c	0.20256633
47	0x3eff4237	0.49855205
48	0x3f031b9b	0.51214
49	0xbf53f8d9	-0.82801586
50	0xbb7ac25b	-0.0038262818
51	0x3fb012f2	1.3755782
52	0xbf3f8ab7	-0.7482104
53	0x3f16b2c4	0.58866525
54	0xbdf4b099	-0.11947746
55	0xbe9a5e85	-0.30150238
56	0x3f26d8f2	0.6517478
57	0xbedbf56c	-0.4296068
58	0xbe05fe31	-0.13085248
59	0x3ef89b24	0.48555863
60	0x3d96f8e6	0.07371692
61	0xbe5a5529	-0.21321549
62	0x3f4ea1a5	0.807154
63	0xbf732603	-0.94979876
64	0xbe5ad3c3	-0.21369843
65	0x3f511519	0.8167282
66	0xbeb830ae	-0.3597464
67	0xbe8a2243	-0.26979265
68	0xbf205637	-0.62631553
69	0xbea799b8	-0.32734466
70	0xbf284434	-0.6572907
71	0xbc48c267	-0.01225338
72	0x3df9de4a	0.122006014
73	0xbf8e5967	-1.1121033
74	0xbf36a83c	-0.71350455
75	0x3f63b562	0.88948643
76	0xbde34914	-0.11097923
77	0x3fa6f2b2	1.3042815
78	0xbe7dca72	-0.24784258
79	0xbe2dfdfc	-0.16991419
80	0xbf035906	-0.51307714
81	0xbf7d7ba7	-0.99016804
82	0x3e5a5375	0.21320899
83	0xbe9c6b16	-0.3055045
84	0xbe3c0375	-0.18360694
85	0xbe9a8f6f	-0.30187556
86	0xbf986d47	-1.1908349
87	0x3e0411ed	0.12897463
88	0x3f110c6b	0.56659573
89	0x3e5e4715	0.21706803
90	0xbe3bf9b3	-0.18356971
91	0xbfb60c9a	-1.4222596
92	0xbe8c9ada	-0.27461892
93	0x3f1cf52a	0.6131159
94	0x3ee7da08	0.45283532
95	0x3de45a44	0.11150029
96	0x3e5ced49	0.21574892
97	0x3ea15a11	0.31514028
98	0x3fb5f34d	1.4214875
99	0xbddd1308	-0.107946455
100	0x3ebd3000	0.36950684
101	0x3d434040	0.047668695
102	0x3f7444b3	0.95417327
103	0xbf086b66	-0.53288877
104	0x3f37e0b2	0.7182723
105	0x3e90ea17	0.28303596
106	0xbe4a7fe5	-0.1977535
107	0x3ea9f29d	0.33192912
108	0xbebe1bc0	-0.37130547
109	0xbed12557	-0.408488
110	0xbd2cb2e5	-0.042162795
111	0x3f67d61d	0.90561086
112	0xbecfdf11	-0.40599874
113	0xbe8dbb53	-0.2768198
114	0xbd9946aa	-0.07484181
115	0x3fb3acf9	1.4037162
116	0xc00977d9	-2.14794
117	0xbe757f7b	-0.23974411
118	0x3ecb8846	0.39752406
119	0xbe3b65ea	-0.18300596
120	0x3f36bf78	0.7138591
121	0xbe34880a	-0.1763002
122	0x3e2ee6af	0.17080186
123	0x3e4feade	0.20304438
124	0x3f172426	0.59039533
125	0xbb13352f	-0.002246212
126	0x3ec45be9	0.38351372
127	0xbf187f28	-0.59569025
128	0xbd227e32	-0.03967113
129	0x3e30f6f6	0.17281708
130	0xbd97f1b1	-0.07419146
131	0xbe5c3862	-0.21505883
132	0xbed32f5f	-0.4124708
133	0xbec87d72	-0.39158207
134	0xbda41193	-0.080111645
135	0xbddcc052	-0.1077887
136	0x3d04f168	0.032456785
137	0xbe417c5f	-0.188951
138	0xbf816f23	-1.0112041
139	0xbf08a024	-0.53369355
140	0xbeb4e8b1	-0.3533378
141	0x3e968979	0.29401758
142	0x3e15e76d	0.14639063
143	0xbe0f8c60	-0.14018393
144	0x3bd9cc88	0.0066466965
145	0xbeeeb2ab	-0.46620688
146	0x3e98914e	0.2979836
147	0xbe801232	-0.25013882
148	0xbda846d4	-0.082166344
149	0xbca9ba0b	-0.020718595
150	0x3e5a83be	0.21339318
151	0x3e0dfaeb	0.13865249
152	0x3dfefff0	0.1245116
153	0xbd5d5d17	-0.054043856
154	0x3ba6b5c3	0.0050875857
155	0xbe884dd7	-0.26621887
156	0xbee2ed5a	-0.4432171
157	0x3e15234c	0.14564246
158	0x3da57d04	0.080804855
159	0x3da610c7	0.08108669
160	0xb8b5b417	-8.664297e-05
161	0x3f33f723	0.70298976
162	0x3f07476a	0.52843344
163	0x3d8e470b	0.06947144
164	0xbd670ab0	-0.056406677
165	0x3e978f4a	0.29601508
166	0xbf8155e7	-1.010434
167	0xbdae19e7	-0.08501034
168	0x3da540b3	0.08068981
169	0x3e5eb51d	0.21748777
170	0xbdaf4158	-0.08557385
171	0xbcb413b9	-0.02198206
172	0xbeba7a4b	-0.36421427
173	0x3d2237fd	0.039604176
174	0x3f69634e	0.9116715
175	0x3de23b76	0.110464975
176	0x3d7c3384	0.061572567
177	0xbeb770fb	-0.35828385
178	0xba2c7b12	-0.0006579618
179	0x3f5c16de	0.8597239
180	0xbee0feee	-0.43944496
181	0xbdd9e563	-0.10639455
182	0xbe9724cd	-0.29520264
183	0xbd851342	-0.06497814
184	0xbdc43efe	-0.09582327
185	0xbda99480	-0.08280277
186	0x3f400b62	0.7501737
187	0x3e3c0deb	0.18364684
188	0x3e3c5cf9	0.18394841
189	0xbea99d40	-0.33127785
190	0x3e3e733a	0.18598643
191	0xbef71789	-0.48260143
192	0x3cebff1d	0.02880817
193	0x3ea17959	0.31537893
194	0xbd9fc7b9	-0.07801766
195	0xbf49d34b	-0.7883803
196	0xbff4391f	-1.9079932
197	0xbd6edfb5	-0.058318812
198	0x3ddab3ce	0.10678826
199	0x3e1df5ee	0.15425846
200	0x3e830da2	0.2559634
201	0x3f05a4d4	0.5220463
202	0xbfb5a446	-1.4190757
203	0x3cecc99d	0.02890473
204	0x3f383aa6	0.7196449
205	0x3ed2ccb9	0.41171816
206	0xbefbf4a9	-0.49210098
207	0xbe84a8ee	-0.25910133
208	0x3e34a49b	0.17640917
209	0xbeb02ca5	-0.3440906
210	0x3f0b7c47	0.5448651
211	0xbfb5b67b	-1.4196314
212	0xbe1529a1	-0.14566661
213	0xbe50c4ce	-0.20387575
214	0xbf1c945e	-0.6116389
215	0x3e0278bd	0.1274137
216	0xbe5bc4c3	-0.21461777
217	0x3e940fb9	0.28918245
218	0x3dcf5063	0.101227544
219	0xbf0e40b6	-0.5556749
220	0xbf288972	-0.65834725
221	0x3f1c9a08	0.61172533
222	0x3f5d4318	0.864305
223	0x3eb2d294	0.34926283
224	0x3e79c34d	0.24390908
225	0x3dcc5f86	0.09979157
226	0x3f52731a	0.8220688
227	0x3dbe51a2	0.09292914
228	0xbddf7d4c	-0.1091257
229	0x3f14ef2e	0.5817746
230	0xbad081da	-0.0015907839
231	0x3dcfa7cc	0.101394266
232	0x3ee110c7	0.43958113
233	0xbea00a01	-0.31257632
234	0x3dba11fb	0.09085461
235	0xbe010734	-0.12600404
236	0xbf043209	-0.5163885
237	0x3e0f6169	0.14002003
238	0x3f866aad	1.0501305
239	0x3f0c2be0	0.5475445
240	0xbe22dbb3	-0.15904121
241	0xbfb124fd	-1.3839413
242	0xbdfa9d34	-0.12237015
243	0x3f68004c	0.90625453
244	0xbf567c4f	-0.8378343
245	0xbd1858e8	-0.037194163
246	0x3e059dc4	0.13048464
247	0xbebfb839	-0.37445238
248	0x3cba0b5f	0.0227105
249	0x3e0117f1	0.12606789
250	0xbefb90b6	-0.49133843
251	0xbe982f46	-0.29723567
252	0x3e2b50c0	0.16730022
253	0xbe87f283	-0.2655221
254	0x3e26823c	0.16260618
255	0x3f2986dc	0.66221404

lstm.bias_ih_l1 f4 [256]
0	0xbfc922f4	-1.5713792
1	0xbf988e40	-1.1918411
2	0xbfdc70bc	-1.7221904
3	0xbfa41e81	-1.2821809
4	0xbf68ac0d	-0.9088753
5	0xbf4c6c79	-0.79853016
6	0xbf908e3d	-1.1293408
7	0xbfad9c52	-1.356333
8	0xbfba985c	-1.4577746
9	0xbf27d26c	-0.65555453
10	0x3e2a871f	0.16653107
11	0xbecf4559	-0.40482596
12	0xbe1e41f9	-0.15454854
13	0xbec1e73b	-0.37871727
14	0xbee7a4dc	-0.45242965
15	0xbfced6e6	-1.6159332
16	0xbefc4f24	-0.4927913
17	0xbfae1998	-1.360156
18	0xbf6110df	-0.8791637
19	0xbf894c08	-1.0726328
20	0xbf9867fb	-1.1906732
21	0xbf47c57a	-0.780357
22	0x3cda168e	0.026622083
23	0xbf74831e	-0.9551257
24	0xbf9e29ba	-1.2356484
25	0xbfcbd72a	-1.5925038
26	0xbfa1d2f6	-1.2642505
27	0xbf348bc5	-0.7052577
28	0xbf8aa232	-1.0830748
29	0xbfb15dba	-1.3856728
30	0xbfb8346e	-1.4391
31	0xbfbe0ec5	-1.4848257
32	0xbf9c005f	-1.2187613
33	0xbfa46e09	-1.284608
34	0xbf7d824d	-0.9902695
35	0xbfd55949	-1.6667873
36	0xbe0f6edd	-0.14007135
37	0xbf6cd00a	-0.9250494
38	0xbf4257fc	-0.75915504
39	0xbf464850	-0.7745409
40	0xbf47bf7e	-0.7802657
41	0xbf8a81ec	-1.0820899
42	0xbfaf7151	-1.3706456
43	0xbf9ac0bb	-1.2090067
44	0xbf9f73f5	-1.2457262
45	0xbfa7de79	-1.3114768
46	0xbf81cbe8	-1.0140352
47	0xbf858b14	-1.0433068
48	0xbfc66834	-1.550055
49	0xbf86a9fb	-1.0520624
50	0xbfbbc99f	-1.4670905
51	0xbf3f8d2a	-0.74824774
52	0xbf87094d	-1.0549713
53	0xbfb614d1	-1.4225103
54	0xbf99d344	-1.2017598
55	0xbf1781ce	-0.5918244
56	0xbfa41b43	-1.282082
57	0xbfcfdf27	-1.6239976
58	0xbf8a92eb	-1.0826086
59	0xbf0d85e1	-0.5528241
60	0xbf968919	-1.1760589
61	0xbfadb8fb	-1.3572077
62	0xbf4f0612	-0.8086864
63	0xbeab9960	-0.33515453
64	0xbf0852ac	-0.5325115
65	0xbfa98d91	-1.3246328
66	0xbf4f50ea	-0.8098284
67	0xbf97eaeb	-1.1868566
68	0xbf83e52e	-1.0304315
69	0xbfa02c1b	-1.251346
70	0xbfb034f6	-1.3766162
71	0xbf5c8253	-0.8613636
72	0xbf7558fd	-0.9583891
73	0xbf25febc	-0.6484182
74	0xbecf54e1	-0.40494445
75	0xbfa4a513	-1.2862877
76	0x3e41cfc8	0.18926919
77	0xbf39a107	-0.72511333
78	0xbf123713	-0.57115287
79	0xbf4e77cf	-0.80651563
80	0xbe651570	-0.22371459
81	0xbfc6163c	-1.5475535
82	0xbf41f3d5	-0.75762683
83	0xbf1ecd30	-0.6203184
84	0xbf894f2b	-1.0727285
85	0xbfb4bdf6	-1.4120471
86	0xbf7df38c	-0.9919975
87	0xbfafd068	-1.3735476
88	0xbf811aa7	-1.0086259
89	0xbf7916c2	-0.9730035
90	0xbf6515ca	-0.8948637
91	0xbf670bc7	-0.90252346
92	0xbf9e9c67	-1.239148
93	0xbf73ff58	-0.953115
94	0xbfc00159	-1.5000411
95	0xbf860a7c	-1.047195
96	0xbf708f16	-0.9396833
97	0xbf99164d	-1.1959931
98	0xbe949852	-0.2902246
99	0xbf6ff25b	-0.9372918
100	0xbf8778cf	-1.0583743
101	0xbf337917	-0.70106643
102	0x3f507d91	0.814416
103	0xbf0e2af8	-0.55534315
104	0xbfcc6bdc	-1.5970416
105	0xbf29e6d6	-0.6636785
106	0xbf94f655	-1.1637675
107	0xbf923bbb	-1.1424478
108	0xbf43f1c6	-0.7654079
109	0xbf4299b8	-0.76015806
110	0xbfdebdae	-1.7401636
111	0xbf98f466	-1.1949584
112	0xbf84f00d	-1.0385758
113	0xbf6fe48b	-0.93708104
114	0xbf4e60b7	-0.80616325
115	0xbd3ba890	-0.04581505
116	0x3ecdc8a6	0.40192145
117	0xbf32e2a0	-0.6987705
118	0xbfb1db98	-1.389514
119	0xbf954691	-1.166216
120	0xbf97a6a5	-1.1847731
121	0xbf99d136	-1.2016971
122	0xbf8fc38e	-1.1231554
123	0xbec1c114	-0.3784262
124	0xbf43894a	-0.7638136
125	0xbf859ba4	-1.0438123
126	0xbf81f346	-1.0152366
127	0xbf8b688e	-1.0891283
128	0x3f0aee4c	0.5426986
129	0xbdd8e7e7	-0.10591107
130	0x3c9d02fa	0.019166458
131	0x3e45ea3c	0.19327635
132	0xbe952d5b	-0.29136166
133	0x3f178c6d	0.5919865
134	0xbf015516	-0.50520456
135	0xbf1110f9	-0.56666523
136	0x3ebd1542	0.3693028
137	0x3e4f1ea2	0.20226529
138	0x3f806fd3	1.0034126
139	0xbf202472	-0.6255561
140	0x3e8068bd	0.2507991
141	0xbe691630	-0.2276237
142	0x3ea219b0	0.31660223
143	0x3c9e6c10	0.019338638
144	0x3f6d4fa4	0.92699647
145	0xbc7df11b	-0.015499379
146	0xbe86f9fe	-0.26362604
147	0x3d231626	0.039816044
148	0x3e67434f	0.2258427
149	0xbf578fc5	-0.8420375
150	0x3f8df2a6	1.1089675
151	0xbf617be6	-0.8807968
152	0xbeba1e77	-0.36351368
153	0xbf0c2d34	-0.54756474
154	0xbf030be9	-0.5119005
155	0x3e41f517	0.1894115
156	0xbd61bb40	-0.055110216
157	0xbed16289	-0.4089549
158	0x3f17a817	0.5924086
159	0xbe3eddc0	-0.18639278
160	0x3e453a53	0.1926053
161	0xbe4e7249	-0.20160784
162	0xbf0c7e2e	-0.54880035
163	0x3e5e86bb	0.21731083
164	0xbd851776	-0.064986154
165	0xbf28cc58	-0.65936804
166	0x3f58d0e8	0.84693766
167	0x3ebba278	0.3664739
168	0x3e367272	0.17817095
169	0xbf15f325	-0.58574134
170	0xbe63102e	-0.22174141
171	0xbf1a1a5f	-0.6019649
172	0x3efa868c	0.48930776
173	0xbd8b20d2	-0.06793369
174	0x3cd03b3c	0.02541887
175	0xbc6377fc	-0.013883587
176	0xbdbb4431	-0.09143866
177	0x3e7b970b	0.24569337
178	0x3f23d52c	0.6399715
179	0xbecc0008	-0.39843774
180	0x3f91d882	1.1394198
181	0xba9c0702	-0.0011903944
182	0x3e03250c	0.12807101
183	0x3f82f7bc	1.0231853
184	0xbedf36d4	-0.43596518
185	0x3e989aba	0.29805547
186	0xbf025e8e	-0.5092553
187	0xbf28e918	-0.6598067
188	0xbefdb07f	-0.49548718
189	0xbed9e685	-0.42558685
190	0xbceacff8	-0.02866362
191	0x3ecc148e	0.39859432
192	0xbfbaf366	-1.4605529
193	0xbf962c6e	-1.1732309
194	0xbfd7b825	-1.6853071
195	0xbfa9d43a	-1.3267891
196	0xbf7ca58e	-0.98690116
197	0xbf2c7906	-0.6737217
198	0xbf9a7614	-1.2067285
199	0xbf9fcec5	-1.2484976
200	0xbfb573e0	-1.4175987
201	0xbf9391bb	-1.1528848
202	0xbe30f465	-0.17280729
203	0xbf23f258	-0.6404166
204	0xbf51d24d	-0.8196152
205	0xbeff870c	-0.4990772
206	0xbf7bd94f	-0.9837846
207	0xbfd461f8	-1.6592398
208	0xbe4ac525	-0.19801767
209	0xbfae6bf4	-1.3626695
210	0xbf7988fa	-0.97474635
211	0xbf86ecad	-1.0540978
212	0xbf96b89f	-1.1775092
213	0xbf6bade5	-0.92062217
214	0xbecd091f	-0.4004602
215	0xbf58ac70	-0.8463812
216	0xbf967fbd	-1.1757733
217	0xbfc02934	-1.5012574
218	0xbfa97008	-1.3237314
219	0xbf269c28	-0.65082026
220	0xbf834043	-1.0253986
221	0xbfaf2fb4	-1.3686433
222	0xbf965c7f	-1.1746978
223	0xbfad9928	-1.3562365
224	0xbf9c011e	-1.2187841
225	0xbf9db420	-1.2320595
226	0xbf4bd9d5	-0.7962926
227	0xbfc36f5e	-1.5268362
228	0xbf13213e	-0.574726
229	0xbfd3daa5	-1.65511
230	0xbf6c8d5f	-0.92403215
231	0xbf4e72f6	-0.80644166
232	0xbf43bd19	-0.76460415
233	0xbf6f36ca	-0.93442976
234	0xbfa77e64	-1.3085446
235	0xbf8c117a	-1.0942833
236	0xbfa0a460	-1.2550163
237	0xbf9d6559	-1.2296554
238	0xbf9e31ba	-1.2358925
239	0xbf879ea2	-1.0595286
240	0xbfba4ee7	-1.4555329
241	0xbec78139	-0.38965777
242	0xbfb113c7	-1.383416
243	0xbf955983	-1.1667942
244	0x3e04d78f	0.12972854
245	0xbfbde62e	-1.483587
246	0xbf9c7e25	-1.2225996
247	0xbf1523c7	-0.58257717
248	0xbf8f3499	-1.1187927
249	0xbfb73bd3	-1.4315132
250	0xbf6d17ac	-0.92614245
251	0xbf3aef21	-0.7302113
252	0xbf5fa7fb	-0.8736569
253	0xbfb5410f	-1.4160479
254	0xbf56eb9d	-0.8395327
255	0xbf0724c6	-0.52790487
