DoubleDQN-QT-Reward-Delay-IR-Final/ModelParam/2024-02-03/2024-02-0364network-lstm.pth (torch, 231873 bytes, 12 tensors)

lstm.weight_ih_l0 f4 [256, 10]
000000 50 9b 9e c0 75 e9 14 bf 06 75 b6 c0 ae da 75 c0
       -4.956459 -0.5816873 -5.701785 -3.8414721
000010 a0 a0 81 c0 97 e6 89 c0 8b 26 72 c0 60 bc ff bf
       -4.0508575 -4.309398 -3.7836025 -1.9979362
000020 98 ae f9 bd cc e6 82 3f d2 09 88 bf 05 05 bd be
       -0.12191504 1.0226684 -1.0627997 -0.36917892
000030 a7 2e 09 bf 44 ec 5e bf 8d b0 46 bf 52 14 18 3e
       -0.5358681 -0.8707926 -0.77613145 0.14851502
000040 68 d6 8f 3f 21 83 6e bf 00 f5 88 bf 98 48 ca bf
       1.1237307 -0.93168837 -1.0699768 -1.5803404
000050 76 8f e8 bf 24 c6 88 bf c3 3d 72 bf 25 70 c7 bf
       -1.8168781 -1.0685468 -0.9462549 -1.5581099
000060 91 43 ea bf a7 57 95 3e 08 d5 55 be 84 d6 40 40
       -1.830187 0.29168436 -0.20882046 3.013093
000070 27 72 ea bd 20 84 0f bf a0 a0 10 c0 70 04 d2 3e
       -0.11447554 -0.5606098 -2.2598038 0.4101901
000080 e3 35 6e bf cd ac 0b bf 39 4e de be e1 b7 f3 bf
       -0.93050975 -0.5456055 -0.43419054 -1.904049
000090 5f ad b6 bf 77 46 84 c0 b8 05 6c bf 6b cc 6f be
       -1.4271659 -4.1336017 -0.92196226 -0.23417823
0000a0 0c a4 73 c0 ab 8a a0 40 ee 9d 2d 3f 34 48 2d bf
       -3.8068876 5.0169272 0.67819107 -0.676883
0000b0 91 a6 ac 3f 38 e2 2e 40 c9 39 0c be f9 ed d2 c0
       1.3488332 2.7325573 -0.13693918 -6.5915494
0000c0 47 d3 39 be 0f ec 6e bf 65 8d 58 bf ad 75 61 3d
       -0.18147002 -0.93328947 -0.8459075 0.055043865
0000d0 4a 6d d1 be 70 80 58 bf 4e fc 45 bf 3b 8b a0 3f
       -0.40903693 -0.8457098 -0.7733811 1.254249
0000e0 32 96 14 bf 70 82 0b c0 ce 39 84 be bf 20 64 bf
       -0.5804168 -2.1798363 -0.2582535 -0.89112467
0000f0 7b a6 08 40 fb 34 33 40 70 98 03 40 51 6c 5c 40
       2.1351612 2.8001087 2.056179 3.444111
000100 fd 74 42 40 86 c4 c1 3f aa a7 cc bf bf 2a 65 40
       3.0383904 1.5138099 -1.5988667 3.580734
000110 77 4a ab bd 37 99 48 bf a6 b0 02 c0 62 d7 a7 bf
       -0.083638124 -0.7835879 -2.0420318 -1.3112605
000120 67 ab 90 bf 80 dd 3a c0 6c 3e 11 c0 f3 bc 12 3f
       -1.1302308 -2.9197693 -2.269435 0.57319564
000130 4b 7b b4 3e e1 19 32 40 c4 30 a4 bf c1 85 48 bf
       0.35250315 2.7828295 -1.2827382 -0.7832909
000140 8e e1 9d be 6a c3 44 bf 3a 67 4b bf 3f 3b 81 bf
       -0.30836147 -0.7686068 -0.79454386 -1.0096205
000150 25 34 fe bf 52 30 06 40 71 14 15 c0 97 77 57 40
       -1.9859663 2.0966992 -2.3293726 3.3666742
000160 3d 24 37 be e2 d9 57 bf ac 92 4f c0 c5 b9 c0 bf
       -0.17884918 -0.8431684 -3.2433271 -1.5056692
000170 81 9a 74 c0 97 dd 23 c0 75 a2 1e c0 25 28 59 bf
       -3.8219302 -2.5603998 -2.4786656 -0.8482688
000180 2c f6 02 be 2e 41 f4 3f 4c 4c ba bf 75 fe 07 c0
       -0.1278922 1.9082391 -1.4554534 -2.1249058
000190 41 4a 7a c0 b4 0d 52 3e ee c6 1c c0 e1 02 28 c0
       -3.910782 0.2051304 -2.4496417 -2.6251757
0001a0 30 0a 0e c0 a2 36 c6 3f d8 e2 4b bc dd 50 dd bd
       -2.2193718 1.5485423 -0.0124442205 -0.10806439
0001b0 de 77 9d be e2 1e 7e bd 17 9f ff c0 a1 4f a0 40
       -0.30755514 -0.06204117 -7.98817 5.0097203
0001c0 bf 7d 02 be 7e 65 4f c0 31 a9 4b 3f 24 7a bb 3e
       -0.12743281 -3.2405696 0.7955504 0.36616623
0001d0 8c 01 ad bd c8 ed 0f c1 b4 93 c5 be 96 c0 9e 3f
       -0.08447561 -8.995552 -0.3858925 1.2402523
0001e0 14 5c 90 40 c3 61 36 40 c6 e0 4d 40 57 64 93 40
       4.51124 2.849717 3.216844 4.6059985
0001f0 e7 1d 52 40 4e 19 fc 3f b2 ee ea 3f 56 4c 09 40
       3.283075 1.9695222 1.8354094 2.1452842
000200 d8 53 6b bf 97 c7 d0 3e 31 49 b9 3e 06 b3 2f 3f
       -0.9192481 0.40777275 0.36188653 0.68632543
000210 82 84 68 3e 6b 04 82 3e 60 7d ac 3e 21 36 02 bf
       0.22706798 0.25393996 0.33689404 -0.50863844
000220 92 28 e9 be 55 29 ef 3f 97 36 75 bf ad ae ac bf
       -0.45538765 1.8684489 -0.9578642 -1.3490807
000230 bb 88 2c bf 09 37 be 3e ef 83 df be 79 5a 99 be
       -0.67396134 0.37151363 -0.43655345 -0.29951838
000240 00 bc d7 be 7d bb 87 3e 11 34 80 3e 80 3f 16 3f
       -0.4213562 0.2651023 0.25039724 0.58690643
000250 d0 1d 75 bf cb 56 bc bf 52 69 b2 3e f5 a6 41 3f
       -0.95748615 -1.4713987 0.34845978 0.7564538
000260 73 6d df 3d 78 6a d8 3e 02 74 a0 be dc 1c 85 3f
       0.10909548 0.4226873 -0.31338507 1.0399432
000270 33 fd c9 be f8 d8 d1 3f 55 92 c0 be 8b 1a 74 bf
       -0.39450988 1.6394339 -0.37611642 -0.95353
000280 2a 23 68 3f d3 b3 f6 3e 43 78 1e 3f e2 83 38 3f
       0.90678656 0.4818407 0.61902255 0.7207624
000290 99 c9 43 3f c7 1e 1a 3f 12 c6 51 3f 4e 16 29 3e
       0.7647949 0.6020321 0.81942856 0.16512415
0002a0 59 ee 37 3f 97 55 3a 3f 16 13 d4 3d 30 cb 98 3f
       0.71848065 0.7278685 0.10355203 1.1937008
0002b0 4b f5 f0 3e 8c 10 47 3e 16 4a d3 3e aa a6 0c bd
       0.47062144 0.19439906 0.4126746 -0.03433863
0002c0 3f 07 4c 3e e6 56 55 3e d0 95 6b bf 9b 45 8a bf
       0.19924639 0.2083393 -0.9202547 -1.0802492
0002d0 b5 b7 54 40 6f 84 33 40 f0 4d 87 40 f2 27 6b 40
       3.3237126 2.804958 4.228264 3.674313
0002e0 7f 2a 55 40 9b 24 89 3f 44 8f bb 3f 02 1b 45 40
       3.3307188 1.0714296 1.4653096 3.0797734
0002f0 b0 ba 5a bf 74 b5 6c 3d b9 d6 ae c0 4c f1 82 c0
       -0.8544111 0.057790235 -5.4637113 -4.091955
000300 3b ec 75 c0 1a 0d 90 c0 f4 f6 9d c0 56 0b 15 bf
       -3.8425434 -4.5015993 -4.9363956 -0.5822042
000310 1b a0 d3 bf 91 7a d0 3f f2 ab 51 3f b3 0b a9 3e
       -1.6533235 1.6287404 0.8190299 0.33016738
000320 1d 08 53 bf 41 e8 b9 bd f7 8f 6d bf b8 95 fd be
       -0.82434255 -0.09077502 -0.927978 -0.4952829
000330 10 90 d1 bf e4 54 c9 3f fb 74 ea bd 60 b2 96 40
       -1.6372089 1.5729032 -0.114480935 4.7092743
000340 90 af e9 3d 37 a2 7f be ff 78 ad bf 62 f7 29 c0
       0.11410439 -0.24964224 -1.355255 -2.655724
000350 19 c0 05 c0 08 bb 38 c0 c3 88 2b c0 08 b3 c5 bf
       -2.0898497 -2.8864155 -2.6802223 -1.5445261
000360 8a 06 b9 3f de 50 4d 40 ea 0b 6a bf 19 50 01 c0
       1.445512 3.2080607 -0.9142443 -2.0205138
000370 10 8e fe 3f 79 44 38 40 b6 3e 21 3f 46 75 59 40
       1.9887104 2.8791792 0.62986314 3.3977828
000380 13 05 66 40 bd e5 f9 3f 89 d5 2c 3e e4 db 1a c0
       3.5940597 1.9523236 0.16878332 -2.419671
000390 2e 00 5c be fc 51 e8 bf 71 d7 0f c0 50 e7 0d 40
       -0.21484444 -1.815002 -2.2475245 2.2172432
0003a0 c3 72 a4 be 6e 05 d5 bd 71 bc 0b 3e 12 19 1f 40
       -0.32118806 -0.10401426 0.13646103 2.4859052
0003b0 af 9a e5 bf 00 f7 6d c0 ab 1d 86 3e 8b 3b 87 bf
       -1.7937831 -3.7182007 0.2619451 -1.0565046
0003c0 cc 1b 75 3f 16 a4 b4 3f 72 94 af 3f 63 88 36 3f
       0.9574554 1.4112575 1.3717177 0.7130186
0003d0 ba 6a 69 3f 11 7e a4 3f fc e9 5a 3f a0 e7 16 40
       0.91178477 1.2850972 0.8551328 2.3578873
0003e0 92 ad a5 bf 46 1d 3a bf b7 e2 0e bf c7 d1 57 be
       -1.2943594 -0.7270092 -0.5581469 -0.21076117
0003f0 9a 1d 29 bf 27 3a d0 be bb 5c a6 be 75 1f a4 3e
       -0.66060793 -0.40669367 -0.32492623 0.3205525

lstm.weight_hh_l0 f4 [256, 64]
000000 96 06 18 bf 94 23 1b be 8c c1 ee bf 06 8c 03 c0
       -0.5938505 -0.1515029 -1.8652816 -2.0554214
000010 0a 4b 08 c0 67 c6 ed bf d7 6c 1c 40 6f a1 a0 bf
       -2.12958 -1.8576173 2.444143 -1.2549266
000020 46 27 f2 be 48 ca a3 bf f5 5e 2e 40 a8 11 85 3f
       -0.47295588 -1.2796106 2.7245457 1.0396013
000030 40 f8 05 3f 1b 66 15 bf aa 0f c7 bf 70 0d 64 bf
       0.52331924 -0.58358926 -1.5551655 -0.89083004
000040 36 cb 03 40 3c 7c 30 bf 13 2d ef bf 1e 58 de bf
       2.059278 -0.68939567 -1.868563 -1.7370641
000050 70 96 15 3f 1a af ed bf fa 42 94 40 82 7b 0d 3f
       0.58432674 -1.8569062 4.633176 0.5526658
000060 94 a1 04 40 52 25 a3 bf 6d ee 69 3f 5d df 73 3f
       2.072362 -1.2745764 0.91379434 0.952627
000070 11 35 28 bf 75 65 e7 3e c8 3e a2 3f d8 74 d2 bf
       -0.6570597 0.45194593 1.2675409 -1.6441908
000080 ba bc 1f 40 e0 d0 bd be d5 fc 9f 3c 0e 7a 07 c0
       2.495894 -0.3707342 0.01952974 -2.1168246
000090 cf 4b 80 bf bc 0b fb 3f b5 dd c2 bf ef 93 38 be
       -1.0023135 1.9612956 -1.522391 -0.18025182
0000a0 75 39 f2 be c2 e2 b2 bf 17 c7 3d 3e 79 b7 2e 3f
       -0.4730946 -1.3975451 0.18532978 0.6824871
0000b0 9d 1a 83 3e 27 45 08 3f 17 49 88 3f 5a 95 86 bf
       0.25606242 0.5323052 1.0647305 -1.0514328
0000c0 4d 6d 0d bd e8 97 90 bf 47 de 42 3f dd a4 ea 3e
       -0.034528065 -1.1296358 0.7612042 0.45828906
0000d0 86 57 18 bf 32 96 fd 3e 54 4b af bc ff d3 bb bf
       -0.5950855 0.49528652 -0.021398224 -1.4674071
0000e0 d1 d4 15 40 de 2f 13 40 1e c4 5f bf d8 70 80 be
       2.3411143 2.2997966 -0.87408626 -0.25086093
0000f0 dc 22 0e 40 f3 97 b2 3e 1d d5 61 be 9a 2b 76 3f
       2.2208776 0.34881553 -0.22053953 0.9616028
000100 2e cc e6 bf e7 d8 8d bc e5 7d 30 3e f1 36 bd be
       -1.8031061 -0.017315341 0.17235525 -0.3695598
000110 7f bc bd 3e fb 8a 8a 3d bb ef fd be 67 20 f8 3d
       0.37057874 0.0676479 -0.49596962 0.12115555
000120 0d c3 9a 3e 28 44 07 bf 95 1f f4 be 43 18 9b 3f
       0.30226937 -0.52838373 -0.47680345 1.2116779
000130 e0 36 b2 bd 6b 61 70 be 64 d5 76 be 6d cf 61 bf
       -0.08701873 -0.23474662 -0.2410484 -0.8820713
000140 25 0e 8c 3f ea fc 0f 3d 97 ec 03 3e 7e 8f a1 bb
       1.0941817 0.035153307 0.1288322 -0.0049304357
000150 89 49 02 3f 53 e0 ef be cd 08 6d 3e f7 3c aa be
       0.50893456 -0.46850833 0.23147888 -0.33249637
000160 76 a7 29 3e 0a a7 f9 3e 06 63 82 3e 20 34 c7 3e
       0.16567788 0.48760253 0.25466174 0.38906956
000170 16 01 21 be f0 bc 78 be 0e 28 87 3e f1 61 c8 3f
       -0.1572307 -0.24290824 0.26397747 1.5654889
000180 5b 10 0f bf c6 8b a0 3e e0 d7 5d 3c c3 c0 8b 3e
       -0.5588433 0.3135664 0.013540238 0.27295503
000190 93 23 db 3e 9e cd 5e 3e d4 02 07 be 75 2c 48 3d
       0.42800578 0.21758124 -0.13184673 0.048870523
0001a0 d6 c2 2f bf 48 45 a6 be 3f ff 58 be 3a 9d f1 be
       -0.6865667 -0.32474732 -0.21191119 -0.47190267
0001b0 c9 3f df 3e fc e5 1b bf 73 4e 86 3e c0 04 4d 3e
       0.43603352 -0.60897803 0.26231727 0.20021343
0001c0 8f 60 bc 3e cf 58 c6 bd e3 b8 19 3f 1e ee a4 be
       0.36792418 -0.09684908 0.6004774 -0.3221292
0001d0 9f 59 46 3e 52 61 21 bf 3d b1 96 be 03 74 83 3e
       0.19370125 -0.63039124 -0.29432097 0.25674447
0001e0 85 c1 82 3e 7e 08 0e 3e 80 85 02 bf e8 e9 ae 3e
       0.2553827 0.13870427 -0.50984955 0.3416283
0001f0 69 e6 ae 3e c3 b8 41 bf 21 80 42 3d 7e bb e2 be
       0.34160164 -0.7567255 0.047485474 -0.4428367
000200 75 9c eb bf c9 e7 4b be 03 a2 d8 bf 63 db 79 3e
       -1.8407122 -0.19912638 -1.6924442 0.24400096
000210 d0 ca 93 bf e6 22 0f 3f d3 88 39 be 6b 6d a1 3f
       -1.1546268 0.55912626 -0.181186 1.2611517
000220 d3 9c 3c 3f 17 9b 9f bf 00 86 11 40 c6 e6 d0 3f
       0.73676795 -1.2469205 2.2738037 1.6320426
000230 c1 03 43 bf 03 63 ac be 36 b4 18 bf b6 42 11 bf
       -0.76177603 -0.3366929 -0.5964998 -0.5674242
000240 2a 32 5a 3f b9 11 09 3f e4 d7 9f bf 81 53 2d 3f
       0.85232794 0.5354267 -1.248776 0.6770554
000250 78 36 50 3e e2 04 0c 40 51 73 8c be d2 de cf 3f
       0.20333278 2.187798 -0.2743173 1.6239874
000260 1c ab a6 be f6 9d 49 bf 51 ae 88 be 04 7e 44 3e
       -0.3255242 -0.78756654 -0.26695493 0.19188696
000270 1f 9b 07 c0 ad ee 03 40 a7 94 87 3d 2b 73 61 3f
       -2.1188428 2.0614426 0.0662015 0.8806636
000280 dd e1 01 3f 1a 46 b9 3e d3 73 99 3f 46 16 b1 bf
       0.50735265 0.36186296 1.1988472 -1.3834922
000290 66 c5 e8 be 86 47 4e 3e 07 49 a0 bf d3 08 c9 bf
       -0.45463103 0.20144472 -1.2522286 -1.5705818
0002a0 2a 5e 72 3e b9 24 2d 3e e3 18 8f bf 36 fa d4 be
       0.23668733 0.1690854 -1.117947 -0.41597146
0002b0 53 f8 0f 3f 56 c7 30 be 49 20 56 be 4c 67 ca 3a
       0.5623829 -0.1726354 -0.20910753 0.0015442162
0002c0 df 83 fd 3d 21 02 95 bf 65 ad b5 3d 66 03 af 3e
       0.12378668 -1.1641275 0.08870963 0.3418228
0002d0 67 66 bb 3f 2e 74 4f 3e c2 a0 a0 bf 0a d3 56 bf
       1.4640626 0.20259163 -1.2549059 -0.8391577
0002e0 4a 53 9c be fd 56 6f c0 f8 49 9f bf 79 b3 08 bf
       -0.30532295 -3.7396843 -1.2444448 -0.53398854
0002f0 58 54 94 3f a9 9a 34 3f e2 23 9f bf 1e 1c 05 bf
       1.158824 0.7054849 -1.2432826 -0.5199603
000300 a2 7b 1f 3e 9e 90 dc be bf c0 c3 bf ef 71 89 3d
       0.15574506 -0.43079084 -1.5293196 0.06711184
000310 90 37 b9 be 85 b9 66 3e d5 6d f3 bd 4b 76 0e bf
       -0.36175203 0.22531708 -0.11886183 -0.5564925
000320 17 73 3f 3f 6d cb 93 bf 58 cf 6e 3f 56 b8 1f bf
       0.7478499 -1.1546456 0.9328513 -0.6239065
000330 44 2c 85 3f 61 a7 7c be 50 2d b7 be ee 5f 4a 3d
       1.0404134 -0.24673225 -0.35776758 0.049407892
000340 2c ee 45 3f c5 5a 0f bf c5 86 eb be b9 97 b3 be
       0.77316546 -0.5599788 -0.46001258 -0.35076693
000350 50 da 01 3f 2e 07 8a 3b 57 b0 9a bf 43 55 06 40
       0.50723743 0.0042122817 -1.2085065 2.098954
000360 20 9d cb 3e 25 a2 2e 3d 90 57 a4 3f 7a 08 b2 3e
       0.39768314 0.0426351 1.2839222 0.34772092
000370 90 08 18 c0 b6 c5 df be 98 02 34 bf e1 bf 2f c0
       -2.3755226 -0.4370553 -0.7031646 -2.7460864
000380 e1 58 ad 3d 8d c3 bc 3f dd f7 32 bf 49 a8 08 3f
       0.08464218 1.4747177 -0.6990946 0.5338178
000390 85 25 f9 be 5d 99 d0 bf 4f f6 ba 3f ed 37 d0 3e
       -0.48661438 -1.6296803 1.4606417 0.40667668
0003a0 46 56 3b bf 2b 82 64 3f 0e c8 44 3d e0 d1 a4 3e
       -0.7317852 0.8926112 0.04804235 0.32191372
0003b0 31 ba 69 be cc 39 ed be 3e 52 ea 3e ad 57 89 3f
       -0.22824933 -0.46333158 0.4576587 1.0729882
0003c0 0b 71 9d bd 46 ed 04 bf a6 c4 c5 bd 79 e9 5b be
       -0.07687577 -0.5192455 -0.09656648 -0.21475782
0003d0 51 a5 00 bf 51 3d 58 bf 86 b7 97 3e 45 34 0e bf
       -0.5025225 -0.8446856 0.29632205 -0.55548507
0003e0 2b fa 39 bf c4 49 c9 be ae be 8f bf 26 9e fa 3e
       -0.7264735 -0.3931409 -1.1230066 0.48948783
0003f0 5b db 14 bf c3 e7 19 bf d5 3c 66 bf 81 4c 85 be
       -0.5814721 -0.60119265 -0.8993657 -0.2603493

lstm.bias_ih_l0 f4 [256]
000000 cf 0e 27 bf 26 9e 92 bf 06 5e 64 bf 4a 69 3b bf
       -0.6525697 -1.1454513 -0.8920597 -0.73207533
000010 57 72 25 bf e1 dc 47 bf 62 a8 84 bf e0 78 45 bf
       -0.64627594 -0.7807141 -1.0363886 -0.77137566
000020 a7 57 73 bf 7f ab 88 be e2 48 4e bb 8c b9 ad 3e
       -0.9505562 -0.2669334 -0.0031476547 0.33930624
000030 91 a4 18 bf 30 96 85 bf 94 cd 90 bf 20 2c 85 bf
       -0.5962611 -1.0436459 -1.1312737 -1.0404091
000040 32 f5 00 3f 11 0f 92 bf 9e e1 e4 bd 62 af 86 3e
       0.5037414 -1.1410848 -0.111758456 0.2630568
000050 0f b8 8c bf ec 47 01 3e 37 31 ec be 50 34 68 be
       -1.099367 0.12625092 -0.46131298 -0.22676206
000060 42 49 e9 be 82 d4 84 bf 3d 88 58 3f e0 59 24 bf
       -0.45563704 -1.0377352 0.84582883 -0.6419964
000070 87 93 99 be 17 9d 45 bf 0c 8a 73 bf 0e 0e 23 bf
       -0.29995367 -0.77192825 -0.9513252 -0.6369332
000080 63 92 9f be 9a 21 9f bf 85 67 19 3e 0a 12 46 bf
       -0.31166372 -1.2432129 0.14980896 -0.77371275
000090 c3 a3 3a bf 0c 89 1f bf f7 e5 80 bf 46 99 89 be
       -0.7290613 -0.6231849 -1.007018 -0.2687475
0000a0 1d 40 2f bf be ef 84 bf af f6 9d bf 5c 9b ba bf
       -0.68457204 -1.0385664 -1.2340907 -1.4578662
0000b0 76 13 44 bf 06 78 8a bf 7a a5 65 bf ac e3 35 bf
       -0.76592195 -1.0817878 -0.8970562 -0.71050525
0000c0 46 27 b3 bf ce d3 89 bf 61 8d 3c bf bf 89 96 bf
       -1.399636 -1.0767763 -0.7365323 -1.1760787
0000d0 37 02 56 be b5 3a 9a be 16 59 9f bf db 13 45 bf
       -0.20899282 -0.30122915 -1.2449062 -0.7698342
0000e0 40 fe 09 be 72 7c 40 bf 47 3d 75 bf b1 4c 9f bf
       -0.13475895 -0.7518989 -0.95796627 -1.2445279
0000f0 10 71 d1 3c 75 a2 67 bf 02 34 1a be 11 c9 80 bf
       0.025566608 -0.90482265 -0.15058902 -1.0061361
000100 09 9a 7d 3e ea 8b 75 bf a2 9b bf bf 0c 4f 20 be
       0.24765791 -0.95916617 -1.496937 -0.15655154
000110 4e 93 89 bf 2b 1a d2 bf f4 f8 88 bf 3b ba 88 be
       -1.0748079 -1.6414236 -1.0700974 -0.26704583
000120 1c d4 85 bf 35 b0 a8 bf 46 70 b9 bf d5 e9 d1 be
       -1.0455356 -1.3178774 -1.4487388 -0.40998712
000130 1f f8 d8 bf b6 48 88 bf 5c 93 0b bf 2b cd 0c bf
       -1.695072 -1.064719 -0.5452173 -0.5500056
000140 fc 4c 42 3f 87 59 75 bf ff e3 b3 bf 62 3c 20 bf
       0.7589872 -0.9583973 -1.4053954 -0.62592137
000150 d9 53 2f bf fb 01 dd be c0 ba a7 bf d4 9d 80 bf
       -0.68487316 -0.43165573 -1.3103867 -1.0048165
000160 83 e2 13 3e 36 87 9e bf c8 c5 4f 3f 43 b3 6b bf
       0.14441876 -1.2385013 0.81161165 -0.92070407
000170 2f 9e c5 3e 3b 58 62 bf 73 59 11 bf 59 57 82 bf
       0.38597247 -0.8841588 -0.56777114 -1.0182906
000180 55 c9 c8 bf 13 90 63 bf cb 9e 67 bf 81 dd ca bf
       -1.5686442 -0.88891715 -0.90476674 -1.5848848
000190 f2 f9 96 bf 4d c3 67 bf 5c a9 aa bf 51 d8 03 c0
       -1.1795027 -0.9053238 -1.3332934 -2.060078
0001a0 e4 52 eb be 29 49 c8 bf dc 3f 6c bf b7 6e b0 bf
       -0.45961678 -1.5647327 -0.9228494 -1.3783787
0001b0 7d 61 c9 bf 39 93 80 bf 45 a5 b7 bc b5 64 66 bf
       -1.5732876 -1.0044929 -0.022417674 -0.89997417
0001c0 3a a3 9e bf 58 59 e4 bf b4 a7 a6 bf 0f 20 94 bf
       -1.2393563 -1.7839766 -1.3019929 -1.1572284
0001d0 3c f7 c8 bf 42 6b d4 bf b6 b8 a3 bf 67 11 2a bf
       -1.570045 -1.6595232 -1.2790744 -0.66432804
0001e0 a2 58 9a bf d7 24 a5 bf 38 9d 97 bf f4 c1 4a bf
       -1.2058299 -1.2901868 -1.1844854 -0.792022
0001f0 85 68 33 bf 7c 1e 31 bf a0 61 c1 bf 70 d9 16 bf
       -0.7008136 -0.6918714 -1.5107918 -0.58925533
000200 62 c7 8d 3f f3 7e 9b 3e 01 06 5a 3f 36 df 41 3f
       1.1076472 0.30370292 0.8516541 0.7573122
000210 32 f8 30 3f 1b db a8 3e b5 e3 ec be 73 f6 0a 3e
       0.69128716 0.32979664 -0.46267477 0.13570575
000220 7c fd 52 be d5 eb ab 3e 40 34 ec be 9b d5 95 bf
       -0.20604509 0.33578363 -0.46133614 -1.1705812
000230 62 d5 54 3f e7 f0 19 3f f0 eb cf 3e 5a 31 2c 3f
       0.83138096 0.6013321 0.40609694 0.67262805
000240 50 13 28 bf 3f 84 96 3e 53 ca fc 3e 0d c9 6a 3e
       -0.6565447 0.2939777 0.4937311 0.22928257
000250 bd 4e 04 bf 21 06 a3 3f 44 c8 b6 be 1c 15 a7 be
       -0.51682645 1.2736245 -0.35699666 -0.32633293
000260 5f ad ae be 85 da 94 3e 45 87 3f bf 8e eb bb be
       -0.34116647 0.29072967 -0.7481578 -0.3670315
000270 0f 2d 11 3f e8 0f 64 be d9 25 b1 bd c3 42 81 bd
       0.5670938 -0.22271693 -0.08649797 -0.06311562
000280 08 ae 56 be 91 25 85 bf eb 09 e1 3d 5e a6 52 3f
       -0.20964825 -1.0402089 0.1098822 0.82285106
000290 5d 9e 93 3e 9a 1f 43 bf 45 21 2e 3f b1 f8 f1 bd
       0.2883176 -0.76220095 0.68019515 -0.11815012
0002a0 1c e6 75 3f a3 0d b7 be b0 3a ad 3e 5c 44 90 be
       0.96054244 -0.35752591 0.33833838 -0.28177154
0002b0 e2 e4 03 bf 68 cd e4 bc c2 dc 08 bf a4 4d 48 3f
       -0.5152112 -0.027929977 -0.5346185 0.7824347
0002c0 b4 b9 20 3f 07 3c a6 be b3 af 11 bf 6f 77 88 be
       0.6278336 -0.32467672 -0.5690872 -0.2665362
0002d0 1f 62 70 bf e3 60 d7 3e e1 06 bd 3d 19 98 60 3e
       -0.9389972 0.42066106 0.09229828 0.2193302
0002e0 ea cf c1 be 9f 8e 96 be 47 44 55 3f fd 45 96 3d
       -0.37853938 -0.29405686 0.8330731 0.07337568
0002f0 b1 2f 8f bf e0 0f 85 be 4a b0 86 3e 29 23 12 be
       -1.1186429 -0.25988674 0.26306373 -0.14271225
000300 0b f5 71 3c cb 35 7c bf 07 f8 83 bf 5b 13 49 bf
       0.014767895 -0.9851958 -1.0310067 -0.7854516
000310 2d 5c 96 3e ee 31 39 bf fc 2d 48 bf ea bd 85 bf
       0.293672 -0.7234181 -0.78195167 -1.0448582
000320 8b d6 1d bf f5 63 a9 3e 83 92 96 be 44 15 41 3e
       -0.6165549 0.33084074 -0.29408655 0.18855768
000330 4a 0b 5c bf a6 17 5c bf 2c 3e 7b bf 8e 45 4c bf
       -0.85954726 -0.85973585 -0.9814174 -0.7979363
000340 f6 ea a0 bb 76 a2 93 bf 3f eb 3c bf 42 13 f6 bd
       -0.004910822 -1.1533954 -0.7379646 -0.12015392
000350 f8 2b 69 bf 36 f1 26 3e 61 f3 49 bf ce a2 dd 3e
       -0.91082716 0.16302952 -0.7888699 0.43288273
000360 02 a5 08 bf 9a 43 88 bf 2b 51 f3 be 08 7d 34 bf
       -0.5337678 -1.064563 -0.47522864 -0.7050328
000370 2b 1c 5a 3c a6 82 7f bf 06 04 6a bf 01 4f 56 be
       0.01331238 -0.9980873 -0.9141239 -0.20928575
000380 32 10 c2 be c4 d6 8a bf 55 a6 9f be 8f e4 4b be
       -0.3790298 -1.0846791 -0.3118159 -0.19911407
000390 e3 8f 48 bf 94 b2 f6 be 65 a4 79 bf b8 d7 cb 3d
       -0.78344554 -0.4818312 -0.9751647 0.099532545
0003a0 da 41 a6 be 21 42 93 bf 31 6d 9a bf d0 37 83 bf
       -0.32472116 -1.1504556 -1.2064573 -1.0251408
0003b0 9e c4 61 bf 67 67 84 bf 3a 23 61 bf fc 21 01 bf
       -0.8819064 -1.0344056 -0.87944376 -0.5044248
0003c0 15 0c a4 bf 30 5e 59 bf a4 c2 54 bf 58 58 98 bf
       -1.2816187 -0.84909344 -0.831095 -1.190196
0003d0 56 79 e3 be 31 bc 03 bf 16 9c 6c bf 0e 98 3a bf
       -0.4442851 -0.5145903 -0.9242567 -0.7288827
0003e0 2c 44 83 bc 6f 81 71 bf 24 4c 62 bf 9e ad a1 bf
       -0.016023718 -0.94338125 -0.8839743 -1.2631109
0003f0 05 0b 8c 3d 45 99 34 bf 54 6d 96 be 4c 8d 83 bf
       0.06838039 -0.7054637 -0.29380286 -1.0277495

lstm.bias_hh_l0 f4 [256]
000000 72 3f 42 bf b9 22 94 bf a4 90 7d bf 96 c2 59 bf
       -0.7587806 -1.1573097 -0.9904883 -0.8506254
000010 b0 78 47 bf c0 e7 3f bf f9 6a 81 bf 7b 54 4e bf
       -0.7791853 -0.74963 -1.011077 -0.80597657
000020 b8 03 50 bf 35 42 92 be d5 7f cb bd c5 25 18 3e
       -0.81255674 -0.28566137 -0.099364914 0.14858158
000030 d5 a8 19 bf 6a 28 87 bf b7 5e 88 bf 68 c9 54 bf
       -0.6002324 -1.0559208 -1.0653905 -0.8311982
000040 8b 8b 18 3f d1 33 82 bf 87 63 b8 ba cd 6c 2a 3e
       0.59587926 -1.0172063 -0.0014067747 0.16643067
000050 93 5c 92 bf 5d ae 5c 3d fc b9 03 bf ce 27 af be
       -1.1434501 0.053877223 -0.51455665 -0.34210056
000060 d4 ce c6 be e4 45 8d bf 39 4a 73 3f ed f0 26 bf
       -0.38829672 -1.1036954 0.9503513 -0.65211374
000070 38 82 40 be 0e 9b 72 bf 57 c8 5e bf 76 bf 1a bf
       -0.18799675 -0.94767845 -0.87024444 -0.60448396
000080 be 68 6f be 1c ca 9e bf 8e 97 d8 3d 5c b0 4a bf
       -0.233798 -1.2405429 0.10575782 -0.79175353
000090 22 44 07 bf f4 62 22 bf 3f e1 72 bf 3c c1 3e be
       -0.5283834 -0.6343224 -0.9487495 -0.186284
0000a0 b9 8d 13 bf 80 02 86 bf 78 f7 83 bf bb 4d a3 bf
       -0.57638127 -1.0469513 -1.0309896 -1.2758096
0000b0 58 9a 40 bf 79 71 93 bf ac bd 5a bf f6 76 31 bf
       -0.7523551 -1.1519004 -0.85445666 -0.69322145
0000c0 28 50 ad bf ab 4e 85 bf 35 4f 4d bf 17 01 9d bf
       -1.3540087 -1.0414633 -0.80198985 -1.2265958
0000d0 92 37 81 be f3 a0 a9 be ff c0 8d bf 2c d0 67 bf
       -0.2523771 -0.33130607 -1.1074523 -0.9055202
0000e0 cf a3 8d bd 6f 62 57 bf 33 3d 77 bf 13 c4 b8 bf
       -0.0691601 -0.8413457 -0.9657776 -1.4434837
0000f0 2e 1f 36 3e 72 4a 63 bf 18 3e 57 be 32 a1 75 bf
       0.17785332 -0.8878547 -0.2101978 -0.9594909
000100 f3 09 bf 3e b4 6d 7f bf 04 06 d0 bf 6f 27 0d 3d
       0.37312278 -0.9977677 -1.6251836 0.034461435
000110 49 78 7c bf d5 ac e3 bf c7 5b 5f bf 55 1f 49 be
       -0.9862104 -1.7787119 -0.87249416 -0.19640858
000120 fe f5 71 bf 72 f7 b1 bf e7 d6 c3 bf 11 21 b3 be
       -0.9451598 -1.3903639 -1.5299958 -0.34986165
000130 3c 47 c3 bf 29 21 78 bf c4 62 e3 be c9 d6 22 bf
       -1.5256114 -0.969256 -0.4441129 -0.63608986
000140 f1 df 29 3f 9d 0a 6b bf c9 63 c0 bf 2b 03 e1 be
       0.6635733 -0.9181307 -1.5030452 -0.4394773
000150 aa ef 23 bf a3 8e 07 bf e4 aa a0 bf 18 8c 6f bf
       -0.64037573 -0.5295202 -1.2552152 -0.9357314
000160 b6 59 26 3e 80 35 9f bf 61 93 65 3f de d8 45 bf
       0.1624516 -1.2438202 0.8967801 -0.7728404
000170 ee 8d e9 3e f9 3c 84 bf a6 34 ce be 55 ad 86 bf
       0.45616096 -1.0331107 -0.40274543 -1.0521647
000180 5a fa c1 bf 52 af 78 bf 1a 0a 6a bf f6 ae cc bf
       -1.5154526 -0.9714252 -0.91421664 -1.5990894
000190 ad 70 92 bf 89 1b 71 bf 5e 10 a9 bf b9 f6 06 c0
       -1.1440636 -0.9418264 -1.320812 -2.1088088
0001a0 7b 2b fc be 44 ed c2 bf ad 5d 3c bf af 43 b7 bf
       -0.49251923 -1.5228658 -0.7358044 -1.431753
0001b0 ec 63 bf bf 39 e7 60 bf 9e 5d df 3d d7 ec 4b bf
       -1.4952369 -0.8785282 0.10906528 -0.79658264
0001c0 d9 3e 92 bf fa 14 ea bf ff 56 a9 bf 5f 88 94 bf
       -1.142543 -1.8287652 -1.3229674 -1.1604117
0001d0 98 58 da bf 70 78 ef bf 11 9c a0 bf 17 bf 1d bf
       -1.7058287 -1.870863 -1.2547628 -0.61619705
0001e0 f0 1e 9c bf 8f da b5 bf 0f ee 93 bf be b6 50 bf
       -1.2196941 -1.4207324 -1.1557025 -0.8152884
0001f0 67 ba 22 bf 25 1a 37 bf 7d 31 da bf 65 c0 34 bf
       -0.6356568 -0.7152427 -1.7046353 -0.7060607
000200 f4 21 85 3f 40 19 9e 3e 92 45 62 3f da 2c 37 3f
       1.0400987 0.3087864 0.88387406 0.71552813
000210 66 ac 37 3f cc d9 b8 3e d7 fd b2 be bb 6f 70 3b
       0.71747434 0.36103666 -0.3495929 0.003668769
000220 f5 c0 cb be 0e 62 79 3e db a8 f9 be 09 67 a3 bf
       -0.39795652 0.24353811 -0.4876164 -1.2765819
000230 62 ea 41 3f 76 91 fa 3e 02 80 91 3e 5e f0 1a 3f
       0.75748265 0.48939103 0.28417975 0.6052302
000240 bf 7c 07 bf 4d 44 00 3e 06 e1 e7 3e 1c 61 6c 3e
       -0.5292472 0.12526055 0.45288867 0.2308392
000250 f0 1f 06 bf 83 cb 8f 3f e7 8a af be 1e 2e ab be
       -0.5239248 1.1233982 -0.34285662 -0.33433622
000260 48 29 92 be e0 13 90 3e 2e 81 4a bf 97 85 ae be
       -0.2854712 0.28140163 -0.7910336 -0.34086296
000270 93 3a 3d 3f b6 29 5b be 06 d5 fb 3d f2 6f 10 be
       0.739175 -0.2140263 0.1229649 -0.14105204
000280 d3 f2 62 be 9e fb 79 bf cd 72 39 3e 70 40 59 3f
       -0.22162943 -0.9764956 0.181102 0.8486395
000290 9c 6b b1 3e 1c d2 4d bf 3f 9d 31 3f 67 19 af be
       0.34652412 -0.80398726 0.69380563 -0.34199068
0002a0 86 ea 5a 3f 0f 23 b1 be 03 80 84 3e 7e d5 7a be
       0.85514104 -0.3459706 0.25878915 -0.24495503
0002b0 52 82 ff be 85 a8 18 be a3 a0 20 bf 8c 71 47 3f
       -0.49904114 -0.14908035 -0.6274511 0.77907634
0002c0 ae 53 d4 3e 3f fb af be 7f c0 05 bf af a0 be be
       0.41470093 -0.34371373 -0.5224685 -0.37231967
0002d0 ed 04 48 bf fc 57 0d 3f 16 7e d6 bd cb 73 b1 3e
       -0.78132516 0.5521238 -0.10473268 0.34658656
0002e0 1b cd ad be 59 be 80 be eb 3f 67 3f f8 f2 9a 3d
       -0.33945546 -0.25145224 0.90331906 0.07565874
0002f0 51 ab 94 bf 35 f0 fa be 11 ca f2 3d e8 8b 55 be
       -1.1614782 -0.49011388 0.11854947 -0.20854151
000300 2e 08 46 be 6f f5 70 bf bd 06 8b bf 1e 75 4a bf
       -0.19339058 -0.941245 -1.0861431 -0.79084957
000310 4e d7 80 3e 5f f3 5a bf e6 12 32 bf 36 a3 74 bf
       0.25164264 -0.85527605 -0.69560087 -0.9556154
000320 13 d7 37 bf e7 44 fc 3e 9b 34 ac be 20 eb 52 3e
       -0.7181255 0.49271318 -0.33633885 0.20597506
000330 20 84 68 bf bd 69 79 bf f0 2a 84 bf 48 b3 42 bf
       -0.90826607 -0.9742697 -1.0325603 -0.7605481
000340 e1 6b 73 3d 9c d0 90 bf cb bd 23 bf 5f 90 83 be
       0.059429053 -1.1313663 -0.63961476 -0.25696084
000350 26 f4 72 bf 3e c3 28 3e 02 09 69 bf 94 c0 00 3f
       -0.9490379 0.16480729 -0.9102937 0.5029385
000360 d3 f5 2a bf 8d 2a a1 bf 7e 7f 36 bf 79 66 1d bf
       -0.6678135 -1.259111 -0.7128829 -0.61484486
000370 75 a7 74 bb db c6 53 bf 7d d4 5f bf ce 2b 5b be
       -0.0037331257 -0.82725304 -0.87433606 -0.21403429
000380 b1 2d c8 be e5 bf 95 bf c4 95 e7 be 02 f3 8b be
       -0.3909736 -1.1699187 -0.4523145 -0.27333838
000390 d2 fb 26 bf fd 96 07 bf 72 d1 56 bf 61 63 1a 3e
       -0.65228 -0.52964765 -0.8391334 0.15076973
0003a0 fe 31 f4 be 61 98 8b bf ea 9e 86 bf 07 34 93 bf
       -0.4769439 -1.0905877 -1.0517247 -1.1500252
0003b0 dc 4b 84 bf 09 be 82 bf 4b c5 4f bf b9 c3 06 bf
       -1.033565 -1.0214244 -0.8116042 -0.526424
0003c0 65 ff b2 bf fd 5a 7a bf c9 08 39 bf 6f 37 89 bf
       -1.398419 -0.9779509 -0.7227903 -1.0720042
0003d0 dc 5d 26 bf 5b a8 cd be 30 a7 7f bf dc b2 4c bf
       -0.6498697 -0.40167508 -0.9986448 -0.7996042
0003e0 93 f0 67 bd a1 0f 6d bf 74 72 65 bf 59 37 9e bf
       -0.056625914 -0.9260197 -0.89627767 -1.2360641
0003f0 0b 28 6e 3e 07 b9 36 bf 9d da 0d be 89 0c 88 bf
       0.23257463 -0.7137608 -0.13852926 -1.0628825

lstm.weight_ih_l1 f4 [256, 64]
000000 78 03 ac bf b0 5f 84 3d 04 5b 61 3d 59 96 7a 3e
       -1.3438559 0.064635634 0.05501844 0.24471416
000010 2b 6a ab be 43 51 08 bd b0 05 a6 bd 26 ae 1d bd
       -0.33479437 -0.033280622 -0.081065536 -0.03849616
000020 22 52 35 be fe 2c fa be e3 80 5f bd a2 ef 9f 3f
       -0.17707112 -0.4886245 -0.054566275 1.2495005
000030 2e 35 0c be 8f 48 dc bd 4a ca f4 3d 97 39 9f be
       -0.13692161 -0.10756027 0.11952646 -0.31098625
000040 28 6a 90 3f c1 0d 45 be ec 37 81 3e 9e 8d 87 be
       1.1282396 -0.19243528 0.25237978 -0.26475233
000050 62 b1 a5 3e 4e c3 26 bf df a2 b4 3d 90 2f a9 3e
       0.32361895 -0.6514176 0.08820128 0.330441
000060 48 b6 09 be 20 d5 a1 3c b4 3c 09 3f 7e 7a 12 be
       -0.13448441 0.019754946 0.5360825 -0.1430454
000070 e7 e0 2e bf e1 f6 68 bd c4 69 d1 3d 85 e7 23 3f
       -0.68311924 -0.056876067 0.10225251 0.64025146
000080 16 12 fa be b2 01 27 3e d1 64 ad 3d 0c f9 79 bf
       -0.48841923 0.1630924 0.08466495 -0.9764564
000090 14 4f 9b 3e 1a 27 5c 3f 9e b5 c5 3d 82 ca e6 be
       0.3033377 0.85997164 0.09653781 -0.45076376
0000a0 d8 05 98 bf eb a6 09 bd 36 0a d2 3e 12 7a 85 be
       -1.1876783 -0.03360645 0.41023415 -0.26069695
0000b0 22 ce 4d 3e 7f de 4c bf d3 6d 1e 3e 9a 90 b9 3d
       0.20098165 -0.80027 0.15471582 0.09060784
0000c0 e5 44 e6 bd c7 da 89 be 75 be 68 3a eb 6c 0c be
       -0.11243609 -0.26924726 0.0008878478 -0.13713424
0000d0 25 30 77 3e 38 a2 01 3f a3 fe 8a be 10 aa bf 3e
       0.2413946 0.5063815 -0.27147397 0.37434435
0000e0 f1 36 7d 3f 1a 12 31 be 0d 44 79 bf 1a b7 ab bd
       0.9891196 -0.17292061 -0.9736946 -0.08384533
0000f0 c8 c4 3b 3f a3 0d 02 bf 3a 71 2e 3e 28 1c c4 be
       0.7334714 -0.5080206 0.1703538 -0.38302732
000100 13 01 23 c0 3e c2 66 3e ba d6 27 bf a4 42 a3 be
       -2.5469406 0.22535035 -0.6556202 -0.3188678
000110 7e 2b 08 c0 c5 53 ec 3e 48 31 09 3f c3 6d 16 be
       -2.1276546 0.4615766 0.5359082 -0.14690308
000120 4a 8e 67 3f 3e 2e ac be ff 4c a0 3e 4b d8 08 40
       0.9045149 -0.3362903 0.31308743 2.1382015
000130 62 ae 42 bf 9b 7d 1b bf e0 24 20 be 8b 2b c7 bf
       -0.7604734 -0.60738534 -0.15639067 -1.5560163
000140 51 4b d7 3f 93 ea a9 be ff a4 82 bf 6b bc 76 3e
       1.681986 -0.33186778 -1.0206603 0.24095313
000150 53 3c e1 3f 88 66 e0 bf e0 86 e9 3d a9 ac 8b 3e
       1.7596534 -1.753129 0.114026785 0.27280167
000160 a1 a2 b1 3d 70 56 b9 be 79 be c4 3e 46 00 5a 3f
       0.08673597 -0.3619876 0.3842657 0.8515667
000170 5c b7 df 3c 6d 5c cd 3e ae 2b ba bd fc f8 1d 3f
       0.027309112 0.40109578 -0.090903625 0.61708045
000180 33 04 f3 3e 9e 5c 85 3f 37 3f 3e bf 30 3f 14 c0
       0.4746414 1.041889 -0.7431521 -2.3163567
000190 db da 5c bf 48 4e 6c 3f 40 f6 c3 be e5 31 0b 3f
       -0.86271447 0.9230695 -0.3827381 0.5437301
0001a0 68 67 07 c0 97 77 6f 3b 5b e5 97 be be 1f 2b 3f
       -2.1156864 0.0036539787 -0.29667172 0.6684531
0001b0 ee 81 97 3e 0f b3 c3 bf dc e7 34 be c4 8f 03 3f
       0.29591316 -1.5289019 -0.17666572 0.51391244
0001c0 ab c4 ac be e6 78 48 bf d9 c5 bd 3f c2 7e c2 3c
       -0.33743796 -0.78309476 1.4826003 0.023742083
0001d0 ab 7c 43 3f c5 20 88 3e d7 e7 6f be fa 6a 21 bf
       0.76362103 0.265875 -0.23428284 -0.6305386
0001e0 3a 78 33 3f 78 8c bf 3e d3 7b 79 be a7 09 55 3d
       0.70105326 0.37411857 -0.24363641 0.05201116
0001f0 3f f1 0c 40 51 b1 d7 3e 99 68 99 be 0d 48 be 3e
       2.2022245 0.4212747 -0.29962614 0.37164345
000200 f9 2a 99 bf 92 57 02 3e b0 17 a7 be 7b a9 33 3e
       -1.1966239 0.12728718 -0.3263526 0.1754512
000210 a6 6a 18 bf d5 b4 9a bc f3 5f 5c 3f 95 78 ed 3d
       -0.5953773 -0.018885056 0.86083907 0.11595265
000220 b6 d0 2e 3f 87 81 31 be 72 5d 14 3f 04 22 db 3f
       0.6828722 -0.17334567 0.57955086 1.7119756
000230 33 6e 2d bf a5 a8 1b bf 38 61 5a bd 25 16 0f bf
       -0.67746276 -0.60804206 -0.05331537 -0.55893165
000240 96 fe 9c 3f 43 dd 9b bd 3b ff 3b be c0 41 18 3e
       1.2265193 -0.07610562 -0.18359081 0.14868832
000250 c1 1c 6e 3f c3 ef 71 3d 53 01 0c be 5c d9 b5 3d
       0.93012625 0.059066545 -0.1367238 0.08879349
000260 8f f4 af bd 03 0f 27 3e 8c c8 9c 3f f4 76 a4 3e
       -0.08591568 0.1631432 1.2248702 0.32122004
000270 6e b8 ca 3d 70 59 5b 3d 1e ac a6 3e 04 7b f3 3e
       0.098984584 0.05355209 0.3255319 0.4755479
000280 a5 bf d2 bd d3 18 5a 3f e8 11 b2 bd bb 34 65 bf
       -0.102904595 0.8519413 -0.086948216 -0.89533585
000290 ae eb d0 3c 08 57 ee 3e e0 cb dc be f0 0a 94 3e
       0.025503006 0.46550775 -0.43124294 0.28914595
0002a0 bd 23 65 bf 54 fc 74 3e 3a 7c 2e bf b3 a1 45 be
       -0.8950766 0.2392438 -0.68158305 -0.19299965
0002b0 41 3e 04 be 92 20 4f bf ef a1 fb 3d 48 40 fa 3e
       -0.12914373 -0.80909073 0.12286746 0.48877168
0002c0 d3 34 3e 3d 03 23 83 be d6 b2 1e 3f c5 53 ed be
       0.046437096 -0.2561265 0.6199163 -0.46352974
0002d0 7b 38 d0 3e f6 0a 58 be 40 63 01 bf 79 b3 4c bd
       0.4066809 -0.21097931 -0.5054207 -0.049975846
0002e0 fe e6 d9 3e 30 90 8b 3e 7b b8 e4 be 6b 28 86 be
       0.42559046 0.27258444 -0.44671997 -0.2620271
0002f0 c4 3c 87 3f a5 52 16 3e 91 6d f1 be c1 02 8f bd
       1.0565419 0.14679964 -0.47153905 -0.06982947
000300 60 23 0a c0 f7 5f 82 3d b7 09 d2 be 02 29 dd be
       -2.158409 0.0636596 -0.41023037 -0.4319535
000310 46 4b 8a bf 88 28 23 3e 97 27 3a 3f 8f 2c 6c be
       -1.0804222 0.1593343 0.7271666 -0.23063873
000320 d0 08 b9 3f cd 7e 1f bf b3 18 20 3f 71 68 c0 3f
       1.4455814 -0.6230286 0.6253769 1.5031873
000330 fd 19 ad be e2 13 bb be e0 d7 a3 bd 20 c8 46 bf
       -0.3380889 -0.36538607 -0.08000159 -0.77649117
000340 16 25 e6 3f 6a 57 b2 bc 7a 11 d9 be c6 44 35 bf
       1.7980068 -0.021770198 -0.42396146 -0.70808065
000350 e2 42 ff 3f a0 5e a4 bf 11 13 0f 3f 54 bf 9a 3f
       1.9942286 -1.2841377 0.5588847 1.2089639
000360 ba 7b d6 bd 8c 9a 87 3e 83 32 ed 3f 09 6f f3 3e
       -0.10472818 0.26485097 1.853104 0.4754565
000370 42 06 2a bd 1d 73 01 3f 93 08 05 bf e9 c6 38 3f
       -0.041509874 0.50566274 -0.5196621 0.7217851
000380 b7 48 e5 bd f7 f6 9e 3f ee a9 55 be 79 28 76 bf
       -0.1119551 1.2419118 -0.20865604 -0.96155506
000390 5b fd 8a 3e 62 5e 3e 3f 01 b0 33 bf 66 75 d4 bd
       0.2714642 0.74362767 -0.70190436 -0.103739545
0003a0 db db 3c c0 c1 65 30 bf d9 f5 07 bf db 26 58 3e
       -2.950919 -0.68905264 -0.5310951 0.21108572
0003b0 f1 a6 2c 3e 5f 88 5d bf 80 15 d5 3d aa 32 63 be
       0.16860558 -0.8653621 0.104044914 -0.22187296
0003c0 a0 da 1d 3e 57 0b a7 be 61 b6 57 3f 66 7b 9d bd
       0.1541543 -0.3262584 0.84262663 -0.07689552
0003d0 ca cf be 3f 5f 08 92 3e 02 af 96 be 0a f5 a3 be
       1.4907162 0.28522012 -0.29430395 -0.32022887
0003e0 55 8b a7 3e c0 ff b2 3b d9 94 19 bf 2b b8 34 3e
       0.3272349 0.0054626167 -0.5999275 0.1764838
0003f0 9d d3 0e 40 d4 fd 91 3e 7a 6c 74 3d ac 37 c2 bd
       2.2316658 0.28513968 0.059673764 -0.09483275

lstm.weight_hh_l1 f4 [256, 64]
000000 e0 41 38 3f 99 d7 80 3f 35 b7 85 3e 30 54 9d be
       0.7197552 1.0065795 0.26116338 -0.30728292
000010 fe 10 18 bd 7b 1e 0f bf cf 3a 67 bd 4c fd a9 be
       -0.03712558 -0.55905885 -0.05645257 -0.33201063
000020 08 4f 78 3e 35 ab 81 bf 40 24 b9 bf a6 0f df bd
       0.24248898 -1.0130373 -1.4464188 -0.108916566
000030 cd c9 b8 be 23 8b 78 3f 68 1f d0 3d 24 8e 97 bd
       -0.36091462 0.97087306 0.1016224 -0.07400158
000040 39 d7 73 bf 1c 91 4a bf 38 39 b8 3e 66 d0 23 bf
       -0.9525028 -0.7912767 0.35981154 -0.63989866
000050 99 88 d6 3b 2a f3 aa bd a3 94 dd bf 6f 71 d1 3d
       0.0065470454 -0.08347161 -1.7310985 0.10226714
000060 98 ee de 3e be 37 63 3e 5d 8c eb 3c 44 da bc be
       0.43541408 0.22189233 0.028753454 -0.36885273
000070 49 e9 ea be 62 9f 6e 3f 14 7c 82 3d 4f be 08 3e
       -0.45881107 0.9321195 0.06371322 0.13353847
000080 69 98 7b 3e 4a f0 64 bf 82 91 18 3f 73 64 92 3d
       0.24569859 -0.8942915 0.5959703 0.071480654
000090 88 38 e1 3d e0 40 a9 be 98 d9 ae bd 57 08 c8 be
       0.109971106 -0.33057308 -0.085375965 -0.39068863
0000a0 14 95 a2 3e 27 6e a9 3e 6d c1 4b 3d 98 ca ec be
       0.31754363 0.33091852 0.049745012 -0.46248317
0000b0 c4 83 13 bf 92 a7 74 be 71 bb 4e 3e dd 47 ff 3e
       -0.57622933 -0.23892048 0.2018869 0.49859515
0000c0 85 1b 03 3f 1f d4 53 bf 30 5d 7b bb 85 af af 3f
       0.51213866 -0.82745546 -0.0038355105 1.3725439
0000d0 88 6a 40 bf b6 b2 16 3f 28 a9 f4 bd 6a 61 9a be
       -0.75162554 0.5886644 -0.119463265 -0.30152446
0000e0 30 db 26 3f 7a f5 db be 2f 16 06 be 8c a5 f8 3e
       0.65178204 -0.4296072 -0.130944 0.48563802
0000f0 b7 fb 96 3d fe 55 5a be a1 aa 4e 3f 65 8c 74 bf
       0.073722295 -0.21321866 0.8072911 -0.95526725
000100 d8 d6 5a be 43 15 51 3f b0 30 b8 be af 23 8a be
       -0.21371019 0.8167307 -0.35974646 -0.2698035
000110 28 56 20 bf b3 a2 a7 be ee 43 28 bf b0 da 49 bc
       -0.62631464 -0.32741317 -0.6572865 -0.012320206
000120 c6 df f9 3d a4 5a 8e bf 53 c3 36 bf a3 87 63 3f
       0.122008845 -1.1121411 -0.7139179 0.8887884
000130 c8 bd e5 bd 1e 24 a7 3f a6 f4 7c be 8e fe 2d be
       -0.112178385 1.3057897 -0.24702701 -0.16991636
000140 1b 5c 03 bf 9d 7a 7d bf ce 38 58 3e 54 6f 9c be
       -0.51312417 -0.9901522 0.2111542 -0.30553687
000150 44 f8 3b be 85 93 9a be 76 91 98 bf 24 cd 02 3e
       -0.18356425 -0.30190673 -1.1919391 0.12773567
000160 02 0d 11 3f 84 45 5e 3e 95 f8 3b be 46 0d b6 bf
       0.56660473 0.21706206 -0.18356545 -1.4222801
000170 5d d8 8c be 52 f5 1c 3f 21 1e e7 3e 5a 5b e4 3d
       -0.27508822 0.6131183 0.45140174 0.111502364
000180 4f ec 5c 3e 76 5a a1 3e 2d f2 b5 3f ac 12 dd bd
       0.2157452 0.3151433 1.4214531 -0.10794577
000190 21 75 bc 3e 31 20 43 3d 9b 77 74 3f 9c 85 08 bf
       0.36808112 0.047638122 0.95495003 -0.5332887
0001a0 60 d4 37 3f 69 eb 90 3e 38 7e 4a be 31 f2 a9 3e
       0.71808434 0.28304604 -0.19774711 0.3319259
0001b0 ff 19 be be 45 24 d1 be 8e e1 31 bd 19 d6 67 3f
       -0.37129208 -0.40847984 -0.043427996 0.9056106
0001c0 03 e0 cf be 74 1d 8d be 3d 47 99 bd 10 55 b4 3f
       -0.40600595 -0.27561533 -0.07484291 1.4088459
0001d0 3c 75 09 c0 eb 81 75 be f1 7f cb 3e e5 c4 37 be
       -2.1477804 -0.23975341 0.3974605 -0.17946203
0001e0 5d c0 36 3f 90 88 34 be 9e f3 2e 3e 76 cb 4f 3e
       0.71387273 -0.1763022 0.1708512 0.20292458
0001f0 cc 23 17 3f 20 c2 10 bb 5b 59 c4 3e 23 90 18 bf
       0.59038997 -0.0022088364 0.38349423 -0.59594935
000200 56 7d 22 bd 32 f6 30 3e 77 f1 97 bd f1 37 5c be
       -0.03967031 0.17281416 -0.07419103 -0.21505715
000210 eb 2e d3 be 7a 7a c8 be b6 12 a4 bd e9 c2 dc bd
       -0.41246733 -0.39155942 -0.08011381 -0.10779364
000220 f6 f2 04 3d eb 81 41 be d5 5b 82 bf 2d 95 08 bf
       0.032458268 -0.18897216 -1.0184275 -0.53352624
000230 e6 04 b5 be 50 8e 96 3e ef 5f 16 3e 60 8c 0f be
       -0.353553 0.2940545 0.14685033 -0.14018393
000240 08 c0 cc 3b 7f b2 ee be 92 5e 98 3e 53 18 80 be
       0.006248478 -0.46620557 0.2975965 -0.25018558
000250 50 41 a8 bd d3 e0 a9 bc d7 0c 56 3e a2 ef 0d 3e
       -0.08215582 -0.020737087 0.20903336 0.13860944
000260 94 fe fe 3d 8e 5f 5d bd 9d b1 a6 3b 41 50 88 be
       0.12450901 -0.054046206 0.005087091 -0.2662373
000270 b2 f0 e2 be 47 22 15 3e ae 48 a5 3d fa 10 a6 3d
       -0.4432426 0.14563857 0.08070503 0.08108707
000280 06 6a b2 b8 14 f7 33 3f f4 46 07 3f 6b 47 8e 3d
       -8.50745e-05 0.70298886 0.5284264 0.06947216
000290 b2 47 5a bd 5d 8f 97 3e a7 45 81 bf ca a9 ad bd
       -0.05329103 0.29601565 -1.0099381 -0.0847965
0002a0 d9 57 a5 3d ba af 5e 3e 1a 42 af bd 69 27 b4 bc
       0.08073396 0.21746722 -0.0855753 -0.021991448
0002b0 53 78 ba be 5b 37 22 3d 8e 6a 69 3f 76 35 e2 3d
       -0.36419925 0.039603572 0.91178215 0.11045353
0002c0 b8 31 7c 3d b5 8a b7 be 07 f1 2a ba ce 3b 5c 3f
       0.061570853 -0.35848013 -0.0006520901 0.86028755
0002d0 c6 c0 e0 be 7d e6 d9 bd 63 25 97 be 4f c4 83 bd
       -0.43897074 -0.10639665 -0.2952071 -0.06433927
0002e0 ee 41 c4 bd 27 94 a9 bd 7e 0c 40 3f 1e 0c 3c 3e
       -0.095828876 -0.08280211 0.7501906 0.18363997
0002f0 d4 5b 3c 3e d4 9d a9 be 80 6d 3e 3e f3 8a f7 be
       0.18394405 -0.33128226 0.18596458 -0.48348197
000300 0d 20 ec 3c ea 7c a1 3e be ca 9f bd db d0 49 bf
       0.028823877 0.31540614 -0.07802342 -0.78834313
000310 f3 39 f4 bf b7 78 6d bd 0c b9 da 3d 82 53 1e 3e
       -1.9080185 -0.05797645 0.10679826 0.15461543
000320 a7 0d 83 3e 6e a9 05 3f 89 99 b5 bf 77 37 e8 3c
       0.25596353 0.52211654 -1.418748 0.02834676
000330 23 ab 38 3f 6f 45 d1 3e 07 42 fd be cc a8 84 be
       0.72136134 0.40873286 -0.49464437 -0.25910032
000340 94 a7 35 3e 02 32 b0 be fc 5b 0c 3f 9e ba b5 bf
       0.17739707 -0.34413153 0.54827857 -1.4197576
000350 0f fc 14 be 67 df 50 be 32 9f 1c bf 4c 42 03 3e
       -0.14549278 -0.20397721 -0.6118041 0.12818259
000360 3c d3 5b be 91 0e 94 3e a1 4f cf 3d b3 42 0e bf
       -0.21467298 0.28917363 0.1012261 -0.55570525
000370 6f 8a 28 bf 55 9b 1c 3f a2 77 5d 3f 08 d0 b2 3e
       -0.6583623 0.6117452 0.8651067 0.3492434
000380 72 be 79 3e d0 58 cc 3d 16 65 52 3f 7d 51 be 3d
       0.24389055 0.09977877 0.82185495 0.092928864
000390 c3 e3 d5 bd 16 ef 14 3f 5d e3 be bb 32 27 ca 3d
       -0.10443833 0.58177316 -0.0058254437 0.09870757
0003a0 83 db e0 3e 69 f5 9f be a5 1c ba 3d a8 f0 00 be
       0.43917474 -0.3124192 0.09087495 -0.12591803
0003b0 b6 3c 04 bf 47 60 0f 3e 8c 8b 86 3f 37 32 0c 3f
       -0.5165514 0.1400157 1.0511336 0.5476412
0003c0 a8 d8 22 be 19 16 b1 bf 86 af fa bd 2b 02 68 3f
       -0.1590296 -1.3834869 -0.1224051 0.9062831
0003d0 70 2a 56 bf bf 3b 18 bd cf a5 05 3e d7 8e c2 be
       -0.83658504 -0.037166353 0.13051532 -0.37999603
0003e0 17 e2 b9 3c dd 18 01 3e 8c 92 fb be e1 2f 98 be
       0.022690816 0.12607141 -0.49135244 -0.2972403
0003f0 4a 58 2b 3e 49 eb 87 be 75 7d 26 3e 75 2e 2a 3f
       0.16732898 -0.26546696 0.16258796 0.6647714

lstm.bias_ih_l1 f4 [256]
000000 0f 62 c8 bf de 93 98 bf 55 18 dd bf 12 12 a4 bf
       -1.5654925 -1.1920125 -1.727305 -1.2818015
000010 ef d3 64 bf 01 bf 3b bf e6 a9 90 bf 64 3e ac bf
       -0.89385885 -0.73338324 -1.1301849 -1.345654
000020 b4 b2 ba bf 9e 9f 28 bf 37 ee 37 3e ec de c5 be
       -1.4585786 -0.65868556 0.17961966 -0.38646638
000030 69 77 32 be 9a 91 ae be d8 53 f2 be dd 53 d0 bf
       -0.17428364 -0.3409546 -0.47329593 -1.6275593
000040 94 be f3 be b3 cb ad bf c3 af 60 bf 2c 9b 89 bf
       -0.47606337 -1.3577789 -0.8776819 -1.075048
000050 ab ef 93 bf ab 35 46 bf 26 59 87 3c af 36 7a bf
       -1.1557516 -0.7742564 0.016522001 -0.9773969
000060 8d 11 a0 bf 94 22 cd bf 3b dd a0 bf 6e 1f 33 bf
       -1.2505356 -1.6026177 -1.2567514 -0.6996983
000070 01 6f 89 bf 72 c6 b0 bf a9 c4 b8 bf 80 32 bc bf
       -1.0737001 -1.3810561 -1.4435016 -1.4702911
000080 f2 97 9c bf 96 49 a4 bf 40 d4 7b bf 54 81 d6 bf
       -1.223387 -1.2834957 -0.9837074 -1.6758218
000090 41 08 07 be 7c 9e 6c bf e7 22 61 bf 96 6c 55 bf
       -0.13186742 -0.9242933 -0.8794388 -0.83368814
0000a0 6a b3 37 bf 9c d3 8b bf 82 31 af bf 5e d7 96 bf
       -0.7175814 -1.0923953 -1.3686984 -1.1784475
0000b0 00 b6 aa bf 51 83 a8 bf 48 9b 80 bf 82 a3 85 bf
       -1.3336792 -1.3165075 -1.0047388 -1.0440524
0000c0 70 6f c6 bf dd 65 82 bf e5 eb be bf 98 d5 3a bf
       -1.5502758 -1.0187336 -1.4915739 -0.7298217
0000d0 da e5 82 bf 49 dd b6 bf d7 87 99 bf da 92 13 bf
       -1.0226395 -1.4286281 -1.199458 -0.5764595
0000e0 19 4a a5 bf c5 c2 cf bf 2d 59 8a bf 7f fa 10 bf
       -1.2913238 -1.6231314 -1.0808464 -0.56632227
0000f0 0a 43 96 bf 09 3b ad bf 2e 95 4e bf d4 24 aa be
       -1.1739209 -1.3533641 -0.8069638 -0.33231223
000100 c3 30 08 bf a7 81 a9 bf 38 14 4f bf 8e ea 97 bf
       -0.53199404 -1.3242692 -0.80890226 -1.1868455
000110 b7 ea 82 bf 1c 5a 9d bf bb 3a b0 bf 96 7f 5b bf
       -1.0227879 -1.2293124 -1.3767923 -0.85741556
000120 d5 73 75 bf 59 da 25 bf 22 07 c9 be b0 8e a4 bf
       -0.9587987 -0.647863 -0.39263254 -1.2856045
000130 3f b6 29 3e 3a 7b 34 bf 9c f7 14 bf 2b 87 4e bf
       0.16573428 -0.7050053 -0.5819032 -0.80675
000140 45 85 7d be 9e f1 c5 bf c5 3c 47 bf 04 e4 1e bf
       -0.2475787 -1.5464361 -0.778271 -0.62066674
000150 a8 7d 87 bf a0 56 b3 bf 9e c9 7d bf a7 9b af bf
       -1.0585222 -1.4010811 -0.9913577 -1.3719376
000160 c4 22 81 bf d0 3e 7a bf d0 a3 64 bf 00 ac 6a bf
       -1.0088735 -0.97752094 -0.8931246 -0.916687
000170 62 e3 9f bf dd de 73 bf be 4f c2 bf 7a e6 85 bf
       -1.2491267 -0.9526194 -1.5180585 -1.0460961
000180 a6 36 71 bf 9a e1 98 bf 92 d5 91 be d4 58 70 bf
       -0.9422401 -1.1943848 -0.28483254 -0.9388554
000190 74 bf 87 bf 1c 90 33 bf 55 6b 47 3f fe 8a 25 bf
       -1.0605302 -0.7014177 0.7789815 -0.6466521
0001a0 0e 85 cc bf 1d c7 30 bf ac cf 94 bf 50 28 92 bf
       -1.5978105 -0.6905382 -1.1625876 -1.1418552
0001b0 3b 53 53 bf a4 f1 42 bf 09 a3 dd bf db 9d 99 bf
       -0.82548875 -0.76149964 -1.7315379 -1.2001299
0001c0 b0 17 85 bf af 8f 76 bf 74 94 51 bf 95 fc f0 bc
       -1.0397854 -0.96312994 -0.81867146 -0.029417315
0001d0 a3 18 dc 3e 5a 96 33 bf 5e e9 b1 bf ac 83 99 bf
       0.42987546 -0.70151293 -1.3899343 -1.1993308
0001e0 ad 6f 97 bf ee c7 99 bf 74 c2 8f bf 5a af c2 be
       -1.1830956 -1.2014139 -1.1231217 -0.38024408
0001f0 d2 42 43 bf 27 96 85 bf 85 e0 81 bf 0b 33 90 bf
       -0.76273835 -1.0436448 -1.0146643 -1.1265577
000200 57 9a 0b 3f 88 32 e3 bd 65 b9 a8 3c 82 9f 48 3e
       0.5453238 -0.110936224 0.020596216 0.19592097
000210 3e 5b a2 be 46 1a 1d 3f 3b 41 02 bf 9d c1 0f bf
       -0.31710237 0.61368215 -0.50880784 -0.56154805
000220 eb c6 cf 3e 30 d4 44 3e b0 20 81 3f a9 6b 1e bf
       0.4058145 0.19221568 1.00881 -0.61883026
000230 3f 9e 95 3e 4d 4b 7c be ae dd 8b 3e a7 d9 61 3c
       0.29222295 -0.246381 0.27317566 0.0137848025
000240 b5 9a 71 3f cb 05 87 bc ff 76 7a be d3 98 24 3d
       0.9437669 -0.016482254 -0.24459456 0.040184807
000250 36 b7 6b 3e 7b a1 5b bf dd 3a 8f 3f 4f 49 62 bf
       0.23019108 -0.85793275 1.1189839 -0.8839311
000260 4e 07 c9 be 40 c0 0b bf bf 36 04 bf ae 5d e5 3d
       -0.39263386 -0.54590225 -0.51646036 0.111995086
000270 02 20 55 bd de 24 d4 be 3a 90 13 3f ad 5e 4a be
       -0.05203248 -0.41434377 0.5764195 -0.19762678
000280 65 d7 3a 3e 91 3d 55 be 7d b2 03 bf 44 03 4f 3e
       0.18246229 -0.20824267 -0.51444227 0.2021609
000290 31 04 54 bd 5b 97 27 bf ec 92 46 3f 93 52 91 3e
       -0.05176181 -0.65465325 0.77567935 0.28383312
0002a0 6e 4d 40 3e c3 13 0a bf 5c 43 6b be 32 89 1c bf
       0.18779537 -0.53936404 -0.22974914 -0.61146843
0002b0 38 a8 e4 3e 70 c1 0d be e3 71 ae 3c 80 bf 18 3d
       0.4465959 -0.13843322 0.02129454 0.037292004
0002c0 e1 51 b9 bd 57 bb 69 3e 08 d0 22 3f be 8c cc be
       -0.0904882 0.2282537 0.6359868 -0.39951128
0002d0 c9 02 92 3f af 97 1f 3c 38 2f f2 3d cf 97 80 3f
       1.14071 0.009740754 0.118254125 1.0046328
0002e0 68 38 ef be 83 d3 9a 3e 3a 54 03 bf 72 d3 28 bf
       -0.46722722 0.30239496 -0.51300395 -0.6594764
0002f0 d5 34 02 bf ec 49 db be 64 98 6c bd dd b5 cd 3e
       -0.50861865 -0.42829835 -0.05776252 0.40177813
000300 9a 38 ba bf f8 31 96 bf 3b 5f d8 bf ad c7 a9 bf
       -1.4548523 -1.1733999 -1.6904062 -1.3264061
000310 a9 2e 79 bf 8d e1 1b bf 95 91 9a bf 58 94 9e bf
       -0.9733682 -0.6089104 -1.2075678 -1.2389021
000320 e1 8d b5 bf 42 b4 93 bf 0e da 2e be 3f 02 20 bf
       -1.4183923 -1.1539385 -0.17075369 -0.6250343
000330 0c ff 55 bf cb 56 ef be 60 a8 80 bf 47 df d5 bf
       -0.83592296 -0.46745905 -1.0051384 -1.6708764
000340 ac c5 46 be a8 22 ae bf fa 76 79 bf 0d 2a 87 bf
       -0.19411343 -1.3604326 -0.9744717 -1.0559708
000350 75 5b 92 bf c9 81 6a bf ae 6e bc be a4 8e 5e bf
       -1.143416 -0.91604286 -0.36803192 -0.869364
000360 5b 5d 98 bf 6a 76 c1 bf 50 7a a8 bf bc 24 25 bf
       -1.190349 -1.5114262 -1.3162327 -0.6450918
000370 a5 0d 82 bf ee a0 ae bf 31 dd 97 bf b2 bf ab bf
       -1.0160414 -1.3642862 -1.1864377 -1.3417876
000380 eb 98 9c bf 9d 90 9d bf 0b db 4a bf c0 96 c4 bf
       -1.2234167 -1.2309757 -0.79240483 -1.5358505
000390 c0 5e 11 bf 4d db d3 bf 68 30 48 bf fa b1 5f bf
       -0.567852 -1.65513 -0.7819886 -0.87380946
0003a0 6e c2 37 bf 86 df 71 bf e3 3d a7 bf cd 33 88 bf
       -0.7178105 -0.94481695 -1.3065761 -1.0640808
0003b0 43 ee ab bf 29 f6 9d bf 89 b8 9c bf be b8 87 bf
       -1.3432087 -1.2340747 -1.2243816 -1.0603254
0003c0 20 56 ba bf 43 94 b8 be 13 30 b4 bf 9b 9f 90 bf
       -1.4557533 -0.36050615 -1.4077171 -1.1298708
0003d0 4b 1f 2a 3e c4 ae be bf 5b 35 9c bf 1c aa 11 bf
       0.166135 -1.4897084 -1.2203783 -0.5690019
0003e0 62 67 90 bf cc 1d b7 bf a6 91 6c bf d9 57 3a bf
       -1.128155 -1.4305968 -0.9240974 -0.72790295
0003f0 d9 fd 5e bf 4a c7 b4 bf 20 97 56 bf 8e b5 04 bf
       -0.8710609 -1.4123318 -0.8382435 -0.5183953
