Ablation Experiments/Reward Function-激励函数转浮盈浮亏/Transformer-DoubleDQN-QT-Final/64network-TransformerNoguiadance.pth (torch, 851590 bytes, 18 tensors)

encoder.self_attn.in_proj_weight f4 [30, 10]
0	0x3e3ca227	0.18421231
1	0x3e923189	0.28553417
2	0xbe26c179	-0.16284741
3	0x3e5066e6	0.20351753
4	0xbeff6f94	-0.49889815
5	0xbd2381a6	-0.039918564
6	0xbe36cbc7	-0.17851172
7	0xbcec3a9e	-0.028836545
8	0xbeaa7492	-0.3329206
9	0xbd27a585	-0.040929336
10	0xbe80b8be	-0.25140947
11	0x3d92f31e	0.07175277
12	0x3f01a84b	0.5064742
13	0x3f1adbcc	0.60491633
14	0x3fc8d37c	1.568954
15	0x3ec8fff8	0.3925779
16	0x3f2b5da5	0.66939765
17	0xbecabdcf	-0.39597937
18	0x3de8a050	0.11358702
19	0xbd0d493a	-0.034493662
20	0xbfb8509d	-1.4399601
21	0x3fde9522	1.7389262
22	0x3f72843b	0.9473302
23	0xbf256be6	-0.64617765
24	0xbcbea15b	-0.0232703
25	0x3f1844e2	0.59480107
26	0x3fe676ad	1.8004967
27	0x3ef36651	0.47539
28	0xbfe5346c	-1.7906623
29	0xbfc0528d	-1.5025192
30	0x3ee7fe27	0.4531109
31	0xbf886021	-1.0654336
32	0xbe6bf58a	-0.23042884
33	0xbf296adf	-0.661787
34	0xbea7b089	-0.32751873
35	0xbd98a9db	-0.07454272
36	0xbe0fc0d1	-0.14038397
37	0xbf7ea125	-0.9946464
38	0x3f0464a6	0.5171608
39	0x3f2d648f	0.67731565
40	0xbeda248b	-0.42606005
41	0x3e0e1db6	0.13878521
42	0xbd686fce	-0.05674725
43	0xbe3e5629	-0.18587555
44	0x3e9cd16c	0.30628526
45	0x3a23f51c	0.00062544807
46	0x3e11a4ee	0.14223072
47	0x3dad53c6	0.08463244
48	0x3e71501c	0.23565716
49	0x3e9d4fed	0.3072504
50	0x3ee33b2f	0.4438109
51	0xbebe2063	-0.37134084
52	0xbf60add5	-0.87765247
53	0x3f59898c	0.84975505
54	0xbe7a0df1	-0.2441938
55	0xbf4e7e40	-0.8066139
56	0xbebbf9be	-0.36713976
57	0x3f931409	1.1490489
58	0x3f792c66	0.9733337
59	0x3f4a4b59	0.7902122
60	0xbd821afb	-0.06352802
61	0x3f04df94	0.51903653
62	0xbf83ab50	-1.0286655
63	0xbedb1664	-0.4279052
64	0xbf8d01af	-1.1016139
65	0xbed993bf	-0.42495534
66	0xbf132bb2	-0.5748855
67	0x3f51f149	0.82008797
68	0xbd036f4c	-0.032088563
69	0xbed66e57	-0.41881058
70	0xbeae7ea9	-0.3408101
71	0x3de0499c	0.1095154
72	0xbe5b4627	-0.2141348
73	0x3d0d6a31	0.0345251
74	0x3d4ff221	0.05076802
75	0xbd923518	-0.07139033
76	0xbdfb3cca	-0.12267454
77	0x3f9c00e7	1.2187775
78	0xbee5a0f6	-0.44849366
79	0x3d8e6e95	0.069546856
80	0xbd98dc5a	-0.07463904
81	0xbe3d48d5	-0.18484814
82	0x3eda36f4	0.4262005
83	0x3f12c51e	0.57332027
84	0x3e91baf3	0.28462943
85	0xbefb8f64	-0.49132836
86	0x3ce8fe50	0.028441578
87	0x3fbcb93d	1.474403
88	0xbe90bf30	-0.28270864
89	0x3d86dee0	0.06585479
90	0x3e7c2830	0.24624705
91	0x3e3c4bde	0.18388316
92	0xbf25ef97	-0.6481871
93	0xbddc77c3	-0.1076503
94	0xbedce112	-0.43140465
95	0xbdf0c547	-0.11756378
96	0xbe489edb	-0.19591849
97	0x3f985e78	1.190383
98	0xbe06bfb2	-0.13159063
99	0xbec802fa	-0.3906477
100	0xbf3df288	-0.741982
101	0xbee0725d	-0.43837252
102	0xbfdb7664	-1.7145505
103	0xbfeb1e76	-1.8368671
104	0xc002b5f7	-2.0423563
105	0xbd98e9ed	-0.07466493
106	0xbe5ecdb8	-0.21758163
107	0xbf94be2f	-1.162054
108	0x3ed38696	0.41313618
109	0xbe4042ba	-0.18775454
110	0x3f38e909	0.72230583
111	0x3ea73dbf	0.32664296
112	0x3fe9fdda	1.8280594
113	0x3eb3498c	0.3501705
114	0x3f07ffbc	0.53124595
115	0x3efa0576	0.4883229
116	0xbe26ab0b	-0.16276185
117	0xbecf5d53	-0.40500888
118	0xbe0b70a0	-0.13617182
119	0xbdc74cf7	-0.09731477
120	0xbf27d5c3	-0.6556055
121	0x3ca4dfb5	0.020126203
122	0xbe7323f8	-0.2374419
123	0xbf87b466	-1.0601928
124	0xbf9f6cc2	-1.2455065
125	0xbef58b3a	-0.47957784
126	0xbedd6def	-0.43247935
127	0xbfef2d45	-1.868569
128	0x3ff36073	1.9013809
129	0xbe1cb006	-0.15301523
130	0x3f7bfd4a	0.98433363
131	0x3e61711a	0.22015801
132	0x3f5a6b8a	0.8532034
133	0x3fb8894c	1.44169
134	0x3fc654a0	1.5494576
135	0x3f3a383f	0.72742075
136	0x3e52a8d7	0.2057222
137	0x3fc0d2b3	1.50643
138	0xc000914e	-2.0088687
139	0x3e9f3134	0.31092227
140	0x3f2ea0c9	0.6821409
141	0x3e8bcada	0.273032
142	0x3faafce4	1.3358426
143	0x3f5af01c	0.8552263
144	0x3f8b3e35	1.0878359
145	0xbc0f7d2c	-0.008757871
146	0x3e1101ab	0.14160793
147	0x3f73d73f	0.95250314
148	0xbf0a53dc	-0.5403421
149	0xbeee026e	-0.4648623
150	0x3fb0a78f	1.3801135
151	0xbf2709d5	-0.6524938
152	0x3ea7ac06	0.3274843
153	0x3f8f4be0	1.119503
154	0x3f92f238	1.1480169
155	0x3f12fe59	0.57419354
156	0x3f804ed4	1.0024056
157	0x3f35299a	0.70766604
158	0xbf4c877f	-0.7989425
159	0x3f850aff	1.0393981
160	0xbf1c1125	-0.6096366
161	0x3deeb055	0.116547264
162	0xbf9ec0b3	-1.2402557
163	0xbf1fc849	-0.62414986
164	0xbf42f08b	-0.7614829
165	0x3daa0ab0	0.0830282
166	0xbbdc379e	-0.0067204973
167	0x3f7fe118	0.9995284
168	0x3e3c1975	0.18369086
169	0x3f0671a8	0.52517176
170	0xbf921bc2	-1.1414721
171	0xbd81abe7	-0.06331616
172	0xbfb5975f	-1.418682
173	0xbfb0ffe1	-1.3828088
174	0xbf9ff763	-1.2497371
175	0xbf1275a9	-0.57210785
176	0xbe3cdc2a	-0.18443361
177	0xbff5fe4d	-1.9218231
178	0x3f2c00f7	0.6718897
179	0xbf4bf1ec	-0.7966602
180	0xbf750576	-0.9571146
181	0xbf4ba1b9	-0.79543644
182	0xbfa97205	-1.3237921
183	0xc01731ca	-2.362414
184	0xc01def31	-2.467724
185	0xbf06d84e	-0.52673805
186	0x3d113d7e	0.035459034
187	0xbf9f0312	-1.2422812
188	0x3f2c8b49	0.6740003
189	0x3e20625f	0.15662526
190	0xbf6785c7	-0.90438503
191	0x3e330908	0.17483914
192	0xbfc84ab2	-1.5647795
193	0xbf8fa260	-1.1221428
194	0xbfb5f55d	-1.4215504
195	0xbe8466ef	-0.25859782
196	0xbe9522af	-0.29128024
197	0xbfa64063	-1.2988399
198	0x3f16105a	0.586187
199	0xbe9cc9a4	-0.3062259
200	0xbee0c05a	-0.43896753
201	0x3f142450	0.5786791
202	0x3e3ec3c3	0.18629365
203	0x3db35654	0.087567
204	0x3f919dd7	1.1376294
205	0x3e8a6048	0.27026582
206	0x3de489b9	0.11159081
207	0xbfef30c9	-1.8686763
208	0xbed9d4b8	-0.42545104
209	0xbe82854d	-0.25492325
210	0xbd505293	-0.05086
211	0x3e026c5a	0.12736645
212	0xbfbcafea	-1.4741185
213	0x3f19023d	0.5976904
214	0xbe828026	-0.25488394
215	0xbfb25689	-1.3932658
216	0xbfaa9034	-1.3325257
217	0x3f6825ae	0.90682495
218	0x3e89084d	0.26764145
219	0x3f026f97	0.5095152
220	0xbf75b4a4	-0.9597876
221	0x3f8429ad	1.0325218
222	0xbdb902fb	-0.090337716
223	0xbfcce1d9	-1.6006423
224	0xbe180b2b	-0.1484801
225	0xbefa28aa	-0.4885915
226	0xbf1444d3	-0.5791752
227	0x3f38d4dd	0.72199804
228	0xbf3cae5e	-0.73703563
229	0xbf6eca4a	-0.9327742
230	0x3ea2a74e	0.31768268
231	0xbeeffe82	-0.46873862
232	0xbf92e503	-1.1476139
233	0xbec40566	-0.3828537
234	0xbf8ef6e3	-1.1169094
235	0xbd4bd958	-0.049767822
236	0xbed85db0	-0.42258978
237	0xc0653a62	-3.5816884
238	0x3ebb65a7	0.36600992
239	0x3ef736bf	0.48283955
240	0x3eb1135f	0.3458509
241	0xbee45712	-0.4459768
242	0xbee02766	-0.4378006
243	0x3e908364	0.28225243
244	0xbf6e5f75	-0.93114406
245	0xbeeae16c	-0.45875108
246	0xbeed5657	-0.46354935
247	0xbf170540	-0.58992386
248	0x3f521aa5	0.82071906
249	0x3e76a893	0.24087743
250	0x3f95ec3a	1.1712716
251	0xbf9cdec8	-1.2255487
252	0xbe6dd867	-0.23227082
253	0x3f53e255	0.8276723
254	0xba9e2cfd	-0.0012067851
255	0x3ecc9bce	0.3996262

encoder.self_attn.in_proj_bias f4 [30]
0	0xbe2187ad	-0.15774412
1	0xbe14522a	-0.14484468
2	0xbfbf3d77	-1.4940633
3	0x3f59839c	0.84966445
4	0x3e181fa7	0.14855824
5	0x3f54884b	0.83020467
6	0xbe813b6d	-0.2524065
7	0xbe86841d	-0.2627267
8	0xbe829ac0	-0.2550869
9	0xbe0138cf	-0.12619327
10	0xbd483f9d	-0.04888879
11	0xbdaf3d32	-0.08556594
12	0xbeb16c0f	-0.34652755
13	0x3f033363	0.51250285
14	0xbf00f01e	-0.5036639
15	0x3e2af818	0.16696203
16	0xbdf8b49b	-0.12143823
17	0xbe3f2d37	-0.18669592
18	0xbf0d243b	-0.5513341
19	0x3f01df19	0.50731045
20	0xbe5f13fe	-0.2178497
21	0x3e765901	0.2405739
22	0xbf709e13	-0.939912
23	0x3f04c497	0.5186247
24	0x3efed5fb	0.4977263
25	0x3f7f6e57	0.9977774
26	0xbc9e45e4	-0.019320436
27	0xbe9c676f	-0.30547664
28	0x3e8e9f2b	0.2785581
29	0x3e800072	0.2500034

encoder.self_attn.out_proj.weight f4 [10, 10]
0	0xbefdf95b	-0.49604306
1	0x3e91141b	0.28335652
2	0xbf12212e	-0.5708188
3	0x3e3ef631	0.18648602
4	0xbe94f204	-0.29090893
5	0x3e657d9e	0.224112
6	0x3db2d751	0.087324746
7	0xbe24bf93	-0.16088705
8	0xbf2f7be8	-0.6854844
9	0x3ef0bfe4	0.470214
10	0x3d2813bd	0.04103445
11	0xbeca49b9	-0.3950937
12	0xbeacc425	-0.33743396
13	0x3e9a4d57	0.3013713
14	0x3ed486b6	0.41509026
15	0x3e95ffe1	0.29296783
16	0xbe345f2b	-0.17614429
17	0x3e7ea427	0.24867307
18	0xbe01f963	-0.1269279
19	0x3e9994e0	0.29996395
20	0xbe20263d	-0.15639587
21	0xbef89837	-0.4855363
22	0x3f7fbddd	0.99899083
23	0xbf8a8034	-1.0820374
24	0xbf0e4d41	-0.5558663
25	0xbf9e36f4	-1.236052
26	0x3f68a1e7	0.90872043
27	0x3fa5dc19	1.2957793
28	0xbf61533b	-0.88017625
29	0xbf7df1de	-0.99197185
30	0x3f2e2c11	0.6803599
31	0xbf0ab46a	-0.5418154
32	0x3f3879aa	0.72060645
33	0xbf1138fd	-0.5672758
34	0xbe8af51f	-0.27140138
35	0xbe6fbdd9	-0.23412265
36	0x3f86a245	1.0518271
37	0x3f829760	1.0202446
38	0x3f013925	0.5047782
39	0xbf9b6c16	-1.214236
40	0x3ea5f3a9	0.3241246
41	0xbf42e663	-0.7613279
42	0x3fd1a9b2	1.6379912
43	0xbf9cd105	-1.2251288
44	0xbfad2c14	-1.3529077
45	0xbfd3c115	-1.6543299
46	0x3f3fad10	0.7487345
47	0x3ee28eb0	0.44249487
48	0xbf14d086	-0.5813068
49	0xbdfde915	-0.123979725
50	0xbfbdc8bf	-1.4826888
51	0x3f19b7b4	0.60045934
52	0xbfb1a62b	-1.3878835
53	0x3f67722f	0.90408605
54	0x3fc07ea5	1.5038649
55	0x3fcadf08	1.5849314
56	0xbdb23770	-0.0870198
57	0x3ec51364	0.38491356
58	0x3fb01606	1.3756721
59	0x3e1de900	0.15420914
60	0x3c8633d9	0.016382145
61	0xbf213b37	-0.6298098
62	0xbde4ab03	-0.111654304
63	0x3d805e98	0.06268042
64	0xbdd02837	-0.101639204
65	0xbe2872b5	-0.16450007
66	0x3ee15327	0.44008753
67	0x3f011baa	0.50432837
68	0x3eb72602	0.35771185
69	0xbf3b7f38	-0.73240995
70	0xbf45fbc7	-0.77337307
71	0xbe8fa576	-0.28055924
72	0x3c823db0	0.015898556
73	0x3ee69cd8	0.45041537
74	0x3c03199e	0.008001713
75	0x3e270e60	0.16314077
76	0xbe9cf3ce	-0.30654758
77	0xbded55f5	-0.11588661
78	0xbe2cb546	-0.16866025
79	0xbe50cb87	-0.2039014
80	0xbeda0dda	-0.42588693
81	0x3f70fa9c	0.941324
82	0xbf37c66d	-0.7178715
83	0x3f154db8	0.58321714
84	0x3fc45290	1.5337696
85	0x3f335531	0.70051867
86	0xbca9f271	-0.020745488
87	0x3e7bbd03	0.24583821
88	0x3f6a6190	0.9155512
89	0xbe7d932e	-0.24763176
90	0x3f053f2a	0.52049506
91	0xbe55b071	-0.20868088
92	0xbf0271be	-0.50954807
93	0x3ed21454	0.41031134
94	0x3e0692d0	0.13141942
95	0x3cd128aa	0.025532085
96	0x3e99bfa1	0.30029014
97	0xbeb39eb4	-0.35082018
98	0x3efa0b2f	0.48836657
99	0x3d8f49cd	0.06996498

encoder.self_attn.out_proj.bias f4 [10]
0	0xbdd5b782	-0.10435392
1	0x3da735d1	0.081645615
2	0xbf564bf1	-0.8370963
3	0xbe907a03	-0.28218088
4	0xbf8aa599	-1.0831786
5	0x3f80ed2e	1.0072381
6	0xbd274849	-0.04084042
7	0xbe2c78fb	-0.16843025
8	0x3f9eaf96	1.2397335
9	0x3e21b79f	0.15792702

encoder.linear1.weight f4 [64, 10]
0	0xbfde7dc9	-1.7382137
1	0xbf12e124	-0.5737479
2	0xc0724936	-3.7857184
3	0x4049c5ac	3.15269
4	0xc066e8cc	-3.6079588
5	0x400d945a	2.2121797
6	0xbff8a685	-1.9425818
7	0xc0034bd5	-2.0515034
8	0x4041b5e5	3.026727
9	0x3fe9b052	1.8256934
10	0xbeaf984e	-0.34295887
11	0xbf2795b5	-0.6546281
12	0xbf393b9b	-0.72356576
13	0x3ef028ce	0.46906132
14	0x3e9991e0	0.29994106
15	0x3dabbec2	0.083859935
16	0x3fa96e73	1.3236831
17	0x3ef37378	0.47549033
18	0x3e4ebeb8	0.20189941
19	0x3d8e664d	0.06953106
20	0xbf60c888	-0.87805986
21	0xbfa1b3db	-1.2633013
22	0xbecd9934	-0.40155947
23	0x3ef18d8f	0.47178313
24	0xbec9ac08	-0.39389062
25	0x3f3d0cae	0.7384747
26	0x3d882ecf	0.06649553
27	0xbf048632	-0.51767266
28	0x3e8e1f60	0.27758312
29	0x3f8858c9	1.0652095
30	0x3ea8fca4	0.3300525
31	0x3e7547cd	0.23953171
32	0x3e6084c8	0.21925652
33	0xbc18e35a	-0.009331549
34	0x3bbdbdda	0.0057904543
35	0x3b5da818	0.0033822116
36	0xbdcc1334	-0.099646
37	0x3e72c85a	0.2370924
38	0xbfa96f3a	-1.3237069
39	0x3e812ab0	0.2522788
40	0xbe61bc92	-0.2204459
41	0xbf383391	-0.71953684
42	0xbf88ad97	-1.0677975
43	0x3f538827	0.82629627
44	0xbe84f6e1	-0.25969604
45	0x3f0e1957	0.55507416
46	0x3f0e964e	0.55698097
47	0xbee790f4	-0.45227778
48	0x3f07c89a	0.5304047
49	0x3f250430	0.64459515
50	0x3d655a39	0.055994246
51	0x3e67ba78	0.22629726
52	0x3ca122b4	0.019669868
53	0x3e7fa801	0.24966432
54	0x3d7f99f4	0.06240268
55	0xbdfa33da	-0.12216921
56	0xbceaa497	-0.028642936
57	0x3eb7cea4	0.35899842
58	0xbe96bd0c	-0.29441106
59	0xbbc5e21d	-0.0060389177
60	0xbeea422a	-0.45753604
61	0xbf564984	-0.83705926
62	0xbe1fcd6a	-0.15605703
63	0x3f496da3	0.7868292
64	0x3daa3ebe	0.083127484
65	0x3f796eb6	0.97434556
66	0xbe8de79f	-0.27715775
67	0xbef5ed6b	-0.48032698
68	0x3e3d0d53	0.18462114
69	0x3f3fd896	0.7493986
70	0xc032b258	-2.7921352
71	0xbfc2662a	-1.5187428
72	0xbe7a56cf	-0.24447177
73	0x400f3cf9	2.2380965
74	0xbf884c45	-1.0648276
75	0x400249d6	2.0357566
76	0xbf939077	-1.1528462
77	0xc02efe9f	-2.7342908
78	0x401cec18	2.45191
79	0x3fd8a86d	1.69264
80	0xbfbd2b9e	-1.4778936
81	0xbf489ca8	-0.7836404
82	0x40006e70	2.0067406
83	0x400425a3	2.0647972
84	0x40913fe9	4.5390515
85	0x400890d2	2.1338391
86	0xbe92a8a1	-0.2864428
87	0xc00a6116	-2.1621757
88	0xbf0ef83e	-0.5584754
89	0xbfba9654	-1.4577127
90	0x3e190aa2	0.14945462
91	0xbf0653b5	-0.52471477
92	0xbeed25c3	-0.46317872
93	0x3dc20aa1	0.094746836
94	0xbf3c438d	-0.73540574
95	0x3e78a97a	0.242834
96	0xbedbf04a	-0.42956764
97	0x3da523a2	0.08063437
98	0x3f15ae30	0.58468914
99	0x3f213fab	0.62987775
100	0xbff9b0b2	-1.9507048
101	0xbeffaa66	-0.4993469
102	0xbfaa0a58	-1.3284407
103	0x408f0ddb	4.4704413
104	0xc01ca20f	-2.4473913
105	0x40954d0c	4.665655
106	0xbfb5c9e5	-1.4202238
107	0xc06e2289	-3.7208579
108	0x4019afa5	2.4013455
109	0x40027e47	2.0389574
110	0xbe861839	-0.26190355
111	0x3e4f4ae1	0.20243408
112	0x3e8a2ee9	0.26988915
113	0x3e73730c	0.23774356
114	0x3ebfd76f	0.3746905
115	0x3e251146	0.1611987
116	0xbd3dc7c0	-0.046333075
117	0x3e7c5206	0.24640664
118	0xbeaa1a17	-0.3322303
119	0xbe477d77	-0.19481455
120	0xbec8928c	-0.39174306
121	0xbf423ad5	-0.7587102
122	0xbf08e22e	-0.5347012
123	0x3f5015b5	0.8128312
124	0xbf2248d1	-0.6339236
125	0x3f38fe1c	0.7226274
126	0x3f43206e	0.7622136
127	0xbee7e572	-0.4529224
128	0x3f0d7071	0.55249697
129	0x3efbed72	0.49204594
130	0xbea570da	-0.3231266
131	0xbf0f4b4e	-0.5597428
132	0x3b945b34	0.004527474
133	0x3e5da96c	0.2164666
134	0xbdc4915a	-0.09598036
135	0x3f9337a7	1.1501359
136	0xbf6520b9	-0.89503056
137	0x3d9ca6c4	0.076489955
138	0xbdc5ad02	-0.09652139
139	0x3f9be5b8	1.217948
140	0xbced7ea2	-0.028991047
141	0xbdd5e1a6	-0.1044343
142	0x3f6b867c	0.9200208
143	0xbeab2a8a	-0.33430892
144	0x3cc87c52	0.024473343
145	0xbd7cdad2	-0.06173212
146	0x3e81870c	0.25298345
147	0x3d8dd924	0.06926182
148	0xbfa488c3	-1.2854236
149	0xbc2d9297	-0.010594032
150	0x3f107804	0.5643313
151	0xbf479cf3	-0.7797386
152	0xbf0470b0	-0.5173445
153	0x3eaf89b7	0.34284756
154	0xbf4b44bf	-0.79401773
155	0x3f096a4f	0.5367784
156	0xbec5c9cc	-0.3863052
157	0x3e765fe7	0.24060021
158	0x3f2f40e9	0.6845842
159	0x3f8b37b2	1.0876372
160	0x3e8b2091	0.27173284
161	0xbedfd793	-0.43719158
162	0xbf64ae73	-0.8932869
163	0x3de3f69d	0.11131022
164	0xbf819883	-1.0124668
165	0x3edd65ab	0.4324163
166	0xbe324ac8	-0.1741134
167	0xbead8a74	-0.33894694
168	0x3f1f117c	0.62136054
169	0x3ec0f5d3	0.3768755
170	0xbf6c5a68	-0.9232545
171	0xbf40e5ac	-0.7535045
172	0xbe7d9c77	-0.24766718
173	0x3f451bf8	0.769958
174	0xbd906962	-0.0705135
175	0x3f578769	0.84190995
176	0xbed8f4c7	-0.4237425
177	0xbf14d1c2	-0.58132565
178	0xbd1f2534	-0.03885384
179	0x3f428eeb	0.75999326
180	0x3ed93a99	0.4242752
181	0xbd5ccf80	-0.053908825
182	0x3d9b58c9	0.07585294
183	0xbe4d8096	-0.20068583
184	0x3de5c38d	0.11218939
185	0x3e21d8df	0.15805386
186	0xbf0e5ae2	-0.55607426
187	0x3e8b37e2	0.27191073
188	0xbf12b693	-0.57309836
189	0x3ed04563	0.40677938
190	0xbf26afa7	-0.65111774
191	0xbf627485	-0.88459045
192	0xbe6d78b0	-0.2319057
193	0x3f294b6b	0.66130704
194	0xbe509c91	-0.20372225
195	0x3f2b323d	0.6687353
196	0x3eaa0f20	0.33214664
197	0xbe944e70	-0.28966093
198	0x3ee36caf	0.44418857
199	0x3f8468b8	1.0344458
200	0xbf78ef5c	-0.97240233
201	0xbf66b38c	-0.90117717
202	0xbe278e42	-0.16362861
203	0x3f9289ac	1.1448264
204	0x3e7cb622	0.24678853
205	0x3f830185	1.0234839
206	0xbf19d4f5	-0.6009057
207	0xbf49a2c7	-0.78764004
208	0xbdd887b1	-0.10572756
209	0x3f832025	1.0244185
210	0xbe998b6b	-0.2998918
211	0xbfa33c7d	-1.2752835
212	0xbef5c158	-0.47999072
213	0x3df62b8f	0.12020027
214	0xbe551872	-0.20810106
215	0x3e64370c	0.22286624
216	0x3ecf6d8f	0.40513274
217	0xbe43a6cf	-0.19106601
218	0x3f0af887	0.5428547
219	0x3f10979e	0.5648135
220	0x3e5fe69d	0.21865316
221	0xbf4f692f	-0.8101987
222	0x3d1b2183	0.037873756
223	0x3e5a636a	0.21326986
224	0xbf7d3287	-0.98905224
225	0xbe8901c9	-0.26759174
226	0xbe79ac72	-0.24382189
227	0xbf076281	-0.5288468
228	0x3f4507c3	0.7696497
229	0x3ea0f23b	0.31434807
230	0xbfef4bd5	-1.8695017
231	0xbeb898bd	-0.3605403
232	0x404c4d1e	3.1922069
233	0x3fcc4a41	1.596016
234	0x4075b55e	3.8391948
235	0x3fbda63a	1.4816353
236	0x3f0d1e7c	0.5512464
237	0xc031d8ac	-2.7788496
238	0xbf904909	-1.1272289
239	0xbf93a0fc	-1.1533504
240	0x3e71f001	0.2362671
241	0x3e8d3a32	0.27583462
242	0xbd26f5bc	-0.040761694
243	0x3ce3a8f1	0.027790518
244	0x3da2c8f7	0.07948487
245	0xbe19e99f	-0.15030526
246	0x3ea33d83	0.31882867
247	0x3dbe7638	0.09299892
248	0xbfa923bc	-1.321403
249	0x3dea053a	0.11426778
250	0xc00f5ef0	-2.2401695
251	0x3e44f441	0.192338
252	0x40f0e2ba	7.5276766
253	0x4016076b	2.3442028
254	0x40b6540e	5.6977606
255	0x3fbaf409	1.4605724

encoder.linear1.bias f4 [64]
0	0x4034b1cd	2.823352
1	0x3cbc4a4f	0.022984652
2	0x3e922c0c	0.2854923
3	0xbec72e8d	-0.38902703
4	0x3ec939a4	0.3930179
5	0xbe43f29e	-0.1913552
6	0x3e1904f3	0.14943294
7	0x401a9d30	2.415844
8	0x3f60bd0e	0.87788475
9	0x3f580231	0.84378344
10	0x3ff80fb7	1.9379796
11	0x3e2ba9b1	0.16763951
12	0x3f11cf06	0.5695652
13	0xbf1b7c89	-0.607369
14	0xbeed3e12	-0.46336418
15	0x3f4b9a46	0.7953228
16	0x3f1cae43	0.612034
17	0x3e355460	0.17707968
18	0xbe07e5a1	-0.1327119
19	0x3a1f46a8	0.0006075897
20	0xbe9f9fd3	-0.31176624
21	0x3e121d2d	0.14268942
22	0x3ee1070a	0.43950683
23	0x3f89f6be	1.0778425
24	0xbe7d1674	-0.24715596
25	0x3fc8d2fc	1.5689387
26	0x3e10fd7c	0.14159197
27	0x406eec34	3.7331667
28	0x3f07f7a9	0.53112274
29	0x3f838ee2	1.0277979
30	0xbde9c1a9	-0.11413891
31	0x3ed802db	0.4218968
32	0x4053535c	3.3019629
33	0x3d14cedb	0.036330085
34	0xbee553be	-0.44790453
35	0xbe89992b	-0.2687467
36	0x3f629899	0.88514096
37	0x3f61fe0c	0.8827827
38	0xbefdd36e	-0.4957537
39	0xbe93dbad	-0.28878537
40	0xbf160ba6	-0.58611524
41	0x3f785d0d	0.97016984
42	0x3f0a491b	0.540178
43	0x3f0cddaa	0.5502573
44	0x3f0adc30	0.5424223
45	0xbd0bd2b3	-0.034136485
46	0x3b19ba6b	0.002345706
47	0xbf155b77	-0.5834269
48	0x3f40576e	0.7513341
49	0x3ede0f9b	0.4337128
50	0x3f0a03fc	0.5391233
51	0xbedaa205	-0.42701736
52	0x3f1828d6	0.5943731
53	0x3e79b562	0.24385598
54	0x3f4579bf	0.77138895
55	0x3e3b41d5	0.18286832
56	0xbe561e61	-0.20910026
57	0x3e04a4bc	0.12953466
58	0x3e9322e9	0.28737572
59	0xbf3fe43b	-0.7495763
60	0x3f32608a	0.69678557
61	0xbea63998	-0.32465816
62	0xbc1c9962	-0.009558054
63	0xbdc5346d	-0.0962914

encoder.linear2.weight f4 [10, 64]
0	0xbee6e260	-0.45094585
1	0x39e4fcb8	0.0004367584
2	0xbf06c58c	-0.5264518
3	0x3ea202f0	0.31642866
4	0xbf4df412	-0.80450547
5	0x3d92bf91	0.07165445
6	0xbea9839a	-0.33108217
7	0xbf97bbd6	-1.1854198
8	0x401335fe	2.3001704
9	0xbf0e8e95	-0.5568631
10	0x3ea4b4ff	0.3216934
11	0xbe2317a2	-0.15926984
12	0x3eb9beff	0.3627853
13	0xbeb19bb9	-0.3468912
14	0x3dbcafe9	0.0921324
15	0xbf3a257c	-0.72713447
16	0xbf46bdc0	-0.77633286
17	0xbeea4a2b	-0.4575971
18	0xbf0472f7	-0.5173792
19	0xbf1eb124	-0.61989045
20	0xbf6e3468	-0.93048716
21	0xbf4ac8eb	-0.79212826
22	0xbebbdcbe	-0.3669185
23	0x400d7241	2.2100985
24	0x3eba74ee	0.36417335
25	0x40ad9bf7	5.4252887
26	0xbfa463dc	-1.2842975
27	0x3e32c836	0.17459187
28	0x3ef49622	0.47770792
29	0xbf2abf72	-0.6669837
30	0xbeba39cc	-0.3637222
31	0xbf21893f	-0.63100046
32	0xbe68fa3e	-0.2275171
33	0x3ec95e50	0.39329767
34	0x3ef23f15	0.47313753
35	0xbdbe9420	-0.09305596
36	0xbf809f48	-1.0048609
37	0xbf206655	-0.62656146
38	0xbe74e7eb	-0.23916595
39	0x3e92dbdc	0.28683364
40	0xbd26905b	-0.04066501
41	0xbf272410	-0.652894
42	0xbf33ba72	-0.7020637
43	0xbf45c6e0	-0.77256584
44	0xbf0329be	-0.5123557
45	0xbe1977df	-0.14987133
46	0x3dcbc2cd	0.09949265
47	0xba22074f	-0.00061808986
48	0xbf089de0	-0.533659
49	0xbd951d48	-0.072809756
50	0xbf509ce5	-0.814894
51	0xbeb23247	-0.34803984
52	0xbf203a16	-0.6258863
53	0xbf17f0ea	-0.5935198
54	0xbf1c9fc0	-0.6118126
55	0xbf0f4855	-0.55969745
56	0xbf800c1f	-1.0003699
57	0xbee94f45	-0.4556829
58	0xbec1e1db	-0.37867627
59	0x3dcdca67	0.10048371
60	0xbf2b0ce8	-0.6681657
61	0xbf4c836d	-0.7988804
62	0xbda853c2	-0.082191005
63	0x3d5adc1f	0.05343258
64	0x4092c5ae	4.586631
65	0x3f97e9cc	1.1868224
66	0x3df722af	0.12067162
67	0xbe6d831b	-0.23194544
68	0x3f310430	0.69147015
69	0x3e241e02	0.16027072
70	0x3f72c430	0.9483061
71	0x4086a70b	4.207891
72	0xbf3edf90	-0.7455988
73	0x3f5c1baf	0.8597974
74	0x40adeb6f	5.4349895
75	0x3efd24a1	0.49442008
76	0x40272e02	2.612183
77	0x3f3e2170	0.7426977
78	0xbdb6864e	-0.08912335
79	0x3f065ed4	0.52488446
80	0x3ef9d49f	0.4879503
81	0x3f5f9438	0.8733554
82	0x3e5152f7	0.20441805
83	0x3f21e30f	0.6323709
84	0x3d737544	0.059438005
85	0x3f100b14	0.56266904
86	0x3f31b021	0.69409376
87	0xbffd9652	-1.9811499
88	0xbefc5249	-0.4928153
89	0x40734177	3.8008707
90	0x3d099d90	0.03359753
91	0x40a36ad0	5.1067886
92	0x4037ab74	2.8698397
93	0x3f020a41	0.50796896
94	0x3f28bc2d	0.65912133
95	0x3f146886	0.5797199
96	0x409148b2	4.540124
97	0x3f107b05	0.5643771
98	0x3e247917	0.16061817
99	0x3d8e6fef	0.069549434
100	0x3f12de8b	0.57370824
101	0x3f17e887	0.59339184
102	0x3e19257c	0.14955705
103	0xbce2d4f9	-0.027689444
104	0xbe0c1b2e	-0.13682243
105	0x3efb1d71	0.490459
106	0x3f192a74	0.59830403
107	0x3ec37682	0.38176352
108	0x3f2f3152	0.6843463
109	0x3e9b9d2d	0.30393353
110	0x3d0e22cf	0.034701165
111	0xbd1aae67	-0.03776398
112	0x3f3481d8	0.70510626
113	0x3f367e99	0.7128692
114	0x3ef0e2ae	0.47047943
115	0xbef49537	-0.47770092
116	0x3f706b71	0.9391394
117	0x3f308897	0.6895842
118	0x3f0344f0	0.51277065
119	0x3f2f070b	0.6837012
120	0x3f11b198	0.5691161
121	0x3ef27cf3	0.47360954
122	0x3fc37b87	1.5272073
123	0x3ebbadaf	0.36655948
124	0x3f139c6d	0.5766056
125	0x3e8160e0	0.25269222
126	0x3e590897	0.21194683
127	0x3dd15645	0.10221533
128	0xc05e4a01	-3.4732668
129	0x3e463b51	0.19358565
130	0xbda77fdd	-0.08178685
131	0x3d543ba9	0.05181471
132	0xbeeab426	-0.45840567
133	0xbdc81dd0	-0.09771311
134	0xbf4834a1	-0.78205305
135	0xbea45cc5	-0.32102028
136	0xbf5c0ff8	-0.85961866
137	0xbf1c3100	-0.6101227
138	0x3ee539db	0.44770703
139	0xbf289028	-0.65844965
140	0x3ee3477d	0.4439048
141	0xbeadc42e	-0.33938736
142	0xbefdd2d7	-0.4957492
143	0xbf4bfd9d	-0.7968386
144	0xbf25ed31	-0.6481505
145	0xbf744fbe	-0.95434177
146	0xbec0185e	-0.3751859
147	0xbe2aa791	-0.16665484
148	0xbf613993	-0.87978476
149	0xbe04c84e	-0.12967035
150	0xbf1b5b68	-0.6068635
151	0xbf8f2b2b	-1.1185049
152	0xbea76143	-0.32691392
153	0xbea6309a	-0.32458955
154	0xbf2b60cd	-0.6694458
155	0xc003b514	-2.0579271
156	0x3f836549	1.0265285
157	0xbf41c035	-0.7568391
158	0xbf5dc4c6	-0.8662838
159	0xbf235bb3	-0.63811797
160	0xc04a9413	-3.1652877
161	0x3e088f12	0.13335827
162	0x3e62d4cf	0.22151493
163	0xbd4b74f9	-0.0496721
164	0xbf402596	-0.7505735
165	0xbf2d64cc	-0.6773193
166	0xbf5e7f4f	-0.8691301
167	0xbe9b682a	-0.30352908
168	0x3d94e900	0.07271004
169	0xbf4ce570	-0.80037594
170	0x3c8bf90e	0.017086532
171	0xbe70a0b0	-0.23498797
172	0xbf44733c	-0.76738334
173	0xbe94c710	-0.29058123
174	0x3e6bddc1	0.23033811
175	0x3db53f6a	0.08849986
176	0xbf8271a5	-1.0190932
177	0xbe11fa38	-0.14255607
178	0xbe62cc04	-0.22148138
179	0xbe9263fe	-0.28591913
180	0xbf3bc9ea	-0.7335497
181	0xbf1aaf30	-0.60423565
182	0xbf28ed9c	-0.65987563
183	0xbf8b5665	-1.088574
184	0xbf12d63c	-0.57358146
185	0xbe9d13a6	-0.30679053
186	0x3ea53acc	0.3227142
187	0xbe8698e6	-0.26288527
188	0xbedb2e8d	-0.42808953
189	0xbf55e558	-0.83553076
190	0x3e55d767	0.2088295
191	0x3d94901a	0.07254048
192	0x40bdd9bf	5.9328303
193	0x4089496e	4.2902136
194	0x3fe0769a	1.7536194
195	0xbeea6d0f	-0.4578633
196	0x3fa06786	1.2531593
197	0x3d1253e2	0.035724528
198	0x3fcd9bd8	1.6063185
199	0x40ab7654	5.3581944
200	0xbd291225	-0.04127707
201	0x3fe8690f	1.8157061
202	0x4104e344	8.305485
203	0x3f3805d2	0.7188388
204	0x40627b2b	3.5387676
205	0x3fb8917e	1.4419401
206	0xbe94009e	-0.2890672
207	0x3f9fba57	1.2478741
208	0x3f91730b	1.1363233
209	0x3fcfe30d	1.6241165
210	0x3f6ab722	0.9168569
211	0x3fc602d8	1.5469618
212	0x3fb67847	1.4255456
213	0x3fdf1916	1.7429531
214	0x3ff1b356	1.8882854
215	0xbfd0a4a2	-1.6300242
216	0xbf188db5	-0.5959123
217	0x4083a2c1	4.1136174
218	0x3f801e10	1.0009174
219	0x40e82e04	7.255617
220	0x4054557b	3.3177173
221	0x3fa03d54	1.2518716
222	0x3f975610	1.1823139
223	0x3fac14ce	1.3443849
224	0x40c72858	6.223675
225	0x3fb670a8	1.425313
226	0xbf0b3a8f	-0.5438623
227	0xbca4d648	-0.020121709
228	0x3fe7bb7b	1.810409
229	0x3f9538ca	1.1657956
230	0xbeeb1b24	-0.45919144
231	0xbe4de16b	-0.20105521
232	0x3deb3015	0.1148378
233	0x3fac8f22	1.3481181
234	0x3ffa35a8	1.9547625
235	0x3fbe048a	1.4845135
236	0x3fb97abc	1.449058
237	0x3f6a8908	0.91615343
238	0xbd7ee40f	-0.062229212
239	0x3e6c10e2	0.23053315
240	0x3fb792d1	1.434168
241	0x4017d36f	2.37228
242	0x3fb42905	1.4075018
243	0xbd73075d	-0.059333194
244	0x40049732	2.0717282
245	0x3fcb1bfd	1.5867916
246	0x3fb82137	1.4385136
247	0x3ff71233	1.9302429
248	0x3fbc2d9d	1.470142
249	0x3fc0cfdf	1.5063437
250	0x40282246	2.627092
251	0x3ea2c7b8	0.31792998
252	0x3fd31725	1.6491438
253	0x3f664dcb	0.8996245
254	0x404aeb2a	3.1706033
255	0xbdb5d50f	-0.08878528

encoder.linear2.bias f4 [10]
0	0xbf75eca2	-0.960642
1	0x3ed8f286	0.4237253
2	0xbf281d83	-0.6567003
3	0x3f857cb1	1.0428678
4	0xbf917d38	-1.1366339
5	0xbf6b3ab2	-0.91886437
6	0x3efb1522	0.4903956
7	0xbde12bcc	-0.10994682
8	0x3f8598c4	1.0437245
9	0x3e936e1a	0.28794938

encoder.norm1.weight f4 [10]
0	0x3e147af7	0.14500032
1	0xbaba81db	-0.0014229374
2	0x3f412ece	0.75462043
3	0xbf03e451	-0.5152026
4	0x400ef68c	2.233798
5	0x3f0fcb8d	0.5616997
6	0x3e8abe7e	0.2709846
7	0x3ef16dcc	0.4715408
8	0x4017fdee	2.3748736
9	0x3e3df4ae	0.18550369

encoder.norm1.bias f4 [10]
0	0xbebaaf31	-0.36461785
1	0x3e014ca7	0.12626897
2	0x3e467302	0.1937981
3	0x3ebab990	0.36469698
4	0xbf9dde38	-1.2333441
5	0x3ee5cb1e	0.4488153
6	0xbe49e99c	-0.19718021
7	0xbec5a9e7	-0.38606188
8	0x3fb420dc	1.4072528
9	0x3e8e7bd7	0.27828857

encoder.norm2.weight f4 [10]
0	0x3f9e4ed8	1.2367811
1	0xbeb493c1	-0.35268977
2	0x3eae497b	0.34040436
3	0xbf465d0b	-0.7748572
4	0x3fb10f8d	1.3832871
5	0xbc80a394	-0.015703
6	0x3e79da3f	0.2439966
7	0xbea56f28	-0.32311368
8	0x3fc7e735	1.5617434
9	0x3ece30c3	0.40271577

encoder.norm2.bias f4 [10]
0	0xbf9dc29b	-1.2325014
1	0xbe524173	-0.2053278
2	0xbe736b13	-0.23771314
3	0xbfc5949c	-1.5435977
4	0xbf74babc	-0.95597434
5	0x3d0508a4	0.032478943
6	0xbe593711	-0.21212412
7	0xbe8c1190	-0.2735715
8	0x3f63b95d	0.88954717
9	0x3d4501f3	0.048097562

l2.weight f4 [64, 3200]
0	0x3f881223	1.0630535
1	0x3f01eae1	0.5074902
2	0x3e1e0da9	0.15434898
3	0x3fb14211	1.3848287
4	0x3f9b108b	1.2114424
5	0x3e5b042e	0.21388313
6	0x3f43ef79	0.7653728
7	0x3f162825	0.58655006
8	0xbf679b99	-0.904718
9	0x3f9289ad	1.1448265
10	0x3f853272	1.040602
11	0x3e9a0038	0.30078292
12	0x3df29aaf	0.1184591
13	0x3fb6600a	1.4248059
14	0x3f99de87	1.2021035
15	0x3e8aae9a	0.27086335
16	0x3f421057	0.7580618
17	0x3f1e5227	0.61844105
18	0xbf5280a2	-0.8222753
19	0x3fa2c106	1.2715156
20	0x3f834fbb	1.0258707
21	0x3f09f130	0.5388365
22	0xbac22b93	-0.0014814012
23	0x3fb9833e	1.4493177
24	0x3f9833ac	1.1890769
25	0x3e89e253	0.26930484
26	0x3f523177	0.8210673
27	0x3f20156a	0.62532675
28	0xbf5dd788	-0.86657
29	0x3f8c472d	1.0959221
30	0x3f8fb439	1.1226875
31	0x3f1c8e83	0.61154956
32	0xbd9a84ee	-0.075448856
33	0x3fbb9044	1.4653401
34	0x3fa3db8e	1.2801378
35	0x3e5a3338	0.21308601
36	0x3f3968d0	0.72425556
37	0x3f259bee	0.64691055
38	0xbf595cf7	-0.8490748
39	0x3f8f357b	1.1188196
40	0x3f8632ca	1.048425
41	0x3ee6feb1	0.4511619
42	0xbd728ab8	-0.059214324
43	0x3faf9c98	1.3719664
44	0x3f9bd1e8	1.2173433
45	0x3e71c167	0.23608933
46	0x3f3b0215	0.7305005
47	0x3f3515a3	0.7073614
48	0xbf4f7130	-0.81032085
49	0x3f97c15e	1.1855886
50	0x3f827032	1.0190489
51	0x3f0411f2	0.5158988
52	0xbd13d032	-0.036087222
53	0x3fb578cd	1.417749
54	0x3f9dc161	1.232464
55	0x3e8f7053	0.28015384
56	0x3f45bdfa	0.77243006
57	0x3f2dec24	0.67938447
58	0xbf49ecb9	-0.78876835
59	0x3f93cfd2	1.1547797
60	0x3f80cb51	1.0062047
61	0x3f0aad59	0.5417076
62	0x3db8a9f3	0.0901679
63	0x3fb43a0f	1.4080218
64	0x3f9d07e6	1.2268035
65	0x3e61af49	0.22039522
66	0x3f44c7cd	0.7686737
67	0x3f1bc7c6	0.60851705
68	0xbf6290d8	-0.88502264
69	0x3f902329	1.126073
70	0x3f81dfc8	1.0146418
71	0x3ea19a42	0.31563002
72	0x3e543238	0.20722282
73	0x3fc2096f	1.5159129
74	0x3f9b6042	1.213875
75	0x3d3bf29c	0.045885667
76	0x3f3469cb	0.7047393
77	0x3f2003c2	0.62505734
78	0xbf6be4d5	-0.92146045
79	0x3f9d6f34	1.2299562
80	0x3f7dbbed	0.99114877
81	0x3f0f8789	0.56066185
82	0x3e2e7458	0.17036569
83	0x3fc11c18	1.5086699
84	0x3f98ad49	1.1927882
85	0x3df6863a	0.120373204
86	0x3f34723b	0.704868
87	0x3f2ec3a0	0.6826725
88	0xbf562710	-0.83653355
89	0x3f9e7e1f	1.2382239
90	0x3f8a1a9c	1.078937
91	0x3eb22f11	0.34801534
92	0x3d90b9fb	0.07066723
93	0x3fc1194f	1.5085849
94	0x3f9973a2	1.1988413
95	0x3e43f1bf	0.19135188
96	0x3f18cac7	0.59684414
97	0x3f16926b	0.58817166
98	0xbf5758fe	-0.84120166
99	0x3f9b0c01	1.2113038
100	0x3f893d00	1.0721741
101	0x3f04546b	0.5169131
102	0x3df17081	0.117890365
103	0x3fba3018	1.4545927
104	0x3f9ad690	1.2096729
105	0x3ddb10b7	0.106965475
106	0x3f2c4518	0.6729293
107	0x3f2e137e	0.6799849
108	0xbf52daec	-0.823653
109	0x3f910c0f	1.1331805
110	0x3f8431bb	1.0327677
111	0x3f096feb	0.536864
112	0x3e20fdc2	0.15721801
113	0x3fbde115	1.4834315
114	0x3f94a81c	1.1613803
115	0x3e92eb5d	0.28695193
116	0x3f192ab5	0.5983079
117	0x3f12fd9b	0.5741822
118	0xbf5ccee9	-0.8625322
119	0x3f903301	1.1265565
120	0x3f88092d	1.06278
121	0xbd80303a	-0.062591985
122	0x3e697e60	0.22802114
123	0x3fc41dad	1.5321556
124	0x3f9e17b4	1.2350984
125	0x3d2f2568	0.042760283
126	0x3f1bf303	0.6091768
127	0x3f21dc6c	0.6322696
128	0xbf656e9c	-0.896219
129	0x3f9ffdf3	1.2499374
130	0x3f86b91d	1.0525242
131	0x3ee64ad5	0.44978967
132	0x3d47439b	0.048648458
133	0x3fb2dfe9	1.3974582
134	0x3f98f714	1.1950402
135	0x3e88d9d2	0.26728684
136	0x3f3e40cb	0.74317616
137	0x3f16abb9	0.5885578
138	0xbf60c471	-0.87799746
139	0x3fa711f3	1.3052353
140	0x3f836745	1.026589
141	0x3dfddab8	0.12395233
142	0x3d18f1a4	0.03733982
143	0x3fbbce12	1.4672263
144	0x3f9d2645	1.2277304
145	0x3e5b327c	0.21405977
146	0x3f31f317	0.6951155
147	0x3f24235a	0.6411644
148	0xbf5df9a2	-0.86709034
149	0x3f95ce54	1.1703591
150	0x3f8b999a	1.090625
151	0xbf07f08c	-0.5310142
152	0x3d3b4d17	0.045727815
153	0x3fba4449	1.4552089
154	0x3f9262c0	1.1436386
155	0x3e9c843a	0.3056963
156	0x3f34123a	0.7034031
157	0x3f0d9254	0.55301404
158	0xbf5d6ce2	-0.86494267
159	0x3f90adf1	1.1303083
160	0x3f88ab0d	1.06772
161	0xbd6810d4	-0.056656674
162	0x3e2e6cbd	0.17033668
163	0x3fbe3a96	1.4861629
164	0x3f9b8393	1.2149528
165	0x3e5af936	0.21384129
166	0x3f2e6e71	0.6813727
167	0x3f26f024	0.65210176
168	0xbf64ba30	-0.893466
169	0x3f96bf8a	1.1777203
170	0x3f8f55a5	1.1198012
171	0x3f26ddc4	0.6518214
172	0x3e1c9fb2	0.15295294
173	0x3fbace8a	1.4594281
174	0x3f9e9342	1.238869
175	0x3e81f26c	0.25380266
176	0x3f44e66b	0.7691409
177	0x3f01f7dd	0.50768834
178	0xbf5762b8	-0.8413501
179	0x3f9a1f06	1.2040718
180	0x3f931423	1.149052
181	0x3eb73560	0.3578291
182	0x3db5a667	0.08869629
183	0x3fb996a5	1.4499098
184	0x3f98083d	1.1877514
185	0x3e9331e8	0.28749013
186	0x3f3c6de8	0.73605204
187	0x3f1a7cb0	0.6034651
188	0xbf5f8b78	-0.8732219
189	0x3f965b31	1.174658
190	0x3f8d0a82	1.1018832
191	0x3ee02681	0.43779376
192	0x3cf84de2	0.030310575
193	0x3fb8c466	1.4434936
194	0x3f96c131	1.1777707
195	0x3e945b36	0.28975838
196	0x3f4c09d4	0.79702497
197	0x3f1b6ce5	0.60713035
198	0xbf53f3de	-0.82793987
199	0x3f973ab1	1.1814786
200	0x3f90d018	1.1313505
201	0x3ea0df98	0.31420588
202	0x3ce2d1b9	0.027687894
203	0x3fbd3f69	1.4784976
204	0x3fa5484c	1.2912688
205	0x3e6319d5	0.22177823
206	0x3f3cf5d5	0.7381261
207	0x3f1e740a	0.6189581
208	0xbf549e56	-0.830541
209	0x3f98b8db	1.1931413
210	0x3f8e9a16	1.1140773
211	0x3efb7481	0.49112323
212	0x3e192d76	0.14958748
213	0x3fbbee9a	1.468219
214	0x3f9c55ce	1.2213686
215	0x3e4ba623	0.19887595
216	0x3f2d75ab	0.6775767
217	0x3f3084d0	0.68952656
218	0xbf5084d8	-0.81452703
219	0x3f93a75f	1.1535453
220	0x3f8a96b3	1.082724
221	0x3f22fe88	0.63669634
222	0x3da02c18	0.0782091
223	0x3fc068d1	1.5031987
224	0x3f96c477	1.1778706
225	0x3e739544	0.23787409
226	0x3f360e65	0.71115714
227	0x3f0cb0e9	0.54957443
228	0xbf5c0b5d	-0.8595484
229	0x3f962f56	1.1733196
230	0x3f8bfe3a	1.0936959
231	0xbe748e75	-0.23882468
232	0x3d447407	0.047962215
233	0x3faf51e7	1.369687
234	0x3f9c46bc	1.2209086
235	0x3e7fbff4	0.24975568
236	0x3f331ac1	0.699627
237	0x3f2b04f4	0.6680443
238	0xbf583dd5	-0.8446935
239	0x3f9a04ec	1.2032752
240	0x3f883648	1.0641565
241	0x3eaf0d74	0.3418995
242	0x3c9f7ac6	0.019467723
243	0x3fb87658	1.4411116
244	0x3f94fd4f	1.1639804
245	0x3e9456e5	0.28972545
246	0x3f46cfd9	0.776609
247	0x3f1e8246	0.6191753
248	0xbf63b562	-0.88948643
249	0x3f890e0c	1.0707412
250	0x3f8a2b0d	1.0794388
251	0xbd911cfe	-0.07085608
252	0x3d072953	0.032998394
253	0x3fbad8df	1.4597434
254	0x3f98db3f	1.1941909
255	0x3e85602a	0.2604993

l2.bias f4 [64]
0	0xbfe0e4e3	-1.7569851
1	0xbe1fe876	-0.1561602
2	0xbf838ac1	-1.0276719
3	0xbeaeaed5	-0.3411776
4	0xbf09bc8a	-0.5380331
5	0xbfc6f6bc	-1.5544047
6	0xbfb240c5	-1.3926016
7	0xbebcd0cd	-0.36878052
8	0xbf5790f5	-0.8420556
9	0xbfc0cba9	-1.5062152
10	0xbfc3dac9	-1.5301143
11	0xbf9f3584	-1.2438207
12	0xbf90594c	-1.1277251
13	0xbec010f8	-0.37512946
14	0xbfa5d534	-1.295569
15	0xbd049db5	-0.032376964
16	0xbfa6d502	-1.3033755
17	0xbfbff942	-1.4997942
18	0xbfdbb523	-1.7164654
19	0xbfa6f5a8	-1.3043718
20	0xbf852824	-1.0402875
21	0xbfa9a0e4	-1.3252225
22	0xbf360864	-0.71106553
23	0xbf9d8e1c	-1.2308993
24	0xbf50de15	-0.8158887
25	0xbfd6afc1	-1.6772386
26	0xbfbc3fd6	-1.4706981
27	0xbdb6bf96	-0.08923261
28	0xbe99a4a8	-0.30008435
29	0xbfca6501	-1.5812074
30	0xbfb7ccd7	-1.4359387
31	0xbfb6d7fe	-1.4284666
32	0xbff7ea15	-1.9368311
33	0xbfb38f01	-1.4028016
34	0xbf1ecce3	-0.6203138
35	0xc007bde5	-2.1209652
36	0xbfc23d3d	-1.5174938
37	0xbfea7e78	-1.8319845
38	0xbfd41671	-1.6569349
39	0xbfbcde31	-1.4755307
40	0xbfb9b1d2	-1.4507391
41	0xbf7d51b3	-0.9895279
42	0xbfbfb261	-1.4976312
43	0xbfb3927d	-1.402908
44	0xbfc5559f	-1.5416754
45	0xbfb3dee6	-1.4052398
46	0xbfcc4620	-1.59589
47	0xbdfe51bb	-0.124179326
48	0xbe8e5c86	-0.27804965
49	0xbf228b27	-0.6349358
50	0xbffa3687	-1.954789
51	0xbfcaf835	-1.5856997
52	0xbfcb97fd	-1.5905758
53	0xbf157801	-0.58386236
54	0xbfc288d3	-1.5198005
55	0xbf4dead3	-0.8043644
56	0xbf552e6e	-0.8327397
57	0xbf95b2c8	-1.1695185
58	0xbf119228	-0.5686364
59	0xbf8b254e	-1.087076
60	0xbfbeee44	-1.4916463
61	0xbfaa35ac	-1.3297629
62	0xbf03ebec	-0.51531863
63	0xbfec776c	-1.8473945

l3.weight f4 [64, 66]
0	0x3f4ab45b	0.7918145
1	0xbd9470a7	-0.07248049
2	0x3f0215b7	0.50814384
3	0x3e51d738	0.20492256
4	0x3ec03b9a	0.37545472
5	0x3f3195a8	0.6936898
6	0x3f28cc2d	0.6593655
7	0xbd5c8204	-0.05383493
8	0x3ef21e08	0.47288537
9	0x3eecfef9	0.4628828
10	0x3e6f82a3	0.23389678
11	0x3f0796b5	0.52964336
12	0x3eb6c4b1	0.3569694
13	0x3e0fdef5	0.14049895
14	0x3ebe47ac	0.37164056
15	0x3eda6c8a	0.42660934
16	0x3ee18ce7	0.44052812
17	0x3ef881dc	0.48536575
18	0x3eefda24	0.46846116
19	0x3f39ff35	0.7265504
20	0x3e2e26ed	0.17007037
21	0x3ebe905a	0.37219507
22	0x3e48afa7	0.19598256
23	0x3ecc34df	0.39884087
24	0x3e43f76c	0.19137353
25	0x3f0534eb	0.5203387
26	0x3f2d2e76	0.6764902
27	0x3da8d67b	0.08244034
28	0x3ebd73c6	0.3700239
29	0x3eeb63e8	0.4597466
30	0x3edb7fd3	0.4287096
31	0x3e9af3e2	0.30264193
32	0x3f4d3b78	0.8016887
33	0x3f153fe8	0.5830064
34	0x3eddd991	0.43330052
35	0x3f53dae3	0.8275587
36	0x3f18de92	0.59714615
37	0x3f55a1c6	0.8344997
38	0x3f09ebb8	0.53875303
39	0x3edc2892	0.42999703
40	0x3ee9c874	0.45660746
41	0x3eb0a48f	0.34500548
42	0x3f510290	0.81644535
43	0x3ed2fd25	0.4120876
44	0x3ec4ad75	0.38413587
45	0x3f09ccb3	0.5382797
46	0x3ebf4595	0.37357774
47	0xbcf50590	-0.029909879
48	0x3e54c470	0.2077806
49	0x3f0feed0	0.56223774
50	0x3f18ddf5	0.5971368
51	0x3ee93451	0.45547727
52	0x3f008c4e	0.5021409
53	0x3f22dd1b	0.6361863
54	0x3efa6e0c	0.48912084
55	0x3f322d3a	0.6960026
56	0x3efc81a6	0.49317664
57	0x3ec57fae	0.38573974
58	0x3eabec64	0.3357879
59	0x3eaa90fe	0.33313745
60	0x3f025743	0.509144
61	0x3f1fe948	0.62465334
62	0xbd3b037b	-0.045657616
63	0x3f12d075	0.5734933
64	0xbf37e4f0	-0.71833706
65	0xbe2820a6	-0.16418704
66	0x3ee5f8a9	0.44916275
67	0x3efcd051	0.49377683
68	0x3f0c945e	0.5491389
69	0xbe4d3b2a	-0.200421
70	0xbb63db00	-0.0034767985
71	0x3f2f81e3	0.68557566
72	0x3e961066	0.29309386
73	0x3e362b2a	0.17789903
74	0x3d879d3a	0.066217855
75	0x3f14904a	0.5803267
76	0x3e9bd31b	0.30434498
77	0x3eb64e56	0.3560664
78	0x3ef82369	0.48464516
79	0xbe0bcd32	-0.13652495
80	0x3e3009df	0.17191266
81	0x3efc75c9	0.49308613
82	0x3f0c5efd	0.5483244
83	0x3f0f1273	0.55887526
84	0x3eb91c6d	0.361545
85	0x3eb6ad7f	0.35679242
86	0x3f14a50f	0.5806436
87	0x3eb20a84	0.34773648
88	0xbea1dee7	-0.31615373
89	0xbb951eae	-0.0045507764
90	0x3e6b26e1	0.2296405
91	0x3f11a1ec	0.568877
92	0x3e465bba	0.19370928
93	0x3de75920	0.11296296
94	0x3eda8b66	0.42684478
95	0x3f1ab446	0.60431325
96	0x3ef5d023	0.48010358
97	0x3e3de8de	0.18545863
98	0x3f419e5c	0.7563226
99	0x3ed04222	0.40675455
100	0xbe07ed34	-0.1327408
101	0x3f1c4741	0.61046225
102	0x3e93e852	0.28888184
103	0x3f133db1	0.5751601
104	0x3ef4a569	0.47782448
105	0x3e78af32	0.24285582
106	0x3edef617	0.43547127
107	0x3dfdd258	0.123936355
108	0x3f396777	0.724235
109	0x3e86d6c3	0.26335725
110	0x3ef1894b	0.4717506
111	0x3ec5e2ba	0.3864954
112	0x3e7dae6a	0.24773565
113	0x3e1bba50	0.15207791
114	0x3d82c923	0.0638602
115	0x3d98978d	0.07450781
116	0x3f131ceb	0.57466
117	0x3ece6da3	0.4031802
118	0x3f0dc797	0.55382675
119	0x3e971983	0.2951165
120	0x3eab11b6	0.3341195
121	0x3f27db89	0.6556936
122	0x3dad0952	0.08449043
123	0x3f0c186d	0.5472477
124	0xbf068ad5	-0.5255559
125	0x3d76c6f2	0.060248323
126	0x3f0a84ea	0.5410906
127	0x3f2efdde	0.6835612
128	0xbe70cf1d	-0.23516507
129	0x3ec8762e	0.39152664
130	0xbeeb7353	-0.45986423
131	0xbe8e59aa	-0.27802783
132	0x3e7ae8f9	0.24502935
133	0xbf5c74a5	-0.86115485
134	0xbddc143d	-0.10746048
135	0x3e8c0fe9	0.27355888
136	0x3f07d260	0.5305538
137	0x3ee55ee3	0.44798955
138	0x3ebf01d6	0.37306088
139	0xbe969860	-0.29413128
140	0x3b43481a	0.0029797615
141	0x3e74cde8	0.23906672
142	0x3eb8f056	0.36120862
143	0x3f0bd52f	0.5462217
144	0x3f10dbec	0.56585574
145	0x3f800a18	1.000308
146	0x3f0aba6b	0.541907
147	0x3e09af88	0.13445866
148	0x3eafa612	0.3430639
149	0x3e87bcc0	0.26511192
150	0x3ee9ce45	0.45665184
151	0x3e68bf00	0.2272911
152	0x3ee7bf69	0.45263222
153	0x3f19e994	0.60122037
154	0x3dd91155	0.10599009
155	0x3ee54dec	0.44786012
156	0x3f022ed0	0.5085268
157	0x3edc475f	0.43023202
158	0x3bbadba0	0.005702451
159	0xbe891b57	-0.2677867
160	0xbe9890a1	-0.29797843
161	0x3e86eacd	0.26351014
162	0x3ecc097d	0.3985099
163	0x3f0c981c	0.549196
164	0x3eb54a6e	0.35408348
165	0x3ec32c4a	0.38119727
166	0x3f0323a9	0.5122629
167	0x3eb58c32	0.35458523
168	0x3ebf6a31	0.37385705
169	0x3ef1e603	0.47245798
170	0x3e6a6f73	0.22894077
171	0x3ecd3ed5	0.40087
172	0x3ec30a18	0.38093638
173	0x3ec68624	0.38774216
174	0x3f14cc2f	0.5812406
175	0x3ed75f0f	0.4206471
176	0x3eb6e4c6	0.35721415
177	0x3e30e7aa	0.17275873
178	0x3ec4c6f5	0.38433042
179	0xbd1130f2	-0.03544707
180	0x3f169d9f	0.5883426
181	0xbd7f8599	-0.062383268
182	0x3eb95e0b	0.36204562
183	0x3eea02a2	0.45705134
184	0x3e842d00	0.25815582
185	0x3e94da63	0.29072866
186	0x3d6f6479	0.058445428
187	0x3f86166f	1.0475596
188	0x3de37d45	0.11107878
189	0xbcaf7c4c	-0.021421574
190	0xbf166155	-0.58742267
191	0x3e478c46	0.19487104
192	0x3edad92d	0.42743817
193	0x3f109817	0.5648207
194	0xbf3bfaa7	-0.7342934
195	0x3e9aa9be	0.30207628
196	0x3e4f4ff5	0.20245345
197	0xbe0621dc	-0.13098854
198	0x3f267397	0.65020126
199	0x3e3bcf3d	0.18340774
200	0x3f3c9ffe	0.7368163
201	0x3ed2c2d6	0.41164273
202	0x3f03d293	0.51493186
203	0x3f350066	0.7070373
204	0x3f20a0a8	0.6274514
205	0x3ecbaee5	0.3978187
206	0x3eb3d937	0.3512666
207	0x3f07fa58	0.5311637
208	0x3f423d88	0.7587514
209	0x3f143870	0.57898617
210	0x3f72e4be	0.9488028
211	0x3ee1b60e	0.4408421
212	0x3f1743c8	0.590878
213	0x3ea15a03	0.31513986
214	0x3f18f9a1	0.59755903
215	0x3f25a458	0.64703894
216	0x3ef47a4e	0.4774956
217	0x3ec78d30	0.38974905
218	0x3efe1107	0.49622366
219	0x3f0eaa96	0.55729043
220	0x3e501ecf	0.20324253
221	0x3edd057b	0.43168244
222	0x3f1eea85	0.620766
223	0x3f34de2c	0.7065151
224	0x3f3864aa	0.720286
225	0x3e10ef22	0.14153722
226	0x3f6d1b42	0.9261972
227	0x3f166075	0.5874093
228	0x3f027841	0.5096474
229	0x3f135de7	0.5756516
230	0x3f5c61f3	0.8608696
231	0x3f2cf23a	0.6755711
232	0x3ea988e5	0.33112255
233	0x3f20bd0c	0.6278846
234	0x3f305e18	0.68893576
235	0x3f26c4fd	0.6514433
236	0x3f16c149	0.5888868
237	0x3f11f017	0.57006973
238	0x3efe757f	0.49699017
239	0x3f157ef7	0.5839686
240	0x3f9e7cec	1.2381873
241	0x3f300ce1	0.6876965
242	0x3ebee5bd	0.3728465
243	0x3f031ab3	0.51212615
244	0x3ed71e05	0.4201509
245	0x3e768caf	0.24077104
246	0x3e50a27c	0.20374483
247	0x3f144615	0.57919437
248	0x3f43510e	0.76295555
249	0x3f22d637	0.63608116
250	0x3f2300d1	0.6367312
251	0x3f5c3c91	0.86029917
252	0x3eaae4f4	0.33377802
253	0x3f8be244	1.0928426
254	0x3e0e7b27	0.13914166
255	0x3f1dd47d	0.61652356

l3.bias f4 [64]
0	0xbeb42def	-0.35191295
1	0xbf24a0ae	-0.6430768
2	0xbf578f99	-0.8420349
3	0xbf77754d	-0.9666336
4	0x3bffc21d	0.0078051225
5	0xbdfebf8f	-0.12438881
6	0xbf66730b	-0.9001929
7	0xbf1ee7aa	-0.6207224
8	0xbeb7c062	-0.35888964
9	0xbe2794fe	-0.1636543
10	0xbf379753	-0.7171528
11	0xbf2f91b2	-0.6858169
12	0xbf32bcc3	-0.6981928
13	0xbeb4b00f	-0.35290572
14	0xbf27cd5f	-0.65547746
15	0xbf28767a	-0.6580578
16	0xbf0e11ee	-0.5549611
17	0xbf33a713	-0.7017681
18	0xbcff2cf9	-0.031149374
19	0xbee97721	-0.455987
20	0xb8d99f6b	-0.0001037706
21	0xbdf85524	-0.12125614
22	0xbdc9c632	-0.09852256
23	0xbf8e43dd	-1.111446
24	0xbe6afb14	-0.22947341
25	0xbb99d2b4	-0.004694307
26	0xbeef3cac	-0.46725976
27	0xbf011d1e	-0.50435054
28	0xbf38ca7f	-0.72183985
29	0xbf45ca19	-0.772615
30	0xbeed621b	-0.4636391
31	0xbf6e2936	-0.9303163
32	0xbedc0ebe	-0.42979997
33	0xbf28af74	-0.6589272
34	0xbea3c38f	-0.31985137
35	0xbe2df727	-0.16988812
36	0xbf66a03c	-0.9008825
37	0xbf1016ee	-0.5628499
38	0x3e544120	0.20727968
39	0xbf229e3c	-0.63522696
40	0xbe66030f	-0.22462104
41	0x3ea00901	0.3125687
42	0xbf0e3699	-0.5555206
43	0xbf590d99	-0.84786373
44	0xbf0f694d	-0.5602005
45	0xbf342e52	-0.7038318
46	0xbe31b231	-0.17353131
47	0xbdf466f8	-0.11933702
48	0x3f2ed0b6	0.6828722
49	0xbf3ad96c	-0.7298801
50	0xbf31fa6a	-0.69522727
51	0x3e39e0b8	0.1815213
52	0xbf500272	-0.8125373
53	0xbf82bef1	-1.0214521
54	0x3e32ece7	0.17473184
55	0xbf50b9d1	-0.81533533
56	0xbeb80d96	-0.35947865
57	0xbe601b04	-0.21885306
58	0xbee79dd4	-0.452376
59	0xbd643a60	-0.055719733
60	0x3e227500	0.15864944
61	0xbf509a41	-0.8148537
62	0xbe890775	-0.26763502
63	0xbf07fa12	-0.5311595

l4.weight f4 [2, 64]
0	0x3e0133e5	0.12617452
1	0xb955a8a5	-0.00020376088
2	0xbd99a23d	-0.075016476
3	0x3d836c84	0.06417182
4	0xbe114b08	-0.14188778
5	0xbe29ee4e	-0.16594812
6	0x3b48462d	0.0030559406
7	0xbda07b64	-0.07836035
8	0x3dbbd24a	0.09170969
9	0xbe0bdc5e	-0.13658282
10	0x3e9d001b	0.30664143
11	0x3e40cba9	0.1882769
12	0xbea52e29	-0.3226178
13	0x3da85ed4	0.08221212
14	0x3d3d0caf	0.046154674
15	0x3e100842	0.1406565
16	0x3de3186a	0.11088641
17	0xbde48fa6	-0.11160211
18	0xbd7838c7	-0.060601022
19	0x3e8171f5	0.25282255
20	0x3d85c7d1	0.065322526
21	0x3d94e122	0.07269503
22	0xbc2135ad	-0.009839457
23	0x3d4951da	0.049150325
24	0xbc2b5c1e	-0.010458974
25	0xbd9676c9	-0.07346875
26	0x3d194ac7	0.03742483
27	0xbd99075f	-0.07472109
28	0x3e74e6a8	0.23916113
29	0x3e208cf9	0.15678777
30	0xbd58b5bf	-0.0529077
31	0xbd0cd4ea	-0.03438274
32	0xbdc53081	-0.09628392
33	0xbda6e6ed	-0.08149514
34	0xbd8aa2b4	-0.067693144
35	0xbd0cb3db	-0.03435121
36	0x3e6eb628	0.23311675
37	0xbead18f7	-0.3380811
38	0xbe11c9e2	-0.14237168
39	0xbdefc3f0	-0.11707294
40	0xbc3bce7a	-0.011462802
41	0xbda129a9	-0.07869274
42	0xbdb2ef7d	-0.08737085
43	0x3e223559	0.15840663
44	0xbd933701	-0.071882255
45	0xbe5c4707	-0.2151147
46	0xbe272844	-0.16323954
47	0xb9edaa88	-0.00045331218
48	0xbd63bbe3	-0.055599105
49	0x3d0b3f62	0.033995993
50	0x3bf00ff4	0.0073261205
51	0xbdd5b6b6	-0.1043524
52	0xbcae616b	-0.021286687
53	0x3d30a784	0.043128505
54	0xbdfe74a4	-0.12424591
55	0x3de46395	0.11151806
56	0xbde0d76b	-0.10978588
57	0x3d64e478	0.055881947
58	0x3c5df24a	0.013546536
59	0xbe33595c	-0.17514557
60	0x3d4772fc	0.048693642
61	0x3e87d9a6	0.2653324
62	0x3d836d34	0.06417313
63	0xbd3bd23d	-0.045854796
64	0xbe3facee	-0.18718311
65	0xbc37ebf8	-0.011225693
66	0xbe5c6d8b	-0.21526162
67	0xbea97696	-0.33098286
68	0x3e170fab	0.1475207
69	0x3e1de479	0.15419187
70	0xbe3e769b	-0.18599932
71	0xbe461592	-0.19344166
72	0x3e89430f	0.26808974
73	0x3e036451	0.12831236
74	0x3eca872e	0.3955626
75	0xbe2430f2	-0.16034296
76	0x3e335ff7	0.17517076
77	0x3d6ef425	0.058338303
78	0xbde48aa0	-0.11159253
79	0xbe5ef5dd	-0.21773477
80	0xbda81a77	-0.08208173
81	0xbd81175a	-0.06303282
82	0x3b7a0885	0.003815205
83	0x3e3a6e2a	0.18206087
84	0x3de4d364	0.11173132
85	0x3ea56363	0.3230239
86	0x3e11488a	0.14187828
87	0xbecde1b4	-0.4021126
88	0x3d6ed515	0.05830868
89	0x3de11ade	0.10991453
90	0xbe224dc9	-0.15849985
91	0xbdd38c8a	-0.1032954
92	0xbe8e84f9	-0.27835825
93	0xbe536120	-0.20642519
94	0xbe5773ee	-0.21040317
95	0xbe7cdce8	-0.24693644
96	0xbda1eaec	-0.07906136
97	0xbe3ea9da	-0.1861948
98	0x3ea3d111	0.31995443
99	0x3e515932	0.20444182
100	0xbe9a1fdb	-0.3010243
101	0x3b84924a	0.0040457593
102	0x3e0e84f3	0.13917904
103	0x3e8c7559	0.2743328
104	0x3eaaf23a	0.3338793
105	0x3d9568d9	0.07295389
106	0xbcc9b35f	-0.024621664
107	0x3c896ba5	0.016774962
108	0xbe65e5df	-0.2245097
109	0xbce640bd	-0.028107041
110	0x3da75b97	0.08171766
111	0x3cd9227d	0.026505703
112	0x3d44960b	0.047994655
113	0xbe1eb433	-0.15498428
114	0xbdc1c718	-0.09461802
115	0xbbac3202	-0.005254985
116	0xbdaea4ec	-0.0852755
117	0x3d2e83b6	0.042606078
118	0x3e6d16ff	0.23153304
119	0x3de0b891	0.10972703
120	0x3ea861fb	0.32887253
121	0x3a81a7ea	0.0009891961
122	0xbbe60182	-0.0070192227
123	0x3e4d3d5e	0.20042941
124	0x3ebca349	0.36843327
125	0xbeafcb73	-0.34334907
126	0xbdc9f483	-0.0986109
127	0x3daf1d85	0.08550552

l4.bias f4 [2]
0	0x3cba662c	0.022753797
1	0x3ebfc6a4	0.37456238
