Ablation Experiments/Reward Function-激励函数转浮盈浮亏/Transformer-DoubleDQN-QT-Final/64target-network-TransformerNoguiadance.pth (torch, 851744 bytes, 18 tensors)

encoder.self_attn.in_proj_weight f4 [30, 10]
000000 f9 e9 3c 3e 63 fb 91 3e 9c 46 27 be bf fb 4f 3e
       0.18448628 0.28512105 -0.16335529 0.20310877
000010 4f a6 ff be 21 28 23 bd e2 c0 36 be 64 42 f0 bc
       -0.4993157 -0.03983319 -0.17847016 -0.029328533
000020 e6 59 aa be ec e8 25 bd 8d c6 80 be b1 5d 93 3d
       -0.33271712 -0.040505335 -0.25151482 0.071956046
000030 d0 ce 01 3f 19 fb 1a 3f 26 e7 c8 3f 82 08 c9 3e
       0.50706196 0.60539395 1.5695541 0.39264303
000040 dd 63 2b 3f fe 4d ce be 20 6f e8 3d a9 fd 0d bd
       0.66949254 -0.40293878 0.113493204 -0.034665737
000050 9e 35 b8 bf 24 69 de 3f 2f 1b 72 3f ac d7 25 bf
       -1.4391363 1.7375836 0.9457273 -0.64782214
000060 5a 1e cc bc 32 45 18 3f 36 73 e6 3f 97 59 f3 3e
       -0.024916817 0.59480584 1.800391 0.4752929
000070 58 1d e5 bf 2c 28 c0 bf 0a 9e e7 3e 0b 38 88 bf
       -1.789958 -1.501226 0.45237762 -1.0642103
000080 98 45 6a be c1 f8 28 bf af cc a6 be 91 9f 98 bd
       -0.2287811 -0.6600457 -0.32578036 -0.0745231
000090 a3 a1 0f be 1b ab 7e bf 0d 3d 04 3f 45 19 2d 3f
       -0.14026503 -0.99479836 0.51655656 0.67616683
0000a0 00 32 da be 17 40 0e 3e 82 7d 67 bd f3 3e 3e be
       -0.42616272 0.13891636 -0.056516178 -0.185787
0000b0 1a de 9c 3e 2b 9f 14 3a b1 99 11 3e 98 b6 ae 3d
       0.306382 0.000566947 0.14218785 0.08530921
0000c0 09 3e 71 3e c0 3d 9d 3e 49 f8 e2 3e b9 a7 bd be
       0.23558821 0.30711174 0.44330052 -0.37042025
0000d0 c8 03 60 bf 1c 05 5a 3f eb 97 77 be 25 73 4e bf
       -0.8750577 0.85164046 -0.24179046 -0.80644447
0000e0 b8 d0 bb be e0 dc 92 3f c1 0f 79 3f 55 16 4a 3f
       -0.36682677 1.1473656 0.97289664 0.78940326
0000f0 66 39 82 bd a4 e2 04 3f 26 a8 83 bf 1c 1d db be
       -0.06358604 0.51908326 -1.028569 -0.42795646
000100 9e 03 8d bf e5 9f d9 be 1d 31 13 bf 79 3d 52 3f
       -1.1016729 -0.42504802 -0.57496816 0.8212505
000110 ec 90 03 bd 4a 77 d6 be d4 08 ae be 64 5c dd 3d
       -0.03212063 -0.41887885 -0.3399111 0.10808638
000120 f2 9e 5c be 3a 60 07 3d 3f 4b 4a 3d ae 07 92 bd
       -0.21545008 0.033050753 0.049388167 -0.07130371
000130 eb 51 fb bd 88 f9 9b 3f 38 43 e5 be 50 69 91 3d
       -0.12271484 1.2185526 -0.44777846 0.07100165
000140 58 ee 97 bd f7 06 3e be a4 c3 d9 3e 47 8c 12 3f
       -0.07418507 -0.18557344 0.42532074 0.57245296
000150 06 48 91 3e e4 89 fb be bc cc e8 3c 0c b3 bc 3f
       0.28375262 -0.4912864 0.028417937 1.4742141
000160 7f 92 90 be 36 51 88 3d 13 0e 7d 3e e1 e2 3a 3e
       -0.28236768 0.06656115 0.247124 0.1825061
000170 8b 31 26 bf bb f0 de bd c5 73 dd be d2 ad f0 bd
       -0.64919347 -0.108857594 -0.43252388 -0.117519036
000180 1f ad 48 be 95 58 98 3f db 10 06 be 87 42 c7 be
       -0.1959729 1.1902033 -0.13092367 -0.38917944
000190 73 16 3e bf 97 6e e1 be 85 83 db bf 8c 6e eb bf
       -0.74253005 -0.44029686 -1.7149512 -1.8393111
0001a0 13 d3 02 c0 15 d2 96 bd b4 af 5d be 20 c3 94 bf
       -2.044133 -0.07364289 -0.21649057 -1.1622047
0001b0 56 87 d3 3e fa b0 41 be d7 e6 38 3f 8b 2e a7 3e
       0.4131419 -0.18915167 0.72227234 0.32652697
0001c0 8e fb e9 3f 0a 3a b3 3e 8c fa 07 3f 54 0b fa 3e
       1.8279893 0.35005218 0.5311668 0.48836768
0001d0 27 9e 26 be 18 a3 cf be ac 70 0b be ae 74 c7 bd
       -0.16271268 -0.40554118 -0.136172 -0.09739052
0001e0 b2 e4 27 bf 8c 32 9a 3c fd 80 73 be c1 d4 87 bf
       -0.65583336 0.01882293 -0.23779674 -1.0611802
0001f0 ae 87 9f bf 79 57 f5 be 87 36 dd be 2d 34 ef bf
       -1.2463281 -0.479183 -0.43205664 -1.8687798
000200 83 60 f3 3f 41 54 1d be 1a 10 7c 3f bd 04 63 3e
       1.9013828 -0.15364172 0.9846207 0.22169776
000210 15 83 5a 3f 2c b3 b8 3f 26 76 c6 3f 3d 15 3a 3f
       0.85356265 1.4429679 1.5504806 0.7268866
000220 2b 12 52 3e 3b d5 c0 3f 56 91 00 c0 90 ba 9f 3e
       0.20514743 1.5065073 -2.0088706 0.31197023
000230 6d b2 2e 3f 6e 71 8c 3e c1 04 ab 3f c0 46 5b 3f
       0.68241006 0.2743029 1.3360826 0.8565483
000240 c6 5e 8b 3f e7 ba 18 bc 94 63 10 3e c6 e6 73 3f
       1.0888298 -0.009321905 0.14100486 0.9527401
000250 1d 54 0a bf 9c 96 ed be 95 af b0 3f a8 a3 26 bf
       -0.54034597 -0.46403968 1.3803583 -0.6509347
000260 dd dc a7 3e f3 70 8f 3f 80 10 93 3f d4 dc 12 3f
       0.32785693 1.1206344 1.148941 0.57368207
000270 ec 3c 80 3f 33 41 35 3f e5 87 4c bf 10 24 85 3f
       1.0018592 0.7080261 -0.7989486 1.040163
000280 28 18 1c bf 0a 57 ed 3d 95 be 9e bf 3f f2 1f bf
       -0.6097436 0.11588867 -1.2401911 -0.62479013
000290 37 0c 43 bf 3d b7 aa 3d 5d b2 d0 bb fb 23 80 3f
       -0.76190513 0.08335731 -0.006368919 1.001098
0002a0 6e 19 3c 3e 8e 57 06 3f 99 2b 92 bf 69 b5 85 bd
       0.18369076 0.5247735 -1.1419555 -0.06528742
0002b0 08 a6 b5 bf 55 37 b1 bf fa 23 a0 bf ff 46 12 bf
       -1.4191294 -1.3845011 -1.2510979 -0.5713958
0002c0 55 13 3c be 87 f3 f5 bf 59 00 2c 3f 79 4f 4c bf
       -0.1836675 -1.9214944 0.6718803 -0.79808766
0002d0 6b 38 75 bf 7a 23 4c bf 64 7e a9 bf 3e 5e 17 c0
       -0.9578921 -0.7974163 -1.3241696 -2.365127
0002e0 84 0f 1e c0 55 9b 06 bf 66 54 15 3d 4f e0 9e bf
       -2.469697 -0.5258077 0.03645744 -1.2412204
0002f0 e5 8a 2c 3f 15 da 1e 3e 4d a2 67 bf 41 d8 31 3e
       0.67399436 0.15512879 -0.90482026 0.1736765
000300 b9 51 c8 bf dc d1 8f bf 9e 18 b6 bf 13 25 84 be
       -1.564994 -1.1235919 -1.4226263 -0.25809535
000310 94 db 94 be 8f 16 a6 bf c4 0f 16 3f 91 48 9d be
       -0.29073775 -1.2975634 0.58617806 -0.30719426
000320 15 d1 e0 be 6f 2a 14 3f 1e e2 3e 3e cc 1a b2 3d
       -0.43909517 0.5787725 0.18640944 0.08696517
000330 55 8e 91 3f dd 9f 89 3e e9 c4 e1 3d 22 a5 ef bf
       1.1371561 0.26879779 0.11023886 -1.872227
000340 d7 de d9 be 36 8d 82 be 9e 63 50 bd 62 5d 02 3e
       -0.42552826 -0.2549836 -0.050876252 0.12730935
000350 2c b7 bc bf 06 a2 18 3f 04 54 83 be 8b 38 b2 bf
       -1.47434 0.5962223 -0.25650036 -1.3923506
000360 bb 71 aa bf 5f 08 68 3f 8f 08 89 3e 53 70 02 3f
       -1.3315958 0.90637773 0.26764342 0.50952643
000370 5c b3 75 bf 24 2a 84 3f d6 2c b8 bd 88 d0 cc bf
       -0.95976806 1.032536 -0.08992927 -1.6001139
000380 42 69 17 be ab 46 fa be 93 55 14 bf c6 11 39 3f
       -0.14786246 -0.4888204 -0.57943076 0.72292745
000390 42 ae 3c bf 36 ca 6e bf 4e a2 a2 3e 0d 06 f0 be
       -0.73703396 -0.932773 0.31764454 -0.46879616
0003a0 73 fd 92 bf fa ba c4 be ee 22 8f bf e3 e5 47 bd
       -1.1483597 -0.38423902 -1.1182535 -0.04880322
0003b0 dd d6 d7 be be 43 65 c0 34 66 bb 3e 79 37 f7 3e
       -0.42156115 -3.5822597 0.36601412 0.4828451
0003c0 c0 0d b1 3e 9f 63 e4 be 23 65 e0 be 79 ad 8e 3e
       0.34580803 -0.44607255 -0.4382716 0.27866724
0003d0 8b f0 6e bf 68 fa e9 be 5a 4a ec be 7b 5b 17 bf
       -0.9333579 -0.45698857 -0.46150476 -0.59123963
0003e0 bc 1a 52 3f ab ac 76 3e 63 eb 95 3f 1c e1 9c bf
       0.82072043 0.24089305 1.1712459 -1.2256198
0003f0 0b 9f 6e be 28 73 53 3f 4b 5a 53 bb 01 34 cd 3e
       -0.23302858 0.8259759 -0.0032249864 0.40078738

encoder.self_attn.in_proj_bias f4 [30]
000000 35 38 21 be aa 77 14 be 52 1e bf bf a4 4b 59 3f
       -0.15744098 -0.14498773 -1.4931128 0.84881043
000010 69 06 18 3e 02 5e 54 3f c5 3f 81 be 2a fe 85 be
       0.14846195 0.82955945 -0.25243965 -0.26170474
000020 3e 56 82 be 92 30 00 be 4b 3f 48 bd 3a 3d af bd
       -0.25456423 -0.12518528 -0.048888486 -0.085566
000030 3b 6b b1 be 8b 33 03 3f 18 f0 00 bf 05 f7 2a 3e
       -0.34652123 0.51250523 -0.50366354 0.16695793
000040 9b b4 f8 bd 42 2d 3f be 3a 24 0d bf 19 df 01 3f
       -0.12143823 -0.18669608 -0.551334 0.50731045
000050 7a 28 5f be 87 59 76 3e f7 9d 70 bf dc c4 04 3f
       -0.21792784 0.2405759 -0.93991035 0.51862884
000060 2c d6 fe 3e 10 6f 7f 3f c3 93 9e bc c4 69 9c be
       0.49772775 0.9977884 -0.019357568 -0.30549443
000070 f6 a0 8e 3e 29 0a 80 3e
       0.27857178 0.25007752

encoder.self_attn.out_proj.weight f4 [10, 10]
000000 ba f0 fd be d0 22 91 3e 2e 1b 12 bf d9 07 3f 3e
       -0.49597722 0.28346872 -0.5707272 0.18655337
000010 bc f1 94 be 5d 68 65 3e 60 61 b2 3d 3f f2 24 be
       -0.2909068 0.22403093 0.08709979 -0.16108035
000020 b0 85 2f bf 43 14 f1 3e 68 f8 27 3d dd 49 ca be
       -0.68563366 0.4708577 0.041008383 -0.39509478
000030 ce c4 ac be 49 4b 9a 3e a6 86 d4 3e 9d 00 96 3e
       -0.337439 0.30135563 0.4150898 0.29297343
000040 ce 56 34 be 76 b0 7e 3e a6 ed 01 be 72 9a 99 3e
       -0.17611238 0.24872002 -0.12688312 0.30000645
000050 ca 1a 20 be f7 9a f8 be 38 bf 7f 3f 1f 7f 8a bf
       -0.15635219 -0.4855573 0.9990115 -1.0820044
000060 73 4e 0e bf c0 37 9e bf d3 9f 68 3f 4f dc a5 3f
       -0.55588454 -1.2360764 0.9086887 1.2957858
000070 42 5b 61 bf fd 14 7e bf 8a 31 2e 3f 8c b4 0a bf
       -0.88029873 -0.99250776 0.6804434 -0.5418174
000080 da 7b 38 3f 37 34 11 bf 2e f6 8a be 7d c7 6f be
       0.7206398 -0.567203 -0.27140945 -0.23415942
000090 f9 9e 86 3f 26 92 82 3f 55 2a 01 3f 1e 7a 9b bf
       1.0517265 1.0200851 0.5045522 -1.2146642
0000a0 3b e6 a5 3e 55 e6 42 bf f5 a7 d1 3f 60 d4 9c bf
       0.32402214 -0.7613271 1.6379381 -1.2252312
0000b0 7c 2b ad bf 35 bf d3 bf 90 b5 3f 3f 67 a1 e2 3e
       -1.3528895 -1.6542727 0.7488642 0.44263765
0000c0 96 bd 14 bf e4 08 fd bd c6 ca bd bf 8e b6 19 3f
       -0.58101785 -0.123552114 -1.4827507 0.6004418
0000d0 57 a7 b1 bf 17 6f 67 3f d6 7e c0 3f 3a e0 ca 3f
       -1.3879193 0.90403885 1.5038707 1.5849679
0000e0 3f 00 b2 bd ed 29 c5 3e 06 1b b0 3f 57 db 1d 3e
       -0.08691453 0.3850855 1.3758247 0.15415703
0000f0 e1 81 87 3c 9a 31 21 bf 53 56 e4 bd cf c4 80 3d
       0.016541423 -0.6296631 -0.111492775 0.06287538
000100 d9 1c d0 bd ed 98 28 be fe 19 e1 3e 4c 02 01 3f
       -0.10161752 -0.16464587 0.43965143 0.5039413
000110 99 fe b6 3e cd 21 3b bf 55 fc 45 bf 2e a6 8f be
       0.35741118 -0.7309845 -0.77338153 -0.28056473
000120 8b 31 82 3c a4 9b e6 3e 86 17 03 3c d4 0f 27 3e
       0.015892765 0.4504062 0.008001214 0.16314632
000130 7b f1 9c be 2a 49 ed bd fc ae 2c be 6b d4 50 be
       -0.30652985 -0.115862206 -0.16863626 -0.20393531
000140 cd 05 da be 00 f8 70 3f d4 c5 37 bf 94 50 15 3f
       -0.4258255 0.9412842 -0.71786237 0.5832608
000150 17 52 c4 3f 25 54 33 3f 5f 12 aa bc 2f c1 7b 3e
       1.5337552 0.7005027 -0.020760713 0.24585412
000160 bf 56 6a 3f b2 f6 7d be 39 3f 05 3f 24 af 55 be
       0.91538614 -0.24801138 0.52049595 -0.20867592
000170 8e 71 02 bf 7f 14 d2 3e 00 93 06 3e f0 23 d1 3c
       -0.5095452 0.41031262 0.13142014 0.025529832
000180 91 be 99 3e e1 9f b3 be 01 0b fa 3e 4e 5e 8f 3d
       0.30028203 -0.35082915 0.4883652 0.07000409

encoder.self_attn.out_proj.bias f4 [10]
000000 c9 d0 d5 bd 2b 38 a7 3d 5a 4d 56 bf e7 7d 90 be
       -0.10440213 0.0816501 -0.8371178 -0.28221056
000010 13 a4 8a bf 07 ee 80 3f 87 9c 27 bd 0d 78 2c be
       -1.0831321 1.007264 -0.04092076 -0.1684267
000020 f1 ae 9e 3f 5a b7 21 3e
       1.2397138 0.157926

encoder.linear1.weight f4 [64, 10]
000000 31 80 de bf 4d dc 12 bf a3 49 72 c0 dc c5 49 40
       -1.7382871 -0.573674 -3.7857444 3.1527014
000010 54 e9 66 c0 4f 95 0d 40 dd a8 f8 bf 03 51 03 c0
       -3.6079912 2.212238 -1.9426533 -2.0518196
000020 33 b6 41 40 98 b2 e9 3f a1 b4 af be 98 88 27 bf
       3.0267456 1.8257627 -0.34317496 -0.654428
000030 80 47 39 bf 96 42 f0 3e bb 89 99 3e c7 3c ac 3d
       -0.72374725 0.469258 0.29987893 0.0841003
000040 33 59 a9 3f 75 05 f3 3e 12 d1 4e 3e 9f c9 8e 3d
       1.3230346 0.474651 0.20196941 0.0697205
000050 9b c2 60 bf 07 b7 a1 bf e8 96 cd be be 8d f1 3e
       -0.87796944 -1.263398 -0.40154195 0.47178453
000060 9c a6 c9 be 41 08 3d 3f 07 45 88 3d 04 6f 04 bf
       -0.39384925 0.7384072 0.06653791 -0.51731896
000070 e9 1c 8e 3e 41 56 88 3f 0f c2 a8 3e d2 91 75 3e
       0.27756432 1.0651323 0.32960555 0.23981407
000080 c0 89 60 3e fc 10 22 bc c1 4d b4 3b 87 76 7d 3b
       0.21927547 -0.009891745 0.005502433 0.0038675384
000090 b5 11 cb bd c7 45 72 3e 02 7a a9 bf 36 5a 81 3e
       -0.09915487 0.2365943 -1.3240359 0.25264138
0000a0 c6 a5 61 be 1a 3a 38 bf 96 ac 88 bf d5 86 53 3f
       -0.22035894 -0.71963656 -1.0677669 0.8262761
0000b0 5f f1 84 be 88 14 0e 3f d6 9b 0e 3f 9c 68 e7 be
       -0.25965402 0.5550008 0.55706537 -0.45196998
0000c0 fd c6 07 3f 0b ff 24 3f 39 5a 65 3d 78 ba 67 3e
       0.5303801 0.64451665 0.055994246 0.22629726
0000d0 b4 22 a1 3c 01 a8 7f 3e f4 99 7f 3d da 33 fa bd
       0.019669868 0.24966432 0.06240268 -0.12216921
0000e0 97 a4 ea bc a4 ce b7 3e 0c bd 96 be 1d e2 c5 bb
       -0.028642936 0.35899842 -0.29441106 -0.0060389177
0000f0 ac 3a ea be b9 4e 56 bf b6 c4 1f be 6c 6b 49 3f
       -0.45747888 -0.8371387 -0.15602383 0.7867954
000100 e3 4f aa 3d 99 6a 79 3f ae dc 8d be 2d dc f5 be
       0.083160184 0.9742828 -0.27707428 -0.48019543
000110 46 06 3d 3e 8e d5 3f 3f a1 b3 32 c0 3f 63 c2 bf
       0.18459424 0.74935234 -2.7922137 -1.5186538
000120 99 5b 7a be 07 3d 0f 40 89 4d 88 bf d5 4a 02 40
       -0.24449004 2.2380998 -1.0648662 2.0358174
000130 d7 91 93 bf 8a 03 2f c0 64 ec 1c 40 bb aa d8 3f
       -1.1528882 -2.734591 2.4519281 1.6927103
000140 9e 2b bd bf a8 9c 48 bf 70 6e 00 40 a3 25 04 40
       -1.4778936 -0.7836404 2.0067406 2.0647972
000150 e9 3f 91 40 d2 90 08 40 a1 a8 92 be 16 61 0a c0
       4.5390515 2.1338391 -0.2864428 -2.1621757
000160 3e f8 0e bf 54 96 ba bf 35 20 19 3e be 59 06 bf
       -0.5584754 -1.4577127 0.14953692 -0.52480686
000170 01 22 ed be 0d 01 c2 3d ff 40 3c bf 61 97 78 3e
       -0.46315005 0.09472857 -0.73536676 0.24276496
000180 a8 e5 db be 27 c1 a5 3d ae ac 15 3f d2 3a 21 3f
       -0.4294865 0.080934815 0.58466613 0.6298038
000190 c1 b1 f9 bf c7 a5 ff be 88 0b aa bf 2e 0e 8f 40
       -1.9507371 -0.49931166 -1.3284769 4.470481
0001a0 46 a2 1c c0 61 4d 95 40 06 ce b5 bf ef 24 6e c0
       -2.4474044 4.6656957 -1.4203498 -3.7210042
0001b0 e6 af 19 40 d9 7e 02 40 39 18 86 be e1 4a 4f 3e
       2.401361 2.0389922 -0.26190355 0.20243408
0001c0 e9 2e 8a 3e 0c 73 73 3e 6f d7 bf 3e 46 11 25 3e
       0.26988915 0.23774356 0.3746905 0.1611987
0001d0 c0 c7 3d bd 06 52 7c 3e 17 1a aa be 77 7d 47 be
       -0.046333075 0.24640664 -0.3322303 -0.19481455
0001e0 16 7a c8 be e6 4d 42 bf db e4 08 bf d2 1c 50 3f
       -0.39155644 -0.75900114 -0.53474206 0.81293976
0001f0 7b 41 22 bf 64 f8 38 3f 9f 17 43 3f 04 9b e7 be
       -0.63381165 0.72254014 0.7620792 -0.45235455
000200 84 6f 0d 3f d1 dc fb 3e cd 6f a5 be 3f 4c 0f bf
       0.55248284 0.49191907 -0.3231186 -0.5597572
000210 32 8e 95 3b ce 9c 5d 3e ef 8f c4 bd a0 36 93 3f
       0.00456407 0.21641847 -0.09597766 1.1501045
000220 e1 19 65 bf 3f ad 9c 3d b4 b5 c5 bd 5e e5 9b 3f
       -0.89492613 0.076502316 -0.09653798 1.2179372
000230 6d e7 f0 bc 78 3c d5 bd b0 93 6b 3f c7 62 ab be
       -0.029407227 -0.10411924 0.9202223 -0.334738
000240 41 c3 c5 3c ca 8e 7b bd 53 b1 81 3e df eb 8c 3d
       0.024140956 -0.06141547 0.253306 0.06880926
000250 db 8c a4 bf a8 cb 27 bc 89 7d 10 3f 1f a3 47 bf
       -1.2855486 -0.0102414265 0.5644155 -0.7798328
000260 96 6e 04 bf 0c 87 af 3e 26 42 4b bf 91 65 09 3f
       -0.5173124 0.3428272 -0.7939781 0.53670603
000270 14 be c5 be 90 b1 76 3e 54 3f 2f 3f 3d 35 8b 3f
       -0.3862158 0.24091172 0.68456006 1.0875622
000280 cb 2b 8b 3e dc e4 df be fb ab 64 bf 82 e8 e3 3d
       0.2718185 -0.43729293 -0.8932492 0.11128332
000290 1f 97 81 bf 16 5c dd 3e 2e 31 32 be 63 63 ad be
       -1.0124243 0.43234318 -0.17401573 -0.3386489
0002a0 af 0f 1f 3f 5c eb c0 3e 9a 56 6c bf 9a ea 40 bf
       0.62133306 0.37679565 -0.92319643 -0.75357974
0002b0 82 92 7d be 7b 19 45 3f 62 59 90 bd 54 83 57 3f
       -0.2476292 0.76992005 -0.070482984 0.84184766
0002c0 11 e8 d8 be 0c c8 14 bf 98 40 1f bd 92 8b 42 3f
       -0.42364553 -0.5811775 -0.03887996 0.7599422
0002d0 99 3a d9 3e 80 cf 5c bd c9 58 9b 3d 96 80 4d be
       0.4242752 -0.053908825 0.07585294 -0.20068583
0002e0 8d c3 e5 3d df d8 21 3e e2 5a 0e bf e2 37 8b 3e
       0.11218939 0.15805386 -0.55607426 0.27191073
0002f0 93 b6 12 bf 63 45 d0 3e 29 a9 26 bf da 7b 62 bf
       -0.57309836 0.40677938 -0.6510187 -0.8847023
000300 d5 72 6d be 3e 4b 29 3f dd 8f 50 be 6b 2d 2b 3f
       -0.23188336 0.66130435 -0.2036738 0.6686618
000310 19 16 aa 3e 31 1e 94 be b8 69 e3 3e d3 65 84 3f
       0.33219984 -0.28929284 0.44416595 1.0343574
000320 5d eb 78 bf f1 b7 66 bf b4 86 27 be da 88 92 3f
       -0.97234136 -0.9012442 -0.16359979 1.1448014
000330 66 be 7c 3e 7d ff 82 3f 82 cf 19 bf 85 9c 49 bf
       0.24682006 1.0234219 -0.60082257 -0.78754455
000340 37 94 d8 bd 87 1e 83 3f 4d 80 99 be 94 3f a3 bf
       -0.10575145 1.0243691 -0.29980698 -1.2753778
000350 a2 be f5 be 35 29 f6 3d e9 0d 55 be 33 26 64 3e
       -0.47997004 0.12019578 -0.20806088 0.22280197
000360 34 74 cf 3e 8b 53 43 be 33 f7 0a 3f c1 92 10 3f
       0.40518343 -0.19074838 0.54283446 0.5647393
000370 98 fd 5f 3e d4 6f 4f bf 5f 44 1b 3d cf 5d 5a 3e
       0.21874082 -0.8103001 0.037907 0.21324848
000380 b1 2f 7d bf 85 0b 89 be 30 95 79 be 86 4e 07 bf
       -0.98900896 -0.267666 -0.24373317 -0.5285419
000390 18 06 45 3f ab e7 a0 3e d5 4b ef bf bd 98 b8 be
       0.76962423 0.3142675 -1.8695017 -0.3605403
0003a0 1e 4d 4c 40 41 4a cc 3f 5e b5 75 40 3a a6 bd 3f
       3.1922069 1.596016 3.8391948 1.4816353
0003b0 7c 1e 0d 3f ac d8 31 c0 09 49 90 bf fc a0 93 bf
       0.5512464 -2.7788496 -1.1272289 -1.1533504
0003c0 99 93 71 3e 08 58 8d 3e ff a5 26 bd 8d e7 df 3c
       0.2359146 0.27606225 -0.04068565 0.027332092
0003d0 04 4c a2 3d 64 84 19 be 08 6b a3 3e 90 a8 bd 3d
       0.07924655 -0.1499191 0.31917596 0.09260666
0003e0 79 2d a9 bf 5a 9d ea 3d f0 5e 0f c0 41 f4 44 3e
       -1.3217002 0.11455794 -2.2401695 0.192338
0003f0 ba e2 f0 40 6b 07 16 40 0e 54 b6 40 09 f4 ba 3f
       7.5276766 2.3442028 5.6977606 1.4605724

encoder.linear1.bias f4 [64]
000000 4b b2 34 40 d9 02 bd 3c 34 27 92 3e 45 fc c6 be
       2.8233821 0.023072647 0.28545535 -0.3886434
000010 9e 34 c9 3e 9e f2 43 be ed fc 18 3e bc 9d 1a 40
       0.39297956 -0.1913552 0.14940234 2.4158773
000020 0e bd 60 3f d6 ff 57 3f 33 10 f8 3f b1 a9 2b 3e
       0.87788475 0.8437475 1.9379944 0.16763951
000030 ac c9 11 3f 02 7d 1b bf 6a 0e ed be dd 97 4b 3f
       0.5694835 -0.6073762 -0.4630006 0.795286
000040 ba ab 1c 3f a6 4c 35 3e a1 e5 07 be e5 2e 14 3a
       0.61199534 0.1770502 -0.1327119 0.000565274
000050 d0 a3 9f be c2 13 12 3e eb 01 e1 3e be f6 89 3f
       -0.31179667 0.1426535 0.43946776 1.0778425
000060 14 c4 7c be fc d2 c8 3f 9b c9 10 3e 72 ec 6e 40
       -0.24684173 1.5689387 0.14139406 3.7331815
000070 c4 f7 07 3f a7 8d 83 3f 99 c2 e9 bd a4 fe d7 3e
       0.53112435 1.0277604 -0.1141407 0.42186463
000080 d1 53 53 40 db ce 14 3d be 53 e5 be 2b 99 89 be
       3.3019907 0.036330085 -0.44790453 -0.2687467
000090 ed 95 62 3f 94 fb 61 3f 0c d3 fd be 4b e1 93 be
       0.8851002 0.882745 -0.49575078 -0.28882822
0000a0 a6 0b 16 bf 98 5a 78 3f c2 46 0a 3f 55 db 0c 3f
       -0.58611524 0.97013235 0.5401422 0.55022174
0000b0 c0 d9 0a 3f b4 d7 0b bd 6b ba 19 3b 77 5b 15 bf
       0.5423851 -0.034141257 0.002345706 -0.5834269
0000c0 d6 54 40 3f 3d 0a de 3e 6d 01 0a 3f 05 a2 da be
       0.7512945 0.43367186 0.53908426 -0.42701736
0000d0 cd 29 18 3f 72 ac 79 3e 8f 77 45 3f 43 39 3b 3e
       0.5943878 0.24382189 0.77135557 0.18283562
0000e0 f4 33 56 be c3 a6 04 3e 4e 1c 93 3e 3b e4 3f bf
       -0.20918256 0.1295424 0.28732532 -0.7495763
0000f0 53 5e 32 3f a8 39 a6 be 28 3e 1d bc 6d 34 c5 bd
       0.6967518 -0.32465863 -0.009597339 -0.0962914

encoder.linear2.weight f4 [10, 64]
000000 54 d7 e6 be 95 a1 e5 39 a3 c1 06 bf a3 06 a2 3e
       -0.45086157 0.00043798672 -0.52639216 0.31645688
000010 e6 f0 4d bf 91 bf 92 3d 99 7c a9 be 61 b9 97 bf
       -0.80445707 0.07165445 -0.33102873 -1.1853448
000020 fe 35 13 40 cb 8a 0e bf 1c c0 a4 3e a2 17 23 be
       2.3001704 -0.5568053 0.32177818 -0.15926984
000030 bc c8 b9 3e 71 95 b1 be 1a b9 bc 3d aa 21 3a bf
       0.3628596 -0.34684327 0.09214993 -0.7270762
000040 28 b9 46 bf 20 42 ea be f7 72 04 bf d2 ad 1e bf
       -0.77626276 -0.45753574 -0.5173792 -0.6198398
000050 72 30 6e bf 47 c6 4a bf 33 d4 bb be 41 72 0d 40
       -0.9304267 -0.792088 -0.36685333 2.2100985
000060 af 75 ba 3e f7 9b ad 40 96 5c a4 bf d7 db 32 3e
       0.3641791 5.4252887 -1.2840755 0.17466675
000070 46 a3 f4 3e 0d bb 2a bf a1 39 ba be af 85 21 bf
       0.47780818 -0.66691667 -0.36372092 -0.6309461
000080 18 e6 68 be 50 5e c9 3e 15 3f f2 3e 20 94 be bd
       -0.22744024 0.39329767 0.47313753 -0.09305596
000090 3f 9d 80 bf 03 62 20 bf dc e7 74 be d1 db 92 3e
       -1.0047988 -0.62649554 -0.23916572 0.28683332
0000a0 5b 90 26 bd d4 1f 27 bf 99 b6 33 bf 77 c3 45 bf
       -0.04066501 -0.6528294 -0.70200497 -0.7725138
0000b0 3a 26 03 bf bf 7a 19 be cd c2 cb 3d 4f 07 22 ba
       -0.51230204 -0.1498823 0.09949265 -0.00061808986
0000c0 24 9a 08 bf 8a ff 94 bd 4d 99 50 bf 47 32 b2 be
       -0.533602 -0.07275303 -0.8148392 -0.34803984
0000d0 bc 31 20 bf a5 ed 17 bf 2e 9c 1c bf 27 44 0f bf
       -0.6257589 -0.5934699 -0.6117581 -0.5596337
0000e0 de 01 80 bf df 2f e9 be 3d dd c1 be 67 ca cd 3d
       -1.000057 -0.45544335 -0.37864104 0.10048371
0000f0 3d 09 2b bf 66 83 4c bf 3e 30 a8 bd 1f dc 5a 3d
       -0.6681097 -0.79888 -0.082123265 0.05343258
000100 c3 c5 92 40 d2 e9 97 3f f3 26 f7 3d 32 cf 6d be
       4.586641 1.1868231 0.12067976 -0.2322357
000110 ce 04 31 3f 02 1e 24 3e 0b c5 72 3f 24 a7 86 40
       0.69147956 0.16027072 0.94831914 4.207903
000120 90 df 3e bf 1a 1c 5c 3f 8a eb ad 40 a1 24 fd 3e
       -0.7455988 0.8598038 5.4350023 0.49442008
000130 31 2e 27 40 f4 21 3e 3f 58 c7 b6 bd 58 5f 06 3f
       2.6121943 0.7427056 -0.089247406 0.52489233
000140 93 d5 f9 3e e3 94 5f 3f f7 52 51 3e 98 e3 21 3f
       0.48795757 0.8733656 0.20441805 0.63237906
000150 48 88 73 3d 7e 0b 10 3f 92 b0 31 3f 52 96 fd bf
       0.05945614 0.56267536 0.6941005 -1.9811499
000160 3f 63 fc be 77 41 73 40 e5 cf 0a 3d e9 6a a3 40
       -0.4929447 3.8008707 0.03388967 5.1068006
000170 d5 ab 37 40 ad 0a 02 3f 65 bc 28 3f 07 69 14 3f
       2.8698628 0.5079754 0.6591247 0.5797276
000180 ca 48 91 40 05 7b 10 3f 17 79 24 3e ef 6f 8e 3d
       4.5401354 0.5643771 0.16061817 0.069549434
000190 e9 de 12 3f 04 e9 17 3f 7c 25 19 3e 3c d4 e2 bc
       0.57371384 0.5933993 0.14955705 -0.027689092
0001a0 2e 1b 0c be 49 1e fb 3e eb 2a 19 3f 59 77 c3 3e
       -0.13682243 0.49046543 0.5983111 0.38176993
0001b0 f2 31 2f 3f e9 a3 9b 3e cf 22 0e 3d 67 ae 1a bd
       0.68435585 0.3039849 0.034701165 -0.03776398
0001c0 5a 82 34 3f 46 7f 36 3f 83 e3 f0 3e 37 95 f4 be
       0.705114 0.71287954 0.47048578 -0.47770092
0001d0 bd 6c 70 3f 1b 89 30 3f 6a 45 03 3f 99 07 2f 3f
       0.9391592 0.68959206 0.5127779 0.6837097
0001e0 69 b1 11 3f db 7d f2 3e c4 7b c3 3f af ad bb 3e
       0.5691133 0.47361645 1.5272145 0.36655948
0001f0 cb 9c 13 3f d3 60 81 3e d2 0a 59 3e 45 56 d1 3d
       0.5766112 0.25269184 0.21195534 0.10221533
000200 a5 49 5e c0 8a 3b 46 3e 7c 76 a7 bd b2 bb 53 3d
       -3.473245 0.1935865 -0.08176896 0.051692672
000210 d4 b1 ea be d0 1d c8 bd 2c 33 48 bf 8e 59 a4 be
       -0.45838797 -0.09771311 -0.7820308 -0.32099575
000220 f8 0f 5c bf ee 2f 1c bf b2 3d e5 3e 28 90 28 bf
       -0.85961866 -0.61010635 0.44773632 -0.65844965
000230 a7 4a e3 3e 49 c2 ad be 7a d8 fd be 62 fc 4b bf
       0.44392893 -0.3393729 -0.4957922 -0.7968198
000240 f6 eb 25 bf 6d 4e 74 bf 5e 18 c0 be ee a2 2a be
       -0.6481317 -0.9543217 -0.3751859 -0.16663715
000250 b5 37 61 bf 05 c5 04 be 40 5a 1b bf 2b 2b 8f bf
       -0.8797563 -0.12965782 -0.60684586 -1.1185049
000260 b1 66 a7 be 9a 30 a6 be 0e 4f 2b bf bd b4 03 c0
       -0.32695535 -0.32458955 -0.669175 -2.0579064
000270 a2 66 83 3f 2a bf 41 bf ae c4 5d bf b2 5a 23 bf
       1.0265696 -0.7568232 -0.86628234 -0.63810265
000280 af 93 4a c0 12 8f 08 3e cf d4 62 3e f9 74 4b bd
       -3.165264 0.13335827 0.22151493 -0.0496721
000290 9f 24 40 bf 9e 63 2d bf 4f 7f 5e bf 20 68 9b be
       -0.7505588 -0.6773013 -0.8691301 -0.3035288
0002a0 00 e9 94 3d 3c e4 4c bf 80 1c 8c 3c f8 9c 70 be
       0.07271004 -0.8003576 0.017103434 -0.23497379
0002b0 09 72 44 bf 4f c5 94 be c1 dd 6b 3e 6a 3f b5 3d
       -0.76736504 -0.29056785 0.23033811 0.08849986
0002c0 15 71 82 bf 60 f5 11 be 5a c8 62 be fe 63 92 be
       -1.019076 -0.1425376 -0.2214674 -0.28591913
0002d0 3d c7 3b bf 0e ae 1a bf 70 ec 28 bf c8 55 8b bf
       -0.7335089 -0.60421836 -0.65985775 -1.0885553
0002e0 98 d4 12 bf a8 0c 9d be 84 3c a5 3e e6 98 86 be
       -0.5735564 -0.30673718 0.32272732 -0.26288527
0002f0 76 2c db be 58 e5 55 bf e9 dc 55 3e 1a 90 94 3d
       -0.42807359 -0.83553076 0.20885052 0.07254048
000300 86 d9 bd 40 75 49 89 40 56 76 e0 3f c5 82 ea be
       5.932803 4.290217 1.7536113 -0.45802894
000310 93 67 a0 3f e2 53 12 3d 23 9c cd 3f 37 76 ab 40
       1.2531608 0.035724528 1.6063274 5.3581805
000320 25 12 29 bd be 68 e8 3f 3e e3 04 41 d2 05 38 3f
       -0.04127707 1.8156965 8.305479 0.7188388
000330 1b 7b 62 40 5a 91 b8 3f 4c 12 94 be 26 ba 9f 3f
       3.5387638 1.4419358 -0.2892021 1.2478683
000340 92 72 91 3f cd e2 cf 3f 22 b7 6a 3f e5 02 c6 3f
       1.1363089 1.6241089 0.9168569 1.5469633
000350 b2 78 b6 3f 20 19 df 3f e9 b2 f1 3f a2 a4 d0 bf
       1.4255583 1.7429543 1.8882724 -1.6300242
000360 99 91 18 bf c1 a2 83 40 3f 23 80 3f d7 2d e8 40
       -0.59597164 4.1136174 1.0010756 7.2555957
000370 01 55 54 40 d2 3c a0 3f 1d 56 97 3f 8b 14 ac 3f
       3.3176882 1.2518561 1.1823155 1.3443769
000380 4c 28 c7 40 a8 70 b6 3f 8f 3a 0b bf 48 d6 a4 bc
       6.223669 1.425313 -0.5438623 -0.020121709
000390 eb ba e7 3f 83 38 95 3f 32 1b eb be 2f e1 4d be
       1.8103918 1.1657871 -0.45919186 -0.20105432
0003a0 15 30 eb 3d d0 8e ac 3f 63 35 fa 3f 44 04 be 3f
       0.1148378 1.3481083 1.9547542 1.4845052
0003b0 a8 7a b9 3f 86 8c 6a 3f 0f e4 7e bd e2 10 6c 3e
       1.4490557 0.9162067 -0.062229212 0.23053315
0003c0 90 92 b7 3f 4e d3 17 40 a3 28 b4 3f 5d 07 73 bd
       1.4341602 2.372272 1.4074901 -0.059333194
0003d0 23 97 04 40 f8 1b cb 3f 2b 21 b8 3f fd 11 f7 3f
       2.0717247 1.586791 1.4385122 1.9302365
0003e0 28 23 bc 3f 78 cc c0 3f 58 22 28 40 b8 c7 a2 3e
       1.4698229 1.5062399 2.6270962 0.31792998
0003f0 f0 16 d3 3f b4 4d 66 3f 01 eb 4a 40 0f d5 b5 bd
       1.6491375 0.89962316 3.1705935 -0.08878528

encoder.linear2.bias f4 [10]
000000 5c e7 75 bf 93 f3 d8 3e 28 1c 28 bf bd 7b 85 3f
       -0.9605615 0.42373332 -0.65667963 1.0428387
000010 62 7c 91 bf e9 38 6b bf 23 19 fb 3e a6 2d e1 bd
       -1.1366084 -0.91883713 0.49042615 -0.10995035
000020 9d 97 85 3f d6 78 93 3e
       1.0436894 0.28803128

encoder.norm1.weight f4 [10]
000000 03 8a 14 3e 12 27 ce ba 66 2f 41 3f e1 e3 03 bf
       0.14505772 -0.0015728197 0.7546295 -0.5151959
000010 d0 f5 0e 40 26 cd 0f 3f 52 ad 8a 3e 5c 6d f1 3e
       2.2337532 0.56172407 0.27085358 0.47153747
000020 a9 fd 17 40 46 f2 3d 3e
       2.3748572 0.18549451

encoder.norm1.bias f4 [10]
000000 f1 b2 ba be c8 64 01 3e 6c 70 46 3e df bb ba 3e
       -0.36464646 0.12636101 0.19378823 0.3647146
000010 d8 dc 9d bf 6e cd e5 3e 73 ed 49 be 8b a9 c5 be
       -1.2333021 0.44883293 -0.19719486 -0.38605914
000020 4f 20 b4 3f 8c 78 8e 3e
       1.407236 0.27826345

encoder.norm2.weight f4 [10]
000000 90 4e 9e 3f 37 95 b4 be 39 4b ae 3e b2 5e 46 bf
       1.2367725 -0.35270092 0.34041765 -0.77488244
000010 65 0f b1 3f 30 fc 7e bc e2 dd 79 3e 48 6f a5 be
       1.3832823 -0.015563056 0.24401048 -0.32311463
000020 59 e9 c7 3f 9c 37 ce 3e
       1.5618087 0.40276802

encoder.norm2.bias f4 [10]
000000 2c c2 9d bf 3f 43 52 be b2 6e 73 be dd 94 c5 bf
       -1.2324882 -0.20533465 -0.23772696 -1.5436054
000010 6e ba 74 bf cc 6d 04 3d dc 33 59 be aa 11 8c be
       -0.9559697 0.032331273 -0.21211189 -0.27357227
000020 45 b7 63 3f 67 0c 45 3d
       0.8895152 0.04810753

l2.weight f4 [64, 3200]
000000 b7 11 88 3f 6c ea 01 3f ae 0e 1e 3e ce 42 b1 3f
       1.0630406 0.50748324 0.15435287 1.3848512
000010 a0 10 9b 3f 08 06 5b 3e 33 f3 43 3f 20 28 16 3f
       1.2114449 0.2138902 0.7654297 0.58654976
000020 bf 9c 67 bf 7d 9a 92 3f 1e 32 85 3f 86 fa 99 3e
       -0.9047355 1.1453396 1.040592 0.30073947
000030 99 62 f2 3d f8 60 b6 3f a7 dd 99 3f 59 ae 8a 3e
       0.11835212 1.4248343 1.2020768 0.27086142
000040 c9 15 42 3f b4 4b 1e 3f 00 81 52 bf 52 c4 a2 3f
       0.7581449 0.61834264 -0.8222809 1.2716162
000050 ff 4e 83 3f f2 e9 09 3f 9d a9 b0 ba 4a 83 b9 3f
       1.0258483 0.538726 -0.0013478283 1.4493191
000060 c6 32 98 3f ac e3 89 3e 6f 34 52 3f 13 14 20 3f
       1.1890495 0.26931512 0.8211126 0.6253063
000070 94 d7 5d bf fe 3b 8c 3f c8 b3 8f 3f 9b 94 1c 3f
       -0.8665707 1.0955808 1.122674 0.61164254
000080 2b b5 9a bd 30 8f bb 3f a6 da a3 3f 03 32 5a 3e
       -0.07554086 1.4653072 1.2801101 0.2130814
000090 7c 68 39 3f d5 9c 25 3f 98 5d 59 bf 90 38 8f 3f
       0.72425056 0.6469243 -0.8490844 1.1189137
0000a0 5f 32 86 3f 9d df e6 3e f5 27 73 bd 3f 9d af 3f
       1.0484122 0.45092478 -0.059364278 1.3719863
0000b0 43 d2 9b 3f 1b c1 71 3e e0 02 3b 3f 63 13 35 3f
       1.2173542 0.2360882 0.7305126 0.70732707
0000c0 1f 72 4f bf bb c3 97 3f 64 6f 82 3f 53 18 04 3f
       -0.8103351 1.1856607 1.0190244 0.51599616
0000d0 b3 80 14 bd 2a 77 b5 3f 7a c0 9d 3f b0 6e 8f 3e
       -0.03625555 1.4176991 1.2324364 0.28014135
0000e0 db bb 45 3f 21 ee 2d 3f 2e ec 49 bf 48 c5 93 3f
       0.7723977 0.6794148 -0.78876007 1.154458
0000f0 97 cb 80 3f e0 af 0a 3f 34 89 b8 3d 75 3a b4 3f
       1.0062131 0.54174614 0.090105444 1.408034
000100 34 08 9d 3f 09 b1 61 3e 76 c7 44 3f 3c c4 1b 3f
       1.2268128 0.2204019 0.76866853 0.60846305
000110 9e 90 62 bf db 2a 90 3f 55 df 81 3f 47 9b a1 3e
       -0.8850192 1.1263078 1.014628 0.3156378
000120 57 32 54 3e b6 0a c2 3f 9c 5f 9b 3f 00 ed 3b 3d
       0.20722328 1.5159519 1.2138553 0.045880318
000130 53 6f 34 3f 31 01 20 3f b9 e4 6b bf 09 77 9d 3f
       0.7048237 0.6250182 -0.9214588 1.2301952
000140 1a bb 7d 3f f7 8c 0f 3f 51 6f 2e 3e e4 1a c1 3f
       0.9911362 0.5607447 0.17034651 1.5086331
000150 f3 ab 98 3f c4 87 f6 3d 74 72 34 3f 32 bf 2e 3f
       1.1927475 0.12037614 0.7048714 0.6826049
000160 9a 29 56 bf 5f 6d 9e 3f 57 1a 8a 3f 7b 37 b2 3e
       -0.8365723 1.2377127 1.0789288 0.34807953
000170 a3 83 90 3d af 18 c1 3f de 72 99 3f 27 f2 43 3e
       0.07056358 1.5085658 1.198818 0.19135343
000180 a8 c9 18 3f ed 8f 16 3f 63 57 57 bf 8b 16 9b 3f
       0.59682703 0.58813363 -0.84117717 1.2116255
000190 2f 3d 89 3f b6 54 04 3f 35 55 f1 3d b0 30 ba 3f
       1.0721797 0.5169176 0.1178383 1.4546108
0001a0 f0 d5 9a 3f 72 1b db 3d 1e 49 2c 3f dc 0f 2e 3f
       1.2096539 0.10698594 0.6729907 0.6799295
0001b0 f1 d9 52 bf 68 11 91 3f 79 31 84 3f 52 6e 09 3f
       -0.823638 1.1333437 1.0327598 0.5368396
0001c0 f5 e8 20 3e 30 e2 bd 3f df a7 94 3f 78 eb 92 3e
       0.15713866 1.4834652 1.161373 0.28695273
0001d0 ea 2f 19 3f d4 fe 12 3f 9e cf 5c bf 09 58 90 3f
       0.59838736 0.57420087 -0.862543 1.1276866
0001e0 f8 08 88 3f 11 0e 80 bd ab 6d 69 3e e0 1d c4 3f
       1.0627737 -0.06252683 0.22795741 1.5321617
0001f0 1b 18 9e 3f 25 23 2f 3d 2d f2 1b 3f e7 d3 21 3f
       1.2351106 0.042758126 0.60916406 0.6321396
000200 06 71 65 bf e9 ee 9f 3f f0 b8 86 3f ce 3d e6 3e
       -0.89625585 1.2494785 1.0525188 0.44969028
000210 cf 35 47 3d 55 e0 b2 3f 95 f7 98 3f 65 dc 88 3e
       0.0486353 1.3974711 1.1950556 0.26730648
000220 7f 44 3e 3f 94 ac 16 3f 0b c6 60 bf a1 11 a7 3f
       0.74323267 0.58857083 -0.8780219 1.3052255
000230 8a 67 83 3f c9 cf fd 3d 2e 38 19 3d 95 ce bb 3f
       1.0265973 0.123931475 0.037407093 1.4672419
000240 6d 27 9d 3f f1 37 5b 3e d4 f5 31 3f 81 26 24 3f
       1.2277657 0.21408059 0.6951573 0.6412125
000250 1e f8 5d bf 72 e1 95 3f c1 99 8b 3f 6a f3 07 bf
       -0.8670672 1.1709425 1.0906297 -0.53105795
000260 a7 2d 3b 3d 06 45 ba 3f cc 62 92 3f 72 85 9c 3e
       0.045697834 1.4552314 1.14364 0.3057056
000270 f6 15 34 3f 67 92 0d 3f 29 6c 5d bf 6d c1 90 3f
       0.7034601 0.5530152 -0.86493164 1.1309029
000280 2e ab 88 3f 52 22 69 bd 53 6b 2e 3e 34 3b be 3f
       1.067724 -0.056917496 0.17033128 1.4861817
000290 bb 82 9b 3f 38 fa 5a 3e 4f 6e 2e 3f da f2 26 3f
       1.2149271 0.21384513 0.6813707 0.6521431
0002a0 0e b9 64 bf fc c6 96 3f b9 55 8f 3f b3 d7 26 3f
       -0.8934487 1.1779475 1.1198035 0.6517288
0002b0 63 97 1c 3e d7 cf ba 3f 8b 93 9e 3f 49 f3 81 3e
       0.15292124 1.4594678 1.2388777 0.25380924
0002c0 db eb 44 3f 2f f5 01 3f 60 63 57 bf 9b 30 9a 3f
       0.76922387 0.50764745 -0.8413601 1.2046083
0002d0 2b 14 93 3f 38 10 b7 3e 5e 57 b5 3d 45 98 b9 3f
       1.149053 0.3575456 0.088545546 1.4499594
0002e0 fa 06 98 3f 02 32 93 3e a0 72 3c 3f 03 7c 1a 3f
       1.1877129 0.2874909 0.73612404 0.60345477
0002f0 ca 8a 5f bf 1a 6d 96 3f df 09 8d 3f ca 22 e0 3e
       -0.8732115 1.1752045 1.1018637 0.43776542
000300 29 d2 f7 3c d8 c3 b8 3f 28 c1 96 3f 8b 5b 94 3e
       0.03025158 1.4434767 1.1777697 0.28976092
000310 f0 08 4c 3f aa 6c 1b 3f 9d f4 53 bf 40 3d 97 3f
       0.7970114 0.60712683 -0.82795125 1.1815567
000320 ee cf 90 3f e0 e2 a0 3e ae 51 e2 3c 30 3f bd 3f
       1.1313455 0.31423092 0.027626839 1.4784908
000330 64 48 a5 3f 2f 1d 63 3e 4c f5 3c 3f 67 6e 1e 3f
       1.2912717 0.22179101 0.73811793 0.6188721
000340 8c 9e 54 bf 90 bd 98 3f e6 99 8e 3f fe 77 fb 3e
       -0.83054423 1.193285 1.1140716 0.49114984
000350 5c 18 19 3e ee ee bb 3f 70 55 9c 3f a6 a9 4b 3e
       0.14950699 1.468229 1.2213573 0.19888934
000360 46 74 2d 3f 2e 7c 30 3f 5f 86 50 bf 57 ba 93 3f
       0.67755544 0.68939483 -0.81455034 1.1541241
000370 72 96 8a 3f 60 fb 22 3f bd 28 a0 3d 58 69 c0 3f
       1.0827162 0.6366482 0.0782027 1.5032148
000380 6c c4 96 3f d8 96 73 3e 2f 0f 36 3f a9 ae 0c 3f
       1.1778693 0.23788011 0.7111692 0.5495401
000390 6d 0b 5c bf 62 39 96 3f df fe 8b 3f a7 53 74 be
       -0.85954934 1.1736262 1.0937155 -0.23860036
0003a0 2f 7c 44 3d 38 51 af 3f 5e 47 9c 3f 13 c3 7f 3e
       0.047969993 1.3696661 1.220928 0.24976759
0003b0 51 18 33 3f 96 05 2b 3f 49 3c 58 bf c1 15 9a 3f
       0.6995898 0.668054 -0.8446699 1.2037889
0003c0 f8 35 88 3f 49 07 af 3e 39 45 9f 3c de 74 b8 3f
       1.064147 0.34185246 0.019442188 1.4410665
0003d0 cc fc 94 3f 3e 58 94 3e f7 c8 46 3f f8 80 1e 3f
       1.1639647 0.28973573 0.776504 0.6191554
0003e0 eb b6 63 bf 26 ff 88 3f 93 2a 8a 3f 4a 6e 91 bd
       -0.88950986 1.0702865 1.0794243 -0.07101114
0003f0 33 26 07 3d 19 d8 ba 3f 24 da 98 3f 8d 63 85 3e
       0.032995414 1.4597198 1.1941571 0.26052514

l2.bias f4 [64]
000000 a7 e4 e0 bf eb e8 1f be 5b 8a 83 bf 8e af ae be
       -1.7569779 -0.15616195 -1.0276598 -0.34118313
000010 43 be 09 bf 8b f6 c6 bf d8 40 b2 bf 96 d1 bc be
       -0.5380594 -1.5543989 -1.3926039 -0.3687865
000020 59 8f 57 bf 72 cb c0 bf c4 da c3 bf 28 35 9f bf
       -0.84203106 -1.5062087 -1.5301137 -1.2438097
000030 29 59 90 bf f8 10 c0 be 54 d5 a5 bf 37 11 04 bd
       -1.127721 -0.37512946 -1.2955728 -0.03224298
000040 de d4 a6 bf 06 f9 bf bf 6c b4 db bf b2 f4 a6 bf
       -1.3033712 -1.4997871 -1.7164435 -1.3043425
000050 3a 28 85 bf a8 a0 a9 bf 63 08 36 bf 33 8e 9d bf
       -1.0402901 -1.3252153 -0.7110655 -1.2309021
000060 c7 dd 50 bf 50 af d6 bf b8 3e bc bf fd c7 b6 bd
       -0.81588405 -1.6772251 -1.470664 -0.089248635
000070 63 a5 99 be dd 64 ca bf 67 cc b7 bf 07 d8 b6 bf
       -0.30008993 -1.5812031 -1.4359254 -1.4284676
000080 c0 e9 f7 bf b0 8e b3 bf aa cc 1e bf d9 bd 07 c0
       -1.936821 -1.402792 -0.6203104 -2.1209624
000090 fd 3c c2 bf 22 7e ea bf 52 16 d4 bf 3c de bc bf
       -1.5174862 -1.8319743 -1.6569312 -1.475532
0000a0 b5 b1 b9 bf c0 51 7d bf fe b1 bf bf 77 92 b3 bf
       -1.4507357 -0.98952866 -1.4976194 -1.4029073
0000b0 89 55 c5 bf 88 de b3 bf 09 46 cc bf 63 55 fe bd
       -1.5416728 -1.4052286 -1.5958873 -0.1241863
0000c0 34 5c 8e be 26 8c 22 bf 37 36 fa bf 4d f8 ca bf
       -0.2780472 -0.634951 -1.9547795 -1.5857025
0000d0 df 97 cb bf 7b 78 15 bf c1 88 c2 bf 9f ea 4d bf
       -1.5905722 -0.58386964 -1.5197984 -0.8043613
0000e0 d3 2c 55 bf 5a b2 95 bf 70 92 11 bf d9 24 8b bf
       -0.8327152 -1.1695054 -0.5686407 -1.087062
0000f0 40 ee be bf b0 35 aa bf 1d ec 03 bf 61 77 ec bf
       -1.4916458 -1.3297634 -0.51532155 -1.8473932

l3.weight f4 [64, 66]
000000 36 b4 4a 3f cb 6e 94 bd 8b 15 02 3f 48 d7 51 3e
       0.7918123 -0.072476946 0.5081412 0.2049228
000010 71 3b c0 3e 7f 95 31 3f fc cb 28 3f a9 81 5c bd
       0.3754535 0.6936874 0.65936255 -0.05383459
000020 eb 1d f2 3e 9b fe ec 3e 08 82 6f 3e 86 96 07 3f
       0.4728845 0.46288 0.23389447 0.52964056
000030 72 c4 b6 3e f6 de 0f 3e 51 47 be 3e 38 83 da 3e
       0.3569675 0.14049897 0.37163785 0.42678237
000040 79 8c e1 3e 75 81 f8 3e db d9 ef 3e 0c ff 39 3f
       0.44052485 0.48536268 0.46845898 0.72654796
000050 5d 26 2e 3e 08 90 be 3e cd ae 48 3e 93 34 cc 3e
       0.17006822 0.37219262 0.19597931 0.3988386
000060 0c f7 43 3e cd 34 05 3f 6f 2e 2d 3f ff d6 a8 3d
       0.1913721 0.5203369 0.6764898 0.08244132
000070 26 74 bd 3e 87 63 eb 3e 74 7f db 3e 92 f3 9a 3e
       0.37002677 0.4597437 0.42870677 0.30263954
000080 62 3b 4d 3f b3 3f 15 3f 6d d9 dd 3e bf da 53 3f
       0.80168736 0.5830032 0.43329945 0.82755655
000090 60 de 18 3f a8 a1 55 3f 8d eb 09 3f 3f 28 dc 3e
       0.5971432 0.8344979 0.53875047 0.42999455
0000a0 01 c8 e9 3e 5b a4 b0 3e 6f 02 51 3f c4 fc d2 3e
       0.45660403 0.34500393 0.8164434 0.4120847
0000b0 2a ad c4 3e 73 cc 09 3f 46 45 bf 3e 1f 04 f5 bc
       0.38413364 0.5382759 0.3735754 -0.029909192
0000c0 d9 c4 54 3e b4 ee 0f 3f d1 dd 18 3f fd 33 e9 3e
       0.20778216 0.5622361 0.59713465 0.45547476
0000d0 1b 8c 00 3f 11 dd 22 3f a4 6d fa 3e 40 2d 32 3f
       0.50213784 0.6361857 0.48911774 0.69600296
0000e0 75 81 fc 3e 6d 7f c5 3e 64 ec ab 3e a5 90 aa 3e
       0.49317518 0.3857378 0.3357879 0.3331348
0000f0 14 57 02 3f 22 e9 1f 3f 87 03 3b bd 55 d0 12 3f
       0.5091412 0.6246511 -0.04565766 0.5734914
000100 e4 e7 37 bf 95 1f 28 be 97 f9 e5 3e a7 d2 fc 3e
       -0.7183821 -0.16418298 0.44916984 0.49379465
000110 d5 94 0c 3f a5 39 4d be 33 cf 62 bb 54 82 2f 3f
       0.549146 -0.20041521 -0.0034608364 0.6855824
000120 15 11 96 3e 25 2c 36 3e 23 a0 87 3d bf 90 14 3f
       0.29309908 0.17790277 0.066223405 0.58033365
000130 7a d4 9b 3e 47 4f b6 3e 19 24 f8 3e 1b cd 0b be
       0.30435544 0.3560736 0.4846504 -0.1365246
000140 53 0d 30 3e b4 65 fc 3e ad 5f 0c 3f 09 13 0f 3f
       0.17192583 0.49296343 0.5483349 0.5588842
000150 79 1d b9 3e 6b ae b6 3e f9 a5 14 3f f0 0b b2 3e
       0.36155298 0.35679945 0.58065754 0.34774733
000160 e4 dd a1 be f0 dd 94 bb 4f 29 6b 3e 4f a2 11 3f
       -0.31614602 -0.0045430586 0.22964977 0.5688829
000170 f9 5c 46 3e 34 5b e7 3d 1a 95 da 3e d5 b4 1a 3f
       0.19371404 0.112966925 0.4269188 0.6043218
000180 17 d1 f5 3e f1 eb 3d 3e b6 9e 41 3f 4f 43 d0 3e
       0.48011085 0.18547036 0.756328 0.40676352
000190 29 ec 07 be d6 47 1c 3f 2e ea 93 3e 1c 3e 13 3f
       -0.13273682 0.6104711 0.28889602 0.57516646
0001a0 91 a6 f4 3e e1 b1 78 3e 71 f7 de 3e 4a d6 fd 3d
       0.4778333 0.24286605 0.43548158 0.12394388
0001b0 d4 67 39 3f 40 d8 86 3e 15 8a f1 3e c1 e3 c5 3e
       0.72424054 0.2633686 0.4717566 0.38650325
0001c0 64 b0 7d 3e 41 bb 1b 3e 92 cf 82 3d 01 a6 98 3d
       0.24774319 0.1520815 0.06387247 0.07453538
0001d0 74 1d 13 3f 13 6f ce 3e 37 c8 0d 3f 82 1b 97 3e
       0.57466817 0.40319118 0.5538363 0.29513174
0001e0 0b 13 ab 3e 47 dc 27 3f 70 0c ad 3d cd 18 0c 3f
       0.33412966 0.6557049 0.08449638 0.54725343
0001f0 a9 8a 06 bf ae cf 76 3d 8f 85 0a 3f 61 fe 2e 3f
       -0.5255533 0.060256653 0.54110044 0.683569
000200 1a ce 70 be 3b 77 c8 3e 1a 86 eb be 69 5a 8e be
       -0.23516122 0.39153466 -0.4600075 -0.27803352
000210 e1 b4 7a 3e 5b 74 5c bf 4b 89 dc bd c5 10 8c 3e
       0.24483062 -0.86115044 -0.10768374 0.27356544
000220 b0 cd 07 3f d1 42 e5 3e 25 e3 be 3e e5 96 96 be
       0.5304823 0.4477754 0.37282673 -0.29411998
000230 15 e8 3d 3b fd 8c 74 3e 61 d8 b8 3e 88 c4 0b 3f
       0.0028977443 0.23881908 0.36102584 0.5459676
000240 74 d1 10 3f 25 0a 80 3f 1a ad 0a 3f 2a c8 0a 3e
       0.565696 1.0003096 0.5417038 0.13552919
000250 a1 81 af 3e 4d 99 87 3e ea b4 e9 3e 32 86 68 3e
       0.34278587 0.26484147 0.4564584 0.22707441
000260 36 ab e7 3e a4 db 19 3f 25 98 d8 3d ff 29 e5 3e
       0.4524781 0.6010077 0.10575894 0.44758603
000270 75 27 02 3f d1 31 dc 3e 63 0d b9 3b 19 13 89 be
       0.50841457 0.43006757 0.005647348 -0.26772383
000280 ef 8f 98 be 9b c8 86 3e 85 e6 cb 3e 73 8a 0c 3f
       -0.29797313 0.26324925 0.3982431 0.54898757
000290 43 3a b5 3e 4f 08 c3 3e ac 1d 03 3f 3c 72 b5 3e
       0.35396013 0.38092276 0.5121715 0.35438716
0002a0 27 44 bf 3e 10 d2 f1 3e 9c 35 6a 3e c3 25 cd 3e
       0.37356684 0.47230577 0.22872013 0.40067872
0002b0 4a e4 c2 3e e6 73 c6 3e 00 c2 14 3f 90 3f d7 3e
       0.38064796 0.38760298 0.5810852 0.42040682
0002c0 cf c9 b6 3e 38 9a 30 3e 91 a9 c4 3e 00 07 11 bd
       0.35700843 0.1724633 0.3841062 -0.035407066
0002d0 0c a0 16 3f dc 14 80 bd a8 45 b9 3e b8 e5 e9 3e
       0.5883796 -0.062539786 0.36185956 0.45683074
0002e0 53 09 84 3e e3 ce 94 3e fb 4a 6e 3d 6b 16 86 3f
       0.25788364 0.29064092 0.058176976 1.0475591
0002f0 68 3a e3 3d 49 cf b0 bc ff 61 16 bf 45 4f 47 3e
       0.110951245 -0.021583216 -0.5874328 0.19463833
000300 9a ba da 3e 6e 88 10 3f 9b fb 3b bf da 93 9a 3e
       0.4272049 0.56458175 -0.73430794 0.30190927
000310 ef 10 4c 3e 9f f9 05 be 0b 73 26 3f 04 d1 3b 3e
       0.19928335 -0.13083504 0.6501929 0.18341452
000320 50 9f 3c 3f e4 c2 d2 3e 2e d2 03 3f cb ff 34 3f
       0.7368059 0.41164315 0.51492584 0.7070281
000330 f9 9f 20 3f 03 af cb 3e be d8 b3 3e a2 f9 07 3f
       0.627441 0.3978196 0.351263 0.53115284
000340 ef 3c 42 3f b2 37 14 3f 46 e4 72 3f 11 b6 e1 3e
       0.7587423 0.57897484 0.9487957 0.44084218
000350 18 43 17 3f 2c a6 a1 3e cb f8 18 3f 95 a3 25 3f
       0.5908675 0.31572092 0.5975463 0.6470273
000360 31 79 f4 3e f5 8b c7 3e e2 0f fe 3e f6 a9 0e 3f
       0.47748712 0.38973966 0.49621493 0.5572809
000370 8d 1b 50 3e 54 04 dd 3e 20 ea 1e 3f b4 dd 34 3f
       0.2032301 0.43167365 0.62075996 0.7065079
000380 82 64 38 3f fb ef 10 3e 6f 1b 6d 3f b7 5f 16 3f
       0.7202836 0.14154045 0.92619985 0.587398
000390 89 77 02 3f 49 5d 13 3f 98 61 5c 3f 71 f1 2c 3f
       0.50963646 0.57564217 0.86086416 0.6755591
0003a0 5e 88 a9 3e 82 bc 20 3f 48 5d 30 3f 8a c4 26 3f
       0.33111852 0.6278764 0.68892336 0.65143645
0003b0 a5 c0 16 3f 77 ef 11 3f c9 73 fe 3e 9a 7e 15 3f
       0.588877 0.5700602 0.49697712 0.58396304
0003c0 ab 7c 9e 3f 20 0c 30 3f 9b e4 be 3e c0 19 03 3f
       1.2381796 0.687685 0.37283787 0.51211166
0003d0 ca 1c d7 3e 40 8d 76 3e c5 a3 50 3e 90 45 14 3f
       0.42014152 0.2407732 0.20374973 0.57918644
0003e0 89 50 43 3f 8f d5 22 3f 09 00 23 3f 5e 3c 5c 3f
       0.7629476 0.63607115 0.6367193 0.86029613
0003f0 65 e3 aa 3e 41 e2 8b 3f bd 79 0e 3e 02 d4 1d 3f
       0.33376613 1.0928422 0.13913627 0.61651623

l3.bias f4 [64]
000000 c8 2d b4 be 90 a1 24 bf ec 88 57 bf f6 74 77 bf
       -0.35191178 -0.64309025 -0.841933 -0.96662843
000010 fa 7e fe 3b f6 f1 fe bd f7 72 66 bf 13 e1 1e bf
       0.0077666016 -0.12448494 -0.9001917 -0.62062186
000020 c5 c1 b7 be 14 b3 27 be 76 9d 37 bf a2 91 2f bf
       -0.35890022 -0.16376907 -0.7172464 -0.68581593
000030 e1 c4 32 bf d1 b0 b4 be 54 cd 27 bf 5c 76 28 bf
       -0.69831663 -0.3529115 -0.6554768 -0.658056
000040 b3 11 0e bf 3b a5 33 bf f9 3e ff bc 7e 79 e9 be
       -0.55495757 -0.70173997 -0.031157957 -0.45600504
000050 cc e8 32 b9 3b 68 f8 bd 2d f2 c9 bd 5c 43 8e bf
       -0.00017062126 -0.121292554 -0.098606445 -1.1114306
000060 1e ff 6a be 44 7c 9a bb 94 39 ef be 63 1b 01 bf
       -0.22948882 -0.0047145206 -0.46723616 -0.50432414
000070 2b ca 38 bf fe c9 45 bf b3 51 ed be e0 20 6e bf
       -0.72183484 -0.7726134 -0.46351394 -0.93018913
000080 ec 08 dc be ed a7 28 bf 11 c8 a3 be e6 12 2e be
       -0.42975557 -0.65881234 -0.31988576 -0.16999397
000090 97 9f 66 bf aa 17 10 bf d6 2c 54 3e a7 a0 22 bf
       -0.90087265 -0.5628611 0.20720229 -0.63526386
0000a0 d8 2f 66 be 18 06 a0 3e 0d 37 0e bf 49 0f 59 bf
       -0.22479188 0.3125465 -0.5555275 -0.8478895
0000b0 7a 61 0f bf 48 2e 34 bf 5e c8 2f be b6 7c f4 bd
       -0.5600811 -0.7038312 -0.17166278 -0.11937849
0000c0 e3 e2 2e 3f e1 d3 3a bf b6 f7 31 bf 80 e0 39 3e
       0.6831495 -0.7297955 -0.695186 0.18152046
0000d0 7f ff 4f bf 30 bf 82 bf 9b d3 32 3e 88 bd 50 bf
       -0.8124923 -1.0214596 0.17463534 -0.815392
0000e0 3d 1c b8 be e2 23 60 be 41 a2 e7 be 4b c3 64 bd
       -0.35959044 -0.21888688 -0.45240977 -0.05585031
0000f0 b8 61 22 3e d2 98 50 bf 6a 00 89 be 07 ff 07 bf
       0.15857589 -0.81483185 -0.26758128 -0.53123516

l4.weight f4 [2, 64]
000000 e1 38 01 3e 82 69 e3 37 f1 82 99 bd 36 6f 83 3d
       0.12619354 2.710964e-05 -0.07495678 0.06417696
000010 ab 46 11 be e5 0d 2a be 0d 0e 49 3b 8f 55 a0 bd
       -0.14187114 -0.16606863 0.003067854 -0.07828819
000020 85 e8 bb 3d 55 07 0c be 32 02 9d 3e f0 cb 40 3e
       0.09175209 -0.13674672 0.30665737 0.18827796
000030 8c 37 a5 be 71 70 a8 3d 54 0f 3d 3d 19 0a 10 3e
       -0.3226894 0.082245715 0.046157196 0.14066352
000040 04 2c e3 3d 5e 65 e4 bd 15 6f 77 bd 6c 79 81 3e
       0.1109238 -0.11152147 -0.06040867 0.2528795
000050 5e ef 85 3d 5a ec 94 3d d6 38 1f bc bd 5d 49 3d
       0.06539796 0.07271643 -0.009718141 0.04916166
000060 9c 81 2a bc b9 72 96 bd b6 4e 19 3d 44 fb 98 bd
       -0.010406878 -0.073461 0.03742858 -0.074698
000070 00 e8 74 3e 39 8d 20 3e 3b 48 58 bd 86 6e 0c bd
       0.23916626 0.15678872 -0.05280326 -0.03428509
000080 21 01 c5 bd e0 bc a6 bd fd 9a 8a bd 40 43 0c bd
       -0.09619356 -0.08141494 -0.06767843 -0.034243822
000090 6f bd 6e 3e 60 19 ad be b0 b8 11 be ad 8f ef bd
       0.2331445 -0.33808422 -0.14230609 -0.11697326
0000a0 d6 ba 3a bc fc 0f a1 bd 3f b4 b2 bd 69 4a 22 3e
       -0.011397084 -0.07864377 -0.087257855 0.15848698
0000b0 47 fd 92 bd c3 47 5c be ad 19 27 be 39 23 a2 b9
       -0.07177215 -0.2151175 -0.16318388 -0.0003092529
0000c0 06 05 65 bd 30 c9 0b 3d 7f 6e f4 3b ff ba d5 bd
       -0.055912994 0.034127414 0.007459461 -0.10436057
0000d0 c1 3c ad bc 3e 1f 31 3d 4c 57 fe bd 26 7a e4 3d
       -0.021147134 0.043242685 -0.12418994 0.111561105
0000e0 d8 b1 e0 bd 69 35 65 3d e1 44 5f 3c 1d 4a 33 be
       -0.10971421 0.05595914 0.013627262 -0.1750874
0000f0 09 6d 47 3d 5b db 87 3e e0 8e 83 3d f3 73 3b bd
       0.04868797 0.26534542 0.064237356 -0.045764875
000100 b8 a7 3f be db 1d 34 bc 58 40 5c be 63 70 a9 be
       -0.18716323 -0.010993446 -0.2150892 -0.33093557
000110 f9 4c 17 3e 4c 71 1e 3e 21 70 3e be 20 ef 45 be
       0.14775456 0.15472907 -0.18597461 -0.193295
000120 bd 5f 89 3e 70 e4 03 3e 27 97 ca 3e 34 2e 24 be
       0.26830855 0.1288011 0.39568445 -0.1603325
000130 0d ef 33 3e 88 9e 6f 3d bc 85 e4 bd 16 e8 5e be
       0.1757166 0.058500797 -0.1115832 -0.21768221
000140 7f d9 a7 bd a9 b2 80 bd 46 ca 77 3b 79 88 3a 3e
       -0.08195781 -0.06284077 0.0037809773 0.18216123
000150 27 00 e5 3d d0 70 a5 3e 88 a3 11 3e 37 dd cd be
       0.1118167 0.32312632 0.14222538 -0.40207836
000160 fc 32 6f 3d 23 7b e1 3d 21 11 22 be e2 17 d3 bd
       0.058398232 0.110098146 -0.15826847 -0.1030729
000170 5e 81 8e be af 5e 53 be a5 51 57 be 0b ba 7c be
       -0.27833074 -0.20641588 -0.21027239 -0.24680345
000180 55 9a a1 bd b0 88 3e be b6 fe a3 3e 5d 86 51 3e
       -0.078907646 -0.1860683 0.32030267 0.20461412
000190 a7 f5 99 be f1 aa 91 3b 8d be 0e 3e c1 87 8c 3e
       -0.3007023 0.0044454266 0.13939877 0.27447322
0001a0 fe 0a ab 3e 09 cb 95 3d 71 4f c8 bc 2f 75 8a 3c
       0.33406824 0.073141165 -0.024451943 0.01690158
0001b0 91 ca 65 be be 21 e6 bc fb b4 a9 3d 68 76 d9 3c
       -0.22440554 -0.028092261 0.082864724 0.026545718
0001c0 0f 53 44 3d 17 9e 1e be 7b 8a c1 bd 3e ed a3 bb
       0.047930773 -0.15489994 -0.09450241 -0.0050026467
0001d0 99 6d ae bd 4c 7f 2f 3d d7 58 6d 3e 5b 1f e1 3d
       -0.08516998 0.04284601 0.23178421 0.10992309
0001e0 4f 7d a8 3e e4 41 82 3a 16 e9 e1 bb 6f 74 4d 3e
       0.32908103 0.000993785 -0.006894241 0.20063947
0001f0 e9 bb bc 3e 7e c2 af be ff de c9 bd 22 c4 af 3d
       0.36862114 -0.34328073 -0.09856986 0.08582331

l4.bias f4 [2]
000000 ac c6 b9 3c ae b5 bf 3e
       0.022677742 0.37443298
