Formal Experiments/CSI500/BaseLine-LSTM/ModelParm/2024-02-13LSTM.pth (torch, 685134 bytes, 33 tensors)

weight_ih_l0 f4 [256, 7]
0	0x3ce4cf84	0.027930982
1	0xbdab06d6	-0.08350913
2	0xbd4e55fb	-0.050374966
3	0xbd60c0dc	-0.054871425
4	0x3d9ce3d5	0.07660643
5	0xbe68e399	-0.22743072
6	0xbe5ec13b	-0.21753399
7	0x3e82df8c	0.25561178
8	0xbdfd4e14	-0.12368408
9	0xbdfecb32	-0.124411
10	0x3e0741a5	0.13208635
11	0x3c9b4210	0.0189524
12	0xbe39145d	-0.18074174
13	0xbe622828	-0.22085631
14	0xbd06a644	-0.032873407
15	0x3cbe3324	0.023217745
16	0xbe3fec2b	-0.18742435
17	0xbe29fbfd	-0.16600032
18	0xbe2ba134	-0.16760713
19	0x3e627131	0.22113492
20	0x3e55c4c1	0.20875837
21	0xbd60152c	-0.05470769
22	0x3d916283	0.07098868
23	0xbe85d3f5	-0.26138273
24	0xbe2ef117	-0.17084156
25	0xbe8d4fb7	-0.2759988
26	0x3d71a0cb	0.058991235
27	0x3d7470c0	0.05967784
28	0x3e2b11d7	0.16706024
29	0xbd82319b	-0.06357118
30	0x3c6062c0	0.013695419
31	0x3dbc4715	0.09193245
32	0xbde33d34	-0.11095658
33	0x3d823507	0.063577704
34	0x3de2979f	0.11064076
35	0xbd676664	-0.05649413
36	0x3d4bbee2	0.049742587
37	0xbd8f7ff9	-0.07006831
38	0xbe073d84	-0.1320706
39	0xbe36b823	-0.1784368
40	0x3e37f609	0.17964949
41	0x3e906a4f	0.28206107
42	0x3e7b18fe	0.24521253
43	0xbe45f622	-0.19332173
44	0xbddde0cd	-0.10833893
45	0x3d8da558	0.069163024
46	0xbe03491b	-0.12820856
47	0x3da2a00b	0.07940682
48	0x3e7d14f4	0.24715024
49	0x3d32b3bf	0.04362845
50	0x3d830829	0.06398041
51	0xbbea537a	-0.0071510645
52	0xbdc40d5e	-0.09572862
53	0x3cf8ee06	0.030386936
54	0xbe991484	-0.29898465
55	0xbe761818	-0.24032629
56	0x3dacc7f2	0.08436574
57	0xbe18f745	-0.14938076
58	0xbdd5b6c4	-0.104352504
59	0xbd98ac2a	-0.07454713
60	0x3db6b37f	0.08920955
61	0xbe36f4b2	-0.17866781
62	0xbe393e23	-0.1809011
63	0x3d05fc41	0.03271127
64	0xbcf946ba	-0.030429233
65	0xbd0998bc	-0.033592924
66	0xbe1b8adf	-0.15189694
67	0xbdc7b868	-0.097519696
68	0xbe605e5a	-0.21910992
69	0xbd88e1ee	-0.06683718
70	0x3d371f8d	0.044707824
71	0x3bc1c791	0.0059136827
72	0x3daa8498	0.083260715
73	0x3d02ab6e	0.03190177
74	0x3c909520	0.017649233
75	0xbd893dfa	-0.06701274
76	0xbe8c1e15	-0.273667
77	0x3e58a641	0.21157171
78	0xbe2782a0	-0.16358423
79	0xbd29ff13	-0.041503023
80	0x3e3eff74	0.18652135
81	0xbdb25bd1	-0.08708919
82	0xbda79f57	-0.081846885
83	0xbe934cb1	-0.28769448
84	0xbe123266	-0.14277038
85	0x3e0462b0	0.12928271
86	0xbd6f7b44	-0.058467165
87	0x3d5f2215	0.054475863
88	0xbdbf02e2	-0.09326722
89	0xbe2bd4ad	-0.16780348
90	0xbe8a701d	-0.2703866
91	0xbd4b2ba0	-0.04960215
92	0x3e0128ea	0.12613264
93	0xbe26b813	-0.16281156
94	0xbd8b3d0f	-0.067987554
95	0xbe36f347	-0.1786624
96	0x3e18d317	0.14924274
97	0x3da41368	0.08011514
98	0x3e89de37	0.2692735
99	0xbe139353	-0.14411668
100	0xbc182190	-0.009285346
101	0x3e0e3ba7	0.13889943
102	0x3d3db97e	0.046319477
103	0xbe9342bb	-0.2876185
104	0xbdad5813	-0.084640644
105	0xbd944360	-0.07239413
106	0xbcd7bad8	-0.026334211
107	0x3d4ec19d	0.050477613
108	0xbc8f800d	-0.017517114
109	0xbe07f464	-0.13276821
110	0xbc9c35ee	-0.019068684
111	0xbd8ae33f	-0.06781625
112	0x3d38b658	0.04509577
113	0x3d27b1fb	0.04094122
114	0x3dcb0bbe	0.09914349
115	0xbe1fc113	-0.15600996
116	0xbe231a56	-0.15928015
117	0x3e32faf4	0.17478544
118	0x3e1b8899	0.15188827
119	0xbb09f14d	-0.0021048367
120	0x3dc2eb52	0.0951754
121	0x3d6526d6	0.05594524
122	0xbe28c2ff	-0.16480635
123	0x3d3bfd7e	0.045896046
124	0x3dc9a123	0.098451875
125	0x3d8f1ed7	0.06988304
126	0x3dd35ead	0.10320792
127	0x3dcb1413	0.09915938
128	0x3e15b53b	0.14619915
129	0x3d78ed3f	0.06077313
130	0x3d00ac71	0.031414453
131	0xbe748ad7	-0.23881088
132	0xbe321c6b	-0.17393653
133	0xbe197a7a	-0.14988127
134	0x3df3c2c3	0.11902382
135	0xbbdd4658	-0.0067527704
136	0xbe56cc67	-0.20976411
137	0xbe0e6966	-0.13907394
138	0x3e3a984d	0.1822216
139	0x3e823d8f	0.2543759
140	0xbb7735cc	-0.0037721274
141	0x3c457ae1	0.012053222
142	0xbd91a956	-0.071123764
143	0xbd95bf06	-0.073118255
144	0x3c932af8	0.017964825
145	0x3d458a8e	0.04822784
146	0x3d4e9f3c	0.050444826
147	0xbdfef4e5	-0.12449054
148	0x3dab9b0b	0.083791815
149	0xbdd1a9eb	-0.102374874
150	0xbbf458aa	-0.0074568586
151	0xbd85185c	-0.06498787
152	0xbe4c5b70	-0.19956756
153	0xbe0d8709	-0.13821043
154	0x3d8ef719	0.06980724
155	0xbde5d15e	-0.11221574
156	0x3d2e4f2d	0.042555977
157	0x3dafa703	0.08576777
158	0xbdaa9bc6	-0.08330493
159	0xbd746ecd	-0.05967598
160	0xbe36c81d	-0.17849775
161	0xbe3bde8f	-0.18346618
162	0xbd6afbf6	-0.057369195
163	0x3dba0d45	0.09084562
164	0x3dde7df8	0.108638704
165	0x3d0949d3	0.03351767
166	0x3e3971da	0.18109837
167	0x3e73999e	0.23789069
168	0x3dd3b60f	0.10337459
169	0xbdeefe9a	-0.11669655
170	0xbc59fb3e	-0.01330453
171	0x3e1a21b3	0.15051918
172	0x3d535d4d	0.05160265
173	0xbdab1de2	-0.08355309
174	0xbd32795a	-0.04357276
175	0xbdb12939	-0.08650441
176	0x3bd1e50f	0.0064054797
177	0xbd962a20	-0.073322535
178	0xbd41a006	-0.04727175
179	0xbe61f2b2	-0.22065237
180	0x3e17ad42	0.14812186
181	0x3e398ec4	0.18120867
182	0xbcb3c0c5	-0.021942506
183	0xbc50a99a	-0.012735749
184	0xbe3b54db	-0.18294089
185	0xbd2ec4d5	-0.042668182
186	0xbba96b71	-0.0051702787
187	0x3e297074	0.16546804
188	0x3e61f495	0.22065957
189	0x3ce08683	0.02740789
190	0xbd4d998a	-0.050195254
191	0x3d077bbb	0.033076983
192	0xbe218a78	-0.15775478
193	0xbe13a66d	-0.14418955
194	0x3de41fe9	0.11138899
195	0x3e5135a2	0.20430616
196	0xbc92a3eb	-0.017900428
197	0xbda4fde4	-0.08056238
198	0xbd91f856	-0.071274444
199	0x3d7dbba1	0.061946515
200	0xbe391f5d	-0.1807837
201	0x3e1f0e3c	0.15532774
202	0x3e78f37b	0.2431163
203	0x3e79f565	0.24410017
204	0xbe80dc5b	-0.25168118
205	0xbe39d2ee	-0.1814687
206	0xbd90c358	-0.07068509
207	0xbe087e20	-0.13329363
208	0x3e7de7ab	0.24795406
209	0x3db4013e	0.087892994
210	0xbabb20f7	-0.0014276792
211	0xbdb07226	-0.08615522
212	0xbe10f450	-0.14155698
213	0xbbf7c4de	-0.00756131
214	0x3d817a82	0.06322195
215	0x3e5fa84a	0.21841541
216	0x3df22fcb	0.11825522
217	0x3cb28f7b	0.021796932
218	0x3da70276	0.08154766
219	0x3cc078bf	0.023495076
220	0xbe0f4bcb	-0.13993756
221	0xbe424c56	-0.18974432
222	0x3e721dff	0.23644255
223	0x3e95a35b	0.29226193
224	0xbd95e1ef	-0.07318484
225	0xbdbac3bd	-0.09119365
226	0xbe4ba250	-0.19886136
227	0xbe34b031	-0.17645337
228	0xbd3633b4	-0.0444829
229	0x3dcc2fff	0.09970092
230	0x3d64d635	0.055868346
231	0xbd37eb0f	-0.044901904
232	0xbe0b9b1f	-0.13633393
233	0x3abe83fa	0.0014535182
234	0x3dad6ceb	0.0846804
235	0xbd9966c1	-0.07490302
236	0x3e4baa7b	0.19889252
237	0x3dfee6d9	0.124463744
238	0xbdff3875	-0.1246194
239	0xbdc34337	-0.095343046
240	0xbdd2f6b7	-0.10300963
241	0xbe5e03ac	-0.21681088
242	0xbe0b7da7	-0.13622151
243	0x3e9e27d9	0.30889776
244	0x3e99edbf	0.30064198
245	0xbb718cb3	-0.0036857545
246	0xbe87e016	-0.26538152
247	0xbccf54b7	-0.02530895
248	0xbd5bd690	-0.05367142
249	0xbe7a6acc	-0.24454802
250	0x3e985556	0.29752606
251	0x3e8cba31	0.27485803
252	0xbdc9a591	-0.098460324
253	0x3cdf1817	0.027233167
254	0xbdd4f4a2	-0.103982225
255	0xbe337928	-0.17526686

weight_hh_l0 f4 [256, 64]
0	0xbe91eec8	-0.28502488
1	0xbded87ce	-0.11598168
2	0x3e59f428	0.21284544
3	0x3d261aa9	0.04055277
4	0x3d3013d6	0.042987667
5	0xbd56024d	-0.052248288
6	0x3d8d2cfb	0.06893345
7	0x3e5c125a	0.21491376
8	0xbcaa54c5	-0.020792374
9	0x3e629906	0.22128686
10	0xbd0abd0c	-0.033871695
11	0xbd75e59c	-0.060033426
12	0xbdc1955f	-0.094523184
13	0x3e396577	0.18105112
14	0x3cbb3d3c	0.022856347
15	0x3e7099fc	0.2349624
16	0xbdd83e52	-0.10558762
17	0x3e8d88f8	0.2764356
18	0xbdb72381	-0.08942319
19	0x3e6b946b	0.23005836
20	0xbe610322	-0.21973851
21	0x3e49190e	0.19638464
22	0xbd42f83b	-0.047600012
23	0x3dbe8ee7	0.093046
24	0xbd53394b	-0.05156831
25	0x3e650997	0.2236694
26	0x3dd1eb17	0.10249918
27	0x3e949ee9	0.2902749
28	0x3cd934d2	0.026514445
29	0x3c76ed93	0.015071291
30	0xbd3e241b	-0.04642115
31	0x3dccb954	0.09996286
32	0x3d86dd3f	0.06585168
33	0xbc7ebbc2	-0.015547695
34	0xbe05b17e	-0.13055989
35	0xbbd817b2	-0.0065946216
36	0x3d78089f	0.060555097
37	0x3e90fc3f	0.28317448
38	0xbd886c55	-0.06661288
39	0x3e8c905e	0.27453893
40	0xbe76950f	-0.24080299
41	0x3e1999b3	0.15000038
42	0x3db55f82	0.08856107
43	0xbd8f9d63	-0.07012441
44	0x3e3b958c	0.18318766
45	0xbd5ffd5e	-0.05468499
46	0xbd4fa3ed	-0.05069344
47	0xbdff8a74	-0.1247758
48	0xbd811303	-0.06302454
49	0xbe0c7eac	-0.13720196
50	0x3db982aa	0.09058125
51	0x3e0a8aa9	0.13529457
52	0xbd00866e	-0.031378202
53	0xbd2e2c85	-0.042522926
54	0x3e65aadb	0.22428457
55	0x3e542d5e	0.20720431
56	0x3d903211	0.070407994
57	0x3e153135	0.14569552
58	0xbdc54539	-0.09632344
59	0xbe0e9bfd	-0.13926692
60	0x3e4fea9d	0.20304342
61	0x3e608ece	0.21929476
62	0xbdf7d3c5	-0.12100939
63	0x3e8a688f	0.27032897
64	0x3e91b884	0.28461087
65	0x3e4101eb	0.18848388
66	0xbe869812	-0.26287895
67	0x3e37e33e	0.1795778
68	0xbe12e7cd	-0.14346237
69	0x3da5d7b6	0.08097784
70	0x3e536b87	0.20646487
71	0xbe63ef2c	-0.22259206
72	0xbe425d12	-0.18980816
73	0x3e08139d	0.13288732
74	0xbe1e0e89	-0.15435232
75	0x3e3bb3d0	0.18330312
76	0x3e76c02b	0.24096744
77	0xbe42f5a2	-0.19039014
78	0xbdacb9b0	-0.084338546
79	0xbe3e18e6	-0.18564186
80	0x3e8b8ea8	0.27257276
81	0xbe1a7af5	-0.15085967
82	0xbe884a38	-0.26619124
83	0xbdc5dd06	-0.096612975
84	0x3dad1a4b	0.084522806
85	0xbe59744f	-0.21235774
86	0xbe49642b	-0.19667117
87	0xbe37b478	-0.17939937
88	0xbd4d3e9a	-0.05010853
89	0xbdd11f96	-0.10211103
90	0x3d6e5617	0.05818757
91	0xbe41fc8d	-0.18943997
92	0x3e5ffe55	0.21874364
93	0xbe6e5786	-0.23275575
94	0xbe825c1b	-0.25460896
95	0xbe909acc	-0.282431
96	0xbe660b20	-0.22465181
97	0x3e83da69	0.2575257
98	0x3e7916f5	0.24325164
99	0xbe59c17e	-0.21265218
100	0xbe765f62	-0.24059823
101	0xbe245e6a	-0.16051641
102	0x3e4a0c5c	0.19731277
103	0xbd983dea	-0.07433684
104	0x3e77ba49	0.24192156
105	0xbd55e426	-0.052219532
106	0xbe828904	-0.2549516
107	0xbe8a5e4b	-0.27025065
108	0xbe886f9f	-0.2664766
109	0xbe3d159a	-0.18465272
110	0xbde1399f	-0.109973185
111	0x3e3e1136	0.18561253
112	0xbe3cdcbd	-0.1844358
113	0x3e12436d	0.14283533
114	0x3e3d7b2a	0.18504015
115	0x3e29c8a8	0.1658045
116	0x3d874fb0	0.06606996
117	0xbe899990	-0.2687497
118	0xbdbf4255	-0.09338824
119	0x3d7506ca	0.059820928
120	0x3e5e34a0	0.21699762
121	0xbe7aa521	-0.24477054
122	0x3de6aa4b	0.112629496
123	0x3deed12a	0.11660989
124	0xbe3b1622	-0.18270162
125	0xbe44b42e	-0.19209358
126	0x3e3fad9e	0.18718573
127	0xbe50d9af	-0.2039554
128	0xbe41c6c5	-0.18923481
129	0xbc6a6ed9	-0.014308655
130	0x3dc3a546	0.09553008
131	0xbdcc1ee4	-0.099668294
132	0x3bd7b2fe	0.006582617
133	0xbe9c523f	-0.305315
134	0x3c854bb6	0.016271453
135	0x3e4bbbf8	0.19895923
136	0x3da70125	0.08154515
137	0x3db358e3	0.08757188
138	0x3dbb0524	0.0913184
139	0xbceb7bf7	-0.028745634
140	0xbe25e2f9	-0.16199864
141	0x3e5bed2c	0.21477193
142	0xbc21c99a	-0.009874726
143	0x3e9e922b	0.30970892
144	0xbe558f35	-0.2085541
145	0x3e106fd1	0.14105155
146	0x3cdfb502	0.027307991
147	0x3e9c29ce	0.30500644
148	0xbe3036bb	-0.17208378
149	0x3e349316	0.17634234
150	0xbb2c6a2a	-0.0026308396
151	0x3e282e18	0.16423833
152	0x3dbc8fb2	0.09207095
153	0x3e18c694	0.14919502
154	0xbdda7d42	-0.10668422
155	0x3da903b4	0.082526594
156	0xbdc77316	-0.09738748
157	0xbd07df06	-0.033171676
158	0x3dc4a6b2	0.09602107
159	0x3e8ff983	0.2812005
160	0x3e212431	0.15736462
161	0xbdaea5ba	-0.085277036
162	0xbddcf3a5	-0.10788659
163	0x3e13553c	0.14387983
164	0x3ddec72e	0.10877834
165	0x3e95c333	0.29250488
166	0xbe3f7960	-0.18698645
167	0x3dbc0f60	0.0918262
168	0xbe95cc89	-0.2925761
169	0x3dc0da2c	0.09416613
170	0x3d81b812	0.06333937
171	0x3c5b596a	0.013388017
172	0x3e5deb16	0.2167171
173	0x3dee1788	0.11625582
174	0x3e00de13	0.12584715
175	0x3d57d74f	0.05269557
176	0xbc178c39	-0.00924974
177	0xbe11c586	-0.14235505
178	0xbe007c27	-0.1254736
179	0x3d9ecc96	0.077538654
180	0xbe10426b	-0.14087836
181	0xbb8e3b51	-0.004340567
182	0x3e75c565	0.24001081
183	0xbe104cce	-0.14091799
184	0xbc5d358b	-0.013501535
185	0x3e11d61c	0.14241832
186	0xbe5ad095	-0.2136863
187	0xbe895a21	-0.26826575
188	0x3e801ce3	0.2502204
189	0x3db45108	0.08804518
190	0xbd8edd1b	-0.06975766
191	0x3d546f4f	0.051863965
192	0x3d7c4c3d	0.061596144
193	0x3d756c61	0.05991781
194	0x3e5413fc	0.20710748
195	0xbe4e526a	-0.20148626
196	0xbc667f84	-0.014068488
197	0xbe1c45c9	-0.15260996
198	0x3def0a23	0.11671855
199	0x3d6c2ec2	0.05766178
200	0xbd643a81	-0.055719856
201	0xbe088323	-0.13331275
202	0x3d2f5cde	0.042813174
203	0xbd244dfb	-0.04011343
204	0xbe737805	-0.23776253
205	0x3e23316a	0.15936819
206	0x3cb25577	0.021769268
207	0x3e33162f	0.17488931
208	0xbe24c4d2	-0.16090706
209	0x3ea1ce87	0.3160288
210	0xbd395065	-0.045242686
211	0x3e3e4659	0.18581523
212	0xbe1b1089	-0.15143026
213	0x3dd198a1	0.1023419
214	0xbda79be8	-0.08184034
215	0x3e2bb493	0.16768102
216	0xbd80f533	-0.06296768
217	0x3e9c9549	0.30582646
218	0xbe5961d0	-0.21228719
219	0x3e9ceb00	0.3064804
220	0x3dfd83ba	0.123786405
221	0x3cdce83b	0.026966205
222	0xbc41e0e4	-0.011833403
223	0x3e7c3de3	0.24632983
224	0x3e77513a	0.24152079
225	0x3e172f74	0.14764196
226	0xbe8a5170	-0.27015257
227	0x3e31529d	0.1731667
228	0x3d9830ba	0.07431169
229	0x3e704563	0.23463969
230	0xbdcc0142	-0.099611774
231	0x3e9741b9	0.2954233
232	0xbe6360d5	-0.22204907
233	0x3db41fa1	0.08795095
234	0x3d90009f	0.070313685
235	0xbdb7a8ff	-0.0896778
236	0x3e919a71	0.28438142
237	0x3c4ddaf0	0.012564406
238	0x3e108e9d	0.14116903
239	0xbd8c7184	-0.06857589
240	0xbd82cb84	-0.06386474
241	0xbdfb9d17	-0.12285822
242	0xbe02f2e1	-0.12787963
243	0x3c81ea3b	0.01585876
244	0x3d1d43e7	0.038394835
245	0x3e19b80a	0.15011612
246	0x3e09830f	0.13428901
247	0xbd894333	-0.0670227
248	0xbd80dca3	-0.06292083
249	0x3d623f68	0.05523625
250	0xbe144518	-0.14479482
251	0xbe86ca1a	-0.26326066
252	0x3e518a12	0.20462826
253	0x3e58c290	0.2116797
254	0x3cd9299c	0.026509099
255	0x3e578824	0.21048027

bias_ih_l0 f4 [256]
0	0xbde713db	-0.11283084
1	0x3e80b336	0.25136727
2	0x3db97442	0.090553775
3	0xbd6dbb35	-0.058039863
4	0x3e854a5b	0.2603329
5	0xbd8a9481	-0.06766606
6	0x3e246463	0.1605392
7	0xbdd3910c	-0.103304
8	0x3d3b200d	0.045684863
9	0x3dcdedae	0.100550994
10	0x3d82594b	0.063646875
11	0x3e52ae11	0.20574214
12	0xb9f68667	-0.00047020914
13	0xbe123ee8	-0.1428181
14	0x3e7cb4dd	0.24678369
15	0xbd9d5da4	-0.07683876
16	0x3b94168b	0.004519289
17	0x3d0a9352	0.0338319
18	0x3e1078cb	0.14108579
19	0xbdb8b5db	-0.09019061
20	0xbd8ba6be	-0.06818913
21	0xbd8eb521	-0.06968141
22	0x3e7c1df3	0.246208
23	0xbe0273ea	-0.1273953
24	0x3e100e90	0.14068055
25	0xbe09e515	-0.13466294
26	0xbcb2390c	-0.021755718
27	0x3d8512a3	0.06497695
28	0x3d61fef7	0.055174794
29	0x3e579669	0.2105347
30	0x3d5a35e5	0.053274054
31	0x3daae59b	0.08344575
32	0x3dae0573	0.08497133
33	0x3d94e09c	0.07269403
34	0x3c8a3c9f	0.01687461
35	0x3d82b9f2	0.063831225
36	0x3db42144	0.087954074
37	0xbe3de468	-0.18544161
38	0xbcf25a88	-0.029584184
39	0xbb49833d	-0.003074839
40	0xbd0e3575	-0.03471895
41	0xbdc0154e	-0.093790635
42	0xbd08bb6c	-0.033381864
43	0x3e1744d9	0.14772357
44	0xbdfce9d7	-0.12349289
45	0x3da567df	0.080764525
46	0x3e68205f	0.22668599
47	0x3e5abf7d	0.2136211
48	0x3e953d92	0.29148537
49	0x3dc662b3	0.09686794
50	0x3d98bab1	0.074574836
51	0xbca75bdd	-0.020429546
52	0x3e3dc81f	0.18533371
53	0x3de4cb67	0.111716084
54	0xbe005251	-0.12531401
55	0x3e914a55	0.28377023
56	0x3e4ccc02	0.19999698
57	0x3e895494	0.2682234
58	0xbcda8ded	-0.026679004
59	0xb9f48d97	-0.000466448
60	0xbd2b7d8f	-0.04186779
61	0x3ccdc72c	0.025119387
62	0x3e85e075	0.2614781
63	0xbd99be80	-0.07507038
64	0xbe0e3207	-0.13886271
65	0x3e3d5ee2	0.18493226
66	0xbc4a675f	-0.012353747
67	0xbe3215f2	-0.17391184
68	0x3d4ac659	0.049505565
69	0xbddfb72a	-0.10923608
70	0x3e40adac	0.1881625
71	0xbe645385	-0.22297485
72	0x3d66a80a	0.0563126
73	0xbd74681e	-0.059669606
74	0x3e1f0a02	0.15531161
75	0x3e5f37c2	0.21798614
76	0xbd63ed7c	-0.055646405
77	0xbe45fcd9	-0.19334735
78	0x3d3b7a62	0.04577101
79	0xbe848188	-0.25880075
80	0xbd3d7f0f	-0.04626375
81	0xbe4d61c1	-0.20056821
82	0xbd143574	-0.03618379
83	0xbe7d7050	-0.24749875
84	0xbd73f435	-0.059559066
85	0xbe494c21	-0.19657947
86	0x3e440185	0.19141205
87	0xbe42fea2	-0.19042447
88	0x3e0ad084	0.13556105
89	0xbdc0c0a7	-0.094117455
90	0xbd311fcd	-0.04324322
91	0xbe149984	-0.14511687
92	0x3c5c5711	0.013448493
93	0x3e4c3d07	0.19945155
94	0x3dd09014	0.10183731
95	0x3cb08cdf	0.021551548
96	0xbe1b0479	-0.15138425
97	0x3cd6fea5	0.02624447
98	0xbd90a191	-0.07062066
99	0x3c71bfaa	0.014755169
100	0xbc40bf29	-0.011764326
101	0xbe4ddb25	-0.20103128
102	0xbdc29dcf	-0.09502756
103	0xbe013a92	-0.12619999
104	0xbe667e3a	-0.22509089
105	0xbd5f21af	-0.054475483
106	0xbe01547d	-0.12629886
107	0xbd57d7f9	-0.052696202
108	0xbe2ba3fd	-0.16761775
109	0x3d8dce79	0.06924147
110	0x3e136a7a	0.14396086
111	0x3e257241	0.16156866
112	0x3e40a438	0.18812644
113	0xbdf71e9b	-0.120663844
114	0x3dda9ba5	0.10674218
115	0x3da9f693	0.082989834
116	0x3e52931b	0.20563929
117	0x3e91cca8	0.28476453
118	0xbe60cd5a	-0.21953335
119	0x3e6cf0e7	0.23138772
120	0x3e477ea8	0.1948191
121	0x3e5e4c2c	0.21708745
122	0xbe38d49f	-0.18049859
123	0x3db84dd8	0.089992225
124	0xbe608080	-0.21924019
125	0xbbc8ffe6	-0.006134021
126	0x3e850e02	0.2598725
127	0xbd73c609	-0.059515033
128	0xbde3b52e	-0.11118542
129	0x3e312a46	0.17301282
130	0x3de3f876	0.111313745
131	0xbe8406d6	-0.25786465
132	0xbe2c3d3e	-0.16820237
133	0xbdfd2c4d	-0.12361965
134	0x3e5424ab	0.20717113
135	0x3e20c397	0.15699612
136	0xbe02a5c7	-0.12758552
137	0x3e63eb21	0.22257663
138	0xbdecb393	-0.115576886
139	0x3e8a2162	0.26978594
140	0xbdc3a776	-0.09553425
141	0x3de97346	0.1139894
142	0xbe6ed65a	-0.23323956
143	0x3d8feaa2	0.070271745
144	0xbdaf1701	-0.085493095
145	0x3d60dd95	0.054898817
146	0xbde1609d	-0.11004756
147	0x3d637be4	0.055538073
148	0xbe2ad85e	-0.166841
149	0x3de27c28	0.11058837
150	0xbe3512f4	-0.17683011
151	0x3e72bfe1	0.23706008
152	0xbe2af99c	-0.16696781
153	0x3e094746	0.13406095
154	0xbe80f0c0	-0.25183678
155	0x3e050f39	0.12994088
156	0x3e1d1d8d	0.15343304
157	0xbe942da6	-0.28941077
158	0xbe06ac9c	-0.13151783
159	0x3da93c7a	0.08263488
160	0x3dadd54b	0.08487948
161	0x3e3da7be	0.1852102
162	0xbdb42955	-0.08796946
163	0x3dad3882	0.08458044
164	0x3e13ab8a	0.14420906
165	0x3d51da25	0.05123343
166	0xbdb4f45c	-0.0883567
167	0x3e0e611c	0.13904232
168	0xbd6dc01d	-0.05804454
169	0x3d5e96cf	0.05434304
170	0x3db9adf7	0.09066384
171	0xbe743928	-0.23849928
172	0x3e02a3ec	0.12757844
173	0xbe8ddfe5	-0.2770988
174	0xbd85fcb8	-0.06542343
175	0x3e3151f3	0.17316417
176	0xbe14eb4b	-0.14542882
177	0xbe612118	-0.2198528
178	0x3e79c87b	0.24392883
179	0x3d3bf0b0	0.045883834
180	0x3e934efd	0.287712
181	0xbe543936	-0.20724949
182	0x3dc021d0	0.09381449
183	0x3dd0401e	0.101684794
184	0x3df69564	0.12040213
185	0xbe8c93cb	-0.27456507
186	0xbd9ea29e	-0.077458605
187	0xbe19d0ad	-0.1502101
188	0x3e29b342	0.16572288
189	0x3e04f7b1	0.12985112
190	0x3da5202a	0.080627754
191	0x3dd07fc0	0.101806164
192	0xbd2f86b0	-0.042853057
193	0xbccbc3ba	-0.024873603
194	0xbd83316a	-0.06405909
195	0xbe078a04	-0.13236243
196	0x3db55d46	0.08855681
197	0x3aff20e8	0.0019464763
198	0xbd861656	-0.06547229
199	0x3cc7b82f	0.024379818
200	0xbd6f672d	-0.058448005
201	0xbd88d012	-0.06680311
202	0x3d77f6ea	0.06053821
203	0x3d8fbe71	0.07018746
204	0x3b0c79da	0.0021434934
205	0x3d976e53	0.073940895
206	0x3c956e60	0.018241107
207	0xbb97be13	-0.004630813
208	0x3ccbd720	0.024882853
209	0xbdff97f2	-0.12480153
210	0x3dac6d38	0.08419269
211	0xbd18e7ae	-0.037330322
212	0xbb76c705	-0.0037655246
213	0xbdc9cfe6	-0.098541066
214	0x3c9fc4ba	0.019502986
215	0xbe5425a8	-0.2071749
216	0x3df097f1	0.117477305
217	0xbdd7e82a	-0.10542329
218	0x3d805a6e	0.06267248
219	0x3d071656	0.032980286
220	0xbd98c288	-0.07458979
221	0xbcdb0a36	-0.026738267
222	0x3e014bb6	0.12626538
223	0xbd18e49a	-0.037327386
224	0x3d2768d4	0.040871456
225	0xbda5f9b1	-0.081042655
226	0x3d985f5a	0.07440062
227	0xbd51606a	-0.05111734
228	0xbd9a5faf	-0.075377814
229	0xbe394f19	-0.1809658
230	0xbe1b61a7	-0.1517397
231	0x3d406ec0	0.04698062
232	0x3cdfe836	0.027332406
233	0xbe025c0f	-0.1273043
234	0x3ae9aee7	0.0017828614
235	0x3ce1803b	0.027526965
236	0x3cc048af	0.023472158
237	0xbd9d8e9c	-0.07693216
238	0x3d0602b5	0.032717425
239	0x3b91a029	0.0044441414
240	0x3c8076c1	0.015681626
241	0xbdd9cd89	-0.10634906
242	0x3df88949	0.1213556
243	0xbda2add5	-0.07943312
244	0x3c5bd022	0.013416322
245	0xbd9faa85	-0.07796196
246	0xbcc24c46	-0.02371801
247	0xbd842913	-0.06453147
248	0x3da8c231	0.08240164
249	0x3c0d0dcb	0.0086092455
250	0xbdacd316	-0.08438699
251	0xbda0ae38	-0.078457296
252	0xbe08cdae	-0.1335971
253	0x3d012e94	0.03153856
254	0x3b4f6da4	0.0031651044
255	0xbd77845a	-0.060428955

bias_hh_l0 f4 [256]
0	0xbdd7f063	-0.10543897
1	0x3e7837f4	0.24240094
2	0xbc932137	-0.017960174
3	0xbd3c1225	-0.04591574
4	0x3e2b26e8	0.1671406
5	0x3bed1353	0.0072349696
6	0x3e92af09	0.28649166
7	0xbe1a4b4c	-0.15067786
8	0x3e4ed682	0.20199016
9	0x3e7437f3	0.23849468
10	0x3e2fc41e	0.17164657
11	0x3e400d8e	0.1875517
12	0x3c994296	0.018708508
13	0xbe10aeba	-0.14129153
14	0x3e2b23ba	0.16712847
15	0x3c967c0f	0.018369703
16	0xbd14628b	-0.03622679
17	0xbd7405c4	-0.05957581
18	0xbd1e1b67	-0.03860035
19	0xbdeb732d	-0.114965774
20	0xbdd5ce76	-0.1043977
21	0x3dab7b75	0.08373157
22	0x3e23f2be	0.16010568
23	0xbe3cf1d1	-0.1845162
24	0x3e85db25	0.26143757
25	0x3dad051e	0.08448242
26	0x3cc3e83c	0.023914449
27	0xbe0173dc	-0.12641853
28	0x3e8b8e8e	0.27257198
29	0x3e5a6bc9	0.2133018
30	0x3e5ad73f	0.21371172
31	0x3d1d2366	0.038363837
32	0xbe15286f	-0.14566205
33	0xbd1b69a0	-0.03794253
34	0xbdbf3d74	-0.09337893
35	0x3d89a022	0.06719996
36	0x3da6cede	0.081449255
37	0x3d08f343	0.033435117
38	0xbe07f7f0	-0.13278174
39	0xbda2dc55	-0.07952181
40	0x3cffe067	0.031234933
41	0xbc5c2e8a	-0.01343883
42	0x3dad0270	0.084477305
43	0xbd539230	-0.051653087
44	0xbe23da6c	-0.1600129
45	0x3e034455	0.12819035
46	0x3e521c13	0.20518522
47	0x3e5fa255	0.21839269
48	0x3e268e73	0.16265278
49	0x3d4ec3c7	0.050479677
50	0x3e925cc9	0.28586414
51	0x3c93ba93	0.018033301
52	0x3dc46716	0.095899746
53	0x3dfa4481	0.12220097
54	0x3cb19461	0.021677198
55	0x3d5240c5	0.0513313
56	0x3d9a6aab	0.075398766
57	0x3e19c0b2	0.15014914
58	0xbd03cdb3	-0.032178592
59	0x3a80271a	0.0009777278
60	0xbe1e79c8	-0.15476143
61	0xbc043267	-0.0080686575
62	0x3e35659c	0.17714542
63	0x3c831278	0.016000018
64	0xbd79df72	-0.06100411
65	0x3de42931	0.11140669
66	0xbe44f1d0	-0.19232869
67	0xbe0c5f64	-0.13708264
68	0x3e46d63a	0.19417658
69	0xbe1d9ed5	-0.15392621
70	0x3e8cbf1a	0.2748955
71	0xbe0b2238	-0.13587272
72	0x3e8a6624	0.27031052
73	0x3db6f29e	0.08932994
74	0xbd10560e	-0.03523832
75	0x3e24c447	0.16090499
76	0xbdf15d10	-0.117853284
77	0xbe01fef9	-0.1269492
78	0x3df605b3	0.12012806
79	0xbe7d6479	-0.24745359
80	0xbe8bae25	-0.272813
81	0xbc295d37	-0.010337166
82	0x3b65a2fd	0.0035039776
83	0xbd9e6b42	-0.077353016
84	0xbe395f31	-0.18102719
85	0xbd92766f	-0.07151496
86	0x3d54bda4	0.051938668
87	0xbe38df15	-0.18053849
88	0x3e6fbc96	0.23411784
89	0xbe31c8cc	-0.17361754
90	0xbdfb0b96	-0.12258069
91	0xbdd77625	-0.10520581
92	0x3e0321f8	0.12805927
93	0x3dc940d4	0.09826818
94	0x3e7ffebf	0.24999522
95	0xbe51f026	-0.20501766
96	0xbdbbdcf6	-0.09173004
97	0x3daa01cd	0.08301125
98	0xbdd614b5	-0.10453168
99	0xbdfca776	-0.12336628
100	0xbd26148a	-0.04054693
101	0xbde522b1	-0.111882575
102	0xbd7bbf12	-0.061461516
103	0x3dca61ba	0.09881921
104	0xbdb2686b	-0.087113224
105	0xbd084937	-0.033272948
106	0xbc8521d8	-0.01625149
107	0x3e16d5f5	0.14730056
108	0xbe8359ea	-0.25654536
109	0x3e21e7da	0.158111
110	0x3de535ca	0.111919
111	0x3d510c12	0.0510369
112	0x3dc7d242	0.097569
113	0xbe27f0fe	-0.16400525
114	0x3e56a057	0.20959602
115	0xbdbe51d5	-0.09292952
116	0x3d39e9c5	0.045388956
117	0x3e2f46ea	0.17116895
118	0xbd49180a	-0.04909519
119	0x3e8d3ef7	0.275871
120	0x3dc843e5	0.09778575
121	0x3e8f7db8	0.28025603
122	0xbe5aa281	-0.21351053
123	0x3c7afd7f	0.015319227
124	0xbe19dee1	-0.15026428
125	0xbe20e8f3	-0.15713863
126	0x3e71634e	0.23573038
127	0x3d451a5d	0.048120845
128	0xbe63ecfc	-0.22258371
129	0x3e8d6dec	0.27622926
130	0x3e54b710	0.20772958
131	0xbdb84612	-0.0899774
132	0xbe4efa1e	-0.202126
133	0xbe56c209	-0.20972456
134	0x3e38422f	0.17993997
135	0x3e10d8e0	0.14145231
136	0xbe824044	-0.25439656
137	0x3dfbba7e	0.1229143
138	0xbe7fcf33	-0.24981384
139	0x3e6042fc	0.21900553
140	0xbd5bf158	-0.05369696
141	0x3e3831c9	0.17987742
142	0xbe273619	-0.1632923
143	0x3d6c2721	0.057654504
144	0xbd846327	-0.06464224
145	0x3dfe69e7	0.12422543
146	0xbe583e23	-0.21117453
147	0x3dfdd0a6	0.12393312
148	0xbd9ce9ed	-0.07661805
149	0x3d6f0cb3	0.05836172
150	0xbe4d9cc9	-0.2007934
151	0x3d9c1d69	0.07622797
152	0xbe92d551	-0.28678373
153	0x3e254a11	0.16141535
154	0xbda3f26f	-0.08005225
155	0x3e0785b5	0.13234599
156	0x3e714d27	0.23564588
157	0xbe086296	-0.13318858
158	0xbe8f3d40	-0.27976418
159	0x3de19a54	0.11015764
160	0x3e636017	0.22204624
161	0x3e4f157a	0.20223036
162	0xbd910fe3	-0.07083108
163	0x3e80b100	0.2513504
164	0x3db898a9	0.090134926
165	0x3e4a2980	0.19742393
166	0xbdabc7d8	-0.083877265
167	0x3e6f9266	0.2339569
168	0xbe23daf3	-0.16001491
169	0x3e09eb45	0.13468654
170	0x3e12b62f	0.1432731
171	0xbe07d875	-0.13266166
172	0x3e0ecfdf	0.13946484
173	0xbe58836a	-0.2114388
174	0xbe930ed6	-0.28722256
175	0x3e767134	0.24066621
176	0xbe910787	-0.28326055
177	0xbe015045	-0.12628277
178	0x3e72bbcc	0.23704451
179	0x3d69f46c	0.057117864
180	0x3e1b16df	0.15145443
181	0xbe891261	-0.26771834
182	0x3dc66e54	0.09689012
183	0x3e6d9b6a	0.23203817
184	0x3e56e82f	0.20987009
185	0xbe6cb6e4	-0.23116642
186	0xbd951e16	-0.07281129
187	0xbe407871	-0.18795945
188	0x3df1086c	0.117691845
189	0x3dfbef57	0.1230151
190	0x3e8da6ef	0.27666423
191	0x3e6ed8fa	0.23324957
192	0xbdbdeb43	-0.09273388
193	0x3d99e8c9	0.07515103
194	0xbd3ea0d0	-0.04654008
195	0x3d7834a6	0.060597084
196	0x3cc5a802	0.024127964
197	0xbe1fc5c6	-0.15602788
198	0x3d2ee4e7	0.042698767
199	0xbae82718	-0.0017711846
200	0xbd5e8701	-0.05432797
201	0x3e03703c	0.12835783
202	0x3c2dfcdf	0.010619371
203	0x3d3d5679	0.046225045
204	0xbdb4d6b6	-0.08830015
205	0xbc1f40ca	-0.009720037
206	0x3dcece60	0.10097957
207	0xbde1e09c	-0.11029169
208	0x3d9ac738	0.07557529
209	0x3c4bf30e	0.0124480855
210	0x3dc455e8	0.09586698
211	0x3c386c19	0.011256241
212	0xbdcbc035	-0.0994877
213	0xbe0c6379	-0.13709821
214	0x3d841e55	0.06451098
215	0xbe3f8008	-0.18701184
216	0xbd38396e	-0.044976644
217	0xbdeda718	-0.11604136
218	0xbd7bdaf5	-0.06148811
219	0x3da6a9ed	0.081378795
220	0xbd266475	-0.040623147
221	0xbd33624b	-0.04379491
222	0x3ded3cf8	0.115838945
223	0xbe18a0ef	-0.14905141
224	0xbda8ce18	-0.08242434
225	0xbcacf70b	-0.021113893
226	0x3da92a8c	0.08260068
227	0xbdecd42f	-0.11563908
228	0xbe081959	-0.1329092
229	0xbdde2ad1	-0.1084801
230	0xbdc31e8a	-0.09527309
231	0xbc9a2df8	-0.018820748
232	0x3ce870ce	0.028374102
233	0xbd4013f8	-0.046894044
234	0xbe176e72	-0.14788225
235	0xbd576783	-0.05258895
236	0x3d709558	0.058736175
237	0x3ddfff3c	0.10937354
238	0x3dcfb51f	0.10141968
239	0x3b008d91	0.001961563
240	0xbba180db	-0.004928691
241	0xbc298e63	-0.010348889
242	0xbc5031ab	-0.012707154
243	0x3d70a663	0.05875243
244	0xbd55055b	-0.05200706
245	0xbd748de6	-0.059705637
246	0xbdd95e58	-0.10613698
247	0x3d16ad55	0.036786396
248	0xbc4d52ea	-0.012531975
249	0x3da6aa5f	0.081379645
250	0xbd057fda	-0.032592632
251	0xbdb4d0fc	-0.08828923
252	0xbb433b3d	-0.0029789947
253	0xbdc36114	-0.095400006
254	0xbd8ce711	-0.0688001
255	0xbdb4767d	-0.08811662

weight_ih_l1 f4 [256, 64]
0	0xbeb4e5dc	-0.3533162
1	0x3f61a49c	0.881418
2	0x3ed75933	0.4206024
3	0xbf4889c3	-0.7833521
4	0xbf65c7d8	-0.8975806
5	0xbf198455	-0.5996755
6	0x3f3677c1	0.7127648
7	0x3e7bfddd	0.2460856
8	0xbf2cf890	-0.67566776
9	0x3f092625	0.5357383
10	0xbf292fb1	-0.66088396
11	0x3f6ea52b	0.93220776
12	0xbe4b003a	-0.19824305
13	0x3ef65915	0.4811484
14	0xbf58775d	-0.84557134
15	0x3e94c705	0.2905809
16	0xbecebc13	-0.40377864
17	0x3f0f8d4a	0.56074965
18	0xbf09ba43	-0.5379984
19	0x3e9a4e02	0.3013764
20	0xbec17589	-0.37784985
21	0x3e89a21f	0.268815
22	0xbf5854ff	-0.84504694
23	0xbe624d9c	-0.22099918
24	0xbf4c930e	-0.7991189
25	0x3f1725a7	0.5904183
26	0xbf17a6ae	-0.5923871
27	0x3e9a37f3	0.3012081
28	0x3ed5af2d	0.4173521
29	0xbf323e20	-0.69626045
30	0xbf6ef1cb	-0.93337697
31	0x3e6dd9a7	0.23227559
32	0x3f0a476f	0.5401525
33	0x3e8dd401	0.2770081
34	0xbea625b0	-0.32450628
35	0x3f0f67ec	0.5601795
36	0x3e8ff172	0.28113896
37	0x3f0f6da7	0.5602669
38	0xbeb3e9c3	-0.35139284
39	0x3f1c6aa0	0.61100197
40	0xbef95628	-0.48698545
41	0x3f000204	0.50003076
42	0x3edcb1bf	0.4310436
43	0xbe9f802c	-0.31152475
44	0x3eebc499	0.4604843
45	0xbf4370f0	-0.76344204
46	0xbf4c5bc5	-0.7982753
47	0x3f45c7ec	0.7725818
48	0xbf708dae	-0.93966186
49	0xbefaab97	-0.48959038
50	0x3f7231a3	0.9460699
51	0xbe0ca45d	-0.13734575
52	0x3f35ffd7	0.71093506
53	0xbf29cdf4	-0.66329885
54	0x3e9daf1b	0.30797657
55	0x3f25a4aa	0.6470438
56	0x3f51026a	0.8164431
57	0xbf6e503a	-0.93091166
58	0xbec92575	-0.3928639
59	0xbf0a36f1	-0.53990084
60	0x3eeecc7b	0.4664038
61	0x3eeba7cb	0.46026453
62	0x3f5ed81d	0.8704851
63	0x3eb44b23	0.35213575
64	0x3f064c7b	0.5246045
65	0xbf9537f8	-1.1657705
66	0xbeca40c1	-0.39502528
67	0x3f6cd4b2	0.9251205
68	0x3f6e1434	0.9299958
69	0x3f0d84cc	0.55280757
70	0xbf90f304	-1.1324162
71	0xbe32acd1	-0.17448737
72	0x3f9a53fc	1.205688
73	0xbfa4b316	-1.2867153
74	0x3f893ecf	1.0722293
75	0xbf8895df	-1.0670737
76	0x3eb682ec	0.3564676
77	0xbec8644a	-0.39139014
78	0x3f8807ab	1.062734
79	0xbeb9b735	-0.36272588
80	0x3ef1dc65	0.4723846
81	0xbecc9577	-0.39957783
82	0x3f8734f5	1.0563036
83	0xbef2acd7	-0.4739749
84	0x3f05ccf7	0.52265877
85	0xbe456002	-0.19274905
86	0x3fa596f8	1.2936697
87	0x3d7f0cd3	0.06226809
88	0x3f6b9257	0.9202017
89	0xbef9695a	-0.4871319
90	0x3f5fbcf7	0.8739771
91	0xbf0166dc	-0.50547576
92	0xbf7be3f0	-0.9839468
93	0x3f8fc5ad	1.1232201
94	0x3fa0f329	1.2574207
95	0xbf0cb410	-0.54962254
96	0xbf2bbd2f	-0.67085546
97	0xbf953525	-1.1656843
98	0x3ee29e65	0.4426147
99	0xbf290693	-0.66025656
100	0xbf1bc28a	-0.6084372
101	0xbec15f85	-0.37768188
102	0x3eecd0ef	0.46253154
103	0xbf671fb7	-0.9028277
104	0x3ebe4331	0.37160638
105	0xbede2d64	-0.43394005
106	0xbe99907a	-0.2999304
107	0x3fac42d4	1.3457894
108	0xbea78dfe	-0.3272552
109	0x3f85e409	1.0460216
110	0x3f943e12	1.1581442
111	0xbfa5fad4	-1.2967172
112	0x3f82b8d0	1.021265
113	0x3f2fe220	0.68704414
114	0xbf89fa3f	-1.0779494
115	0x3f1940b8	0.5986438
116	0xbf8e3e50	-1.1112766
117	0x3f8880ae	1.066427
118	0xbec0aec2	-0.3763333
119	0xbf916866	-1.1359985
120	0xbf4b18fa	-0.79334986
121	0x3f6b7666	0.91977537
122	0x3f46e508	0.77693224
123	0x3f62ec45	0.8864177
124	0xbec76554	-0.38944495
125	0xbeb3e29d	-0.3513383
126	0xbf9a811d	-1.2070652
127	0xbf01e629	-0.5074182
128	0x3ecc5d3a	0.39914876
129	0xbf395477	-0.7239451
130	0xbec8382e	-0.39105362
131	0x3ebca72f	0.368463
132	0x3f06b85e	0.5262507
133	0x3f1ca58f	0.6119012
134	0xbf316659	-0.69296795
135	0xbf1b80bb	-0.607433
136	0x3f37bd6d	0.71773416
137	0xbf1b424c	-0.60648036
138	0x3f0cce21	0.5500203
139	0xbf26670f	-0.65001005
140	0x3f33163b	0.69955796
141	0xbf018e59	-0.5060783
142	0x3f12a275	0.5727914
143	0xbf197e9e	-0.5995883
144	0x3f042b74	0.51628804
145	0xbf1a999a	-0.6039063
146	0x3f395a4b	0.724034
147	0xbef42351	-0.47683194
148	0x3f065ba3	0.52483577
149	0xbed31468	-0.41226506
150	0x3f316df8	0.69308424
151	0xbef2f891	-0.47455266
152	0x3f0595bd	0.5218161
153	0xbed71e53	-0.42015323
154	0x3ef18af5	0.47176328
155	0xbf0c7d6a	-0.54878867
156	0xbf1d95bc	-0.615566
157	0x3f1fbf37	0.62401146
158	0x3f134adc	0.575361
159	0xbf032dae	-0.51241577
160	0xbed546d9	-0.41655615
161	0xbf3c235d	-0.7349146
162	0x3ee41fbe	0.44555467
163	0xbf26cf3a	-0.6515995
164	0xbf1ce845	-0.61291915
165	0xbee27316	-0.4422843
166	0x3efc91a1	0.49329856
167	0xbe6c3430	-0.23066783
168	0x3ec5e5f4	0.38652003
169	0xbf0ee009	-0.558106
170	0xbf1f4fd7	-0.622312
171	0x3f302614	0.688081
172	0xbee6d952	-0.45087677
173	0x3f38ff27	0.7226433
174	0x3f1299c9	0.5726591
175	0xbf10d79b	-0.5657899
176	0x3f352134	0.7075379
177	0x3ed2decd	0.41185609
178	0xbf2edfc5	-0.68310195
179	0xbf57e9a8	-0.84340906
180	0xbf0fd395	-0.56182224
181	0x3f1af0da	0.6052376
182	0xbf1fc094	-0.62403226
183	0xbf0d5bf4	-0.55218434
184	0xbf3c501f	-0.73559755
185	0x3f35b814	0.70984006
186	0x3ec5e732	0.3865295
187	0x3d303092	0.04301507
188	0xbeea7bb3	-0.457975
189	0xbeee0067	-0.46484682
190	0xbf065dc1	-0.5248681
191	0xbefe287f	-0.4964027
192	0xbdd10133	-0.10205307
193	0xbe87ea05	-0.2654573
194	0x3e764945	0.24051388
195	0xbe224f79	-0.15850629
196	0x3e54952d	0.20760031
197	0xbd2764d2	-0.040867634
198	0xbe317323	-0.17329077
199	0xbde825ae	-0.11335312
200	0x3e409735	0.18807681
201	0xbe69b11a	-0.22821465
202	0x3e8ef4f7	0.27921268
203	0xbea3ac70	-0.31967497
204	0x3d2f39fd	0.04277991
205	0x3e229acb	0.15879361
206	0x3e4a2736	0.1974152
207	0x3c1f5ef8	0.009727232
208	0xbe6f5332	-0.2337158
209	0x39b09939	0.00033683496
210	0x3ebea984	0.37238705
211	0x3e0bfb44	0.13670069
212	0xbb2c889b	-0.002632654
213	0xbdf81ec7	-0.12115245
214	0x3eab9744	0.33513844
215	0xbf1ebad5	-0.62003833
216	0x3e239eec	0.15978593
217	0x3e87f7df	0.26556298
218	0xbee2cfe1	-0.44299224
219	0x3d007a3d	0.031366576
220	0xbf0e2917	-0.5553145
221	0x3e85bdca	0.2612136
222	0x3dc1f4ee	0.09470545
223	0x3e33800a	0.17529312
224	0x3e0d2f49	0.13787569
225	0xbf24ee9b	-0.64426583
226	0xbd6c8e28	-0.05775276
227	0x3e2e6107	0.170292
228	0x3e3f3f52	0.18676499
229	0xbd4e31e7	-0.05034056
230	0xbd65f7bb	-0.056144457
231	0x3e35e7df	0.17764233
232	0xbe255d63	-0.16148905
233	0x3e659787	0.22421084
234	0x3dd8d073	0.105866335
235	0x3f11714a	0.5681349
236	0x3cca200e	0.024673488
237	0x3e5b9708	0.21444333
238	0x3e8225cc	0.25419462
239	0xbd9eb1c8	-0.07748753
240	0x3e13f915	0.14450486
241	0xbd9e0596	-0.07715909
242	0xbe83cc66	-0.2574188
243	0xbf398664	-0.7247069
244	0xbe8ec96d	-0.2788805
245	0x3e6b48a7	0.22976933
246	0x3dacf5e9	0.08445341
247	0xbe26bcdc	-0.16282982
248	0xbe5318ae	-0.20614883
249	0x3d793e2b	0.060850304
250	0xbe71bbb9	-0.23606767
251	0xbe0ff872	-0.14059618
252	0xbcfe5a98	-0.031049058
253	0xbc9fcf55	-0.019508043
254	0xbd922b41	-0.07137156
255	0x3dfe51ff	0.12417983

weight_hh_l1 f4 [256, 64]
0	0x3ef4ae26	0.47789115
1	0xbf20bfc7	-0.6279263
2	0xbec07ae0	-0.37593746
3	0xbec19fa2	-0.37817103
4	0xbe3f3beb	-0.186752
5	0x3e83995a	0.25702935
6	0xbf158c90	-0.58417606
7	0xbf23346c	-0.63751864
8	0xbf1bbd99	-0.6083618
9	0xbeeab0e6	-0.45838088
10	0x3f2c9b00	0.6742401
11	0xbe222f17	-0.15838276
12	0x3f10e06c	0.5659244
13	0xbf20eddd	-0.6286295
14	0xbecc5c54	-0.3991419
15	0x3f13b6c3	0.5770075
16	0xbf12d7c1	-0.57360464
17	0xbf361e81	-0.71140295
18	0xbf2fda7f	-0.68692774
19	0xbf30bd49	-0.69038826
20	0xbf0fbb9b	-0.5614564
21	0x3ee84c41	0.45370677
22	0xbee82e65	-0.45347896
23	0xbe9ebb65	-0.31002346
24	0x3f40dd20	0.7533741
25	0xbf07f818	-0.53112936
26	0x3f08b006	0.5339359
27	0x3f0d5d86	0.5522083
28	0xbef256f6	-0.4733197
29	0x3ee20f2b	0.44152197
30	0x3f11169b	0.5667512
31	0xbf40021e	-0.7500323
32	0xbe6ebc95	-0.23314126
33	0xbefe089a	-0.49615937
34	0x3f17a25d	0.5923212
35	0xbea2cdaa	-0.31797534
36	0xbee9d7d6	-0.45672482
37	0xbed9b24b	-0.4251884
38	0x3eca68fe	0.39533228
39	0xbed35494	-0.41275465
40	0x3f110cda	0.56660235
41	0x3f2f7232	0.68533623
42	0xbf05a519	-0.52205044
43	0x3f1a86dd	0.60362035
44	0xbeebe766	-0.4607498
45	0xbea8bd57	-0.32956955
46	0xbf0972b2	-0.53690636
47	0x3ee4650d	0.44608346
48	0x3f107061	0.56421477
49	0x3eeadeae	0.45873016
50	0xbe5a8990	-0.21341538
51	0xbefc1c00	-0.49240112
52	0x3caa111f	0.020760117
53	0xbf2b8a26	-0.6700767
54	0xbf016e71	-0.50559145
55	0xbed0b1e0	-0.40760708
56	0xbe8050eb	-0.25061736
57	0xbe1a4202	-0.15064242
58	0xbed3fab6	-0.41402215
59	0xbf02e9e6	-0.5113815
60	0x3f07492c	0.52846026
61	0xbf2de08a	-0.67920744
62	0x3f01862d	0.5059536
63	0xbf2829c9	-0.6568876
64	0xbeb1b842	-0.3471089
65	0x3ece881a	0.40338212
66	0x3f290bd2	0.6603366
67	0x3ee39435	0.4444901
68	0x3ec77a55	0.3896052
69	0xbf0af98e	-0.5428704
70	0xbeefae5b	-0.4681271
71	0x3e8e4468	0.27786565
72	0x3e979996	0.29609364
73	0x3e19b2a0	0.15009546
74	0x3ee63cad	0.44968167
75	0xbf16a73a	-0.5884892
76	0xbeebcd5f	-0.46055123
77	0xbddb127f	-0.10696887
78	0x3ef0e526	0.47049826
79	0xbe56deb8	-0.20983398
80	0xbd18dd38	-0.037320346
81	0x3e8c7d67	0.27439424
82	0x3e0623c0	0.13099575
83	0xbeac0b9d	-0.3360261
84	0xbee2877a	-0.44243985
85	0xbd645a47	-0.055750158
86	0x3ef53203	0.47889718
87	0x3e80569c	0.25066078
88	0xbaa95735	-0.0012919666
89	0x3f0bf901	0.54676825
90	0xbf167a9c	-0.5878084
91	0xbc8f31a5	-0.017479727
92	0x3f12857c	0.5723493
93	0x3dee42d5	0.11633841
94	0xbe5d3949	-0.21603884
95	0xbd99570c	-0.07487306
96	0x3ef4c5fd	0.47807303
97	0x3e157ce1	0.14598419
98	0x3ea202d4	0.31642783
99	0x3ed7dc60	0.4216032
100	0xbddc1714	-0.10746589
101	0x3f060d5d	0.5236414
102	0x3ee0cfc6	0.4390852
103	0xbf1f6d66	-0.62276304
104	0x3edc0691	0.4297376
105	0xbd4d8e7a	-0.050184704
106	0x3e1cead0	0.15323949
107	0xbebc429c	-0.3676957
108	0x3f22c169	0.6357637
109	0x3eca9101	0.39563754
110	0xbea1f4b0	-0.31631994
111	0x3f204f7f	0.626213
112	0xbf15ee32	-0.5856658
113	0xbf0975dc	-0.53695464
114	0x3eea2c40	0.45736885
115	0x3f33bde5	0.7021163
116	0xbbb008ea	-0.0053721564
117	0x3c8f08d1	0.017460259
118	0x3f237cd1	0.6386233
119	0x3ef47c33	0.47751006
120	0x3f09e62e	0.5386685
121	0x3ee826b5	0.4534203
122	0x3ec3b804	0.3822633
123	0x3e8cb5e7	0.2748253
124	0xbdcb28cc	-0.09919891
125	0x3e8ed265	0.27894893
126	0xbf0961ef	-0.5366506
127	0x3dc506b5	0.0962042
128	0xbf138d92	-0.57637894
129	0x3ebefc20	0.3730173
130	0x3f2ab7ad	0.66686517
131	0x3f027cc4	0.5097163
132	0x3f1ce761	0.61290556
133	0xbf307f15	-0.6894391
134	0x3ec093b5	0.37612692
135	0x3f11f526	0.5701469
136	0x3f1df3dc	0.61700225
137	0x3ed23670	0.41057158
138	0xbf0286c0	-0.5098686
139	0x3ee9cce5	0.45664135
140	0xbef51182	-0.4786492
141	0x3f0c2c6f	0.547553
142	0x3f206d5b	0.62666863
143	0xbee3f708	-0.44524407
144	0x3f0236a4	0.50864625
145	0x3f111fbc	0.5668905
146	0x3ebd28b3	0.36945114
147	0x3f01047f	0.50397485
148	0x3eeb27bb	0.4592875
149	0xbf085840	-0.5325966
150	0x3efbed32	0.49204403
151	0x3f20146e	0.62531173
152	0xbec9995e	-0.39374822
153	0x3f302585	0.6880725
154	0xbf079fcf	-0.52978224
155	0xbf1beef2	-0.60911477
156	0x3f21dfc5	0.6323207
157	0xbede737c	-0.43447483
158	0xbf1e0832	-0.61731255
159	0x3f0419c2	0.51601803
160	0x3ef1ebd3	0.47250232
161	0x3eed83a4	0.46389496
162	0xbf00b4ba	-0.50275767
163	0x3f1663e7	0.5874619
164	0x3ef27e00	0.47361755
165	0x3f35889f	0.7091159
166	0xbebadee1	-0.36498168
167	0x3ec8fe2f	0.39256427
168	0xbeed39d9	-0.46333197
169	0xbf0dded0	-0.5541811
170	0x3f0ebeff	0.55760187
171	0xbecbd7d3	-0.39813098
172	0x3f3514bc	0.70734763
173	0x3efbd15b	0.49183163
174	0x3ed78e26	0.42100638
175	0xbf0e69c2	-0.55630124
176	0xbf097382	-0.53691876
177	0xbf0184a6	-0.5059303
178	0x3ef5d718	0.48015666
179	0x3f28573e	0.6575812
180	0x3f206e70	0.62668514
181	0x3f0dbf8b	0.55370396
182	0x3f178437	0.5918612
183	0x3f2cd9cb	0.67519826
184	0x3f0dbbbb	0.5536458
185	0x3f2b2edb	0.6686837
186	0x3f27497e	0.65346515
187	0x3f0b3fb6	0.5439409
188	0xbf399153	-0.7248737
189	0x3f02928d	0.5100487
190	0xbf1eca0d	-0.62027055
191	0x3f1ea95d	0.6197718
192	0x3ec0397e	0.37543863
193	0xbd2fa197	-0.042878713
194	0xbe865781	-0.26238635
195	0xbec34e05	-0.38145462
196	0xbe6fa006	-0.23400888
197	0x3e88cdf4	0.2671963
198	0xbd304caa	-0.043041863
199	0xbe0df47b	-0.13862793
200	0xbe3f13ba	-0.18659869
201	0xbe90cf6d	-0.28283253
202	0x3e2a0bd2	0.16606072
203	0xbc439ba9	-0.011938968
204	0x3f170aaf	0.59000677
205	0xbde731fa	-0.11288829
206	0xbf062e2a	-0.5241419
207	0x3e6645b1	0.22487523
208	0xbda11b12	-0.078664914
209	0xbda80bea	-0.082053974
210	0xbd12705c	-0.035751686
211	0xbe432b12	-0.19059399
212	0xbe205276	-0.15656456
213	0xbc344425	-0.011002575
214	0xbedc827b	-0.430683
215	0xbe91ebd3	-0.28500232
216	0xbe4fcbd0	-0.20292592
217	0xbefad27b	-0.4898871
218	0x3edb1feb	0.4279779
219	0x3d93ce75	0.07217113
220	0xbebec8af	-0.37262484
221	0x3e990ec6	0.29894084
222	0x3d6681e1	0.056276206
223	0xbd0bfbb6	-0.034175597
224	0xbe29ce4c	-0.16582602
225	0x3e6a4b51	0.22880293
226	0x3da1e268	0.07904512
227	0xbe3d5beb	-0.18492095
228	0xbe530144	-0.20605952
229	0xbe9d82d0	-0.30763865
230	0x3da9cb31	0.08290709
231	0xbe13a3c9	-0.14417948
232	0x3e8564ad	0.26053372
233	0xbe6cc8de	-0.231235
234	0xbe658e73	-0.22417621
235	0x3e1f1dae	0.15538666
236	0xbe706a6b	-0.23478095
237	0xbee2243d	-0.44168273
238	0xbe8f283d	-0.27960387
239	0x3d0c2022	0.03421033
240	0x3f08f895	0.53504306
241	0x3ef42336	0.47683114
242	0xbebef97a	-0.3729971
243	0xbe977c7c	-0.29587162
244	0x3d9b44ed	0.07581506
245	0xbe515b29	-0.20444931
246	0xbea019e4	-0.31269753
247	0xbecb3dcf	-0.39695594
248	0xbea8aebf	-0.3294582
249	0xbe033ac4	-0.12815386
250	0xbee2ca09	-0.44294766
251	0xbe6745a9	-0.22585167
252	0x3ec21d42	0.37912947
253	0xbb9bc1c4	-0.0047533233
254	0x3efed80b	0.49774203
255	0xbe1f92a6	-0.15583286

bias_ih_l1 f4 [256]
0	0x3f470bb2	0.7775222
1	0xbf1024b8	-0.5630603
2	0xbf19cd29	-0.60078675
3	0xbea40a2e	-0.32039016
4	0xbf36ddbe	-0.714321
5	0xbf3f242d	-0.74664575
6	0xbeb8e451	-0.36111692
7	0x3d046a65	0.03232803
8	0xbf2cf9ac	-0.6756847
9	0xbf6be09f	-0.9213962
10	0x3fbcba61	1.4744378
11	0x3fb8b6d4	1.4430795
12	0xbf103678	-0.5633311
13	0xbf72a620	-0.94784737
14	0xbf0ec123	-0.55763453
15	0xbf6b475b	-0.91905755
16	0xbf90b95a	-1.1306565
17	0xbf67ca48	-0.9054303
18	0xbe57207e	-0.21008489
19	0xbf1a5a45	-0.6029399
20	0xbf96c416	-1.1778591
21	0xbf5af898	-0.85535574
22	0xbd96f909	-0.073717184
23	0xbf4a4770	-0.79015255
24	0xbf200b85	-0.6251758
25	0xbeece7b8	-0.46270537
26	0xbf54cb45	-0.83122665
27	0xbf717424	-0.9431784
28	0xbf283f03	-0.6572115
29	0xbf86747c	-1.0504298
30	0xbf042b2d	-0.5162838
31	0xbf45aa69	-0.7721315
32	0xbf2c4e2d	-0.67306787
33	0xbf7b1596	-0.9807981
34	0x3fa14d95	1.2601801
35	0x3c453390	0.012036219
36	0x3f696a91	0.9117823
37	0xbf184de8	-0.59493876
38	0x3fac3259	1.3452865
39	0x3f94fd86	1.1639869
40	0xbf467715	-0.77525455
41	0xbf5bf123	-0.8591482
42	0xbf605f65	-0.8764556
43	0xbef851e4	-0.48499978
44	0x3f01f9ca	0.5077177
45	0xbf2fa177	-0.6860575
46	0xbd9f15e2	-0.07767846
47	0x3f9cde9f	1.2255439
48	0xbf2d9f10	-0.67820835
49	0xbf36df29	-0.71434265
50	0xbf5b74b7	-0.8572497
51	0x3d1a7954	0.037713364
52	0xbf406ca2	-0.7516576
53	0xbf5bac1d	-0.858095
54	0xbf28e7f1	-0.65978914
55	0xbf31f4eb	-0.6951434
56	0xbf63efcd	-0.8903778
57	0xbe5080a4	-0.20361573
58	0xbf3108d9	-0.69154125
59	0xbf7340f1	-0.9502097
60	0x3f051735	0.51988536
61	0xbf5738c8	-0.84071016
62	0xbf214a38	-0.63003874
63	0xbeb4bdbf	-0.35301015
64	0x3f6e3ba7	0.9305977
65	0xbe919815	-0.28436342
66	0xbf059f84	-0.52196527
67	0x3f4e524b	0.8059432
68	0xbe1da4fb	-0.15394966
69	0xbe985011	-0.29748586
70	0xbef87945	-0.4853002
71	0xbebea8e2	-0.37238222
72	0xbeed8a54	-0.46394598
73	0xbeebe4b3	-0.4607292
74	0xbf06c966	-0.5265106
75	0xbee64305	-0.44973007
76	0xbf107e2f	-0.5644254
77	0xbee206cc	-0.4414581
78	0xbf172b4f	-0.5905046
79	0xbf0d9dd9	-0.5531898
80	0xbf0840fd	-0.53224164
81	0xbee11313	-0.43959865
82	0xbec9fbc0	-0.39449883
83	0xbee75e41	-0.45189098
84	0xbeef739a	-0.46767884
85	0xbec38a1b	-0.38191304
86	0x3f46398d	0.77431566
87	0xbdb9d155	-0.0907313
88	0xbea2ef8d	-0.31823388
89	0xbed7c942	-0.42145735
90	0xbe7c856f	-0.24660276
91	0xbf08bf88	-0.53417253
92	0xbed5b2e8	-0.41738057
93	0xbedba089	-0.42895916
94	0xbeed67c6	-0.46368235
95	0xbf2b83d4	-0.6699803
96	0xbe044660	-0.12917471
97	0xbf133594	-0.5750363
98	0xbe798108	-0.24365628
99	0x3f66db77	0.90178627
100	0xbece0db7	-0.4024484
101	0xbeb1c944	-0.34723866
102	0xbe656d3a	-0.22404948
103	0xbeb279e3	-0.34858617
104	0xbed8d538	-0.42350173
105	0xbed26175	-0.4108998
106	0xbeca9673	-0.3956791
107	0xbf46d90c	-0.7767494
108	0x3f500b05	0.81266814
109	0xbed3ece3	-0.41391668
110	0xbee9776b	-0.4559892
111	0xbedada7d	-0.42744818
112	0xbee70104	-0.45117962
113	0xbe948a8a	-0.29011947
114	0xbe059c9f	-0.13048027
115	0x3f8ebb02	1.115082
116	0xbe24ad76	-0.16081795
117	0xbeba2fcb	-0.36364588
118	0xbef4a853	-0.4778467
119	0xbe969af3	-0.29415092
120	0x3ec6c99f	0.388257
121	0xbd20ffdd	-0.03930651
122	0xbe6fea3a	-0.23429194
123	0xbefd76af	-0.4950461
124	0x3f50ce3c	0.8156469
125	0xbf19644b	-0.5991866
126	0xbf029e84	-0.51023126
127	0xbf087596	-0.5330442
128	0xbf673b00	-0.903244
129	0x3e7287b5	0.2368458
130	0xbe3674b4	-0.17817956
131	0x3f651fd9	0.8950172
132	0xbe99f05e	-0.30066198
133	0x3e824f67	0.25451204
134	0x3eb985ee	0.36234993
135	0x3e88ce06	0.26719683
136	0x3ebd11fa	0.36927778
137	0x3ebcc2cd	0.3686737
138	0xbeafb217	-0.3431556
139	0x3ed6eb8d	0.41976586
140	0x3e6f0b4b	0.23344152
141	0x3ed8d88f	0.4235272
142	0xbe422e54	-0.18962985
143	0xbea5b0ae	-0.32361358
144	0x3e97f538	0.29679275
145	0x3ec59b2c	0.3859495
146	0x3ecc59d8	0.39912295
147	0x3ed76b94	0.42074263
148	0x3eed71e2	0.46375948
149	0xbf02081a	-0.5079361
150	0x3f5607fc	0.83605933
151	0x3f33d57b	0.7024762
152	0xbeb18d30	-0.3467803
153	0xbe8c5184	-0.2740594
154	0xbe8d7bbd	-0.27633467
155	0xbeb283d6	-0.34866208
156	0x3e82e533	0.2556549
157	0xbed98bcd	-0.42489472
158	0xbebe848f	-0.3721051
159	0x3ee0cace	0.43904728
160	0x3f3b6cd9	0.73212963
161	0x3eb068b2	0.34454876
162	0xbeb9e483	-0.36307153
163	0x3f52269a	0.8209015
164	0x3e922076	0.2854039
165	0x3e39a46a	0.18129125
166	0xbeb8b5e4	-0.36076272
167	0x3ec6eacd	0.38851014
168	0xbecec860	-0.4038725
169	0xbeceded4	-0.4040438
170	0x3eda3aef	0.42623088
171	0xbea77d3f	-0.32712743
172	0x3f5a4ec9	0.85276467
173	0xbd0a7527	-0.03380313
174	0x3ed3859b	0.4131287
175	0xbee7f9c5	-0.45307747
176	0x3e4a383c	0.19748014
177	0xbef0fdc2	-0.47068602
178	0x3df6b863	0.12046888
179	0x3f596043	0.8491251
180	0x3f8225af	1.016775
181	0x3ef78bae	0.48348755
182	0x3f3ca507	0.7368931
183	0x3f5813d7	0.84405273
184	0x3f7c3e1a	0.9853226
185	0x3f5de1b8	0.86672544
186	0xbc034ad7	-0.008013449
187	0x3e97ea31	0.2967086
188	0xbf54fa7b	-0.831947
189	0x3ec163e5	0.37771526
190	0x3e66decb	0.22545926
191	0x3e7e7965	0.24850996
192	0xbf8e9acd	-1.1140991
193	0xbf5384ae	-0.8262433
194	0xbe5d10a8	-0.21588385
195	0xbf7a7eec	-0.9784992
196	0xbf689004	-0.9084475
197	0xbf702a59	-0.9381462
198	0xbf5a2f7a	-0.85228693
199	0xbf77a043	-0.96728915
200	0xbf373730	-0.71568584
201	0xbf95695b	-1.1672777
202	0xbf809ac6	-1.0047233
203	0xbf82c225	-1.0215498
204	0xbf618611	-0.88095194
205	0xbf847215	-1.0347315
206	0xbf6489e0	-0.8927288
207	0xbf1e3330	-0.61796856
208	0xbf7614c2	-0.96125424
209	0xbf5f361a	-0.8719193
210	0xbf80c0e2	-1.0058863
211	0xbf8e0f54	-1.1098428
212	0xbf823e1a	-1.0175202
213	0xbf630636	-0.8868135
214	0xbf9433d2	-1.1578314
215	0xbf78f80e	-0.972535
216	0xbf4a330e	-0.78984153
217	0xbf37b0fa	-0.7175442
218	0xbf83e497	-1.0304135
219	0xbf7fa24a	-0.9985701
220	0xbf82819d	-1.0195805
221	0xbf8175b9	-1.0114051
222	0xbf2502a1	-0.64457136
223	0xbf4dc091	-0.8037196
224	0xbf7aad91	-0.9792109
225	0xbf89277b	-1.0715173
226	0xbf7c56c3	-0.9856989
227	0xbf8c3f05	-1.0956732
228	0xbf691f28	-0.91063166
229	0xbf5f97c2	-0.8734094
230	0xbf78aa4c	-0.9713485
231	0xbf9a4751	-1.2053014
232	0xbf8701a9	-1.0547382
233	0xbf71479e	-0.94249904
234	0xbf46fa5d	-0.77725774
235	0xbf2e83fb	-0.68170136
236	0xbf96409b	-1.1738466
237	0xbf69f399	-0.91387326
238	0xbf8bf032	-1.0932677
239	0xbf9a6496	-1.2061946
240	0xbf4e3ca9	-0.8056131
241	0xbf3d7681	-0.7400895
242	0xbf510548	-0.81648684
243	0xbf7d8425	-0.9902976
244	0xbf31973d	-0.69371396
245	0xbf6ff194	-0.93727994
246	0xbf70f61b	-0.9412553
247	0xbf839223	-1.0278972
248	0xbe537dc8	-0.2065345
249	0xbf87fb20	-1.0623512
250	0xbf651840	-0.8949013
251	0xbf8264b5	-1.0186983
252	0xbf84d670	-1.0377941
253	0xbf475148	-0.778584
254	0xbf6b0f30	-0.9182005
255	0xbf276757	-0.6539206
