Formal Experiments/CSI500/Transformer-DoubleDQN-QT-Final/ModelParam/2024-3-8/64network-TransformerNoguiadance.pth (torch, 851590 bytes, 18 tensors)

encoder.self_attn.in_proj_weight f4 [30, 10]
000000 2b 75 2e 40 ea 60 f6 bf c6 f3 37 c0 b7 ea 62 bf
       2.7259014 -1.9248326 -2.8742537 -0.88639396
000010 ab 4a 70 bf f6 66 17 c0 aa aa cb bf 5a 84 81 41
       -0.93863934 -2.3656592 -1.5911458 16.189625
000020 d6 02 40 40 9b 4b 43 40 e8 be 99 c0 25 ca 53 40
       3.000173 3.0514896 -4.804554 3.309213
000030 eb 36 0c c0 38 a1 80 bf be 1c 85 bf eb 52 b0 3f
       -2.190852 -1.00492 -1.0399396 1.3775305
000040 f5 80 0c 3f c7 4f 1d c1 67 4a 9a c0 e6 c8 66 c0
       0.5488427 -9.831977 -4.8215823 -3.6060119
000050 d5 60 ac 40 52 8f 83 c0 1c 2f b2 3f 6e 92 79 3f
       5.3868203 -4.111245 1.3920627 0.9748906
000060 1f d7 9b 3f 15 86 95 bf 65 99 37 bf 86 c5 72 41
       1.2175025 -1.1681544 -0.71718436 15.1732235
000070 51 e9 b2 40 a8 3d 8b 40 e5 02 22 40 c0 6f 87 bf
       5.590981 4.3512764 2.5314267 -1.0580978
000080 f3 b6 ff bf df 70 f9 3f f8 f5 05 3d 36 bd 06 c0
       -1.9977707 1.948757 0.032705277 -2.1052985
000090 6f bf 51 c0 5c c2 de c1 48 8d f0 3f 17 d3 0a 40
       -3.2773092 -27.844902 1.8793116 2.169134
0000a0 28 2b 21 40 35 ed 75 bf bf 5e 01 c0 20 ed 2d 40
       2.518259 -0.96065074 -2.0214078 2.717598
0000b0 62 8a f0 bc 46 a1 08 c0 73 0c 6b c0 6d 00 d4 c1
       -0.029362861 -2.1348433 -3.6726348 -26.500208
0000c0 95 a5 aa 3f 7a 37 e7 3f 9a 4a 6f c0 7d 40 74 40
       1.3331782 1.8063805 -3.7389283 3.816436
0000d0 98 60 70 bf 56 25 8e 3f 91 02 53 3f eb b8 b2 3d
       -0.9389739 1.1105144 0.8242579 0.087266766
0000e0 3e fe 86 bf 0d 3b 9a c1 19 96 91 c0 4a 1b 49 c0
       -1.0546339 -19.278833 -4.5495725 -3.1422906
0000f0 bb d6 69 c0 d1 56 52 40 d9 e7 01 40 de 9b 44 3f
       -3.653731 3.2865489 2.0297759 0.76800334
000100 27 9b 04 be 2f b5 4c be 4f 68 58 be 3f 5a a0 c1
       -0.12949811 -0.19990991 -0.2113354 -20.044065
000110 7b 7c 58 c0 bc 88 3e c0 29 2c ed 3f 6e a1 07 c0
       -3.3825977 -2.9770956 1.8529102 -2.119228
000120 dc 52 bb 3f ba 79 a6 bf 6d 5a c9 be 6f 28 35 3f
       1.4634662 -1.3005898 -0.39326802 0.7076482
000130 43 55 1a 3f fd 31 17 41 63 5d 1c 40 d9 fe 61 3f
       0.6028635 9.449704 2.4431999 0.8827949
000140 48 87 e5 bf 42 73 d9 3f f9 8b 91 bf 2f 40 d4 3f
       -1.793191 1.6988299 -1.1370841 1.6582087
000150 af 88 f7 3e 23 77 45 be 8c 46 86 bf 9a 06 7c c1
       0.4834647 -0.19283728 -1.0490279 -15.751612
000160 11 3e 0c c0 eb ce c2 bf 9d 79 98 bf 13 cf ac 3f
       -2.1912882 -1.5219396 -1.1912113 1.3500694
000170 ed cb 3c 40 e0 10 fd 3f 26 ea a0 3e 94 3b df bf
       2.9499466 1.9770775 0.3142864 -1.7440057
000180 d7 28 b0 bf 02 27 a9 c1 96 a5 02 c0 a0 66 a2 be
       -1.3762463 -21.144047 -2.0413566 -0.31718922
000190 49 2d 1a 40 18 ba 17 bf b8 44 f1 c0 fc 3c de 3f
       2.409014 -0.5926833 -7.5396385 1.7362361
0001a0 a6 a4 39 40 05 32 1e be 38 dc 8f bd 0f 98 d4 41
       2.9006743 -0.15448768 -0.07024425 26.574247
0001b0 2b 82 46 3c b1 f2 42 bf 11 07 43 c0 ce ed ee 3e
       0.012115995 -0.7615157 -3.0473063 0.46665806
0001c0 a2 41 ff 40 f7 c7 e3 bf 1e d6 7b c0 1f c0 65 bf
       7.976762 -1.77954 -3.9349437 -0.8974628
0001d0 e2 7f 1d bf 6e 7a c3 c1 c7 e9 3d bf a7 aa a7 3e
       -0.6152326 -24.43478 -0.7418484 0.32747385
0001e0 ab 0a 45 40 0d 75 af be 6a 20 fb c0 16 5f f1 3f
       3.0787761 -0.3426899 -7.847707 1.8857143
0001f0 57 d8 71 40 61 d3 24 3f 2e e6 ea 3e 8b 14 c3 41
       3.7788293 0.6438504 0.45878738 24.38503
000200 b9 96 ff 3e d3 e2 20 bf c8 18 78 3e f4 75 12 be
       0.4991968 -0.62846106 0.24228203 -0.14302808
000210 5d 89 19 c1 a2 fc 41 40 9b 5c 59 40 fc 14 05 bf
       -9.596036 3.0310445 3.3962772 -0.51985145
000220 a9 45 99 bf 20 cb 97 41 0d 27 49 40 76 7c 25 c0
       -1.1974384 18.974182 3.1430085 -2.5857215
000230 14 51 b8 3d ae e9 8e bf 0f 55 08 c1 5c a5 ec 3f
       0.089998394 -1.1165063 -8.520766 1.8487964
000240 d9 8a ba 3f 2b e0 a4 be 52 b3 15 bf 03 5d 96 41
       1.4573623 -0.32202277 -0.58476746 18.795416
000250 19 38 57 40 6e 5d 61 c0 b3 e2 3e c0 db 61 9a 3e
       3.362799 -3.5213275 -2.9825866 0.30152783
000260 50 b8 fb 40 7c 1c e7 bf 6e 39 83 c0 d5 bc 64 bf
       7.866249 -1.8055568 -4.1007605 -0.89350635
000270 d9 63 23 bf 34 f0 c0 c1 52 bb 48 be a8 fb 9b 3f
       -0.6382423 -24.117287 -0.19602707 1.2186174
000280 f2 cb 59 c0 b1 be 9d be e3 28 d9 40 1a 0d 05 c0
       -3.4030728 -0.30809548 6.786241 -2.0789247
000290 0a 1f 80 c0 de f6 c5 be 7e ad e7 bc de 62 bf c1
       -4.003789 -0.38664907 -0.02828097 -23.923275
0002a0 35 ef 80 bd 0d f6 3c 3e af 28 31 40 40 33 61 bf
       -0.06295625 0.18453236 2.7681081 -0.87968826
0002b0 fe 1a d7 c0 5b 65 02 3f 9e 75 38 40 95 38 ec 3f
       -6.722045 0.50935906 2.8821788 1.8454767
0002c0 f0 2e 09 40 5f bf b9 41 ab d2 32 3f 6f 7b 08 bf
       2.1434898 23.218443 0.69852704 -0.53313345
0002d0 0c a4 0b c0 62 fa bd 3f d6 f0 e6 40 7b 17 02 bf
       -2.1818876 1.4842036 7.216899 -0.5081708
0002e0 5d ec 10 c0 47 44 cb bf 10 29 6d bf ac ce bc c1
       -2.2644265 -1.5880212 -0.9264078 -23.600914
0002f0 07 a0 84 be 38 3a 81 3f c2 e1 be bf e7 7b fa 3e
       -0.2590334 1.0095892 -1.4912646 0.48922655
000300 79 9b d3 40 bc 06 87 bf 11 1b 29 c0 66 4d 57 3f
       6.6127286 -1.054893 -2.642277 0.84102476
000310 84 bc 22 3f dc fc c7 c1 ed 1d 46 40 74 6f 23 be
       0.635689 -24.998466 3.0955765 -0.15960485
000320 b1 b8 51 40 d6 fd 53 3f ad b2 0a c0 50 a0 ce 3f
       3.2768977 0.828092 -2.1671555 1.6142673
000330 fa eb 25 40 14 9e 7b 3f e3 13 13 3e 8b 19 89 41
       2.5925279 0.98288083 0.14363055 17.137472
000340 00 11 be 3e 5f 37 b6 3f 48 32 5c 40 1a 12 69 3f
       0.37122345 1.4235648 3.440569 0.91043246
000350 7b 7e 4f c0 10 64 0e 40 d8 ef 2d 40 32 cf a3 3f
       -3.2420948 2.2248573 2.717764 1.2797606
000360 94 20 c5 bd 33 2b 8a 41 26 d0 b6 3e fd 79 3f 3f
       -0.096253544 17.271093 0.3570568 0.74795514
000370 95 87 cf 3f 79 a0 68 3f d0 c6 0b 40 49 bc 21 40
       1.6213251 0.9086986 2.1840096 2.527117
000380 8f a2 da 3f 92 86 6a 3f 7e 55 0a bd 78 82 cc bf
       1.7080859 0.9161159 -0.033772938 -1.5977316
000390 b7 01 a6 3f 87 ed 61 3f 6c 91 be bf 80 89 31 c0
       1.2969273 0.8825306 -1.4888129 -2.7740173
0003a0 ba a9 28 3f 46 a0 8a c0 1c 83 2c c0 dd 39 a0 be
       0.6588398 -4.3320646 -2.6955023 -0.31294146
0003b0 67 e1 31 3f ab 8e 30 c0 f3 87 c8 bf 72 72 6a be
       0.6948456 -2.7587078 -1.5666488 -0.2289522
0003c0 fd 2f 44 c0 23 0d 45 bf 19 99 0d 40 a3 01 a0 bf
       -3.065429 -0.7697317 2.2124693 -1.25005
0003d0 fa 51 19 c0 78 78 b7 bf 9f 78 3c bf b5 ce a9 c1
       -2.3956285 -1.4333639 -0.73621553 -21.225931
0003e0 9c f7 36 bf 3b 75 fe be 30 c7 97 3f 52 2c 2a bf
       -0.7147157 -0.49698815 1.1857662 -0.6647388
0003f0 cc c1 11 c0 7f e5 88 3f 79 45 99 3f 07 cc 5e bf
       -2.2774534 1.0695037 1.1974326 -0.8703007

encoder.self_attn.in_proj_bias f4 [30]
000000 32 bd 36 40 32 56 86 c0 9a 75 a1 40 51 4a a7 3f
       2.8552976 -4.198022 5.0456057 1.3069555
000010 c2 a5 7d 3f cf 5e 6c c0 0a 93 64 c0 4d 90 ed 3f
       0.9908105 -3.6932867 -3.5714746 1.8559662
000020 6f f5 ec bf b4 b4 d5 bf 6d 2e 2e 3c 89 b5 52 3e
       -1.85124 -1.6695771 0.010631186 0.20577063
000030 cd 67 b1 3e b6 a5 ef 3e 95 7a 09 3f 00 9e 47 bd
       0.34649506 0.46806115 0.5370267 -0.048734665
000040 54 28 fd 3c f8 e1 a2 3e 88 39 77 3e 78 6a ec be
       0.030903019 0.31813025 0.2414304 -0.4617498
000050 3f 39 b7 3f 2e 08 61 3f 3d c4 99 bf 28 69 80 3f
       1.4314345 0.87903106 -1.2013012 1.0032091
000060 0c 87 14 c0 fa 8f 1a 40 70 c3 3a bf a8 b0 4e c0
       -2.3207426 2.4150376 -0.72954464 -3.2295322
000070 49 1b 9a bf cd 13 1a bf
       -1.2039577 -0.60186464

encoder.self_attn.out_proj.weight f4 [10, 10]
000000 9d 16 89 c0 07 64 52 c0 6e bf e6 bf 80 15 bf 3f
       -4.2840104 -3.2873552 -1.802717 1.4928436
000010 81 06 61 40 b0 89 15 c0 8c 61 f1 bf 07 77 12 40
       3.516022 -2.3365288 -1.8857894 2.2885149
000020 24 6f 93 40 06 9b 0b c0 03 98 89 3f 27 6d 28 3f
       4.607317 -2.1813369 1.0749515 0.65791553
000030 93 e6 a9 bf 88 f3 da 3f b7 ed bb bf 98 96 bc 3e
       -1.3273491 1.710557 -1.468192 0.36833644
000040 1c 8e 95 bf 59 bc 85 bf 6b 3b 8a bf eb b8 a8 bf
       -1.1683993 -1.0448104 -1.0799383 -1.3181432
000050 6c e6 56 c0 1c 8a c7 bf ba 73 84 bd d4 40 d1 3e
       -3.3578138 -1.5589023 -0.064673856 0.40869772
000060 76 7d 5b 40 5d 77 07 c0 5e a2 bd ba d1 dc 45 40
       3.4295325 -2.1166604 -0.0014467945 3.0916026
000070 87 c4 44 40 36 fc 86 be fc 6a 4a be ef 08 c1 be
       3.074495 -0.26364297 -0.19767374 -0.37702128
000080 69 b9 ac 3f 00 a7 b6 bf 35 25 04 bf 93 76 32 3f
       1.3494083 -1.4269714 -0.51619273 0.6971218
000090 84 3c b6 3f 8d 32 82 bf 37 27 06 bf 2f 5a 1b 40
       1.4237218 -1.0171677 -0.5240359 2.4273794
0000a0 f1 62 5d 40 7e a3 2a 40 fe aa a8 bf c6 27 d4 3f
       3.459164 2.6662288 -1.3177183 1.6574638
0000b0 02 05 18 c0 fd 18 27 3f 00 e2 e9 bf 49 c1 cd bf
       -2.3753057 0.65272504 -1.8272095 -1.6074611
0000c0 19 4f 86 c0 d4 d5 8d bf 11 7c 77 c0 67 92 31 c0
       -4.1971555 -1.108088 -3.8669474 -2.7745607
0000d0 78 41 42 3f eb 5b 54 bf c0 d1 29 40 15 de b3 bf
       0.7588115 -0.82952756 2.6534271 -1.4052149
0000e0 52 11 69 3f 5f 8d ae 3f 20 a6 9c 40 25 4a 22 3d
       0.91042054 1.3636893 4.895279 0.03962149
0000f0 8c c3 1f 3f b4 63 dd be 33 2c 20 bc 16 75 d9 be
       0.62407756 -0.4324013 -0.009776163 -0.42472142
000100 ce f5 10 bf 8c 13 b6 3f 0c f8 f6 3e 3f 03 0c 3f
       -0.5662507 1.4224715 0.4823612 0.54692453
000110 b8 09 bc bf 96 bf 82 be 5b a5 2a 3f ad 8d b0 3f
       -1.4690466 -0.25536793 0.6665856 1.3793236
000120 f0 79 ce bc 50 15 59 3d bf 97 b2 be 1e 10 ca be
       -0.025204629 0.05299884 -0.34881398 -0.3946542
000130 ef a4 57 bd d2 a1 fa 3e cd 5d 83 bf aa 61 fa 3e
       -0.052647527 0.48951584 -1.0263001 0.48902637
000140 d7 fd 04 bd 8e 9b b0 be 21 0f 61 3f 2c e5 ba bf
       -0.032468643 -0.3449368 0.8791371 -1.4601188
000150 2c 9e ad bf 52 05 3a 40 1e 47 9f 3f f6 df c7 bf
       -1.3563895 2.9065747 1.2443578 -1.5615222
000160 a2 67 34 39 75 1a 42 3f bf 6c f0 3f 4a 7e d8 3f
       0.00017204744 0.7582162 1.8783187 1.691354
000170 f5 78 08 3f da e3 3f be 8b 18 b0 bf 9b 36 6b bd
       0.53309566 -0.18739262 -1.375749 -0.057425123
000180 78 95 98 3e e6 0a ab 3e 52 09 2e c0 06 4a 50 3f
       0.29801536 0.33406752 -2.7193189 0.8136295

encoder.self_attn.out_proj.bias f4 [10]
000000 a7 2e ff bf da b5 da 3f 54 07 78 c0 09 b9 d9 3f
       -1.9936112 1.7086747 -3.8754473 1.7009593
000010 37 76 49 40 d6 0c 43 c0 4d a2 8a 3f 3e 1e 89 bf
       3.1478403 -3.0476584 1.083078 -1.0712354
000020 4f 92 26 40 f6 e2 f2 3e
       2.60268 0.47438782

encoder.linear1.weight f4 [64, 10]
000000 ae fd 98 bf f5 92 62 3f e4 c9 f3 bb 1c ac 06 40
       -1.1952417 0.8850549 -0.0074398387 2.1042547
000010 95 f0 e4 c0 61 d6 2b 40 36 c3 28 40 9e 8d 32 c0
       -7.154368 2.6849597 2.6369147 -2.7898936
000020 1a b8 25 40 f9 50 59 40 2a be b9 bf f7 8c c5 bf
       2.5893617 3.3955672 -1.4511158 -1.5433644
000030 c8 3a 23 bf 9f 4a 7f 3f d9 fe 08 3e cf c8 f4 be
       -0.6376157 0.9972324 0.13378467 -0.47809455
000040 e2 ae b1 3f 7f 0f 00 bf 24 2c b9 3f 3c 5d 9e 3f
       1.3881495 -0.50023645 1.4466596 1.2372203
000050 8f fd 5d bc 9d 2f 55 3f 49 a1 9e 3e c2 52 e4 bf
       -0.013549223 0.8327578 0.30982426 -1.7837756
000060 37 35 c0 be 6a 25 41 3e 8b 2d c0 bf 7f c1 92 be
       -0.375406 0.18861929 -1.5013899 -0.2866325
000070 90 b1 05 c0 eb 91 81 3f 4e 99 23 40 26 87 92 bf
       -2.0889626 1.0122656 2.556232 -1.1447494
000080 a1 a1 d2 3f 04 ca 9f bf f1 03 27 c0 6a 01 06 40
       1.6455575 -1.2483525 -2.6096156 2.0938363
000090 31 9b 0b c0 44 24 cf 3f 3c 5a d5 bf cd d3 8d bf
       -2.1813471 1.6182942 -1.6668162 -1.1080261
0000a0 36 1a 4f bd 1d f5 76 3f 78 c0 06 3e c5 0c 01 c0
       -0.050562106 0.96467763 0.13159359 -2.0164044
0000b0 f6 bd a0 bf 78 c0 63 bc f4 96 a1 bf 43 14 e3 3f
       -1.2557971 -0.013900869 -1.2624192 1.7740558
0000c0 08 aa 97 bf 10 92 a3 3f b0 2a a9 c0 4a a1 86 c0
       -1.1848764 1.277895 -5.286461 -4.2071886
0000d0 9b d8 a1 c0 45 6f 84 40 37 a1 36 40 68 94 a9 c0
       -5.057691 4.1385827 2.8535898 -5.299366
0000e0 58 9c 89 40 99 9e 1e c0 8f c2 2a 41 e5 cd 17 41
       4.300335 -2.47843 10.6725 9.487767
0000f0 9c cc 90 40 04 39 4b bf cf 0c cb be 49 45 d2 3f
       4.5249767 -0.79383874 -0.3965821 1.6427394
000100 54 3f b0 bf 34 39 90 3f d0 23 8c 3f b6 00 8d bf
       -1.3769326 1.1267457 1.0948429 -1.1015842
000110 6a 81 0c 40 3d 01 1f c0 95 62 8f 3e 4a d8 55 3f
       2.1953988 -2.4844506 0.280049 0.83533156
000120 51 0c b8 3e 95 a2 b5 bf 55 5a 83 bf dd 08 97 3e
       0.35946897 -1.4190241 -1.0261942 0.2949895
000130 b6 1d 8e bf 63 9c 57 40 78 08 bb bf ac 5a 24 3f
       -1.1102817 3.36892 -1.461196 0.64200854
000140 3f e0 9f 3d f0 da 55 3e cd 24 16 be e1 d7 d6 3e
       0.078064434 0.208843 -0.14662476 0.41961578
000150 e5 05 e6 be 4a a7 a7 bc 94 b4 75 bf 65 47 2e 3f
       -0.44926372 -0.020465512 -0.95978665 0.6807769
000160 cd 32 bd be 15 e4 a8 3e 71 44 9e bf 7f 75 52 c0
       -0.3695282 0.32986513 -1.2364637 -3.2884214
000170 14 e7 56 bf 6f 90 c1 3e 49 56 54 3f b6 58 ab bf
       -0.8394635 0.37805507 0.8294416 -1.3386447
000180 48 f4 7a 40 d9 46 49 bf cf fe 44 3f d9 45 db 40
       3.9211597 -0.7862373 0.7695131 6.8522763
000190 14 69 96 3e 7d 9e 89 3f 33 03 71 bd 3e bb 0b c0
       0.29377043 1.0751492 -0.05884094 -2.1833034
0001a0 1b ee b9 be b3 65 31 3f 66 90 65 bf 4b 21 c5 3f
       -0.36314473 0.69295806 -0.8967346 1.5400785
0001b0 2e 73 ae bf 38 1a 91 3f 42 4d 02 3f 1d 2b c9 3e
       -1.36289 1.1336126 0.50899136 0.39290705
0001c0 79 f0 35 3e 33 53 60 40 63 10 c5 c0 24 3a 4b 40
       0.17767514 3.505078 -6.1582503 3.1754236
0001d0 b0 1a 82 40 07 b9 5a c0 c5 64 72 40 ad 03 9b 3f
       4.0657578 -3.4175432 3.7874005 1.2110497
0001e0 71 5e 4d bf 4e 1e 1f bf a7 27 b7 bf 83 46 16 3f
       -0.8022223 -0.62155616 -1.4308976 0.5870134
0001f0 a3 87 54 3f f1 45 80 bf 02 ac f0 bf 9c 67 8a bf
       0.83019465 -1.0021344 -1.8802493 -1.0812869
000200 33 99 1e 3f 56 b1 66 3e 0f b7 c6 3e 3e 44 68 3e
       0.61952513 0.22528586 0.38811538 0.22682282
000210 78 97 96 be 59 4a b2 bf db a8 4d 3d 08 a9 0e 3e
       -0.29412436 -1.3928939 0.05020986 0.13931668
000220 6c 4f 80 3f 25 6a a6 40 7b 76 6d c0 13 c6 0e 3f
       1.0024238 5.200457 -3.7103565 0.5577099
000230 c4 69 5b 3d 78 30 5a 3f 2f 57 8c 3d 89 bc e0 bf
       0.053567663 0.8523021 0.068525665 -1.7557536
000240 ff 54 6b be 05 ee d6 3e 30 13 61 be 87 b5 fd 3f
       -0.22981642 0.4197847 -0.21979976 1.9821023
000250 61 46 dd bf 16 11 10 3f 54 ef cc 3d 9a dc 53 3f
       -1.7287103 0.5627607 0.10006586 0.82758486
000260 12 a1 82 3d 50 23 5b bd da 3d a4 bd fd c0 07 bd
       0.06378378 -0.053500473 -0.0801961 -0.033143032
000270 ad 62 9d bf a8 d0 ba 3d 9b 7d 96 be 42 ff e5 3d
       -1.2295738 0.09121829 -0.29392704 0.11230327
000280 d5 73 68 be a9 06 80 3f f5 75 40 3e e7 52 f5 3e
       -0.22700436 1.0002033 0.18794997 0.47914812
000290 38 9e 9d 3e f5 c3 2d bd 07 25 a6 bf e5 ab ce be
       0.30784774 -0.042423207 -1.298005 -0.4036552
0002a0 11 06 e4 be 57 a9 88 bd 3d 78 29 bf 95 b8 12 c0
       -0.44535878 -0.06672924 -0.66199094 -2.292516
0002b0 8b ed 73 bf 27 84 e3 3f b9 b9 9e be da ef 0a be
       -0.95284337 1.7774705 -0.3100107 -0.13568059
0002c0 6e ba 95 3f be 3e 3f c0 56 2e 8f 40 8c e1 e4 bf
       1.1697519 -2.9882045 4.4744062 -1.7881331
0002d0 1a 78 f1 bf 09 97 09 c0 b3 2c 18 c0 c2 c0 1f 40
       -1.8864777 -2.1498435 -2.3777282 2.49614
0002e0 49 02 d0 3f 96 cd c0 bf fb 9f a2 3f 92 8e 23 c0
       1.6250697 -1.506274 1.2705072 -2.5555768
0002f0 91 5b 44 40 f6 c9 80 3f e7 64 34 3e 88 7a 6d c0
       3.0680888 1.0061634 0.17616616 -3.7106037
000300 4f 18 99 3d f5 01 37 40 8f 92 85 bf 42 11 19 3f
       0.074753396 2.8594944 -1.0435351 0.5979196
000310 02 da 21 40 a6 6a 7b c0 b1 fd dc 40 41 76 30 bf
       2.5289311 -3.9283843 6.905968 -0.6893044
000320 00 28 c2 bf df e4 e4 bf a3 e6 8e bf 0d c5 30 c0
       -1.5168457 -1.7882346 -1.1164135 -2.762027
000330 d9 cd 81 3f 3b f7 db bf bd aa 01 40 1b ea dd 3f
       1.0140945 -1.7184824 2.026046 1.7337068
000340 76 7c 53 bf f5 7b f2 40 5c c0 14 be fd 7f 08 3f
       -0.8261179 7.5776315 -0.14526504 0.53320295
000350 f9 22 6c bd 7c 80 50 bf 35 ec a4 bf 38 5e 0b 3f
       -0.05765054 -0.8144605 -1.2884585 0.5444064
000360 e5 dd 2c bf d3 86 c9 3f 67 9b 6a 3c 7c 5b 25 ba
       -0.67526084 1.574427 0.014319277 -0.0006307883
000370 94 2f fd bf 16 f9 53 c0 82 35 dd bf 7f a7 88 3e
       -1.9780145 -3.312078 -1.7281954 0.2669029
000380 b7 f5 01 40 59 2e 16 c0 bf 49 be 40 4f 2a d3 bf
       2.0306222 -2.3465788 5.946502 -1.6497287
000390 33 4a 95 3f f8 4d 0d 41 b9 80 c0 bd fe 66 65 3f
       1.1663269 8.831535 -0.09399552 0.8961028
0003a0 b8 ca 53 3e ef 63 4b bf fd 22 61 bd 4b 11 f4 bc
       0.206828 -0.7944936 -0.054965008 -0.029793402
0003b0 bd 38 c8 bf b0 f2 05 3f d1 16 35 bf 08 3f 73 3e
       -1.5642315 0.52323437 -0.7073794 0.23754513
0003c0 77 5f b0 bf 27 4d 06 c0 e7 a0 7e bf 05 e2 ab 3f
       -1.3779134 -2.098459 -0.9946427 1.3428351
0003d0 1b 85 16 3f 60 82 cc bd 88 95 80 bd 0a 79 af be
       0.5879685 -0.099858046 -0.06278521 -0.34272033
0003e0 b3 6d d8 3e f2 73 ef 3f f1 5b bd bf fc 55 05 c0
       0.42271194 1.8707259 -1.4793683 -2.083373
0003f0 d1 00 25 c0 ee 89 e7 40 21 b3 83 40 2b a4 1e c0
       -2.5781748 7.235587 4.1156163 -2.47877

encoder.linear1.bias f4 [64]
000000 56 8f 0d 40 5a f0 8b 3f 34 14 36 c0 62 2d d7 be
       2.2118735 1.0932724 -2.844983 -0.42026812
000010 bb f8 07 c0 dc 04 8d 40 7e a3 85 3f c9 64 fa bf
       -2.1245563 4.406843 1.0440519 -1.9562007
000020 c2 84 65 be c8 4f 12 40 08 5e 22 c0 a2 ba 6d 40
       -0.22413924 2.2861195 -2.5369892 3.7145162
000030 29 11 74 3f b4 9b 89 bf ee 97 bd bf a2 ad 78 be
       0.95338684 -1.0750642 -1.481199 -0.24284986
000040 99 3b d7 bf f2 f5 e1 3f 8d 44 9d 3f 57 36 39 40
       -1.6815063 1.7653182 1.2286545 2.8939416
000050 26 8f 1d 3f a8 ff 66 be 12 9e 47 40 bf 28 5e bd
       0.6154655 -0.22558463 3.1190228 -0.054238077
000060 69 a4 17 3f 6a 51 01 40 a7 24 c1 40 5d c1 a3 3f
       0.59235245 2.0205941 6.035724 1.2793385
000070 8d 25 a5 40 70 e8 da 3f 41 e3 e5 be fd ed d9 bf
       5.160834 1.7102184 -0.44899943 -1.7025753
000080 61 7b ef 3e 3b 38 93 be 0f 83 a1 3f 5d 8d 49 40
       0.46773818 -0.28753838 1.2618121 3.1492531
000090 d7 1c 53 40 c1 70 ce be fc 4a 4f bc 5f 24 8b 3f
       3.2986352 -0.403204 -0.012652155 1.0870475
0000a0 5d 37 52 40 d7 75 30 40 70 33 a5 be 79 f6 6d 3e
       3.284629 2.7571924 -0.32265806 0.23238553
0000b0 c4 9d bc 3f 1c 76 cc bf 79 d2 5f 40 33 cf 07 40
       1.4735646 -1.5973544 3.4972212 2.1220214
0000c0 88 91 f8 3f b9 4b c7 3e 8f e8 7b 40 54 79 5a 40
       1.9419413 0.3892496 3.9360693 3.4136553
0000d0 8a 01 05 40 42 63 db bc b1 55 92 be 18 8f 34 40
       2.078219 -0.026780728 -0.28581002 2.8212337
0000e0 b6 5c fc 3f 27 aa f4 3e 31 89 6a bf 92 b2 6e bf
       1.9715793 0.47786066 -0.9161559 -0.93241227
0000f0 5c 04 da be d6 42 62 40 4a ee 06 3f 35 5a 57 bf
       -0.4258145 3.5353293 0.5270735 -0.8412202

encoder.linear2.weight f4 [10, 64]
000000 43 ef 9a 40 5a 08 24 3f ab 75 9e be 39 cf 6f 3f
       4.8417068 0.64075243 -0.3094915 0.9367557
000010 f3 0d 0b 3f d1 b5 06 41 d1 7c 95 40 a6 91 ff be
       0.5431816 8.419389 4.6714864 -0.49915808
000020 88 d5 52 3f a8 65 41 c0 d6 f2 b4 3f 3d 57 d0 40
       0.8235707 -3.0218296 1.4136608 6.510649
000030 6c b0 1b 3f 72 c2 f1 be 15 35 ef 3e b2 68 f8 3e
       0.60816073 -0.47218663 0.46720186 0.48517376
000040 35 91 82 3f 36 25 ba 3e 96 05 2c 3e 88 64 67 bf
       1.0200564 0.36356515 0.16799006 -0.90387774
000050 df d5 d1 3f 40 96 73 bf d8 4e 55 c0 19 73 2d 3f
       1.6393393 -0.9515114 -3.3329372 0.6775375
000060 c9 24 1b 40 17 15 ad 3c 2a cb 13 41 c3 2e 56 3f
       2.4241202 0.02112822 9.237101 0.836651
000070 00 f5 d7 40 e0 5e a9 40 1f e0 ae 3f ba 91 00 be
       6.748657 5.2928314 1.3662146 -0.1255559
000080 bb 9d 05 c0 99 e7 84 c0 14 db e9 40 f3 cc d0 3f
       -2.087752 -4.153271 7.307993 1.6312546
000090 a5 2d a2 3f 0a 97 5c 3f 89 e9 9a 3f c6 7f fc 3e
       1.267018 0.8616797 1.2102519 0.49316233
0000a0 92 7e 99 3f 6c a3 97 3f 5a 6a c0 3f 5c 86 28 40
       1.1991751 1.1846747 1.5032456 2.6332006
0000b0 12 06 47 40 f3 8b 02 3e 42 05 9f 40 90 a4 1a 40
       3.1097455 0.12748699 4.969392 2.416294
0000c0 6f 52 9c 40 a5 c7 3a 3f ac 78 39 bf 51 9c d5 40
       4.8850627 0.72960883 -0.72449756 6.6753316
0000d0 df 8d 15 41 fe b4 aa 3f bb 9e d5 3e e2 88 43 3f
       9.3471365 1.3336484 0.41722664 0.7638074
0000e0 00 c0 43 41 c4 55 51 40 2a a5 dd 3f 83 ac 7e 3e
       12.234375 3.2708597 1.7316029 0.24870495
0000f0 cd 7e ce 3e c2 68 b7 40 60 c8 29 bf 73 8d 87 3e
       0.40331116 5.731538 -0.66321373 0.26475105
000100 42 e6 b4 bf 82 35 04 3f 0a 6d b4 3e 03 a7 28 3f
       -1.4132769 0.51644146 0.3523944 0.6587984
000110 7c 1c 08 3e 26 9d 7d c0 f5 5d 9b 3f 72 1b 63 bf
       0.13292116 -3.9627166 1.2138048 -0.88713753
000120 13 6f ca 3f ec d3 87 be e1 8d f9 be 48 97 15 c0
       1.5815147 -0.2652887 -0.48741058 -2.3373585
000130 7a 64 ba 3f 16 b5 70 c0 1c bb 68 bf c5 43 90 bd
       1.4561913 -3.7610526 -0.90910506 -0.07044176
000140 d6 5a 4c bf a0 47 d0 3f 6e 29 cc 3f 8e b8 ec 3f
       -0.79826105 1.6271858 1.5950143 1.8493822
000150 2b cd 19 40 ed dd d7 3f fe 92 a8 bf 8a 11 69 be
       2.4031475 1.6864601 -1.3169858 -0.22760597
000160 69 5d 27 3e fb 57 2e 40 45 ad 48 c0 e3 0d 37 3f
       0.16344227 2.72412 -3.1355755 0.71505564
000170 76 b8 a7 bf 29 98 85 40 d5 86 4b be b7 46 5a 3f
       -1.3103168 4.174824 -0.19875653 0.8526415
000180 98 5f 0b 41 c7 89 20 41 9b 44 8b 3f 21 54 8a 40
       8.710838 10.033637 1.0880312 4.3227696
000190 cb 67 4c c0 b9 c6 dc be 6a c3 e4 be 7b f1 aa 3f
       -3.193835 -0.43120363 -0.4468034 1.3354944
0001a0 f4 0e c9 40 15 51 70 40 54 1d e7 be f9 ad 01 40
       6.2830753 3.7549489 -0.45139563 2.0262434
0001b0 67 79 b5 40 03 10 2d be 0f e6 cb bf 6f 79 e5 40
       5.6710696 -0.16900639 -1.5929583 7.1710734
0001c0 b0 0c 29 bf 82 3f ca 3f 55 e9 1f 40 89 a7 45 40
       -0.66034985 1.5800631 2.4986165 3.0883505
0001d0 4b b7 ae bf 60 c9 d2 3f 40 96 a5 bc 42 92 86 40
       -1.3649687 1.6467705 -0.020213246 4.2053537
0001e0 41 06 cf c0 79 74 0b 40 b1 76 e6 3e b9 ff b1 3f
       -6.4695134 2.178984 0.4501243 1.3906165
0001f0 04 8a ae 3e 67 eb 1f c0 fe 4b 8d 40 fe 11 93 3f
       0.34089673 -2.4987428 4.4155264 1.1489866
000200 db 55 b2 3f a5 e4 45 3f d2 9b 36 bf 4d ff 8f 3f
       1.3932451 0.7730201 -0.7133151 1.1249787
000210 93 e2 ee be 20 d1 81 40 cd d1 8a c0 bc ba 1e 40
       -0.46657237 4.056778 -4.3381104 2.4801474
000220 da 73 c7 3c 28 67 14 be 7f 6b 17 bf 1c 85 ec 3f
       0.024347235 -0.14492476 -0.591484 1.8478122
000230 bf 1c b7 bf 7c 1e a6 3f e1 fd f5 bd 29 7a 21 be
       -1.4305648 1.2978053 -0.12011314 -0.15769257
000240 2b 18 c2 3e 0c 4d c6 bf 53 1c 1e c0 c7 ce a5 c0
       0.37909064 -1.5492263 -2.4704788 -5.1814914
000250 6d 96 41 c0 8b 7c 9f 3e 66 b6 89 bf 62 ef 9b 3b
       -3.0248063 0.31149706 -1.0758789 0.0047587613
000260 01 d6 d3 bf c6 cc 62 c0 b1 96 22 3c 18 80 3b bf
       -1.6549684 -3.5437484 0.009923623 -0.7324233
000270 0e cb fb 40 8e 60 e7 bf 81 70 70 3f cd 44 b2 bf
       7.868537 -1.8076341 0.9392167 -1.3927246
000280 08 e8 8b 41 de 3f 60 41 91 54 94 c0 c1 bb 3f c0
       17.488297 14.015593 -4.635323 -2.9958346
000290 e2 d9 1d 40 86 b7 8b 3e 61 66 72 3f ec 29 d4 be
       2.4664235 0.27288455 0.9468747 -0.41438234
0002a0 c2 30 88 c0 06 d0 92 c0 b9 8f 50 3f 87 1a 1f c0
       -4.255952 -4.5878935 0.81469303 -2.485994
0002b0 dc 4d 1a 40 1c 73 1e bf 29 bc ce 3f b7 45 89 c0
       2.4110022 -0.6189439 1.6151172 -4.28976
0002c0 4c 91 e7 bc bd 79 63 bf 05 2c 4f c0 6a 12 3b 3d
       -0.028267525 -0.8885763 -3.2370617 0.045671858
0002d0 fe 64 00 41 a7 73 29 be df 63 16 3f 49 ed 4b c0
       8.024656 -0.16548024 0.5874614 -3.1863577
0002e0 38 b4 1e c0 48 73 0c bf 58 47 65 bf a0 0e f1 3c
       -2.4797497 -0.54863405 -0.89561987 0.029425919
0002f0 8b fe ec bd e1 52 5f bd 21 ff 4f c0 64 29 83 3e
       -0.11571988 -0.0545224 -3.2499468 0.25617516
000300 b7 2b 7e 40 6d 15 06 c0 65 20 6a 3f c7 3b 60 40
       3.9714181 -2.0950577 0.9145568 3.5036485
000310 48 a4 a3 3e 8c 69 97 3e 7a be ef 3f 3a ac 17 40
       0.31961274 0.29572713 1.8730004 2.3698869
000320 db 61 84 3e aa e0 de bf fe 89 74 3e 5f 9a 33 40
       0.25855908 -1.7412312 0.23880765 2.806297
000330 ca 95 07 c0 84 75 42 bf 40 38 62 3e df 10 13 3f
       -2.1185174 -0.75960565 0.2209177 0.5744762
000340 fb d9 4e bf d8 e9 ec 3f be b3 8c 3f ba 35 0e 40
       -0.8080136 1.8508863 1.0992353 2.2220292
000350 85 91 a7 3f 40 e3 1a bf da 6a f3 bf eb 43 fc 3e
       1.3091284 -0.60503006 -1.9016984 0.49270567
000360 b3 d3 c3 3e ce ce 28 3f 22 4f b9 bf 45 d8 99 bf
       0.3824745 0.6594056 -1.4477274 -1.2019125
000370 0f 92 e3 3f a1 7d 3d 40 17 c1 5a 3f 89 f0 b4 be
       1.7778949 2.9607928 0.8545088 -0.35339764
000380 f7 5a 12 41 87 cb 24 41 a9 3d 3e c0 cb ca 9f 3c
       9.147208 10.299689 -2.9725134 0.019505879
000390 38 fc 04 41 5a 37 bf 3e d3 f1 74 3f 66 a0 ad bf
       8.311577 0.37346917 0.95681494 -1.3564575
0003a0 58 aa 48 3d 5c a1 88 40 c2 01 6b 3f 25 ce e0 3f
       0.048990577 4.269697 0.9179956 1.756291
0003b0 08 5c bf 40 75 95 69 3e fd 34 15 40 77 20 b6 3f
       5.9799843 0.2281092 2.3313591 1.4228657
0003c0 5d 91 fc bf 01 cd ff be 09 3d d5 3f bf 5e 32 40
       -1.9731861 -0.49961093 1.6659251 2.7870328
0003d0 29 54 9b 40 52 94 26 3f 24 2b f1 3e 4b 54 f8 3f
       4.8540235 0.6507007 0.47103226 1.9400724
0003e0 66 3e 9a c0 2d 25 ed 3f 72 4b 0b 40 c9 c5 c3 3f
       -4.820117 1.852697 2.1764798 1.5294734
0003f0 fe 3d 39 3f 86 25 60 3f 71 9c c0 bf 11 8d 39 3e
       0.7236022 0.87557256 -1.5047742 0.18120219

encoder.linear2.bias f4 [10]
000000 12 51 20 40 fc 3b ec be 58 7e 04 bf c0 2a dc bf
       2.5049481 -0.46139514 -0.51755285 -1.7200546
000010 2c f1 21 be 31 52 92 bf b4 9c 77 be 18 c9 94 3e
       -0.15814656 -1.1431333 -0.24180871 0.29059672
000020 21 3a 85 3f b2 f0 a8 3d
       1.0408365 0.08249034

encoder.norm1.weight f4 [10]
000000 ae 93 85 40 82 7b 39 be 42 43 1e 40 b2 56 85 3f
       4.1742773 -0.1811352 2.472855 1.0417082
000010 66 72 5b 3f ac fd 23 40 44 46 79 bd b8 6d d0 be
       0.85721433 2.562358 -0.060858026 -0.4070871
000020 f9 9f 48 40 d8 87 9a 3f
       3.134764 1.2072706

encoder.norm1.bias f4 [10]
000000 b1 bb 82 bf 6c a1 23 c0 dd bf 4d bf c9 c1 6a 3f
       -1.0213529 -2.5567274 -0.80370885 0.9170194
000010 03 bb f2 3f 0c ed 17 bf 83 92 a3 3f 2a 9e 26 bf
       1.8963321 -0.5934608 1.2779087 -0.6508509
000020 68 11 9f 3f 0b 10 5b bd
       1.2427187 -0.053482097

encoder.norm2.weight f4 [10]
000000 69 ae d4 be ad 88 21 bb 7a c7 df 3e b1 a0 c4 bc
       -0.41539314 -0.0024648116 0.43706876 -0.024002405
000010 ce 33 59 be 04 af 00 bf d1 c1 50 bf 24 32 19 be
       -0.21211168 -0.5026705 -0.8154574 -0.14960533
000020 56 e8 56 3d be 06 32 3e
       0.052467667 0.17385384

encoder.norm2.bias f4 [10]
000000 8e 1d 88 3f 76 d9 b1 bf 4f b1 15 bd d4 da 12 be
       1.0634019 -1.3894489 -0.036546048 -0.14341289
000010 f1 03 bf bf 8b e5 84 3c a9 1b 53 c0 33 85 92 3f
       -1.4923078 0.016222736 -3.2985632 1.1446899
000020 1d a4 e7 be 24 c5 ed bf
       -0.45242396 -1.8575788

l2.weight f4 [64, 3200]
000000 58 1f 7c bf 84 48 0c 3f 38 07 6b bf c6 55 6d 3f
       -0.98485327 0.5479815 -0.9180789 0.92709005
000010 da 99 ab 3f a7 89 0e 3e 84 1c 67 3f 1e 87 1f bf
       1.3406327 0.13919698 0.90277886 -0.6231555
000020 b2 af e0 be c2 31 71 3f 27 4d 9f be 00 4c 8b 3e
       -0.43884045 0.9421655 -0.3111355 0.2720642
000030 d7 d7 e6 be cd 34 65 3f 4f b8 b5 3f 14 27 07 be
       -0.45086548 0.8953369 1.4196872 -0.13198501
000040 15 a8 30 3f 5b ff 11 bf 1d 1e 9a be d3 c4 5f 3f
       0.6900647 -0.57030267 -0.301011 0.87409705
000050 8e 22 c0 be 82 ea 0f 3e 08 cf e3 3b fe 7f bc 3f
       -0.37526363 0.14054301 0.0069521703 1.472656
000060 90 f3 a9 3f 57 d5 1d 3f 9f d0 85 3f 67 34 20 bf
       1.3277454 0.61653656 1.0454291 -0.6257996
000070 bb 7f aa 3e 56 df 62 3f 6f ee b4 be d1 8e c0 3e
       0.33300576 0.88622034 -0.3533816 0.3760896
000080 df 55 40 bf 72 5d 69 3f 2d e0 a4 3f 7f 1a d0 be
       -0.7513103 0.9115821 1.2880913 -0.40645215
000090 09 94 9a 3f a4 b2 04 bf 99 20 f7 be 90 4a 82 3f
       1.2076427 -0.51835084 -0.48267058 1.0179005
0000a0 b1 75 0a bf 17 7b a5 3d 04 7d 7d bf bc 4c 67 3f
       -0.5408583 0.08080118 -0.99018884 0.9035146
0000b0 ad b7 98 3f c3 5a 8d be eb ed 7e 3f ae 38 30 bf
       1.1931053 -0.27608308 0.99581784 -0.68836486
0000c0 bd 99 47 be f7 22 81 3f ea e9 90 3e 97 94 00 3f
       -0.1949224 1.0088795 0.28303462 0.5022673
0000d0 7f e7 33 bf d8 9d 2f 3f 0e 68 a3 3f 65 91 49 3d
       -0.7027511 0.68600225 1.276613 0.049210925
0000e0 44 5d 7b 3f ff 1d f5 be 1f 9d df be ac 5e 6c 3f
       0.9818919 -0.47874448 -0.4367456 0.9233196
0000f0 24 c8 e8 3e a9 7e da 3e c1 c2 8a bf 54 54 26 3f
       0.45465195 0.4267476 -1.0840684 0.64972425
000100 3a 00 c3 3f 66 0f 79 bd 0a 98 54 3f 49 3d 62 bf
       1.5234444 -0.0608057 0.83044493 -0.88374764
000110 34 9b ff bd 84 6c 24 3f 33 a0 da be 92 a2 ab 3e
       -0.124807745 0.6422808 -0.42700347 0.3352247
000120 e2 28 86 bf ee ed 75 3f 3f 56 a9 3f 7c d7 91 be
       -1.0481226 0.96066177 1.3229445 -0.28484714
000130 a5 54 7d 3f 0f 3a 3a bf e7 92 4e 3e f0 1b 6d 3f
       0.9895728 -0.7274484 0.20173226 0.92620754
000140 99 0e f5 3d b9 be f5 3e 91 d1 23 be 97 74 a6 3f
       0.11965675 0.47997072 -0.15997912 1.300433
000150 e2 0e aa 3f 6b d1 2d 3f 75 75 72 3f ed c6 1e bf
       1.3285792 0.6789767 0.94710475 -0.62022287
000160 f7 bd 96 3c 08 83 49 3f 4f 76 93 be 7f 20 c3 3d
       0.01840113 0.7871556 -0.288012 0.095276825
000170 98 37 21 bf 43 bf db 3e 2d cc 8e 3f 72 45 57 3e
       -0.62975454 0.4291936 1.115606 0.21022585
000180 ae 91 4a 3f 2d 35 02 bf 8e 58 8d 3e 9e 2a 70 3f
       0.7912854 -0.5086239 0.27606624 0.9381503
000190 49 38 d9 be b7 82 46 3e 15 42 06 bf 4c 4d b2 3f
       -0.42425755 0.19385801 -0.52444583 1.3929839
0001a0 c4 b0 a5 3f 80 32 ba 3e cf fe 56 3f 35 b2 34 bf
       1.294457 0.36366653 0.8398256 -0.7058442
0001b0 fc 65 07 3e b4 9d 5d 3f 7d 71 09 bd a5 40 c9 3d
       0.13222498 0.8656876 -0.033555496 0.09826783
0001c0 e8 b8 8b be af a7 78 3f 6f 3c b6 3f ac 17 01 bf
       -0.2728951 0.97130865 1.4237193 -0.50426745
0001d0 22 92 1d 3f 0f d9 50 bf 77 13 a8 3d 99 5e 53 3f
       0.61551106 -0.81581205 0.082068376 0.8256622
0001e0 d7 fd d2 3e d2 bf b1 3e cc 38 9d be 36 18 97 3f
       0.4120929 0.3471666 -0.30707395 1.1804264
0001f0 c2 bd a7 3f 67 ac 28 3f fb b8 27 3f d9 3f 21 bf
       1.3104784 0.65888065 0.6551663 -0.6298805
000200 c1 38 b2 3c 6f 50 5e 3f de 9e fb be 5d ea cc 3e
       0.021755578 0.8684148 -0.49144644 0.40022555
000210 f6 4f d7 be 0f 90 83 3f f8 0c ae 3f bf fb bb be
       -0.42053193 1.0278338 1.3597708 -0.36715505
000220 4c cd 4e 3f ac 62 0c bf df c1 7a bd 0c 39 44 3f
       0.8078201 -0.5483806 -0.061220046 0.76649547
000230 d8 9d be 3d d4 38 1f 3f 2b 28 a5 be ba 02 a6 3f
       0.0930745 0.6219609 -0.32257208 1.2969582
000240 43 db b5 3f 31 db 15 be 87 3c 4a 3f c1 e0 b6 be
       1.4207538 -0.14634396 0.7899861 -0.3571835
000250 e6 33 f6 be 76 81 80 3f c8 42 23 3e ba ff a3 3e
       -0.4808647 1.0039508 0.15943444 0.3203104
000260 8d d7 2f bf 15 5b 89 3f 94 7c ae 3f 0f 1b cb 3d
       -0.6868828 1.0730921 1.3631768 0.099172704
000270 1f 5a 73 3f 6e 7b 4f bf 61 4e 0a 3e 19 15 66 3f
       0.9505939 -0.81047714 0.13506462 0.8987594
000280 a9 89 53 3e 08 ca da 3e 93 7d 6f bf 57 77 74 3f
       0.20657982 0.42732263 -0.93550986 0.954946
000290 ce 7d b0 3f ae 80 24 be c5 0a 73 3f bf 14 40 bf
       1.3788393 -0.16064712 0.9493831 -0.75031656
0002a0 bf b5 86 3e 13 59 84 3f 1d 75 92 bd a7 c5 db 3e
       0.26310536 1.0339683 -0.07151244 0.42924234
0002b0 7d 52 56 bf 6a 94 a2 3f ef 58 b1 3f e5 e7 83 3d
       -0.8371962 1.2701542 1.3855265 0.06440715
0002c0 9c 95 66 3f 67 35 58 bf 0e 68 e5 bd d4 3e 3a 3f
       0.90072036 -0.84456486 -0.112014875 0.7275212
0002d0 e4 60 33 bf 51 d2 03 3f 11 d4 27 be 2c 80 8a 3f
       -0.7006972 0.5149279 -0.1638949 1.0820365
0002e0 1a 99 a3 3f 16 5f 1c 3f 0e 7b 70 3f f2 a2 37 bf
       1.2781098 0.6108259 0.93937767 -0.7173301
0002f0 51 ae 63 3e bc c9 51 3f bb d9 b5 be 59 e8 47 3e
       0.22234465 0.8194845 -0.35517678 0.19522227
000300 da cd 0b bd 1d a3 9c 3f 02 c0 bf 3f 31 36 8f 3e
       -0.034131862 1.2237278 1.4980471 0.27971032
000310 cd 96 7d 3f 23 25 27 bf a6 0e 12 3f 19 d5 17 3f
       0.9905823 -0.6529104 0.570536 0.59309536
000320 53 ac 42 bf d9 b2 e6 3e 4c ea 85 3c a3 55 68 3f
       -0.76044196 0.45058325 0.016347073 0.9075567
000330 f5 e1 8f 3f 6e 16 ed 3d 20 ea 6e 3f a6 32 4e bf
       1.1240832 0.11576544 0.93325996 -0.80546033
000340 86 ee 39 be 6b 76 54 3f 02 be ce be cb b0 53 3e
       -0.18157396 0.8299319 -0.4037934 0.2067291
000350 5f dc 7f be cc ea a0 3f b1 eb 8a 3f 91 a0 96 3f
       -0.24986409 1.2571654 1.0853177 1.1767751
000360 a1 08 93 3f ab c9 7f be 41 f4 67 bd 20 27 81 3f
       1.1487008 -0.24979274 -0.056629423 1.0090065
000370 b3 89 3f bf a3 a8 3d 3f 23 03 a4 bd b2 bd 51 3f
       -0.7481949 0.74085444 -0.08008411 0.8193008
000380 4a 09 a6 3f 3f 22 1b 3e fa 2e 7d 3f b8 f6 c7 be
       1.2971585 0.15149783 0.98899806 -0.3905542
000390 11 1b 49 3d 0b 59 62 3f 26 cf f6 be 47 09 41 3f
       0.04909808 0.8841712 -0.48204917 0.7540478
0003a0 73 27 8b bf 7a df 7d 3f e0 a5 bd 3f 2c 7a 8f 3d
       -1.0871414 0.99169123 1.4816246 0.07005724
0003b0 db 4b 66 3f a0 ab 43 bf df 91 a1 bd c0 1e 5a 3f
       0.89959496 -0.76433754 -0.07889151 0.8520317
0003c0 67 64 03 be 99 76 12 3f f9 22 ed be ca 5d 58 3f
       -0.12831269 0.57212216 -0.46315745 0.8451811
0003d0 77 cb a1 3f a4 ad 22 3e af 89 7f 3f 70 55 04 bf
       1.2640218 0.15886551 0.99819463 -0.5169287
0003e0 b6 0e f7 bc 1e 2a 58 3f 1b b8 0f be 25 69 9a 3e
       -0.030158382 0.84439266 -0.14035074 0.30158344
0003f0 e9 6a 82 bf fa f1 4c 3f 5c 7e 9f 3f b8 05 69 3d
       -1.0188876 0.80056727 1.2460437 0.05689022

l2.bias f4 [64]
000000 d4 c8 a8 bf 28 ef 53 bf d6 f2 2b bf a6 e3 1f c0
       -1.3186288 -0.827868 -0.67167413 -2.4982696
000010 5c 5d 22 bd 56 b5 17 bf 5a ff c1 be 0f e3 6e c0
       -0.039639816 -0.5926107 -0.3789013 -3.7326086
000020 c7 8a 6b c0 30 58 ef 3d c9 c2 2c bc de ca b6 bf
       -3.6803453 0.11686742 -0.010544487 -1.428066
000030 09 36 3c c0 bc a5 a0 bf 9c dd 92 bf 7e d7 d7 be
       -2.940798 -1.2550578 -1.147388 -0.42156595
000040 72 d8 c6 bf 91 95 1a be 43 be 1d 3f d3 79 62 bf
       -1.5534804 -0.15096118 0.6161844 -0.8846714
000050 74 32 1f 3e bf cd 32 c0 b3 a7 78 bf f9 8e a5 bf
       0.1554659 -2.7938077 -0.9713089 -1.2934257
000060 b0 10 af bf f7 b4 78 bf 02 f5 02 3f cf b8 e4 bd
       -1.3676968 -0.9715113 0.511551 -0.11168062
000070 b4 90 e9 bf 17 51 91 bf 5b a0 46 3d e0 24 05 bd
       -1.8247285 -1.1352872 0.04849277 -0.03250587
000080 68 6b b6 be b6 2d 4b bf 43 cd 7b bf 8a 5b 68 bf
       -0.3562882 -0.79366624 -0.9836008 -0.9076468
000090 28 32 56 bf 0e 50 c3 bb 23 5b 3e be 62 5e 05 bf
       -0.8367028 -0.005960471 -0.18589453 -0.5209714
0000a0 e2 d6 8f c0 20 aa 17 bf 19 c6 20 bf 85 73 3c bf
       -4.494981 -0.59243965 -0.62802273 -0.7361377
0000b0 d3 ad cb be 32 ed 9e be 1a 21 d6 be ef 79 6f bf
       -0.39781055 -0.3104034 -0.4182213 -0.9354543
0000c0 71 e9 12 c0 35 4e e5 bf 66 70 38 c0 4d 22 50 3e
       -2.2954981 -1.7914492 -2.8818603 0.20325585
0000d0 c1 62 41 c0 d1 5c 33 be a3 09 1a c0 1d 48 10 bf
       -3.0216525 -0.17515875 -2.4068382 -0.56360036
0000e0 5d 92 63 be 63 45 91 3e 06 35 d6 bf 5c 51 8a bf
       -0.22223802 0.2837325 -1.6734931 -1.0806079
0000f0 47 d0 75 bf 75 6f c7 bf 1e 40 28 c0 de 36 fe be
       -0.9602093 -1.5580889 -2.6289134 -0.49651235

l3.weight f4 [64, 66]
000000 c6 d5 da 3f 72 28 06 3f 03 98 47 bd 8b e3 2f 3f
       1.7096488 0.52405465 -0.048728954 0.6870658
000010 51 75 4c 3f bb 4f e6 3c a0 a6 12 3f b3 0d 28 3f
       0.7986651 0.02811419 0.572855 0.65645903
000020 ea 53 e7 3e 7d 25 6f 3e 5b 34 c0 3f 1b 00 dc 3e
       0.4518121 0.23354144 1.5015978 0.4296883
000030 05 62 4d 3f 84 94 ca 3e 8a 2c 9c 3f e0 65 8b 3d
       0.8022769 0.39566433 1.2201092 0.068065405
000040 5f 8b 52 3f 1b 27 18 3f 7d fa a5 bd 83 e5 20 3f
       0.82243913 0.5943467 -0.081044175 0.6285021
000050 ad 2a 99 3f ae 85 c7 3e c9 01 7c 3e 6f 6d d4 3e
       1.1966149 0.38969177 0.24610056 0.4148974
000060 f8 62 20 3f ce b8 07 3f af ac b9 3f 96 3c 17 3f
       0.62651014 0.53016365 1.4505824 0.5907682
000070 64 c6 8a 3e b6 04 6e 3f 42 84 f1 3f ce 85 34 3f
       0.27104485 0.9297594 1.8868487 0.7051667
000080 b9 6a 22 3f 42 96 23 3f cf d1 59 3f 87 f0 73 3f
       0.63444096 0.6390115 0.8508577 0.9528889
000090 2f 32 34 3f 18 c5 91 3f f3 aa 85 3f e7 0c b1 3f
       0.70389074 1.1388273 1.0442795 1.3832062
0000a0 2a 45 f7 3e 53 35 5a 3e 9a 74 07 3f 10 c8 a6 3e
       0.48294955 0.21309404 0.52912295 0.3257451
0000b0 6d 0b 10 3f 64 29 89 3e 40 c1 55 3f f1 46 a9 3f
       0.56267434 0.2678939 0.83498 1.3224775
0000c0 d8 6e 14 3e f3 68 fa 3c 63 40 2f 3f 67 3a f6 3d
       0.14495409 0.030567622 0.6845762 0.12022858
0000d0 66 dc 00 3e 47 20 73 3f 07 4a 43 3e 4a 34 d0 3e
       0.12584075 0.94971126 0.19071208 0.40664893
0000e0 c3 bb f3 3f 27 28 6a 3f 61 e7 9b 3f 61 8d 50 3f
       1.9041675 0.9146752 1.2179986 0.8146573
0000f0 47 d1 83 3f 61 78 58 3f ac 6a 63 3f 83 d1 89 3e
       1.0298241 0.84558684 0.88834643 0.26917657
000100 d2 82 24 bf bc 1d 7e be 09 89 8c 3f 3f b1 78 3f
       -0.64262116 -0.2481603 1.097932 0.97145456
000110 56 e8 90 bc 5d a6 32 3f ad 53 04 3f cb c5 bb 3e
       -0.017688911 0.697851 0.5169018 0.36674342
000120 29 09 36 3f b0 9f ae 3e a0 b4 a5 3e 35 9e ce 3e
       0.7110773 0.34106207 0.32364368 0.40355077
000130 25 ae dd 3e 78 68 68 be 51 fe c1 3e eb 82 0f 3f
       0.43296924 -0.22696102 0.3788934 0.5605914
000140 b0 8d 85 3f 82 93 99 3e 91 4c 50 3f dd 22 7a 3f
       1.0433865 0.29995352 0.8136683 0.9770945
000150 4f 5e 6a bf 15 cf bd 3e 72 e7 06 3e eb ad 10 ba
       -0.91550153 0.37072054 0.13174227 -0.000551908
000160 e3 50 e4 bd 34 9b 03 3e af fd a8 3e b7 1f a6 3e
       -0.111482404 0.12852174 0.33006045 0.32446072
000170 4a 66 25 3e 1a b2 53 3f 21 50 21 3f 88 38 d3 3e
       0.16152301 0.82693636 0.6301289 0.41254067
000180 cb 02 c4 3e ff 0b 11 3f e1 30 03 3f d2 0e a9 3f
       0.3828338 0.5665893 0.5124646 1.3207648
000190 ae bb 65 3e 00 25 27 bf a0 a7 8e 3e 67 8c 0a 3e
       0.22434875 -0.6529083 0.27862263 0.13530122
0001a0 3f 04 d8 3e d1 85 92 3f 6f 51 80 bd 0f 58 b0 be
       0.4219074 1.1447088 -0.06265532 -0.34442183
0001b0 9e 41 7d 3e ca 9e 14 3f f7 19 bc be d4 7b 5f 3f
       0.24732062 0.5805479 -0.3673856 0.8729832
0001c0 25 bb 32 3e f4 8c fe 3e b7 69 44 be aa 92 eb 3e
       0.17454202 0.49716914 -0.19180952 0.46010333
0001d0 66 9a 8a 3e 8b f6 38 be 39 9c c9 3c 38 dd 97 3e
       0.27070922 -0.18062799 0.024610626 0.29660964
0001e0 58 16 34 bd 15 73 eb bf 5a 95 8f bd 81 56 34 3f
       -0.04396662 -1.8394495 -0.070109084 0.70444494
0001f0 6c 0c 2b be 4e 5b 1d 3f b6 dc a9 be da b3 df 3e
       -0.16703957 0.61467445 -0.33176202 0.43691903
000200 a5 2e 71 3e f1 cd 9e bc e7 e8 a3 3f 81 58 a4 3d
       0.2355295 -0.01938531 1.2805451 0.08024693
000210 67 3e 89 3d 8d e1 03 be cf ca 0e be 21 f1 da be
       0.067013554 -0.1287901 -0.13944553 -0.42762092
000220 40 f3 3b 3f 9b 42 b6 be 59 91 a7 3e e0 a5 86 3c
       0.73418045 -0.3559769 0.3272808 0.016436517
000230 99 48 dd bc a2 a0 77 3f 3c 9c 9a be 05 9a 53 3c
       -0.027012156 0.9672948 -0.30197322 0.012915139
000240 7e 70 28 3f 44 79 df 3e ec 37 cc bd 9a 46 1b 3f
       0.6579665 0.43647206 -0.09971604 0.60654604
000250 40 5a 04 3e d4 9f 02 be ab b1 c8 3f 0f f1 64 3e
       0.12925053 -0.12756282 1.567922 0.22357582
000260 a4 69 c3 bc 65 e4 e1 3e 60 41 16 3f aa 21 d8 3e
       -0.023854084 0.44119564 0.58693504 0.42213184
000270 fc f9 21 3e c3 c3 78 3e 4e c7 d9 3d 5c 44 3a bf
       0.15818018 0.24293427 0.106337175 -0.7276056
000280 c8 0b c6 3e 4d 9b d9 3e 13 e4 e1 bf 29 d1 54 3e
       0.38680863 0.42501298 -1.7647728 0.20782913
000290 b0 fa 56 3d b0 91 9d be e9 96 9f be f8 d9 a0 bd
       0.052485168 -0.30775213 -0.31169823 -0.07854074
0002a0 26 87 d8 3d 7e 65 9f 3e 44 79 05 bf a9 9e 0d 3d
       0.105726525 0.3113212 -0.5213816 0.03457514
0002b0 c1 0a 04 3f 51 bf 12 3f 41 67 c8 3e c1 5a e5 be
       0.5157891 0.57323176 0.39141276 -0.44795802
0002c0 c1 76 cd bd 6f be 92 3f 56 2e 20 bf fa 71 a2 bd
       -0.10032416 1.1464366 -0.62570703 -0.079318956
0002d0 58 b8 b7 3e 70 f4 ff 3e 2f e3 b3 bd a8 6a bd 3d
       0.3588283 0.4999118 -0.08783566 0.09248859
0002e0 c5 ee b9 3e da 9d be be 1a d3 1a 3f b1 bb 8e 3e
       0.3631498 -0.37229806 0.60478365 0.27877572
0002f0 da 50 85 3e 4e 0d d7 be 99 31 25 be a0 5e 08 be
       0.26038247 -0.42002338 -0.16132201 -0.13317347
000300 32 11 94 3e 3a e5 02 3f ea ee 75 3d 30 43 3d 3f
       0.2891937 0.5113102 0.0600423 0.73930645
000310 92 e7 a8 be a4 08 cf be 74 0a cc 3e d9 ce 8a 3f
       -0.32989174 -0.4043628 0.39851725 1.0844375
000320 c7 85 0f 3f d9 00 82 3f 77 55 0a bf 11 2e c3 3f
       0.56063503 1.0156509 -0.5403666 1.5248433
000330 39 d4 fe 3d 7c be 48 3e 4f b5 e2 3e 37 05 92 3d
       0.12442822 0.19603914 0.44278952 0.07129901
000340 0e eb 3d 3e 92 a6 2d 3f ce 58 8b 3e 45 a4 bf 3e
       0.18546697 0.6783229 0.2721619 0.37430015
000350 e0 21 a0 bd ac df 62 3d 26 3c d4 3e 1f eb 48 3f
       -0.07818961 0.05538909 0.4145214 0.78483766
000360 28 fd 35 bf fe 15 f9 be 7a 7e de bd fd 6f 3d 3f
       -0.7108941 -0.4864959 -0.10863967 0.73999006
000370 48 a8 a1 3f 86 40 38 3f f4 25 2a 3f df 11 2d 3f
       1.262948 0.71973455 0.6646416 0.67605394
000380 95 2e ba be a5 ed d7 bd 80 c2 94 3e 91 c3 01 3d
       -0.36363664 -0.10543374 0.29054642 0.031680647
000390 e8 18 85 3d b0 a8 22 3e fe a0 03 3f d9 98 b8 3f
       0.06498891 0.15884662 0.5141753 1.4421645
0003a0 d5 02 f8 3e d3 e4 0c be 7a c4 e0 be fc 32 8b 3d
       0.4843966 -0.13759165 -0.438999 0.06796834
0003b0 f2 e0 52 3e 1f e8 a5 be ce 2a 26 3f bb 65 3f 3f
       0.20593622 -0.32403657 0.64909065 0.74764603
0003c0 50 b6 33 be b7 88 8f 3e 9e d6 b2 3e 8b 5c 43 bd
       -0.17550015 0.28033993 0.34929365 -0.047695678
0003d0 95 c5 29 bf aa c6 d7 3b 6e 6b 43 3f 22 4e 6e 3f
       -0.6631711 0.006584962 0.763358 0.9308797
0003e0 03 99 38 3e 87 da 0c 3f dc fb ae 3e 85 77 bf 3e
       0.1802712 0.55020946 0.34176528 0.37395874
0003f0 62 62 2b 3f dc c3 81 bd b9 31 5c 3d e2 b6 db 3e
       0.66946995 -0.06336185 0.053758357 0.42912966

l3.bias f4 [64]
000000 46 7f 61 bf 22 32 4a bf 9a 79 98 be 5a 41 14 be
       -0.8808483 -0.78982747 -0.29780275 -0.14478055
000010 ef c4 69 bf 63 f1 1d bf ea 43 15 3d da 60 2a bf
       -0.9131612 -0.6169645 0.03644172 -0.66554034
000020 a8 4e 5e be 3f 7e e6 bd e0 6a 0f bf a8 51 15 bf
       -0.21709692 -0.11254548 -0.56022453 -0.5832772
000030 d2 47 3f bf 31 17 2c bf 9e a5 f3 3d 92 0e 0a 3d
       -0.74718964 -0.6722289 0.11896823 0.0337053
000040 53 70 8f be ab ff 23 bf 86 82 b9 be b8 23 42 bf
       -0.28015384 -0.64061993 -0.36232394 -0.7583575
000050 9d 42 ab bf 77 48 ea be 22 d1 17 be 7c 59 92 bf
       -1.3379704 -0.4575841 -0.14825872 -1.1433558
000060 aa eb 23 bf 4b e6 b8 be 55 6e 0d bf 0c 9a 4a bf
       -0.6403147 -0.361132 -0.5524648 -0.79141307
000070 5f 04 85 be ab d7 a1 bf fc 61 33 be 0d ff 5b bf
       -0.25979897 -1.2643942 -0.17517847 -0.8593605
000080 3d d0 a3 3e bc f1 40 bf 6e 7b 96 bf 58 22 b1 bd
       0.3199481 -0.7536886 -1.1756418 -0.08649129
000090 eb f7 89 bf 04 d1 d9 be 62 e9 f9 bd 81 35 52 be
       -1.0778784 -0.4254228 -0.12202717 -0.20528223
0000a0 98 1f 45 bf f8 7c f3 3b 44 81 04 bf 0c 00 df be
       -0.77001333 0.007430669 -0.51759744 -0.43554723
0000b0 fd 89 b2 bf 33 98 b8 bf 18 27 c9 bf 0b 30 7b be
       -1.3948361 -1.4421448 -1.5715055 -0.24530046
0000c0 be c8 8b bf 2c 71 95 be df 85 e2 be da f2 21 be
       -1.0920637 -0.29187906 -0.4424276 -0.15815297
0000d0 a2 7d 16 bf 5f 5d 8f be 17 dd 74 bf 70 0f 61 bf
       -0.5878545 -0.28000924 -0.95649856 -0.8791418
0000e0 b9 94 fa 3d 30 63 28 be 81 bd 91 be eb d1 1f bf
       0.12235398 -0.16444087 -0.28464893 -0.62429684
0000f0 ae 8b de bd d3 80 3b bf 9e 3b 95 be 6d f8 4c bf
       -0.108664855 -0.73243445 -0.29147047 -0.8006657

l4.weight f4 [2, 64]
000000 8f 26 c4 bd b0 65 0f 3e 28 f6 53 3d 58 74 e2 3e
       -0.09577667 0.14003634 0.051748425 0.44229388
000010 41 f0 00 be 11 1f a2 3e 1f f4 ea bc 1d 15 cc be
       -0.1259165 0.31664327 -0.02868086 -0.39859858
000020 51 9e 5d 3e 38 06 65 bd 6b 61 53 be 06 29 4f 3e
       0.21642424 -0.055914134 -0.20642631 0.20230493
000030 7f 21 dd 3c 99 4c 1b be a5 ba b5 3d 30 d4 98 be
       0.026993511 -0.15165938 0.0887349 -0.29849386
000040 b4 70 22 be 89 20 c4 bb 8f e8 b4 3d 6d 0d f8 3d
       -0.15863305 -0.005985324 0.088334195 0.12111936
000050 55 34 a3 bd 6f 01 76 be e6 3e 28 3e 02 d0 ee 3e
       -0.07968966 -0.24023984 0.16430244 0.46643072
000060 db 91 98 be db b5 89 bd c5 13 d3 bd 35 29 13 3e
       -0.2979878 -0.06724139 -0.10306505 0.14371188
000070 c0 76 05 3e b9 75 09 3c cc e5 46 bd 02 c4 30 3f
       0.13033581 0.008389884 -0.048558995 0.69049084
000080 1c 3d 9b 3d 95 66 4a 3e 3c 05 39 be 39 d8 02 be
       0.07580015 0.19765694 -0.18068403 -0.12777795
000090 4c ef c3 3e 4a a0 94 bd 65 47 bd 3e ea e5 03 be
       0.38268507 -0.07257135 0.36968532 -0.12880674
0000a0 f0 e3 58 ba 3d 83 65 be d8 72 1c 3d 89 db 70 bd
       -0.00082737114 -0.22413345 0.03819546 -0.058803115
0000b0 60 f1 11 be 1d c3 d0 bd 23 cc 0f be 9a dd 00 3f
       -0.14252234 -0.10193465 -0.14042716 0.5033814
0000c0 c4 b9 d3 3d 5e 0a a9 bd 47 51 8a bd 64 ee 8d be
       0.10338166 -0.082539305 -0.06753784 -0.2772094
0000d0 18 1f 31 be 26 0e 1b be 80 d0 59 be 07 59 79 be
       -0.17297018 -0.15142116 -0.21270943 -0.24350367
0000e0 34 aa 55 3d ce d6 97 be 12 4d 8f 3e 18 7c 9d bd
       0.05216427 -0.2965607 0.27988487 -0.07689685
0000f0 2e 1c 52 be 94 65 c3 bd 25 9f 2d be a3 9d 87 bd
       -0.20518562 -0.09540859 -0.1695524 -0.06621864
000100 6d 6b 62 be 59 5d 6e 3e c9 04 ec 3d 99 12 de 3b
       -0.22111292 0.23277797 0.1152435 0.0067771194
000110 41 2b e9 3e 22 6c 35 3e c5 97 ae be e4 bd 5c be
       0.45540813 0.1771703 -0.34100166 -0.21556813
000120 05 3c d4 3c 70 b8 2c 3d 61 c4 4c 3e af fe 63 bd
       0.025907526 0.04216808 0.19996788 -0.055662807
000130 39 c0 6e bd af 01 62 be 2d fc 14 3e 44 d0 60 3b
       -0.058288787 -0.22070955 0.14549322 0.0034303823
000140 d7 ad 2d 3c c6 0f 5a bd c9 fc b4 3e 9c de b2 3e
       0.010600529 -0.0532377 0.3534911 0.34935462
000150 c2 bd 86 be 84 26 27 be 5a 74 7f bd 09 cd 72 3e
       -0.2631665 -0.16323286 -0.06236682 0.23711027
000160 fc d3 ed 3d 5b 60 92 3d 3d 88 6c be 4c 3a 85 3d
       0.116126984 0.071472846 -0.23098846 0.0650526
000170 bd 18 0c 3e 56 96 d6 3e df 5f 8f 3d 25 00 82 3d
       0.13681312 0.41911572 0.07000708 0.06347684
000180 9e ab 93 b9 9d cb 37 be a2 bb 7b be e2 8c b7 bd
       -0.0002816589 -0.17948766 -0.24583295 -0.08962418
000190 73 8a af 3e 6f 46 af 3e 1c 5c af be e7 60 e4 3d
       0.34285316 0.34233424 -0.3424996 0.11151295
0001a0 65 7c 5c 3d 43 de 82 be d7 71 9b 3d f2 bf 4b be
       0.05382957 -0.25560197 0.075900726 -0.1989744
0001b0 90 46 33 3e 13 c1 04 3f fe fc ac 3e 49 f3 0a bd
       0.17507386 0.5185711 0.33786768 -0.03392342
0001c0 d6 73 a2 3c 49 25 57 3e 43 f1 49 3e 5d e5 80 3d
       0.019830626 0.21010317 0.1972094 0.062937476
0001d0 32 2f 37 be 76 82 56 be b2 5b 61 be ec 00 93 be
       -0.17889097 -0.20948204 -0.22007635 -0.2871164
0001e0 87 ba 2b be b7 54 12 be ae 92 84 3e 12 de 9e 3d
       -0.16770373 -0.14290129 0.25893158 0.077572
0001f0 6e 77 2d be ab df 43 3c 7a f2 39 be 5d e3 a8 3d
       -0.1694009 0.011955182 -0.18158904 0.08246491

l4.bias f4 [2]
000000 e5 56 03 bf b6 5a d3 3e
       -0.51304466 0.41280144
