Formal Experiments/CSI500/Transformer-DoubleDQN-QT-Final/ModelParam/2024-3-8/64target-network-TransformerNoguiadance.pth (torch, 851744 bytes, 18 tensors)

encoder.self_attn.in_proj_weight f4 [30, 10]
0	0x402e705c	2.7256079
1	0xbff67abb	-1.9256204
2	0xc037f72f	-2.874462
3	0xbf630fa6	-0.8869575
4	0xbf708d0e	-0.9396523
5	0xc0177d6b	-2.36703
6	0xbfcc05e2	-1.5939295
7	0x418183a5	16.18928
8	0x40401168	3.0010624
9	0x40435c91	3.0525248
10	0xc099bd25	-4.804339
11	0x4053d6a3	3.3099754
12	0xc00c1fce	-2.1894412
13	0xbf807067	-1.0034302
14	0xbf84e3e7	-1.038205
15	0x3fb000ba	1.3750222
16	0x3f0bd4fa	0.5462185
17	0xc11d543e	-9.833067
18	0xc09a47c6	-4.8212614
19	0xc066c899	-3.6059935
20	0x40ac5912	5.385873
21	0xc0839382	-4.1117563
22	0x3fb20c85	1.3910071
23	0x3f792984	0.9732897
24	0x3f9b9c7a	1.2157128
25	0xbf95371e	-1.1657445
26	0xbf36f9d4	-0.7147496
27	0x4172ca67	15.174415
28	0x40b2e470	5.5903854
29	0x408b3a8f	4.3508983
30	0x4022214e	2.5332828
31	0xbf87a85e	-1.0598257
32	0xbffffeb9	-1.999961
33	0x3ff982cc	1.9493041
34	0x3d023490	0.03178841
35	0xc0068c43	-2.102311
36	0xc0518c09	-3.274172
37	0xc1dec3f4	-27.84568
38	0x3ff0bdab	1.8807882
39	0x400aef58	2.1708584
40	0x402149a9	2.5201209
41	0xbf765f94	-0.9623959
42	0xc00183b0	-2.0236626
43	0x402df493	2.7180526
44	0xbcf8a2b7	-0.030351026
45	0xc00870f5	-2.1318944
46	0xc06ad963	-3.6695182
47	0xc1d401a5	-26.500803
48	0x3faad682	1.3346713
49	0x3fe77029	1.8081104
50	0xc06f2c15	-3.7370656
51	0x40742cc2	3.8152318
52	0xbf706804	-0.93908715
53	0x3f8e5577	1.1119832
54	0x3f5355b5	0.82552654
55	0x3db1f7ec	0.086898655
56	0xbf870a06	-1.0549934
57	0xc19a3efc	-19.280754
58	0xc0918b72	-4.548272
59	0xc0490297	-3.140783
60	0xc069b497	-3.6516473
61	0x4052480b	3.2856472
62	0x4001e6ed	2.0297196
63	0x3f44d7d6	0.7689184
64	0xbe038a1e	-0.12845656
65	0xbe4ac883	-0.19803052
66	0xbe54cded	-0.2078168
67	0xc1a05b1c	-20.044487
68	0xc05865ba	-3.381209
69	0xc03e70a8	-2.975626
70	0x3fecf84e	1.8513277
71	0xc0078e0a	-2.1180444
72	0x3fbb5135	1.4634157
73	0xbfa6b063	-1.3022579
74	0xbec9f4f3	-0.39444694
75	0x3f35948e	0.709298
76	0x3f1ad6f7	0.6048426
77	0x411740ba	9.453302
78	0x401c4a49	2.442034
79	0x3f61a37d	0.8814009
80	0xbfe54da8	-1.7914324
81	0x3fd948d7	1.6975354
82	0xbf9197cb	-1.1374449
83	0x3fd4729c	1.6597476
84	0x3ef81831	0.48455957
85	0xbe45be56	-0.19310889
86	0xbf8658a0	-1.0495796
87	0xc17c120c	-15.754406
88	0xc00c2929	-2.1900122
89	0xbfc29dc8	-1.5204401
90	0xbf9837ee	-1.1892068
91	0x3fac9694	1.3483453
92	0x403ca727	2.9477022
93	0x3ffd1f1b	1.9775118
94	0x3ea0a778	0.3137777
95	0xbfdedd83	-1.741135
96	0xbfafc1b7	-1.3730992
97	0xc1a92747	-21.144178
98	0xc0028de2	-2.0399098
99	0xbea18a8f	-0.31551024
100	0x401a1fe3	2.4081962
101	0xbf17e99c	-0.59340835
102	0xc0f13c66	-7.538623
103	0x3fddeb9e	1.733753
104	0x40399b84	2.900117
105	0xbe1f875f	-0.15578984
106	0xbd9263f6	-0.07147972
107	0x41d4985b	26.574392
108	0x3c5df35c	0.013546791
109	0xbf437d49	-0.76363045
110	0xc042f4e7	-3.0461977
111	0x3eef655e	0.46757025
112	0x40ff37a0	7.97554
113	0xbfe36358	-1.7764692
114	0xc07bc852	-3.9341016
115	0xbf655bbb	-0.89593095
116	0xbf1d21c3	-0.6137964
117	0xc1c37aa3	-24.434881
118	0xbf3e56a8	-0.74350977
119	0x3ea8e2c6	0.32985514
120	0x4044f89e	3.0776744
121	0xbeafe9a4	-0.3435794
122	0xc0fb168d	-7.846503
123	0x3ff0fbdc	1.8826861
124	0x4071cab7	3.7779977
125	0x3f246fec	0.6423328
126	0x3eea2b70	0.45736265
127	0x41c314bc	24.385124
128	0x3f0037f0	0.50085354
129	0xbf217cf0	-0.63081264
130	0x3e777e4c	0.24169272
131	0xbe131514	-0.1436351
132	0xc1198505	-9.594975
133	0x4041d928	3.0288792
134	0x40595844	3.3960123
135	0xbf056611	-0.52108866
136	0xbf996c3a	-1.1986153
137	0x4197cbb1	18.974459
138	0x40493ad3	3.1442153
139	0xc0259f62	-2.587853
140	0x3db76ba4	0.08956078
141	0xbf8ef79e	-1.1169317
142	0xc10850d2	-8.5197315
143	0x3fec69f5	1.8469836
144	0x3fba8a22	1.4573405
145	0xbea57b3d	-0.32320586
146	0xbf15fd7f	-0.5858993
147	0x41965dcc	18.7958
148	0x405747ab	3.3637493
149	0xc06180e2	-3.5234914
150	0xc03ecfad	-2.9814255
151	0x3e9ae060	0.3024931
152	0x40fbaea8	7.8650703
153	0xbfe6b5f0	-1.8024273
154	0xc083319f	-4.0998073
155	0xbf645a27	-0.8920006
156	0xbf23078b	-0.63683385
157	0xc1c0f04d	-24.117334
158	0xbe4a6c70	-0.19767928
159	0x3f9c4542	1.2208636
160	0xc059b8f4	-3.4019136
161	0xbe9d5399	-0.30727842
162	0x40d91f7b	6.785093
163	0xc004dcb0	-2.0759697
164	0xc080181f	-4.0029445
165	0xbec52f43	-0.3851262
166	0xbcdbf505	-0.026850233
167	0xc1bf62fd	-23.923334
168	0xbd844f35	-0.0646042
169	0x3e3f51a4	0.18683487
170	0x403112f9	2.766783
171	0xbf617ac5	-0.88077956
172	0xc0d710e0	-6.72081
173	0x3f01846f	0.505927
174	0x403862e5	2.881036
175	0x3fec03eb	1.8438696
176	0x40091684	2.1419992
177	0x41b9bf70	23.218475
178	0x3f334352	0.700246
179	0xbf0913e0	-0.5354595
180	0xc00b8e85	-2.1805737
181	0x3fbe1af4	1.4851975
182	0x40e6e6f3	7.215692
183	0xbf014034	-0.5048859
184	0xc010daf9	-2.263365
185	0xbfcb0f91	-1.5864125
186	0xbf6cc705	-0.9249118
187	0xc1bcceb7	-23.600935
188	0xbe857ff3	-0.2607418
189	0x3f8186ce	1.0119264
190	0xbfbeb738	-1.4899664
191	0x3efb0a62	0.4903136
192	0x40d3930f	6.6117015
193	0xbf869b5b	-1.0516161
194	0xc0290730	-2.6410637
195	0x3f57ad94	0.84249234
196	0x3f231620	0.63705635
197	0xc1c7fcc4	-24.99842
198	0x4046021b	3.0938785
199	0xbe21505c	-0.15753311
200	0x4051b313	3.2765548
201	0x3f54061b	0.82821816
202	0xc00aafae	-2.1669726
203	0x3fce69cd	1.6126038
204	0x4025de91	2.5917094
205	0x3f7b8579	0.9825054
206	0x3e12af0d	0.14324589
207	0x4189062a	17.12801
208	0x3ebdecf1	0.37094834
209	0x3fb63048	1.4233484
210	0x405c2f2d	3.4403794
211	0x3f6900f6	0.9101709
212	0xc04f7e0a	-3.2420678
213	0x400e3e6f	2.2225606
214	0x402dd129	2.7158911
215	0x3fa3dffa	1.2802727
216	0xbdc4089a	-0.09571953
217	0x418a1003	17.257818
218	0x3eb6c467	0.35696718
219	0x3f3f799b	0.7479493
220	0x3fcfb2ad	1.6226403
221	0x3f6822fb	0.90678376
222	0x400baea3	2.182534
223	0x4021b99c	2.5269537
224	0x3fda3452	1.7047217
225	0x3f6b4108	0.91896105
226	0xbcfd34fe	-0.030909058
227	0xbfcc6224	-1.596745
228	0x3fa62c19	1.2982208
229	0x3f6245e0	0.8838787
230	0xbfbeb3a3	-1.4898571
231	0xc031748c	-2.7727385
232	0x3f28f638	0.660007
233	0xc08aa8f0	-4.3331223
234	0xc02c65f0	-2.6937218
235	0xbea1473b	-0.31499657
236	0x3f315836	0.69275224
237	0xc030dd9e	-2.7635264
238	0xbfc8a616	-1.5675685
239	0xbe6b6e43	-0.2299128
240	0xc0442a3a	-3.0650773
241	0xbf4524e8	-0.7700944
242	0x400d9785	2.212373
243	0xbf9fe8be	-1.2492902
244	0xc0195358	-2.395712
245	0xbfb755a9	-1.4323016
246	0xbf3c30ca	-0.73511946
247	0xc1a9d7fc	-21.230461
248	0xbf36dfd1	-0.71435267
249	0xbefe4ca7	-0.49667856
250	0x3f97b197	1.1851071
251	0xbf29a2d1	-0.66264063
252	0xc011c5a7	-2.2776887
253	0x3f89405d	1.0722767
254	0x3f99bd48	1.2010889
255	0xbf5fcf09	-0.87425286

encoder.self_attn.in_proj_bias f4 [30]
0	0x4036ce1b	2.8563297
1	0xc0865558	-4.197918
2	0x40a17239	5.045193
3	0x3fa780e6	1.3086212
4	0x3f7e13b4	0.99248815
5	0xc06c4776	-3.6918616
6	0xc0647c00	-3.5700684
7	0x3fed6589	1.8546611
8	0xbfecc737	-1.8498296
9	0xbfd57f54	-1.6679482
10	0x3c2e7c65	0.010649775
11	0x3e52add4	0.20574123
12	0x3eb16982	0.3465081
13	0x3eefa48c	0.46805227
14	0x3f097c01	0.5370484
15	0xbd47b6e6	-0.04875841
16	0x3cfd02d7	0.030885143
17	0x3ea2e16f	0.31812617
18	0x3e773902	0.2414284
19	0xbeec6c46	-0.46176356
20	0x3fb7319a	1.4312012
21	0x3f6102d7	0.8789496
22	0xbf999e4a	-1.2001431
23	0x3f804c90	1.0023365
24	0xc01482a4	-2.3204737
25	0x401a8476	2.4143348
26	0xbf3a7fa1	-0.72850996
27	0xc04ea2b1	-3.22868
28	0xbf9a1477	-1.2037495
29	0xbf19a656	-0.60019433

encoder.self_attn.out_proj.weight f4 [10, 10]
0	0xc08938a9	-4.2881665
1	0xc052ad70	-3.2918358
2	0xbfe707cf	-1.8049258
3	0x3fbf5955	1.4949137
4	0x40614217	3.5196588
5	0xc015bb88	-2.339571
6	0xbff1ad00	-1.888092
7	0x4012b37f	2.2922056
8	0x40938fa0	4.6112823
9	0xc00bc20c	-2.1837187
10	0x3f896b09	1.073579
11	0x3f27e0f0	0.655776
12	0xbfa9f0af	-1.3276576
13	0x3fdafe0e	1.7108781
14	0xbfbbd215	-1.4673487
15	0x3ebc5557	0.3678386
16	0xbf95982e	-1.1687067
17	0xbf85a73b	-1.044166
18	0xbf8a14c8	-1.0787592
19	0xbfa8c44a	-1.3184903
20	0xc0566f16	-3.3505301
21	0xbfc629d8	-1.548152
22	0xbd7fdc8e	-0.062466197
23	0x3ed03ddb	0.40672192
24	0x405b326b	3.4249523
25	0xc0074450	-2.1135445
26	0x3a610d07	0.000858501
27	0x40458bb6	3.0866523
28	0x40446775	3.0688145
29	0xbe85c823	-0.26129255
30	0xbe4a6d0d	-0.19768162
31	0xbec1094c	-0.37702405
32	0x3facaa08	1.348939
33	0xbfb69c11	-1.4266378
34	0xbf041a8b	-0.51603
35	0x3f325e97	0.6967558
36	0x3fb62c86	1.4232337
37	0xbf821e7c	-1.0165553
38	0xbf0626f8	-0.5240321
39	0x401b530f	2.4269445
40	0x405d3a22	3.4566731
41	0x402a6da2	2.6629415
42	0xbfa8c5c8	-1.3185358
43	0x3fd4415b	1.6582445
44	0xc017e8b0	-2.373577
45	0x3f26c901	0.6515046
46	0xbfe9fd8b	-1.82805
47	0xbfcd8b17	-1.6058072
48	0xc0863d60	-4.194992
49	0xbf8df2c4	-1.1089711
50	0xc0775fa6	-3.865213
51	0xc0316b38	-2.772169
52	0x3f4262ca	0.7593199
53	0xbf547c1d	-0.8300188
54	0x4029bef3	2.6522796
55	0xbfb3c438	-1.4044256
56	0x3f6933a2	0.9109441
57	0x3fae69c2	1.3626025
58	0x409c9a17	4.89381
59	0x3d248df4	0.04017444
60	0x3f1ead17	0.61982864
61	0xbee01ec5	-0.43773475
62	0xbc36aac1	-0.011149109
63	0xbed8b90e	-0.42328686
64	0xbf102da1	-0.56319624
65	0x3fb5cbfb	1.4202875
66	0x3ef643c2	0.4809857
67	0x3f0cb008	0.549561
68	0xbfbb8acf	-1.4651736
69	0xbe838589	-0.25687817
70	0x3f2a9539	0.66633946
71	0x3fb08188	1.378953
72	0xbcd018aa	-0.025402386
73	0x3d59b9f4	0.053155854
74	0xbeb27d81	-0.34861377
75	0xbeca1f7f	-0.39477155
76	0xbd586af3	-0.05283637
77	0x3efab8ee	0.48969215
78	0xbf8355a0	-1.0260506
79	0x3efa48b9	0.48883608
80	0xbd07db8d	-0.033168364
81	0xbeb0f3d4	-0.34561026
82	0x3f60c190	0.8779535
83	0xbfbac5bd	-1.4591595
84	0xbfad81ef	-1.3555278
85	0x4039ef35	2.905225
86	0x3f9f1e76	1.2431171
87	0xbfc7a61d	-1.5597569
88	0x3a5123d9	0.0007978059
89	0x3f41cfb9	0.75707585
90	0x3ff0fbc1	1.8826829
91	0x3fd91352	1.6959021
92	0x3f099433	0.5374176
93	0xbe4415cb	-0.19148938
94	0xbfb0a4ff	-1.3800353
95	0xbd57539f	-0.05256998
96	0x3e9acd04	0.3023454
97	0x3ea88a51	0.32918027
98	0xc02e50b2	-2.7236753
99	0x3f5163b9	0.8179279

encoder.self_attn.out_proj.bias f4 [10]
0	0xbfff6a95	-1.9954401
1	0x3fda9eb7	1.7079686
2	0xc077da4b	-3.8726985
3	0x3fd9bf0d	1.7011429
4	0x4049646e	3.1467547
5	0xc042ffd4	-3.0468645
6	0x3f8a5230	1.0806332
7	0xbf891c08	-1.071168
8	0x40268f3d	2.6024926
9	0x3ef42956	0.47687787

encoder.linear1.weight f4 [64, 10]
0	0xbf996c25	-1.1986128
1	0x3f61b5c6	0.8816799
2	0xbc3a5d84	-0.011374835
3	0x4006ccb9	2.1062453
4	0xc0e4d0a9	-7.150471
5	0x402b8e38	2.6805553
6	0x4028ead9	2.639334
7	0xc032b4f9	-2.7922957
8	0x4025dd2a	2.5916238
9	0x40598526	3.3987517
10	0xbfb963e9	-1.4483615
11	0xbfc53288	-1.5406046
12	0xbf2233d9	-0.63360363
13	0x3f7ef9c8	0.99599886
14	0x3e044065	0.1291519
15	0xbeee5f52	-0.465571
16	0x3fb17cb2	1.3866179
17	0xbeff5ded	-0.49876347
18	0x3fb8fccd	1.4452149
19	0x3f9e0a72	1.2346938
20	0xbc5dfd8f	-0.013549223
21	0x3f552f9d	0.8327578
22	0x3e9ea149	0.30982426
23	0xbfe452c2	-1.7837756
24	0xbec03537	-0.375406
25	0x3e41256a	0.18861929
26	0xbfc02d8b	-1.5013899
27	0xbe92c17f	-0.2866325
28	0xc005b190	-2.0889626
29	0x3f8191eb	1.0122656
30	0x4023994e	2.556232
31	0xbf928726	-1.1447494
32	0x3fd2a1a1	1.6455575
33	0xbf9fca04	-1.2483525
34	0xc02703f1	-2.6096156
35	0x4006016a	2.0938363
36	0xc00b9b31	-2.1813471
37	0x3fcf2444	1.6182942
38	0xbfd55a3c	-1.6668162
39	0xbf8dd3cd	-1.1080261
40	0xbd4f1a36	-0.050562106
41	0x3f76f51d	0.96467763
42	0x3e06c078	0.13159359
43	0xc0010cc5	-2.0164044
44	0xbfa0bdf6	-1.2557971
45	0xbc63c078	-0.013900869
46	0xbfa196f4	-1.2624192
47	0x3fe31443	1.7740558
48	0xbf97aa08	-1.1848764
49	0x3fa39210	1.277895
50	0xc0a92676	-5.285945
51	0xc0869d04	-4.206667
52	0xc0a1d3ab	-5.0570884
53	0x40846d4f	4.1383433
54	0x4036959e	2.852882
55	0xc0a98ab7	-5.298183
56	0x408999c1	4.300019
57	0xc01e996a	-2.4781137
58	0x412ac172	10.672228
59	0x4117cbe3	9.487277
60	0x4090c683	4.5242324
61	0xbf4bbd72	-0.79585946
62	0xbecca35e	-0.3996839
63	0x3fd25e09	1.6434947
64	0xbfaface3	-1.3724636
65	0x3f8f7ffb	1.1210932
66	0x3f8c470a	1.0959179
67	0xbf8d1e2b	-1.1024832
68	0x400c9227	2.1964204
69	0xc01ee883	-2.4829414
70	0x3e8f6295	0.280049
71	0x3f55d84a	0.83533156
72	0x3eb80c51	0.35946897
73	0xbfb5a295	-1.4190241
74	0xbf835a55	-1.0261942
75	0x3e9708dd	0.2949895
76	0xbf8e1db6	-1.1102817
77	0x40579c63	3.36892
78	0xbfbb0878	-1.461196
79	0x3f245aac	0.64200854
80	0x3d9fe03f	0.078064434
81	0x3e55daf0	0.208843
82	0xbe1624cd	-0.14662476
83	0x3ed6d7e1	0.41961578
84	0xbee605e5	-0.44926372
85	0xbca7a74a	-0.020465512
86	0xbf75b494	-0.95978665
87	0x3f2e4765	0.6807769
88	0xbebd32cd	-0.3695282
89	0x3ea8e415	0.32986513
90	0xbf9dcaf1	-1.2327558
91	0xc0523c6e	-3.2849383
92	0xbf55d26d	-0.8352421
93	0x3ec05264	0.3756286
94	0x3f536edd	0.8259104
95	0xbfaaea09	-1.3352672
96	0x407acc6e	3.9187274
97	0xbf4898bb	-0.7835805
98	0x3f444ef7	0.7668299
99	0x40db331f	6.8499904
100	0x3e966914	0.29377043
101	0x3f899e7d	1.0751492
102	0xbd710333	-0.05884094
103	0xc00bbb3e	-2.1833034
104	0xbeb9ee1b	-0.36314473
105	0x3f3165b3	0.69295806
106	0xbf659066	-0.8967346
107	0x3fc5214b	1.5400785
108	0xbfae732e	-1.36289
109	0x3f911a38	1.1336126
110	0x3f015fdc	0.50536895
111	0x3ec7442e	0.38919204
112	0x3e318dd4	0.1733926
113	0x40607a1a	3.5074525
114	0xc0c4eed2	-6.154153
115	0x404af015	3.1709034
116	0x408231d0	4.0685806
117	0xc05ae714	-3.420354
118	0x407291f3	3.790158
119	0x3f9b74b9	1.2144996
120	0xbf4d09ad	-0.8009289
121	0xbf1ecba1	-0.62029463
122	0xbfb6eac7	-1.4290398
123	0x3f162004	0.586426
124	0x3f540395	0.82817966
125	0xbf7f9556	-0.99837244
126	0xbff0c318	-1.8809538
127	0xbf8a5155	-1.080607
128	0x3f1e6c4d	0.61884004
129	0x3e658e95	0.22417672
130	0x3ec699d4	0.38789237
131	0x3e682a27	0.2267233
132	0xbe96a600	-0.29423523
133	0xbfb24a12	-1.3928854
134	0x3d4e3367	0.05034199
135	0x3e0e8e63	0.13921504
136	0x3f80516c	1.0024848
137	0x40a669d7	5.20042
138	0xc06d7772	-3.7104154
139	0x3f0ecbd6	0.5577978
140	0x3d5b69c4	0.053567663
141	0x3f5a3078	0.8523021
142	0x3d8c572f	0.068525665
143	0xbfe0bc89	-1.7557536
144	0xbe6b54ff	-0.22981642
145	0x3ed6ee05	0.4197847
146	0xbe611330	-0.21979976
147	0x3ffdb587	1.9821023
148	0xbfdd4661	-1.7287103
149	0x3f101116	0.5627607
150	0x3dccef54	0.10006586
151	0x3f53dc9a	0.82758486
152	0x3d82a112	0.06378378
153	0xbd5b2350	-0.053500473
154	0xbda43dda	-0.0801961
155	0xbd07c0fd	-0.033143032
156	0xbf9d62ad	-1.2295738
157	0x3dbad0a8	0.09121829
158	0xbe967d9b	-0.29392704
159	0x3de5ff42	0.11230327
160	0xbe6873d5	-0.22700436
161	0x3f8006a9	1.0002033
162	0x3e4075f5	0.18794997
163	0x3ef552e7	0.47914812
164	0x3e9d9e38	0.30784774
165	0xbd2dc3f5	-0.042423207
166	0xbfa62507	-1.298005
167	0xbeceabe5	-0.4036552
168	0xbee40611	-0.44535878
169	0xbd88a957	-0.06672924
170	0xbf2833d3	-0.6570408
171	0xc012682a	-2.2876077
172	0xbf7278b4	-0.9471543
173	0x3fe31bde	1.7742879
174	0xbea174ff	-0.31534573
175	0xbe050b88	-0.1299268
176	0x3f95447c	1.1661525
177	0xc03f03f1	-2.9846156
178	0x408f113c	4.470854
179	0xbfe57279	-1.7925559
180	0xbff0f423	-1.8824505
181	0xc0095522	-2.145821
182	0xc017e0c9	-2.3730948
183	0x401f9736	2.4936042
184	0x3fcf7183	1.6206516
185	0xbfc02aa6	-1.5013015
186	0x3fa240c5	1.2676016
187	0xc0235ef9	-2.5526717
188	0x40442dd1	3.0652964
189	0x3f804f53	1.0024208
190	0x3e36990a	0.17831817
191	0xc06d5643	-3.70839
192	0x3d9e9c7d	0.077446915
193	0x4036ede9	2.858271
194	0xbf85e98f	-1.0461901
195	0x3f19efee	0.6013173
196	0x4021c232	2.5274777
197	0xc07b5357	-3.9269617
198	0x40dcf24d	6.9045777
199	0xbf30fb1d	-0.6913317
200	0xbfc28b76	-1.519881
201	0xbfe54c0c	-1.7913833
202	0xbf8f6d8a	-1.1205304
203	0xc030aa98	-2.7604122
204	0x3f825213	1.0181297
205	0xbfdcb08a	-1.7241375
206	0x4001ca26	2.0279632
207	0x3fddabaf	1.7318019
208	0xbf5304a8	-0.8242898
209	0x40f2923e	7.580352
210	0xbe14c05c	-0.14526504
211	0x3f087ffd	0.53320295
212	0xbd6c22f9	-0.05765054
213	0xbf50807c	-0.8144605
214	0xbfa4ec35	-1.2884585
215	0x3f0b5e38	0.5444064
216	0xbf2cdde5	-0.67526084
217	0x3fc986d3	1.574427
218	0x3c6a9b67	0.014319277
219	0xba255b7c	-0.0006307883
220	0xbffcb80d	-1.9743668
221	0xc053c044	-3.30861
222	0xbfdcb08c	-1.7241378
223	0x3e875bdb	0.26437268
224	0x4001bcd8	2.027151
225	0xc015f73e	-2.3432155
226	0x40be34b2	5.9439325
227	0xbfd2cf78	-1.6469564
228	0x3f94efe1	1.1635705
229	0x410d4397	8.829001
230	0xbdc080b9	-0.09399552
231	0x3f6566fe	0.8961028
232	0x3e53cab8	0.206828
233	0xbf4b63ef	-0.7944936
234	0xbd6122fd	-0.054965008
235	0xbcf4114b	-0.029793402
236	0xbfc838bd	-1.5642315
237	0x3f05f2b0	0.52323437
238	0xbf3516d1	-0.7073794
239	0x3e733f08	0.23754513
240	0xbfb092e6	-1.379483
241	0xc00668a0	-2.1001358
242	0xbf7f30a5	-0.996836
243	0x3fabfbd9	1.3436233
244	0x3f172049	0.5903364
245	0xbdd6877b	-0.104750596
246	0xbd7d20e9	-0.061798964
247	0xbeaff685	-0.34367767
248	0x3ed8e4f2	0.4236217
249	0x3fefa56b	1.8722357
250	0xbfbcf94f	-1.4763583
251	0xc0052412	-2.0803266
252	0xc024c638	-2.5745983
253	0x40e77ad6	7.2337446
254	0x40839724	4.1122
255	0xc01e6253	-2.4747512

encoder.linear1.bias f4 [64]
0	0x400dbeae	2.2147632
1	0x3f8bae04	1.091248
2	0xc0361434	-2.844983
3	0xbed72d62	-0.42026812
4	0xc007f8bb	-2.1245563
5	0x408d0192	4.4064417
6	0x3f85d0a0	1.0454292
7	0xbffa64c9	-1.9562007
8	0xbe6584c2	-0.22413924
9	0x40121d71	2.283047
10	0xc0225e08	-2.5369892
11	0x406df03f	3.7177885
12	0x3f73d3eb	0.95245236
13	0xbf89999f	-1.0750006
14	0xbfbd97ee	-1.481199
15	0xbe78ada2	-0.24284986
16	0xbfd73b99	-1.6815063
17	0x3fe16a4d	1.7610565
18	0x3f9cd394	1.2252069
19	0x403918ec	2.892146
20	0x3f1e3071	0.61792666
21	0xbe66ffa8	-0.22558463
22	0x40476b0e	3.115909
23	0xbd5e28bf	-0.054238077
24	0x3f17f785	0.5936206
25	0x40012782	2.0180364
26	0x40c120b1	6.0352407
27	0x3fa38097	1.2773618
28	0x40a523c8	5.160618
29	0x3fdb3b9f	1.712757
30	0xbee5e341	-0.44899943
31	0xbfd9edfd	-1.7025753
32	0x3ee0daf4	0.43917048
33	0xbe9de489	-0.3083842
34	0x3fa183e7	1.2618378
35	0x4049cb48	3.1530323
36	0x40532efa	3.2997422
37	0xbece70c1	-0.403204
38	0xbc4f4afc	-0.012652155
39	0x3f8ad427	1.0845994
40	0x40525e80	3.2870178
41	0x40307560	2.757164
42	0xbea53370	-0.32265806
43	0x3e6dc3f7	0.23219286
44	0x3fbccb42	1.4749529
45	0xbfcc761c	-1.5973544
46	0x40600a4e	3.500629
47	0x4007f613	2.1243942
48	0x3ff878f9	1.9411918
49	0x3ec592b1	0.3858848
50	0x407bc2f0	3.933773
51	0x405a8146	3.4141402
52	0x4005018a	2.078219
53	0xbcdb6342	-0.026780728
54	0xbe9255b1	-0.28581002
55	0x403489fb	2.8209217
56	0x3ffc6b60	1.9720268
57	0x3ef5bcce	0.4799561
58	0xbf6a8931	-0.9161559
59	0xbf6eb292	-0.93241227
60	0xbeda045c	-0.4258145
61	0x40629947	3.5406053
62	0x3f064316	0.52446115
63	0xbf575a35	-0.8412202

encoder.linear2.weight f4 [10, 64]
0	0x409aefac	4.841757
1	0x3f2416c8	0.6409726
2	0xbe9e75ab	-0.3094915
3	0x3f6fcf39	0.9367557
4	0x3f0b0df3	0.5431816
5	0x4106b6e4	8.419651
6	0x40957dd4	4.67161
7	0xbeff91a6	-0.49915808
8	0x3f52d588	0.8235707
9	0xc04161cf	-3.0215948
10	0x3fb4f2d6	1.4136608
11	0x40d0578a	6.510686
12	0x3f1bc4f3	0.60847396
13	0xbef1c2c9	-0.47218922
14	0x3eef3515	0.46720186
15	0x3ef868b2	0.48517376
16	0x3f829135	1.0200564
17	0x3eba3d33	0.36374816
18	0x3e2c3fa8	0.16821158
19	0xbf675934	-0.9037049
20	0x3fd1dcb7	1.6395482
21	0xbf739640	-0.9515114
22	0xc0554adb	-3.3326938
23	0x3f2d7319	0.6775375
24	0x401b281a	2.4243226
25	0x3caeea79	0.02135204
26	0x4113cc76	9.237417
27	0x3f563d56	0.8368734
28	0x40d7f715	6.7489114
29	0x40a9609f	5.2930446
30	0x3faee01f	1.3662146
31	0xbe0091ba	-0.1255559
32	0xc00563e9	-2.084223
33	0xc084e29d	-4.1526628
34	0x40e9dd11	7.3082356
35	0x3fd0d342	1.6314471
36	0x3fa23081	1.2671052
37	0x3f5c970a	0.8616797
38	0x3f9ae989	1.2102519
39	0x3efc9bf7	0.49337742
40	0x3f99840e	1.1993425
41	0x3f97a381	1.1846772
42	0x3fc06a5a	1.5032456
43	0x402889f5	2.6334202
44	0x404706f8	3.1098003
45	0x3e028bf3	0.12748699
46	0x409f05ad	4.969443
47	0x401aa72f	2.416454
48	0x409c546e	4.8853064
49	0x3f3ad8b9	0.7298694
50	0xbf396aac	-0.72428393
51	0x40d59dc2	6.6755075
52	0x41158ddf	9.3471365
53	0x3faab4fe	1.3336484
54	0x3ed59ebb	0.41722664
55	0x3f438ca2	0.76386464
56	0x4143c118	12.234642
57	0x4051594d	3.2710755
58	0x3fdda52a	1.7316029
59	0x3e7eac83	0.24870495
60	0x3ece7ecd	0.40331116
61	0x40b768df	5.7315516
62	0xbf29b984	-0.662987
63	0x3e878d73	0.26475105
64	0xbfb4eb10	-1.4134235
65	0x3f042369	0.5161653
66	0x3eb46d0a	0.3523944
67	0x3f28a703	0.6587984
68	0x3e081c7c	0.13292116
69	0xc07da2a8	-3.9630527
70	0x3f9b5951	1.2136632
71	0xbf631b72	-0.88713753
72	0x3fca6f13	1.5815147
73	0xbe87f6a1	-0.2655535
74	0xbef98de1	-0.48741058
75	0xc01598e0	-2.3374557
76	0x3fba5a53	1.4558815
77	0xc070b512	-3.7610517
78	0xbf68bb1c	-0.90910506
79	0xbd9043c5	-0.07044176
80	0xbf4c5ad6	-0.79826105
81	0x3fd04032	1.6269591
82	0x3fcc20be	1.5947492
83	0x3fecb09f	1.84914
84	0x4019c9f8	2.4029522
85	0x3fd7dded	1.6864601
86	0xbfa89c64	-1.3172727
87	0xbe69118a	-0.22760597
88	0x3e2715fd	0.16316982
89	0x402e5452	2.7238965
90	0xc048b2e1	-3.135918
91	0x3f36fa20	0.7147541
92	0xbfa7c098	-1.310565
93	0x40859667	4.1746097
94	0xbe4b86d5	-0.19875653
95	0x3f5a46b7	0.8526415
96	0x410b3773	8.701037
97	0x41208478	10.032341
98	0x3f8b3af0	1.0877361
99	0x408a522c	4.3225307
100	0xc04c6b85	-3.1940625
101	0xbedcc6b9	-0.43120363
102	0xbee4c36a	-0.4468034
103	0x3faae7f7	1.335204
104	0x40c90d75	6.2828927
105	0x407050d6	3.7549338
106	0xbee71d54	-0.45139563
107	0x4001a9e2	2.0259938
108	0x40b5780b	5.6709037
109	0xbe2d1003	-0.16900639
110	0xbfcbeaf4	-1.5931077
111	0x40e577d9	7.17088
112	0xbf291e3e	-0.6606177
113	0x3fca35ac	1.5797629
114	0x401fe57a	2.4983811
115	0x4045a3e4	3.088128
116	0xbfaeb74b	-1.3649687
117	0x3fd2c960	1.6467705
118	0xbca59640	-0.020213246
119	0x408691ec	4.2053127
120	0xc0cf090d	-6.469855
121	0x400b717a	2.178801
122	0x3ee676b1	0.4501243
123	0x3fb1ffb9	1.3906165
124	0x3eae8a04	0.34089673
125	0xc01fec7a	-2.4988084
126	0x408d49e9	4.415272
127	0x3f9311fe	1.1489866
128	0x3fb254f4	1.3932176
129	0x3f45df15	0.7729352
130	0xbf369bd2	-0.7133151
131	0x3f8fff4d	1.1249787
132	0xbeeee293	-0.46657237
133	0x4081d0d6	4.0567427
134	0xc08ad1e4	-4.3381214
135	0x401ebabc	2.4801474
136	0x3cc773da	0.024347235
137	0xbe147f3b	-0.1450166
138	0xbf176b7f	-0.591484
139	0x3fec849d	1.847797
140	0xbfb720ec	-1.4306922
141	0x3fa61ecf	1.2978152
142	0xbdf5fde1	-0.12011314
143	0xbe217a29	-0.15769257
144	0x3ec2182b	0.37909064
145	0xbfc64ec4	-1.5492787
146	0xc01e1db0	-2.470562
147	0xc0a5cf44	-5.181551
148	0xc041982c	-3.0249128
149	0x3e9f7c8b	0.31149706
150	0xbf89b98a	-1.0759747
151	0x3b9bef62	0.0047587613
152	0xbfd3d8e4	-1.6550565
153	0xc062ce08	-3.5438251
154	0x3c21b4bc	0.009869751
155	0xbf3b84e9	-0.7324968
156	0x40fbcad8	7.868511
157	0xbfe7638c	-1.8077254
158	0x3f707081	0.9392167
159	0xbfb244cd	-1.3927246
160	0x418bde20	17.48346
161	0x41603f07	14.015388
162	0xc094557e	-4.635436
163	0xc03fbd09	-2.9959128
164	0x401dd929	2.4663794
165	0x3e8bb786	0.27288455
166	0x3f726661	0.9468747
167	0xbed434c0	-0.41446495
168	0xc0883151	-4.25602
169	0xc092d00c	-4.5878963
170	0x3f508fb9	0.81469303
171	0xc01f1bd0	-2.4860725
172	0x401a4d54	2.4109697
173	0xbf1e731c	-0.6189439
174	0x3fcebb3f	1.6150893
175	0xc0894667	-4.289844
176	0xbce82dc0	-0.028342128
177	0xbf63803d	-0.8886755
178	0xc04f2d6d	-3.2371476
179	0x3d3ad82d	0.045616318
180	0x410064fe	8.024656
181	0xbe2973a7	-0.16548024
182	0x3f1663df	0.5874614
183	0xc04bed3f	-3.1863554
184	0xc01eb54e	-2.479816
185	0xbf0c78a6	-0.54871595
186	0xbf654758	-0.89561987
187	0x3cf10ea0	0.029425919
188	0xbdecfe8b	-0.11571988
189	0xbd5f5e92	-0.05453355
190	0xc05000c0	-3.2500458
191	0x3e832964	0.25617516
192	0x407e2b3c	3.9713888
193	0xc006181f	-2.0952222
194	0x3f6a2065	0.9145568
195	0x40603bc7	3.5036485
196	0x3ea3a448	0.31961274
197	0x3e975774	0.2955891
198	0x3fefbd68	1.8729677
199	0x4017ac3a	2.3698869
200	0x3e8461db	0.25855908
201	0xbfdee75a	-1.7414353
202	0x3e7489fe	0.23880765
203	0x40339a14	2.8062792
204	0xc0079de0	-2.119011
205	0xbf427584	-0.75960565
206	0x3e623840	0.2209177
207	0x3f1310df	0.5744762
208	0xbf4ed9fb	-0.8080136
209	0x3fece64b	1.850778
210	0x3f8caeb7	1.0990819
211	0x400e3440	2.221939
212	0x3fa78735	1.3088137
213	0xbf1ae340	-0.60503006
214	0xbff37137	-1.9018925
215	0x3efc43eb	0.49270567
216	0x3ec3bf7c	0.38232028
217	0x3f28c5ba	0.65926707
218	0xbfb95406	-1.4478767
219	0xbf99dd82	-1.2020724
220	0x3fe38d72	1.7777541
221	0x403d78c4	2.960496
222	0x3f5ac117	0.8545088
223	0xbeb4f089	-0.35339764
224	0x411230ce	9.136915
225	0x4124c888	10.298958
226	0xc03e425c	-2.9728003
227	0x3c9e3587	0.019312633
228	0x4104fc00	8.311523
229	0x3ebf375a	0.37346917
230	0x3f74f1d3	0.95681494
231	0xbfada597	-1.3566159
232	0x3d480e0b	0.048841517
233	0x4088a15c	4.269697
234	0x3f6b01c2	0.9179956
235	0x3fe0c8a7	1.7561234
236	0x40bf5bbf	5.9799495
237	0x3e699575	0.2281092
238	0x4015347b	2.3313282
239	0x3fb61aee	1.4226968
240	0xbffc97ea	-1.973386
241	0xbeffed7b	-0.4998587
242	0x3fd538b4	1.665793
243	0x40325d11	2.7869303
244	0x409b5429	4.8540235
245	0x3f269452	0.6507007
246	0x3ef12b24	0.47103226
247	0x3ff853ba	1.9400551
248	0xc09a3f94	-4.820261
249	0x3fed1e6c	1.8524909
250	0x400b4b72	2.1764798
251	0x3fc3c5c9	1.5294734
252	0x3f393dfe	0.7236022
253	0x3f6024e3	0.87556285
254	0xbfc0a239	-1.5049506
255	0x3e398d11	0.18120219

encoder.linear2.bias f4 [10]
0	0x4020542b	2.5051372
1	0xbeec5929	-0.46161774
2	0xbf04824a	-0.51761305
3	0xbfdc2ed7	-1.7201794
4	0xbe21f4bf	-0.1581602
5	0xbf909284	-1.1294713
6	0xbe775225	-0.2415243
7	0x3e939bc3	0.28829774
8	0x3f853934	1.0408082
9	0x3da7fcd0	0.08202517

encoder.norm1.weight f4 [10]
0	0x4085b189	4.177922
1	0xbe397f0a	-0.18114868
2	0x401e10b2	2.469769
3	0x3f857059	1.0424911
4	0x3f5ab296	0.8542875
5	0x4023cfc4	2.559556
6	0xbd6e1494	-0.058125094
7	0xbed0d308	-0.40786004
8	0x4048998f	3.1343725
9	0x3f9b31cc	1.2124572

encoder.norm1.bias f4 [10]
0	0xbf831bc0	-1.0242844
1	0xc02399ea	-2.5562692
2	0xbf4d4653	-0.8018543
3	0x3f6b242f	0.91852087
4	0x3ff275cd	1.89422
5	0xbf17aafe	-0.5924529
6	0x3fa3dead	1.280233
7	0xbf26c9f6	-0.6515192
8	0x3f9f071e	1.2424047
9	0xbd4555fb	-0.0481777

encoder.norm2.weight f4 [10]
0	0xbed498fe	-0.41522974
1	0xbb2f96b8	-0.0026792716
2	0x3edf938a	0.4366725
3	0xbcc49fc3	-0.024001962
4	0xbe59006c	-0.21191567
5	0xbef8df67	-0.48607942
6	0xbf5064cd	-0.8140381
7	0xbe19af35	-0.15008242
8	0x3d57ea49	0.052713666
9	0x3e319f08	0.17345822

encoder.norm2.bias f4 [10]
0	0x3f88249f	1.0636176
1	0xbfb1e255	-1.3897196
2	0xbd14dc19	-0.036342714
3	0xbe12dc52	-0.14341858
4	0xbfbf0c28	-1.4925585
5	0x3c4f0b25	0.012636934
6	0xc0533380	-3.3000183
7	0x3f92a4f9	1.1456596
8	0xbee770b3	-0.4520317
9	0xbfede838	-1.8586493

l2.weight f4 [64, 3200]
0	0xbf7c16d3	-0.98472327
1	0x3f0c6378	0.5483928
2	0xbf6b01f9	-0.91799885
3	0x3f6d63d3	0.92730445
4	0x3faba7d2	1.341059
5	0x3e0e2016	0.13879427
6	0x3f6743c3	0.9033777
7	0xbf1fafa2	-0.6237737
8	0xbee074fc	-0.43839252
9	0x3f714d65	0.9425872
10	0xbe9f3395	-0.3109404
11	0x3e8b8200	0.2724762
12	0xbee6d212	-0.45082146
13	0x3f65453c	0.8955877
14	0x3fb5c6f0	1.4201336
15	0xbe079383	-0.13239865
16	0x3f30bceb	0.69038266
17	0xbf122463	-0.5708677
18	0xbe99dd1f	-0.30051515
19	0x3f5fdf31	0.8744994
20	0xbebfefa8	-0.3748753
21	0x3e10565f	0.14095448
22	0x3be4e1cb	0.0069849244
23	0x3fbc8781	1.4728853
24	0x3faa01c7	1.3281792
25	0x3f1dc031	0.61621386
26	0x3f85de4b	1.0458463
27	0xbf205bed	-0.6264027
28	0x3eaac3d9	0.33352545
29	0x3f62fe10	0.8866892
30	0xbeb4de1f	-0.35325715
31	0x3ec0c4ce	0.3765015
32	0xbf405201	-0.7512513
33	0x3f696d39	0.91182286
34	0x3fa4eee7	1.2885407
35	0xbed0a722	-0.40752512
36	0x3f9aa32c	1.2081046
37	0xbf04d8ca	-0.51893294
38	0xbef6dd62	-0.48215777
39	0x3f825806	1.0183113
40	0xbf0aa7b9	-0.54162174
41	0x3da65398	0.08121413
42	0xbf7d798e	-0.990136
43	0x3f675e66	0.90378416
44	0x3f98c611	1.1935445
45	0xbe8d4d9f	-0.27598283
46	0x3f7efe67	0.9960694
47	0xbf305bc0	-0.6889
48	0xbe473336	-0.19453129
49	0x3f813060	1.0092888
50	0x3e90ca40	0.28279305
51	0x3f00afac	0.50268054
52	0xbf33e422	-0.7026998
53	0x3f2faf2a	0.68626654
54	0x3fa37754	1.2770791
55	0x3d48b545	0.049000997
56	0x3f7b645a	0.982
57	0xbef56233	-0.47926483
58	0xbedf5df6	-0.43626374
59	0x3f6c77b6	0.92370164
60	0x3ee88bd5	0.45419183
61	0x3edab4d7	0.42716095
62	0xbf8abd13	-1.0838951
63	0x3f26635a	0.6499535
64	0x3fc30dae	1.523855
65	0xbd7b8dc3	-0.06141449
66	0x3f54c935	0.8311952
67	0xbf62644f	-0.8843431
68	0xbdfec3b0	-0.12439668
69	0x3f2486e2	0.64268315
70	0xbeda8da8	-0.426862
71	0x3eabd867	0.3356354
72	0xbf862764	-1.0480771
73	0x3f75fcbf	0.96088785
74	0x3fa96246	1.3233116
75	0xbe91ee52	-0.28502136
76	0x3f7d7b6f	0.9901647
77	0xbf3a5aa9	-0.72794586
78	0x3e4f19f1	0.2022474
79	0x3f6d39c7	0.92666286
80	0x3df698eb	0.120408855
81	0x3ef5f4b2	0.4803825
82	0xbe23c2a9	-0.15992226
83	0x3fa67c32	1.3006651
84	0x3faa1cbc	1.3290019
85	0x3f2db12d	0.67848474
86	0x3f729191	0.94753367
87	0xbf1eefd2	-0.62084687
88	0x3c9afceb	0.018919429
89	0x3f49a141	0.7876168
90	0xbe939f1e	-0.28832334
91	0x3dc3f8d0	0.095689416
92	0xbf213532	-0.62971795
93	0x3edbe29a	0.4294632
94	0x3f8edb30	1.1160641
95	0x3e5620de	0.20910975
96	0x3f4aac8e	0.7916955
97	0xbf025c7e	-0.5092238
98	0x3e8d96ab	0.27654013
99	0x3f70450d	0.93855363
100	0xbed9427b	-0.42433533
101	0x3e46eeca	0.19427028
102	0xbf063f17	-0.5244002
103	0x3fb255f1	1.3932477
104	0x3fa5bf13	1.2948936
105	0x3eb9f963	0.3632308
106	0x3f5713c7	0.8401455
107	0xbf34d0fb	-0.7063138
108	0x3e07e314	0.13270217
109	0x3f5dbc60	0.8661556
110	0xbd08ced0	-0.033400357
111	0x3dca18c6	0.098680064
112	0xbe8bb738	-0.27288222
113	0x3f78b77a	0.97154963
114	0x3fb6497b	1.4241174
115	0xbf0110f7	-0.5041651
116	0x3f1dac4c	0.6159103
117	0xbf50ff31	-0.8163939
118	0x3da9022f	0.082523696
119	0x3f537c8a	0.82611907
120	0x3ed33cb0	0.41257238
121	0x3eb1f5c4	0.34757817
122	0xbe9d3287	-0.30702612
123	0x3f971ff8	1.1806631
124	0x3fa7cb22	1.3108866
125	0x3f2899ed	0.6585987
126	0x3f27de10	0.65573215
127	0xbf2164c6	-0.63044393
128	0x3cb6308b	0.022239944
129	0x3f5e6e9f	0.86887544
130	0xbefb8537	-0.49125072
131	0x3ecd2064	0.40063775
132	0xbed755b2	-0.42057568
133	0x3f839819	1.0280792
134	0x3fae1a7e	1.3601835
135	0xbebc467c	-0.36772525
136	0x3f4eed69	0.8083101
137	0xbf0c8875	-0.54895717
138	0xbd7896c2	-0.06069065
139	0x3f445757	0.7669577
140	0x3dbe98b7	0.09306472
141	0x3f1f53c4	0.6223719
142	0xbea5207a	-0.3225134
143	0x3fa60ad9	1.297206
144	0x3fb5eac6	1.4212272
145	0xbe15dec6	-0.14635763
146	0x3f4a49d9	0.7901893
147	0xbeb72556	-0.35770673
148	0xbef5f16f	-0.48035762
149	0x3f808e6b	1.0043463
150	0x3e2339f5	0.15940078
151	0x3ea435c2	0.32072264
152	0xbf2fd519	-0.68684536
153	0x3f89630c	1.0733352
154	0x3fae8a3c	1.3635936
155	0x3dca5dfc	0.09881207
156	0x3f737262	0.9509641
157	0xbf4f9f59	-0.8110252
158	0x3e0ac168	0.13550341
159	0x3f6632d8	0.8992133
160	0x3e53dd29	0.20689835
161	0x3edafffe	0.42773432
162	0xbf6f77c4	-0.9354212
163	0x3f74868c	0.955178
164	0x3fb08d2f	1.3793086
165	0xbe2516b7	-0.16121946
166	0x3f7334ff	0.9500274
167	0xbf403dc8	-0.7509427
168	0x3e86f7f2	0.26361042
169	0x3f84677f	1.0344085
170	0xbd913ba3	-0.07091453
171	0x3edbfba6	0.4296543
172	0xbf56519c	-0.83718276
173	0x3fa29c77	1.2703999
174	0x3fb1672e	1.3859613
175	0x3d83267f	0.06403827
176	0x3f66b71e	0.90123165
177	0xbf5858f4	-0.8451073
178	0xbde4396b	-0.11143764
179	0x3f3a5c86	0.7279743
180	0xbf334d15	-0.7003949
181	0x3f03ed41	0.51533896
182	0xbe27bedc	-0.16381401
183	0x3f8a87e6	1.0822723
184	0x3fa3a539	1.2784797
185	0x3f1c6d4b	0.6110427
186	0x3f709b6b	0.9398715
187	0xbf37c893	-0.71790427
188	0x3e642ce0	0.22282743
189	0x3f51e6ce	0.81992805
190	0xbeb645e1	-0.35600188
191	0x3e48549f	0.1956353
192	0xbd0b5248	-0.034014016
193	0x3f9cab94	1.2239861
194	0x3fbfcf92	1.498522
195	0x3e8f1ecc	0.27953184
196	0x3f7db1d7	0.9909949
197	0xbf274bfe	-0.6535033
198	0x3f122d1c	0.5710008
199	0x3f17ebbc	0.5934408
200	0xbf42970a	-0.7601172
201	0x3ee6e8ce	0.4509949
202	0x3c86c8ab	0.016453108
203	0x3f6864c1	0.9077874
204	0x3f8fef34	1.1244874
205	0x3deae019	0.114685245
206	0x3f6f18b8	0.9339709
207	0xbf4e53b4	-0.8059647
208	0xbe396e4a	-0.18108478
209	0x3f54946e	0.83038986
210	0xbececb41	-0.40389445
211	0x3e541ce9	0.20714153
212	0xbe7fd815	-0.24984773
213	0x3fa0f376	1.2574298
214	0x3f8afc2e	1.0858209
215	0x3f969a0d	1.1765763
216	0x3f930e49	1.1488734
217	0xbe8031fd	-0.25038138
218	0xbd65d7ff	-0.056114193
219	0x3f8133b5	1.0093905
220	0xbf3f9917	-0.7484297
221	0x3f3dc3a1	0.7412663
222	0xbda3f1df	-0.080051176
223	0x3f51cec0	0.819561
224	0x3fa61873	1.2976211
225	0x3e1b7993	0.15183096
226	0x3f7d3e91	0.98923594
227	0xbec841c4	-0.39112675
228	0x3d4b0f5e	0.049575202
229	0x3f6272fb	0.88456696
230	0xbef6e58d	-0.48222008
231	0x3f412449	0.7544599
232	0xbf8b2637	-1.0871037
233	0x3f7def3c	0.9919317
234	0x3fbdb2f1	1.4820234
235	0x3d8f61f7	0.07001107
236	0x3f665db7	0.8998675
237	0xbf43c959	-0.7647911
238	0xbda0a8a4	-0.07844666
239	0x3f5a384d	0.8524216
240	0xbe032882	-0.12808421
241	0x3f12919a	0.5725342
242	0xbeed289d	-0.46320048
243	0x3f586ddf	0.8454265
244	0x3fa1d94f	1.2644442
245	0x3e22dfa2	0.15905622
246	0x3f7f96da	0.99839556
247	0xbf047b2a	-0.51750433
248	0xbcf30d04	-0.029669292
249	0x3f5846d9	0.84483105
250	0xbe0f93ad	-0.14021178
251	0x3e9a9f28	0.30199552
252	0xbf826d1d	-1.0189549
253	0x3f4d027c	0.80081916
254	0x3f9f8c51	1.2464696
255	0x3d6a3bc1	0.057185892

l2.bias f4 [64]
0	0xbfa8d759	-1.3190719
1	0xbf5514e0	-0.8323498
2	0xbf2b9a7f	-0.6703262
3	0xc02014af	-2.5012624
4	0xbd225ee9	-0.039641295
5	0xbf17d19c	-0.59304214
6	0xbec23fb3	-0.37939224
7	0xc06f091d	-3.7349312
8	0xc06bc13f	-3.6836698
9	0x3dec9327	0.115515046
10	0xbc2d3737	-0.010572246
11	0xbfb757f3	-1.4323715
12	0xc03c7dd6	-2.9451804
13	0xbfa11048	-1.2583094
14	0xbf9302e1	-1.1485254
15	0xbed8acc4	-0.4231931
16	0xbfc74141	-1.5566789
17	0xbe1d342f	-0.15351938
18	0x3f1dd5ba	0.61654246
19	0xbf627a72	-0.88468087
20	0x3e1e5595	0.15462334
21	0xc0331c5a	-2.7986054
22	0xbf76dff5	-0.9643548
23	0xbfa66710	-1.3000202
24	0xbfaf64f2	-1.3702681
25	0xbf78935d	-0.9709986
26	0x3f02da44	0.51114297
27	0xbde4eaba	-0.11177583
28	0xbfe9af8c	-1.8256698
29	0xbf917f87	-1.1367043
30	0x3d454b83	0.048167717
31	0xbd06b287	-0.0328851
32	0xbeb6febd	-0.35741225
33	0xbf4bf8a7	-0.7967629
34	0xbf7c9b23	-0.9867422
35	0xbf68a7a9	-0.9088083
36	0xbf568ef2	-0.8381187
37	0xbbf3edfa	-0.0074441405
38	0xbe3e90d5	-0.18609937
39	0xbf05786a	-0.5213686
40	0xc0900009	-4.5000043
41	0xbf1859d0	-0.59512043
42	0xbf21371a	-0.62974703
43	0xbf3ccc93	-0.73749655
44	0xbecbcbfa	-0.3980406
45	0xbe9ef044	-0.31042683
46	0xbed646c5	-0.41850868
47	0xbf6ff70b	-0.9373633
48	0xc0132dae	-2.299663
49	0xbfe56f54	-1.79246
50	0xc0389c39	-2.884535
51	0x3e5017f2	0.20321634
52	0xc0418dc8	-3.0242786
53	0xbe3531c7	-0.1769477
54	0xc01a3acf	-2.4098394
55	0xbf104e56	-0.5636953
56	0xbe64ff66	-0.22363052
57	0x3e9144e9	0.28372887
58	0xbfd662ad	-1.6748863
59	0xbf8a5428	-1.0806932
60	0xbf75d262	-0.96024144
61	0xbfc7a411	-1.5596944
62	0xc0286816	-2.631353
63	0xbefe24c0	-0.49637413

l3.weight f4 [64, 66]
0	0x3fdadc9a	1.7098572
1	0x3f06323f	0.5242042
2	0xbd4761dc	-0.04867731
3	0x3f2fed63	0.687216
4	0x3f4c7c5d	0.79877263
5	0x3ce78fe7	0.02826686
6	0x3f12af39	0.5729862
7	0x3f28167b	0.656593
8	0x3ee7657c	0.45194614
9	0x3e6f36bd	0.23360725
10	0x3fc034c8	1.5016108
11	0x3edc108e	0.4298138
12	0x3f4d6a52	0.80240357
13	0x3ecaa55e	0.3957929
14	0x3f9c3416	1.2203395
15	0x3d8b86ab	0.06812795
16	0x3f52949d	0.82258016
17	0x3f182561	0.59432036
18	0xbda59b1c	-0.080862254
19	0x3f20f107	0.6286778
20	0x3f9933cd	1.1968933
21	0x3ec795b0	0.3898139
22	0x3e7bcd37	0.24590002
23	0x3ed47904	0.41498578
24	0x3f206b76	0.6266397
25	0x3f07b5ff	0.5301208
26	0x3fb9b36a	1.4507878
27	0x3f174d0e	0.5910195
28	0x3e8acb39	0.27108172
29	0x3f6e0e5e	0.9299067
30	0x3ff1f013	1.890139
31	0x3f3489e9	0.70522934
32	0x3f22811c	0.63478255
33	0x3f239f38	0.63914824
34	0x3f59da4e	0.8509873
35	0x3f7403c0	0.9531822
36	0x3f3439f3	0.70400923
37	0x3f91cb0e	1.1390092
38	0x3f85b080	1.0444489
39	0x3fb11a47	1.3836144
40	0x3ef7583a	0.483095
41	0x3e5a4350	0.2131474
42	0x3f077b7a	0.52922785
43	0x3ea6d973	0.32587776
44	0x3f102654	0.56308484
45	0x3e89352c	0.2679838
46	0x3f562f5b	0.8366601
47	0x3fa94d5a	1.3226731
48	0x3e1485e5	0.14504202
49	0x3cfb8186	0.03070141
50	0x3f2f4866	0.68469846
51	0x3df844b1	0.12122477
52	0x3e01007e	0.12597844
53	0x3f733927	0.9500908
54	0x3e43676c	0.19082421
55	0x3ed04493	0.40677318
56	0x3ff3c241	1.9043657
57	0x3f6a282e	0.9146756
58	0x3f9bedd8	1.2181959
59	0x3f509ffe	0.8149413
60	0x3f83d1dc	1.0298419
61	0x3f5881ad	0.8457287
62	0x3f6372f9	0.8884731
63	0x3e8911fc	0.26771533
64	0xbf24af02	-0.6432954
65	0xbe7ec0b8	-0.24878204
66	0x3f8cab8a	1.098985
67	0x3f78e6f0	0.9722738
68	0xbc9a30ae	-0.01882204
69	0x3f32eaea	0.698897
70	0x3f046ce1	0.51728636
71	0x3ebc54bb	0.36783394
72	0x3f3637f3	0.7117912
73	0x3eaf2c4d	0.34213486
74	0x3ea640f9	0.32471445
75	0x3ecf0834	0.40435946
76	0x3eddefe5	0.43347088
77	0xbe67673f	-0.22597979
78	0x3ec29e2b	0.38011298
79	0x3f0fc643	0.561619
80	0x3f85b4c6	1.0445793
81	0x3e9a62a7	0.3015339
82	0x3f5095db	0.8147866
83	0x3f7a80d8	0.9785285
84	0xbf6a7c91	-0.91596323
85	0x3ebdf4a2	0.37100703
86	0x3e06bbe4	0.13157612
87	0x39e5d88d	0.00043839627
88	0xbde044b2	-0.109506026
89	0x3e04636d	0.12928553
90	0x3ea97cf7	0.33103153
91	0x3ea6d8fa	0.32587415
92	0x3e2636e5	0.16231878
93	0x3f541ca3	0.82856196
94	0x3f21acff	0.63154596
95	0x3ed3bf3b	0.41356835
96	0x3ec46b3f	0.38363072
97	0x3f112e2b	0.5671107
98	0x3f032625	0.5123008
99	0x3fa92fc5	1.3217703
100	0x3e66913a	0.22516337
101	0xbf272c5a	-0.6530205
102	0x3e8f07b4	0.27935565
103	0x3e0b83c5	0.13624485
104	0x3ed82230	0.42213583
105	0x3f928990	1.1448231
106	0xbd7ca202	-0.06167794
107	0xbeaf780c	-0.34271276
108	0x3e7dd5a7	0.24788533
109	0x3f14be70	0.58103085
110	0xbebbdba7	-0.3669102
111	0x3f5fad1b	0.87373513
112	0x3e33e9ea	0.175697
113	0x3eff05c7	0.49809095
114	0xbe43596b	-0.19077079
115	0x3eec0c40	0.46103096
116	0x3e8b2eff	0.27184293
117	0xbe384386	-0.17994508
118	0x3cd1f4cf	0.02562943
119	0x3e982720	0.2971735
120	0xbd303263	-0.043016803
121	0xbfeb624d	-1.8389374
122	0xbd8f3682	-0.069928184
123	0x3f345bcc	0.7045257
124	0xbe2a12c2	-0.16608718
125	0x3f1db37b	0.6160199
126	0xbea910e5	-0.33020702
127	0x3ee0352c	0.43790567
128	0x3e725464	0.23665005
129	0x3aead2e2	0.0017915631
130	0x3fa49fc2	1.2861254
131	0x3da2a7d6	0.079421684
132	0x3d8947b4	0.067031294
133	0xbe03e12e	-0.12878868
134	0xbe0edcc8	-0.13951409
135	0xbedaee90	-0.42760134
136	0x3f3bf3e3	0.73419017
137	0xbeb63bb4	-0.35592425
138	0x3ea791bc	0.32728374
139	0x3c86dc9c	0.016462617
140	0xbcdd1462	-0.026987258
141	0x3f77a38b	0.9673392
142	0xbe9a9f9a	-0.3019989
143	0x3c53e906	0.012933975
144	0x3f28738a	0.658013
145	0x3edf7c45	0.43649498
146	0xbdcc22fd	-0.09967611
147	0x3f1b4cb8	0.6066394
148	0x3e0462e0	0.12928343
149	0xbe02893f	-0.12747668
150	0x3fc8ad88	1.5677958
151	0x3e64f5df	0.22359417
152	0xbcc4112a	-0.023933966
153	0x3ee1e71b	0.44121632
154	0x3f165b09	0.5873266
155	0x3ed82417	0.42215034
156	0x3e21fe32	0.15819624
157	0x3e78e867	0.24307404
158	0x3dda053e	0.10645531
159	0xbf3a3ce7	-0.7274918
160	0x3ec61777	0.38689777
161	0x3ed99e9e	0.42503828
162	0xbfe1e5ef	-1.7648295
163	0x3e54d53c	0.20784467
164	0x3d56b0ba	0.052414633
165	0xbe9d8f21	-0.3077326
166	0xbe9f96aa	-0.31169635
167	0xbda10a01	-0.07863236
168	0x3dd88b5e	0.10573457
169	0x3e9f673b	0.31133446
170	0xbf057b22	-0.5214101
171	0x3d0d5215	0.034502108
172	0x3f040bd8	0.5158057
173	0x3f12c74e	0.57335365
174	0x3ec867d9	0.3914173
175	0xbee55d45	-0.44797722
176	0xbdcda1f7	-0.10040658
177	0x3f92bcf9	1.146392
178	0xbf2029b4	-0.62563634
179	0xbda2710d	-0.07931719
180	0x3eb7bbdc	0.35885513
181	0x3efff63e	0.49992555
182	0xbdb3d185	-0.08780197
183	0x3dbd5302	0.09244348
184	0x3eb9f171	0.36317018
185	0xbebe9f4a	-0.37230903
186	0x3f1ad45b	0.6048028
187	0x3e8eba40	0.27876472
188	0x3e854c70	0.2603488
189	0xbed70ca0	-0.4200182
190	0xbe252e92	-0.16131046
191	0xbe08496f	-0.13309263
192	0x3e942c2d	0.28939953
193	0x3f02e665	0.51132804
194	0x3d76149d	0.060078252
195	0x3f3de16e	0.74172103
196	0xbea8a9a4	-0.32941926
197	0xbecf0d3b	-0.40439782
198	0x3ecdc047	0.40185758
199	0x3f8b548f	1.088518
200	0x3f0f7f27	0.56053394
201	0x3f828b35	1.0198733
202	0xbf093966	-0.5360321
203	0x3fc3b80d	1.5290543
204	0x3e035ac1	0.12827589
205	0x3e4cf86a	0.20016637
206	0x3ee4cf7a	0.44689542
207	0x3d974d7e	0.07387827
208	0x3e3f6f1d	0.1869473
209	0x3f2ea471	0.6821967
210	0x3e8d6791	0.27618077
211	0x3ec1b62a	0.37834293
212	0xbd975ac4	-0.07390359
213	0x3d72a8ce	0.059243016
214	0x3ed65271	0.41859773
215	0x3f49ad57	0.7878012
216	0xbf3588b4	-0.7091172
217	0xbef7f256	-0.48427075
218	0xbdd5637f	-0.10419368
219	0x3f3e71ae	0.7439221
220	0x3fa2119f	1.2661628
221	0x3f3907e0	0.7227764
222	0x3f2b327d	0.66873914
223	0x3f2db4ec	0.6785419
224	0xbeb92205	-0.36158767
225	0xbdcf8998	-0.10133666
226	0x3e966504	0.29373944
227	0x3d122516	0.0356799
228	0x3d8fdd0c	0.07024583
229	0x3e24e37b	0.16102402
230	0x3f046e2c	0.5173061
231	0x3fb92150	1.4463291
232	0x3ef9e2d7	0.48805878
233	0xbe084f02	-0.13311389
234	0xbedef0bc	-0.4354304
235	0x3d93f31a	0.07224102
236	0x3e565270	0.20929885
237	0xbea3ea94	-0.32014906
238	0x3f273dff	0.65328974
239	0x3f4050a6	0.7512306
240	0xbe30a0c3	-0.17248826
241	0x3e916164	0.28394616
242	0x3eb4b627	0.3529522
243	0xbd30733f	-0.043078657
244	0xbf28a6d8	-0.65879583
245	0x3c3778bb	0.011198218
246	0x3f445252	0.7668811
247	0x3f6f1737	0.933948
248	0x3e3cb407	0.1842805
249	0x3f0d7a20	0.5526447
250	0x3eb1148a	0.34585983
251	0x3ec1a80c	0.37823522
252	0x3f2c5af6	0.67326295
253	0xbd745b6c	-0.0596575
254	0x3d67e862	0.056618102
255	0x3edbbfa8	0.4291966

l3.bias f4 [64]
0	0xbf6189e7	-0.8810105
1	0xbf4a6f2a	-0.7907587
2	0xbe987a3a	-0.2978075
3	0xbe18de2f	-0.14928506
4	0xbf6927b7	-0.91076225
5	0xbf1e6a3e	-0.6188086
6	0x3d11860c	0.035528228
7	0xbf2a7bb2	-0.66594994
8	0xbe5f0581	-0.21779443
9	0xbdea2b9a	-0.114340976
10	0xbf0e99b3	-0.55703276
11	0xbf156dfd	-0.58370954
12	0xbf40ac71	-0.75263125
13	0xbf2c2b73	-0.672538
14	0x3df27bd9	0.11840028
15	0x3d0949d5	0.033517677
16	0xbe90772e	-0.28215927
17	0xbf2590cf	-0.64674085
18	0xbeb930d1	-0.36170056
19	0xbf420f10	-0.75804234
20	0xbfab5079	-1.3383933
21	0xbeea4c53	-0.45761356
22	0xbe25b5cf	-0.16182636
23	0xbf926e56	-1.1439922
24	0xbf23a08c	-0.6391685
25	0xbeb8e20d	-0.36109963
26	0xbf0d89a1	-0.5528813
27	0xbf4b66ce	-0.7945374
28	0xbe801989	-0.25019482
29	0xbfa1a808	-1.2629404
30	0xbe34ffe7	-0.17675744
31	0xbf5cda1c	-0.8627031
32	0x3ea395fc	0.31950366
33	0xbf410ba9	-0.75408417
34	0xbf969180	-1.1763153
35	0xbdb7c049	-0.08972222
36	0xbf8a1244	-1.0786824
37	0xbed9174c	-0.42400587
38	0xbdfdc837	-0.123917036
39	0xbe52aa52	-0.20572785
40	0xbf45d51f	-0.7727832
41	0x3bab1640	0.0052211583
42	0xbf049384	-0.5178759
43	0xbedf26a6	-0.43584174
44	0xbfb282c8	-1.3946161
45	0xbfb84b0a	-1.43979
46	0xbfc8e0e5	-1.5693632
47	0xbe7f6d56	-0.24944052
48	0xbf8c3c79	-1.0955955
49	0xbe94b3fe	-0.29043573
50	0xbee1e87b	-0.4412268
51	0xbe202897	-0.15640484
52	0xbf168308	-0.5879369
53	0xbe8fe687	-0.28105566
54	0xbf74e5e0	-0.9566326
55	0xbf614803	-0.88000506
56	0x3df17b6f	0.11791121
57	0xbe287a81	-0.16452982
58	0xbe923d54	-0.28562415
59	0xbf1f3131	-0.62184435
60	0xbde0832a	-0.109625176
61	0xbf3b9137	-0.73268455
62	0xbe966b28	-0.2937863
63	0xbf4cbe11	-0.7997752

l4.weight f4 [2, 64]
0	0xbdc2bdad	-0.09508834
1	0x3e126eed	0.14300127
2	0x3d56cd66	0.052441977
3	0x3ee3df06	0.4450609
4	0xbdfc67f8	-0.12324518
5	0x3ea3cb10	0.31990862
6	0xbcd81e2f	-0.02638158
7	0xbecb6286	-0.39723605
8	0x3e60f079	0.21966733
9	0xbd5f1b5c	-0.05446945
10	0xbe51e49f	-0.20497368
11	0x3e4f3eee	0.2023885
12	0x3cf4ad43	0.029867774
13	0xbe19d5bc	-0.1502294
14	0x3dbd307f	0.092377655
15	0xbe9826f1	-0.2971721
16	0xbe20acab	-0.15690868
17	0xbb8777a6	-0.0041341363
18	0x3dbafd3e	0.09130333
19	0x3dfe6907	0.12422376
20	0xbda08d02	-0.07839395
21	0xbe75ddbf	-0.2401037
22	0x3e2bbb13	0.16770582
23	0x3eefff88	0.46874642
24	0xbe97e5fd	-0.29667655
25	0xbd88bf87	-0.06677156
26	0xbdce161e	-0.10062812
27	0x3e166cf4	0.1469
28	0x3e08f323	0.13374
29	0x3c3ab650	0.011396006
30	0xbd3f6717	-0.046729174
31	0x3f317d26	0.69331586
32	0x3d9d6f3b	0.07687231
33	0x3e4abde1	0.19798996
34	0xbe36f43f	-0.1786661
35	0xbe01230b	-0.12611024
36	0x3ec57a83	0.38570032
37	0xbd8e53a2	-0.069495454
38	0x3ebd5e51	0.3698602
39	0xbe01ac21	-0.12663318
40	0x3a224b35	0.00061910163
41	0xbe6440b5	-0.22290309
42	0x3d263dea	0.04058639
43	0xbd6e0a6c	-0.058115408
44	0xbe11b4a2	-0.14229062
45	0xbdcaea4e	-0.09907971
46	0xbe0d1486	-0.1377736
47	0x3f01b6dd	0.5066965
48	0x3dd81e57	0.10552662
49	0xbda49638	-0.080364645
50	0xbd8627cd	-0.0655056
51	0xbe8de6c2	-0.27715117
52	0xbe310f38	-0.17290962
53	0xbe189fb4	-0.14904672
54	0xbe59b0b1	-0.21258809
55	0xbe787636	-0.24263844
56	0x3d5866bf	0.05283236
57	0xbe97149b	-0.29507908
58	0x3e91168b	0.2833751
59	0xbd9d4792	-0.076796666
60	0xbe505346	-0.20344266
61	0xbdc0e686	-0.09418969
62	0xbe2daace	-0.16959688
63	0xbd865854	-0.06559816
64	0xbe637249	-0.22211565
65	0x3e6d5296	0.23176035
66	0x3deaa65c	0.11457512
67	0x3bb1af36	0.005422498
68	0x3ee88100	0.4541092
69	0x3e358a21	0.17728473
70	0xbeb0172d	-0.34392682
71	0xbe5e398c	-0.2170164
72	0x3cf41b48	0.029798165
73	0x3d288a82	0.041147716
74	0x3e4cbf27	0.19994794
75	0xbd64f439	-0.05589697
76	0xbd7f2622	-0.062292226
77	0xbe632a86	-0.2218419
78	0x3e17a4a4	0.14808899
79	0x3a600f32	0.0008547186
80	0x3c0577fb	0.008146281
81	0xbd63bfd2	-0.055602856
82	0x3eb4ea5f	0.3533506
83	0x3eb28e83	0.34874353
84	0xbe875924	-0.26435196
85	0xbe275265	-0.16340025
86	0xbd76297c	-0.060098156
87	0x3e719f9b	0.23596041
88	0x3de82189	0.11334521
89	0x3d917a91	0.07103456
90	0xbe6ec929	-0.23318924
91	0x3d8366ca	0.0641609
92	0x3e10447e	0.14088628
93	0x3ed683d1	0.41897443
94	0x3d8e32b9	0.06943268
95	0x3d7e2eaf	0.06205624
96	0x397fceef	0.00024395784
97	0xbe385193	-0.17999868
98	0xbe7d8648	-0.24758255
99	0xbdbc9ef2	-0.09210004
100	0x3eaee448	0.3415854
101	0x3eaf3d1d	0.34226313
102	0xbeb0a6dd	-0.34502307
103	0x3ddf1413	0.10892501
104	0x3d54b9db	0.051935058
105	0xbe844e6b	-0.25841078
106	0x3da0acec	0.07845482
107	0xbe4d3adc	-0.20041984
108	0x3e3272b9	0.17426576
109	0x3f04782f	0.51745886
110	0x3eac7be0	0.3368826
111	0xbd0b7ff6	-0.03405758
112	0x3ca326b9	0.019915925
113	0x3e57cec9	0.21074976
114	0x3e4b0949	0.19827761
115	0x3d7c1a15	0.06154831
116	0xbe374011	-0.17895533
117	0xbe5969c3	-0.21231751
118	0xbe61775d	-0.2201819
119	0xbe93e55f	-0.28885934
120	0xbe2ec2fd	-0.1706657
121	0xbe13eca8	-0.14445746
122	0x3e84acce	0.2591309
123	0x3da09ee7	0.07842808
124	0xbe2fd240	-0.17170048
125	0x3c23f1dd	0.010006395
126	0xbe3de422	-0.18544057
127	0x3da98a13	0.08278289

l4.bias f4 [2]
0	0xbf03fddc	-0.51559234
1	0x3ed51771	0.41619447
