Formal Experiments/SZ50/Transformer-DoubleDQN-QT-Final/ModelParam/2024-3-10/64network-TransformerNoguiadance.pth (torch, 851590 bytes, 18 tensors)

encoder.self_attn.in_proj_weight f4 [30, 10]
00000000: b5fa 6e40 7896 82bf 5dce fcbf 22be d940
00000010: a724 5e40 4647 dc3e b86c e93e 83ec 9dc1
00000020: 05ea c13f f7ea 7f3f bfa7 803c 7d1f 6dbe
00000030: c3c9 14c0 7b36 3b40 a8e2 d13f 61d2 e6bd
00000040: 9fda 63bf fe35 f3c1 aeb2 aebf 89e9 6cbf
00000050: fc7b aebe 9781 91be d0c9 febf cc4d a6bf
00000060: e739 96bf 95d9 843f afd0 873f e78c 9941
00000070: 6e77 1f3e b727 e4bc d5b2 77c0 a5f5 0040
00000080: c4e1 77bf de15 873f 5a6d 053f 9791 04c1
00000090: a161 0cc1 e156 debf 83b3 90c0 aaa6 51c0
000000a0: d1ad 36c0 e099 d83d 070e 993e 7b78 8fbf
000000b0: f4e7 4cbe 5f90 4d3f cde2 083f 5a40 afc1
000000c0: f96d d3be 7b79 f1bf cf80 6840 9cfb 093f
000000d0: f216 4140 9a6f 8040 02a7 6e40 05c4 3540
000000e0: d3c8 0240 cd00 04c0 1d7d d23f 63a1 833f
000000f0: 3137 29bf 3a94 8fbe 4b57 2040 fdb9 99c0
00000100: 4900 11c0 d9cf 603f 469c e53f 62a3 fc41
00000110: 688e c5bc 48cf c83d 7c3c 6bbf 498a 753e
00000120: 8a41 443f 317e d73f e43f 933e 77ba 9abf
00000130: 9ee6 dabf 23ab 02c2 607d 3abe 06e8 133e
00000140: f864 1040 ae97 98bf 747e 10c0 39ff a240
00000150: b8e7 9e40 0f2d ec3e b88e fabe 4a69 aac1
00000160: 38a8 2b3f 08cc 3b3f d1a0 babe c41a c63e
00000170: 7052 003f 3415 233f 2ff2 de3e 27a8 afbf
00000180: 3abe 06c0 008b 3dc1 e756 76be 1b35 333d
00000190: 3b04 4ec0 9179 f8c0 1653 dbc0 258e d7c0
000001a0: bb70 c1c0 c703 3140 f4a8 1f40 a1d4 edc1
000001b0: 864d 91be 0d30 9040 bb23 5cc0 0298 9ac0
000001c0: 0387 18c1 2885 14c0 de0a a0c0 c775 f93f
000001d0: c303 4340 12ae c53f a2a1 5e3f efa1 df3f
000001e0: a3ec 0241 0057 2441 9a2d 4241 7f3d 4041
000001f0: 62e9 3d41 2401 31c0 e7bf f8bf bf10 1d40
00000200: a56d c23d 52ed 98c0 0de4 4f40 a10f e240
00000210: 906d 9540 d3d4 8940 0ee0 7140 2183 3bbf
00000220: a109 05be 6bec f841 5524 37bf 7903 44be
00000230: f56d 02bf e88b 2240 866c 36bf 0213 bfbe
00000240: 8fc0 d0be 073c 553f f930 0740 a3df 0d40
00000250: e45d 63be 1248 4ec0 c509 1640 9c41 03bf
00000260: d26c 5540 16dc 6140 57b0 bb40 1c1f 673d
00000270: 58d9 1e3f 2b0a a2c1 22ab 34bf 0c01 61c0
00000280: 7123 db40 7e28 0341 a6a8 1e41 5852 bd40
00000290: 7bd4 ea40 4319 70c0 4579 58c0 34dc 8d41
000002a0: 0f57 463e 52cf f7c0 9df8 4bc1 4a36 fcc0
000002b0: 92b7 1bc1 ff35 f2c0 b8f2 11c1 da69 b340
000002c0: 24dd b640 b9ed 4b3e 00cb 0c40 68b9 bb40
000002d0: 4d1a 42c0 44dc f0c0 7290 e1c0 ddbc b6c0
000002e0: f702 d2c0 c588 4140 03b6 2740 ed25 dac1
000002f0: f40a d6be 8db4 c440 e2b9 3bc1 a176 fdc0
00000300: eb5e 40c1 7467 d1c0 98a1 0ac1 395f 0640
00000310: 9c45 b43f 2524 0340 eeb1 12bd 74cc ed40
00000320: 9bf8 94bd 3189 5a40 771b f840 ba62 9f40
00000330: 3bb5 8640 aabe a7bf b4f4 5cbf 9776 a2c1
00000340: 84c1 24bf ab53 21bf be6f b9bf 8e18 e3bf
00000350: fa06 f2c0 86a3 24bf 1495 a5be 337e 6540
00000360: 0f9d 2a40 a3eb 9841 def3 95be 6ae1 3dbf
00000370: 459d adbf 4cf8 923d 121c dcc0 9b84 08c0
00000380: dd50 ecbf 3895 5e3f d6ea 113f 79a5 a741
00000390: 4cae 09be 1236 4ebf 1d40 323f f306 c93f
000003a0: 9cbd 0741 72be b13f 0a36 603e 698a 25c0
000003b0: 7784 c8bf 3410 84c1 4836 c23d 038e 68bb
000003c0: 0104 40bf 20c4 913f a896 99c0 4ac0 bd3f
000003d0: 6151 0b3f 9230 943e 4f95 863d c987 9740
000003e0: 9d0b 13bf 1f70 eebf 371a 04bf e389 19c0
000003f0: 6587 dfc0 7bdf 4fc0 3d7a 5dbe 2c29 7240
3.734052 -1.020217 -1.9750477 6.8044596 3.470987 0.43023127 0.45590758 -19.740484
1.5149542 0.999679 0.015704988 -0.23156543 -2.3248146 2.9252002 1.6397295 -0.11270595
-0.89005464 -30.401363 -1.3648279 -0.92543846 -0.34078968 -0.28419182 -1.9905338 -1.2992492
-1.173642 1.0378901 1.061056 19.1938 0.15572903 -0.027850969 -3.87029 2.014993
-0.96828866 1.0553548 0.5211998 -8.285544 -8.773835 -1.7370263 -4.521913 -3.2757974
-2.854359 0.10576224 0.29893515 -1.1208643 -0.20010358 0.8029842 0.5347107 -21.906422
-0.4129484 -1.8865198 3.6328619 0.5389955 3.0170255 4.013623 3.7289433 2.840089
2.0435073 -2.0625489 1.6444432 1.0283626 -0.6609984 -0.28042775 2.505328 -4.8039536
-2.2656424 0.8781715 1.7938316 31.579777 -0.024115756 0.09805161 -0.91889167 0.23978533
0.76662505 1.6835386 0.28759682 -1.2088155 -1.7101629 -32.667126 -0.1821189 0.14443979
2.2561626 -1.1921289 -2.257718 5.093655 4.965786 0.46128127 -0.4893701 -21.30141
0.67053556 0.733582 -0.36450818 0.38692296 0.5012579 0.6370423 0.43544146 -1.3723191
-2.1053605 -11.846436 -0.24056588 0.043751817 -3.2190082 -7.7648396 -6.8538923 -6.7361016
-6.045011 2.7658556 2.494687 -29.728823 -0.28379458 4.5058656 -3.4396808 -4.8310556
-9.532962 -2.3206272 -5.0013266 1.9489068 3.0471046 1.5443747 0.8696538 1.7471293
8.182773 10.27124 12.136133 12.015014 11.869478 -2.7656946 -1.9433564 2.454147
0.09493569 -4.77897 3.248294 7.064408 4.6696243 4.3072295 3.7793002 -0.7324696
-0.12991954 31.115438 -0.71539813 -0.1914195 -0.5094903 2.5397892 -0.71259344 -0.3731919
-0.4077191 0.8329472 2.112364 2.2167747 -0.22203785 -3.2231488 2.3443463 -0.51271987
3.3347669 3.529058 5.865276 0.056426153 0.6205039 -20.254965 -0.7057363 -3.515689
6.8480763 8.197386 9.916174 5.9163017 7.3384376 -3.7515419 -3.3824017 17.732521
0.19369148 -7.7440577 -12.748197 -7.881627 -9.732317 -7.5690913 -9.1217575 5.6066713
5.7144947 0.19914903 2.1998901 5.8663826 -3.0328553 -7.526888 -7.0488825 -5.7105546
-6.562862 3.0239727 2.620484 -27.268518 -0.41805232 6.14704 -11.732882 -7.920731
-12.023173 -6.5438786 -8.664452 2.099562 1.4083743 2.049081 -0.03581422 7.4312077
-0.0727398 3.4146235 7.7533526 4.9808016 4.209623 -1.3105061 -0.8631089 -20.307905
-0.6435778 -0.6301829 -1.4487226 -1.7741868 -7.5633516 -0.64312017 -0.323403 3.5858276
2.665836 19.115057 -0.29287618 -0.7417208 -1.356362 0.07176265 -6.8784266 -2.1330936
-1.8462178 0.8694644 0.56998956 20.955797 -0.13445395 -0.80551255 0.6962908 1.5705246
8.483791 1.3886244 0.21895614 -2.586573 -1.5665425 -16.507912 0.094830096 -0.0035485036
-0.7500611 1.1387978 -4.7996407 1.4824307 0.5442105 0.28943306 0.06571447 4.7353253
-0.57439595 -1.8627967 -0.516025 -2.399041 -6.9852777 -3.2480152 -0.21628661 3.783763

encoder.self_attn.in_proj_bias f4 [30]
00000000: 7fbe 2140 d966 65be 44d0 54bf 2b22 58c0
00000010: 9fc4 e0be d9e2 ae3e 98c7 c3bf bd3b 673f
00000020: cb21 0740 cf19 7a3f aaa7 ad3d 4dc5 8a3e
00000030: 5f9d 41bd 1372 70bf 72ef 5abd 0037 55be
00000040: 0f42 a9bf 1081 9b3e bd9d db3f 4d9c 8a3e
00000050: 4751 debf 0511 07be 67df c43d 0dc7 0cbf
00000060: df3c fdbf f08c 8f3f ace1 00bf 5358 95be
00000070: ad4f 9d3f ec44 233e
2.527252 -0.22402515 -0.8313029 -3.3770854 -0.4390001 0.34157446 -1.5295286 0.9032553
2.1114376 0.9769563 0.08479245 0.27103654 -0.04726922 -0.93924063 -0.05345101 -0.20821762
-1.3223284 0.30371904 1.7157513 0.27072373 -1.7368554 -0.13190086 0.09612923 -0.5499123
-1.9784201 1.1214886 -0.5034435 -0.2916895 1.228994 0.1594426

encoder.self_attn.out_proj.weight f4 [10, 10]
00000000: ca11 ec3f bed1 a8bf 8392 dcbf 9b2e f03f
00000010: 5948 c33e e4c5 cdbf 3cef cd3c 44f9 4440
00000020: 1327 653f 34ff 06c0 d3ae 08c0 1a2b 3f3f
00000030: ac3c b43f e1d4 cdbf 5c33 28bf e29a c43f
00000040: 03f0 f7bf 011d 97bf 9d40 1040 f3e5 4d3f
00000050: 9e06 c8bf 737e a93f 4eee 7a3f ebaa 4abe
00000060: 31a1 0a40 c260 ccbe a5be 0d3f 780c b9bf
00000070: 33a7 03c0 d575 833f 8d96 36bf f47b b73e
00000080: 9319 a4bf 350c 90bd 1639 0bbf 74fb 463f
00000090: 7114 e1bf 85a9 4abd c843 f73f 95cb d6be
000000a0: 3bfc 333f 3515 28bf c5be d2bf 44ea 8c3f
000000b0: ba88 c43e 8984 e2bf 2d9a aabe daff f83f
000000c0: c7cd 36bf cea8 c2bf 0b5f eebf bf17 0f3f
000000d0: 6775 88be f9bd 67c0 4e04 32bf 70ff 0840
000000e0: c9c1 33bf d3eb cfc0 288c 503f 3c89 0e40
000000f0: c226 04c1 aab7 ff3f c8c5 833f 6a6f 0dc0
00000100: b634 c5bf 9665 0340 f5b9 d8bf cfd9 21c0
00000110: 26d7 8d3f 5361 fe3f 33c7 8dc0 99ef 6940
00000120: f954 2a40 d37b 2ac0 5529 02bf fbd4 3240
00000130: e0d1 64c0 4bd4 85c0 dd44 3140 3291 4b40
00000140: 8947 873f ada6 11bf 5c66 d2bf 0518 833f
00000150: 17bb 1dc0 e2c4 183f ec86 a8bf 1d9d 503f
00000160: 28ff 2d40 23af c0bf d5cf 533f 9894 c63e
00000170: d18c 0fbf 37d1 883e 3d2f 4cc0 8621 6c3f
00000180: a297 d9bf 7d68 913f 1703 5f40 b693 19be
1.8442929 -1.3189008 -1.7232212 1.8764223 0.38141134 -1.6076016 0.02513849 3.077714
0.8951275 -2.1093264 -2.1356704 0.7467514 1.4081016 -1.608059 -0.6570337 1.5359766
-1.9370121 -1.1805726 2.2539437 0.80429 -1.562702 1.3241714 0.98019874 -0.19791763
2.1660883 -0.3991757 0.55369025 -1.445693 -2.05708 1.0270334 -0.7132347 0.35836756
-1.2820305 -0.07033578 -0.5438398 0.77727437 -1.7584363 -0.049478073 1.931756 -0.41952196
0.7030675 -0.6565736 -1.6464468 1.1008992 0.38385564 -1.7696697 -0.33320752 1.945308
-0.7140774 -1.5207765 -1.8622755 0.5589561 -0.2665207 -3.62097 -0.6953782 2.1405907
-0.7021757 -6.497537 0.8146386 2.2271261 -8.259462 1.9977925 1.0294733 -2.2099252
-1.5406711 2.0530753 -1.693175 -2.528919 1.1081283 1.9873451 -4.4305663 3.6552489
2.6614363 -2.6638076 -0.5084432 2.7942493 -3.5753098 -4.1821647 2.769828 3.180737
1.0568706 -0.5689495 -1.6437488 1.0241705 -2.464544 0.5967542 -1.3166175 0.81489736
2.7186985 -1.5053447 0.82739 0.38785243 -0.56074244 0.26722118 -3.1903832 0.9223865
-1.69994 1.1360012 3.4845636 -0.14997754

encoder.self_attn.out_proj.bias f4 [10]
00000000: 5d50 c4bf f93b cc3f 1c56 b2bf 58a8 c83e
00000010: 3611 04c0 e9a2 d43f 28c1 fa3f 2f42 f73e
00000020: 44e3 6c40 ac07 733f
-1.5337025 1.5955802 -1.3932528 0.39190936 -2.0635505 1.6612216 1.9590197 0.48292682
3.7013712 0.9493358

encoder.linear1.weight f4 [64, 10]
00000000: 513c 05bf 66c9 3a40 7395 923f 74fe 863f
00000010: a389 383f 94c6 56be 6375 cd3e 3b0b 8a3f
00000020: 04ef c6be d3e2 c2be e246 a140 8908 87c0
00000030: 7d42 85c0 8862 5fc0 a88b 733f e76f 8fc0
00000040: 5b8b 20c0 68fd 4c40 27ea 2c40 af12 d83f
00000050: 6806 4f40 83de 14c0 079d 39c0 ca8c e5bf
00000060: b953 cb3f a36b 3cc0 4511 0ac0 97d6 e13f
00000070: a525 9740 3940 c43d 843a 9d40 2763 57c0
00000080: 3804 13c0 f58a 1bc0 706d 773f 4554 59c0
00000090: f5df 42c0 75da b03f c2ff 8640 aa03 a53f
000000a0: 3afe 5e40 abc2 94c0 6fee 06c1 6dea f2c0
000000b0: 1fb5 f3bf cdd1 fc3f 1e6e 5bc0 4a68 12c1
000000c0: b69c aa40 41c1 4b3f 60af fe3f 631a d3bf
000000d0: af3e d2bf b446 b2bf aca0 d73f 2cd6 32c0
000000e0: 197c 89bf 8b15 ad3f 6467 a040 9955 59be
000000f0: b8bf 8340 065e e3bf db21 7fbe ac6d 51c0
00000100: b89e 6040 f981 18c0 c346 a4c0 277f 66c0
00000110: 0906 dcbe c958 31c0 ead2 94be 52df d33f
00000120: 195d cf3e 9bdf 803f b778 433e 5c73 d8be
00000130: b530 423e 9a25 483f c6f7 0cbf 89d7 61bf
00000140: 9c11 cabe af98 0040 aa17 f23e 3c02 bb3f
00000150: cf7e 9dbc 9e4d 1c3d 7453 f73e eba2 ba3f
00000160: 031f 7ebf 4f52 e2be b3fc 8f3f 5ce6 d5bd
00000170: feb2 4a40 2de5 473f 8ba4 203f 5fb1 27bf
00000180: ab0f b63f beec 4a3e 21fb 7ec0 c6aa 03c0
00000190: 09be bf3f 78b9 00bc 0316 643f e8d2 5740
000001a0: 588e 41bf 335b b33f bbc4 e6bc 5523 023f
000001b0: ed04 aabf dde1 34bf 8230 c540 c49d 1ac0
000001c0: 5a85 63c0 691e 0ec0 6d75 e23f e22d c3bf
000001d0: 53a4 37c0 8429 603c 7795 1b40 9508 773f
000001e0: 69e5 3bc0 c22e 30c0 5c7c 10c0 1d12 5cc0
000001f0: ef54 8fc0 83b0 bc40 9224 5340 5a1d 75c0
00000200: 263c 2d40 3548 7b40 57e7 30be 1ef3 2f3f
00000210: 5701 c83d 5def d13d 7297 283e 728c a3be
00000220: 570b edbd f983 f73e 4a88 e1be a1fb 41be
00000230: 942e 4cbf 2b2f 0140 e953 903f 8f29 2740
00000240: ef05 273f 96fe bcbf ee82 623f 5781 be3e
00000250: 6515 ffbe bcc8 37bf e845 3040 83aa 21c0
00000260: 4548 a23e 77d8 45c0 eecc 2c40 a2f1 f1bf
00000270: bd54 21c0 0f1b 8fc0 e097 81bf 7fe2 43c0
00000280: 1c8c c240 166c 93c0 032d c1c0 d806 9dc0
00000290: 2dde 2640 98b1 0e40 b55c 0cc0 1a9b bdc0
000002a0: 2a5c bb40 112c 2dbf 8911 6c40 f2b9 79c0
000002b0: eced afc0 6d9a abc0 1ec8 43bf c6a8 75be
000002c0: c133 91c0 a14d c1c0 751c 7940 daf5 0c3f
000002d0: d724 9240 30f9 d7bf 8833 8cc0 82ec 38c0
000002e0: 23cc 4440 0d62 96c0 0dc9 d4bf b3dd 0a40
000002f0: 2937 1f40 2cb3 a03f 2b1b 1340 a2d6 59c0
00000300: eccf 26c0 50bd afc0 5452 4d40 0319 95c0
00000310: d664 87c0 54ac b1c0 2759 3b40 4f7e 1840
00000320: 3551 2d40 b8d8 93c0 39f1 b4c0 8ce0 64c0
00000330: c32f bb3f 133f 3ac0 5ad6 fdbf a61f a1c0
00000340: 635c 9440 99a9 c7bf f048 ba40 3388 a6c0
00000350: 20d1 b1c0 ceee aac0 4bbb 9e40 0ed4 01c1
00000360: 7450 efbe cf91 f040 c533 ae40 5995 bf40
00000370: 7b9c 8440 e619 56c0 aeb7 51bf 22da ecbf
00000380: f198 14bf ef45 7abf d0b6 d9c0 5368 483e
00000390: 2bd3 c940 b319 083f 3069 b53f 09fa 9bc0
000003a0: a336 65c0 a523 ecc0 8466 4840 621c 1cc0
000003b0: 889d 1dc0 0f2f f5c0 48a4 5340 6568 90be
000003c0: 2c93 85be 4942 983f 9ddc e53f 4741 993f
000003d0: 2040 013f 2f0d 04bf f207 313f 0e26 993e
000003e0: fd75 aebf 6606 40bf f814 7b40 934b 39c0
000003f0: b5bd 5740 8582 36c0 42ef a740 7af1 8fc0
-0.5204516 2.9185424 1.1451858 1.0546403 0.72085017 -0.20974189 0.4012862 1.0784677
-0.3885423 -0.38063678 5.0399027 -4.219792 -4.1643662 -3.4903889 0.95134974 -4.48241
-2.5085056 3.2029667 2.7017915 1.6880702 3.234766 -2.326081 -2.9002092 -1.793359
1.5884925 -2.9440696 -2.157304 1.7643613 4.7233453 0.09582562 4.913393 -3.3654268
-2.2971325 -2.4303563 0.96651363 -3.3957684 -3.0449193 1.3816668 4.2187204 1.2891743
3.4842668 -4.648763 -8.433211 -7.5911164 -1.9039649 1.9751526 -3.428596 -9.150461
5.3316298 0.7959176 1.989727 -1.6492428 -1.642538 -1.3927827 1.6845908 -2.794322
-1.0740997 1.3522199 5.012621 -0.21224059 4.117153 -1.7763069 -0.24915259 -3.2723188
3.5096874 -2.382933 -5.133638 -3.6015108 -0.42973354 -2.771044 -0.29067165 1.6552527
0.40500715 1.0068239 0.19089018 -0.42275512 0.18963893 0.78182375 -0.5506557 -0.88219506
-0.3946656 2.009319 0.4728368 1.4610057 -0.019225506 0.03815996 0.48305857 1.4580969
-0.9926607 -0.4420342 1.1248993 -0.10444328 3.1671748 0.7808407 0.6275107 -0.6550502
1.4223531 0.19816872 -3.9840777 -2.0572982 1.4979869 -0.007856719 0.8909609 3.3722477
-0.75607824 1.4012207 -0.02816998 0.5083516 -1.3282753 -0.7065714 6.1621714 -2.4158792
-3.5550141 -2.220606 1.7692086 -1.5248377 -2.8694046 0.013681773 2.4309976 0.9649747
-2.935877 -2.7528539 -2.2575903 -3.4386055 -4.479118 5.896547 3.299107 -3.8299165
2.7067962 3.9262822 -0.17275749 0.6873034 0.097658806 0.10250733 0.16464022 -0.3194309
-0.115744285 0.48342875 -0.44049293 -0.18943645 -0.7975857 2.018504 1.1275607 2.6119115
0.6524343 -1.4765193 0.8848103 0.37208053 -0.4982101 -0.7179067 2.7542667 -2.5260322
0.31695762 -3.091337 2.700008 -1.8901865 -2.520797 -4.472053 -1.0124474 -3.0606992
6.079603 -4.606944 -6.0367446 -4.9070854 2.6073105 2.2295895 -2.1931584 -5.9251833
5.8550005 -0.67645365 3.6885703 -3.9019742 -5.497793 -5.362601 -0.7647723 -0.23990163
-4.5375676 -6.040726 3.8923619 0.5506264 4.566997 -1.6872921 -4.3812904 -2.8894353
3.0749595 -4.699469 -1.6623856 2.1697814 2.4877417 1.2554679 2.2985332 -3.4037251
-2.6064405 -5.4918594 3.20815 -4.659303 -4.231059 -5.552286 2.9273164 2.3827093
2.7080815 -4.620205 -5.654446 -3.5762053 1.4623951 -2.9100997 -1.983104 -5.0351133
4.6362777 -1.5598632 5.8214035 -5.204126 -5.556778 -5.341651 4.960363 -8.114271
-0.46741068 7.517799 5.4438195 5.986981 4.1441016 -3.3453307 -0.819209 -1.8504069
-0.5804587 -0.9776296 -6.803566 0.19571047 6.3070273 0.53164214 1.4172726 -4.874272
-3.5814598 -7.379351 3.131257 -2.4392323 -2.46274 -7.6619945 3.306902 -0.28204647
-0.26088846 1.1895229 1.7957951 1.1973046 0.5048847 -0.51582617 0.6915275 0.29911846
-1.3629757 -0.75009763 3.9231548 -2.8952377 3.3709538 -2.8517163 5.2479563 -4.498227

encoder.linear1.bias f4 [64]
00000000: 6596 08c0 8a3d 3340 64cf 1b40 cb51 5a40
00000010: 6cbc 5d40 b493 683f 3cc2 2a40 a990 0fc0
00000020: fbb0 0ec0 b8c4 dd3e 095e adbf 441c 2140
00000030: 2338 5c40 4a97 c4bf 86ea 1ebf ed46 5f40
00000040: 1403 9140 aa38 4d40 9e36 e53f bbe5 b440
00000050: 1837 a540 ba29 c040 5003 6640 fd62 d040
00000060: e00c b7bf 0f29 2140 4bf9 9c40 5004 ed3e
00000070: acb3 4240 8cd6 9a40 b4d7 b140 b399 b8bf
00000080: 324e 27be b8b5 7abf 7a10 4c3f 1686 7e40
00000090: 6822 0040 ce49 fbbf b862 04c0 0044 5e40
000000a0: 91a9 5740 d7d1 5340 0177 6740 2bba 4e40
000000b0: 3ee6 0f40 b259 9640 1d28 1d40 81d5 1a40
000000c0: f9e4 01c0 ef28 a140 ef4d 4640 c12d 7e40
000000d0: de10 c2bf 59b0 3a40 e25d e8bf b9ae e03f
000000e0: 85b6 4f40 b528 02c0 c341 f340 a8be afbf
000000f0: dfcb 0a40 f7a8 3240 2f55 9a40 a798 5840
-2.1341794 2.800631 2.434533 3.4112422 3.4646254 0.9085038 2.6681051 -2.2432044
-2.229552 0.43314147 -1.3544322 2.5173502 3.4409263 -1.535867 -0.62076604 3.488704
4.5316257 3.2065835 1.7907293 5.6530433 5.1629753 6.0050936 3.5939522 6.5120835
-1.4300804 2.518131 4.9054313 0.46292353 3.0422163 4.83869 5.557581 -1.4421905
-0.16338423 -0.9793353 0.7971264 3.976934 2.0021 -1.9631898 -2.0685253 3.4729004
3.3697245 3.3096826 3.6166384 3.2301128 2.2484279 4.698449 2.4555733 2.4192812
-2.0296004 5.036247 3.0985067 3.9715426 -1.5161397 2.9170134 -1.8153651 1.7553321
3.245515 -2.0337346 7.6017776 -1.3730059 2.1686933 2.7915628 4.8228984 3.3843172

encoder.linear2.weight f4 [10, 64]
00000000: 9474 febf e606 7240 f01a 8dc0 93f5 96c0
00000010: 49db ddc0 ece7 3ec0 6c91 863f 4459 143f
00000020: 659a 39bc ca75 0bc0 ced3 0ac0 1397 4ac0
00000030: 528a 20c0 4377 b1be b44b 12bf 5055 f43f
00000040: ae27 ce40 79b8 ecc0 0188 1740 25a9 9940
00000050: 30c5 9b3f 41e0 bcbf bbf0 e5c0 4cd6 0840
00000060: 96f5 583f 6ddc 92c0 7b63 7540 7aba 7abf
00000070: cdec e9c0 bd88 86c0 fe78 7140 3d96 a3be
00000080: 6ed2 d040 54da 5cc0 5bca 58c0 430c f63f
00000090: 9bc3 e5bf 5d02 80bf d492 06bf 6690 c4bf
000000a0: 7e4d c5c0 6861 48c0 4dca 1540 7747 ac3f
000000b0: 4b0a d43e 08e4 9440 e97e f6c0 f30a b8c0
000000c0: 4fa5 01bf 51ba db3f 935a 893f 038e dac0
000000d0: 039b 8c3e 4e55 72be 2f01 8fbf 7865 adc0
000000e0: 7d48 cfbf 0e40 bdbe 097b 9c40 fda4 bf3f
000000f0: 719f d7c0 fe15 fbc0 8000 3741 981a 87c0
00000100: 95de 0abe 2a09 8040 01ce 9d3f 6305 1640
00000110: d729 c140 1524 fcbe 03f8 8040 2290 d93e
00000120: d6c4 7b3d c376 41be 4e21 9c40 6db0 4fc1
00000130: d1c7 1041 d718 ccbe 1b34 ae3f d80e c63f
00000140: a7e6 fd40 f1e0 b540 e641 3c40 2995 1041
00000150: 5fbf 1c41 c148 aec0 d203 7240 23cd 0841
00000160: 66b4 01c0 bb8f c8c0 9b6b 6d41 495c a73f
00000170: 58b7 9240 f881 f2c0 7e49 c2c0 4a91 7e3d
00000180: d49d d03f f5ba c53f 1c6d f6bd ff60 cc40
00000190: 9e5a 0bbf a3a7 833d bfcc 80be bdc1 ffbf
000001a0: bd86 8c40 c954 1f3f 56b0 cabf d8f3 9440
000001b0: f513 0340 03af 2c3f 6879 c840 6c95 8940
000001c0: 70d6 cc3e 0c19 7040 6059 9bbf c8d6 ba40
000001d0: 1fb8 e33e 77ee 9640 d624 1cbf 8641 8340
000001e0: 9379 2841 4e42 94be c4df cc40 888d a440
000001f0: c108 a340 c8b6 be40 1e87 46bf 8dd5 f83d
00000200: cfc9 4d3f 4b0c 72c0 4076 1940 6a3d ba3f
00000210: ddd0 1c3f 8cb0 da3f 02a4 cebf 5872 5e3e
00000220: c843 323f 4cc3 053f 3f7f 0640 3a8f d640
00000230: 5ce6 a13f 10e3 a03e aaf4 2740 df8d f3bf
00000240: dcb7 87c0 4e37 233f e397 253f bd22 4cc0
00000250: dce0 9bbf 2087 4c40 959d 7b3f 0453 3ac0
00000260: ca52 d43f d771 05c0 5a00 49bf ebdf b5be
00000270: 9673 76be a4bd 3440 11aa c840 4281 b3ba
00000280: b90b 0840 f0cd 4240 10e1 e03f 3d38 46c0
00000290: ab12 ff3f 3eb0 0c3f 8b51 eb3e d49c 2740
000002a0: 060b 063f c338 e03f 867a c63f 1877 a2bf
000002b0: e0d9 53bf 5f3b 0140 4f47 44bf 0d90 da3f
000002c0: 089a fa3e 5d8c 2f40 8ef3 543e 70e0 833e
000002d0: e271 a63e 156f b0bf 322b f13f d034 583f
000002e0: 9e41 9a3f 9caa bb3f 8772 9fc0 16dd 02bf
000002f0: 4e0d 4b3f f1c8 19bf 7389 27c1 1816 ea3f
00000300: 667e c53f 86df 97bd 5f52 1740 f7ab f03f
00000310: 8312 e03d e166 cb3f f110 1840 3ac3 80bf
00000320: b69c 293e 4328 eb3f d548 59bf f531 a1c0
00000330: 668c 483f 0a30 613e d754 acbe 6bc0 2640
00000340: 4c8b d4c0 ec73 ca3d 2a8c 2440 da76 7d40
00000350: 05be 7940 4864 3641 cb6c 1340 f4ab 9c40
00000360: 85e9 f53f e762 3241 0403 f23f 50c2 1140
00000370: b668 2e3f 02a3 5c41 742a 5b40 3438 243f
00000380: 86df 05c1 f222 2140 ef59 d93f 9008 7040
00000390: de27 ba3f c7aa 173e 4edf c33e daf3 5440
000003a0: 6ae3 2c40 0024 bf3f cbe4 6040 6b0a 2440
000003b0: 5046 8040 ac50 ac3f cd2d 75bf da6f 0a40
000003c0: 08cc 9e3e 310f 13c1 065b 7b40 7748 eb3f
000003d0: 0b00 993f 91a8 7940 ea82 4a3f 2e02 ce3f
000003e0: b681 5e3f 6cdd d2be 4449 013e 196b 91bf
000003f0: 7453 6e3e 0745 8abc 3f10 d83e e713 0440
-1.9879327 3.781671 -4.4095383 -4.7174773 -6.933018 -2.9829054 1.0513129 0.5794871
-0.011328314 -2.1790643 -2.1691775 -3.1654708 -2.5084424 -0.34661302 -0.57146764 1.9088535
6.4423437 -7.3975186 2.367676 4.8018975 1.2169552 -1.4755937 -7.185636 2.1380796
0.84749734 -4.5894074 3.8341968 -0.9794079 -7.3101563 -4.2041917 3.7730098 -0.3195056
6.525687 -3.4508257 -3.3873508 1.9222492 -1.7950319 -1.0000721 -0.5256779 -1.5356567
-6.1657095 -3.1309452 2.3404725 1.3459309 0.41414103 4.652836 -7.702992 -5.7513366
-0.50642866 1.7166234 1.0730766 -6.8298354 0.27462015 -0.23665354 -1.1172236 -5.4186363
-1.6193997 -0.36962932 4.890019 1.4972225 -6.738213 -7.8464346 11.437622 -4.2219963
-0.13561471 4.0011187 1.2328492 2.3440788 6.0363574 -0.49246278 4.030275 0.42492777
0.061467014 -0.1889296 4.8790655 -12.980573 9.048783 -0.398627 1.3609651 1.547328
7.934406 5.6837087 2.9415221 9.036416 9.796721 -5.446381 3.7814832 8.550082
-2.0266356 -6.267545 14.838771 1.3075038 4.584881 -7.5783653 -6.071471 0.062150277
1.6298165 1.544768 -0.1203253 6.3868403 -0.54435146 0.064284585 -0.2515621 -1.9980999
4.3914475 0.62238747 -1.5835063 4.654766 2.048093 0.67454547 6.26482 4.29949
0.40007353 3.7515287 -1.213665 5.8387184 0.4447641 4.7166095 -0.6099371 4.1017485
10.529681 -0.28956836 6.402315 5.142277 5.0948186 5.959812 -0.7754992 0.121501066
0.8038606 -3.7820003 2.3978424 1.4549992 0.612562 1.7085128 -1.6143801 0.21723306
0.69634676 0.52251124 2.1015165 6.7049837 1.2648425 0.31423235 2.624308 -1.9027671
-4.241194 0.63756263 0.64684886 -3.1896203 -1.2177997 3.1957474 0.98287326 -2.9113169
1.6587765 -2.0850732 -0.7851616 -0.35522398 -0.2406753 2.8240747 6.27076 -0.0013695138
2.1257155 3.0438194 1.7568684 -3.0971825 1.9927572 0.54956424 0.4596065 2.618947
0.5236057 1.7517322 1.5506141 -1.2692595 -0.82754326 2.0192487 -0.7667131 1.7075211
0.48945642 2.742942 0.20796034 0.2575717 0.3250876 -1.37839 1.8841307 0.84455585
1.2051275 1.4661441 -4.9827304 -0.511186 0.79317176 -0.6007224 -10.471057 1.8287992
1.5429199 -0.074156806 2.3644025 1.880248 0.10941031 1.5890771 2.376034 -1.0059578
0.16563687 1.8371662 -0.8487676 -5.0373483 0.7833923 0.21990982 -0.33658478 2.6054943
-6.642004 0.098853916 2.571055 3.9603791 3.9022229 11.399483 2.3035152 4.8959904
1.921189 11.149146 1.890717 2.277485 0.68128526 13.789797 3.4244661 0.6414826
-8.367071 2.517758 1.698057 3.7505226 1.4543417 0.1481124 0.38256305 3.3273835
2.7013803 1.4932861 3.5139644 2.5631359 4.008583 1.3462119 -0.9577301 2.1630769
0.31015038 -9.191209 3.9274306 1.838149 1.1953138 3.9009135 0.7910601 1.6094415
0.86916673 -0.41184556 0.12625605 -1.1360809 0.23274022 -0.016878618 0.42199895 2.0637147

encoder.linear2.bias f4 [10]
00000000: b1f9 1cc0 41e0 233f 980c af3f 97e1 0b40
00000010: 7fd0 3340 81bd acbe 1f62 643f f07e b3bf
00000020: 25af 07bf f7bf bd3f
-2.45274 0.6401406 1.3675718 2.185644 2.8096006 -0.3373833 0.8921222 -1.4023113
-0.53001624 1.4824208

encoder.norm1.weight f4 [10]
00000000: a952 8940 8b32 0f3f 8459 5240 a0eb da3d
00000010: fc7d 9a40 510a cb3f 04b3 e93f bb83 2fc0
00000020: 0278 f03f b084 e8be
4.2913404 0.559365 3.2867136 0.10689473 4.827879 1.5862523 1.8257756 -2.7424152
1.8786623 -0.45413733

encoder.norm1.bias f4 [10]
00000000: f134 aabe 0656 e6bf c761 e9bf 2f99 1dc0
00000010: 4b5b e33e 2eb6 5d3f b5c9 12be 4b6a 29c0
00000020: aea1 2440 df6d 403e
-0.33243516 -1.7995002 -1.8232964 -2.4624746 0.44405589 0.8660611 -0.14334758 -2.6471126
2.5723681 0.18791912

encoder.norm2.weight f4 [10]
00000000: 4ea5 fcbc 665e a83f b9ae 3b3f a515 87bd
00000010: 0924 2c3e 8fb1 2d3f 8ebd 883d 5c87 41bf
00000020: 1db2 f9be e193 8f3e
-0.030840542 1.3153808 0.7331348 -0.06595925 0.16810621 0.6784906 0.0667678 -0.75597167
-0.48768702 0.2804251

encoder.norm2.bias f4 [10]
00000000: 7e9f c6bf 24a1 7fc0 e0d9 62bf d974 84be
00000010: 5088 00bf c318 cabf 56e6 36be 347a dcbf
00000020: dc54 51bf 0868 563e
-1.5517423 -3.9942102 -0.886137 -0.25870398 -0.50207996 -1.5788807 -0.17861304 -1.7224793
-0.8177011 0.20938122

l2.weight f4 [64, 3200]
00000000: e107 833f 2fe4 8d3e 692e 40be b9dc d53f
00000010: d760 a4be cf33 053e 6a8f ed3e 5c2e 1f3f
00000020: 31f3 d73e 1e30 263d 687b 643f 2480 4a3f
00000030: 316f 16bf a969 c13f dfa7 103f 9dec ad3e
00000040: a632 9f3d 7df7 d13e 795f bb3d b396 b6be
00000050: da98 833f 81b5 583f 4186 55bf d326 e13f
00000060: e855 48bf f0df 033d 39e4 153f 77f5 123f
00000070: 59e6 2f3f 585b a8be 752a 043f 300b b83e
00000080: 340c 27be b5f3 d93f 8269 16bf 6790 2b3e
00000090: 58af 063f 3da8 ab3f 5347 7f3e b9bb 703d
000000a0: 8eec 193f 05ec 723f ee2d fcbc 1bc9 e23f
000000b0: d0fb cbbe 1fdb f3bb 24fb 073f 103a 9d3f
000000c0: f628 563f e8b5 a4bd bfb5 773f b129 2d3f
000000d0: 98e1 a3be d382 be3f 370d aebe cc5e 973e
000000e0: d617 fd3e 50d3 b63e 5f52 b73d 68cf d9bd
000000f0: bc82 813f 4040 d4be e6bd 99be 26fe f33f
00000100: 7ee7 be3a 201b 7c3d acb7 193f b71a 873f
00000110: 65dd c83e e94e 9f3e fb48 433f 3ad2 aa3d
00000120: 0410 27bf 2734 e83f a721 83bf 14a3 e3bd
00000130: bd19 013f 4eeb c53e e8ea bd3e a610 2abd
00000140: 2e01 a73f c146 773f 3d9a 21bf 3d46 0740
00000150: 4ab3 8f3f 97c4 b1bd 0599 f93e 89c1 013e
00000160: bffe f93d ed13 bebd 5e13 703f 9108 573e
00000170: 338e 0fbf d880 fb3f 55fe 2ebd b08f 673e
00000180: 1715 df3e c044 c2bd a8ea 463e 367e 9a3c
00000190: 9346 3d3f 8593 263f d4f2 53be 4f45 f63f
000001a0: d012 e83e d860 0a3f bf7c c03e f62a 8b3f
000001b0: 1e91 843f 08b6 b3be a5fb 223f cd69 eb3d
000001c0: d50b 71be dc87 1540 6020 293f 28ac e63e
000001d0: f44d d63e 873e ee3e 12fc c53e 19ca e23e
000001e0: f996 6a3f 2dd3 b13a befe 4fbe 9117 ef3f
000001f0: 6c14 10bf 4b39 853e 9e33 dd3e ef03 173f
00000200: eb0c 533f ecb2 01be ef43 333f 6963 dabe
00000210: 4b36 efbe cf15 1940 e5fe ff3e e2fa 073f
00000220: 3f0f d73d 5efe 883f adaa 1ebe 0102 ca3e
00000230: 42ef 2f3f 462f 033f b7c4 adbe ce0f d93f
00000240: deb5 2e3f a497 513f 35fb 1a3f b879 ae3e
00000250: 3ca7 d93e 4f97 d6be 4497 463f 1ccb 363f
00000260: 6d35 b9be cb6d ee3f bb0b 0abf 9cfb 2c3f
00000270: 57e9 9e3e 7ee8 9b3c 31e5 463f 3116 1ebe
00000280: a7f5 4b3f 9817 dd3f ae7d ffbe 7c38 b83f
00000290: d24c 97be 71af 86bd 7d43 363d 426d ca3d
000002a0: d68c 573f 6f29 26be d4c5 2e3f c739 273f
000002b0: 92c6 c2be a311 b93f 62b7 8bbe 314c 363e
000002c0: f27a 08be 01fa 0a3f be07 423b 998c 36bf
000002d0: fc75 1c3f 1e96 003f 1f1d 8cbf dae5 d23f
000002e0: 68e4 cc3e 7b43 0c3f bbee 30be 5081 bc3f
000002f0: a66d 293e effd c0bd c378 503f ed86 cc3e
00000300: 0261 56be 684d a13f 1a95 233f 3819 ec3d
00000310: f5ab 873e 0938 103f 9924 343f d937 1c3e
00000320: 541c 423f 1b36 2b3f cb8d e3be a701 1740
00000330: be50 1b3e 6cfa 0b3e cab0 073e 2510 7c3f
00000340: ccf4 de3e d3bc ac3d 7014 2e3f 2cbb 083f
00000350: 741d bebe f217 fd3f 8c92 783f c010 293e
00000360: e655 03be 480b 0e3f 4067 f73d ad48 b3be
00000370: f189 273f 8137 723f 3e42 e8be 55cf ed3f
00000380: aa4d c53d b428 123f 839e c43e e8df c93e
00000390: b496 0a3f 156c e1be 3448 8a3f cda0 2f3e
000003a0: 5e64 22be 47e0 293f c0c1 86bf d07e 54bd
000003b0: 529e 513f 9606 4f3f c4e8 09bd 6470 e43c
000003c0: 95b3 713f 9a35 3abf 8ada efbe 1547 033e
000003d0: 9cc4 b9bf d0c6 ecbe 2344 c23e afcf 4fbe
000003e0: 1e85 9ebe 582d 36be dcf4 603f 1d92 743f
000003f0: 874c b9be f6dd 0740 aedf a1bf 04cb af3e
1.023678 0.27713153 -0.18767704 1.6707984 -0.32105133 0.13008045 0.4639848 0.62180114
0.42177728 0.040573232 0.89250803 0.7910178 -0.58763415 1.511037 0.5650615 0.33969584
0.07773332 0.4100913 0.09149069 -0.3566185 1.0281022 0.84651953 -0.8340798 1.7589973
-0.7825608 0.032195985 0.58551365 0.574058 0.6871086 -0.3288219 0.51627284 0.35946035
-0.16313249 1.7027498 -0.5875474 0.16754304 0.52611303 1.3410717 0.24929552 0.058772776
0.6012658 0.9489139 -0.03078362 1.7717623 -0.39840555 -0.0074418928 0.53117585 1.2283344
0.8365625 -0.08042508 0.967617 0.6764174 -0.32008052 1.4883674 -0.33994457 0.29564512
0.49432248 0.35708094 0.08951258 -0.10635263 1.0118022 -0.4145527 -0.30027694 1.9061935
0.001456484 0.061549306 0.60045886 1.0555028 0.3923141 0.3111489 0.76283234 0.08340879
-0.6525881 1.8140916 -1.0244645 -0.11115089 0.504299 0.38656086 0.37093282 -0.041519783
1.3047235 0.96592337 -0.63125974 2.113662 1.122659 -0.08680075 0.48749557 0.12671484
0.12206792 -0.09281144 0.9377955 0.20999362 -0.56076354 1.9648695 -0.04272302 0.22613406
0.43570778 -0.09485769 0.19425452 0.01885901 0.7393581 0.65068847 -0.206981 1.9239901
0.45326853 0.5405402 0.37595174 1.0872486 1.0356786 -0.35099816 0.6366523 0.11494789
-0.2353967 2.3364172 0.66065025 0.4505322 0.4185635 0.4653208 0.38668877 0.44294813
0.91636616 0.0013566964 -0.2031202 1.8679067 -0.5628116 0.26020274 0.43203443 0.5899038
0.82441586 -0.1266591 0.70025533 -0.4265397 -0.4672111 2.391956 0.49999157 0.5311719
0.10500955 1.0702627 -0.15494795 0.39454654 0.68724453 0.5124401 -0.33939144 1.6957948
0.6824626 0.8187201 0.6053956 0.3407724 0.42510402 -0.41912314 0.77574563 0.7140367
-0.36173573 1.8627256 -0.5392415 0.67571425 0.310374 0.01903176 0.7769347 -0.15438153
0.7967171 1.7272825 -0.49900573 1.4392238 -0.29550797 -0.065764315 0.044497956 0.098841205
0.84199274 -0.16226743 0.6827061 0.65322536 -0.38042122 1.4458507 -0.27288347 0.17802502
-0.1332815 0.54287726 0.0029606665 -0.71308285 0.6111753 0.5022906 -1.0946387 1.6476395
0.4001801 0.5479047 -0.17278568 1.4726963 0.16545734 -0.09423434 0.8143427 0.3994669
-0.20935443 1.2601748 0.63899386 0.115282476 0.2649838 0.563355 0.70368344 0.15255679
0.75824475 0.66879433 -0.44444117 2.3594759 0.1516752 0.13669747 0.13251033 0.98462135
0.4354614 0.08434453 0.67999935 0.534106 -0.37131846 1.9772933 0.9709861 0.16510296
-0.12825736 0.55485964 0.1208024 -0.35016385 0.65444857 0.9461594 -0.4536304 1.8578898
0.09633954 0.5709336 0.38402185 0.3942864 0.54136205 -0.44027773 1.0803285 0.17151184
-0.158586 0.66357845 -1.0527878 -0.05187875 0.818822 0.80869424 -0.03366925 0.027885623
0.94414645 -0.7273804 -0.4684642 0.12820084 -1.4513125 -0.46245432 0.3794261 -0.20294069
-0.30960935 -0.17790735 0.87873626 0.9553545 -0.36191198 2.1229224 -1.2646387 0.34334576

l2.bias f4 [64]
00000000: 905b c6bf 547b 17bf 96e2 69be 8245 26bf
00000010: 1639 a0bf dfa0 85bf 36c5 7cc0 e156 12bf
00000020: 9399 9ebf 4b08 cabf 793d 00c0 ae3c 91bf
00000030: c223 f9be 32ff 11c0 26f0 9abf b054 22bf
00000040: 5185 4dbf a5fc 42bf dd1f b4be e94d 5dbf
00000050: 7355 bfbf 1a62 ccbf 12c7 8bbf 5c60 11bf
00000060: 342e 2ebf 7efc 3ebe 69d6 4f3c 1847 1fbf
00000070: 8db8 87bf 64ce a6bf 1f55 c3bf 5174 62bf
00000080: a30d afbf c267 4dbf 0da6 2cbf 0dbb 21bf
00000090: c62c 77bf fe3e 0ebf 9b3a 0dbf 9786 65bf
000000a0: 6ca5 21bf 8fae 06c0 83c3 8dbf 1785 babf
000000b0: fd36 4abe 4a67 dd3c 81af 04c0 2b07 b7be
000000c0: eb80 11bf 3299 5cbf d826 67be d7b8 9dbf
000000d0: 02cd 72bf 6a14 c7bf a154 c4bf 01ae 33bf
000000e0: 46d4 8abf 9db3 cabf 7bf3 54bf c501 20bf
000000f0: 7b99 7abd c55a 42bf 1091 d0bf c334 75bf
-1.5496693 -0.5917256 -0.22840342 -0.6494981 -1.2517421 -1.0439719 -3.9495368 -0.57163817
-1.2390617 -1.5783781 -2.003752 -1.1346643 -0.48660094 -2.281201 -1.2104537 -0.6341047
-0.8028155 -0.76166755 -0.3518056 -0.86447006 -1.4947952 -1.5967438 -1.0920126 -0.5678766
-0.6803925 -0.18651006 0.012685397 -0.62217855 -1.0603195 -1.3031735 -1.5260352 -0.88458735
-1.3676037 -0.80236447 -0.67440873 -0.6317604 -0.96552694 -0.5556487 -0.5516755 -0.8965849
-0.6314304 -2.1044042 -1.107529 -1.4571866 -0.19747539 0.027026791 -2.073212 -0.35747656
-0.5683734 -0.8617126 -0.22573411 -1.2322034 -0.9484407 -1.5553105 -1.5338327 -0.70187384
-1.0846031 -1.5836064 -0.8318402 -0.625027 -0.061181527 -0.75919753 -1.629427 -0.95783633

l3.weight f4 [64, 66]
00000000: 0810 18bf d6e7 ed3d 3eb7 373f 4f82 53bf
00000010: c457 2bbf 5dc3 f0be be75 abbe 7430 3b3d
00000020: 9ab8 403d b15a 713f 51da f43d eb3b 103e
00000030: c881 5f3e 4259 f33d f925 22bf 8c9a a43f
00000040: c351 4b3f 265d 273f bb1b fa3e 9dcc aebe
00000050: e322 51be a7d4 0abe fb45 973e 395e ce3d
00000060: a56e 333f 8a00 f33d 345a 113f 9b4e f6be
00000070: dc8e 333e 0b5a 48bf 599c 90be d06a bcbf
00000080: 4244 13bd 5e2f 65bf 75f7 313d 174b 203f
00000090: f09d f7be 3cbe d6be 2f44 9e3d 4181 f53d
000000a0: bce0 f7be 17fe 2ebe d60d cdbe ebb3 bc3e
000000b0: b777 63bf 6da5 18be d655 693d 3714 e83e
000000c0: 2656 263f 7458 943e abf6 11bf f7bd ae3e
000000d0: 0044 a0be d9c1 253e 972d 4fbc 9df7 e03e
000000e0: a7da b3bc 6693 ca3d 3b0b 7c3f f28d 063f
000000f0: 269e 1bbf 4322 0c3f 3aab 7d3f 127b 8e3e
00000100: af79 8e3e 6c10 d4bd 9357 a13f 48c7 e23e
00000110: a4c3 36be 2669 5bbf 1cfd 2d3f f8c0 cb3e
00000120: 8788 bc3e a1f4 fabd 4703 2fbe 2895 3abe
00000130: 7249 313f 1900 263f 1648 3e3f 8fb9 7b3e
00000140: e2b3 0b3f 5b93 ae3f bcea a23f f4ae 81be
00000150: 6c6e 22bf ca4e 76bd facd a83f 4022 143f
00000160: 64f1 e33e 6ec5 6c3d 2859 d5bd e574 9abf
00000170: ccdb bdbf 99a4 803f 9a95 833e b202 aa3f
00000180: ebc0 9fbd bf7f b33e f0d3 4f3f 1ed9 253d
00000190: 55db 58be 93ae 05bf 0ccb 5d3f 4142 d73e
000001a0: bbc3 803f cbe7 88bf cbd5 b9bf 26a0 123f
000001b0: ab67 d9be a450 00be 109e 0a3e 7401 553e
000001c0: c50f 063e bd49 953e b56b 55bf f745 c43e
000001d0: 38d3 633d 2fe0 6a3f 00b2 06bf bf20 a03f
000001e0: e023 d63e e132 b83f cd90 133f 1dbd ac3d
000001f0: 1427 2c3f 8645 94bc 173e 09bd 3938 f7bd
00000200: a42b 8bbe aed5 c43e 4545 3840 3ba2 c4be
00000210: d83e a7bf 77cb 40be b3b6 a73e 8323 d33e
00000220: ded3 a7be 1065 2d3f bab5 30be db18 603e
00000230: 15c2 50bf 4c6e 813f b4e1 203d 514e b1be
00000240: 52d5 65be 964b 01be 9418 cebe cb0b 22be
00000250: ae5a 8dbf f68c 353f 55eb 84be e3bc 2c3f
00000260: 1969 d1bd 5cf5 833e 7990 f5be 0a0e 7dbe
00000270: 850b 9ebe defd adbe b09a eabe 85d1 62bf
00000280: 32e9 00bf 1179 dbbf 4a81 bdbe b547 8cbf
00000290: 6538 88bf b876 143e cfdf 82be 63c3 9c3f
000002a0: 70d3 79be 880f 443f 440c 87be 8bfb e53f
000002b0: 2c3d 22bf 53ef 3dbe f46a 1dbe 660e f83e
000002c0: a3b9 f63e 9a72 edbe 4034 26be e920 cdbd
000002d0: bf75 b73e 28cb 14bf 86cb ad3e 8e8d 4dbe
000002e0: df73 80be cf68 46bf d735 bbbc d4e7 5fbe
000002f0: 7c91 d4be 7d22 1cbe 42bb 513f 5810 393d
00000300: 0f7c 98bf d576 fe3d 64c3 403f c9f3 c43d
00000310: 67fb eb3d bebd 79bc d5f6 f3be 2748 efbe
00000320: 27cd 5fbe a25b cb3e d1e3 e43e e828 1dbf
00000330: f881 323f 3fd9 94bf 7821 403f 32e0 0a3f
00000340: 0ea3 dcbe 0fb7 0bbf cd52 cebe 757a 323e
00000350: e236 f33e 0899 16bd 55eb 8bbf d7ad 093e
00000360: 99f5 05bc 2f79 a8bd 96d0 91be 87d5 f9bd
00000370: 2098 edbe 3918 5ebe 055d 8cbe 38d1 9dbd
00000380: a6b9 893c a63a 4bbe b859 08bf ba96 11bf
00000390: b5ce dfbd fef4 7cbd 6856 163e b21f 653e
000003a0: ad4c a1be bc09 453e 362f 083f 2f68 7dbe
000003b0: 52c7 65bf 6359 ea3e d5f4 533f f2d9 433f
000003c0: a6fd ae3e 2535 ab3e e5ee a23f bec9 30bf
000003d0: effe 933e 7161 bdbe 3c5a 253f 82e0 01bf
000003e0: e757 4bbf 4f08 1cbf 54a6 3d3f 3592 bc3c
000003f0: 6cbd d33e 45d2 a7bf e658 88bf 9e46 5c3d
-0.5939946 0.11616485 0.7176398 -0.8262071 -0.66930795 -0.4702405 -0.33488268 0.045700505
0.04705105 0.9427901 0.11955703 0.14085357 0.21826851 0.11882259 -0.6333919 1.2859664
0.79421633 0.6537651 0.48849282 -0.34140483 -0.20423464 -0.13557683 0.29545578 0.10076565
0.70090705 0.11865337 0.56778264 -0.48106846 0.17534965 -0.78262395 -0.28244284 -1.4720097
-0.035953768 -0.895254 0.043448884 0.6261458 -0.48362684 -0.41942012 0.07727849 0.11987544
-0.48413646 -0.17089115 -0.40049618 0.36856017 -0.88854545 -0.14906855 0.056966625 0.45327923
0.649752 0.28973734 -0.5701701 0.34129307 -0.3130188 0.16187228 -0.012645147 0.43938914
-0.021954847 0.09891395 0.98454636 0.5256034 -0.6078819 0.5473978 0.99089396 0.2782827
0.27827212 -0.10354695 1.260485 0.44292665 -0.17848068 -0.8570732 0.6796434 0.3979566
0.36822912 -0.122536905 -0.17091094 -0.18220961 0.69252694 0.648439 0.74328744 0.24582504
0.54571354 1.3638719 1.2727885 -0.2532879 -0.6344974 -0.060133733 1.3187859 0.5786476
0.44520104 0.05780547 -0.10417396 -1.2066923 -1.4832702 1.0050231 0.25700074 1.3282073
-0.07800468 0.350584 0.81182766 0.040490262 -0.21177419 -0.52219504 0.8663795 0.42042735
1.0059732 -1.0695738 -1.451837 0.5727562 -0.42461905 -0.12530762 0.13536859 0.20801336
0.13091953 0.2915782 -0.8336747 0.3833463 0.055621356 0.91748327 -0.52615356 1.2509993
0.41824245 1.4390527 0.57642823 0.08434508 0.6724713 -0.018099558 -0.03350648 -0.120712705
-0.27181733 0.38444275 2.8792279 -0.38405022 -1.3066053 -0.18827616 0.32756576 0.4123803
-0.3277883 0.67732334 -0.17256823 0.21884482 -0.81546146 1.0111785 0.039277747 -0.34630063
-0.22444656 -0.1262649 -0.40253127 -0.15824811 -1.1043298 0.70918214 -0.25960794 0.6747572
-0.10225124 0.25773132 -0.47961786 -0.24712387 -0.30868164 -0.33982748 -0.45821142 -0.8860095
-0.5035583 -1.7146322 -0.37012702 -1.0959383 -1.064221 0.14498413 -0.25561377 1.2247127
-0.24397063 0.765862 -0.26376545 1.796739 -0.6337459 -0.18548326 -0.1537283 0.48448485
0.48188505 -0.46376497 -0.1623087 -0.10016043 0.3583202 -0.5812249 0.3394434 -0.2007353
-0.25088403 -0.77503675 -0.022852821 -0.21865779 -0.41517246 -0.15247531 0.8192636 0.045181602
-1.191286 0.12425009 0.7529814 0.09616811 0.115225606 -0.015242992 -0.47649255 -0.46734735
-0.21855603 0.39718348 0.4470506 -0.61390543 0.69729567 -1.1628798 0.7505107 0.54248345
-0.4309315 -0.545762 -0.40297547 0.17429526 0.4750281 -0.036767036 -1.0931193 0.13445221
-0.008176231 -0.08226239 -0.2847945 -0.1219893 -0.46405125 -0.21688928 -0.27414718 -0.07705921
0.016812157 -0.19846591 -0.532619 -0.56870615 -0.10928098 -0.06175708 0.14681399 0.22375372
-0.3150381 0.19241995 0.5319704 -0.24746774 -0.89757264 0.45771322 0.8279546 0.76504433
0.34177893 0.33438984 1.2729155 -0.69057834 0.28905436 -0.36988404 0.6459081 -0.50733197
-0.79431003 -0.6095018 0.7408192 0.023018936 0.41355455 -1.3111044 -1.065213 0.053778283

l3.bias f4 [64]
00000000: 1308 f5be acae 6dbf 1fe3 cb3e dc32 d13d
00000010: fb0b cfbe 87ea 92bf 8e9d ff3d 11b7 e6be
00000020: 741b f7be dd78 4cbf 6d93 99bf a518 3cbf
00000030: 9c5e fa3c a10e bfbe ce02 dcbe 6a2b 93bf
00000040: b1db ecbe d40e 2b3f 49c8 37bf d2cd 20bf
00000050: 589c 983e b59f eabf df3d 4a3e e6ff 8ebf
00000060: 459f c9bf 31bc 56be 9318 7abd 0409 00bf
00000070: 3cf2 b6be 915f 12bf 9fb4 7e3e bc0b 983e
00000080: ed37 dc3d 233b 2b3c 3ee1 423e 6883 6dbf
00000090: 7228 15bf b605 25bf 53d0 15bf 7889 a03b
000000a0: 7e2c 91bf f046 8bbf 4541 a9be 617a 393e
000000b0: 6f78 1e3d 6d23 f9be 7cfd 403f fb49 fb3d
000000c0: 5cb1 8fbe bb70 103f 0a95 653d cb13 07bf
000000d0: 21fc 473e c4d1 3bbf 2909 babf 04ee a03d
000000e0: fcc2 79be 7ab0 eb3d 8911 b3be 8960 043f
000000f0: dcef a33d 8dd0 1b3f 8d26 1c3d 5e9a 40bf
-0.47857723 -0.92844653 0.39821717 0.10214779 -0.40438828 -1.1477822 0.12481223 -0.45061544
-0.48263133 -0.7987192 -1.1998116 -0.73475105 0.030562691 -0.37315848 -0.4297089 -1.1497624
-0.4626136 0.668195 -0.71789986 -0.62814057 0.2980678 -1.8329989 0.19750164 -1.1171844
-1.575173 -0.20970227 -0.061058592 -0.50013757 -0.35731685 -0.5717707 0.24873589 0.29696453
0.107528545 0.010451111 0.19031236 -0.92778635 -0.5826484 -0.6446184 -0.58521 0.0048992
-1.1341703 -1.0881023 -0.3305761 0.1811309 0.038689073 -0.4865984 0.75386786 0.1226997
-0.28065002 0.56422013 0.056050338 -0.52764577 0.19529773 -0.7336695 -1.4534045 0.07857898
-0.24390787 0.115082696 -0.34974316 0.517098 0.08004734 0.608651 0.038122702 -0.75235546

l4.weight f4 [2, 64]
00000000: 513a c03d 23db 673e 6bcb 463b ab44 cdbd
00000010: ffa5 373d f5e7 743e 61ba 45bd 170e 0e3e
00000020: 2bda 0b3e fe14 d3bb df9a ba3c 60a5 123e
00000030: 74bc 62be 1056 0a3d e653 cf3d 88a2 033e
00000040: d915 48be 853f 9d3b e1bc 293d 394b 42bc
00000050: 3289 09be e829 e6bd bbbd f2bd 3bcf 153e
00000060: 3061 e03d d3df b03c 58ce 1ebe aa49 083c
00000070: 3bb0 46be 2c65 05bd 4462 85bd 351a 363e
00000080: fb12 693e d251 873c 0d46 50be d5fa 1f3e
00000090: 7e70 d83d 60f2 b7bc d155 693c c50d 1ebe
000000a0: 5993 37bc 4a3a febe 35b4 143c e146 983d
000000b0: 20b8 4d3d 85fb eebd dc4b 003c bb42 9abc
000000c0: 4f2a 013e d55e 743c 3213 f2bb d023 8a3d
000000d0: 3a35 e8bd 7615 b8be aad8 0d3e 99ff 6fbc
000000e0: cb01 16be b01a f63b 690b 2dbd 4037 a13b
000000f0: a6af cd3d eba7 25be 4a76 b4bd e750 dc3d
00000100: c616 f9bc b840 4cbd 2356 193b ca09 d13c
00000110: d53b aabb 81ea 833e bcff bc3d 9f38 7dbd
00000120: c4bf 863d 81f9 c43c 4aaa b9bc 567f b53a
00000130: 8129 d1bd b474 adbc ea4c 2e3e 0363 003e
00000140: 749d fb3d fa6b 98bd b36c d0bd fec8 1a3e
00000150: cc60 743d f58b 243e 1eb8 e23c 313b dc3d
00000160: 8c54 e0bd 8b63 e33a 122e 023e a0cd b5bc
00000170: 5353 f13c a3f5 15bd 8f7c e73d 0afa cf3b
00000180: 41d2 703c 6f9c b63d 8286 543d 800d cb3d
00000190: 91e6 2abe c6e7 2a3c 03df b9bc d4f7 d93e
000001a0: dd1d a23b 2715 36be 6267 0bbe ee97 2c3d
000001b0: a0ab 693e 6293 d83c a164 263c 4070 21be
000001c0: 87e9 a8ba a264 9fba a0ee 29be c761 9f3d
000001d0: 9dbf 03be 3d8d 47be bb1c 5d3c 7406 07be
000001e0: b2c9 4ebd d0a2 853c 7e20 8ebd b375 833a
000001f0: 875e 353e b0c2 39bc 76fd 753d c9b8 6fbd
0.09386123 0.22642188 0.003033365 -0.10022863 0.04483604 0.2391661 -0.048273448 0.13872562
0.13657443 -0.0064417114 0.022778926 0.14320898 -0.22142202 0.03377348 0.10123424 0.1285497
-0.19539584 0.004798832 0.041439895 -0.011858755 -0.13431242 -0.11238462 -0.118525945 0.14629833
0.10956037 0.021591103 -0.15508401 0.008318344 -0.19403164 -0.03256719 -0.06512883 0.17783435
0.22761147 0.016518507 -0.20339222 0.15623029 0.10568331 -0.02245444 0.014241652 -0.1543494
-0.011204564 -0.49653846 0.009076168 0.07435394 0.050224423 -0.11669067 0.007830586 -0.018830648
0.12613796 0.014915188 -0.007387542 0.06745112 -0.11338277 -0.35953873 0.13852182 -0.014648342
-0.14649121 0.0075105056 -0.04224721 0.0049199164 0.10043268 -0.16177337 -0.08811624 0.107576184
-0.030406367 -0.049866408 0.0023397289 0.025517363 -0.005195121 0.2576485 0.09228465 -0.061821576
0.06579545 0.024044754 -0.022664208 0.0013847153 -0.10212994 -0.021173812 0.17021528 0.1253777
0.12285891 -0.0744247 -0.10176983 0.15115735 0.059662625 0.16069014 0.027675685 0.10753477
-0.10953626 0.0017348392 0.12712887 -0.022192776 0.029458677 -0.03661121 0.113030545 0.0063469457
0.014698566 0.08916556 0.05188609 0.09914684 -0.16689517 0.010431236 -0.022689348 0.4257189
0.0049474076 -0.17781506 -0.13613656 0.04213708 0.22819376 0.026437465 0.010155828 -0.15765476
-0.0012886979 -0.0012160728 -0.16594934 0.077823214 -0.12866063 -0.19487472 0.013495619 -0.13186055
-0.05048532 0.016312987 -0.06939791 0.0010029584 0.1771184 -0.011337921 0.060056172 -0.058525834

l4.bias f4 [2]
00000000: f255 773e 83da 063f
0.2415388 0.5267717
