Formal Experiments/SZ50/Transformer-DoubleDQN-QT-Final/ModelParam/2024-3-10/64target-network-TransformerNoguiadance.pth (torch, 851744 bytes, 18 tensors)

encoder.self_attn.in_proj_weight f4 [30, 10]
0	0x40709eaa	3.759684
1	0xbf81da9a	-1.0144837
2	0xbffc8653	-1.9728492
3	0x40da59b2	6.823449
4	0x405eeeff	3.4833372
5	0x3edbb738	0.42913222
6	0x3ee9d3d9	0.4566944
7	0xc19df3bc	-19.74401
8	0x3fc318f5	1.5241991
9	0x3f80bcdd	1.0057636
10	0x3d4c4074	0.049866155
11	0xbe6c09b0	-0.2305057
12	0xc014d6b1	-2.3256037
13	0x403c061b	2.9378726
14	0x3fd3383e	1.6501539
15	0xbdd773f4	-0.10520163
16	0xbf5fb11c	-0.8737962
17	0xc1f3848b	-30.439718
18	0xbfac0bc3	-1.3441089
19	0xbf65ef26	-0.89818037
20	0xbec099f4	-0.37617457
21	0xbe926e25	-0.2859966
22	0xbfff14f3	-1.9928268
23	0xbfa7e24b	-1.3115934
24	0xbf97a1a4	-1.1846204
25	0x3f84c07a	1.0371239
26	0x3f86c890	1.0529957
27	0x4199bc11	19.21683
28	0x3e0d9407	0.13825999
29	0xbd5b50a3	-0.053543698
30	0xc0762550	-3.8460274
31	0x3fffc5d5	1.9982249
32	0xbf765221	-0.9621907
33	0x3f838efc	1.027801
34	0x3f0427ae	0.51623046
35	0xc104afb4	-8.292896
36	0xc10c6b1a	-8.776148
37	0xbfdf9e1d	-1.7470127
38	0xc0903b55	-4.5072427
39	0xc04fa7ae	-3.2446094
40	0xc03495ff	-2.821655
41	0x3dda3eef	0.10656535
42	0x3e99c443	0.30032548
43	0xbf8e2afa	-1.1106865
44	0xbe41ecfe	-0.18938062
45	0x3f4cf522	0.80061543
46	0x3f0a2433	0.53961486
47	0xc1af6acb	-21.927145
48	0xbecb1346	-0.39663142
49	0xbfed957e	-1.8561246
50	0x40672071	3.611355
51	0x3f0f55eb	0.55990475
52	0x40416d5e	3.0223002
53	0x40813f99	4.0390134
54	0x406f6bcf	3.740955
55	0x4034f97a	2.8277268
56	0x4001558a	2.020846
57	0xc00368cb	-2.053271
58	0x3fcea28d	1.6143357
59	0x3f7e960c	0.99447703
60	0xbf320d35	-0.695514
61	0xbe913e23	-0.2836772
62	0x4020331f	2.5031202
63	0xc09a3589	-4.819035
64	0xc011c13a	-2.2774186
65	0x3f60ad24	0.8776419
66	0x3fe4d634	1.787787
67	0x41fcc88f	31.597929
68	0xbd210233	-0.039308738
69	0x3da10a15	0.07863251
70	0xbf6289c8	-0.8849149
71	0x3e772ddb	0.24138586
72	0x3f43ff88	0.76561785
73	0x3fd93c68	1.697156
74	0x3e98c1f0	0.29835463
75	0xbf99b6f2	-1.2008955
76	0xbfd8cb35	-1.6937014
77	0xc202d0d7	-32.703945
78	0xbe2551bb	-0.16144459
79	0x3e2dfb2e	0.16990349
80	0x40123fe9	2.2851508
81	0xbf97f477	-1.187148
82	0xc0105312	-2.2550702
83	0x40a38e4c	5.11112
84	0x409f4b44	4.9779377
85	0x3eeb57c6	0.45965403
86	0xbefa1653	-0.48845157
87	0xc1aa757f	-21.307371
88	0x3f2e57b5	0.6810258
89	0x3f3e4fa2	0.7434026
90	0xbea73274	-0.3265568
91	0x3ec6866d	0.38774434
92	0x3f0113e2	0.50420964
93	0x3f26165a	0.64877856
94	0x3ee49fb2	0.44653088
95	0xbfaf50ee	-1.3696573
96	0xc0060cb3	-2.094525
97	0xc13de88d	-11.869275
98	0xbe61e6f4	-0.22060758
99	0x3d973d1f	0.07384705
100	0xc04cf880	-3.2026672
101	0xc0f8b6f8	-7.772335
102	0xc0ddbf56	-6.9296064
103	0xc0d74dc5	-6.7282434
104	0xc0c167e8	-6.043934
105	0x403253d8	2.7863674
106	0x40218fe2	2.524407
107	0xc1ed8149	-29.688128
108	0xbe8d02f6	-0.27541322
109	0x40908cdc	4.5171947
110	0xc05c327f	-3.440582
111	0xc09a65e3	-4.8249373
112	0xc117b9d8	-9.482872
113	0xc0148b59	-2.321005
114	0xc0a003e3	-5.0004745
115	0x3ff927e8	1.9465303
116	0x4042d02e	3.0439563
117	0x3fc59b35	1.543799
118	0x3f5d1abf	0.86368936
119	0x3fdf0216	1.7422512
120	0x4102de80	8.179321
121	0x412459ba	10.271906
122	0x4141f0c3	12.12128
123	0x41402ca3	12.010898
124	0x413de58e	11.868544
125	0xc03200cd	-2.7812989
126	0xbffa4bff	-1.9554442
127	0x401c0fee	2.4384723
128	0x3dc8db1c	0.09807417
129	0xc098f9ee	-4.780509
130	0x404f0d2c	3.235179
131	0x40e29919	7.0811887
132	0x40980b03	4.751344
133	0x408993ac	4.2992764
134	0x4071e8ae	3.7798266
135	0xbf3f47e6	-0.74719083
136	0xbe1f96dc	-0.15584892
137	0x41f88fbc	31.070183
138	0xbf3cbfbe	-0.73730075
139	0xbe7093c8	-0.23493874
140	0xbf02a2e9	-0.5102983
141	0x4022d208	2.5440693
142	0xbf2e7d88	-0.68160295
143	0xbebed385	-0.37270752
144	0xbed05540	-0.4069004
145	0x3f55944f	0.83429426
146	0x40074cbf	2.1140592
147	0x400dfe85	2.2186596
148	0xbe5fe23a	-0.21863642
149	0xc04e7014	-3.2255907
150	0x40174b66	2.363977
151	0xbf085a9a	-0.53263247
152	0x404f0bf6	3.235105
153	0x40626a90	3.537754
154	0x40bba601	5.864014
155	0x3d9e6ac5	0.077352084
156	0x3f28483c	0.6573522
157	0xc1a1728c	-20.180931
158	0xbf2d0530	-0.6758604
159	0xc05d8751	-3.461384
160	0x40db0151	6.8439107
161	0x41032f1e	8.199003
162	0x411f0222	9.938021
163	0x40bd2bff	5.9116206
164	0x40eacc84	7.3374653
165	0xc07151db	-3.770621
166	0xc05973a4	-3.3976831
167	0x418db5b1	17.713717
168	0x3e4776ed	0.1947896
169	0xc0f7e62f	-7.7468486
170	0xc14bec99	-12.745263
171	0xc0fc39b8	-7.8820457
172	0xc11b4ba3	-9.705966
173	0xc0f218e4	-7.5655384
174	0xc111ef37	-9.120902
175	0x40b3e318	5.6214714
176	0x40b7402d	5.726584
177	0x3e5b8696	0.21438059
178	0x400ca85d	2.197776
179	0x40bbc318	5.867565
180	0xc0418251	-3.023579
181	0xc0f10bb8	-7.5326805
182	0xc0e43b33	-7.1322265
183	0xc0b67f2e	-5.703025
184	0xc0d1f984	-6.5617085
185	0x40430f86	3.0478225
186	0x40296555	2.6468098
187	0xc1d9e2e0	-27.235779
188	0xbed382a0	-0.41310596
189	0x40c4faea	6.155629
190	0xc13ba5bb	-11.727962
191	0xc0fd7809	-7.9209027
192	0xc13fdd3a	-11.99151
193	0xc0d13f1f	-6.538955
194	0xc10a9cf8	-8.663322
195	0x40071939	2.1109145
196	0x3fb5557e	1.4166715
197	0x4003fe82	2.062409
198	0xbd35dbb5	-0.044398982
199	0x40edce98	7.431469
200	0xbdb42f71	-0.08798111
201	0x4058864d	3.383197
202	0x40f5e56f	7.684257
203	0x409e83a3	4.953569
204	0x40856253	4.1682525
205	0xbfa65ab8	-1.2996435
206	0xbf5bba9e	-0.8583163
207	0xc1a2779e	-20.308407
208	0xbf22f52c	-0.6365535
209	0xbf1ccb83	-0.61248034
210	0xbfb5dbc5	-1.4207693
211	0xbfde8b08	-1.7386179
212	0xc0ef6ba7	-7.481891
213	0xbf1c1de8	-0.60983133
214	0xbe8cbdff	-0.27488706
215	0x406556a8	3.583414
216	0x402b053b	2.6721942
217	0x4198d725	19.105051
218	0xbe963b13	-0.29341945
219	0xbf404740	-0.7510872
220	0xbfaadfe5	-1.3349577
221	0x3ddf16f8	0.10893053
222	0xc0d9c5f9	-6.8054166
223	0xc00674c1	-2.100876
224	0xbfe6734d	-1.8003937
225	0x3f5d93c0	0.86553574
226	0x3f130202	0.5742494
227	0x41a79e1d	20.952204
228	0xbe0d6a71	-0.13810135
229	0xbf522bd7	-0.82098144
230	0x3f2bca7f	0.6710586
231	0x3fc379b9	1.5271522
232	0x41061f64	8.382664
233	0x3fad846f	1.355604
234	0x3e218f76	0.15777382
235	0xc024d03d	-2.5752099
236	0xbfc7df2a	-1.5614979
237	0xc183f766	-16.4958
238	0x3dc69b9e	0.096976504
239	0x3c41eeaa	0.011836687
240	0xbf4616b2	-0.7737838
241	0x3f94683a	1.1594307
242	0xc09b6006	-4.8554716
243	0x3fbf7865	1.4958616
244	0x3f0c4e3e	0.5480689
245	0x3e939144	0.28821766
246	0x3d8a1247	0.067417674
247	0x4098cb35	4.7748055
248	0xbf17eac1	-0.5934258
249	0xbff0d502	-1.8815005
250	0xbef94f1e	-0.48693174
251	0xc017d960	-2.3726425
252	0xc0db2b5f	-6.8490443
253	0xc04e0617	-3.2191217
254	0xbe23faf7	-0.16013704
255	0x4071bded	3.7772171

encoder.self_attn.in_proj_bias f4 [30]
0	0x4021a3af	2.5256155
1	0xbe59d408	-0.2127229
2	0xbf577781	-0.84166723
3	0xc05702d3	-3.3595474
4	0xbedad253	-0.4273859
5	0x3ea490d8	0.32141757
6	0xbfc49bcb	-1.5360044
7	0x3f69dd88	0.91353655
8	0x40072c97	2.1120965
9	0x3f7d9067	0.99048465
10	0x3dadd4c3	0.08487847
11	0x3e8abb9e	0.27096266
12	0xbd41cd7f	-0.047315117
13	0xbf707ae3	-0.9393751
14	0xbd5b064e	-0.05347281
15	0xbe552e1a	-0.20818368
16	0xbfa944dc	-1.3224139
17	0x3e9b86ff	0.3037643
18	0x3fdb9ace	1.7156618
19	0x3e8a9968	0.27070165
20	0xbfdbccee	-1.7171915
21	0xbe134a71	-0.14383866
22	0x3da0e0be	0.07855366
23	0xbf07f250	-0.53104115
24	0xbfff8398	-1.9962034
25	0x3f8f6308	1.1202097
26	0xbf03a10c	-0.51417613
27	0xbe8ad8cd	-0.2711853
28	0x3f9f610f	1.2451495
29	0x3e0eec7c	0.13957399

encoder.self_attn.out_proj.weight f4 [10, 10]
0	0x3fe99418	1.824832
1	0xbfa48efa	-1.2856133
2	0xbfdaa16c	-1.7080512
3	0x3fecd2cd	1.8501831
4	0x3ebbb88f	0.36664245
5	0xbfcb6a9d	-1.5891911
6	0xbb70f924	-0.0036769593
7	0x40435511	3.052067
8	0x3f6966b1	0.9117232
9	0xc0051ba2	-2.0798116
10	0xc0082a54	-2.1275835
11	0x3f3ff8fa	0.74989283
12	0x3fb5f893	1.4216484
13	0xbfcddfeb	-1.6083959
14	0xbf2336b2	-0.63755333
15	0x3fc3f3f5	1.5308825
16	0xbff7a886	-1.9348304
17	0xbf979916	-1.1843593
18	0x400fa09c	2.2441778
19	0x3f4ede1f	0.8080768
20	0xbfc68f8b	-1.5512556
21	0x3fa9b9fe	1.3259885
22	0x3f800297	1.000079
23	0xbe44e163	-0.19226603
24	0x400bdf2e	2.1854968
25	0xbed4637e	-0.41482157
26	0x3f10b82e	0.56531036
27	0xbfb92b5e	-1.446636
28	0xc004f186	-2.0772414
29	0x3f83e3aa	1.0303853
30	0xbf31a445	-0.6939128
31	0x3ea2e386	0.31814212
32	0xbfa8833c	-1.316505
33	0xbd151abb	-0.036402445
34	0xbf0c0b99	-0.54705197
35	0x3f428d11	0.759965
36	0xbfdd47b2	-1.7287505
37	0xbc30916c	-0.010776859
38	0x3ff5e908	1.921174
39	0xbeebd5db	-0.46061596
40	0x3f310864	0.6915343
41	0xbf22db24	-0.6361563
42	0xbfce1c98	-1.6102476
43	0x3f89de02	1.0770876
44	0x3ec6830b	0.38771853
45	0xbfe0ffdb	-1.7578081
46	0xbeb2f178	-0.3494985
47	0x3ff58ee4	1.9184232
48	0xbf35ab6f	-0.7096471
49	0xbfbf6619	-1.4953033
50	0xbfec1861	-1.844494
51	0x3f09884f	0.53723615
52	0xbe91d5e4	-0.28483498
53	0xc06669ca	-3.6002069
54	0xbf2f1508	-0.68391466
55	0x4007fdba	2.1248612
56	0xbf2ee2a6	-0.6831459
57	0xc0cf450b	-6.477178
58	0x3f4cfba4	0.80071473
59	0x400d23eb	2.2053173
60	0xc103ec33	-8.245166
61	0x3ffee60b	1.9913954
62	0x3f85d389	1.045518
63	0xc00c832d	-2.1955063
64	0xbfc2a5f2	-1.5206892
65	0x40022755	2.0336506
66	0xbfd55b90	-1.6668568
67	0xc0215cb0	-2.5212822
68	0x3f8aed47	1.0853661
69	0x3ffdc222	1.982487
70	0xc08dfd00	-4.437134
71	0x406a32ba	3.659346
72	0x4028fbf7	2.6403787
73	0xc02ae477	-2.6701944
74	0xbf05a806	-0.5220951
75	0x4033b416	2.8078666
76	0xc065d05f	-3.590843
77	0xc085da80	-4.1829224
78	0x403270f8	2.788145
79	0x404b8f84	3.1806345
80	0x3f86c8b1	1.0529996
81	0xbf156e05	-0.58371
82	0xbfd711cd	-1.6802307
83	0x3f850207	1.0391244
84	0xc01f23d0	-2.4865608
85	0x3f195c93	0.5990688
86	0xbfa7aca7	-1.3099564
87	0x3f55f5ac	0.8357799
88	0x402ee787	2.7328813
89	0xbfc3204b	-1.524423
90	0x3f56efc0	0.8395958
91	0x3eb42f59	0.35192373
92	0xbf1b6144	-0.6069529
93	0x3e9bbb5f	0.3041639
94	0xc04d9ec6	-3.2128158
95	0x3f69cdcd	0.9132965
96	0xbfd6c201	-1.6777955
97	0x3f974fe9	1.1821262
98	0x405f5f7a	3.4902024
99	0xbe4681ea	-0.19385496

encoder.self_attn.out_proj.bias f4 [10]
0	0xbfc2151a	-1.516269
1	0x3fca7c61	1.5819207
2	0xbfb57b34	-1.4178224
3	0x3ec1872e	0.37798446
4	0xc0039c01	-2.0563967
5	0x3fd2f3c1	1.6480638
6	0x3ff814f4	1.9381394
7	0x3efb5503	0.49088296
8	0x406e4f3b	3.7235858
9	0x3f7459dd	0.9544962

encoder.linear1.weight f4 [64, 10]
0	0xbf053c51	-0.5204516
1	0x403ac966	2.9185424
2	0x3f929573	1.1451858
3	0x3f86fe74	1.0546403
4	0x3f3889a3	0.72085017
5	0xbe56c694	-0.20974189
6	0x3ecd7563	0.4012862
7	0x3f8a0b3b	1.0784677
8	0xbec6ef04	-0.3885423
9	0xbec2e2d3	-0.38063678
10	0x40a13c33	5.0385985
11	0xc0873b0f	-4.2259593
12	0xc0855f4e	-4.167884
13	0xc05fbc59	-3.4958708
14	0x3f733413	0.95001334
15	0xc08f5e35	-4.48025
16	0xc0207ae5	-2.507501
17	0x404cd6c1	3.2006075
18	0x402d6af8	2.7096539
19	0x3fd7f049	1.6870204
20	0x404ece6e	3.2313495
21	0xc015a350	-2.3380928
22	0xc03a4357	-2.91036
23	0xbfe71f8b	-1.8056501
24	0x3fcad47b	1.5846094
25	0xc03c1bc9	-2.9391959
26	0xc009ea7a	-2.1549363
27	0x3fe0d2a8	1.7564287
28	0x40978b9a	4.735791
29	0x3dbb8b7a	0.091574624
30	0x409d6b17	4.9193225
31	0xc0585756	-3.3803306
32	0xc0148d2e	-2.321117
33	0xc01c7fe7	-2.4453065
34	0x3f781d96	0.96920145
35	0xc0596a5c	-3.3971167
36	0xc0436e38	-3.0536022
37	0x3fb0b792	1.3806021
38	0x40878a7a	4.235654
39	0x3fa46d51	1.2845861
40	0x405e952f	3.4778554
41	0xc0952fef	-4.6621013
42	0xc1072617	-8.446799
43	0xc0f35144	-7.60367
44	0xbff4a445	-1.9112631
45	0x3ffdf72b	1.9841055
46	0xc05b1f96	-3.4238029
47	0xc1129269	-9.160745
48	0x40ab1125	5.345843
49	0x3f4c2074	0.7973702
50	0x3ffbe54a	1.9679348
51	0xbfd3ea12	-1.6555808
52	0xbfd3494e	-1.6506746
53	0xbfb34b09	-1.4007274
54	0x3fd59dc8	1.6688776
55	0xc031e29f	-2.7794569
56	0xbf8735d0	-1.0563297
57	0x3faae9d7	1.3352612
58	0x40a0a3c0	5.019989
59	0xbe570d71	-0.21001221
60	0x4083fbe6	4.1244993
61	0xbfe4e55f	-1.7882499
62	0xbe85ed9a	-0.26157838
63	0xc052311b	-3.2842472
64	0x4060e4ad	3.5139573
65	0xc0187cc3	-2.3826149
66	0xc0a4cf3d	-5.1502976
67	0xc0672a0f	-3.611942
68	0xbed2ed9e	-0.41196913
69	0xc03190d1	-2.774464
70	0xbe94d2ea	-0.29067165
71	0x3fd3df52	1.6552527
72	0x3ecf5d19	0.40500715
73	0x3f80df9b	1.0068239
74	0x3e4378b7	0.19089018
75	0xbed8735c	-0.42275512
76	0x3e4230b5	0.18963893
77	0x3f48259a	0.78182375
78	0xbf0cf7c6	-0.5506557
79	0xbf61d789	-0.88219506
80	0xbeca119c	-0.3946656
81	0x400098af	2.009319
82	0x3ef217aa	0.4728368
83	0x3fbb023c	1.4610057
84	0xbc9d7ecf	-0.019225506
85	0x3d1c4d9e	0.03815996
86	0x3ef75374	0.48305857
87	0x3fbaa2eb	1.4580969
88	0xbf7e1f03	-0.9926607
89	0xbee2524f	-0.4420342
90	0x3f8ffcb3	1.1248993
91	0xbdd5e65c	-0.10444328
92	0x404ab2fe	3.1671748
93	0x3f47e52d	0.7808407
94	0x3f20a48b	0.6275107
95	0xbf27b15f	-0.6550502
96	0x3fb60fab	1.4223531
97	0x3e4aecbe	0.19816872
98	0xc07efb21	-3.9840777
99	0xc003aac6	-2.0572982
100	0x3fbfbe09	1.4979869
101	0xbc00b978	-0.007856719
102	0x3f641603	0.8909609
103	0x4057d2e8	3.3722477
104	0xbf418e58	-0.75607824
105	0x3fb35b33	1.4012207
106	0xbce6c4bb	-0.02816998
107	0x3f022355	0.5083516
108	0xbfaa04ed	-1.3282753
109	0xbf34e1dd	-0.7065714
110	0x40c47917	6.1397815
111	0xc01a00b0	-2.406292
112	0xc06350b9	-3.551802
113	0xc00d9ee5	-2.2128232
114	0x3fe07476	1.7535541
115	0xbfc17c29	-1.5116016
116	0xc035c876	-2.8403602
117	0xbb9ab9d4	-0.0047218595
118	0x401adda2	2.4197774
119	0x3f787fb1	0.9706984
120	0xc03a715c	-2.913169
121	0xc02e96a0	-2.7279434
122	0xc00f239c	-2.2365484
123	0xc05a77ff	-3.413574
124	0xc08ead09	-4.4586225
125	0x40bbea06	5.8723173
126	0x4051f4a1	3.280556
127	0xc073707a	-3.80374
128	0x402bd7d0	2.6850471
129	0x407a8a1b	3.9146793
130	0xbe30e757	-0.17275749
131	0x3f2ff31e	0.6873034
132	0x3dc80157	0.097658806
133	0x3dd1ef5d	0.10250733
134	0x3e289772	0.16464022
135	0xbea38c72	-0.3194309
136	0xbded0b57	-0.115744285
137	0x3ef783f9	0.48342875
138	0xbee1884a	-0.44049293
139	0xbe41fba1	-0.18943645
140	0xbf4c2e94	-0.7975857
141	0x40012f2b	2.018504
142	0x3f9053e9	1.1275607
143	0x4027298f	2.6119115
144	0x3f2705ef	0.6524343
145	0xbfbcfe96	-1.4765193
146	0x3f6282ee	0.8848103
147	0x3ebe8157	0.37208053
148	0xbeff1565	-0.4982101
149	0xbf37c8bc	-0.7179067
150	0x402c31a7	2.6905305
151	0xc023c3c8	-2.5588245
152	0x3e91fca0	0.2851305
153	0xc0483b72	-3.1286283
154	0x40298adb	2.6491
155	0xbfe79080	-1.8090973
156	0xc01e3e94	-2.4725695
157	0xc091365e	-4.5378866
158	0xbf7a38c5	-0.97742873
159	0xc0418bd0	-3.0241585
160	0x40c33785	6.1005273
161	0xc0931c96	-4.5972395
162	0xc0c0e2fa	-6.027707
163	0xc09ca540	-4.895172
164	0x4027f700	2.6244507
165	0x400d725a	2.2101045
166	0xc00d7138	-2.2100353
167	0xc0bcef90	-5.9042435
168	0x40bb2994	5.8488255
169	0xbf2f7b04	-0.6854708
170	0x406b597e	3.6773372
171	0xc07abd2d	-3.9177964
172	0xc0b076af	-5.5144877
173	0xc0ac1923	-5.3780684
174	0xbf471506	-0.77766454
175	0xbe67f246	-0.22651014
176	0xc090eaf9	-4.528683
177	0xc0c1c9f2	-6.0559015
178	0x407a2d93	3.9090316
179	0x3f0d8ed5	0.5529607
180	0x4091d3b0	4.5570908
181	0xbfd7f4d1	-1.6871587
182	0xc08c4648	-4.3835793
183	0xc038f788	-2.890108
184	0x40445cf0	3.0681725
185	0xc0962c42	-4.6929026
186	0xbfd378fa	-1.6521294
187	0x400a4d5a	2.1609712
188	0x401f4341	2.4884799
189	0x3fa1194f	1.2585849
190	0x40129469	2.2903082
191	0xc05ad3ee	-3.4191852
192	0xc027794b	-2.6167781
193	0xc0b039f6	-5.5070753
194	0x404ceb7b	3.2018726
195	0xc094cba0	-4.6498566
196	0xc0873cdf	-4.2261806
197	0xc0b20ee6	-5.5643187
198	0x403c8b12	2.9459882
199	0x4018d60a	2.388064
200	0x402c4122	2.6914754
201	0xc094a26c	-4.644827
202	0xc0b58401	-5.6723638
203	0xc0666ed0	-3.6005135
204	0x3fb96701	1.4484559
205	0xc038f85b	-2.8901584
206	0xbffc3311	-1.9703084
207	0xc0a1df22	-5.058488
208	0x40951b83	4.6596084
209	0xbfc66bac	-1.5501609
210	0x40b92df8	5.7868614
211	0xc0a5f411	-5.1860433
212	0xc0b16b24	-5.5443287
213	0xc0aa6d1d	-5.3258195
214	0x409df166	4.9357176
215	0xc101738c	-8.09071
216	0xbeddbcad	-0.4330801
217	0x40efd851	7.495156
218	0x40ad72ce	5.4202642
219	0x40bfef9d	5.9979997
220	0x408501ed	4.156485
221	0xc0570d5f	-3.360191
222	0xbf5502e2	-0.83207524
223	0xbfeea114	-1.8642907
224	0xbf12fd97	-0.574182
225	0xbf7bf12a	-0.9841486
226	0xc0da3643	-6.8191237
227	0x3e4cc826	0.19998226
228	0x40ca5702	6.323121
229	0x3f066810	0.52502537
230	0x3fb3321e	1.399967
231	0xc09cba3c	-4.8977337
232	0xc066585a	-3.5991426
233	0xc0ece198	-7.4025383
234	0x404770f2	3.1162686
235	0xc01ae490	-2.4202003
236	0xc01cd2d9	-2.4503691
237	0xc0f5ee29	-7.6853223
238	0x40551464	3.3293695
239	0xbe8bccbe	-0.27304643
240	0xbe85932c	-0.26088846
241	0x3f984249	1.1895229
242	0x3fe5dc9d	1.7957951
243	0x3f994147	1.1973046
244	0x3f014020	0.5048847
245	0xbf040d2f	-0.51582617
246	0x3f3107f2	0.6915275
247	0x3e99260e	0.29911846
248	0xbfae75fd	-1.3629757
249	0xbf400666	-0.75009763
250	0x407a8b4a	3.9147515
251	0xc038d503	-2.8880012
252	0x405858ce	3.3804202
253	0xc03614dd	-2.8450234
254	0x40a7c3e5	5.242663
255	0xc08fbd65	-4.4918694

encoder.linear1.bias f4 [64]
0	0xc0089665	-2.1341794
1	0x4033959c	2.8060064
2	0x401c9580	2.4466248
3	0x405b3e1c	3.4256659
4	0x405e7908	3.4761372
5	0x3f6aa0e3	0.91651744
6	0x402bb293	2.6827743
7	0xc00f90a9	-2.2432044
8	0xc00eb0fb	-2.229552
9	0x3eddc4b8	0.43314147
10	0xbfad5e09	-1.3544322
11	0x40208e14	2.5086718
12	0x405ac1c9	3.4180777
13	0xbfc4974a	-1.535867
14	0xbf1eea86	-0.62076604
15	0x40622637	3.5335824
16	0x4090a38d	4.5199647
17	0x404e233f	3.2209013
18	0x3fe54e4d	1.791452
19	0x40b55d28	5.6676216
20	0x40a5f40f	5.1860423
21	0x40bf914d	5.986487
22	0x4066de65	3.607324
23	0x40d11326	6.5335875
24	0xbfb70ce0	-1.4300804
25	0x4020b31a	2.5109315
26	0x409ce7f6	4.9033155
27	0x3ef44a51	0.4771295
28	0x40439eae	3.05656
29	0x409a458f	4.820991
30	0x40b14e8c	5.5408382
31	0xbfb899b3	-1.4421905
32	0xbe274e32	-0.16338423
33	0xbf7ab5b8	-0.9793353
34	0x3f4dd48f	0.80402464
35	0x4080a553	4.020181
36	0x400072bc	2.0070028
37	0xbffb49ce	-1.9631898
38	0xc00462b8	-2.0685253
39	0x405dcde7	3.4656923
40	0x4057f157	3.3741052
41	0x4054a89a	3.3227906
42	0x4066e1e5	3.6075375
43	0x40500e1e	3.2508616
44	0x40109c63	2.259545
45	0x40964708	4.696171
46	0x401e197c	2.4703054
47	0x401bccb5	2.4343693
48	0xc001e4f9	-2.0296004
49	0x40a1220b	5.0354056
50	0x404592d3	3.0870864
51	0x407ed003	3.981446
52	0xbfc210de	-1.5161397
53	0x403c75b8	2.944685
54	0xbfe85de2	-1.8153651
55	0x3fe28f12	1.7699912
56	0x404e80d6	3.2266135
57	0xc00228b5	-2.0337346
58	0x40f3499a	7.6027346
59	0xbfafbea8	-1.3730059
60	0x400b7cf7	2.1795022
61	0x40339195	2.8057606
62	0x409a60ad	4.8243012
63	0x405971cb	3.3975704

encoder.linear2.weight f4 [10, 64]
0	0xbffe7494	-1.9879327
1	0x4071b242	3.776505
2	0xc08d6ebf	-4.419769
3	0xc09737cf	-4.7255626
4	0xc0de6b94	-6.950632
5	0xc03f8a82	-2.9928288
6	0x3f85b914	1.0447106
7	0x3f145944	0.5794871
8	0xbc399a65	-0.011328314
9	0xc00b75ca	-2.1790643
10	0xc00ad3ce	-2.1691775
11	0xc04b1d21	-3.173653
12	0xc021ab1c	-2.5260687
13	0xbeb17743	-0.34661302
14	0xbf124bb4	-0.57146764
15	0x3ff1a1bf	1.8877486
16	0x40cda5f2	6.426507
17	0xc0ed4826	-7.415057
18	0x40172260	2.361473
19	0x4098f4df	4.7798915
20	0x3f99530f	1.1978472
21	0xbfbdf476	-1.4840229
22	0xc0e65026	-7.1972837
23	0x40077461	2.1164782
24	0x3f58f596	0.84749734
25	0xc092f506	-4.59241
26	0x40744828	3.816904
27	0xbf7c7601	-0.9861756
28	0xc0ea82e5	-7.3284783
29	0xc086c6bd	-4.21176
30	0x40710ff6	3.7665992
31	0xbea3963d	-0.3195056
32	0x40d0d26e	6.525687
33	0xc05cda54	-3.4508257
34	0xc05980c5	-3.3984845
35	0x3ff0bf64	1.8808408
36	0xbfe6b173	-1.8022903
37	0xbf80025d	-1.0000721
38	0xbf0692d4	-0.5256779
39	0xbfc59a9e	-1.543781
40	0xc0c5dec2	-6.183442
41	0xc048d45d	-3.1379616
42	0x4015529c	2.333167
43	0x3fab41a8	1.3379412
44	0x3ed103ee	0.4082331
45	0x4094b03e	4.646514
46	0xc0f706b3	-7.719568
47	0xc0b85775	-5.760676
48	0xbf01a54f	-0.50642866
49	0x3fda767e	1.7067411
50	0x3f887a8b	1.0662397
51	0xc0db11ae	-6.845908
52	0x3e8c9b03	0.27462015
53	0xbe7c54ed	-0.24641772
54	0xbf8f012f	-1.1172236
55	0xc0adb787	-5.4286532
56	0xbfd15c86	-1.6356361
57	0xbebd400e	-0.36962932
58	0x409be040	4.8711243
59	0x3fbfa4fd	1.4972225
60	0xc0d8287b	-6.7549415
61	0xc0fb9e12	-7.8630457
62	0x4136e8d8	11.431847
63	0xc08765fa	-4.2311983
64	0xbe0ade95	-0.13561471
65	0x4080a505	4.020144
66	0x3fa057bb	1.2526773
67	0x401749bc	2.3638754
68	0x40c0ffb7	6.031215
69	0xbef2e793	-0.47442302
70	0x4081844b	4.047399
71	0x3ed99022	0.42492777
72	0x3d7bc4d6	0.061467014
73	0xbe4176c3	-0.1889296
74	0x409c214e	4.8790655
75	0xc14f6860	-12.962982
76	0x4110a7bc	9.040951
77	0xbecc18d7	-0.398627
78	0x3fae341b	1.3609651
79	0x3fc7c755	1.5607706
80	0x40fe0c84	7.939028
81	0x40b5c8d6	5.680766
82	0x403d6807	2.9594743
83	0x4110b002	9.042971
84	0x411cc1e4	9.797337
85	0xc0ad9f72	-5.4257135
86	0x40736f59	3.8036711
87	0x4108c47e	8.547972
88	0xc001b466	-2.0266356
89	0xc0c835ac	-6.2565517
90	0x416d4f3b	14.831843
91	0x3faa5350	1.3306675
92	0x40929598	4.580761
93	0xc0f1f1f7	-7.5607867
94	0xc0c1c95d	-6.0558305
95	0x3d7e914a	0.062150277
96	0x3fd09dd4	1.6298165
97	0x3fc5baf5	1.544768
98	0xbdce7cb6	-0.100823805
99	0x40ccb8d8	6.397564
100	0xbf06faac	-0.52726245
101	0x3d83a7a3	0.064284585
102	0xbe80ccbf	-0.2515621
103	0xbffd7f80	-1.9804535
104	0x408c7ff6	4.39062
105	0x3f247a39	0.64248997
106	0xbfc88ac1	-1.5667344
107	0x40958ad7	4.673198
108	0x40041ed4	2.0643816
109	0x3f317195	0.6931394
110	0x40c841fe	6.2580557
111	0x408a459b	4.3209968
112	0x3eccd670	0.40007353
113	0x40703348	3.75313
114	0xbf991a93	-1.1961235
115	0x40bad132	5.8380365
116	0x3ee3b81f	0.4447641
117	0x40976c91	4.7320027
118	0xbf1c24d6	-0.6099371
119	0x408414fc	4.1275616
120	0x41285c3a	10.522516
121	0xbe94424e	-0.28956836
122	0x40cd246b	6.4106956
123	0x40a48d88	5.142277
124	0x40a30b44	5.095125
125	0x40be8637	5.9538836
126	0xbf415ad6	-0.7552923
127	0x3e10d460	0.14143515
128	0x3f4dc9cf	0.8038606
129	0xc072a640	-3.791397
130	0x40189d8e	2.3846164
131	0x3fb8b686	1.4430702
132	0x3f1882c7	0.5957455
133	0x3fd8e87e	1.6945951
134	0xbfcfb6d7	-1.6227673
135	0x3e5e7258	0.21723306
136	0x3f3243c8	0.69634676
137	0x3f05c34c	0.52251124
138	0x40067f3f	2.1015165
139	0x40d6445b	6.695844
140	0x3f9ffc77	1.2498921
141	0x3ea0e310	0.31423235
142	0x4027f4aa	2.624308
143	0xbff6b870	-1.9275036
144	0xc08850db	-4.25987
145	0x3f1edfbf	0.6206016
146	0x3f23294f	0.63734907
147	0xc04d9b69	-3.2126105
148	0xbf9e2d16	-1.2357509
149	0x404bee14	3.1864061
150	0x3f77d944	0.96815896
151	0xc03b905f	-2.9306867
152	0x3fd452ca	1.6587765
153	0xc005db1f	-2.091499
154	0xbf4d0618	-0.80087423
155	0xbebcf3d1	-0.36904767
156	0xbe841647	-0.25798246
157	0x40341e54	2.814351
158	0x40c85a00	6.2609863
159	0xbab38142	-0.0013695138
160	0x40080bb9	2.1257155
161	0x4042cdf0	3.0438194
162	0x3fded75c	1.7409472
163	0xc049aa6e	-3.1510272
164	0x3ffdb735	1.9821535
165	0x3f0cb03e	0.54956424
166	0x3eeb518b	0.4596065
167	0x4026eeb2	2.6083188
168	0x3f020d6c	0.5080173
169	0x3fdeba96	1.7400692
170	0x3fc53de3	1.5409511
171	0xbfa3ca0a	-1.2796032
172	0xbf5600a8	-0.8359475
173	0x4000998a	2.0093713
174	0xbf48900c	-0.783448
175	0x3fd8e623	1.6945232
176	0x3efa9a08	0.48945642
177	0x402ea849	2.7290213
178	0x3e4b4746	0.19851407
179	0x3e76f8f4	0.24118406
180	0x3ea671e2	0.3250876
181	0xbfb20ad8	-1.3909559
182	0x3ff12b32	1.8841307
183	0x3f554d10	0.83320713
184	0x3f983006	1.1889656
185	0x3fbbaa9c	1.4661441
186	0xc0a02b5a	-5.005292
187	0xbf02dd16	-0.511186
188	0x3f46c9e0	0.77651787
189	0xbf1e2953	-0.61781806
190	0xc127b757	-10.482261
191	0x3fe87690	1.8161182
192	0x3fc57e66	1.5429199
193	0xbd8bdff1	-0.06829823
194	0x4017e812	2.3735394
195	0x3ff1d691	1.8893605
196	0x3de7168c	0.11283597
197	0x3fccacb1	1.5990201
198	0x40186271	2.3810084
199	0xbf80c33a	-1.0059578
200	0x3e299cb6	0.16563687
201	0x3feb2843	1.8371662
202	0xbf5948d5	-0.8487676
203	0xc0a10317	-5.031627
204	0x3f496314	0.78666806
205	0x3e61300a	0.21990982
206	0xbeac54d7	-0.33658478
207	0x40270a05	2.6099865
208	0xc0d46e39	-6.638455
209	0x3dd1d82a	0.10246308
210	0x4024fe33	2.578015
211	0x407dcfd1	3.965809
212	0x407a04f7	3.906553
213	0x41368256	11.40682
214	0x4013eece	2.3114505
215	0x409ccd7f	4.900085
216	0x3ff5e985	1.921189
217	0x41327ef4	11.155994
218	0x3ff273ac	1.894155
219	0x4013e33f	2.310745
220	0x3f2f37f3	0.68444747
221	0x415cc051	13.796952
222	0x405b9b59	3.4313567
223	0x3f243834	0.6414826
224	0xc105df86	-8.367071
225	0x402122f2	2.517758
226	0x3fdabc8e	1.7088792
227	0x40705c3d	3.7556298
228	0x3fbb3d59	1.4628097
229	0x3e17aac7	0.1481124
230	0x3ec3df4e	0.38256305
231	0x405567d0	3.3344612
232	0x402d2bbf	2.705795
233	0x3fc03cf7	1.5018605
234	0x40614ad3	3.520192
235	0x40247893	2.5698593
236	0x40806b2e	4.0130835
237	0x3fad2710	1.3527546
238	0xbf74707a	-0.95484126
239	0x400b0306	2.1720595
240	0x3e9ecc08	0.31015038
241	0xc1130ae8	-9.190163
242	0x407bc9a8	3.9341831
243	0x3febc4b9	1.841941
244	0x3f99000b	1.1953138
245	0x4079e84c	3.9048033
246	0x3f4a82ea	0.7910601
247	0x3fcede8f	1.616167
248	0x3f5f3348	0.87187624
249	0xbed2dd6c	-0.41184556
250	0x3e067595	0.13130791
251	0xbf916b19	-1.1360809
252	0x3e72681b	0.23672526
253	0xbc693b0f	-0.014235272
254	0x3edbaf71	0.4290729
255	0x4004ab2d	2.0729477

encoder.linear2.bias f4 [10]
0	0xc01e160b	-2.4700954
1	0x3f233363	0.63750285
2	0x3facf9e5	1.3513762
3	0x400c24a2	2.189736
4	0x4032e109	2.794985
5	0xbeb0f1c0	-0.3455944
6	0x3f63515c	0.8879602
7	0xbfb16d6e	-1.386152
8	0xbf075222	-0.528597
9	0x3fc02a63	1.5012935

encoder.norm1.weight f4 [10]
0	0x408884df	4.2662196
1	0x3f0c8f90	0.5490656
2	0x4053ac93	3.307408
3	0x3dcf3c5a	0.10118933
4	0x4099cc58	4.8061943
5	0x3fc724b7	1.555808
6	0x3fe7231f	1.8057593
7	0xc02f2fd0	-2.7372932
8	0x3ff3f0e8	1.9057894
9	0xbedd69f3	-0.43244895

encoder.norm1.bias f4 [10]
0	0xbea2ce6e	-0.31798118
1	0xbfe92270	-1.8213634
2	0xbfeb9e93	-1.8407768
3	0xc01eea23	-2.4830406
4	0x3ee60215	0.44923463
5	0x3f5a6ad8	0.8531928
6	0xbe247950	-0.16061902
7	0xc02abd39	-2.6677992
8	0x4025afa2	2.5888448
9	0x3e379048	0.17926133

encoder.norm2.weight f4 [10]
0	0xbcbb9e72	-0.022902701
1	0x3fa7483b	1.3068918
2	0x3f421998	0.758203
3	0xbdb47a0e	-0.088123426
4	0x3e338183	0.17529874
5	0x3f27b10a	0.65504515
6	0x3d863c55	0.06554476
7	0xbf3b5d95	-0.7318967
8	0xbef43104	-0.47693646
9	0x3e91dc5e	0.2848844

encoder.norm2.bias f4 [10]
0	0xbfc776cf	-1.5583133
1	0xc08001ad	-4.0002046
2	0xbf652f8e	-0.8952569
3	0xbe8c8c05	-0.27450576
4	0xbf01e08c	-0.50733256
5	0xbfca7901	-1.5818177
6	0xbe34b718	-0.1764797
7	0xbfe02099	-1.7509948
8	0xbf52a908	-0.8228917
9	0x3e5ce26f	0.21570753

l2.weight f4 [64, 3200]
0	0x3f832762	1.0246394
1	0x3e90369b	0.2816666
2	0xbe3f51a8	-0.18683493
3	0x3fd6182e	1.6726129
4	0xbea3a372	-0.31960636
5	0x3e05dded	0.13072939
6	0x3eee38cd	0.4652771
7	0x3f1f4e46	0.6222881
8	0x3ed8711a	0.4227379
9	0x3d1df4bb	0.03856347
10	0x3f64bbd7	0.8934912
11	0x3f4947e7	0.7862534
12	0xbf1617d2	-0.58630097
13	0x3fc18eaf	1.5121669
14	0x3f10f478	0.5662303
15	0x3eae1b10	0.34005022
16	0x3da31dfc	0.079647034
17	0x3ed1ea4f	0.40999076
18	0x3dbafb38	0.091299474
19	0xbeb6ed2f	-0.35727832
20	0x3f83b81d	1.0290562
21	0x3f59c29c	0.85062575
22	0xbf550e91	-0.8322535
23	0x3fe14e1b	1.7601961
24	0xbf4803e2	-0.78130925
25	0x3d05ba82	0.03264857
26	0x3f162f5a	0.58666
27	0x3f1335b5	0.57503825
28	0x3f3042bf	0.68851846
29	0xbea92caf	-0.33041903
30	0x3f0469de	0.5172404
31	0x3eba5869	0.36395577
32	0xbe253ac5	-0.161357
33	0x3fda2503	1.7042545
34	0xbf16274f	-0.5865373
35	0x3e2c8c16	0.16850314
36	0x3f07129a	0.5276276
37	0x3fabd532	1.3424437
38	0x3e8030d5	0.25037256
39	0x3d6a35d5	0.057180244
40	0x3f1a2db4	0.6022599
41	0x3f73d82c	0.9525173
42	0xbced2cd6	-0.028952044
43	0x3fe2f759	1.7731735
44	0xbecb732d	-0.3973631
45	0xbbd2e61b	-0.006436122
46	0x3f085e6d	0.5326908
47	0x3f9d5dfe	1.2294309
48	0x3f56827a	0.8379284
49	0xbda6941c	-0.08133718
50	0x3f77f64d	0.968602
51	0x3f2e676e	0.6812657
52	0xbea32b09	-0.3186877
53	0x3fbea314	1.4893517
54	0xbeadaf30	-0.3392272
55	0x3e980e80	0.29698563
56	0x3efdd3ca	0.49575645
57	0x3eb83dde	0.359847
58	0x3db91bef	0.09038531
59	0xbddc5234	-0.107578665
60	0x3f81a1cf	1.0127505
61	0xbed1f7c9	-0.41009358
62	0xbe996aa3	-0.2996417
63	0x3ff4310f	1.9077471
64	0x3b0a8154	0.0021134214
65	0x3d80ea3f	0.06294679
66	0x3f1a0b86	0.60173833
67	0x3f873bad	1.0565087
68	0x3ec9719a	0.39344484
69	0x3e9e34ed	0.30899754
70	0x3f43880d	0.7637947
71	0x3db5dec2	0.08880378
72	0xbf26b51a	-0.6512009
73	0x3fe86694	1.8156304
74	0xbf82fbea	-1.0233128
75	0xbde21a66	-0.11040191
76	0x3f017ae2	0.5057813
77	0x3ec6325f	0.38710305
78	0x3ebe50c1	0.37170985
79	0xbd34b30f	-0.044116076
80	0x3fa72125	1.305699
81	0x3f77a907	0.9674229
82	0xbf2141d3	-0.62991065
83	0x400757de	2.114738
84	0x3f8fce5e	1.1234853
85	0xbdae7240	-0.08517885
86	0x3efa63d1	0.4890428
87	0x3e02bfe4	0.12768513
88	0x3dfc0366	0.12305336
89	0xbdc2aaa8	-0.09505206
90	0x3f705381	0.93877417
91	0x3e58cc8d	0.2117178
92	0xbf0f3dad	-0.55953485
93	0x3ffba1df	1.9658774
94	0xbd2bd955	-0.04195531
95	0x3e68f866	0.22751006
96	0x3edfecb4	0.43735278
97	0xbdbd92b5	-0.09256498
98	0x3e47f442	0.1952677
99	0x3c8e0449	0.017336028
100	0x3f3d8a60	0.7403927
101	0x3f276ff2	0.6540519
102	0xbe51e67f	-0.20498084
103	0x3ff67a5d	1.9256092
104	0x3ee8bebc	0.4545802
105	0x3f0ad349	0.54228646
106	0x3ec12326	0.3772213
107	0x3f8b86b0	1.0900478
108	0x3f84bca6	1.0370071
109	0xbeb46a86	-0.3523752
110	0x3f233bac	0.6376293
111	0x3dec24e8	0.11530477
112	0xbe6ec7cc	-0.23318404
113	0x40159f56	2.33785
114	0x3f296330	0.66166973
115	0x3ee7f98a	0.4530757
116	0x3ed700da	0.41992837
117	0x3eefb69b	0.46819004
118	0x3ec6ca16	0.38826054
119	0x3ee27a35	0.44233862
120	0x3f6ad685	0.9173358
121	0x3c44f99e	0.012022404
122	0xbe4e7208	-0.20160687
123	0x3fef5803	1.8698734
124	0xbf0fec1a	-0.5621964
125	0x3e86535e	0.2623548
126	0x3eddc6fb	0.43315873
127	0x3f17b541	0.59260947
128	0x3f5373c0	0.82598495
129	0xbe051d75	-0.12999518
130	0x3f3384a6	0.7012428
131	0xbed891b1	-0.42298654
132	0xbeee661d	-0.4656228
133	0x40192dfd	2.393432
134	0x3f005b0a	0.50138915
135	0x3f088223	0.5332357
136	0x3dda84dd	0.10669873
137	0x3f8972f7	1.073821
138	0xbe1cf15c	-0.15326446
139	0x3ec971f8	0.39344764
140	0x3f30319b	0.6882569
141	0x3f029d97	0.51021713
142	0xbeaca344	-0.33718312
143	0x3fd93455	1.6969095
144	0x3f2effeb	0.6835925
145	0x3f52068f	0.8204126
146	0x3f1b7a3a	0.6073338
147	0x3eb02661	0.3440428
148	0x3eda1fa9	0.4260228
149	0xbed686eb	-0.4189981
150	0x3f46d649	0.77670723
151	0x3f377e7b	0.7167737
152	0xbeb8c42c	-0.36087167
153	0x3fee9e5a	1.8642075
154	0xbf09cb34	-0.5382569
155	0x3f2d4a8f	0.6769189
156	0x3e9f8cab	0.3116201
157	0x3ca6c9a5	0.020359823
158	0x3f4728be	0.7779654
159	0xbe1f839c	-0.15577549
160	0x3f4c33db	0.79766625
161	0x3fdd2830	1.7277889
162	0xbefed6d3	-0.49773273
163	0x3fb85ede	1.4403951
164	0xbe96d18b	-0.29456744
165	0xbd83b156	-0.064303085
166	0x3d41bd3c	0.04729961
167	0x3dcb6c6f	0.099327914
168	0x3f57c2fc	0.842819
169	0xbe276352	-0.16346481
170	0x3f2f0723	0.68370265
171	0x3f27bd4e	0.6552323
172	0xbec214da	-0.37906533
173	0x3fb94318	1.44736
174	0xbe8b3cb9	-0.27194765
175	0x3e37d52a	0.1795241
176	0xbe06ec82	-0.13176158
177	0x3f0b4ec8	0.54417086
178	0x3b961e71	0.0045812656
179	0xbf36bcfd	-0.71382123
180	0x3f1cb50b	0.6121375
181	0x3f00c700	0.5030365
182	0xbf8bd6ee	-1.0924966
183	0x3fd31627	1.6491135
184	0x3ecd75c2	0.40128905
185	0x3f0c9240	0.5491066
186	0xbe2f5a4c	-0.1712429
187	0x3fbcc5db	1.4747881
188	0x3e2a88d1	0.16653754
189	0xbdc3fccc	-0.095697016
190	0x3f50b8bc	0.8153188
191	0x3ecdb625	0.40178028
192	0xbe54db99	-0.20786895
193	0x3fa17d72	1.2616408
194	0x3f23eaa1	0.6402989
195	0x3dec6583	0.11542799
196	0x3e887ee5	0.26659313
197	0x3f108191	0.564477
198	0x3f342bf3	0.7037956
199	0x3e1ae674	0.15126973
200	0x3f425d80	0.7592392
201	0x3f2993b5	0.6624101
202	0xbee2b05d	-0.4427518
203	0x401711e8	2.360468
204	0x3e1c674d	0.15273781
205	0x3e0d6881	0.13809396
206	0x3e096064	0.13415676
207	0x3f7c3cce	0.9853028
208	0x3edf7381	0.4364281
209	0x3dadd676	0.08488171
210	0x3f2e5578	0.68099165
211	0x3f086b9e	0.5328921
212	0xbebd7c58	-0.3700893
213	0x3ffd46f2	1.9787276
214	0x3f78d629	0.9720178
215	0x3e2a6177	0.16638742
216	0xbe0149c2	-0.12625793
217	0x3f0e6578	0.5562358
218	0x3df8e91a	0.121538356
219	0xbeb356aa	-0.35027057
220	0x3f27c83f	0.65539926
221	0x3f737d53	0.95113105
222	0xbee7b097	-0.45251915
223	0x3fedfac4	1.8592153
224	0x3dc775a5	0.09739236
225	0x3f1269e3	0.5719282
226	0x3ec5429f	0.3852739
227	0x3eca6260	0.3952818
228	0x3f0ae7f1	0.54260164
229	0xbee2dc93	-0.4430891
230	0x3f8a6769	1.0812808
231	0x3e37148a	0.17878929
232	0xbe21117a	-0.15729323
233	0x3f2a4bfc	0.6652219
234	0xbf86ad71	-1.052168
235	0xbd49c042	-0.049255617
236	0x3f51ec43	0.8200113
237	0x3f4fbf76	0.8115152
238	0xbd0292ea	-0.03187839
239	0x3cd0137e	0.02539992
240	0x3f71f13a	0.9450871
241	0xbf371fad	-0.7153271
242	0xbeef7f70	-0.46776915
243	0x3e05635c	0.13026184
244	0xbfb9b103	-1.4507145
245	0xbeec2be4	-0.46127236
246	0x3ec2c917	0.38044044
247	0xbe4f12c3	-0.20222001
248	0xbe9d88f3	-0.30768546
249	0xbe3a6441	-0.18202306
250	0x3f613385	0.8796924
251	0x3f746b4e	0.95476234
252	0xbeb82f67	-0.35973665
253	0x4007f1b9	2.1241286
254	0xbfa1c0c9	-1.2636958
255	0x3eb07594	0.34464705

l2.bias f4 [64]
0	0xbfc67e5b	-1.5507311
1	0xbf213d9f	-0.6298465
2	0xbe865791	-0.26238683
3	0xbf2ee76a	-0.6832186
4	0xbfa1efe8	-1.2651339
5	0xbf88631b	-1.0655245
6	0xc07e97cf	-3.9780157
7	0xbf17edeb	-0.5934741
8	0xbfa64273	-1.2989029
9	0xbfcb129e	-1.5865057
10	0xbffefe0a	-1.9921277
11	0xbf867ac6	-1.0506217
12	0xbf02b117	-0.5105147
13	0xc014bdd7	-2.324087
14	0xbf9c8c20	-1.2230263
15	0xbf23a012	-0.6391612
16	0xbf4de522	-0.80427754
17	0xbf5e84b0	-0.86921215
18	0xbecc896d	-0.39948598
19	0xbf600d9e	-0.8752078
20	0xbfbe63d2	-1.4874213
21	0xbfca7f78	-1.582015
22	0xbf8b1c13	-1.0867943
23	0xbf0b7dd2	-0.5448886
24	0xbf1d29d3	-0.61391944
25	0xbe73086e	-0.23733684
26	0x3c35b52e	0.01109056
27	0xbf13a4e3	-0.5767347
28	0xbf8729cb	-1.0559629
29	0xbfa57581	-1.2926484
30	0xbfc3712b	-1.5268911
31	0xbf6254eb	-0.88410825
32	0xbfb1663e	-1.3859327
33	0xbf3c71b3	-0.7361099
34	0xbf2d943b	-0.67804307
35	0xbf223e7d	-0.633766
36	0xbf6a224f	-0.914586
37	0xbf193809	-0.5985113
38	0xbf1050ab	-0.5637309
39	0xbf7608e5	-0.9610732
40	0xbf20e6dc	-0.62852263
41	0xc007aa1c	-2.1197577
42	0xbf91aa33	-1.1380066
43	0xbfbf9222	-1.4966471
44	0xbe5cce05	-0.21562965
45	0x3d06231f	0.032748338
46	0xc005426b	-2.0821788
47	0xbea95b42	-0.33077437
48	0xbf184671	-0.59482485
49	0xbf5b5c25	-0.85687476
50	0xbea8d0f8	-0.3297193
51	0xbf9cee34	-1.2260194
52	0xbf72eb45	-0.9489024
53	0xbfc875c1	-1.5660936
54	0xbfc2d5fc	-1.5221553
55	0xbf35e15d	-0.71047
56	0xbf8af89b	-1.0857118
57	0xbfce9f4e	-1.6142366
58	0xbf45d1b8	-0.7727313
59	0xbf1fcee5	-0.6242507
60	0xbdb0cedf	-0.086332075
61	0xbf428dd1	-0.75997645
62	0xbfca917a	-1.5825646
63	0xbf7a55b2	-0.9778701

l3.weight f4 [64, 66]
0	0xbf161802	-0.58630383
1	0x3dfd7eb9	0.12377686
2	0x3f3939cd	0.7235382
3	0xbf51b981	-0.8192368
4	0xbf2a183d	-0.66443235
5	0xbeefa29b	-0.46803746
6	0xbea92469	-0.3303559
7	0x3d5090a8	0.050919205
8	0x3d59a6ff	0.053137776
9	0x3f7329be	0.9498557
10	0x3dfd3416	0.1236345
11	0x3e15ee93	0.1464179
12	0x3e6545fb	0.22389977
13	0x3e013f97	0.12621914
14	0xbf211b5f	-0.6293239
15	0x3fa56e52	1.2924292
16	0x3f4c8e82	0.7990495
17	0x3f28a9a9	0.6588388
18	0x3eff147c	0.49820316
19	0xbeacbf16	-0.33739537
20	0xbe4aa616	-0.1978992
21	0xbe040d2d	-0.12895651
22	0x3e9b0e5a	0.30284387
23	0x3ddca09a	0.1077282
24	0x3f34ec42	0.70673
25	0x3dfda783	0.12385466
26	0x3f11953b	0.5686833
27	0xbef3f2d0	-0.4764619
28	0x3e3a4d98	0.18193662
29	0xbf469064	-0.7756407
30	0xbe8b5fc8	-0.27221513
31	0xbfbb9d0a	-1.46573
32	0xbcf46a6f	-0.029835908
33	0xbf636895	-0.88831455
34	0x3d45379c	0.048148736
35	0x3f229f45	0.63524276
36	0xbef520b2	-0.47876507
37	0xbed3c2d6	-0.41359586
38	0x3daaec54	0.08345857
39	0x3e026d47	0.12736998
40	0xbef6d5ed	-0.48210087
41	0xbe277952	-0.16354874
42	0xbecb0800	-0.3965454
43	0x3ebfb318	0.37441325
44	0xbf621d6e	-0.88326156
45	0xbe142e5f	-0.14470814
46	0x3d83aaf5	0.06429092
47	0x3eeb2c4f	0.45932242
48	0x3f28cae0	0.6593456
49	0x3e99113d	0.29895964
50	0xbf10cae5	-0.5655959
51	0x3eb38eaf	0.35069796
52	0xbe9b603f	-0.30346867
53	0x3e2e8a99	0.17045058
54	0xbb83b4af	-0.004019342
55	0x3ee211f0	0.4415431
56	0xbc84ee19	-0.016226815
57	0x3dd7d647	0.10538917
58	0x3f7e599d	0.9935549
59	0x3f06f6ae	0.52720153
60	0xbf1ab583	-0.60433215
61	0x3f0eb8e3	0.55750865
62	0x3f7f5d3f	0.9975166
63	0x3e902c82	0.28158957
64	0x3e82d2f5	0.25551572
65	0xbdd8d439	-0.10587353
66	0x3fa16923	1.261021
67	0x3ee4afe5	0.44665447
68	0xbe343746	-0.1759921
69	0xbf5aad98	-0.85421133
70	0x3f2e9df0	0.68209743
71	0x3ecbfad2	0.39839798
72	0x3ebdae11	0.37046865
73	0xbdf2eb79	-0.11861319
74	0xbe2a8e42	-0.1665583
75	0xbe377c39	-0.17918481
76	0x3f31c000	0.69433594
77	0x3f26f70d	0.6522072
78	0x3f3fa1a3	0.74856013
79	0x3e7efcce	0.24901125
80	0x3f0c27b6	0.54748094
81	0x3faef480	1.3668365
82	0x3fa35644	1.2760701
83	0xbe80b449	-0.25137547
84	0xbf2135bd	-0.62972623
85	0xbd6d9e88	-0.058012515
86	0x3fa956fe	1.3229673
87	0x3f14d114	0.5813153
88	0x3ee5c0fe	0.44873804
89	0x3d7daa72	0.061930127
90	0xbdcdc719	-0.100477405
91	0xbf9a422a	-1.2051442
92	0xbfbdc504	-1.4825749
93	0x3f813675	1.0094744
94	0x3e859e7c	0.26097476
95	0x3faa990d	1.3327957
96	0xbd97fc11	-0.07421125
97	0x3eb63c0d	0.3559269
98	0x3f5066f5	0.814071
99	0x3d329989	0.043603454
100	0xbe548a67	-0.20755921
101	0xbf044b8a	-0.51677763
102	0x3f5e7128	0.8689141
103	0x3ed84f97	0.42248222
104	0x3f811745	1.0085226
105	0xbf8887e6	-1.0666473
106	0xbfb9a9cd	-1.4504944
107	0x3f1388b4	0.5763047
108	0xbed82596	-0.42216176
109	0xbdfb79a2	-0.12279059
110	0x3e0d9f0b	0.13830201
111	0x3e569f08	0.20959103
112	0x3e097374	0.13422948
113	0x3e96e31b	0.29470143
114	0xbf54759a	-0.82991946
115	0x3ec68050	0.3876977
116	0x3d6dc40a	0.058048286
117	0x3f6bd32c	0.921191
118	0xbf059746	-0.5218395
119	0x3fa0bd7f	1.255783
120	0x3ed7ce1f	0.42149445
121	0x3fb82a79	1.4387962
122	0x3f146b59	0.579763
123	0x3db36a6b	0.08760532
124	0x3f2d24ee	0.67634475
125	0xbc7ea981	-0.015543343
126	0xbd0013e7	-0.03126898
127	0xbdee5ae7	-0.11638432
128	0xbe89cedc	-0.26915634
129	0x3ec5cc81	0.38632587
130	0x40362431	2.845959
131	0xbec4c76d	-0.384334
132	0xbfa9074e	-1.3205354
133	0xbe509f0c	-0.20373172
134	0x3ea26966	0.31721038
135	0x3ecc0565	0.39847866
136	0xbeaca9da	-0.33723336
137	0x3f2ceaf3	0.67546004
138	0xbe3978a1	-0.18112423
139	0x3e5909cb	0.21195142
140	0xbf53018b	-0.8242423
141	0x3f7f7489	0.99787194
142	0x3d0fbbc6	0.035091184
143	0xbeb59682	-0.3546639
144	0xbe6c6b99	-0.2308792
145	0xbe0fb195	-0.14032586
146	0xbed25381	-0.41079333
147	0xbe2e7aa7	-0.17038976
148	0xbf8e80ae	-1.113302
149	0x3f32ba72	0.6981574
150	0xbe921f48	-0.2853949
151	0x3f2b2d0b	0.66865605
152	0xbde48a53	-0.11159196
153	0x3e7a0163	0.24414591
154	0xbefcc78d	-0.49370995
155	0xbe83af4f	-0.25719687
156	0xbea2e0fb	-0.3181227
157	0xbeb5e350	-0.35524988
158	0xbeebc00d	-0.4604496
159	0xbf646bd4	-0.8922703
160	0xbf0417fd	-0.51599103
161	0xbfdcb800	-1.7243652
162	0xbec93266	-0.39296263
163	0xbf8defeb	-1.1088842
164	0xbf89b8e3	-1.0759548
165	0x3e08bee1	0.13354065
166	0xbe85ca23	-0.2613078
167	0x3f9b7023	1.2143596
168	0xbe816b57	-0.25277206
169	0x3f40ef96	0.7536558
170	0xbe8dec74	-0.27719462
171	0x3fe42449	1.7823573
172	0xbf231c23	-0.6371481
173	0xbe4b54c7	-0.19856559
174	0xbe24e646	-0.16103467
175	0x3ef2727a	0.47352964
176	0x3ef208f0	0.47272444
177	0xbef28bb8	-0.47372222
178	0xbe3404b5	-0.1757992
179	0xbde28ece	-0.11062394
180	0x3eacf775	0.33782545
181	0xbf18c5a1	-0.5967656
182	0x3ea8cfb0	0.32970953
183	0xbe63490c	-0.22195834
184	0xbe8a74f1	-0.27042344
185	0xbf4a3346	-0.7898449
186	0xbd22783b	-0.039665442
187	0xbe63e026	-0.22253475
188	0xbeda3037	-0.4261491
189	0xbe283086	-0.1642476
190	0x3f4d64e2	0.8023206
191	0x3d143ea5	0.036192555
192	0xbf9958bc	-1.1980205
193	0x3dd31f8b	0.10308751
194	0x3f3da5f8	0.74081373
195	0x3dbd6802	0.092483535
196	0x3e07232a	0.13197008
197	0xbb328212	-0.0027238172
198	0xbef3652b	-0.47538123
199	0xbeef8059	-0.4677761
200	0xbe5fbb59	-0.21848811
201	0x3ecc2c11	0.3987737
202	0x3ee4ee23	0.44712934
203	0xbf1d2882	-0.61389935
204	0x3f329f17	0.69774
205	0xbf94fb46	-1.1639183
206	0x3f401c1e	0.75042903
207	0x3f0b04bc	0.543041
208	0xbedc99cb	-0.43086085
209	0xbf0bc6bb	-0.54600114
210	0xbecf5d2b	-0.4050077
211	0x3e32de93	0.17467718
212	0x3ef363d1	0.4753709
213	0xbd146af7	-0.036234822
214	0xbf8bf2ec	-1.0933509
215	0x3e0a6eed	0.13518877
216	0xbbce280c	-0.006291395
217	0xbda89640	-0.08231783
218	0xbe925748	-0.28582215
219	0xbdf86def	-0.12130343
220	0xbeed484f	-0.4634423
221	0xbe5f103c	-0.21783537
222	0xbe8cb2f6	-0.27480286
223	0xbd994202	-0.07483293
224	0x3c96a61d	0.018389756
225	0xbe4c5a47	-0.19956313
226	0xbf088355	-0.53325397
227	0xbf11d3af	-0.5696363
228	0xbddd64b3	-0.108102225
229	0xbd7dbb72	-0.06194634
230	0x3e167a2c	0.14695042
231	0x3e66becd	0.22533722
232	0xbea1ada4	-0.3157779
233	0x3e42d5e7	0.1902691
234	0x3f083788	0.53209734
235	0xbe7d3744	-0.24728113
236	0xbf655995	-0.89589816
237	0x3eeb0aa4	0.45906556
238	0x3f54808a	0.83008635
239	0x3f43edf3	0.76534957
240	0x3eaf5107	0.34241506
241	0x3eab71b4	0.33485186
242	0x3fa2fc50	1.273325
243	0xbf309743	-0.6898081
244	0x3e94291a	0.28937608
245	0xbebd038c	-0.3691677
246	0x3f25be1a	0.64743197
247	0xbf01cdfd	-0.5070494
248	0xbf4b502e	-0.7941922
249	0xbf1bd4b3	-0.6087143
250	0x3f3df218	0.7419753
251	0x3cbb2f8b	0.022849819
252	0x3ed42392	0.41433388
253	0xbfa7e214	-1.3115869
254	0xbf8863fe	-1.0655515
255	0x3d5cc689	0.053900275

l3.bias f4 [64]
0	0xbef81eef	-0.484611
1	0xbf6ee086	-0.93311346
2	0x3ed09a9d	0.4074296
3	0x3dd02ca6	0.10164766
4	0xbed14266	-0.4087097
5	0xbf938ea5	-1.1527907
6	0x3dd48257	0.10376423
7	0xbeef0d5c	-0.4668988
8	0xbef8eb4e	-0.48617023
9	0xbf532311	-0.8247538
10	0xbf99afee	-1.2006814
11	0xbf3d8e1e	-0.7404498
12	0x3cea86fe	0.028628822
13	0xbec1fd7f	-0.37888715
14	0xbee1e025	-0.4411632
15	0xbf93ec28	-1.1556444
16	0xbef09cf4	-0.46994746
17	0x3f28d605	0.6595157
18	0xbf38a1af	-0.7212171
19	0xbf28cf25	-0.6594108
20	0x3ecc0338	0.39846206
21	0xbfec821b	-1.8477205
22	0x3e418db8	0.18901718
23	0xbf8fb534	-1.1227174
24	0xbfc9d8ec	-1.5769324
25	0xbe34e2eb	-0.17664687
26	0xbd8b9753	-0.06815972
27	0xbf00ecaa	-0.5036112
28	0xbeba8c89	-0.36435345
29	0xbf139323	-0.5764639
30	0x3e6d04ae	0.23146316
31	0x3e8fb604	0.28068554
32	0x3dd41cba	0.10357042
33	0xbb36ecf5	-0.0027912233
34	0x3e3a025f	0.18164967
35	0xbf6e9728	-0.93199396
36	0xbf14c8bb	-0.5811879
37	0xbf268591	-0.65047556
38	0xbf18ff1e	-0.5976428
39	0xbbbc3628	-0.0057437606
40	0xbf94e675	-1.163283
41	0xbf8b9d11	-1.0907308
42	0xbeaa6aba	-0.3328455
43	0x3e335a54	0.17514926
44	0x3cf06768	0.029346183
45	0xbefd2af7	-0.49446842
46	0x3f4ed5dd	0.8079508
47	0x3df5061c	0.11964056
48	0xbe9272d5	-0.28603235
49	0x3f0f182a	0.55896246
50	0x3e25edfc	0.16204065
51	0xbf08a0bc	-0.5337026
52	0x3e5a28d7	0.21304642
53	0xbf3c8fa7	-0.73656696
54	0xbfbac354	-1.459086
55	0x3d9ad41b	0.07559987
56	0xbbd95275	-0.006632144
57	0x3e7c107e	0.24615666
58	0xbeb3b8b0	-0.35101843
59	0x3f03a759	0.5142723
60	0x3d95f8a6	0.073228166
61	0x3f23d991	0.64003855
62	0x3cf1c2db	0.02951186
63	0xbf41dfdc	-0.7573221

l4.weight f4 [2, 64]
0	0x3dbf1dae	0.09331833
1	0x3e6384a5	0.22218569
2	0x3b6b91ba	0.0035945014
3	0xbde565dd	-0.112010695
4	0x3d2dd4ac	0.042439148
5	0x3e73e54a	0.23817936
6	0xbd6bc9ce	-0.057565503
7	0x3e2644a1	0.16237117
8	0x3e0c56e0	0.13705015
9	0xbc2cd967	-0.01054988
10	0x3cbc4ca9	0.022985773
11	0x3e1246a6	0.14284763
12	0xbe6885f6	-0.22707352
13	0x3d0956be	0.03352999
14	0x3dcae4e9	0.099069424
15	0x3dffaeb1	0.124844916
16	0xbe4e6157	-0.2015432
17	0xbb1c6eae	-0.0023869681
18	0x3d18579c	0.037192926
19	0xbc3425b8	-0.010995321
20	0xbe138cea	-0.14409223
21	0xbdf17882	-0.11790563
22	0xbdfdf83c	-0.124008626
23	0x3e146a0a	0.14493576
24	0x3ddce527	0.10785895
25	0x3ca31e89	0.019912021
26	0xbe25b990	-0.16184068
27	0xbb9118d0	-0.0044280067
28	0xbe4d985f	-0.20077656
29	0xbd220ce2	-0.039563067
30	0xbd926e35	-0.071499266
31	0x3e3fe8e8	0.1874119
32	0x3e681c03	0.22666936
33	0x3c49d523	0.012318882
34	0xbe575b02	-0.2103081
35	0x3e1b85e7	0.15187798
36	0x3dd24adc	0.102681845
37	0xbce2e482	-0.027696852
38	0x3c27b797	0.010236642
39	0xbe21ca87	-0.15799914
40	0xbcb5e46c	-0.022203647
41	0xbf013dfa	-0.50485194
42	0x3b2deb4e	0.0026537958
43	0x3d90e9ed	0.07075868
44	0x3d41d507	0.0473223
45	0xbdffad1c	-0.1248419
46	0xbc126149	-0.008934327
47	0xbcd1d837	-0.025615795
48	0x3e01d616	0.12679324
49	0x3bb3c839	0.005486515
50	0xbc48a743	-0.01224691
51	0x3d82e8e2	0.06392075
52	0xbe059705	-0.1304589
53	0xbebcc0e5	-0.36865917
54	0x3e09f7f7	0.13473497
55	0xbca96a11	-0.02068046
56	0x3dabf539	0.08396382
57	0xbd13278f	-0.035926398
58	0xbd3a2b7d	-0.04545163
59	0x3c0df554	0.008664448
60	0x3dc8cc7b	0.098046266
61	0xbe359f0d	-0.17736454
62	0xbdc13ec3	-0.09435799
63	0x3dd8a203	0.10577776
64	0xbd00ff2d	-0.031493355
65	0xbd6722d1	-0.056429688
66	0x3bc44a93	0.0059903353
67	0x3cf9b1aa	0.030480225
68	0xbc02d806	-0.007986074
69	0x3e84b7ae	0.25921386
70	0x3db9b0ca	0.09066923
71	0xbd2d534c	-0.042315766
72	0x3d6c1a90	0.05764252
73	0x3cc4200f	0.023941068
74	0xbcc7d22a	-0.024392206
75	0xbaac4d2d	-0.0013145559
76	0xbdda0d04	-0.10647014
77	0xbcb0f9a7	-0.021603419
78	0x3e2a85e6	0.1665264
79	0x3dfbea2f	0.12300526
80	0x3df6b320	0.12045884
81	0xbda5f1d7	-0.08102768
82	0xbdd42404	-0.10358432
83	0x3e283673	0.1642702
84	0x3d6dce42	0.05805803
85	0x3e215d44	0.15758234
86	0x3d00c606	0.03143885
87	0x3dddc8b1	0.108292945
88	0xbddc865e	-0.10767816
89	0x3b3684be	0.0027850117
90	0x3df76c12	0.1208116
91	0xbccbbcd3	-0.024870312
92	0x3cc6e34e	0.02427831
93	0xbd2abf14	-0.041686133
94	0x3de6c6d9	0.11268396
95	0x3bf05954	0.0073348675
96	0x3c2c3c35	0.010512401
97	0x3da496ef	0.08036601
98	0x3d3dbe2d	0.046323944
99	0x3dc50c4d	0.09621487
100	0xbe30ccab	-0.17265575
101	0x3bbfaf94	0.005849788
102	0xbcb1c2bf	-0.021699307
103	0x3ed7bc92	0.42136055
104	0xbb6b48c1	-0.003590152
105	0xbe36507a	-0.17804137
106	0xbe0fbefe	-0.14037701
107	0x3d2223cd	0.039584924
108	0x3e6a0d10	0.22856545
109	0x3ce7186a	0.028209884
110	0x3c3e5c71	0.011618719
111	0xbe26075f	-0.1621375
112	0xbaa3b032	-0.0012488423
113	0xbbbbae54	-0.0057275686
114	0x3ca8b3ae	0.02059349
115	0x3d990292	0.074711934
116	0xbe01768c	-0.12642878
117	0xbe487d9c	-0.19579166
118	0x3c19e3f0	0.009392723
119	0xbe08a197	-0.13342892
120	0x3d5ae055	0.053436596
121	0x3c754ef1	0.014972434
122	0xbd917f98	-0.07104415
123	0x39c7ddfb	0.00038121626
124	0x3e31eede	0.17376277
125	0xbc469565	-0.012120579
126	0x3d61ee78	0.055159062
127	0xbd7693dc	-0.060199603

l4.bias f4 [2]
0	0x3e78d9f7	0.24301897
1	0x3f055cbc	0.52094626
