Ablation Experiments/LSTM/DoubleDQN-QT-Reward-Delay-IR-Final/64network-lstm.pth (torch, 230875 bytes, 12 tensors)

lstm.weight_ih_l0 f4 [256, 10]
000000 6f 8d d1 bf 64 01 03 40 d1 21 ef 3f e5 cf 12 bf
       -1.6371287 2.0469599 1.8682195 -0.5734847
000010 c0 60 ee 3e ae 68 91 3f ae fa e6 be 56 41 81 bf
       0.4655819 1.1360071 -0.45113128 -1.0098064
000020 e5 5b 51 be c9 07 96 bf 00 e9 09 c1 d1 e9 97 3f
       -0.20445211 -1.1721126 -8.619385 1.186823
000030 ae 9e ad c0 80 2b c5 c0 1c 4a c6 c0 42 2d 4a 3c
       -5.42562 -6.16156 -6.1965466 0.012339892
000040 6b 28 07 bf 79 76 3b c0 32 86 af be 9c 54 b2 3e
       -0.5279605 -2.929106 -0.3428207 0.34830177
000050 7e 6b 3c bf 4c 46 16 3e d9 e0 a0 be 5e c5 28 be
       -0.7360152 0.14675254 -0.31421545 -0.1648154
000060 3d a7 c2 be dd f9 1f 3f 57 77 59 3f 63 74 0e bf
       -0.38018218 0.62490636 0.84947723 -0.5564634
000070 a9 0e 6d bf 42 80 1d bf bd 8b 02 bf eb 04 80 40
       -0.92600495 -0.6152383 -0.50994474 4.0006003
000080 50 53 e3 3e 7a e6 bd 40 e4 0a 95 40 d7 7d 82 3f
       0.443995 5.9343843 4.6575794 1.0194653
000090 e7 19 bb 3f ad 24 a4 bf 0e 1e a5 be a0 54 27 bf
       1.461728 -1.2823693 -0.32249492 -0.653635
0000a0 16 a5 5f c0 7b 95 d6 bf 5c 79 60 c0 0b 16 85 c0
       -3.494451 -1.6764368 -3.5074072 -4.158941
0000b0 94 d8 ab c0 c5 9e bc bf 62 a4 97 bf a7 42 81 3d
       -5.3701878 -1.4735953 -1.1847041 0.06311541
0000c0 b0 cc 94 3e b1 b4 8a 3d 6b c9 a6 c0 a5 06 d2 40
       0.29062414 0.067727454 -5.212087 6.563311
0000d0 6a 43 3e c0 91 a2 8c 40 96 d0 81 40 cb 0c 15 40
       -2.9728646 4.3948445 4.056712 2.3289058
0000e0 ea f9 5d 3f cb 08 37 c0 49 a3 ec be 1b e5 08 3f
       0.86709464 -2.8599117 -0.46218327 0.5347459
0000f0 5a 88 84 3e 13 6f 86 3e cf e6 09 3e 09 98 19 3f
       0.25885278 0.26256618 0.13466953 0.5999761
000100 4e 5e d0 3e 0b 4e 66 3d ed d3 0d 3f a5 5d 00 bf
       0.4069695 0.05622677 0.554015 -0.5014289
000110 ec 0a 3f be 28 7e 39 bf 87 06 0d 40 23 6a e3 bf
       -0.1865651 -0.72458124 2.2035234 -1.7766765
000120 a9 b1 c8 3f c1 18 49 3e f3 b3 f2 be e5 ed 5c 40
       1.5679218 0.19638349 -0.47402915 3.45202
000130 c9 c2 39 40 1d 96 55 bf 6c 0c 29 bf 76 e8 14 c0
       2.9025137 -0.8343218 -0.6603458 -2.3266883
000140 fd 16 82 bf 3d 11 5b 40 a9 12 4d be 88 2f 2f 40
       -1.0163265 3.4229271 -0.2002665 2.737276
000150 29 5d 07 40 f8 47 cb 3f 35 a0 be 3d 72 a1 8b c0
       2.115061 1.5881338 0.09307901 -4.3634577
000160 5d 64 e0 be 0c 54 9d 3e 2b 9a 8a be 0b 48 49 be
       -0.4382657 0.30728185 -0.27070746 -0.19656388
000170 67 5f f1 3d 87 fb 54 be 6b 77 d2 be 41 39 bb be
       0.11785775 -0.20799075 -0.41106734 -0.3656712
000180 56 70 2d 3f a5 6e ef be 21 49 11 bf e4 60 9c bf
       0.67749536 -0.46764103 -0.5675221 -1.2217069
000190 27 a6 86 be 7c 9f 9d 3f 3d c9 24 3f 1c 50 53 3f
       -0.2629864 1.2314296 0.64369565 0.8254411
0001a0 4c 44 38 3f 0b ca 51 be bf 6f 91 bf 06 4b 53 bf
       0.7197921 -0.2048723 -1.1362227 -0.8253635
0001b0 df b0 82 bf bc d1 fb be 4a fb 1d 3f 6e 89 26 3f
       -1.0210227 -0.49183452 0.6171156 0.6505345
0001c0 16 58 4d bf 1b 40 21 40 26 ab 03 40 96 ee 08 40
       -0.80212533 2.5195377 2.057321 2.1395621
0001d0 c8 ff 40 40 1f 05 e7 be d0 a6 de be d1 57 b0 bf
       3.0156116 -0.45121095 -0.43486643 -1.37768
0001e0 e3 e7 90 be 93 92 82 3d 4c 8f 7e bf 9c 21 6b bf
       -0.28301916 0.06375613 -0.99437404 -0.9184816
0001f0 b2 53 e2 3d 65 e8 23 bf 19 09 93 bf 8e 82 41 bf
       0.1105112 -0.6402648 -1.1487151 -0.75589836
000200 6c c3 27 3f d2 2a 86 3e 17 bb 5d bf b2 fb 74 3d
       0.65532565 0.26204544 -0.866136 0.059810348
000210 b1 b7 55 be bb a7 a4 be 72 13 e3 be 0c 11 c8 3d
       -0.20870854 -0.32159218 -0.44350773 0.097688764
000220 24 7c bc 3d a3 ab 1b bf 1a f8 7b bf f2 d1 8f bf
       0.092033654 -0.6080877 -0.9842545 -1.1235945
000230 72 b6 e0 bf bf c8 23 3f 19 69 42 3f 40 4b a3 bf
       -1.7555678 0.6397819 0.75941616 -1.275734
000240 98 ac ae bf 33 9f c9 bf 76 ee f2 bf 77 d1 0c c0
       -1.3646421 -1.5751709 -1.8979023 -2.2002847
000250 e1 98 f1 bd 5d cb 35 bf cf 4a 22 bf 34 44 2e 3e
       -0.117967375 -0.7101343 -0.633954 0.17018205
000260 0a 5b 65 be ec c8 5a bb 91 3e 32 bc ab cf b9 be
       -0.2239801 -0.003338392 -0.010879175 -0.3629125
000270 a4 01 17 3f f0 9e 37 bf 79 d5 29 bf e7 96 73 bf
       0.5898688 -0.71726894 -0.6634136 -0.95152134
000280 5b 2f e1 3e 85 b3 fd 3e 58 ad 97 bd 80 0a ab 3f
       0.43981442 0.49551025 -0.074061096 1.3362579
000290 25 1d 58 3f 1f 46 43 bf 9c 9f a0 bf 1b d6 bb 3f
       0.8441947 -0.7627887 -1.2548709 1.4674715
0002a0 50 8c 68 bf e0 e6 df be a1 8e 1e bf 41 2a c5 3e
       -0.908391 -0.4373083 -0.61936384 0.385088
0002b0 5a e1 92 be 4a e0 b5 3e f4 3d 54 be d0 c2 57 3f
       -0.28687555 0.3552268 -0.20726758 0.84281635
0002c0 32 e8 1e 3e 76 11 2e bf 91 08 3e bf bc 88 6d bf
       0.15518263 -0.67995393 -0.7423182 -0.92786765
0002d0 85 24 40 c0 31 fe d9 3e 73 27 04 3f bd 23 28 c0
       -3.002229 0.42576745 0.51622695 -2.6271813
0002e0 e7 39 68 bf cb 8d bc bf 22 09 4b c0 45 3e 8a c0
       -0.9071335 -1.4730772 -3.1724324 -4.3201013
0002f0 e8 a2 b3 bf f7 cf 6d bf f4 c7 72 c0 87 ba 8a 3f
       -1.403409 -0.92895454 -3.7934542 1.0838174
000300 3b 7e 43 c0 6a 45 33 bf 14 22 cf bf 4c fa ba 3d
       -3.0545795 -0.7002779 -1.6182275 0.091297716
000310 77 29 c8 3e 6a 83 13 c0 b5 3f 47 bf 90 be bf bf
       0.39094135 -2.3048959 -0.77831584 -1.498003
000320 ef 91 70 be 6d 53 d9 be d8 2a 94 3f 7c d1 1a bf
       -0.23493169 -0.4244646 1.1575575 -0.604759
000330 db 66 53 bf 55 5f 3a bf e0 58 68 be 99 a3 5b 3e
       -0.8257882 -0.72801715 -0.22690153 0.21449126
000340 69 0b 32 bf 1b ad 9f bf b0 25 28 c0 95 db a1 bf
       -0.6954866 -1.2474703 -2.6273003 -1.2645136
000350 33 c6 cc be 48 01 07 c0 f5 26 11 c0 03 83 b1 bf
       -0.39994964 -2.1094532 -2.2680027 -1.3868107
000360 28 22 14 c0 c2 c7 03 3f da a3 44 bf 42 1d 3a bf
       -2.3145847 0.5147668 -0.7681252 -0.72700894
000370 e1 55 46 be 7e 52 b1 3e d0 f7 16 3e a7 dc 37 3e
       -0.19368698 0.3463325 0.1474297 0.17955266
000380 10 c5 84 3e 33 42 09 40 e8 73 8f 3f 44 53 0e bf
       0.25931597 2.1446655 1.1207247 -0.55595803
000390 2b 07 2c bf 7d 7b 90 bf 24 9a 6e c0 dd 0f 26 40
       -0.6719844 -1.1287686 -3.728158 2.5947182
0003a0 c5 45 9a 3e 28 2e 40 c0 08 5f 6a be 89 e4 0b c0
       0.30131355 -3.0028172 -0.22887814 -2.1858237
0003b0 be 33 04 c0 d1 97 46 c0 64 bd 3f 3c c3 1b 83 3e
       -2.065658 -3.1030161 0.011702869 0.25607118
0003c0 2b 7a 34 3c 76 04 be be d8 4e 11 be 24 f5 12 bf
       0.011015455 -0.37112778 -0.14190233 -0.57405305
0003d0 e0 0e 47 be 08 b1 ab bd 08 da ef 3d d9 f8 30 3e
       -0.19439268 -0.083833754 0.11711508 0.17282428
0003e0 33 94 f1 3d 05 69 ac 3e 80 c7 8a bf 69 fd ac bf
       0.11795845 0.33673874 -1.0842133 -1.3514835
0003f0 5e 60 ad bf a9 7d db bf 82 bc c3 bf 24 c1 ce 3f
       -1.3545034 -1.7147723 -1.5291903 1.6152692

lstm.weight_hh_l0 f4 [256, 64]
000000 5e 8d 6d 3f 88 a9 ce 3e 1c b0 a3 3e 9e e9 79 bf
       0.92793834 0.40363717 0.31970298 -0.97622097
000010 68 2c 1e 40 6d 74 46 3f 40 6d 7b be 32 a3 f6 bd
       2.4714603 0.775214 -0.24553394 -0.12042846
000020 28 c9 33 bd 53 fc af 3e 18 a7 8d bd 9e 3c 0b 40
       -0.04389301 0.34372196 -0.06916636 2.1755748
000030 b4 a8 10 be 3c fe 93 3e a8 6e ae bf e3 48 53 3f
       -0.14126855 0.28904903 -1.362752 0.8253309
000040 3e 69 ca be 5f c3 ac be ba ac 08 c0 e5 b3 5c 3f
       -0.39533418 -0.33742806 -2.1355424 0.86212
000050 4f ce 39 be 3b ac 10 be e7 98 0a 3f d9 02 c9 3f
       -0.18145107 -0.141282 0.5413956 1.5703994
000060 b2 ff ee be eb e8 d4 3e 0e 17 0f c0 0d 0b 97 bf
       -0.46679455 0.41583952 -2.2357821 -1.1800247
000070 65 ef a3 3f d4 2d 02 bf 2c c4 d3 bd 92 a3 05 40
       1.2807432 -0.5085118 -0.10340151 2.0881085
000080 21 45 2c 3f 38 8b 3c 40 8a 7f 9d 3d 53 8b d4 bd
       0.6729298 2.9459972 0.07690342 -0.103781365
000090 d6 b5 a4 bf 90 28 0b 3f 04 d5 a2 3f bd b8 0d 3e
       -1.2867992 0.5435877 1.2721257 0.13840003
0000a0 49 3d cd 3e ae 62 58 bd d5 59 fe be c5 13 8b bf
       0.4008582 -0.052828483 -0.4967791 -1.0865408
0000b0 af ae 0b 3e a4 ba ec 3e 9e 6b 3e 40 6d 0f db be
       0.13640855 0.46236145 2.9753184 -0.42785206
0000c0 75 6c 00 bf 22 17 b7 be 4c 7c 87 bf f9 31 25 bf
       -0.5016549 -0.35759836 -1.0584807 -0.6452938
0000d0 97 93 0f c0 ba e2 a4 3d 0b 2f 91 3c a2 0c b5 3e
       -2.2433832 0.08051057 0.017722627 0.353612
0000e0 15 d9 e6 3e 9c b1 6e be f3 76 96 bf 7e 72 ae be
       0.45087495 -0.2330994 -1.175505 -0.34071726
0000f0 bf cc a9 bf 4e aa 2c 3f ec b2 59 3f 2d 9c 25 3e
       -1.3265609 0.67447364 0.8503864 0.16172858
000100 40 0d 05 3f a0 5f 5c bf 9b 7b 80 3d 09 de 2f 3f
       0.5197334 -0.8608341 0.06273576 0.68698174
000110 8c 62 8c 3f ab 84 cc 3e e5 b1 dc be 27 34 29 3f
       1.0967574 0.39944968 -0.43104473 0.66095203
000120 d1 a4 5b bf e9 fe 7a 3e b7 c4 a7 3e e9 5e 7a be
       -0.85798365 0.24511303 0.3276727 -0.24450268
000130 14 d9 51 3f cd 32 18 3f ae 79 44 bf 63 0b 0f bd
       0.8197186 0.59452516 -0.7674817 -0.03492297
000140 e8 59 5b 3b 53 17 4f bf b0 5e d6 3e a5 02 5a bf
       0.0033470336 -0.80894965 0.41869116 -0.85160285
000150 ee 2c 22 be 23 81 b1 3f b4 89 a3 3f b5 13 e4 be
       -0.15837452 1.3867534 1.2776399 -0.44546285
000160 62 94 95 3e 1a 74 a8 3f 82 84 d6 3e 1d 31 c3 bf
       0.2921477 1.3160431 0.4189797 -1.5249363
000170 2a e4 85 3f d5 a2 c9 3e 4d 67 60 bf fe ed 1b 40
       1.0460255 0.39382043 -0.87657624 2.436401
000180 d7 3a 81 be d2 ee f3 3f a9 b7 6f 3e bf dd 34 bf
       -0.25240204 1.9057257 0.23409905 -0.7065086
000190 32 ef 32 bf ca 55 9c 3f f5 7c 60 bd b5 60 65 3f
       -0.69896233 1.2213681 -0.05480667 0.8960069
0001a0 c3 0c b7 3f c7 4c 4a 3d c0 23 95 3f d3 76 b9 be
       1.430077 0.049389627 1.1651535 -0.36223468
0001b0 0a bf 11 bf 52 f4 24 be 3d 97 e2 3f ac 0c 50 be
       -0.5693213 -0.16108826 1.7702404 -0.20317334
0001c0 93 16 2e 3f d7 27 e6 be 20 f4 54 bf 0e 4d 42 bf
       0.68003196 -0.4495227 -0.83185005 -0.75898826
0001d0 9d 18 14 bf d7 6a b8 bf fc 00 af 3e 1f e0 55 3f
       -0.57850057 -1.4407605 0.3418044 0.83545107
0001e0 9c 33 8f 3f 06 98 0f bf 96 f2 a5 bf 6f f0 99 3f
       1.1187625 -0.56091344 -1.2964656 1.20265
0001f0 7d ef 13 c0 52 8d 16 bf 0b 97 7e 3e 54 27 f5 3e
       -2.3114922 -0.5880939 0.24862306 0.47881567
000200 9c e7 72 3c e5 09 fd be 2c f0 20 be 40 9b 82 bf
       0.014825728 -0.4942161 -0.15716618 -1.0203629
000210 30 d0 02 3f 49 db ec be e1 41 84 3e 20 02 ac bf
       0.5109892 -0.4626105 0.25831512 -1.3438148
000220 5c 74 73 be 06 c3 76 3e 3b 0d 44 3e 43 0a d5 be
       -0.23774856 0.24097833 0.19145672 -0.41609392
000230 2e e0 ee 3e 07 1d 19 3e 47 78 04 be 8b c5 6c 3e
       0.4665541 0.1495248 -0.12936507 0.23122232
000240 b9 33 80 be 08 e8 0e 3d c8 e6 07 be 1c 51 5a 3f
       -0.2503946 0.03488925 -0.1327163 0.85280013
000250 0e 69 b9 be ae 2d c4 3e 8d e2 70 3e ee 6a 9b bf
       -0.36212963 0.383161 0.23523922 -1.2142007
000260 05 63 66 bf ce 07 7d 3e 30 28 64 bf 52 38 a1 bf
       -0.8999484 0.24710009 -0.8912382 -1.2595313
000270 25 97 1f 3f a3 38 24 3f c5 d0 57 bc 61 86 a6 bf
       0.62340003 0.6414892 -0.013172333 -1.3009759
000280 70 83 0e 3e d6 5a 91 bc e3 a2 19 be 45 97 43 3e
       0.13917327 -0.01774351 -0.15003543 0.19100673
000290 6e fc 18 bf e9 f0 05 bf ae 67 88 3e 20 4c 22 bc
       -0.5976018 -0.52320725 0.266416 -0.009905845
0002a0 63 40 d7 3d 65 2c d2 3d 82 18 0e bc 85 fe 8e be
       0.10510328 0.10262374 -0.008672835 -0.27928558
0002b0 34 24 9f 3e 8a 62 9e 3e c8 b0 2a bd 78 ff 91 3d
       0.31082308 0.30934554 -0.041672498 0.07128805
0002c0 0d 3b 4b bf 1e a2 9b 3d 50 2f 6e be 09 31 4b 3f
       -0.7938698 0.07599281 -0.23260236 0.79371697
0002d0 ce d4 13 3f 78 5b 0d bf 12 a8 53 bf 81 64 30 3c
       0.5774659 -0.55217695 -0.8267833 0.0107661495
0002e0 95 ca eb bb cc cf ce 3d 44 29 24 3e 76 31 80 3e
       -0.0071957805 0.10098228 0.16031367 0.25037736
0002f0 26 38 00 3f 9e b1 b8 3e a3 35 95 bf 46 5b 0a be
       0.50085676 0.3607301 -1.1656994 -0.1351138
000300 9e 29 b6 be c9 70 b1 3f 0a 20 37 3e 14 31 95 3f
       -0.35578626 1.3862544 0.17883316 1.1655602
000310 c1 50 17 bf f5 a0 da 3f 95 97 9d be b9 df db bc
       -0.59107596 1.708037 -0.3077971 -0.026840078
000320 1e 9e db 3e 6d 07 8a 3e 86 24 89 3e b9 b5 4c 3e
       0.4289407 0.2695879 0.26785678 0.19991197
000330 2c 91 26 3f 71 1e c2 3e 50 05 d8 bf de ae bc 3e
       0.65065265 0.3791385 -1.6876621 0.36852163
000340 bb 1d f9 3e 0c a9 9f be 2c 05 04 be 6a ec 24 3e
       0.48655495 -0.3118366 -0.12892598 0.1610581
000350 4f b3 c8 bd cf 7c 3f 3d c7 19 3b 3f 3a ab b5 be
       -0.097998254 0.046749886 0.7308621 -0.35482198
000360 7e d9 d6 3e 0c 3f 40 bf ac 80 80 bf c1 87 88 bf
       0.41962808 -0.750962 -1.0039268 -1.0666429
000370 b7 56 e1 3d 2c 24 d2 3d f6 45 97 bd f7 02 bf 3e
       0.11002868 0.102608055 -0.07386391 0.3730695
000380 4b fe 01 bf 94 bf 1a 3f 46 80 8b bf 4e 1f 89 3c
       -0.50778645 0.60448575 -1.0898521 0.01673856
000390 2b 00 9d bf 1a 4e 68 be 5c b3 c8 3d 29 98 fa 3e
       -1.2265676 -0.22686043 0.09799835 0.48944214
0003a0 92 47 6b 3f 13 43 99 be 60 1f b5 3e a5 6b cd 3d
       0.9190608 -0.29933986 0.353755 0.10030297
0003b0 1d 2a 7e bc 35 d8 76 3f 29 04 95 3f be da 55 bf
       -0.01551297 0.96423656 1.1641895 -0.835369
0003c0 5e 73 ed 3e ef b3 c2 bf fe af 14 bf 7c 61 1e 3f
       0.4637708 -1.5211161 -0.5808104 0.618675
0003d0 f1 41 64 bf a8 0b 96 3f a2 11 36 be f2 9a b1 be
       -0.8916312 1.1722307 -0.17780164 -0.34688526
0003e0 ed 28 77 bd da bb 2a bf 85 87 25 c0 23 2c 9d 3f
       -0.060341764 -0.6669289 -2.5863965 1.2279094
0003f0 33 20 a5 bf 93 fc 2e bf 99 8d 9f be 3c 0d 0e 3f
       -1.2900451 -0.6835415 -0.31162718 0.55488944

lstm.bias_ih_l0 f4 [256]
000000 6d 1a e0 be 0d d7 0c bf 21 41 59 bf f4 c9 14 bd
       -0.4377016 -0.5501564 -0.84865004 -0.03632541
000010 1c cb 1a bf 63 2d 54 be 21 02 11 bf eb 31 53 3e
       -0.6046617 -0.20720439 -0.56643873 0.20624511
000020 0b 60 d0 be 54 c4 12 bf 83 0a 65 bf f0 8f 74 be
       -0.40698275 -0.5733082 -0.89469165 -0.23883033
000030 0c 15 01 3e 14 34 04 bf b1 a0 71 be 5b a0 ed be
       0.12605685 -0.51641965 -0.23596455 -0.46411404
000040 05 68 b2 be 19 c6 2f bf 96 c6 87 bf 6c fa 66 be
       -0.34844986 -0.6866165 -1.0607479 -0.22556466
000050 f0 e0 28 bf 69 fb 0c bf 4d f6 9c be 76 22 0b bf
       -0.6596823 -0.5507112 -0.30656663 -0.5434946
000060 77 0a e0 3e 32 b6 3b be d1 ab bf 3e 83 01 56 be
       0.43757984 -0.18331221 0.37435773 -0.20899014
000070 1d e0 15 bf 11 1c 56 3e 31 02 09 bf 8c 8e 49 3e
       -0.58545095 0.20909144 -0.5351897 0.19683284
000080 68 67 0a 3e b3 53 ae bd a5 09 00 bf 59 73 24 bf
       0.13516009 -0.08512058 -0.50014716 -0.64238507
000090 dd b8 49 be fa a9 5e bf d9 33 30 bf 80 09 08 bf
       -0.19699426 -0.86978114 -0.68829113 -0.53139496
0000a0 49 cc 2b bf 6a 1f 4f 3c eb a7 b1 be f0 52 31 bf
       -0.6710859 0.012641767 -0.34698424 -0.6926718
0000b0 ac 0e 1e bf 4a 93 e5 be 81 71 c3 be c7 4c 03 bf
       -0.6174114 -0.44838935 -0.38172534 -0.5128903
0000c0 52 ad aa be 73 ca 5d bf ba 72 5c bf 7e fe c0 be
       -0.33335358 -0.8663704 -0.8611256 -0.37694162
0000d0 87 46 54 be ad 86 b9 be 2b 96 04 3f 55 c0 51 bf
       -0.20730029 -0.36235562 0.5179164 -0.819341
0000e0 0d b7 b4 be c4 2b fc be 84 f6 79 3e 18 c1 4c be
       -0.35295907 -0.4925214 0.24410444 -0.19995534
0000f0 a3 a2 45 3d e8 02 c0 3e 29 e2 9c be f3 25 31 bf
       0.048250806 0.37502217 -0.30641297 -0.6919853
000100 fa a5 1f bf 90 69 fb be 59 88 0c bf 27 de 9d 3d
       -0.62362635 -0.49103975 -0.5489555 0.07708388
000110 88 85 b1 3e 57 58 4f bd bd 68 07 bf df cd d6 be
       0.3467219 -0.050621357 -0.5289419 -0.41953942
000120 f4 f8 ea be 63 c5 ca be 9b 30 cf be bd 6e e3 bd
       -0.4589306 -0.3960372 -0.4046677 -0.11105106
000130 f6 0f 03 bf 38 7f e4 be b5 1e 59 bf f2 7d 0a be
       -0.5119623 -0.4462831 -0.8481248 -0.13524607
000140 c7 09 c4 be 73 09 4d bf 58 42 a7 bf 96 93 1f bf
       -0.3828871 -0.80092543 -1.3067122 -0.62334573
000150 b8 af 0c bf 13 0e f9 be f6 bd 1c bf 6f de 81 be
       -0.54955626 -0.4864355 -0.6122736 -0.25365016
000160 3d 5c 08 3f 11 a6 fe be 5a ae 5e be 5b fb 05 bf
       0.53265744 -0.49736074 -0.21746197 -0.52336663
000170 bc 40 4a bf a7 1e df 3e c6 1a f1 be c8 6c 1d bf
       -0.79005027 0.43578073 -0.4709074 -0.6149411
000180 6e 04 49 3f eb 7b a1 3e 58 e0 30 bf f2 9e bd be
       0.78522384 0.31539854 -0.6909232 -0.37035328
000190 16 cf c5 be c2 96 a0 be f2 c8 8a bf 86 fa ab be
       -0.38634557 -0.3136502 -1.0842574 -0.33589572
0001a0 8e e3 2e bf d9 90 ed 3e 57 ed dd be f2 7e 18 bf
       -0.6831597 0.46399572 -0.43345138 -0.59568703
0001b0 7d 9e 56 bf c1 63 85 be bd 82 c0 3d ed 8e ec be
       -0.83835584 -0.2605267 0.09399936 -0.46202794
0001c0 87 47 03 bf 39 6b 31 bf 40 06 f3 be 12 19 6f bf
       -0.5128102 -0.69304234 -0.47465706 -0.9339763
0001d0 c6 65 81 bf 16 f5 42 bf 4f e1 ee 3d 2b 02 65 bf
       -1.0109184 -0.7615522 0.11664068 -0.89456433
0001e0 45 63 a1 3e 15 4a 21 bf 1f eb 53 bf 47 53 bf 3d
       0.3152105 -0.63003665 -0.8278064 0.09342056
0001f0 cc d2 ad 3e 3f ad 9f 3e ea 88 06 bf 29 ba 45 be
       0.33949888 0.31186864 -0.52552664 -0.19309296
000200 3f ae df 3e 7b 82 ed 3e 1f 2a 7e 3d 35 9c 38 bd
       0.43687627 0.4638861 0.06205189 -0.045070846
000210 0a b3 88 be 30 4c 08 3f 17 73 30 bc ad 4b 0c 3f
       -0.26699096 0.5324125 -0.010769627 0.5480297
000220 6c d3 9c 3d 6f 6e df bd 32 72 41 be 8e 35 8c 3e
       0.07657513 -0.109097354 -0.18891218 0.2738461
000230 b2 55 aa 3e fe 4b 57 be 1f d9 95 3d 82 39 55 bd
       0.33268505 -0.21025082 0.07316803 -0.052056797
000240 32 19 c0 3d 08 cb 2e 3d ea 3f da be eb 42 1e bf
       0.093798056 0.042674094 -0.42626888 -0.6182086
000250 b8 be 0c 3f bf 2b 22 be d0 f4 4f 3e d0 92 a9 bd
       0.54978514 -0.15837 0.20308232 -0.082799554
000260 e2 01 67 3e 13 65 65 3e 4c 3e 94 3e 23 7b f8 3d
       0.22559312 0.22401838 0.2895378 0.121328615
000270 56 28 8d 3c 31 c4 6c be 67 33 1d 3d 90 f2 16 3e
       0.017231148 -0.23121716 0.0383791 0.14740968
000280 6a fe 2e be 37 4e a1 3e 1c cd 5a be c6 19 9c bd
       -0.17089239 0.31504986 -0.21367306 -0.076221034
000290 fd a6 d0 3e 7d c2 80 3e 2f 0c c6 be 68 a7 01 3b
       0.40752402 0.25148383 -0.3868117 0.001978362
0002a0 fb 39 06 3e 59 7e 3c 3d 5e 97 67 bd 87 e6 76 bd
       0.13108055 0.046018932 -0.05654084 -0.06027844
0002b0 37 61 c1 bc f6 8a 6b be 62 b1 bf be 4e 6d fd 3d
       -0.023605926 -0.23002228 -0.3744002 0.12374364
0002c0 52 7d 89 be d7 38 2c bd a6 07 3b be a3 fe 85 bd
       -0.26853424 -0.042046394 -0.18264636 -0.06542709
0002d0 c3 1f 7e 3e 80 11 ac be 4b ee 33 3f d6 ef ca 3e
       0.24816804 -0.336071 0.7028548 0.39636105
0002e0 d0 14 8b 3e 26 3a bd 3e 2e 62 01 3f 20 ff 58 bf
       0.27164316 0.36958426 0.50540435 -0.8476429
0002f0 18 17 ac 3e 58 6c e0 3c b9 9e f6 3e 74 9b 3a be
       0.3361137 0.027395412 0.4816797 -0.18223363
000300 83 32 c8 be bc 15 f3 3d ec 85 4e bf bf 8e 0e be
       -0.39101037 0.1186938 -0.806731 -0.13921641
000310 24 c2 8a be a5 7a 1d be db 2c 40 bf f9 63 b4 bc
       -0.27101243 -0.15378816 -0.75068444 -0.022020327
000320 01 c3 f3 be 8e 7b 1b bf c8 75 88 bf 61 5c af be
       -0.47609714 -0.60735404 -1.0660944 -0.34250167
000330 ef 23 60 bd 55 94 d1 3e dd 94 2a bd ea b6 f3 be
       -0.05472177 0.4093348 -0.041645873 -0.4760049
000340 4a 0f e3 be 5c 40 4f bf 83 74 60 bf 7f c3 ee be
       -0.44347602 -0.8095758 -0.8767778 -0.46633527
000350 89 20 53 bf 04 06 15 bf 08 d4 d3 be e1 ff 5b 3e
       -0.8247152 -0.58212304 -0.41372705 0.21484329
000360 2a 75 50 bf c8 12 15 be 10 83 18 3f 72 67 80 be
       -0.8142878 -0.14557946 0.59574986 -0.25078923
000370 0f 8a 09 bf 1f 7c 69 bf 2a a9 4e bf 93 1b a7 3d
       -0.53726286 -0.9120502 -0.80726874 0.08159556
000380 5f ae ed be 59 9f a3 bc 47 0f 08 bf 86 ef 33 bf
       -0.46422097 -0.019973444 -0.5314831 -0.7028736
000390 a7 a3 fb be 14 bf 28 bf c0 ec 5d bf 85 04 0e bf
       -0.49148294 -0.6591656 -0.86689377 -0.55475646
0003a0 55 a5 4e bf b3 03 61 bf 98 b5 6b bf 2e 1a 9a be
       -0.80721027 -0.8789627 -0.92073965 -0.300981
0003b0 6f c0 91 bf 4a 0c d5 be 08 2c 3a bf 5b 6b 1a bf
       -1.1386851 -0.41610938 -0.72723436 -0.6032006
0003c0 c3 10 92 be 66 bf 73 bf c6 b8 7d bf 9d 62 af be
       -0.28528413 -0.95213926 -0.99110067 -0.34254923
0003d0 fc 58 eb be 46 77 8e be af f9 9b bc ae 41 11 bf
       -0.45966327 -0.27825373 -0.019039957 -0.56740844
0003e0 81 62 f8 be 0e ca 0f bf 6d 6c e2 3c 32 52 88 bf
       -0.48512653 -0.56167686 0.027639592 -1.0650084
0003f0 44 40 e2 be 4d 7b 3f bf 20 a8 df 3b c1 e5 3d bf
       -0.44189656 -0.7479752 0.006825462 -0.741787

lstm.bias_hh_l0 f4 [256]
000000 80 e8 04 bf 16 f9 ed be bd 98 4b bf 73 dd 0a bd
       -0.51917267 -0.464791 -0.79529935 -0.033902597
000010 b1 fd 21 bf c8 33 74 be 53 2f 0c bf 9a 96 d9 3d
       -0.6327773 -0.23847878 -0.5475971 0.10624428
000020 01 8f aa be 54 a2 2b bf 72 ae 3f bf 7a 38 a4 be
       -0.33312228 -0.6704457 -0.7487556 -0.32074338
000030 06 be 63 bd aa 55 17 bf 2c e2 41 bd 69 e5 f9 be
       -0.055601142 -0.5911509 -0.047334835 -0.4880784
000040 5f 7b ad be 1c 20 5f bf 86 e9 81 bf 5c 0e d8 be
       -0.33883187 -0.8715837 -1.0149391 -0.42198455
000050 26 6d 0d bf 8d 52 34 bf 1a c0 c4 be 5f 04 ce be
       -0.5524467 -0.7043846 -0.38427812 -0.4023771
000060 db dc b9 3e de 59 ac bd d9 42 b2 3e c0 6b 66 bd
       0.36301312 -0.08415578 0.34816626 -0.056255102
000070 6a fb ce be eb e6 8f 3e 8d c8 04 bf 8b 9d 83 3d
       -0.4042619 0.28105864 -0.51868516 0.06426533
000080 f9 7c 58 3e ae a8 21 be ef c8 c1 be 94 ab 25 bf
       0.21141423 -0.15787002 -0.37848613 -0.6471493
000090 9e 19 a6 be b2 1c 5f bf 60 3c 35 bf f1 cc 02 bf
       -0.3244142 -0.8715316 -0.7079525 -0.51093966
0000a0 9e 15 3e bf 9c a1 05 be ba c6 ca be 76 ea 1b bf
       -0.74251735 -0.1304993 -0.3960474 -0.60904634
0000b0 72 f3 ff be a8 67 fd be ce 04 5a be f8 09 19 bf
       -0.49990422 -0.49493146 -0.21290895 -0.59780836
0000c0 92 eb c8 be 2f d2 85 bf fe 76 84 bf d6 a5 aa be
       -0.39242226 -1.0454768 -1.0348814 -0.33329648
0000d0 8b be e2 be 58 64 9f be fd 24 f4 3e 61 2f 75 bf
       -0.44285998 -0.31131244 0.4768447 -0.9577542
0000e0 de bb a6 be 25 ac ff be 54 f6 a1 3d fd 93 9f bb
       -0.32565206 -0.49936023 0.079083115 -0.0048699365
0000f0 08 c0 01 3b a4 e5 8a 3e de cf c3 be 17 1a 5d bf
       0.0019798297 0.27128327 -0.38244528 -0.86367935
000100 fd 18 da be 92 98 00 bf 32 c1 05 bf b9 30 79 3d
       -0.4259719 -0.50232804 -0.5224792 0.06083748
000110 3f 38 6e 3e 1e c8 b5 39 65 d3 0a bf bf 74 a1 be
       0.23263644 0.0003467211 -0.5422881 -0.31534383
000120 3f 41 d4 be f5 fc e0 be 9f 53 09 bf 6b fd 40 be
       -0.4145603 -0.4394299 -0.5364322 -0.18846671
000130 61 24 ae be ba cc 9f be 93 08 70 bf 83 9e f0 bd
       -0.3401213 -0.3121088 -0.93763083 -0.11748984
000140 98 95 88 be 4e f5 4a bf 9e f1 96 bf b0 b6 34 bf
       -0.2667663 -0.79280555 -1.1792486 -0.7059126
000150 97 8e 37 bf 16 d2 ad be ec 84 28 bf 69 08 14 be
       -0.7170195 -0.33949345 -0.6582782 -0.14456333
000160 97 bf 30 3f b5 55 19 bf 68 78 83 be 4e ce e8 be
       0.6904234 -0.59896404 -0.256778 -0.45469898
000170 1b e7 48 bf 30 e1 02 3f 58 73 95 be d9 5d 1d bf
       -0.7847764 0.5112486 -0.29189563 -0.61471325
000180 c9 d2 19 3f 42 59 5a 3e aa 76 35 bf 88 cf 72 be
       0.6008726 0.21323112 -0.7088419 -0.2371198
000190 d9 2b af be b4 68 80 be 61 f2 78 bf fd df cf be
       -0.3421314 -0.25079882 -0.9724484 -0.40600577
0001a0 92 ab 08 bf f6 b5 d0 3e d6 b7 02 bf 18 da fd be
       -0.53386796 0.40763825 -0.5106176 -0.49580455
0001b0 6e c6 68 bf 6c 50 cf be 98 18 cf 3c e3 fb df be
       -0.9092778 -0.40491045 0.025280282 -0.43746862
0001c0 c0 ab 02 bf 54 d4 2c bf 08 bd fc be 47 21 76 bf
       -0.5104332 -0.67511487 -0.4936297 -0.9614453
0001d0 d0 76 90 bf 1b f0 54 bf 1b 0f 5a 3e 57 00 78 bf
       -1.1286259 -0.8317887 0.21294825 -0.9687552
0001e0 b6 f0 ce 3e f6 e4 16 bf df ef 5a bf 36 43 14 3e
       0.40418023 -0.58943117 -0.85522264 0.14478764
0001f0 a1 83 ad 3e 10 64 aa 3e 5e 2b 33 bf d7 92 77 be
       0.33889487 0.33279467 -0.6998805 -0.24177109
000200 18 41 cd 3e ca 0e 01 3f 40 0d aa 3d 1b 42 2b bd
       0.40088725 0.5041319 0.083033085 -0.04181109
000210 26 7b b7 be fc 2f 00 3f 37 42 95 3c cb 4b 1f 3f
       -0.35836142 0.5007322 0.01822005 0.62225026
000220 5b b5 87 3d 14 ac 86 be 40 08 f8 bd 1b 39 a0 3e
       0.06626388 -0.2630316 -0.121109486 0.31293568
000230 ac 6f e8 3e fb af 79 be c2 20 c2 bd 30 d9 26 be
       0.453977 -0.24383537 -0.09478904 -0.16293788
000240 78 38 58 3e f8 bf 01 3e ac dd 9c be 13 18 20 bf
       0.21115291 0.12670887 -0.30637872 -0.62536734
000250 91 e3 ce 3e 36 70 0c be d9 f9 58 3e 2a 9d 86 3d
       0.40407994 -0.1371468 0.2118906 0.065729454
000260 d9 71 23 3e 63 8a d6 3c 3b 70 f8 3e 83 a5 84 3e
       0.15961398 0.026189035 0.48523125 0.25907525
000270 eb be 06 3e e5 d1 85 be 82 a8 90 bd 17 b7 63 bd
       0.13158767 -0.261367 -0.0706339 -0.05559453
000280 6f 2c 5e be 6e 6d a3 3e 7f 2b ea bd 22 d8 5e be
       -0.21696638 0.31919426 -0.114340775 -0.21762136
000290 99 e0 d7 3e 19 c8 06 3e cf b1 98 be d4 e7 ae 3d
       0.42163542 0.13162269 -0.29823157 0.085403115
0002a0 73 88 0b 3e fe 34 42 be c9 27 32 3e 17 f0 13 be
       0.1362627 -0.18965527 0.1739799 -0.14447056
0002b0 6f 90 3d 3e a2 21 c1 be ee 95 63 be f4 af 79 3e
       0.18512128 -0.37720972 -0.22225162 0.24383527
0002c0 e1 70 92 be e6 ad 4c be 3c eb fa bd 86 0c a2 3d
       -0.28601745 -0.19988212 -0.12251899 0.07912545
0002d0 39 97 96 3c b6 af d6 be 33 2d 36 3f 24 a8 df 3e
       0.018382655 -0.41930932 0.7116272 0.4368297
0002e0 96 94 c7 3e de 25 c4 3e 02 2c 00 3f d3 65 54 bf
       0.3898055 0.3831014 0.5006715 -0.8296787
0002f0 a1 51 f6 3e a1 94 9d 3c 36 2e f1 3e aa 9e 3c bd
       0.48109153 0.01923591 0.4710557 -0.04604975
000300 b4 27 a9 be 4b 45 dd 3d df 96 62 bf c3 b0 94 be
       -0.33038104 0.10804232 -0.8851146 -0.29041108
000310 1a 91 89 be ec d3 87 bd 37 f5 36 bf 45 67 de 3c
       -0.26868516 -0.06632218 -0.7146792 0.027148852
000320 12 9a 11 bf f3 26 22 bf d2 51 64 bf 98 14 0a be
       -0.5687572 -0.6334068 -0.8918735 -0.13484418
000330 0d f2 4c bd c9 03 98 3e ca 4a 03 be 5f 2d a8 be
       -0.050035525 0.29690388 -0.12821499 -0.32847115
000340 d8 a2 c5 be 81 17 5d bf 13 d6 63 bf 40 07 9b be
       -0.38600802 -0.8636399 -0.88998526 -0.3027897
000350 58 f2 52 bf 64 7c 26 bf 68 01 f6 be ab 03 10 3e
       -0.8240104 -0.65033555 -0.48047948 0.14063899
000360 68 2f 6a bf 2b bf 9c bd ff fd 4c 3f f3 5e 88 be
       -0.91478586 -0.0765365 0.8007507 -0.2663494
000370 2e da b1 be 02 b3 47 bf 1d d4 37 bf a1 0f 8d 3d
       -0.3473677 -0.7800752 -0.71808034 0.068877466
000380 f2 ed ec be e2 d4 56 3c 1d ef 12 bf c5 2c 38 bf
       -0.46275288 0.013112279 -0.5739611 -0.7194331
000390 0a 89 0d bf ea 5f 18 bf a3 1b 4d bf e2 67 04 bf
       -0.5528723 -0.59521353 -0.80120295 -0.5172101
0003a0 04 7e 5d bf f6 7c 71 bf af c9 73 bf 19 23 9b be
       -0.8652041 -0.943313 -0.9522962 -0.30300215
0003b0 0e a5 98 bf de 3b 06 bf a4 59 52 bf 7a fa 20 bf
       -1.1925371 -0.524351 -0.8216803 -0.62882197
0003c0 39 72 30 be 88 57 5f bf b9 5b 7a bf b5 49 5a be
       -0.17231072 -0.8724294 -0.9779621 -0.2131718
0003d0 a1 f3 be be 47 50 dc be 9a a4 ae bc 15 cf 46 bf
       -0.3729525 -0.43029997 -0.021318723 -0.7765973
0003e0 a0 d8 07 bf 4d 84 aa be 12 00 d9 ba f3 8b 91 bf
       -0.5306492 -0.33304062 -0.0016555807 -1.1370834
0003f0 ff 6f c1 be 46 38 4f bf 6c a4 13 be ac fb 46 bf
       -0.3778076 -0.8094524 -0.1441819 -0.7772777

lstm.weight_ih_l1 f4 [256, 64]
000000 ea ab 83 be a8 f6 de 3e f7 50 f6 be 2a 34 b2 bf
       -0.25717098 0.4354756 -0.48108646 -1.3922169
000010 c7 e9 c6 3f 00 c0 8a 3e 92 e5 4a 3e 6f ee f3 bf
       1.5540093 0.2709961 0.19814137 -1.9057139
000020 0c 59 1e bd 30 d7 ec 3d 9a ae c5 3e 58 2e fc be
       -0.03865914 0.11564481 0.38609773 -0.49254107
000030 13 11 ca be 00 f2 0b bf 6d 85 94 3f 12 46 91 3e
       -0.39466152 -0.5466614 1.1603218 0.28373772
000040 40 68 30 bf 11 3d 89 3e 95 1d eb bf 3e 42 6e 40
       -0.6890907 0.26804402 -1.8368403 3.722793
000050 bc 52 f8 be d2 44 34 bd da 7b 4c 3f 58 88 9e 3e
       -0.4850062 -0.044010945 0.7987648 0.30963397
000060 dd bc 15 be 98 fe 07 3f f2 06 0c c0 7d 09 75 3f
       -0.14622827 0.53122854 -2.187924 0.957176
000070 13 f8 43 3f af 02 4d 3e 1c 0f 19 be 60 a5 bb bf
       0.76550406 0.20020555 -0.1494717 -1.4659843
000080 92 9e ff 3f 1c 3c 80 3f 81 41 16 3f 82 99 3d 3e
       1.9970267 1.0018344 0.586937 0.1851559
000090 d3 ae d2 3d 65 e5 2d bf 45 f8 37 3f f7 fb bf 3d
       0.10287251 -0.67928153 0.71863204 0.0937423
0000a0 2e 49 25 bf c7 0e 66 3f 3c 20 01 bf c6 71 69 3f
       -0.6456479 0.898663 -0.5043981 0.9118923
0000b0 14 dc 3f 3f 6a 9e 9d 3f ad d7 5c 3d f0 23 a7 bd
       0.7494519 1.2313969 0.053916622 -0.081611514
0000c0 8f da ff bf 30 10 1f c0 2f 23 11 bf 8f 8b 20 bf
       -1.9988574 -2.485363 -0.5669431 -0.6271295
0000d0 bd 1d 57 3f 26 da 5f bf e2 f8 ac 3e 0c 88 b8 bf
       0.8402975 -0.87442243 0.33783633 -1.4416518
0000e0 34 1d 05 bf fa a0 62 3e 58 9c a8 3e 90 f6 b9 be
       -0.51997685 0.2213172 0.3293178 -0.36320925
0000f0 3e 7c 4a be bc ca 95 3e f0 1d 1b be c6 91 7a 3c
       -0.19773957 0.29256237 -0.15148139 0.015293544
000100 8c 73 a0 3e cc fb 8c bf 40 4e 52 be ff b5 11 bf
       0.31338155 -1.1014342 -0.20537663 -0.5691833
000110 09 c2 f1 3d 06 14 c9 bf 5a 92 d6 3e 8e 58 e5 bd
       0.118045874 -1.5709236 0.41908532 -0.11198531
000120 d0 cb e8 3e 8d 07 fa 3d 42 71 0c bd 5c f4 32 be
       0.45467997 0.122084714 -0.0342877 -0.17476028
000130 95 af b8 bd 3e 0f 0d bf 02 05 8d 3d 74 79 fd bc
       -0.090178646 -0.5510138 0.06885721 -0.030941702
000140 94 86 2d 3d 3b 1d 52 be e2 34 42 be ef 2a a2 3e
       0.04236467 -0.20518963 -0.18965486 0.3167338
000150 a9 b1 39 3e 1d 68 ef be 2b ed 5e 3c 86 81 84 bf
       0.18134178 -0.4675912 0.01360635 -1.0352027
000160 0d 58 b4 be f8 5f 04 be 8b a3 47 bf b5 7a 0a 3e
       -0.35223427 -0.12927234 -0.7798392 0.13523372
000170 42 3e cc 3d 10 4c 9b 3e 1d d2 0b 3e 85 57 4d be
       0.09972812 0.3033147 0.1365437 -0.20052917
000180 6d df 18 3f ef 14 b8 be 7e ff e5 3d a4 cc af 3d
       0.5971592 -0.3595347 0.11230372 0.08583954
000190 b8 aa b0 bb f3 d3 59 bd 37 55 34 3e 1e 7a 77 3d
       -0.005391445 -0.053180646 0.17610632 0.060419194
0001a0 9b 4e 15 bf 34 f3 39 3e 2f 51 0a bf c8 dc 14 bf
       -0.5832307 0.18159181 -0.54030126 -0.58149385
0001b0 eb d4 ca 3e a6 4a 10 bf 4d 1a b8 bc 7e 9f 7f bc
       0.3961557 -0.56363904 -0.022473479 -0.015601991
0001c0 ea 80 8e 3e 45 7e d3 3d 5e 52 93 be a3 01 59 be
       0.2783273 0.103268184 -0.2877378 -0.2119203
0001d0 bb 63 33 3f b1 f0 b0 3d fb 8a d7 bf 54 cc 06 be
       0.7007405 0.08639658 -1.6839288 -0.13163882
0001e0 4a 2b 44 bf dc ec 10 3d af 31 73 3e 59 3b 5e be
       -0.76628554 0.035382137 0.23749422 -0.21702327
0001f0 4a 41 e3 bc 4c b0 19 3f fb 34 8e bf 09 61 72 bd
       -0.027741093 0.6003463 -1.1109918 -0.05917457
000200 b9 77 1f 3e 7e 22 1f bf 8e 33 02 3e 7f bc 6e 3f
       0.15573014 -0.62162006 0.12714979 0.9325637
000210 4e 13 14 3e 2c 7b 98 bf 84 9d e9 3d d0 36 d1 bd
       0.14460489 -1.1912589 0.11406997 -0.10215533
000220 fa 31 a2 3d 8a d1 9e bc 8a 47 dd 3e ea 82 43 bf
       0.079196885 -0.019387025 0.43218642 -0.76371634
000230 2e 06 c6 3e a1 e2 85 3f 00 bd 05 be 52 09 90 bd
       0.3867659 1.0459787 -0.13060379 -0.07033028
000240 b3 9d 9b 3f 63 f8 c8 3c 89 97 ad 3e 49 02 82 3f
       1.2157501 0.024532503 0.33904675 1.0156947
000250 62 23 10 3e 7c 93 88 3f 02 2a a8 3d cb 67 f2 bf
       0.14075997 1.0670009 0.08211137 -1.8937925
000260 e9 6e 8e 3f e5 1e 08 be 02 c7 29 3f e9 6d c3 be
       1.1127597 -0.13293035 0.66319287 -0.38169792
000270 06 40 4d 3e 40 15 80 bd 86 c8 7c bd 10 cc 07 3f
       0.20043954 -0.06254053 -0.06171467 0.5304575
000280 6a 08 51 bf 48 01 9b be 4a ae 8d 3e 35 20 b0 bd
       -0.81653464 -0.30274415 0.27672035 -0.08599893
000290 04 90 69 be 3c e7 9d 3e 3f be 30 3f 2a 1c 81 3e
       -0.22808844 0.3084048 0.6904029 0.252168
0002a0 91 67 85 3d c3 b3 8b bf cf a7 1b 3f 4c 66 6f 3e
       0.06513894 -1.0914234 0.6080293 0.23378867
0002b0 ee 95 30 bf 14 0e f4 3e 0c 6f a7 3e 75 38 74 be
       -0.68978775 0.4766699 0.3270191 -0.23849662
0002c0 f2 93 07 3d e0 9d 4d 40 9c c6 26 be cb 9a 04 40
       0.033100076 3.212761 -0.16286701 2.0719478
0002d0 23 e2 ae bf 5d 1f 47 3f 4c 30 fb bf e6 40 17 3f
       -1.3662761 0.7778223 -1.9624114 0.590834
0002e0 0e 76 a5 3f 38 5a a2 be 62 89 b1 bf 20 54 83 3f
       1.2926652 -0.31709456 -1.3870051 1.0260048
0002f0 fd 9f 5d bf b9 44 20 bf a1 1b 14 c0 a0 e1 37 be
       -0.8657225 -0.6260486 -2.3141863 -0.17957163
000300 4c 36 e0 3e 7b ec 95 3c 06 55 80 be c2 d6 33 bf
       0.43791425 0.01830124 -0.25064868 -0.7024957
000310 8a 86 2d 3f 86 12 29 3f a9 1c 8f bd 30 73 19 3f
       0.67783415 0.6604389 -0.06987888 0.5994139
000320 d6 c7 cb 3e a1 7c 27 bd 3c df ee be c3 e2 f5 be
       0.398009 -0.04089034 -0.4665469 -0.48024568
000330 8d 5d 8e bf 10 c5 1e be 13 82 a1 3f 49 fe 00 be
       -1.11223 -0.15504861 1.261782 -0.12597002
000340 68 77 87 be 7c 39 10 be 7d 80 88 bf b1 a0 39 bf
       -0.26458287 -0.14084429 -1.0664212 -0.7251082
000350 1f 50 00 3e ba 93 3d 3e 81 83 b3 bf 71 cc f8 3e
       0.12530564 0.18513384 -1.4024507 0.48593476
000360 31 e6 e0 bf 3f c8 c7 be 94 1f fd bf 96 f3 99 bf
       -1.7570249 -0.39019963 -1.9775262 -1.2027462
000370 39 f9 97 be eb 86 1c 3e 4d 2f 33 3e b7 ff 2f 3f
       -0.2968233 0.15285842 0.17498513 0.68749565
000380 30 b5 9d 3f ef c0 b0 bf 67 43 aa be ac 70 2a 3d
       1.2320919 -1.3808879 -0.3325455 0.04161136
000390 e4 c9 f9 bd b9 ef 6d 3e 55 0d b5 bd 62 e6 cc 3b
       -0.12196711 0.23235978 -0.088404335 0.0062530497
0003a0 b7 11 a4 bd d2 fc 43 3f fa b8 f9 bc da 62 00 3e
       -0.08011191 0.7655765 -0.030483712 0.12537709
0003b0 ce 44 98 3e 48 8b 1e 3f b9 07 18 3c fe d3 d1 bc
       0.29739994 0.61931276 0.009279185 -0.025613781
0003c0 52 65 5d 3d ad 52 27 bf cc 20 87 be 51 cd 1b 3f
       0.054051705 -0.6536053 -0.2639221 0.6086016
0003d0 9c 96 d2 bd 14 f8 c9 3f d7 ec 60 be 1d 04 e7 be
       -0.10282633 1.5778832 -0.21965347 -0.45120326
0003e0 23 05 05 be c4 78 81 bd be dc 3d 3f ec ae 8f be
       -0.12990241 -0.06321862 0.7416495 -0.28063142
0003f0 a4 b6 26 3f 80 50 73 bd 9b 36 88 be a5 9a a4 bd
       0.6512244 -0.059402943 -0.2660416 -0.080373086

lstm.weight_hh_l1 f4 [256, 64]
000000 57 dd 3b 3f 3e 4e 3b 3f e0 c9 cd bf 8f 37 74 bf
       0.7338461 0.73166263 -1.6077232 -0.95397276
000010 ca a7 97 39 8e 3e a0 be 28 10 bc be 9f 1f 02 3e
       0.00028925977 -0.31297725 -0.36731076 0.12707375
000020 fa 21 ac be e9 38 42 3f bd 0c 86 be 1a d3 ca 3d
       -0.33619672 0.7586809 -0.26181594 0.09903546
000030 50 ef 4a be 4b fb 63 3f 9e 29 53 bf bb 52 9d 3d
       -0.19817853 0.8905532 -0.8248538 0.07681795
000040 9d 11 a4 be d6 6c ab 3e 80 61 d4 bf 6f cf e5 be
       -0.32044688 0.33481473 -1.6592255 -0.44884822
000050 34 e5 41 bf 42 32 b6 be 90 56 1e 3e 69 3a cb be
       -0.7574036 -0.3558522 0.15462708 -0.39693
000060 7d f3 ba bf d8 33 b0 bd 89 f1 95 3e 60 26 fa 3f
       -1.4605557 -0.086036384 0.2928584 1.9542961
000070 61 c9 31 3e f1 9c af 3f 79 dc 78 3f 57 a8 b1 3e
       0.17361976 1.371977 0.97211415 0.34698746
000080 cf 4d 51 bf a6 06 82 3f 9a c8 18 3e 98 b2 15 bf
       -0.8175935 1.0158279 0.14920273 -0.5847564
000090 71 2c fd be 1e a1 ad be 0e 3b 11 3e 87 d1 b5 3e
       -0.4944797 -0.33911985 0.14182684 0.3551142
0000a0 6d f4 0d 3f 0c b8 fa 3e 8d df c7 3f b6 29 3d 3f
       0.5545109 0.48968542 1.5615097 0.7389177
0000b0 23 d8 1f 3f 90 eb 0d bf b3 71 ce bf 2e 96 2e 3f
       0.62439173 -0.55437565 -1.6128448 0.68197906
0000c0 b9 4f b2 be b7 67 82 3f bf 3f b1 3f 72 08 d3 bf
       -0.3482645 1.0187901 1.3847579 -1.6486952
0000d0 74 06 f2 bd ac c4 9b 3f 69 19 ba bd 6c 20 a9 be
       -0.11817637 1.2169394 -0.09086878 -0.33032548
0000e0 85 1c 11 3f e6 21 6e 3e b8 d3 4a 3f a0 86 d4 be
       0.5668414 0.23255119 0.7922931 -0.4150896
0000f0 7f 75 9e 3f 34 a5 12 3f ce c9 21 3e e9 6d f7 be
       1.2379607 0.5728333 0.15799639 -0.48326042
000100 b1 c7 b4 bd b9 89 8d bf 02 6c c3 be 06 f3 e1 be
       -0.088271506 -1.1057655 -0.3816834 -0.44130725
000110 0e 3e 13 3d 57 a0 91 3e 26 fd c2 be 3b 73 6a 3e
       0.03594785 0.28442642 -0.38083762 0.2289552
000120 e4 5d 80 3e fa 41 5e bd 34 f2 a8 3f 53 33 f8 3e
       0.25071633 -0.05426214 1.3198915 0.48476657
000130 94 42 41 3e 9c 3c ab bd f0 05 df be c7 80 bc 3d
       0.18873054 -0.0836117 -0.43559217 0.0920425
000140 e5 a7 50 3e 20 87 84 3d 50 c5 42 bf ca 7b fb 3d
       0.20376547 0.064710855 -0.76082325 0.1227947
000150 21 be d6 3b cd 39 a8 be 50 03 31 3e 56 78 84 3d
       0.006553427 -0.32856598 0.1728642 0.06468265
000160 cb 90 a4 3d 7b 4b f7 3d ba ae c1 3e 17 38 93 3e
       0.080354296 0.12074944 0.37828618 0.2875373
000170 92 76 fb bd a1 82 62 3e 1e d3 48 3e fb eb 1f be
       -0.12278475 0.22120143 0.19611785 -0.15617363
000180 19 33 8d bf 27 33 b5 3e 82 09 6b 3d ae a7 35 be
       -1.1031219 0.3539059 0.057382114 -0.17739746
000190 c4 6f 95 3e a3 db 49 3e 47 e9 a1 be 05 91 b7 3d
       0.29186833 0.19712691 -0.3162329 0.08963207
0001a0 fb bc 11 3e 22 47 80 3e 26 87 8e 3d 0a 7e b6 3e
       0.14232247 0.2505427 0.06959371 0.35643035
0001b0 ca f2 40 b8 de 29 21 3d 00 f6 78 be e4 b7 cf be
       -4.6002482e-05 0.03934657 -0.24312592 -0.40569985
0001c0 6f 05 bf be 53 a9 6b be c6 30 85 bc 24 63 10 3d
       -0.37308833 -0.23013811 -0.016258609 0.035250798
0001d0 65 0f 7e be 36 db 31 3e d1 15 16 bf 6c 02 08 be
       -0.2481056 0.17368779 -0.5862704 -0.13282174
0001e0 a7 00 86 3e a4 2b 05 be 3a 26 8f 3e 45 c9 b9 be
       0.26172373 -0.13004929 0.27958852 -0.3628637
0001f0 14 a3 a1 3e db cf 8e be 42 23 9e be c2 4b 98 3c
       0.3156973 -0.27892956 -0.30886275 0.018590812
000200 11 27 99 3e f6 b4 35 be da 94 db be 95 d9 d8 bd
       0.29912618 -0.17744812 -0.42887002 -0.105883755
000210 6a ba 44 be e8 88 99 bd c0 83 31 3e e7 7a 2f 3d
       -0.19211736 -0.07496816 0.17335415 0.04284182
000220 7e 8f 86 be 74 54 fc bd 36 71 4c 3f 29 b5 a1 3d
       -0.2628135 -0.12320796 0.79860246 0.07895882
000230 50 ba d8 bb 08 1e 7c 3e 54 42 34 be 76 86 66 3e
       -0.006614007 0.24620831 -0.17603427 0.2251223
000240 0a bf 9e 3e f4 ca 5f ba c3 1c d9 3e 6c b9 e3 bd
       0.31005126 -0.0008537017 0.42404756 -0.11119351
000250 54 77 1c be 37 da 94 be 90 9c 38 3e a2 a1 a7 3d
       -0.15279895 -0.29072735 0.18028474 0.08185126
000260 bb 6d 89 3f 61 38 4d 3e 17 88 db 3c 84 87 50 be
       1.0736612 0.20041038 0.026798291 -0.20364195
000270 19 7b 01 3d 16 37 bd 3e 6b 0b 82 3e e3 58 de bd
       0.031611536 0.3695609 0.25399336 -0.108567975
000280 f1 9c 5a bf 3b 2b 64 3f d3 fa ec 3d c9 ae 50 be
       -0.85395724 0.89128464 0.115712784 -0.20379175
000290 08 81 39 bd 73 7b 42 be 65 37 b2 3e d9 66 fc 3c
       -0.04528907 -0.18992405 0.34807888 0.03081076
0002a0 a1 3a b7 bd e4 54 1d be be 35 45 3d b3 34 67 3c
       -0.089467295 -0.15364414 0.048146956 0.014111686
0002b0 98 3c 31 be 13 21 8d bf 2f f5 59 3d 9e 6e b7 be
       -0.17308271 -1.1025718 0.05321234 -0.35826582
0002c0 1c 17 44 be 58 89 e0 3d 56 91 46 3e 25 a6 0c 3e
       -0.1914944 0.10963696 0.19391379 0.13735254
0002d0 0c 96 8e bd 44 a9 a9 3e a6 f0 c4 3d 24 58 44 3d
       -0.06962213 0.33136952 0.096162125 0.04793562
0002e0 cb 30 03 3e 8b a8 bc 3e f6 a7 60 3d da e6 99 bd
       0.12811582 0.36847338 0.05484768 -0.075147346
0002f0 e7 3e 09 bc 69 28 52 bf 7f 1e 5e 3f 69 c3 9e 3f
       -0.0083768135 -0.8209291 0.86765283 1.2403384
000300 99 6e bc 3d b8 fd 11 3c eb f7 34 be d1 dc 9c bf
       0.09200782 0.008910589 -0.17672698 -1.2254888
000310 07 2a 91 3e 0d 13 5e 3e 25 46 f1 3d 49 ae 42 3e
       0.28352377 0.21686955 0.11780957 0.19011797
000320 b5 46 64 3f f8 51 84 3c 61 c0 ed 3e 5d db 02 3f
       0.8917039 0.016152367 0.46435836 0.5111597
000330 77 0c ca be b1 d0 a1 be 7e 86 3f be 04 e8 f7 bc
       -0.39462635 -0.3160453 -0.18703648 -0.030262
000340 32 95 9d 3f dd 9d e7 3e 04 22 7a 3e fe d8 b9 3e
       1.2311156 0.45237628 0.24427038 0.36298364
000350 39 d6 c1 3d 09 54 c5 be 3e 38 44 3c c4 fd be be
       0.09464688 -0.38540676 0.0119763 -0.37302983
000360 1c 6c 02 bf 23 c0 3e bb 48 2f 81 3e 1c 07 19 40
       -0.5094621 -0.0029106222 0.25231385 2.391059
000370 47 ca 4f be 54 8c e4 3e 4f 48 48 3e 75 11 a3 3e
       -0.20292006 0.44638312 0.19558834 0.31849256
000380 df 55 a8 3d 64 4c 23 3e 99 ee 8c bd 26 05 c1 bd
       0.082195036 0.1594711 -0.068814464 -0.0942481
000390 40 07 98 be 2a 10 b5 3d c6 07 9c 3f 50 ee a4 bc
       -0.2969303 0.08840974 1.2189872 -0.020133168
0003a0 28 7f f7 3e 05 08 9e 3f d8 4d d3 3e 4b d0 f5 3d
       0.483392 1.2346197 0.41270328 0.12002619
0003b0 3d dc ce be 2f 3a 6d be dc b5 1c be 59 04 0c 3f
       -0.40402403 -0.23166727 -0.15303749 0.54694134
0003c0 26 aa 82 be b3 c9 8e be 0d 14 49 bf 2e 1c 36 be
       -0.25520438 -0.2788826 -0.7854622 -0.17784187
0003d0 80 9e cb be d8 da f1 3c b3 04 e1 bd 6d 7f 57 be
       -0.39769363 0.029523298 -0.109872244 -0.21044703
0003e0 9f 6e a1 3e 0d e1 1b 3f a0 c2 81 bd 40 1a 8b be
       0.3152971 0.60890275 -0.0633595 -0.27168465
0003f0 09 c7 f5 3d 5d 7e 12 3f c9 f8 d6 3f ae 57 20 bf
       0.120008536 0.57224065 1.6794673 -0.6263379

lstm.bias_ih_l1 f4 [256]
000000 a0 b0 02 be 97 0f 23 bf a2 79 8e 3e 2b d6 04 bf
       -0.1276269 -0.63695663 0.27827173 -0.51889294
000010 fb a9 e4 be 4d b0 f0 be 15 c2 38 bf 39 a0 3f bf
       -0.44660935 -0.47009507 -0.72171146 -0.74853855
000020 c9 6f 7f be a0 6d 22 bf 84 c1 3a 3e ea 76 15 bf
       -0.24944986 -0.63448524 0.18237883 -0.58384573
000030 f9 fd c7 be a2 42 ea be b3 8d 01 bf 33 24 c7 bd
       -0.39060953 -0.45753962 -0.5060684 -0.09723701
000040 37 35 44 bf c5 44 a5 be f8 6f 87 be f5 88 25 bf
       -0.766437 -0.3227903 -0.26452613 -0.64662105
000050 ba 49 c8 be 98 4c 2e bf 1c a2 02 bf 01 6c 22 bf
       -0.3911875 -0.6808562 -0.5102861 -0.6344605
000060 44 78 ec be 03 9b 30 bf ea 3c 1e bf 0c c1 55 bf
       -0.46185505 -0.6898653 -0.618117 -0.8349769
000070 a9 19 29 bf 51 01 f6 be 43 9f ec be 37 b2 1a bf
       -0.6605478 -0.4804788 -0.46215257 -0.60428184
000080 85 30 bd 3e ef 28 5d bf d3 77 81 be f8 73 15 bf
       0.3695108 -0.86390585 -0.2528673 -0.5838008
000090 c2 b6 32 bf 9d ff 04 bf ca 53 22 bf 94 c6 1c bf
       -0.69810116 -0.51952535 -0.634091 -0.61240506
0000a0 82 40 d9 be d2 ae 62 bf f1 0e eb be fe 26 ec be
       -0.42432028 -0.88548005 -0.45909837 -0.461235
0000b0 da 60 a6 be 3d a0 ca be 94 af 2e bf 88 48 28 bf
       -0.32495767 -0.39575377 -0.6823666 -0.65735674
0000c0 da 1d 44 bf b3 96 27 be 7b 0e 0d bf 50 57 60 be
       -0.7660805 -0.16366081 -0.5510022 -0.21908307
0000d0 65 a3 b9 be e2 8c 91 bd 30 c2 fd be 8a c1 37 bf
       -0.36257473 -0.071069494 -0.49562216 -0.7177969
0000e0 2a d3 e3 be f8 94 0e bf a4 f8 30 3d 72 be b0 be
       -0.44497043 -0.5569606 0.043205872 -0.34520298
0000f0 51 ae 3a be 65 90 5d bf 12 21 d6 be 07 9e 89 bf
       -0.18230559 -0.86548454 -0.41822106 -1.0751351
000100 6a 82 0b 3e 02 c0 f2 be 91 a4 03 bf 8b 40 35 bf
       0.13623968 -0.47412115 -0.51422983 -0.7080161
000110 9f 7c b6 be 9f 9a d8 be 0b 9d e1 be 8c a6 bc be
       -0.35641953 -0.42305467 -0.44065127 -0.36845815
000120 a5 24 27 bf f7 48 00 bf 9c be 16 3f 51 15 c8 be
       -0.6529029 -0.50111336 0.58884597 -0.39078763
000130 d8 81 a6 be d9 a7 cf be b1 fa 67 be 60 a1 31 bf
       -0.32520938 -0.40557745 -0.22654225 -0.69386864
000140 93 00 50 bf 1d f7 39 be 67 a3 ce be 41 c3 d1 be
       -0.81250876 -0.18160672 -0.4035904 -0.4096928
000150 ea 5a d0 be 9d 5e 14 bf b7 c3 95 be d4 36 99 be
       -0.40694362 -0.5795687 -0.2925088 -0.29924643
000160 5f 9d 0c bf e6 58 66 be 11 62 d8 be 4a ec 46 bf
       -0.5492763 -0.2249485 -0.4226232 -0.777043
000170 f8 72 35 bf 45 d0 0f bf 68 37 77 be b3 bb c8 be
       -0.70878553 -0.5617717 -0.2414223 -0.39205703
000180 78 5e ca 3e 39 d9 fc 3b 84 06 38 bf bc 0f 85 be
       0.395252 0.0077163246 -0.7188494 -0.25988567
000190 1e 2d dd be 53 90 bd be b9 3d 9d bf f3 e5 e8 be
       -0.43198484 -0.37024173 -1.2284461 -0.45487937
0001a0 c6 09 ea be af 9a d5 be 9f f0 2a bf d7 7f a9 be
       -0.45710582 -0.41719577 -0.6677341 -0.33105347
0001b0 f9 5b eb be b2 70 0b bf 87 5d d0 be 66 3e d8 be
       -0.45968607 -0.54468834 -0.40696356 -0.42235106
0001c0 e5 ee f9 be 5a d0 6a be 5b 5d 0f bf ef e3 55 be
       -0.48815075 -0.22931042 -0.56001824 -0.20887731
0001d0 8b 01 0a bf d3 3c 3a bf 1c bc db be 3c 0b 16 bf
       -0.53908604 -0.7274906 -0.42916954 -0.5861089
0001e0 26 08 6c be f6 69 9b be 8e c5 60 bf 91 66 3d be
       -0.23049983 -0.3035428 -0.87801445 -0.18496157
0001f0 11 b0 d0 be 58 7e 81 3b 37 df 19 bf 37 60 9c bf
       -0.40759328 0.003951829 -0.60106224 -1.2216862
000200 2e 25 9a 3e 27 ac 39 be a6 bc f9 3e a1 b5 b3 3d
       0.3010649 -0.18132077 0.4877674 0.08774877
000210 70 f5 59 be 66 3f ae bd 27 bd 4a be 84 89 5f 3c
       -0.21285033 -0.08508186 -0.19798718 0.013643626
000220 6d 40 3f be 1b 02 ad bb 38 e6 98 bd 35 05 4f 3c
       -0.1867692 -0.005279792 -0.07465786 0.012635519
000230 c5 43 f9 bd 3d ea e4 3c e9 89 20 3d 95 d9 38 be
       -0.12171129 0.027943725 0.03919402 -0.18051751
000240 03 d1 b3 be a8 e0 bd bd 9a fc 9d 3d fa 21 73 bd
       -0.351204 -0.092713654 0.077141955 -0.059358574
000250 11 16 0a be 31 d5 07 3f 8a f6 33 b9 26 3c 82 3e
       -0.1348498 0.5305968 -0.00017162613 0.25436515
000260 23 24 ab 3c 5a ef fb 3c cc 27 8f 3c c3 e9 80 3e
       0.020891255 0.03075378 0.017475031 0.25178346
000270 e5 0b 4b 3d af 52 83 bd 79 12 02 3e 5c ec 2f bd
       0.04957189 -0.06412255 0.1270236 -0.04295002
000280 d3 4b ec 3e 90 99 fe bd e1 b4 5c bd 17 59 21 be
       0.461516 -0.124316335 -0.053883437 -0.15756641
000290 cf e2 11 3e 81 0b 46 bd 61 2f b1 bd c3 03 ab 3d
       0.14246677 -0.048350815 -0.08651615 0.08350327
0002a0 05 a0 63 bd 58 05 7d be a0 3c 47 bd 19 7c 39 3d
       -0.05557253 -0.2470907 -0.0486418 0.045284364
0002b0 20 c3 a5 3d e2 a3 92 bd d3 b9 02 3d fd 0d 9b bd
       0.08093858 -0.071601644 0.031915497 -0.075710274
0002c0 40 39 25 bd 9a 3d cb 3d 04 57 4b bc c4 e2 98 bd
       -0.0403378 0.09923859 -0.012410883 -0.07465127
0002d0 0a fc c2 be 95 b8 ee be ce 48 37 3d 26 99 d0 bd
       -0.38082916 -0.466252 0.044747166 -0.10185461
0002e0 7a fa 19 bc 9b 1c 8a bc 22 9a 1a 3e f1 79 c4 3c
       -0.009398097 -0.016859343 0.1509786 0.023983927
0002f0 ff 58 51 3e 18 15 4d 3e 76 a8 56 bc c9 12 11 bf
       0.20444106 0.20027578 -0.013101688 -0.5666929
000300 d5 48 bd bd 22 44 ae be f8 b8 44 be b9 73 af be
       -0.09242407 -0.34036356 -0.19211185 -0.34267977
000310 ef 4a 08 bf 68 f9 14 bf 33 89 49 bf a1 bc 49 bf
       -0.5323934 -0.58193064 -0.78724974 -0.7880345
000320 ec 99 f1 be aa 91 2d bf 97 79 7c bf 0b 13 1b bf
       -0.47187746 -0.6780039 -0.9862303 -0.6057593
000330 32 fa 1f bf ad 65 15 bf 36 9c 50 bf bc 69 bd 3d
       -0.6249114 -0.5835827 -0.8148836 0.09248683
000340 f7 d0 06 bf d0 6c 2a bf d3 43 b4 be 02 53 2c bf
       -0.52662605 -0.66572285 -0.35207996 -0.6731416
000350 92 91 a9 be 7d d0 75 bf 19 98 11 bf dd 23 ee be
       -0.33118874 -0.9602125 -0.5687271 -0.46511737
000360 ae 5e a6 bd c7 f0 35 bf cf f0 47 bf 85 48 56 bf
       -0.081235275 -0.7107052 -0.7810182 -0.83704406
000370 7a 36 38 bf 9d 59 ae be bc 2f cd be 6a 0a 27 bf
       -0.71958125 -0.34052745 -0.4007548 -0.65250266
000380 dd f4 4a bf f7 e7 e9 be 3b 5a 43 bd 0c e9 6b bf
       -0.7927988 -0.45684788 -0.047693472 -0.92152476
000390 ab 44 66 bf e6 96 ed be a8 95 00 bf e0 e7 3d bf
       -0.8994853 -0.4640419 -0.5022836 -0.7418194
0003a0 bd 84 ce be a4 92 39 bf 61 aa fe be f6 5b 3f bf
       -0.40335646 -0.7248938 -0.49739364 -0.74749696
0003b0 71 9e 96 be 8c f0 0f be b2 03 55 bf ea 3c 02 bf
       -0.29417756 -0.14056605 -0.83208764 -0.508742
0003c0 91 47 3c bf 1c 4f 72 be 77 69 1b bf 2c 77 93 bd
       -0.735467 -0.2366299 -0.607078 -0.072004646
0003d0 16 e9 c4 be cb e8 45 bf 0c 48 51 bf c7 b0 62 bf
       -0.3845908 -0.7730834 -0.8175056 -0.8855099
0003e0 4e b0 4e bf 77 3e 19 bf 22 0f 21 bd 0f e8 27 bf
       -0.8073777 -0.5986094 -0.039321072 -0.6558847
0003f0 e2 35 09 bf 67 db e6 be 14 2b d7 3e 75 81 cb be
       -0.53597844 -0.45089266 0.42025054 -0.39747205
