Ablation Experiments/LSTM/DoubleDQN-QT-Reward-Delay-IR-Final/64target-network-lstm.pth (torch, 230875 bytes, 12 tensors)

lstm.weight_ih_l0 f4 [256, 10]
00000000: 7651 d1bf fcdc 0140 efa4 ed3f 675f 12bf
00000010: 3115 ea3e 62fa 903f cc13 e7be 9427 7bbf
00000020: f28a 31be 640a 94bf c45d 0ac1 5b82 9a3f
00000030: f4bd adc0 b80b c6c0 ff1c c7c0 3ae9 18bc
00000040: 6e45 11bf 42a5 3bc0 c9ba b2be b548 a13e
00000050: bf22 35bf 0ead 153e 9d33 a1be df2f 0abe
00000060: 426d b7be 5343 313f d9e2 6b3f caeb 03bf
00000070: 0402 69bf e22c 14bf fc4c fdbe a9b3 7f40
00000080: 797e e23e 6858 be40 d67c 9540 4550 813f
00000090: c69e b93f 46c2 a3bf 116f 9cbe 9e18 26bf
000000a0: 412a 5cc0 2703 d7bf 69e9 5cc0 088e 84c0
000000b0: 04c2 a9c0 52a7 bcbf ecbf 98bf a78c 783d
000000c0: 03ec 9e3e 68ad ae3d 8d4b a8c0 dfd2 d240
000000d0: 9a3c 3bc0 9c65 8b40 482f 8040 b13b 1240
000000e0: 2e80 523f 4b7d 37c0 b801 efbe ab7f 003f
000000f0: 9e55 823e 33ac 863e 0f1c 0a3e c287 183f
00000100: ab30 ce3e f2cb 193d 1e1e 093f 0986 00bf
00000110: 02c5 3dbe 29e6 3abf 99b0 0e40 8f71 e4bf
00000120: 2e46 ce3f 71a3 363e 1478 e4be 4824 5d40
00000130: 2170 3a40 3c38 54bf b660 27bf 9a3b 14c0
00000140: 4d1d 7cbf b3a5 5840 fda2 74be ac44 3140
00000150: 8da1 0840 fb22 d03f a5c1 fd3d d697 8bc0
00000160: 4e02 dcbe fd1b ad3e 3c8d 87be ea5f 46be
00000170: 1484 f03d b81e 4ebe dc5e cfbe c535 b7be
00000180: c047 2f3f 980c efbe 5a29 11bf 8aec 9bbf
00000190: c3a9 86be ec9a 9d3f 1da4 243f 124c 533f
000001a0: 6e4d 383f 287a 4cbe a3c0 90bf c734 53bf
000001b0: bcf7 82bf 49e8 fcbe 1fb5 2e3f 66b4 193f
000001c0: 7bbf 49bf 75da 1f40 2a05 0540 6852 0840
000001d0: 732a 3e40 56ff d8be bdca b8be a834 a9bf
000001e0: 0675 93be f7fb b73d 2940 79bf f63c 65bf
000001f0: 7d14 f93d b502 18bf 16a4 8dbf 3414 42bf
00000200: e2a8 243f 1236 7c3e 0f60 5dbf e32b 743d
00000210: f4c5 57be df26 a4be 0fd7 e1be 0d9d c73d
00000220: 8415 bd3d b891 1bbf 05c4 7bbf d1a7 8fbf
00000230: 41d0 d8bf 47b6 153f e557 443f a6a2 a4bf
00000240: 9d50 adbf 32bb c9bf 67cb eebf c4f9 08c0
00000250: 9393 9bbd 641f 2bbf a8ed 22bf 880a 303e
00000260: 4560 68be 2717 b5bb cde9 3cbc 748c aabe
00000270: 0b6d 183f 4928 37bf 74d5 2ebf 6f78 75bf
00000280: 7177 df3e d554 fe3e fb02 9bbd 48bf aa3f
00000290: b1f8 563f 25fa 42bf 3f7b a0bf e98b bb3f
000002a0: ebf3 68bf 1d4a e1be e868 1ebf db88 c43e
000002b0: 1ec2 92be 8ae9 b53e ee03 55be dce9 563f
000002c0: c60a 193e efd5 2ebf 9430 3dbf 98c7 6cbf
000002d0: b390 3fc0 f2e9 da3e 6739 063f bdf9 27c0
000002e0: 54bf 66bf 170d bdbf 11e3 4ac0 e0a2 89c0
000002f0: 32a7 b4bf b0af 6ebf 1782 6ec0 a9d2 903f
00000300: a309 43c0 20f4 1bbf ab8e c3bf f8c8 c53d
00000310: a9c6 cd3e c035 13c0 7b5e 44bf e41a c1bf
00000320: 84e3 6fbe b0f0 d8be 4f33 943f 429e 1abf
00000330: a3e1 52bf c93a 3abf 3a82 67be 9cf7 5b3e
00000340: fb1a 32bf 45af 9fbf c72c 28c0 53c3 a1bf
00000350: e3ee ccbe 8404 07c0 532a 11c0 605c b1bf
00000360: 560e 14c0 7a41 033f 7a32 45bf 3cc2 3abf
00000370: 8d9f 74be b161 923e 85a6 103e cb8e d73d
00000380: 53ca 393e bc53 0940 b02b 943f 573e f1be
00000390: cf7c 26bf 1580 87bf 02d2 6dc0 8cb4 2640
000003a0: 4654 9c3e b17c 3bc0 db72 48be b425 0cc0
000003b0: 5b1d 04c0 7631 46c0 a8c7 a23b ef49 823e
000003c0: 6c7a 343c 7604 bebe d84e 11be 24f5 12bf
000003d0: e00e 47be 11b1 abbd f7d9 ef3d d9f8 303e
000003e0: 8b94 f13d 0c69 ac3e 5c81 90bf b576 afbf
000003f0: a604 aebf 6f0d e2bf ebdf cabf e761 ce3f
-1.6352985 2.0291128 1.8565959 -0.5717682 0.45719293 1.1326411 -0.4513229 -0.98107266
-0.1733816 -1.1565671 -8.647892 1.2071031 -5.4294376 -6.1889305 -6.2222896 -0.009332949
-0.56746566 -2.9319615 -0.3490813 0.31500784 -0.70756143 0.14616796 -0.3148469 -0.13494824
-0.35825545 0.69243354 0.9214302 -0.5153166 -0.910187 -0.57880986 -0.49472797 3.9953406
0.44237116 5.948292 4.671489 1.0102621 1.4501579 -1.2793663 -0.30553487 -0.6488131
-3.440079 -1.6797837 -3.4517462 -4.142338 -5.3049335 -1.4738562 -1.193357 0.06068101
0.31039438 0.08529168 -5.2592225 6.588241 -2.9255738 4.3561535 4.0057716 2.2848933
0.82226837 -2.8670223 -0.46681 0.50194806 0.25455946 0.26303253 0.13487266 0.5958215
0.40271506 0.037548013 0.5356158 -0.5020452 -0.18532184 -0.73007447 2.2295287 -1.7847155
1.6115167 0.17835785 -0.44622862 3.4553394 2.9130938 -0.82898307 -0.65381944 -2.3161378
-0.9848221 3.3851135 -0.238903 2.7698164 2.1348603 1.6260675 0.123904504 -4.3622847
-0.42970508 0.33810416 -0.2647494 -0.19372526 0.11743942 -0.20128906 -0.4050206 -0.3578321
0.68468857 -0.46689296 -0.5670372 -1.2181561 -0.26301393 1.2312903 0.64312917 0.8253795
0.7199315 -0.19968474 -1.1308788 -0.82502407 -1.0231853 -0.4939597 0.6824512 0.6004089
-0.788078 2.4977086 2.0784402 2.1300297 2.971341 -0.42382306 -0.36092177 -1.3219194
-0.2880022 0.08983605 -0.97363526 -0.89546144 0.12162111 -0.5937913 -1.10657 -0.7581208
0.64320195 0.24630001 -0.864747 0.059612166 -0.21071607 -0.32060906 -0.4410939 0.09746752
0.092326194 -0.60769224 -0.9834598 -1.1223089 -1.6938554 0.5848126 0.76696616 -1.2862136
-1.3540226 -1.5760252 -1.8655823 -2.1402445 -0.07596507 -0.66844773 -0.63643885 0.17191517
-0.22692974 -0.0055264416 -0.011530352 -0.33310282 0.59541386 -0.71545845 -0.68294454 -0.9588689
0.43645814 0.49674097 -0.07568928 1.3339624 0.8397322 -0.7616294 -1.2537612 1.4652072
-0.9099719 -0.44001856 -0.61878824 0.38385662 -0.28663725 0.3552974 -0.2080228 0.8395059
0.14945516 -0.68295187 -0.7390225 -0.92492056 -2.9932067 0.4275661 0.5243134 -2.6246178
-0.90135694 -1.476962 -3.170109 -4.301132 -1.4113524 -0.9323683 -3.72669 1.1314288
-3.0474632 -0.6091938 -1.5277914 0.09657472 0.40190628 -2.3001556 -0.76706666 -1.5086331
-0.23426634 -0.4237113 1.1578158 -0.6039773 -0.82375544 -0.7274595 -0.22608271 0.21481174
-0.6957242 -1.2475363 -2.627733 -1.2637733 -0.40026006 -2.1096506 -2.2682083 -1.3856316
-2.313375 0.51271784 -0.77030146 -0.7295263 -0.23888989 0.28590158 0.14126022 0.105252825
0.18143587 2.1457357 1.1575832 -0.47117874 -0.6503419 -1.0585963 -3.7159429 2.6047697
0.30533046 -2.9294856 -0.19575064 -2.1898012 -2.0642917 -3.0967689 0.0049676485 0.25447032
0.011015516 -0.37112778 -0.14190233 -0.57405305 -0.19439268 -0.08383382 0.11711495 0.17282428
0.117959104 0.33673894 -1.1289477 -1.3708102 -1.3595169 -1.766035 -1.5849584 1.6123627

lstm.weight_hh_l0 f4 [256, 64]
00000000: ed2e 703f f741 ca3e 0e0d a43e 455f 7bbf
00000010: 7368 2140 09f5 493f 48c6 82be dbe8 06be
00000020: 0a8c 44bd 58cd ae3e 7a74 8ebd c9cc 0b40
00000030: ea3b 1abe 7037 8f3e a358 b4bf 4c91 543f
00000040: 4943 cabe 62c9 acbe aa53 08c0 74bb 5e3f
00000050: 13cd 38be b717 11be 0edd 0d3f 2c14 ca3f
00000060: 675c f0be a179 d23e 6214 0fc0 e0cb 95bf
00000070: ad57 a43f cef9 07bf 10bb d2bd d665 0440
00000080: f5cf 293f bf5e 3c40 3f22 9d3d 9e46 d9bd
00000090: 06e2 a4bf 4490 0b3f 7404 a33f 6b2f 0d3e
000000a0: c92d cd3e 08f5 72bd 254a febe 4448 89bf
000000b0: 3aa0 0b3e e3af e63e 7ce0 3e40 6d69 d8be
000000c0: 04a4 02bf ed74 cfbe c498 87bf 426f 26bf
000000d0: 3d75 0fc0 84d6 993d 358a c73c 563c b63e
000000e0: 547c e73e 7cb3 6cbe 7203 97bf 6c8f afbe
000000f0: 66af a8bf ee48 2e3f 42f9 573f f389 233e
00000100: 52b8 033f 1bd4 5bbf 9f77 5b3c f311 2d3f
00000110: dc66 893f 7a0e bb3e 64b3 d2be c194 1b3f
00000120: 5f97 3dbf 8948 7f3e da51 a73e 5b2b 82be
00000130: 3b4e 533f 3d32 183f c3bd 42bf 70ac 3bbd
00000140: f94d 603b 56c2 4fbf 0730 da3e 4454 59bf
00000150: 3df6 21be 0e84 b13f 6d36 bc3f f816 e1be
00000160: 0eb8 963e 695c a53f d287 d23e 498f c2bf
00000170: e4f2 853f 80c5 ce3e 52e8 5bbf 5cfe 1840
00000180: 63a7 79be 9ca8 f33f e456 5f3e a996 2fbf
00000190: a8c7 33bf 6884 993f 537d 6ebd 945c 5c3f
000001a0: 0a12 b73f a3b6 9a3d a124 953f 0361 bbbe
000001b0: 8cc1 11bf 9092 26be 6883 e13f 4812 58be
000001c0: d3cb 143f ccf2 d8be 68a9 54bf bf34 41bf
000001d0: d5f7 13bf bf01 b6bf 7627 b73e 0c63 533f
000001e0: b932 8f3f 610a 0ebf 9bd4 a8bf 9bef 993f
000001f0: 0efb 13c0 cd95 16bf 994b 883e 68a1 f73e
00000200: 4004 913c 1fe4 fabe 83e6 20be a191 81bf
00000210: badc 043f 96ce dfbe a802 843e 6e4f aabf
00000220: 8cea 71be d26a 763e cc8c 433e 2241 d2be
00000230: cb12 ef3e 63c1 143e e222 08be deec 6b3e
00000240: ee27 80be 4b21 0f3d a114 08be f3fc 583f
00000250: 9e60 b9be fd28 c43e a4c2 7a3e e385 9bbf
00000260: 9a41 66bf 0d5f 7c3e ea3b 5dbf dd53 a1bf
00000270: 8fe1 1f3f 37dd 233f 2a2e 57bc a047 a7bf
00000280: a619 093e abf7 8fbc 6c0d 1abe 3659 433e
00000290: de29 1abf 54dc 05bf f5c4 873e 5e55 20bc
000002a0: a73d d73d e63e cc3d f4cd 0ebc 320a 8fbe
000002b0: 1826 9f3e 641d 9e3e f503 2bbd 5d18 933d
000002c0: 272b 47bf 869a 2a3c 0532 6ebe cbe1 4a3f
000002d0: 2bd7 133f 1353 0dbf 1f9b 51bf c8f1 313c
000002e0: 2d62 febb f85e cf3d 3ac6 4f3e 1c23 803e
000002f0: 17bb 013f aa33 b93e bdd0 94bf 9475 0abe
00000300: 8138 b8be 848c b03f 0209 373e a2e4 963f
00000310: fe78 11bf e5ab db3f 0e15 a0be f8a3 74bd
00000320: 6b8c db3e 0939 8b3e f42c 893e 6540 373e
00000330: c7b9 243f dc09 c23e 5a79 d9bf 2c07 c53e
00000340: 723a f93e d923 9fbe aec3 04be 8043 3b3e
00000350: c964 c8bd 3a72 433d 2867 3a3f fb2d b3be
00000360: f870 d63e 77c2 45bf 1860 81bf b573 89bf
00000370: 6f45 e53d afd9 be3d 2b39 94bd 8cd1 bb3e
00000380: 9cd4 02bf 0ff3 193f 57f4 8bbf d3f3 6f3c
00000390: a7bc 9cbf bb82 67be d14e cb3d ca9e f93e
000003a0: fc57 6b3f 80a8 99be 5a3b b53e 6e6d d63d
000003b0: 58d1 80bc e184 753f 5c4e 953f d1a7 56bf
000003c0: 363a e43e 82dd c9bf 3ba7 14bf 563f 1e3f
000003d0: a764 64bf ad9b 953f 25a5 32be eb21 b1be
000003e0: c139 73bd dd1c 2bbf 5765 26c0 6d17 9d3f
000003f0: ad41 a5bf b1e3 2ebf 014b a0be c1e5 0d3f
0.93821603 0.39503452 0.3204121 -0.98192245 2.522 0.7888952 -0.25541902 -0.13174765
-0.047985114 0.3414104 -0.0695581 2.184374 -0.15061918 0.27971983 -1.408955 0.83034205
-0.3950446 -0.33747393 -2.1301064 0.8700478 -0.1804698 -0.14169203 0.5541543 1.5787406
-0.46945497 0.4110842 -2.235619 -1.1702843 1.2839257 -0.53115547 -0.102895856 2.0687156
0.6633294 2.9432828 0.076725475 -0.10609172 -1.2881477 0.54517007 1.2735734 0.1378762
0.40073994 -0.05931571 -0.49665943 -1.0725179 0.1363534 0.45056066 2.9824514 -0.42267933
-0.5103152 -0.40518895 -1.0593495 -0.65013516 -2.2415307 0.07511619 0.024357894 0.35592908
0.45212042 -0.23115343 -1.1797926 -0.3428911 -1.3178527 0.6808003 0.8436471 0.15970592
0.51453125 -0.8587052 0.013395219 0.67605513 1.0734515 0.36534482 -0.4115249 0.60773855
-0.740591 0.24930014 0.32679635 -0.25423703 0.82541245 0.5945166 -0.76070803 -0.045818746
0.0034226163 -0.8115591 0.42614767 -0.84894204 -0.15816589 1.3868425 1.470411 -0.43962836
0.29437298 1.2918826 0.41119248 -1.5199977 1.0464749 0.40385056 -0.8590137 2.3905249
-0.24380259 1.903583 0.2181049 -0.68589264 -0.70226526 1.1993532 -0.058224987 0.86078763
1.430238 0.075543664 1.1651803 -0.36597452 -0.56935954 -0.16266847 1.7618227 -0.21100724
0.5812351 -0.4237274 -0.83070993 -0.7547111 -0.57800037 -1.4219283 0.35772294 0.8257301
1.1187354 -0.55484587 -1.3189882 1.2026247 -2.3121982 -0.5882233 0.26620176 0.4836533
0.017702222 -0.49002168 -0.15712933 -1.0122567 0.518993 -0.437123 0.25783277 -1.330549
-0.23624629 0.24064186 0.19096678 -0.41065317 0.46694025 0.14526896 -0.13294557 0.23039576
-0.25030464 0.03494386 -0.1328912 0.8476097 -0.36206526 0.38312522 0.24488312 -1.2150234
-0.8994385 0.24645634 -0.86419547 -1.2603718 0.6245355 0.6400942 -0.013133565 -1.3068733
0.1338869 -0.017574152 -0.15044183 0.19077 -0.60220134 -0.5228932 0.26517454 -0.009785978
0.10509806 0.099729344 -0.008716095 -0.27937466 0.3108375 0.30881798 -0.04175182 0.07182381
-0.7780022 0.010412818 -0.23261268 0.7925078 0.57750195 -0.55204886 -0.8187732 0.010860868
-0.0077631683 0.10125536 0.20290461 0.25026786 0.506761 0.3617223 -1.1626202 -0.13521415
-0.3598061 1.3792882 0.1787453 1.1788523 -0.56825244 1.7161833 -0.31266063 -0.059726685
0.42880568 0.27191952 0.2679211 0.17895658 0.64345974 0.37898147 -1.6990159 0.38482034
0.48677403 -0.31082037 -0.12965271 0.18287468 -0.09784848 0.047716357 0.72813654 -0.34996018
0.41883063 -0.77249855 -1.010745 -1.0738436 0.11194884 0.093188636 -0.072374664 0.3668331
-0.51105666 0.60136503 -1.0933942 0.014645535 -1.2245072 -0.22608463 0.099271424 0.4875396
0.9193113 -0.30011368 0.35396844 0.10470091 -0.015724823 0.9590588 1.1664538 -0.8384982
0.4457566 -1.5770724 -0.58067673 0.6181539 -0.89216083 1.1688133 -0.1744581 -0.3459619
-0.05938125 -0.66840917 -2.5999353 1.2272774 -1.2910668 -0.6831618 -0.31307223 0.554287

lstm.bias_ih_l0 f4 [256]
00000000: a79a d9be 9969 0ebf 5eda 54bf 0390 01bd
00000010: 831e 18bf 52b0 59be 1c03 11bf c2d6 4f3e
00000020: 179a c5be dc76 13bf f8a5 65bf 7200 50be
00000030: 74d8 e33d cbf4 03bf 23d2 4cbe 78df f9be
00000040: b4a0 b3be 16de 2ebf b29e 88bf aefc 78be
00000050: 65f5 28bf 6b8d 0dbf ee32 8bbe c52f 0abf
00000060: 7f0a e03e 25a7 3dbe 88c8 bf3e 6fae 46be
00000070: 8e88 16bf 0337 563e 4519 0abf f60a 263e
00000080: 6d67 0a3e e359 c7bd 2993 fabe e55e 25bf
00000090: 46af 38be 3606 62bf ee29 31bf b671 0fbf
000000a0: e0d2 2bbf 8787 493c eca9 b1be 7ed8 2bbf
000000b0: 9b22 1ebf 3074 e2be a5bf b9be 5788 febe
000000c0: 629f afbe 3a7c 65bf 31ca 5bbf f633 bebe
000000d0: 7174 55be 28e7 c7be c14d 023f f10c 52bf
000000e0: 1cf0 b5be 76ed fcbe 444c 853e 53b5 4cbe
000000f0: b66c 033d 7112 bf3e 8a03 99be c2fc 30bf
00000100: 94db 1bbf f338 f8be 0f02 0cbf 70b7 813d
00000110: ba53 ac3e ff7b 76bd bb64 07bf b92f d7be
00000120: bc73 c7be ca3b cbbe 4234 cfbe 5f89 03be
00000130: 714a 01bf 8750 e4be ebf3 57bf cd58 12be
00000140: b9c2 c4be 90b5 4cbf 92e5 a6bf a741 26bf
00000150: 31b1 0cbf 9383 f9be 1b18 10bf 0144 81be
00000160: 3d5c 083f 15e7 f9be a80c 60be de53 04bf
00000170: 5589 49bf 6237 df3e 7415 f1be 48e9 21bf
00000180: 6e04 493f 8b0b a13e 2ae7 2fbf 4be5 bdbe
00000190: 129c b0be fc63 a2be 54ce 8abf f2e4 abbe
000001a0: 17e5 2ebf 1be7 ec3e 1a1b debe 160d 17bf
000001b0: 6ea1 56bf 8fdd 81be 2ba1 dd3d ecad ebbe
000001c0: 6134 00bf fc78 31bf bab5 f2be fc3a 6bbf
000001d0: 2980 81bf 7859 46bf f425 fa3d e322 65bf
000001e0: e5b9 a03e 49da 20bf b9db 4dbf 410e bf3d
000001f0: 23b8 aa3e 7c96 a03e 37da 03bf d8b3 45be
00000200: 708d de3e 90c5 eb3e fa18 8b3d e7d1 54bd
00000210: 7ac0 88be 10bb 0b3f 80a0 3abc 341d 0c3f
00000220: f762 293e 77a8 e0bd 065a 41be 447a 963e
00000230: 574b a53e f6ce 58be 1093 b63d 7802 47bd
00000240: 3a9f be3d 9107 303d 937d d0be de61 1ebf
00000250: 86bf 0c3f 183a 24be 48ea 4a3e 6de3 a5bd
00000260: e201 673e 75e2 5f3e 99de 923e 7906 033e
00000270: 4717 0a3c 49cb 6cbe ddb5 233d bf06 193e
00000280: 6cfe 2ebe dcdb 9d3e f5ee 6bbe 4c2e 9bbd
00000290: 7e5f d13e eb1e 7e3e 9efc c7be 2016 513b
000002a0: 2534 063e aec7 3c3d e30b 69bd 2318 7ebd
000002b0: 426a bcbc 3550 6cbe 0877 c0be f1ac ff3d
000002c0: 784f 75be f0c9 dbbb 2371 39be e9e4 cdbd
000002d0: b496 803e eec9 99be 14f1 333f 71eb ca3e
000002e0: e57d 8b3e 3019 bf3e b8cb 093f 7eff 58bf
000002f0: 9507 ac3e bf61 333d 7642 ec3e f7a2 3abe
00000300: 6a18 bfbe f4a0 043e aca6 4abf bd8a 0fbe
00000310: e2fd 9bbe b037 27be 6a2d 40bf 78ed 06bd
00000320: 46e9 ecbe 8624 1cbf 37ff 88bf 66c2 acbe
00000330: 5ea4 85bd 6721 d23e ad3b 19bc 9fe0 ffbe
00000340: 5a69 e3be 376a 4ebf cdc4 61bf 78db fbbe
00000350: fa2f 53bf 1e57 15bf 70ee c4be e744 5a3e
00000360: 3c86 4fbf 315a 17be 35cb 143f b74f 6abe
00000370: e9bc 09bf 312f 67bf 8f78 4fbf ec23 513d
00000380: ca6b f1be 4f00 f7bc e578 04bf a1c7 34bf
00000390: 8be0 f6be 50c5 2bbf c084 5ebf 01fa 14bf
000003a0: 70ab 4ebf 9ac2 64bf 0db1 6bbf 24b8 91be
000003b0: 97d3 91bf affb d1be 0b09 38bf f770 16bf
000003c0: cae1 8bbe d95c 75bf 5b38 7dbf f662 adbe
000003d0: 11c5 ebbe 2309 9cbe e106 49bc c0a3 11bf
000003e0: 5fd3 f9be 7b1d 10bf 8496 493d 6742 88bf
000003f0: bea5 e3be 510e 40bf d07a 8e3b c7bb 3dbf
-0.42500803 -0.5562988 -0.831457 -0.03163148 -0.5942156 -0.21258667 -0.5664537 0.20296767
-0.38594124 -0.5760324 -0.89706373 -0.2031267 0.111252695 -0.515454 -0.20002036 -0.48803306
-0.35083544 -0.68307626 -1.067343 -0.2431514 -0.6599944 -0.5529391 -0.27187294 -0.5397914
0.43758008 -0.18520792 0.3745768 -0.19402479 -0.58802116 0.20919423 -0.5394481 0.16215119
0.13516016 -0.097339414 -0.489404 -0.6459792 -0.18035612 -0.8829073 -0.69204605 -0.56032884
-0.67118645 0.012300379 -0.34699953 -0.67127216 -0.61771554 -0.4422927 -0.36279026 -0.49713394
-0.34301287 -0.8964268 -0.85855395 -0.37149018 -0.208452 -0.39043546 0.50899893 -0.82050997
-0.3553475 -0.49399918 0.2603475 -0.19991045 0.032086097 0.37318757 -0.29885513 -0.6913568
-0.60881925 -0.4848095 -0.5469064 0.06333816 0.33657628 -0.060176846 -0.5288808 -0.42028597
-0.38955486 -0.39694053 -0.40469557 -0.12845372 -0.50504214 -0.44592687 -0.84356564 -0.14291687
-0.38429812 -0.7996454 -1.3038809 -0.6494393 -0.5495787 -0.48733196 -0.5628678 -0.25247195
0.53265744 -0.48809114 -0.21879828 -0.5169047 -0.7872518 0.4359694 -0.4708668 -0.63246584
0.78522384 0.3145412 -0.68712103 -0.37089 -0.34494072 -0.31716907 -1.0844216 -0.3357311
-0.68318313 0.4627007 -0.43380052 -0.5900434 -0.8384007 -0.25364348 0.10821756 -0.4603113
-0.50079924 -0.6932523 -0.4740427 -0.9188688 -1.0117236 -0.7748027 0.1221427 -0.8950636
0.31391826 -0.62833077 -0.80413395 0.093288906 0.3334361 0.3136481 -0.51504844 -0.19306886
0.43467283 0.46049166 0.06791873 -0.05195799 -0.26709348 0.5458231 -0.011390805 0.5473206
0.16541658 -0.10969632 -0.18881997 0.29390156 0.32284042 -0.211727 0.08914769 -0.04858634
0.09307714 0.042975966 -0.40720806 -0.61868083 0.5497974 -0.16037786 0.19815934 -0.08100019
0.22559312 0.2186373 0.28685454 0.12795438 0.008428401 -0.23124422 0.03996836 0.1494398
-0.17089242 0.30831802 -0.23040374 -0.0757719 0.40893167 0.24816482 -0.3905992 0.0031904057
0.13105829 0.046088867 -0.0568961 -0.062034737 -0.022999886 -0.23077472 -0.37590814 0.12484158
-0.23956096 -0.0067074224 -0.18109564 -0.10053427 0.25114977 -0.30036873 0.7028973 0.39632753
0.27244487 0.37323904 0.53826475 -0.8476485 0.33599535 0.04379439 0.46144456 -0.18226229
-0.37323314 0.12952024 -0.7916057 -0.14017768 -0.30467135 -0.16329837 -0.75069296 -0.03294131
-0.46271724 -0.6099323 -1.0702885 -0.33742064 -0.06525491 0.4104111 -0.009352607 -0.4997606
-0.44416314 -0.8063082 -0.8819092 -0.4919088 -0.8249508 -0.58336055 -0.38463163 0.21315347
-0.810642 -0.14780499 0.5812257 -0.22881971 -0.5380388 -0.90306383 -0.8104333 0.05105965
-0.4715255 -0.030151514 -0.5174697 -0.7061711 -0.48218188 -0.6709795 -0.8692131 -0.58193976
-0.8073034 -0.8935944 -0.92067033 -0.284608 -1.1392697 -0.41012332 -0.718888 -0.5876612
-0.273207 -0.958448 -0.98914117 -0.33864564 -0.46048787 -0.3047572 -0.012269706 -0.5689049
-0.48794076 -0.56294984 0.04921581 -1.0645264 -0.4446239 -0.75021845 0.0043481365 -0.7411465

lstm.bias_hh_l0 f4 [256]
00000000: 9ea8 01bf 2d1e f1be fa31 47bf 0447 efbc
00000010: 1851 1fbf b7b6 79be 4e30 0cbf 47e0 d23d
00000020: 0dc9 9fbe dc54 2cbf e749 40bf baf0 91be
00000030: a830 90bd 6116 17bf ce9f 3abc 4212 03bf
00000040: 0eb4 aebe 1938 5ebf a2c1 82bf 7b0f e1be
00000050: 9b81 0dbf 8fe4 34bf bbfc b2be fd1e ccbe
00000060: e3dc b93e c43b b0bd 905f b23e 651f 29bd
00000070: 4a4c d0be 64f4 8f3e a1df 05bf 7359 f23c
00000080: fe7c 583e c72b 2ebe cf48 bcbe 2097 26bf
00000090: d494 9dbe ee78 62bf 7532 36bf 2735 0abf
000000a0: 351c 3ebf 1afb 05be bbc8 cabe 0470 16bf
000000b0: a70d 00bf 8e48 fabe 19a1 46be 5d01 15bf
000000c0: a2dd cdbe 10ab 89bf ba22 84bf 4edb a7be
000000d0: 8055 e3be d3c4 adbe 2c94 ef3e fd7b 75bf
000000e0: edf4 a7be ed36 00bf 5f3a c33d 751b 9ebb
000000f0: b067 68bc 2df5 893e 3ff1 bfbe e6f0 5cbf
00000100: 2c84 d2be 8800 febe e83a 05bf 4ae3 403d
00000110: a2d4 633e 64e0 16bc 63cf 0abf 99d6 a1be
00000120: 07bc b0be 5c73 e1be 7255 09bf 6ecf 52be
00000130: 5599 aabe 099e 9fbe c9dd 6ebf 1d2a 00be
00000140: 8a4e 89be 6ba1 4abf d894 96bf c164 3bbf
00000150: 1090 37bf 9647 aebe 11df 1bbf 90d3 12be
00000160: 97bf 303f 38f6 16bf 9027 84be 587f e5be
00000170: b42f 48bf 8ced 023f 066e 95be 59da 21bf
00000180: c9d2 193f 8078 593e 7c7d 34bf 395c 73be
00000190: d5f8 99be ee35 82be 22fd 78bf 69ca cfbe
000001a0: 1bad 08bf 380c d03e b8ce 02bf 5ff6 fabe
000001b0: 5fc9 68bf 3aca cbbe 25c9 213d e21a dfbe
000001c0: 3431 ffbe 17e2 2cbf 826c fcbe 3143 72bf
000001d0: 3391 90bf 7d54 58bf 6eb1 5f3e 0f21 78bf
000001e0: 5647 ce3e 2a75 16bf 79e0 54bf b120 143e
000001f0: f868 aa3e 4d4d ab3e ab7c 30bf 868c 77be
00000200: 4920 cc3e 5630 003f 2b11 b63d cd77 47bd
00000210: 9688 b7be db9e 033f 812b 903c 521d 1f3f
00000220: eed3 1e3e 97fa 86be e8d7 f7bd d17d aa3e
00000230: 5165 e33e f332 7bbe d166 a1bd 6c4b 23be
00000240: 7f7b 573e 180f 023e 551b 93be 0637 20bf
00000250: 29e5 ce3e 8f7e 0ebe 51ef 533e 8d4c 8a3d
00000260: d971 233e 7775 aa3c 8810 f73e f709 883e
00000270: aa76 fb3d 71d5 85be 4867 8dbd 5466 5bbd
00000280: 712c 5ebe 13fb 9f3e 9737 06be 6662 5ebe
00000290: 1a99 d83e 0b62 033e 3ea2 9abe 4b63 b13d
000002a0: 9d82 0b3e a722 42be a8ca 313e 7dbc 15be
000002b0: 4d2f 3e3e 4284 c1be 3921 65be c7cf 7a3e
000002c0: 4b9b 83be 007e 28be 34be f7bd 7f4c 343d
000002d0: 6304 af3c 2468 c4be fc2f 363f bfa3 df3e
000002e0: abfd c73e e804 c63e 8c95 083f 3166 54bf
000002f0: 1e42 f63e e5f5 113d f3d1 e63e b4bc 3cbd
00000300: 9b0d a0be 7771 f33d 9fb7 5ebf c32e 95be
00000310: d8cc 9abe 024e 9bbd c6f5 36bf 4ff0 843c
00000320: 362d 0ebf ebcf 22bf ae64 65bf a2e0 04be
00000330: da16 78bd db90 983e 9a72 c4bd 1457 b4be
00000340: e8fc c5be 5c41 5cbf 5d26 65bf 391f a8be
00000350: c901 53bf 7ecd 26bf d01b e7be b148 0e3e
00000360: 7a40 69bf 004e a1bd 2446 493f b93e 7abe
00000370: df3f b2be 1466 45bf 82a3 38bf 070c 1d3d
00000380: 5dab f0be dc4b 403b bb58 0fbf e004 39bf
00000390: 7c27 0bbf 2666 1bbf a3b3 4dbf 5e5d 0bbf
000003a0: 1f84 5dbf dd3b 75bf 24c5 73bf 0fc1 92be
000003b0: 36b8 98bf 91b3 04bf a736 50bf 1600 1dbf
000003c0: 4414 24be fbf4 60bf 4edb 79bf 6a4a 56be
000003d0: b65f bfbe 24e2 e9be b55c 6ebc 2731 47bf
000003e0: 1091 08bf 272b abbe 9b30 a33c 287c 91bf
000003f0: 79d5 c2be 4acb 4fbf d62d 16be b2d1 46bf
-0.50647914 -0.47093335 -0.77810633 -0.029208668 -0.62233114 -0.24386106 -0.5476121 0.10296684
-0.31208077 -0.67316985 -0.75112766 -0.28503972 -0.070405304 -0.5901852 -0.0113906395 -0.51199734
-0.34121746 -0.8680435 -1.0215342 -0.43957123 -0.5527589 -0.7066125 -0.34958443 -0.39867392
0.36301336 -0.086051494 0.34838533 -0.041289706 -0.40683204 0.28116143 -0.52294356 0.029583668
0.2114143 -0.17008887 -0.367743 -0.6507435 -0.3077761 -0.88465774 -0.7117074 -0.53987354
-0.7426179 -0.13084069 -0.3960627 -0.5876467 -0.5002083 -0.4888348 -0.19397391 -0.58205205
-0.40208155 -1.0755329 -1.0323098 -0.32784504 -0.4440117 -0.33939227 0.46792734 -0.95892316
-0.3280405 -0.5008381 0.09532618 -0.0048250505 -0.014184877 0.26944867 -0.37488744 -0.8630508
-0.41116464 -0.4960978 -0.5204301 0.04709176 0.22249082 -0.009208772 -0.54222697 -0.31609038
-0.34518453 -0.44033325 -0.53646004 -0.2058694 -0.33320108 -0.3117526 -0.9330717 -0.12516065
-0.26817733 -0.79152554 -1.1764174 -0.73200613 -0.71704197 -0.3403899 -0.6088725 -0.14338517
0.6904234 -0.5896945 -0.25811434 -0.44823718 -0.7819779 0.5114372 -0.29185504 -0.632238
0.6008726 0.21237373 -0.70503974 -0.23765649 -0.30072656 -0.2543177 -0.9726125 -0.40584114
-0.5338914 0.40634322 -0.5109668 -0.4901609 -0.9093227 -0.39802724 0.039498467 -0.43575197
-0.49842227 -0.67532486 -0.49301535 -0.94633776 -1.1294311 -0.8450392 0.21845028 -0.96925443
0.402888 -0.5877253 -0.8315502 0.14465596 0.3328321 0.33457413 -0.6894023 -0.24174699
0.39868382 0.50073755 0.08889993 -0.048698235 -0.35846394 0.5141427 0.01759887 0.62154114
0.15510532 -0.2636306 -0.12101728 0.33299115 0.44413236 -0.24531154 -0.07880939 -0.1594674
0.21043204 0.1270107 -0.2873179 -0.6258396 0.4040921 -0.13915466 0.2069676 0.06752882
0.15961398 0.020807965 0.482548 0.26570103 0.12278493 -0.26139405 -0.06904465 -0.053564385
-0.2169664 0.31246242 -0.13107143 -0.21717224 0.42304307 0.12830369 -0.30201906 0.08661517
0.13624044 -0.18958531 0.17362463 -0.14622684 0.18572731 -0.37796217 -0.22375955 0.24493323
-0.25704417 -0.16454315 -0.12096825 0.044018265 0.021364396 -0.38360703 0.7116697 0.43679616
0.3906072 0.38675618 0.5335319 -0.8296843 0.48097318 0.035634894 0.45082054 -0.0460784
-0.3126038 0.11886876 -0.86998934 -0.2913724 -0.30234408 -0.07583238 -0.7146877 0.01622787
-0.55537736 -0.6359851 -0.8960675 -0.12976316 -0.060568668 0.29798016 -0.09592171 -0.35222685
-0.38669515 -0.8603723 -0.8951166 -0.3283632 -0.824246 -0.65157306 -0.45138407 0.13894917
-0.9111401 -0.078762054 0.7862265 -0.2443799 -0.34814355 -0.77108884 -0.72124493 0.03834155
-0.4700574 0.002934209 -0.55994767 -0.72273064 -0.54357123 -0.6070274 -0.8035223 -0.5443934
-0.86529726 -0.9579447 -0.9522269 -0.28662917 -1.1931217 -0.51836497 -0.8133339 -0.61328256
-0.16023356 -0.8787381 -0.9760026 -0.20926824 -0.3737771 -0.45680344 -0.01454847 -0.77809376
-0.5334635 -0.3343136 0.019920638 -1.1366014 -0.38053492 -0.8116957 -0.14665923 -0.7766372

lstm.weight_ih_l1 f4 [256, 64]
00000000: bf6b 81be e923 e93e 5e4e f6be 6920 b3bf
00000010: 5a28 c53f 983b 893e 44bc 503e 9c40 f2bf
00000020: 069c 113c 864e e83d 0747 c53e 3806 f8be
00000030: 5b77 b9be a249 0cbf fb67 983f 7840 8a3e
00000040: 5207 30bf f8cc 863e f174 e9bf 545c 6b40
00000050: f3c8 f8be 5c9a 40bd cc6c 4c3f 62d3 8e3e
00000060: 8370 1dbe 43dc 073f 19fd 0ac0 76dc 763f
00000070: 1915 423f b2a9 753e b197 18be a2a8 babf
00000080: dc75 0040 e4e8 7b3f e6db 0d3f 7743 3d3e
00000090: 0511 c23d 59f1 2dbf d22c 343f 42bf c03d
000000a0: 1c57 25bf b7d3 683f af1e 01bf dbf3 693f
000000b0: f5d8 3f3f bb4b 9c3f 1c73 703d 51e9 a6bd
000000c0: d2b2 00c0 8aff 1ec0 5f8b 11bf 2014 1cbf
000000d0: 3701 583f 3ce9 5dbf e565 b43e 1ba5 b8bf
000000e0: 7221 05bf d6ec 5f3e 540a b23e 77a5 b9be
000000f0: 736f 45be 6413 953e e7a1 08be 7e22 763c
00000100: f692 a03e 402c 8cbf 6b57 50be 9561 10bf
00000110: 03d2 da3d 48a6 c5bf 6f16 d63e 7039 a3bd
00000120: e136 e03e ceaf f93d e786 0abd 0ae9 30be
00000130: 8432 b3bd 280e 0dbf 5613 8e3d dc03 ffbc
00000140: dc6e 2d3d 5467 53be f739 42be 63df 983e
00000150: 3eb4 393e 8775 efbe aea0 4cbd 704a 84bf
00000160: 2238 b4be c091 f6bd 5024 46bf 66c3 013e
00000170: 174e bf3d ddeb 9a3e 53a1 0b3e 4a37 68be
00000180: 92bf 183f 5299 b8be 320a e73d 797e af3d
00000190: e06e b5bb a581 56bd 2748 333e a028 7a3d
000001a0: 834e 15bf b3c5 383e 7351 0abf 984a 15bf
000001b0: 09d5 ca3e 0254 10bf 3642 bbbc 380b 76bc
000001c0: 7e47 b33e be2e d33d 2802 93be cb2d 59be
000001d0: 892a 333f 1b15 aa3d 4223 d7bf 3a81 06be
000001e0: a22a 44bf cb5a 103d 3282 813e 803b 5ebe
000001f0: 8dd7 c7bc e8bc 193f bba5 8dbf 828f 72bd
00000200: 2d3a 203e 55ed 19bf f1bf 073e a4a7 713f
00000210: f0bb 0d3e fe84 94bf 0f8c e93d 4e5d a4bd
00000220: 3215 fc3c 53d9 94bc be53 dd3e 4006 43bf
00000230: f061 c73e f8e7 853f 02d2 0fbe e3d8 8abd
00000240: 0387 9b3f 69ba c63c 8325 af3e e6db 7e3f
00000250: c6e0 0f3e b27a 883f 6b90 12be 7127 f2bf
00000260: 1e65 8e3f 4a42 dcbd 6f0d 2a3f 1404 bcbe
00000270: bb11 4e3e 983a 7dbd 8e75 81bd 4315 923e
00000280: c0a4 50bf c6a7 9abe 7c7a 8d3e 0709 b0bd
00000290: 39cd 5fbe 2a42 9e3e c80b 303f 9d29 813e
000002a0: fb26 853d 3774 8bbf ee9e 1b3f 62f5 823e
000002b0: a189 30bf 8cf8 f33e 5448 a73e 9752 75be
000002c0: f1f9 0d3e 777d 4d40 12ea 25be f507 0440
000002d0: bc8f aebf 12c1 463f a5e7 fabf 9e35 173f
000002e0: 9149 a53f daa2 a2be fc0b aebf d65b 833f
000002f0: 4aa1 5dbf 88f7 1fbf 3cd0 11c0 efc0 37be
00000300: 1f71 d93e 3101 7dbb d7f1 74be 75ab 2dbf
00000310: 04e9 3f3f 081f 233f 2900 87bd 7d7d 193f
00000320: a713 b03e 30b0 42bc ef11 ecbe 02aa fbbe
00000330: 60a7 8fbf 0043 18be 281e a23f 4d6e ffbd
00000340: d785 87be 1bb7 10be ef7b 87bf d75a 35bf
00000350: 6dac f83d 3371 3d3e bc1c bebf 79fa f13e
00000360: c87f dfbf 4408 adbe 6d0e fdbf 63f7 97bf
00000370: 1acb 8fbe a4fb 343e fe94 313e d433 2e3f
00000380: f3f6 9e3f f345 b2bf c502 bbbe e202 323d
00000390: b899 1ebe 5eef 6e3e 545b abbd d417 ff3b
000003a0: a118 a3bd fe79 383f 555c f9bc da90 013e
000003b0: 8619 983e bc07 203f ffaf 863c 0496 19bd
000003c0: a60d bf3d eaad 23bf 09ec 85be d9c6 1a3f
000003d0: 47c6 d6bd 0c44 c83f c7f6 88be 3b44 e3be
000003e0: d94f eebd 2c8f b4bd e779 2c3f f4b3 8ebe
000003f0: c66c 293f bca2 89bd 2f80 99be a106 9abd
-0.25277516 0.4553521 -0.48106664 -1.3994266 1.5402939 0.2680328 0.20384318 -1.8925967
0.008887297 0.11343102 0.38530752 -0.48442245 -0.36223873 -0.54799855 1.1906732 0.2700231
-0.6876117 0.26328254 -1.8238813 3.6775103 -0.48590812 -0.04702221 0.7985351 0.27895647
-0.15374951 0.5307047 -2.1716979 0.96430147 0.7581344 0.23990515 -0.14901616 -1.4582713
2.0071936 0.9840224 0.55413663 0.18482767 0.094759025 -0.6794639 0.7038089 0.094114795
-0.64586043 0.9094805 -0.50437444 0.9138772 0.74940425 1.2210611 0.058703527 -0.0814997
-2.0109143 -2.4843469 -0.5685329 -0.6096821 0.84376854 -0.8668401 0.3523399 -1.4425386
-0.5200416 0.2186769 0.34773505 -0.36259052 -0.19280796 0.29116356 -0.13343011 0.015022872
0.31362122 -1.0951004 -0.20345847 -0.563989 0.10684588 -1.544137 0.4181399 -0.0796994
0.4379187 0.12191735 -0.03382006 -0.17276397 -0.087498695 -0.55099726 0.06937282 -0.03112977
0.042342052 -0.20644885 -0.18967424 0.2985793 0.18135163 -0.46769354 -0.049957924 -1.0335217
-0.35199076 -0.12039518 -0.7739916 0.12672195 0.09341066 0.30258074 0.13635759 -0.22677341
0.59667313 -0.36054474 0.112812415 0.085690446 -0.005536899 -0.052369732 0.17507993 0.0610739
-0.58322924 0.18044166 -0.5403053 -0.58316946 0.39615658 -0.56378186 -0.02285872 -0.015017323
0.35015482 0.1031165 -0.28712583 -0.21208875 0.6998678 0.08304807 -1.6807635 -0.13135234
-0.7662755 0.035242837 0.25294644 -0.21702385 -0.024394775 0.60053873 -1.1066202 -0.05921889
0.15647192 -0.60127765 0.13256814 0.94396424 0.13841224 -1.1603086 0.11403667 -0.08025609
0.030771825 -0.018170035 0.43227953 -0.7618141 0.38941908 1.0461416 -0.14044955 -0.06779649
1.2150577 0.02425881 0.34208307 0.9955429 0.14050588 1.0662444 -0.14312904 -1.8918287
1.1124609 -0.10754831 0.6642675 -0.3672186 0.20123951 -0.061823457 -0.0632125 0.28531846
-0.8150139 -0.30206126 0.2763251 -0.08595472 -0.2185563 0.30909854 0.68767977 0.2522706
0.065015756 -1.0894841 0.6078938 0.25577837 -0.68960005 0.47650564 0.3267237 -0.23957287
0.13864876 3.2107828 -0.16202572 2.0629857 -1.3637614 0.7763835 -1.9601942 0.5906619
1.2913076 -0.3176487 -1.3597407 1.0262401 -0.8657423 -0.6248708 -2.2783346 -0.17944692
0.42469117 -0.0038605446 -0.2392038 -0.6783975 0.7496493 0.63719225 -0.065918274 0.59957105
0.34389994 -0.011882827 -0.46107432 -0.49153143 -1.1222954 -0.14869308 1.2665453 -0.1247221
-0.264693 -0.14132349 -1.0584697 -0.70841736 0.121422626 0.18500213 -1.4852519 0.47261408
-1.7460871 -0.3379537 -1.9770027 -1.1872371 -0.28084642 0.17674118 0.17341992 0.68047833
1.2419113 -1.3927597 -0.3652555 0.04345978 -0.15488327 0.23333499 -0.08367029 0.007784823
-0.07963682 0.72061145 -0.030439535 0.12652913 0.29706973 0.625118 0.016441343 -0.03749658
0.09328775 -0.63937247 -0.26156643 0.6045967 -0.10487037 1.5645766 -0.26750776 -0.44387993
-0.116363235 -0.0881637 0.6737351 -0.27871668 0.661816 -0.06720492 -0.2998061 -0.075207956

lstm.weight_hh_l1 f4 [256, 64]
00000000: 8453 313f 1266 3b3f d4c2 cdbf 83ec 78bf
00000010: a440 443c 0633 9cbe f091 b7be a9a9 e83d
00000020: 5108 8abe 1664 423f cf25 89be 9388 c93d
00000030: d73b 4abe fb29 623f 929e 4ebf c064 683e
00000040: 9cff 9dbe 5ac1 ad3e f078 d7bf c545 e1be
00000050: d8f5 36bf aaa2 b6be 4ee6 123e e2ee d0be
00000060: 852e bbbf 203e c1bd bdec 973e 75f4 f73f
00000070: cc64 313e 405b b53f 5d19 693f deb5 b23e
00000080: 3a8d 53bf 9b98 813f 78f1 393e e315 13bf
00000090: 34fc fcbe c45f a6be 017c 2b3e 1a8b af3e
000000a0: 79e6 163f 8fb8 f73e f861 c73f 5926 393f
000000b0: 0d35 1a3f 41ac 0fbf 6ea0 cebf f16b 113f
000000c0: ca4c b2be 949f 6f3f c9ab ae3f 2837 c5bf
000000d0: 7499 d5bd 94c4 993f 5c68 b5bd 1e82 a8be
000000e0: c62a 083f 5105 663e 7222 5b3f 625f ddbe
000000f0: d526 993f 6ffe 103f c7af fa3d 498a 00bf
00000100: b8fe acbd eb8d 8dbf 2766 c3be 1479 e3be
00000110: a325 123d fc95 913e e209 c3be 05ef 6a3e
00000120: eb2e 733e c957 5dbd ea0b a73f eb1c f83e
00000130: 1e08 413e a8b6 aabd 69f8 debe ce9a ac3d
00000140: 25b5 513e cde9 833d cdb3 41bf 8573 fa3d
00000150: 9279 cf3b 472b a8be 9c43 313e 9918 853d
00000160: a97e a33d f8a5 f73d 7d86 c13e 674a 933e
00000170: 254d fbbd 7eff 613e bbf5 483e c305 20be
00000180: e3a3 8bbf 983b b03e bb2c 763d 2728 36be
00000190: 2c53 953e fc5a 493e 97de a2be de76 b93d
000001a0: 2037 113e 51f8 823e 55f3 8d3d 8411 b73e
000001b0: 89f3 1038 cfc2 233d 71c4 78be 4b02 cfbe
000001c0: 9a07 bfbe 8900 6bbe 559c 82bc 59f3 0a3d
000001d0: 516e 7fbe d4e1 2d3e 0918 16bf 8a0b 08be
000001e0: 8526 863e f4fe 04be fc49 8c3e d4ab b9be
000001f0: 52f8 a23e 6178 8bbe caa5 9ebe 05ab c13c
00000200: 4743 9a3e cb98 34be a440 ddbe 2cc7 22be
00000210: f689 44be b8ca 95bd 9e58 313e 1b28 303d
00000220: 32cc 92be be9e f9bd d552 473f e52f a23d
00000230: 2aef c3bb be0a 7b3e 2ae0 35be abe6 643e
00000240: 6df4 9b3e e240 1fba 9a9f db3e 69ee e3bd
00000250: b63f 1cbe df30 95be f2eb 393e 68ac a73d
00000260: c348 873f 10b1 4d3e 687b ed3c c384 51be
00000270: 6021 013d 3955 bc3e 252f 823e c9cb debd
00000280: ba9f 55bf 7c85 483f e275 003e 0ced 4fbe
00000290: 89eb 3fbd 6ce8 3fbe 00ea b73e fc70 093d
000002a0: e293 b8bd a743 1abe cd25 473d 37c4 823c
000002b0: cbf2 2bbe aabe 8dbf 237a 593d f59f aabe
000002c0: f38a 43be bc83 e23d 8aaa 463e 7eb6 0d3e
000002d0: 7ca6 91bd 11b7 a93e 61b4 c23d 8098 453d
000002e0: d609 043e 472d bc3e ac74 613d b8a2 9ebd
000002f0: f4e9 d1bc 1a4f 4bbf 56f5 5e3f 59a8 9f3f
00000300: b940 323d 6f4a 003c f28f 11be 6642 a0bf
00000310: f1c5 923e d1d8 633e ccbd fe3d d991 353e
00000320: d1c3 6b3f a280 ac3c c2bc f83e 7a73 023f
00000330: 02bd c8be 82a1 9dbe 0d10 3fbe e040 da3d
00000340: 7e7a 9f3f b2a6 ea3e 08e6 803e 17cc bb3e
00000350: 3cee ff3d 22c3 c5be 1406 9cbb da60 c1be
00000360: 5bb5 03bf 9ebd 73bc 8650 813e beb6 1740
00000370: 785d 55be 8d11 d53e 5a73 243e 57c2 a33e
00000380: 617d 513d 9616 1f3e d072 63bd fd1b c1bd
00000390: a1a3 97be ed25 b63d 6fc4 963f 84cb a7bc
000003a0: 29fd fd3e a34f 9c3f b9f7 db3e 1fa6 f23d
000003b0: a1ad d3be 2661 5bbe 6e00 23be aa0b fa3e
000003c0: 3e46 82be 33dc c3be 14fb 4bbf 9a0e e4bd
000003d0: fa46 e4be 6621 6b3d a844 dfbd 9775 57be
000003e0: b032 9d3e 3e0e 143f 485b 153d 5a80 8dbe
000003f0: cc30 d53d 7952 043f ae7a d53f b44b 1dbf
0.6926806 0.7320262 -1.6075082 -0.9723589 0.011978302 -0.30507678 -0.3585353 0.11360485
-0.2695947 0.7593397 -0.26786658 0.098405026 -0.1974939 0.8834531 -0.8071071 0.22694683
-0.30859077 0.33936578 -1.6833782 -0.43998542 -0.7146888 -0.35670978 0.14345667 -0.40807253
-1.4623572 -0.094356775 0.29672804 1.9371477 0.17323607 1.4168472 0.91054326 0.3490438
-0.8263737 1.0124696 0.1815852 -0.5745527 -0.49411166 -0.32494938 0.16746522 0.34285814
0.58945423 0.48382995 1.5576773 0.7232414 0.602372 -0.56122214 -1.6142709 0.5680533
-0.3482421 0.9360287 1.3646175 -1.5407457 -0.104296595 1.2013116 -0.088577956 -0.32911772
0.5319027 0.22462966 0.85599434 -0.43236834 1.1964976 0.56638235 0.12240558 -0.50211006
-0.08447021 -1.1058935 -0.38163874 -0.44428313 0.035680424 0.28434741 -0.38093477 0.22942741
0.23748367 -0.054038797 1.3050511 0.48459563 0.18850753 -0.0833562 -0.43548897 0.08427964
0.20479257 0.06441078 -0.7566498 0.12229065 0.006331631 -0.32845518 0.17310947 0.06498832
0.07983143 0.12092203 0.3779792 0.28767702 -0.122705735 0.22070119 0.19624989 -0.15627198
-1.0909389 0.34420466 0.060101252 -0.17788754 0.29165018 0.19663614 -0.31810448 0.09055875
0.14181185 0.25580075 0.069311775 0.3575555 3.4559085e-05 0.039980706 -0.24293686 -0.40431437
-0.37310487 -0.22949423 -0.015943686 0.03392348 -0.24944426 0.16980678 -0.58630425 -0.13285652
0.26201263 -0.12987882 0.27400196 -0.36263907 0.31830078 -0.2724028 -0.30985862 0.023641119
0.30129454 -0.17636411 -0.4321338 -0.1589629 -0.19193253 -0.07314056 0.17318961 0.043006998
-0.28671414 -0.12188481 0.77860767 0.079192914 -0.0059794383 0.24515817 -0.17761293 0.22353618
0.3045992 -0.0006075037 0.42895204 -0.111294575 -0.15258679 -0.29138848 0.18156412 0.08187181
1.056908 0.20087075 0.028989509 -0.20460801 0.03152597 0.3678377 0.25426593 -0.10878713
-0.8344685 0.7832868 0.12544969 -0.2030527 -0.046855483 -0.18741006 0.35920715 0.033555016
-0.090125814 -0.1506487 0.048620034 0.015962703 -0.16791837 -1.1073811 0.053094994 -0.33325163
-0.19095974 0.110602826 0.19400993 0.13839146 -0.071118325 0.3314748 0.09507061 0.04824114
0.12894377 0.36753294 0.055042908 -0.0774588 -0.025624253 -0.79417574 0.870931 1.2473251
0.043518756 0.007830246 -0.14215067 -1.2520263 0.28666642 0.22250678 0.12438545 0.17731418
0.9209567 0.02105743 0.4858151 0.50957453 -0.39206702 -0.30787283 -0.18658467 0.10656905
1.2459257 0.45830303 0.251755 0.36679146 0.124966115 -0.38625437 -0.0047614668 -0.37769204
-0.514486 -0.014876751 0.25256747 2.3705287 -0.20836437 0.41614953 0.16059628 0.31984207
0.05114496 0.1553596 -0.055529416 -0.094291665 -0.29617026 0.088939525 1.1778697 -0.020482786
0.49607208 1.2211803 0.42962435 0.11848091 -0.41343406 -0.21423778 -0.15918133 0.48837024
-0.25444216 -0.38253936 -0.7967999 -0.111355975 -0.445854 0.057404898 -0.10901767 -0.2104095
0.30702734 0.5783423 0.036464006 -0.27636987 0.10409698 0.51688343 1.6678064 -0.6144364

lstm.bias_ih_l1 f4 [256]
00000000: 37d2 04be ed6d 21bf 9257 8f3e 551b 0cbf
00000010: 12b5 e5be 81d1 f1be e1fc 38bf 5182 40bf
00000020: d6fc 86be 192e 22bf 84c1 3a3e 8a78 15bf
00000030: a346 c6be 1b88 f4be f795 02bf b459 cebd
00000040: 8ae4 39bf b52d a2be c998 80be 0193 25bf
00000050: c16e cebe badf 2dbf 79e7 04bf 3128 23bf
00000060: 2d6c eebe 746a 31bf 5a64 1ebf 6d38 59bf
00000070: bc71 28bf 8721 f5be 3f52 f4be c5c6 1abf
00000080: 5b33 bd3e 96df 67bf 1fb1 90be 7832 15bf
00000090: 685a 32bf a7b4 05bf 14fe 1abf e734 1bbf
000000a0: 9dad dbbe 4ebb 5fbf 79e7 eabe 604e ecbe
000000b0: 950a a9be c00a d6be 4720 2ebf 53b6 26bf
000000c0: b525 44bf 1a18 4fbe 94e4 12bf 304d 95be
000000d0: 9fc6 c9be d49d 94bd 304b ffbe 26c1 37bf
000000e0: 9293 e5be 9eb2 0dbf 9329 103c ee31 b2be
000000f0: 92bd 27be f64e 59bf 78e7 dcbe e6b9 85bf
00000100: 5eaa c23d 8cca f1be f9b9 04bf c3c3 37bf
00000110: fea0 b6be 5bd9 d8be 82b5 e1be 3d3c bdbe
00000120: 472e 29bf 244c 00bf 9cbe 163f 3a21 c8be
00000130: f874 a6be b693 d1be f4a9 68be 42d7 20bf
00000140: 456a 4fbf a0bb 39be 3980 cbbe 83ca d1be
00000150: c7c5 d1be ae4e 14bf 6426 96be bc63 99be
00000160: 7d07 0dbf 72ab 67be 0b3d d8be 77be 46bf
00000170: 5150 35bf 663f 10bf f739 7ebe cbc5 c8be
00000180: b969 ca3e b82d 9c3c 3b42 37bf 1f17 85be
00000190: b014 ddbe e105 bebe 9139 9cbf 5f2f e8be
000001a0: 5618 ebbe 8429 dabe 0531 2abf a3bb a9be
000001b0: 86b7 ebbe aecd 0bbf 4847 d0be 1ace ddbe
000001c0: 27f5 f9be 8437 79be 2f40 10bf 3826 83be
000001d0: a648 09bf 2d93 38bf c7d3 dbbe 1b09 16bf
000001e0: 08d0 6dbe 5f77 9abe e377 52bf fdfc 3dbe
000001f0: dcdb cdbe 28e7 e53c 3583 16bf b9c1 a0bf
00000200: aa93 a13e 7f59 3abe 98c7 f93e 9525 983d
00000210: 28c1 58be 2a19 adbd 5ed5 4abe 194e 4e3c
00000220: 2374 f4bd 57a5 5fbb 38e6 98bd c264 6c3c
00000230: efb3 fcbd c796 d13c fc8c 283d e955 3dbe
00000240: 9c31 aebe 812e bdbd 9c0d f73d d9b6 71bd
00000250: 541d 07be 8adc 073f e71c 78bb e5d3 813e
00000260: 5278 0f3d 8f3b f13c b349 8d3c a377 5a3e
00000270: 4e1e 493d 0ff7 67bd 5877 fe3d eb56 2ebd
00000280: 2c4c ec3e cf26 dfbd 0482 d0bc 6375 21be
00000290: d33b 113e 09d3 42bd f578 9abd 0cb3 ac3d
000002a0: 4450 5ebd f676 77be 4d61 5cbd e5f5 443d
000002b0: 79d1 9c3d 3597 9bbd 4f65 013d 0cf4 2abd
000002c0: 4ceb 25bd f180 c03d e761 aabc 42e8 4cbd
000002d0: ab68 c7be 186b eebe 59d7 3a3d 7512 d1bd
000002e0: 2cce 2dbc b1ed 7cbc db7d 053e 2f43 c13c
000002f0: 5634 5e3e 2cfc 2d3e 9ebc 76bc 1c13 12bf
00000300: a147 debd eb79 a9be 1932 47be fa89 b7be
00000310: 34ce 08bf a180 15bf d1b3 49bf 5390 4abf
00000320: 0d97 fcbe c556 2dbf 7085 7ebf 6016 1bbf
00000330: 7e58 1fbf 1831 1abf 914b 51bf d73d bb3d
00000340: 5e61 02bf 93fd 28bf dc92 aebe 435c 2cbf
00000350: 6fa9 afbe a57c 75bf 43e3 13bf 2a97 efbe
00000360: 548f c7bd a7bd 36bf 960a 48bf 788c 59bf
00000370: bd8f 37bf eda4 b4be ee3e d4be 3a1b 27bf
00000380: a1f0 4cbf 1fa8 ffbe 1f62 88bd 88c2 6bbf
00000390: 88c2 65bf 3400 efbe 9e3c f6be 2c8d 3cbf
000003a0: c11b d1be cd40 3abf 6453 ffbe 0162 3fbf
000003b0: d07e 98be de40 1bbe 4b7f 54bf f98f 00bf
000003c0: d34f 3cbf 0991 8cbe 7dff 20bf 2e14 16be
000003d0: 5059 d5be d38c 43bf cccf 51bf d5af 62bf
000003e0: e754 4fbf 8f7d 1abf f607 75bd 678e 28bf
000003f0: 13fd 00bf 9c81 eabe 1f9c df3e f35c afbe
-0.12970816 -0.6305836 0.27996498 -0.54729205 -0.44864708 -0.4723015 -0.7226086 -0.7519885
-0.26364774 -0.6335159 0.18237883 -0.58387053 -0.38725767 -0.4776009 -0.5101008 -0.10075703
-0.7261435 -0.31675497 -0.25116566 -0.64677435 -0.40318874 -0.67919505 -0.519157 -0.637332
-0.46566907 -0.6930306 -0.61871874 -0.84851724 -0.65798545 -0.47877142 -0.47719 -0.6045955
0.36953244 -0.9057554 -0.28260133 -0.58280134 -0.696692 -0.5222878 -0.6054394 -0.606276
-0.42905894 -0.8739518 -0.45879725 -0.46153545 -0.33015886 -0.41805077 -0.68018 -0.65121955
-0.76620036 -0.20224038 -0.5738003 -0.29160452 -0.39409348 -0.07256666 -0.4986205 -0.71779096
-0.4483915 -0.55350673 0.008798975 -0.34803718 -0.16380909 -0.8488611 -0.43145347 -1.0447357
0.09505151 -0.47224844 -0.5184627 -0.71783084 -0.35669702 -0.4235333 -0.44083792 -0.3696002
-0.6608624 -0.5011618 0.58884597 -0.3908785 -0.32511115 -0.40933007 -0.22721082 -0.6282846
-0.8102153 -0.1813798 -0.39746264 -0.40974817 -0.40971205 -0.57932556 -0.29326165 -0.29958904
-0.5508955 -0.22623995 -0.42234072 -0.77634376 -0.7082568 -0.5634674 -0.248268 -0.39213404
0.39533785 0.01906477 -0.71585435 -0.25994202 -0.43179846 -0.3711386 -1.2205068 -0.4534864
-0.45917004 -0.426098 -0.6648105 -0.33150968 -0.46038455 -0.5461072 -0.40679383 -0.43321306
-0.4881985 -0.24337584 -0.56347936 -0.25615096 -0.5362648 -0.7209957 -0.4293501 -0.58607644
-0.23223889 -0.30169198 -0.8221418 -0.18553539 -0.40206802 0.028064325 -0.58793956 -1.255912
0.3155797 -0.18198203 0.4878509 0.07429043 -0.21167433 -0.08452065 -0.19807956 0.012591862
-0.11936214 -0.003412565 -0.07465786 0.014428319 -0.12339007 0.025584592 0.04115008 -0.18489803
-0.34022224 -0.092373855 0.12063143 -0.059012268 -0.13194782 0.5307089 -0.0037859024 0.25356975
0.035026856 0.029447345 0.017247057 0.213347 0.049101166 -0.056632098 0.12425107 -0.04256336
0.46151865 -0.10896074 -0.025452621 -0.15767436 0.14182977 -0.04756454 -0.07542602 0.08432588
-0.054275766 -0.24166474 -0.05380373 0.048086066 0.07657141 -0.075972 0.031590756 -0.041736647
-0.0405076 0.093995936 -0.020798637 -0.050026186 -0.38947043 -0.4656608 0.045615528 -0.102085985
-0.010608237 -0.015437529 0.13036291 0.023591606 0.21699652 0.16990727 -0.015059618 -0.5706041
-0.10853506 -0.3310083 -0.19452704 -0.35847455 -0.5343964 -0.583994 -0.78790003 -0.7912647
-0.49333993 -0.67710525 -0.9942236 -0.60581017 -0.62244403 -0.6023116 -0.8175593 0.091426544
-0.5092982 -0.66011924 -0.3409642 -0.6732828 -0.34308955 -0.9589332 -0.5776865 -0.46795017
-0.097441345 -0.71383137 -0.7814115 -0.84979963 -0.717037 -0.35282078 -0.41454262 -0.6527592
-0.8005467 -0.49932954 -0.0665934 -0.92093706 -0.89749956 -0.46679842 -0.48093122 -0.7365291
-0.40841487 -0.7275513 -0.4986831 -0.7475892 -0.2978425 -0.15161464 -0.83006734 -0.50219685
-0.735593 -0.27454403 -0.62889844 -0.14656135 -0.41669703 -0.76386756 -0.819577 -0.8854955
-0.80988926 -0.6034784 -0.059822045 -0.6584229 -0.5038616 -0.4580201 0.43673798 -0.34250602

lstm.bias_hh_l1 f4 [256]
00000000: 8c8d 893d 6b29 2dbf 2ad0 643e 113f 2ebf
00000010: 34e4 00bf 6d72 0ebf 977b 37bf ac9e 28bf
00000020: f525 ecbd 34ed 52bf 23f7 7abd d800 22bf
00000030: 37ac 19bf 1a10 0bbf 2ec2 22bf 00a4 ea3a
00000040: 9219 03bf b0a6 a0be 59f0 4ebe c8d7 1cbf
00000050: 9161 5bbe 259f 43bf 8e94 11bf feeb 1abf
00000060: 5305 edbe 7c1a 3abf f2d9 37bf 753c 74bf
00000070: 46a4 29bf 415f 11bf 3b76 c6be 9524 01bf
00000080: 1411 e63e 2056 77bf 05c3 4cbe 9d6a 05bf
00000090: 8517 4abf b0cf c1be 7533 2abf a036 39bf
000000a0: 8fd0 93be 6f9a 4cbf a026 07bf eb80 08bf
000000b0: 2b8f 2abe c7d8 f6be e436 20bf 8ad2 05bf
000000c0: c674 43bf 8642 54be fb76 16bf b1f5 85be
000000d0: 0c9e e5be df31 4cbd 660e 08bf 66d4 39bf
000000e0: 1284 a8be 57eb dcbe cc6a 033e 2973 b5be
000000f0: 5a15 72be ff38 71bf faf6 9abe b163 80bf
00000100: 115e a93d d616 28bf 0878 e8be 684b 4ebf
00000110: 40ae a5be 9503 04bf 90cf 8fbe 86ca c6be
00000120: 063d 1abf 5b5a f0be 9caa 2c3f 25d5 d7be
00000130: 944f bcbe dd1c 09bf d81e e1be 80ba 26bf
00000140: 93f6 4abf 0792 81be 2f96 c1be 02a6 ccbe
00000150: 1cf2 6abe cf6d 1cbf 6b8e 81be 948c a5be
00000160: 1dc2 adbe 5495 7dbe 7466 d0be 8002 2cbf
00000170: b590 29bf d68d 31bf 6534 9dbe 421d b8be
00000180: 2eb6 d23e 6406 34bc 0f8d 4abf 4c35 d2be
00000190: 0de8 cdbe f4be a7be fa78 9fbf 74a0 92be
000001a0: 7d4f 6bbe 9716 debe 634a 3dbf d304 babe
000001b0: 6c49 c9be 0473 d0be e5a3 e9be 0fe9 02bf
000001c0: c688 adbe 5c36 a9be ad74 bdbe 7d83 67be
000001d0: 19d6 23bf a787 2cbf 58ea 77be 8912 fbbe
000001e0: d7dc e2bd 721f edbe e752 5bbf fe5d 8bbe
000001f0: 798a dcbe 3dff 7ebd 3f52 dabe 0a67 a8bf
00000200: 55f0 833e e5de 41be 688b b33e 97fb 9a3d
00000210: 478e 85bd 971a e5bd 0512 5dbe e0de 203d
00000220: 36f2 2dbc 7e93 a2bc 55e2 e1bd 74ee 50bd
00000230: 0919 e1bd 3af4 623e 5f8f 60bd 964f 4cbe
00000240: dac3 b5be 26da 75bc 6fbb 083d b410 82be
00000250: 21bb eabd 236e d03e 147e b13d e161 853d
00000260: bfb9 b03d 362d 313d 8cc2 ab3c c418 3d3d
00000270: ff22 8dbd b20c a4bd 914f 823c b8b4 673d
00000280: eaf0 0b3f 6362 53be 99d6 eb3d 3d79 82bd
00000290: f900 783d e48d 56be 659b 2cbd 8553 523d
000002a0: 6636 aebd efad 5cbe 1ec2 54bd 5263 ec3d
000002b0: 41b1 e63d bc6a cabd 85ef c6bb 6da3 333d
000002c0: d600 19bd ad29 183e 8981 253e fabd 33be
000002d0: a62c 30be 4eb4 2ebf 318a ec3d 53df a5be
000002e0: 4ab7 f83d 6c12 b83a b09e 68bd 1b80 d93d
000002f0: bfbb 493d 5555 813d 61f4 ebbd 2cae debe
00000300: 5eae be3c 6cca c7be 90a1 33be f283 c3be
00000310: 75f4 d2be f429 26bf 741e 26bf 6ec0 3fbf
00000320: a5d3 01bf 26fc 52bf 46b3 87bf 693f 4abf
00000330: 6343 1ebf 4f1f debe ff4e 3cbf c83b 73bc
00000340: 7482 e4be d158 24bf 39b9 c2be 08a6 29bf
00000350: 064b 55be 975b 51bf 2687 f5be b5e8 00bf
00000360: 8e6c 943d b952 2bbf 4783 3bbf 900c 4cbf
00000370: 724a 02bf f208 f9be 7a53 cdbe 2ebc ffbe
00000380: a796 3dbf 9eaa bcbe 80f1 1abe ae1d 66bf
00000390: e039 4bbf fe45 fabe 8fac 09bf 3734 3fbf
000003a0: 5bbc aebe 1d05 53bf 29a0 2fbf 08c2 4bbf
000003b0: 8534 3ebe 7c2a 35be f366 2bbf 5ed5 f2be
000003c0: 2449 36bf 3df4 51be 912f e3be 3a26 37be
000003d0: 6d04 cabe 1fde 1abf 59cf 39bf 2a01 71bf
000003e0: c983 37bf 4c65 2fbf 9cd2 52bd d5e8 05bf
000003f0: a484 b4be e532 03bf 7401 093f d8d5 77be
0.06716451 -0.67641324 0.22345033 -0.6806498 -0.5034821 -0.5564335 -0.7167296 -0.65867114
-0.11530677 -0.82393193 -0.061270844 -0.6328254 -0.60028404 -0.54321444 -0.63577545 0.0017901659
-0.5121089 -0.31377172 -0.20208873 -0.61266756 -0.21423937 -0.7641471 -0.568673 -0.60516346
-0.46293125 -0.7269666 -0.71816933 -0.9540475 -0.66266286 -0.5678597 -0.38762078 -0.50446445
0.44934905 -0.9661579 -0.19996269 -0.52115804 -0.7894214 -0.37853765 -0.6648477 -0.72348976
-0.28870055 -0.79923147 -0.5279331 -0.53321713 -0.16656177 -0.48212263 -0.62583756 -0.5227438
-0.7635006 -0.20728502 -0.587753 -0.2616401 -0.44847143 -0.04985225 -0.5314697 -0.7258972
-0.32913262 -0.431483 0.12833709 -0.35439423 -0.23640957 -0.94227594 -0.30266553 -1.0030423
0.08269895 -0.65659845 -0.45404077 -0.8058381 -0.32359505 -0.51567966 -0.28088045 -0.38826388
-0.60249364 -0.46943936 0.6744783 -0.42154804 -0.36779463 -0.53559667 -0.43968844 -0.65128326
-0.7928249 -0.25306723 -0.37809893 -0.39970404 -0.2294392 -0.61105055 -0.2530397 -0.32333815
-0.3393716 -0.24763995 -0.40703166 -0.67191315 -0.6623643 -0.6935705 -0.30704036 -0.35959822
0.41154617 -0.010987852 -0.7912149 -0.41056287 -0.40216103 -0.32762873 -1.2458794 -0.2863804
-0.22979541 -0.4337661 -0.7394163 -0.36331806 -0.3931383 -0.4071275 -0.45632854 -0.5113687
-0.33893412 -0.33049285 -0.3700308 -0.22608753 -0.6399856 -0.6739449 -0.24210489 -0.4903758
-0.11077278 -0.46313053 -0.85673374 -0.27220148 -0.43074396 -0.062255133 -0.42640874 -1.3156445
0.25769296 -0.18932684 0.35067296 0.07567518 -0.06521278 -0.11186712 -0.21588905 0.03927505
-0.01061683 -0.01984572 -0.110294975 -0.051008657 -0.10991103 0.22163478 -0.05482423 -0.19952235
-0.35500985 -0.015005624 0.033381876 -0.25403368 -0.11461473 0.40709028 0.086666256 0.065128095
0.08629178 0.043256007 0.02096679 0.046166196 -0.068914406 -0.08010234 0.01590708 0.05656883
0.5466448 -0.20643 0.11515541 -0.063707806 0.060547803 -0.20952564 -0.042140383 0.05134918
-0.085064694 -0.21550725 -0.051942937 0.11542381 0.11264277 -0.09883639 -0.0060710334 0.043857027
-0.037354313 0.14859648 0.16162695 -0.17552939 -0.17204532 -0.68243873 0.115497954 -0.32396945
0.121443346 0.0014043576 -0.05679196 0.10620137 0.049251314 0.06315104 -0.11521221 -0.43492258
0.023276504 -0.39021623 -0.175421 -0.38186604 -0.4120213 -0.64907765 -0.6489022 -0.74903
-0.5071357 -0.82416 -1.0601585 -0.79003006 -0.61821574 -0.43383262 -0.7355804 -0.014845796
-0.44630778 -0.64198023 -0.3803194 -0.6626897 -0.208294 -0.8178038 -0.47954673 -0.5035508
0.07247268 -0.669231 -0.7324719 -0.7970667 -0.50894845 -0.48639637 -0.4010275 -0.49948257
-0.74058 -0.3684892 -0.15131187 -0.8988904 -0.79385185 -0.48881525 -0.5377893 -0.7468905
-0.3412808 -0.8242968 -0.6860376 -0.79592943 -0.18574722 -0.17691988 -0.66953963 -0.4742841
-0.71205354 -0.20503326 -0.44372228 -0.17885676 -0.39456502 -0.6049518 -0.7258201 -0.941424
-0.71685463 -0.6851394 -0.051470384 -0.523084 -0.35257447 -0.51249534 0.5351784 -0.24202669
